preTrained/GAIL_pretrained_5600_actor.pth (torch, 541220 bytes, 8 tensors)

net.0.weight f4 [256, 3]
-0.19609816 -0.5930174 -0.33391452 0.3497249 0.7842695 -0.38229766 0.50544226 0.16439627
-0.63683933 -0.5380046 0.2523402 -0.016847368 0.085172266 -0.20799652 -0.18337676 0.21298715
-0.21881056 -0.033128254 -0.21800011 0.5474541 -0.13409765 -0.38801232 1.0825669 -0.12872015
-0.71381634 0.2771919 -0.46773115 -0.57640654 -0.11286821 -0.5175201 -0.532375 -0.61025184
0.21848054 -0.37211177 -0.049115784 -0.50887877 -0.1757155 -0.92156655 -0.17718528 -0.31130725
0.13340162 0.18206297 0.44661632 0.48327938 -0.35714725 -0.6258835 1.0295838 -0.1729689
-0.6881595 0.30820635 -0.13679847 -0.23972298 0.2831785 0.32459545 -0.42464158 0.5794449
-0.06164927 0.06853094 -0.28949445 -0.48635125 -0.164133 -0.53467983 -0.21513514 -0.21272266
-0.1233166 0.18517973 -0.20463149 0.9367081 -0.50826037 -0.3756207 -0.53519773 0.40959227
0.13234164 0.4391382 -0.66037583 0.44419828 0.37980103 -0.44525787 0.0169013 0.21792628
-0.6194029 -0.074866675 0.11933016 -0.015030597 -0.066823244 -0.016580755 0.3888815 -0.012089813
-0.5493944 -0.6070794 0.10626687 -0.10346133 0.38366047 -0.2413643 -0.0018896739 -0.5715544
0.56883943 -1.0655495 0.39218417 -0.33437735 0.38976443 -0.1938867 -0.68389183 -0.20619881
-0.2173446 -0.4409936 0.060193684 -0.093307294 0.3144527 0.09194365 -0.1568457 -0.7207928
0.85209596 -0.5075653 0.19613416 -0.31436777 -0.42347863 -0.122348055 0.50737584 -0.780004
0.14062761 0.4878109 -0.26037693 -0.058417764 0.48078403 -0.2791625 -0.37140083 0.7917047
-0.41129336 -0.24328601 0.38727063 0.21412753 0.023519756 -0.50637954 -0.40570736 0.054453045
-0.4840755 -0.4530352 -0.75972 0.60782224 -0.090140216 0.20095259 -1.306857 0.27038103
-0.478705 -0.3502175 -0.04117487 -0.439794 -0.12617962 -0.022283707 -0.29124814 1.1191913
-0.23202609 0.50459224 0.5907154 -0.1797433 -0.53088397 0.16551593 0.20323259 -0.00830348
0.57246786 -0.49458218 0.30051732 -0.57792884 0.10194273 0.12033142 -0.19101593 -0.46069643
0.34127814 0.021480512 0.32744378 -0.060236603 -0.61722165 -0.044735044 -0.37802646 0.48371586
0.44327092 -0.74938554 -0.31944025 0.22076839 -0.3031946 -0.7161607 -0.17985828 -0.28034043
-0.11450918 -0.1853133 -0.24485546 0.83590543 -0.16707326 -0.35743594 -0.20293072 -0.33116388
0.20757692 0.91150683 0.36130625 -0.44400084 -0.40850094 0.030862398 -0.06363494 0.107071884
-0.59480244 -0.24875489 -0.2407955 -0.028144749 -0.20709607 -0.9822612 -0.42198676 -0.77485794
0.28527263 0.025381595 -0.24755427 -0.49349752 -0.5533338 -0.07369798 0.49032933 -0.34289545
-0.62356204 0.70320207 -0.38617134 0.33477288 -0.07304239 -0.08554555 -0.04874005 -0.6181645
0.14749087 -0.35183054 -0.3597739 -0.23155743 -0.061906278 0.15117525 0.13312079 0.07809092
0.20449367 -0.3482511 0.22243972 0.31489226 0.3835991 -0.30220458 0.14123106 0.22853243
-0.23230933 -1.0665972 0.20557855 -0.47628525 0.08021107 -0.34239537 0.27787915 0.09456041
0.2691375 0.21170118 0.262884 -0.6095946 0.24046606 -0.1575128 -0.5628282 -0.05604949
00000000: f5cd 48be fdcf 17bf d8f6 aabe 240f b33e
00000010: e3c5 483f 85bc c3be aa64 013f 7f57 283e
00000020: e707 23bf abba 09bf bc32 813e 7e03 8abc
00000030: cc6e ae3d 0afd 54be 1ec7 3bbe 4e19 5a3e
00000040: e00f 60be 7eb1 07bd 6c3b 5fbe f425 0c3f
00000050: e550 09be 8da9 c6be 8d91 8a3f 37cf 03be
00000060: abbc 36bf 19ec 8d3e 757a efbe 618f 13bf
00000070: 7327 e7bd 337c 04bf ba49 08bf 7739 1cbf
00000080: 5db9 5f3e 6f85 bebe a22d 49bd e145 02bf
00000090: c4ee 33be c9eb 6bbf 0f70 35be aa63 9fbe
000000a0: 6f9a 083e b76e 3a3e e5aa e43e 6570 f73e
000000b0: 01dc b6be e739 20bf 67c9 833f c21e 31be
000000c0: 392b 30bf 39cd 9d3e e614 0cbe f179 75be
000000d0: c6fc 903e 6031 a63e 9f6a d9be 8056 143f
000000e0: f283 7cbd f359 8c3d 9e38 94be 0803 f9be
000000f0: 7b12 28be c7e0 08bf 634c 5cbe f8d3 59be
00000100: 6a8d fcbd c19f 3d3e eb8a 51be 1acc 6f3f
00000110: 5a1d 02bf 5b51 c0be b802 09bf 14b6 d13e
00000120: 9184 073e b9d6 e03e 640e 29bf f56d e33e
00000130: 4875 c23e d7f8 e3be 9874 8a3c 1128 5f3e
00000140: 3091 1ebf b353 99bd 5f63 f43d e542 76bc
00000150: a0da 88bd 5dd4 87bc 7a1b c73e 5a14 46bc
00000160: 1da5 0cbf 8e69 1bbf 72a2 d93d 89e3 d3bd
00000170: 256f c43e 3428 77be efae f7ba 6451 12bf
00000180: 769f 113f ed63 88bf 5dcc c83e 8233 abbe
00000190: 348f c73e 3c8a 46be 8913 2fbf c825 53be
000001a0: 958f 5ebe eac9 e1be a78d 763d e517 bfbd
000001b0: f2ff a03e f44c bc3d 299c 20be e085 38bf
000001c0: f622 5a3f cdef 01bf 65d7 483e d0f4 a0be
000001d0: 31d2 d8be 9e91 fabd 62e3 013f 58ae 47bf
000001e0: af00 103e 5ac2 f93e 2050 85be 7747 6fbd
000001f0: 5329 f63e 63ee 8ebe 4028 bebe 29ad 4a3f
00000200: 0b95 d2be f81f 79be 5648 c63e 3f44 5b3e
00000210: 81ac c03c 17a2 01bf e0b8 cfbe 280a 5f3d
00000220: bed8 f7be 3bf4 e7be 037d 42bf 3d9a 1b3f
00000230: 6f9b b8bd 84c6 4d3e 1747 a7bf 626f 8a3e
00000240: d218 f5be b54f b3be fba6 28bd ae2c e1be
00000250: 3b35 01be 528c b6bc 7a1e 95be a941 8f3f
00000260: 3f98 6dbe f52c 013f 2039 173f a10e 38be
00000270: 03e8 07bf 027d 293e 341c 503e 520b 08bc
00000280: 418d 123f e039 fdbe 68dd 993e 25f3 13bf
00000290: 5ac7 d03d 5270 f63d ae99 43be 67e0 ebbe
000002a0: 02bc ae3e e6f7 af3c b6a6 a73e a8ba 76bd
000002b0: 3d02 1ebf 183c 37bd af8c c1be 9ba9 f73e
000002c0: 68f4 e23e bbd7 3fbf ac8d a3be 1c11 623e
000002d0: 533c 9bbe 4f56 37bf c52c 38be c888 8fbe
000002e0: ca83 eabd c5c2 3dbe 64bb 7abe e6fd 553f
000002f0: 4115 2bbe d801 b7be 12cd 4fbe 508e a9be
00000300: 0b8f 543e 8358 693f 22fd b83e 1454 e3be
00000310: 0927 d1be 24d3 fc3c 0953 82bd 8148 db3d
00000320: f944 18bf 9ab9 7ebe 1893 76be d18f e6bc
00000330: fe10 54be 7875 7bbf a60e d8be 175d 46bf
00000340: 410f 923e 10ed cf3c de7e 7dbe b5ab fcbe
00000350: 49a7 0dbf f7ee 96bd 720c fb3e fe8f afbe
00000360: c3a1 1fbf 0d05 343f 40b8 c5be 5a67 ab3e
00000370: 4097 95bd 8132 afbd a6a3 47bd 0740 1ebf
00000380: d907 173e 2223 b4be 4934 b8be 641d 6dbe
00000390: 7091 7dbd afcd 1a3e d150 083e 22ee 9f3d
000003a0: ca66 513e f84d b2be 3dc7 633e 8f39 a13e
000003b0: 1a67 c43e 8fba 9abe e09e 103e 6804 6a3e
000003c0: 7fe2 6dbe 4286 88bf 2f83 523e a9db f3be
000003d0: b445 a43d 724e afbe 2d46 8e3e e3a8 c13d
000003e0: 64cc 893e 32c8 583e bb98 863e 640e 1cbf
000003f0: bc3c 763e 094b 21be 8215 10bf 2694 65bd

net.0.bias f4 [256]
-0.13312863 -0.13205191 0.02658382 -0.1607954 0.05444731 0.16308339 -0.037266802 0.118419394
0.44101432 0.45058066 -0.010937571 0.38193667 0.3618331 -0.0033241222 -0.1782227 0.26278496
0.25949064 -0.4388118 -0.28280044 0.1666862 0.08120373 -0.21467057 0.12551115 -0.16557732
0.1817534 -0.22627243 0.09958525 -0.5535991 -0.5141759 0.21872751 -0.495698 0.070993684
-0.2418498 0.03346478 0.32512698 0.19273168 -0.18594563 0.34274936 0.069449775 0.32890144
-0.5283772 -0.25134042 0.17740582 -0.23879026 -0.3370514 0.12744415 0.19954607 0.00060694624
0.0345549 0.14179145 0.11553486 -0.16803937 -0.06789196 -0.32026348 0.1211824 -0.032369234
-0.4098299 -0.05061671 -0.18280052 0.11240764 0.089933135 -0.06397642 -0.0022377712 -0.39857304
-0.36253947 0.19770946 0.021031547 -0.2613871 0.3960776 0.2154098 0.29071772 -0.029882958
0.274535 -0.13116995 -0.1509952 0.18813436 -0.30219713 0.09652057 -0.36409232 -0.43397617
0.25020558 0.24610439 -0.40689918 0.21030249 0.13617785 -0.12922257 -0.11211213 0.060163006
0.17972355 -0.25415793 -0.02707112 -0.49582002 0.011812762 0.026712423 0.19183083 0.3660016
-0.06612844 0.3451286 0.05971935 -0.04913816 -0.2954696 -0.2658734 0.017051008 -0.42565185
-0.090175696 -0.4079345 0.06307785 -0.039813496 -0.11458968 0.0677865 0.2864469 -0.42544472
-0.530248 -0.0152353635 -0.31286317 -0.06977951 -0.18483825 0.18077539 -0.025020594 0.0021478722
-0.2926922 -0.017479207 -0.18187414 -0.18880697 0.277005 0.23834187 -0.24307738 0.08286275
-0.3001477 0.1965316 -0.09452137 0.1525675 -0.15290515 -0.12989108 -0.12151666 -0.21161975
-0.12253136 -0.17662059 -0.17774253 -0.51269597 -0.195579 -0.3243069 -0.29420188 -0.1719401
-0.49120945 -0.48755187 0.051398627 -0.28994983 -0.34736198 0.06440428 -0.46744472 -0.32195404
-0.11033768 0.25240332 0.13591407 -0.13288315 -0.26468518 0.22806202 -0.17068806 0.079068385
0.09527302 -0.23273084 0.24652031 -0.029597975 0.41942033 -0.06058476 0.34422997 -0.1500103
-0.12248569 -0.33707327 0.038245574 0.0060343063 0.007279712 0.3250658 -0.17750953 0.062401384
-0.2575809 -0.20217907 0.28497913 -0.4211436 -0.29363635 -0.45541173 -0.1360669 0.13420536
0.13059169 0.40507242 -0.4556797 -0.10950832 -0.21803519 0.11298294 0.14323701 0.04767974
-0.009839154 0.084488295 -0.30253232 -0.1861051 -0.5613732 -0.40575194 -0.05771559 0.29742256
0.17509119 -0.25701478 -0.53296167 -0.14888982 -0.4620466 0.3183098 -0.241251 -0.09528093
-0.060151868 0.013698059 -0.323926 -0.559373 0.078740634 0.14395529 -0.25595903 -0.10237845
0.37922204 0.06583633 0.15482834 0.17615026 0.19310857 -0.10913132 -0.19780815 0.05925833
0.15566324 -0.04122676 -0.51303726 0.032930564 0.29316968 -0.20841543 0.22330369 0.12409245
-0.3061876 0.25423273 -0.26861686 0.30939567 0.21568523 0.32300195 0.03906772 0.23179118
0.058088314 0.022566931 -0.008997703 0.281947 0.036719143 0.11369943 -0.5100288 -0.294905
0.25387126 -0.22304201 0.1726411 0.22591095 -0.25365946 -0.24339662 0.1415437 -0.0036302686
00000000: df52 08be 9e38 07be 50c6 d93c 8da7 24be
00000010: 2404 5f3d 55ff 263e 13a5 18bd de85 f23d
00000020: a1cc e13e 82b2 e63e 7f33 33bc 348d c33e
00000030: 3042 b93e 84d9 59bb 0380 36be c08b 863e
00000040: f5db 843e f1ab e0be 38cb 90be caaf 2a3e
00000050: 244e a63d 9ad2 5bbe ff85 003e 1a8d 29be
00000060: 901d 3a3e f6b3 67be 5af3 cb3d acb8 0dbf
00000070: 08a1 03bf 1bfa 5f3e 21cc fdbe 2365 913d
00000080: 79a7 77be 5d12 093d 0b77 a63e 745b 453e
00000090: 8868 3ebe d87c af3e af3b 8e3d c565 a83e
000000a0: ba43 07bf b1af 80be dfa9 353e 6f85 74be
000000b0: 0092 acbe b880 023e ce55 4c3e 791b 1f3a
000000c0: 7089 0d3d c731 113e 8a9d ec3d 8312 2cbe
000000d0: f10a 8bbd 93f9 a3be 7a2e f83d 9a95 04bd
000000e0: 3ad5 d1be 7853 4fbd 0f30 3bbe fa35 e63d
000000f0: dd2e b83d 1206 83bd 92a7 12bb c411 ccbe
00000100: c69e b9be 5974 4a3e 5a4a ac3c 88d4 85be
00000110: afca ca3e 6394 5c3e f4d8 943e 1bcd f4bc
00000120: da8f 8c3e 6a51 06be 7c9e 1abe 4ba6 403e
00000130: 95b9 9abe 94ac c53d 4f6a babe 2032 debe
00000140: f21a 803e ca02 7c3e 1755 d0be 8959 573e
00000150: 3572 0b3e ec52 04be 0b9b e5bd 7c6d 763d
00000160: 7309 383e fd20 82be 41c4 ddbc 1fdc fdbe
00000170: 518a 413c 03d4 da3c 4d6f 443e 9064 bb3e
00000180: 596e 87bd b2b4 b03e 479c 743d 1845 49bd
00000190: cb47 97be 8f20 88be 8eae 8b3c 0aef d9be
000001a0: 09ae b8bd cadc d0be f62e 813d 7a13 23bd
000001b0: ffad eabd a6d3 8a3d 2ba9 923e e4d3 d9be
000001c0: 55be 07bf bf9d 79bc 9a2f a0be 8fe8 8ebd
000001d0: 3d46 3dbe 2f1d 393e fdf7 ccbc 51c3 0c3b
000001e0: c1db 95be 8e30 8fbc 373d 3abe 9d56 41be
000001f0: 99d3 8d3e e40f 743e 47e9 78be f2b3 a93d
00000200: f6ac 99be 943f 493e 6c94 c1bd a83a 1c3e
00000210: 2b93 1cbe 2b02 05be badd f8bd d9b2 58be
00000220: b9f1 fabd 07dc 34be 2302 36be 0b40 03bf
00000230: dd45 48be 8e0b a6be a1a1 96be 1111 30be
00000240: ce7f fbbe 66a0 f9be 5e87 523d 4e74 94be
00000250: 6ed9 b1be 64e6 833d ea54 efbe 29d7 a4be
00000260: b9f8 e1bd 023b 813e 0f2d 0b3e 8512 08be
00000270: d184 87be 1789 693e dac8 2ebe 9bee a13d
00000280: 801e c33d fe50 6ebe d26f 7c3e 7477 f2bc
00000290: 43be d63e ba27 78bd e93e b03e 4d9c 19be
000002a0: c7d9 fabd de94 acbe 64a7 1c3d 6ebb c53b
000002b0: a68a ee3b 066f a63e 0fc5 35be 9898 7f3d
000002c0: a5e1 83be 0808 4fbe c9e8 913e 22a0 d7be
000002d0: 8157 96be ba2b e9be 1f55 0bbe 216d 093e
000002e0: d4b9 053e a765 cf3e da4e e9be e645 e0bd
000002f0: 9e44 5fbe 9a63 e73d b9ac 123e d54b 433d
00000300: 6734 21bc 3308 ad3d 84e5 9abe 5692 3ebe
00000310: 27b6 0fbf b8be cfbe 2f67 6cbd c547 983e
00000320: 1b4b 333e 7197 83be 2d70 08bf 9376 18be
00000330: 5f91 ecbe 81f9 a23e 810a 77be a622 c3bd
00000340: ce61 76bd d36d 603c a1d9 a5be 1233 0fbf
00000350: c542 a13d 0469 133e 100d 83be cbab d1bd
00000360: 6429 c23e 33d5 863d 528b 1e3e bc60 343e
00000370: 41be 453e 3e80 dfbd 388e 4abe ddb8 723d
00000380: 2f66 1f3e 64dd 28bd 6956 03bf 33e2 063d
00000390: 561a 963e db6a 55be b9a9 643e 2f24 fe3d
000003a0: 9fc4 9cbe cb2a 823e 2688 89be 1c69 9e3e
000003b0: 97dc 5c3e 8360 a53e 7905 203d ab5a 6d3e
000003c0: 03ee 6d3d 49de b83c 1a6b 13bc 5b5b 903e
000003d0: d066 163d 3fdb e83d 3f91 02bf cafd 96be
000003e0: 6afb 813e 2065 64be d4c8 303e 3355 673e
000003f0: a7df 81be f73c 79be d5f0 103e cde9 6dbb

net.2.weight f4 [256, 256]
-0.043556467 0.0013390058 -0.17484017 0.027658764 -0.030194456 -0.0122449035 0.00132842 0.003287516
0.19768 0.11683047 -0.056395493 -0.048869785 0.018860588 0.079923116 -0.002635335 0.08634642
0.059512503 0.06162733 0.045828477 -0.000257633 -0.08746166 0.011561498 0.2206088 -0.024638548
0.009756216 -0.020590156 0.032200895 -0.040461376 -0.015501298 0.045986794 0.06050343 0.05503321
-0.01448337 0.033597097 -0.03131893 0.04809107 0.043601707 0.1257523 -0.029064598 0.02906936
0.06281188 -0.03012511 0.0060033742 -0.04820524 0.018132158 -0.06812913 0.049782228 0.023955364
0.046487007 0.0023585705 0.04031566 -0.012594311 0.06182202 -0.006458226 -0.029924393 -0.041004844
-0.020052142 -0.13647293 0.046739846 0.039003313 -0.17293751 -0.005240323 0.043993123 0.02495411
-0.061979055 -0.2080318 -0.00655371 0.017768912 -0.21222895 0.04641704 -0.14075267 0.0628204
0.046852577 -0.030039791 -0.08488735 -0.111905456 -0.004046425 -0.024900744 0.0201212 -0.06056068
0.008139094 -0.048308566 0.038344346 0.0226842 -0.0030262969 -0.07537795 0.027124325 -0.0070773535
-0.022977777 -0.009645351 0.014132831 -0.02684395 0.043821607 -0.06036165 -0.04646601 -0.061767645
0.01850907 -0.13033065 0.020474669 -0.12853138 0.029465161 0.049185406 -0.011971229 0.041350264
-0.050516438 0.04464463 -0.012099081 -0.00074413745 -0.031110091 0.004120663 0.021382526 0.016446248
0.058761984 -0.29205728 0.028929368 -0.16073993 -0.16221541 -0.050263405 0.0031589658 0.03871198
-0.0020389173 -0.1042176 -0.015386928 -0.05585013 -0.05180734 -0.0963398 -0.06942413 -0.09056282
-0.062428452 -0.0626726 -0.051147103 -0.015948981 0.056852706 0.021328695 0.09401263 -0.0072228634
0.07253536 -0.018920531 -0.006332664 -0.085168466 0.030077666 -0.03932439 -0.074108325 0.008647879
-0.050871685 -0.0025862802 0.046329584 -0.047625802 0.01769726 -0.015344 0.0071969233 0.027683131
-0.0893714 -0.04137888 -0.08603274 0.030553307 -0.0019620955 -0.13163279 -0.06755753 -0.024519263
-0.11860636 -0.06173098 -0.08299358 -0.0311769 -0.03827698 -0.0632238 -0.1892806 -0.02286829
0.023054184 0.04789601 -0.035422303 -0.15271093 0.046443157 0.00044338402 0.038787153 -0.05009609
-0.24749441 -0.010448628 -0.0060227024 -0.061724856 0.026260145 -0.012456243 -0.1644259 0.012688176
0.010690182 0.019052945 -0.046976432 -0.0341264 -0.025558995 0.060726967 -0.2625389 0.0072843377
-0.15727982 -0.019955883 0.061849855 -0.012335071 -0.005275242 -0.15957625 0.040892962 0.008740813
-0.0071652667 -0.029539242 0.017325431 0.02547409 0.05161963 -0.029928613 -0.09222426 0.04741647
-0.074585244 -0.0939251 0.040034395 0.0508442 0.0031554878 0.030629016 -0.062055796 -0.026225202
0.068440445 -0.10878723 -0.0448361 0.033415623 -0.0659651 0.014110011 0.015363677 -0.02385486
0.013021581 -0.0436617 -0.03373655 -0.018630132 0.007444742 -0.032602947 0.07477918 -0.021197367
0.01254123 -0.052493088 0.02043732 -0.015215395 0.0033555857 0.09435052 0.013821865 -0.047009565
0.0015615303 0.010583672 -0.056942012 0.014803434 -0.045684826 -0.049173344 -0.0036093637 -0.05689964
0.043514397 0.024888918 -0.0103698075 -0.046911303 0.021410353 0.026080197 -0.013645258 0.011025553
00000000: 4468 32bd 9481 af3a 4d09 33be a294 e23c
00000010: 5d5a f7bc d99e 48bc 611e ae3a 5e73 573b
00000020: a06c 4a3e d044 ef3d f6fe 66bd af2b 48bd
00000030: 8581 9a3c bbae a33d 96b5 2cbb 64d6 b03d
00000040: 62c3 733d f06c 7c3d a4b6 3b3d ea12 87b9
00000050: 191f b3bd 706c 3d3c 46e7 613e c8d6 c9bc
00000060: 89d8 1f3c b0ac a8bc 16e5 033d d4ba 25bd
00000070: 28f9 7dbc a65c 3c3d 72d2 773d 816a 613d
00000080: a84b 6dbc 1c9d 093d 4748 00bd 24fb 443d
00000090: b497 323d 36c5 003e e118 eebc de22 ee3c
000000a0: 84a3 803d efc8 f6bc f4b7 c43b dc72 45bd
000000b0: e489 943c 4987 8bbd 73e8 4b3d 0a3e c43c
000000c0: 2969 3e3d 3f92 1a3b 0922 253d 5e58 4ebc
000000d0: 1639 7d3d 879f d3bb 0024 f5bc b2f4 27bd
000000e0: 6444 a4bc 8fbf 0bbe 4872 3f3d f0c1 1f3d
000000f0: 8816 31be 04b7 abbb 2232 343d 906c cc3c
00000100: c0dd 7dbd 4a06 55be 81c0 d6bb 1c90 913c
00000110: 8c52 59be cb1f 3e3d 7821 10be fba7 803d
00000120: 7de8 3f3d 0216 f6bc 6bd9 adbd b02e e5bd
00000130: e097 84bb a5fc cbbc 37d5 a43c 7a0e 78bd
00000140: d659 053c 34df 45bd f60e 1d3d 37d4 b93c
00000150: d654 46bb c15f 9abd d533 de3c 25e9 e7bb
00000160: e43b bcbc 8907 1ebc 648d 673c d8e7 dbbc
00000170: 497e 333d c73d 77bd 2553 3ebd 1200 7dbd
00000180: 55a0 973c 6675 05be 7eba a73c bb9d 03be
00000190: ec60 f13c a376 493d f922 44bc e55e 293d
000001a0: 53ea 4ebd 4add 363d 393b 46bc 3812 43ba
000001b0: 97da febc a006 873b 682a af3c 48ba 863c
000001c0: 68b0 703d 8888 95be 48fd ec3c 0299 24be
000001d0: cc1b 26be 00e1 4dbd a706 4f3b 7490 1e3d
000001e0: 5b9f 05bb 0970 d5bd 7419 7cbc 1bc3 64bd
000001f0: ef33 54bd cd4d c5bd 3d2e 8ebd 0079 b9bd
00000200: fab4 7fbd 7e5a 80bd a07f 51bd 70a7 82bc
00000210: 62de 683d 84b9 ae3c b289 c03d c5ad ecbb
00000220: 6b8d 943d 3bff 9abc 3c82 cfbb ce6c aebd
00000230: 7065 f63c 9d12 21bd 1bc6 97bd d5af 0d3c
00000240: d45e 50bd 957e 29bb 17c4 3d3d 4613 43bd
00000250: d8f9 903c 6765 7bbc 2bd4 eb3b bcc7 e23c
00000260: 5a08 b7bd e77c 29bd ef31 b0bd ee4a fa3c
00000270: 8096 00bb bfca 06be 9a5b 8abd 9fdc c8bc
00000280: e4e7 f2bd a0d9 7cbd 8af8 a9bd b366 ffbc
00000290: 53c8 1cbd 7b7b 81bd c6d2 41be 4856 bbbc
000002a0: 21dc bc3c 9b2e 443d fa16 11bd 4160 1cbe
000002b0: 2e3b 3e3d ff75 e839 47df 1e3d 8f31 4dbd
000002c0: 2d6f 7dbe b930 2bbc 175a c5bb 34d3 7cbd
000002d0: 841f d73c 4515 4cbc 435f 28be 11e2 4f3c
000002e0: e025 2f3c ec14 9c3c 5c6a 40bd 20c8 0bbd
000002f0: 1961 d1bc d7bc 783d 806b 86be 74b1 ee3b
00000300: f60d 21be 857a a3bc 4656 7d3d 0a19 4abc
00000310: f0db acbb f567 23be 617f 273d a035 0f3c
00000320: 9dca eabb 48fc f1bc 10ee 8d3c 0aaf d03c
00000330: 1b6f 533d da2c f5bc 13e0 bcbd c637 423d
00000340: 26c0 98bd ce5b c0bd 1bfb 233d 0242 503d
00000350: 4dcc 4e3b b4e9 fa3c 382e 7ebd 3cd6 d6bc
00000360: 812a 8c3d d7cb debd 0fa6 37bd d2de 083d
00000370: b618 87bd ad2d 673c efb7 7b3c 446b c3bc
00000380: 7858 553c 9cd6 32bd 562f 0abd 389e 98bc
00000390: 06f3 f33b ab8a 05bd d425 993d 1aa6 adbc
000003a0: bb79 4d3c fe02 57bd 2b6c a73c fe49 79bc
000003b0: 63e9 5b3b d83a c13d 1b75 623c 1a8d 40bd
000003c0: 43ac cc3a 2367 2d3c 073c 69bd 1a8a 723c
000003d0: 0320 3bbd fd69 49bd 138b 6cbb 990f 69bd
000003e0: 273c 323d d8e3 cb3c 20e6 29bc 1126 40bd
000003f0: c464 af3c 23a6 d53c 5c90 5fbc 85a4 343c

net.2.bias f4 [256]
-0.018498205 -0.03452244 -0.059113413 -0.04834861 0.015458536 0.0200145 -0.0050487537 -0.019464774
-0.057361223 0.021437135 0.0059553846 -0.01969872 -0.020351574 -0.023300763 -0.06789764 0.015771747
-0.030786602 0.013167751 -0.013728513 0.024629682 -0.024491828 -0.030497666 -0.011476221 -0.037849497
-0.07002533 0.020821702 -0.05999534 -0.016166972 -0.004157948 0.034195356 -0.09432011 -0.06575311
-0.05127781 0.0331614 -0.045428347 -0.11856048 -0.0888377 0.011511648 -0.049561072 0.0013579581
-0.05899205 -0.03339305 0.015062283 0.0027991924 0.009421312 0.030130938 -0.058789577 0.023791239
-0.019664709 0.01199564 -0.024372062 -0.040899903 -0.06566843 -0.0018517929 -0.036955234 -0.023889191
-0.015773082 -0.056162044 -0.049420133 -0.06294321 0.08820212 -0.007639134 -0.04951179 -0.070742875
-0.07203869 -0.012747011 -0.072930224 -0.041218158 0.0105329435 -0.0005299332 -0.064056404 0.09885715
-0.07521479 -0.032609798 -0.026448634 0.017344827 -0.06562999 0.021957396 -0.025171798 -0.019195057
-0.06393899 0.046673723 -0.03530685 0.14228608 -0.059661098 -0.013516192 0.06955644 0.010663977
-0.027216293 -0.054486394 -0.033445176 -0.0054812003 -0.02516214 -0.009973336 0.018034058 -0.0075049475
-0.0562976 0.011822354 -0.0069177863 -0.016954925 -0.04255342 0.040252477 -0.06412605 -0.00081816607
-0.07668577 -0.046201706 -0.051900085 -0.11341303 0.010119038 -0.061578654 0.027460067 -0.051303923
0.019551326 -0.030618161 -0.040194176 -0.06609899 -0.0043367683 0.00064729206 -0.0034831804 -0.07111623
-0.0055157216 -0.03736517 -0.01676677 -0.028289506 0.014610629 -0.08666134 -0.071026236 -0.032563012
-0.029713789 -0.07546169 0.013572494 0.023918625 -0.038543336 0.00050825084 0.0001028578 -0.03226634
0.022406328 -0.053682152 -0.07244657 0.009777488 -0.09348422 -0.08373411 -0.0048471508 -0.060540833
-0.016135082 -0.0062458105 0.036777183 -0.04663723 0.0056915153 -0.044164367 0.02022491 -0.024512028
-0.030194042 -0.052429967 -0.05687753 -0.017474776 -0.003190792 -8.462802e-05 0.19449587 0.010161759
0.040389776 -0.05960424 0.019504013 -0.025038742 0.0085987495 0.013559616 -0.046901517 -0.05579421
-0.0428436 -0.055304978 -0.0643905 -0.003995062 -0.021811776 0.009655537 -0.013881385 -0.13304967
-0.03781328 0.01505913 -0.075983085 -0.061741326 -0.018148871 0.08297153 -0.017210625 -0.1249637
-0.033458102 -0.07560771 -0.01668837 0.05790546 -0.010494238 -0.07196572 0.007110696 -0.11942996
-0.007926241 -0.06960652 -0.028538534 -0.020184936 0.00031881902 -0.013196454 -0.056878097 -0.07309783
-0.06735226 -0.060695216 -0.041371554 -0.008886415 -0.019954791 -0.003860793 0.034451835 -0.06886776
0.0039582383 -0.022147153 -0.0741736 -0.0063201617 0.008000324 -0.0240693 -0.06511907 -0.021151418
0.010392596 0.035313323 0.006236759 -0.056105897 -0.0932428 -0.05694144 0.01933948 -0.051687546
-0.005920365 -0.12139601 -0.0072373487 -0.00038671482 -0.066305615 -0.04076246 -0.03820309 -0.073353544
-0.010954167 -0.021525191 -0.0127984565 -0.020044293 0.01854677 -0.019634107 0.029022189 -0.04463863
-0.09361861 0.0090045305 0.0005274745 0.011791545 -0.002054379 -0.049511187 -0.035935983 -0.058243144
-0.03646651 0.0134313805 -0.065938935 -0.03372084 -0.0095397495 -0.008576212 -0.01204087 -0.0025129265
00000000: 8c89 97bc 6767 0dbd e820 72bd 3109 46bd
00000010: cd45 7d3c 73f5 a33c 0470 a5bb 9774 9fbc
00000020: 9af3 6abd ee9c af3c 6325 c33b 365f a1bc
00000030: 58b8 a6bc 3ee1 bebc eb0d 8bbd c033 813c
00000040: 2f34 fcbc 8dbd 573c 8fed 60bc 30c4 c93c
00000050: 16a3 c8bc 3ed6 f9bc c206 3cbc 1308 1bbd
00000060: 7169 8fbd 4692 aa3c acbd 75bd 9970 84bc
00000070: 653f 88bb 6e10 0c3d e72a c1bd 91a9 86bd
00000080: ae08 52bd 40d4 073d 1313 3abd d6cf f2bd
00000090: 8af0 b5bd 5a9b 3c3c 8d00 4bbd 83fd b13a
000000a0: a6a1 71bd 27c7 08bd cbc7 763c a872 373b
000000b0: d95b 1a3c 28d5 f63c 57cd 70bd d8e5 c23c
000000c0: e217 a1bc 5c89 443c eba7 c7bc a886 27bd
000000d0: 2b7d 86bd dcb7 f2ba 5f5e 17bd 44b3 c3bc
000000e0: 8d36 81bc 2c0a 66bd c46c 4abd 5fe8 80bd
000000f0: 50a3 b43d b351 fabb e0cc 4abd a4e1 90bd
00000100: 0589 93bd d7d8 50bc 715c 95bd 5fd4 28bd
00000110: 5e92 2c3c 37eb 0aba 0130 83bd 9e75 ca3d
00000120: 360a 9abd da91 05bd ceaa d8bc bd16 8e3c
00000130: 0469 86bd ffdf b33c 1635 cebc f43e 9dbc
00000140: 72f2 82bd f22c 3f3d ea9d 10bd 71b3 113e
00000150: 325f 74bd 0573 5dbc 9b73 8e3d f6b7 2e3c
00000160: b4f4 debc 202d 5fbd cffd 08bd a49b b3bb
00000170: d520 cebc 3467 23bc 29bc 933c 10ec f5bb
00000180: 5098 66bd 8cb2 413c 99ae e2bb 0ee5 8abc
00000190: 7f4c 2ebd c8df 243d 8554 83bd 327a 56ba
000001a0: 6e0d 9dbd 003e 3dbd 2f95 54bd 1745 e8bd
000001b0: 52ca 253c e639 7cbd eff3 e03c 1024 52bd
000001c0: 1a2a a03c f0d2 fabc a6a2 24bd e85e 87bd
000001d0: 731b 8ebb 09af 293a 1246 64bb 63a5 91bd
000001e0: 3abd b4bb 380c 19bd 775a 89bc 65bf e7bc
000001f0: 6b61 6f3c 807b b1bd 3476 91bd cb60 05bd
00000200: 556a f3bc a98b 9abd 2a5f 5e3c fef0 c33c
00000210: 9edf 1dbd 233c 053a 5cb5 d738 b629 04bd
00000220: 7a8d b73c d1e1 5bbd de5e 94bd c231 203c
00000230: a874 bfbd ca7c abbd d9d4 9ebb aaf9 77bd
00000240: b82d 84bc a8a9 ccbb aca3 163d ae06 3fbd
00000250: e47f ba3b b2e5 34bd b6ae a53c 73cd c8bc
00000260: 7f59 f7bc cec0 56bd 6af8 68bd 4327 8fbc
00000270: 9b1c 51bb 537a b1b8 ed29 473e 827d 263c
00000280: c06f 253d 9323 74bd e1c6 9f3c 0c1e cdbc
00000290: c5e1 0c3c 2729 5e3c ce1b 40bd 7888 64bd
000002a0: c57c 2fbd 7987 62bd 2bdf 83bd 02e9 82bb
000002b0: 9cae b2bc 4232 1e3c c06e 63bc 2c3e 08be
000002c0: 19e2 1abd 92ba 763c 059d 9bbd 79e4 7cbd
000002d0: f1ac 94bc faec a93d 4cfd 8cbc f8ec ffbd
000002e0: 5d0b 09bd 37d8 9abd 0cb6 88bc 472e 6d3d
000002f0: 06f0 2bbc c362 93bd d700 e93b b297 f4bd
00000300: 10dd 01bc dd8d 8ebd a5c9 e9bc e15a a5bc
00000310: 2a27 a739 f135 58bc 02f9 68bd 51b4 95bd
00000320: fbef 89bd 8c9b 78bd 3875 29bd 5398 11bc
00000330: 3b78 a3bc 5c05 7dbb 5e1d 0d3d 8a0a 8dbd
00000340: 1cb4 813b f26d b5bc 54e8 97bd 5c19 cfbb
00000350: ca13 033c fb2c c5bc 265d 85bd bd45 adbc
00000360: b545 2a3c b4a4 103d ba5d cc3b 4ccf 65bd
00000370: 15f6 bebd 6d3b 69bd d46d 9e3c 52b6 53bd
00000380: 9fff c1bb 799e f8bd 4827 edbb fcbf cab9
00000390: 3dcb 87bd 8af6 26bd d87a 1cbd 623a 96bd
000003a0: 1b79 33bc 9955 b0bc 9eb0 51bc ee33 a4bc
000003b0: 65ef 973c b5d7 a0bc f1bf ed3c ffd6 36bd
000003c0: 1dbb bfbd bd87 133c 3746 0a3a 5331 413c
000003d0: c3a2 06bb 3ecc 4abd 9c31 13bd 5d90 6ebd
000003e0: e85d 15bd 4b0f 5c3c fe0a 87bd dd1e 0abd
000003f0: 9c4c 1cbc 3e83 0cbc 1247 45bc e9af 24bb

net.4.weight f4 [256, 256]
-0.03609317 -0.022467477 -0.024845868 -0.07036867 -0.10171376 -0.05217493 0.018314693 -0.011856703
0.121137604 0.029117089 -0.04252957 -0.052377567 0.012963757 -0.025340647 -0.011733428 -0.012888182
-0.028420152 -0.09422342 -0.020197148 -0.030157132 0.028007725 0.007864891 0.06854472 0.16250496
-0.044164494 0.23969316 -0.06839752 -0.012148279 0.05082911 -0.054731317 -0.2855039 0.046141144
-0.00036628544 -0.06970087 -0.040160924 -0.3554997 -0.38587663 0.01374094 0.16022313 -0.025332244
0.033195883 -0.0088217305 0.016688563 0.057589505 -0.009665905 0.0031869772 -0.016991613 -0.09300339
0.047453284 0.021226436 0.23930739 0.053702317 0.32459772 0.18097574 -0.021842102 0.27611405
-0.046792164 -0.098132 0.27801883 0.014121875 -0.0907695 0.124625646 0.02241386 0.13097182
-0.005866902 0.07335218 -0.059801005 0.037257813 -0.12720631 -0.00064079603 0.15654512 -0.41799325
-0.15376997 0.021953223 0.21883634 -0.05179609 0.028529394 -0.025037989 -0.019318156 0.1892521
-0.013304891 -0.001903981 -0.039557714 -0.014501838 0.06632876 0.032951627 0.04145352 0.025173176
0.012528977 -0.037858203 0.18344483 0.058312144 0.0265429 0.05661264 -0.07048183 -0.012366943
0.18015364 -0.041026056 0.0514236 0.032596737 0.11215991 -0.016938502 0.06672929 -0.13451895
0.06289488 0.08599987 -0.22323453 0.055908587 0.03366991 -0.008791067 -0.39304492 -0.17526065
-0.080737 0.10349253 -0.043397903 -0.25271642 0.115454465 -0.07189431 -0.06751053 0.08337242
0.012021522 -0.020450957 0.0033814723 -0.05121439 -0.1070023 0.3073007 0.09331504 0.020156734
0.0679713 -0.09488244 0.09820464 0.014269027 0.14574224 -0.06270084 -0.031035857 -0.0055162576
0.12956658 -0.07702613 -0.024589559 0.08908191 0.058797233 -0.016015178 0.022073092 0.028945684
0.2512137 -0.084360875 0.0034631223 0.05579496 -0.11913271 -0.064139165 -0.04613416 0.004195813
0.015088163 0.1046517 0.14156085 0.040349014 -0.028676042 0.05089086 -0.041913997 -0.055450458
0.1363728 0.1720354 -0.11063168 -0.07429958 0.3361379 -0.08307826 -0.031124625 -0.014435361
-0.15912575 -0.09405786 -0.049116984 -0.056358036 0.20622194 0.17788339 0.010020033 -0.05952157
-0.053196803 0.053801097 -0.07221506 -0.005390496 0.026219422 -0.16696088 0.15210672 0.19403033
-0.027844539 0.25230652 0.040732794 0.27856597 -0.033193026 -0.19937228 -0.036770906 -0.13309896
-0.051762983 0.12884593 0.19722433 0.011744589 0.10916539 -0.056750022 0.049790397 0.10539141
-0.026332887 -0.07192712 0.048190124 -0.0034964308 0.21803842 0.0664135 0.033012163 0.02609829
-0.008844462 0.046528507 0.08654061 -0.027936174 0.28836715 0.08495823 -0.027211364 -0.049949076
-0.04892262 0.028951835 -0.09283106 0.14485824 -0.13590153 0.06557949 -0.0027431697 0.001166391
0.26730454 0.27785388 -0.009085953 0.012431729 0.367061 0.0016202703 0.18800013 -0.079757616
-0.07905184 0.110981405 -0.49087122 -0.08723762 -0.035255715 -0.15151964 0.0055439738 -0.023438344
-0.29784226 0.029066935 0.019487157 -0.018509151 -0.06699423 0.03432105 0.03368169 0.011982165
-0.024755627 0.004057997 0.013901307 -0.018485993 0.08275616 0.021442102 0.036966994 0.19012062
00000000: 6fd6 13bd b70d b8bc 9089 cbbc 731d 90bd
00000010: 4e4f d0bd 61b5 55bd b208 963c 9e42 42bc
00000020: fe16 f83d f686 ee3c 7d33 2ebd dc89 56bd
00000030: f065 543c 3097 cfbc 903d 40bc f428 53bc
00000040: 61d1 e8bc 35f8 c0bd 7d74 a5bc 170c f7bc
00000050: 7570 e53c bedb 003c 2d61 8c3d b367 263e
00000060: d4e5 34bd 2072 753e 0014 8cbd 9309 47bc
00000070: 2f32 503d f22d 60bd 912d 92be 7ffe 3c3d
00000080: 000a c0b9 54bf 8ebd c87f 24bd 0f04 b6be
00000090: 9f91 c5be ae21 613c 8811 243e 9185 cfbc
000000a0: 68f8 073d 0589 10bc 74b6 883c f9e2 6b3d
000000b0: be5d 1ebc 9bdc 503b ff31 8bbc 9078 bebd
000000c0: 605e 423d 10e3 ad3c ff0c 753e f6f6 5b3d
000000d0: ac31 a63e b451 393e 35ee b2bc d25e 8d3e
000000e0: 24a9 3fbd 6ef9 c8bd 7c58 8e3e 705f 673c
000000f0: 5ce5 b9bd bb3b ff3d 459d b73c 7a1d 063e
00000100: 243f c0bb ab39 963d e6f1 74bd a69b 183d
00000110: 5f42 02be 18fb 27ba 5d4d 203e 3603 d6be
00000120: e075 1dbe 3fd7 b33c a216 603e 2328 54bd
00000130: 7ab6 e93c 781c cdbc 1c41 9ebc 4dcb 413e
00000140: c2fc 59bc 008f f9ba 4507 22bd 1e99 6dbc
00000150: 5fd7 873d 49f8 063d 2bcb 293d fa37 ce3c
00000160: 5746 4d3c 3411 1bbd f6d8 3b3e b7d8 6e3d
00000170: 7f70 d93c a8e2 673d c758 90bd b89e 4abc
00000180: 327a 383e f00a 28bd 8ea1 523d 2884 053d
00000190: 18b4 e53d 9dc2 8abc 5ea9 883d 56bf 09be
000001a0: 08cf 803d b320 b03d 9897 64be 6700 653d
000001b0: 76e9 093d 6808 10bc 2f3d c9be 8777 33be
000001c0: 7159 a5bd e4f3 d33d 00c2 31bd 0c64 81be
000001d0: 6473 ec3d 533d 93bd f642 8abd 29bf aa3d
000001e0: ebf5 443c c488 a7bc b19b 5d3b 2ec6 51bd
000001f0: 0624 dbbd 8456 9d3e f51b bf3d bc1f a53c
00000200: 8934 8b3d ba51 c2bd 841f c93d a3c8 693c
00000210: 743d 153e 4c69 80bd e93e febc b9c1 b4bb
00000220: 1aad 043e e0bf 9dbd 0b70 c9bc 9470 b63d
00000230: 5ed5 703d 4332 83bc a1d2 b43c 801f ed3c
00000240: 159f 803e 65c5 acbd 8df5 623b 4289 643d
00000250: dafb f3bd 655b 83bd 2cf7 3cbd 087d 893b
00000260: 5834 773c a153 d63d 54f5 103e 0245 253d
00000270: 05ea eabc ef72 503d 03ae 2bbd 0520 63bd
00000280: 50a5 0b3e 0c2a 303e dd92 e2bd 612a 98bd
00000290: 441a ac3e ef24 aabd 12f9 febc 4b82 6cbc
000002a0: dcf1 22be 68a1 c0bd e42e 49bd afd7 66bd
000002b0: d82b 533e 1027 363e 112b 243c e4cc 73bd
000002c0: e4e4 59bd 8a5e 5c3d 7de5 93bd c2a2 b0bb
000002d0: 1dca d63c cbf7 2abe ddc1 1b3e e3af 463e
000002e0: 3b1a e4bc 522e 813e 6ed7 263d 33a0 8e3e
000002f0: 69f5 07bd 3f28 4cbe 179d 16bd 184b 08be
00000300: 6c05 54bd 30f0 033e 2df5 493e 606c 403c
00000310: 1b92 df3d b672 68bd 04f1 4b3d 74d7 d73d
00000320: 11b8 d7bc 874e 93bd 0263 453d 6024 65bb
00000330: 7745 5f3e cd03 883d c337 073d 15cc d53c
00000340: 5de8 10bc ad94 3e3d 343c b13d 67da e4bc
00000350: dca4 933e 95fe ad3d 5eea debc 6797 4cbd
00000360: 1663 48bd 662c ed3c 361e bebd b855 143e
00000370: c529 0bbe 8a4e 863d c0c6 33bb 96e1 983a
00000380: 24dc 883e dd42 8e3e 40dd 14bc 73ae 4b3c
00000390: 6bef bb3e 405f d43a 1b83 403e f657 a3bd
000003a0: eee5 a1bd 384a e33d 7953 fbbe a3a9 b2bd
000003b0: 4c68 10bd f727 1bbe 39aa b53b c501 c0bc
000003c0: c87e 98be c81d ee3c 88a3 9f3c 81a0 97bc
000003d0: 4534 89bd 3b94 0c3d d0f5 093d d850 443c
000003e0: 50cc cabc f2f8 843b 4fc2 633c f06f 97bc
000003f0: 107c a93d 59a7 af3c b46a 173d fbae 423e

net.4.bias f4 [256]
-0.016003914 -0.020981362 -0.14151794 -0.04082391 0.19006258 -0.07747807 -0.103595205 -0.12016695
0.08724854 -0.00034897777 -0.09962057 -0.05038086 -0.040764187 0.013654872 0.1891723 0.20238297
-0.048846845 0.12103922 0.017275395 -0.08891616 -0.009747883 -0.020592185 -0.05377588 -0.09933907
-0.03377931 -0.07665012 0.032810923 0.019073777 -0.020722456 -0.070149206 -0.13089088 0.008902811
0.042625997 -0.061593566 -0.02757766 -0.099163525 -0.08741601 -0.03455564 -0.017998496 0.023867635
-0.091913335 -0.06307072 -0.055542555 -0.010757571 0.08857015 -0.05570908 -0.12826656 -0.05063143
-0.0304132 0.0919878 -0.023936456 -0.028473621 0.05959888 -0.07918368 -0.086387984 -0.0068964716
-0.0708247 -0.10798366 -0.083623484 -0.011613566 -0.062363412 -0.047219343 0.29839656 -0.021353733
0.04614018 -0.07847163 -0.13808306 -0.048963938 -0.07766025 -0.028085945 -0.12427067 -0.0764944
0.1760419 -0.043472704 -0.09388842 -0.034254357 -0.07210645 0.035827603 0.11227241 -0.03392588
-0.060050745 -0.04702184 0.21770084 -0.10328199 -0.0049025146 -0.10628241 0.20007756 -0.009039272
-0.0319183 -0.09724327 -0.12349317 -0.082218826 -0.069665045 -0.049041726 0.18965235 -0.06514576
-0.011765266 -0.044761237 -0.08397629 -0.028855806 -0.039737538 -0.09879967 0.08696851 -0.006550309
0.0051497743 -0.08900116 0.014024543 -0.15016434 0.14063603 -0.028653659 0.055339314 0.14838965
0.120779276 0.10986377 -0.008777133 -0.052591395 -0.082148954 0.036608405 -0.06257329 0.19269957
-0.124478824 -0.057298563 -0.025521627 -0.07582218 -0.056710012 -0.066188 -0.04967993 0.046904717
-0.058392424 -0.06962968 0.021727046 -0.006474374 -0.14862536 -0.0057768216 0.20588714 -0.017602641
-0.011483294 0.059403658 -0.10137538 -0.03520969 0.09105053 -0.114112966 0.0127068395 -0.17241216
0.07147429 0.005983232 -0.056806486 -0.068526216 -0.014116783 -0.07519447 -0.08322951 -0.058836948
-0.12040741 -0.04984948 0.021001706 -0.09832571 -0.05610506 0.19062133 -0.07203833 -0.08361181
-0.037388448 0.13703395 -0.008993342 0.20591024 -0.0472385 -0.022405628 0.18647559 -0.044162896
-0.045375966 -0.060630348 -0.14845346 0.06778581 -0.03415215 -0.05870756 -0.06511246 -0.04405572
-0.027508758 0.029779501 0.051563963 0.22059537 0.034513623 -0.055923905 0.07233161 0.014800573
-0.015623234 -0.05201996 -0.04931592 -0.08174801 -0.05567687 9.329881e-05 -0.07218584 -0.03178096
-0.014528598 -0.13553405 -0.07918119 -0.072877 0.0015657312 0.090186514 -0.031000923 -0.04653368
0.061153322 -0.027632482 -0.068631515 0.07708288 -0.06161201 -0.03725132 -0.069223 -0.07229224
0.26939347 -0.06959789 -0.029311188 -0.061836857 0.22930075 -0.048282843 -0.043418895 -0.044056702
-0.047886476 -0.058201287 -0.0051188595 -0.06810174 -0.05066102 -0.054231044 -0.07299947 -0.043092813
-0.05445455 -0.03670736 -0.037856076 0.042329438 0.02297422 -0.03411391 0.104804054 -0.023859436
-0.02660104 -0.15374821 -0.0021724247 -0.11547876 -0.021631693 -0.030601766 0.19774668 0.21185277
0.01987321 -0.055774506 -0.08147237 -0.08574151 -0.08880703 -0.018693866 -0.042191315 -0.011143662
-0.026815185 0.09677595 0.17199881 0.113990866 0.0314566 -0.003514271 -0.02799125 -0.11722398
00000000: a41a 83bc 1be1 abbc 14ea 10be f936 27bd
00000010: c49f 423e d3ac 9ebd b929 d4bd 171a f6bd
00000020: 5daf b23d 01f7 b6b9 df05 ccbd 295c 4ebd
00000030: 59f8 26bd afb8 5f3c 62b6 413e 7b3d 4f3e
00000040: a113 48bd 69e3 f73d 2185 8d3c ad19 b6bd
00000050: 96b5 1fbc f1b0 a8bc 1944 5cbd 4872 cbbd
00000060: 2c5c 0abd bdfa 9cbd bf64 063d 9c40 9c3c
00000070: 24c2 a9bc 63aa 8fbd 4208 06be 19dd 113c
00000080: 9998 2e3d 8949 7cbd 8bea e1bc 3f16 cbbd
00000090: 2a07 b3bd 378a 0dbd 9571 93bc 0f86 c33c
000000a0: 0f3d bcbd 392b 81bd 9780 63bd 8640 30bc
000000b0: 4464 b53d 342f 64bd 4f58 03be e762 4fbd
000000c0: 1a25 f9bc 1a64 bc3d 6316 c4bc 8341 e9bc
000000d0: f51d 743d 0e2b a2bd 2fec b0bd ccfb e1bb
000000e0: 8a0c 91bd 8a26 ddbd ca42 abbd d446 3ebc
000000f0: c770 7fbd 1269 41bd 6fc7 983e 06ee aebc
00000100: 7cfd 3c3d bcb5 a0bd a565 0dbe 698e 48bd
00000110: 560c 9fbd 7f14 e6bc 9f81 febd 19a9 9cbd
00000120: 5444 343e 6f10 32bd 9248 c0bd 4c4e 0cbd
00000130: 8cac 93bd f7bf 123d 14ef e53d ddf5 0abd
00000140: c5f7 75bd f999 40bd f8ec 5e3e 8285 d3bd
00000150: 46a5 a0bb 98aa d9bd 22e1 4c3e 7419 14bc
00000160: c3bc 02bd 7b27 c7bd fde9 fcbd 5862 a8bd
00000170: 8cac 8ebd fadf 48bd 3a34 423e 246b 85bd
00000180: 1ac3 40bc 8f57 37bd c3fb abbd 0363 ecbc
00000190: d4c3 22bd 7b57 cabd 8c1c b23d f9a3 d6bb
000001a0: 70bf a83b 3d46 b6bd 32c7 653c aec4 19be
000001b0: e402 103e 14bb eabc 7aab 623d 75f3 173e
000001c0: 205b f73d 4200 e13d f7cd 0fbc 136a 57bd
000001d0: b63d a8bd b2f2 153d 6d26 80bd 0953 453e
000001e0: c1ee febd e6b1 6abd bb12 d1bc a948 9bbd
000001f0: c248 68bd 938d 87bd 2f7d 4bbd 291f 403d
00000200: e52c 6fbd 019a 8ebd ebfc b13c fc26 d4bb
00000210: 3f31 18be 7e4b bdbb 14d4 523e 6a33 90bc
00000220: 6d24 3cbc 4051 733d e59d cfbd 0938 10bd
00000230: b378 ba3d 0fb4 e9bd 5930 503c d08c 30be
00000240: 1d61 923d fd0e c43b ebad 68bd 7957 8cbd
00000250: 144a 67bc 8fff 99bd 3c74 aabd 03ff 70bd
00000260: 2998 f6bd f82e 4cbd c50b ac3c fd5e c9bd
00000270: 6bce 65bd 3d32 433e d588 93bd ab3c abbd
00000280: a124 19bd a152 0c3e cf58 13bc 22da 523e
00000290: 287d 41bd 028c b7bc 75f3 3e3e 27e4 34bd
000002a0: 26dc 39bd 8757 78bd 2f04 18be 49d3 8a3d
000002b0: 20e3 0bbd 5777 70bd ae59 85bd c573 34bd
000002c0: 0c5a e1bc 24f4 f33c bc34 533d c1e3 613e
000002d0: 285e 0d3d 7710 65bd 9822 943d 1a7e 723c
000002e0: 98f8 7fbc e212 55bd 7dff 49bd 806b a7bd
000002f0: 6e0d 64bd 6ba9 c338 2bd6 93bd c02c 02bd
00000300: 5b09 6ebc 70c9 0abe bf29 a2bd 8940 95bd
00000310: 3939 cd3a b5b3 b83d a6f5 fdbc 1a9a 3ebd
00000320: e87b 7a3d 845d e2bc ae8e 8cbd a1dd 9d3d
00000330: e05c 7cbd d794 18bd cac4 8dbd f40d 94bd
00000340: f1ed 893e 5789 8ebd 041e f0bc a548 7dbd
00000350: d1cd 6a3e 3bc4 45bd 03d8 31bd cd74 34bd
00000360: 9c24 44bd 7964 6ebd 1bbc a7bb ed78 8bbd
00000370: ee81 4fbd 5f21 5ebd bf80 95bd 1782 30bd
00000380: bc0b 5fbd 755a 16bd f90e 1bbd a261 2d3d
00000390: 6e34 bc3c 07bb 0bbd 82a3 d63d dd74 c3bc
000003a0: 6dea d9bc 2c70 1dbe 3d5f 0ebb 2180 ecbd
000003b0: f334 b1bc 8eb0 fabc 1b7e 4a3e efef 583e
000003c0: 24cd a23c cf73 64bd fcda a6bd 3f99 afbd
000003d0: 76e0 b5bd e123 99bc cdd0 2cbd e893 36bc
000003e0: 85ab dbbc 7832 c63d 7520 303e 0b74 e93d
000003f0: a3d8 003d af4f 66bb e84d e5bc 2013 f0bd

net.6.weight f4 [7, 256]
0.4421532 0.05471612 0.13270077 0.11152723 0.1254388 0.110897966 -0.051269263 -0.13564306
0.104210116 0.01443886 -0.038883198 -0.12743333 -0.30616006 0.18676382 0.18275346 0.1640081
0.22631277 0.08327121 0.062743075 -0.02839675 -0.02911957 0.13956153 0.015956484 0.33749184
0.05098231 0.113197014 -0.31238848 0.12426937 0.7402976 -0.2204312 -0.057454813 0.07622828
0.04644364 -0.11275504 0.2836435 -0.2933184 -0.31234938 0.018599516 0.14655982 0.12172354
-0.009831497 -0.031825792 0.008020845 -0.009733371 0.11285721 -0.0295159 0.2506496 -0.018723711
-0.034391865 0.14602767 0.11744486 0.04646142 0.05137218 -0.035575178 0.15432939 -0.010832395
0.12986071 0.22509532 0.4378309 -0.22028218 -0.011679768 -0.2780239 0.1877831 0.019993838
0.12167334 0.2691668 -0.02553733 -0.44279686 0.16504546 0.0072652646 -0.015057295 -0.08249478
0.09115587 -0.0006648007 -0.10876619 0.11114992 -0.084770046 0.21948324 0.086356096 0.17071445
-0.14235699 -0.17391388 0.1551767 -0.06403722 -0.030745573 0.3041564 0.16502641 0.12061744
0.07604439 -0.08285587 0.20324042 -0.041306436 0.083070815 0.007794547 0.14156702 0.006352894
0.3648474 0.1594951 -0.03658578 -0.16748865 -0.23122495 -0.12536491 -0.16869323 -0.1292309
0.04973291 0.0029912402 -0.051868018 0.2603246 0.09944545 -0.12129637 0.084414564 0.15089063
0.23875254 0.07564876 -0.009306927 -0.07051743 0.011291929 0.16400011 -0.014304755 0.17319754
-0.05753338 0.14021091 -0.0653165 -0.027200826 -0.050291725 -0.29190746 -0.16436191 -0.106771715
-0.071353726 -0.08971152 0.002367672 -0.1575813 0.24943899 0.23574679 0.13256526 0.117792845
0.1326826 0.19021897 -0.054025 -0.10282988 0.101783946 -0.021526597 -0.006737783 0.05058725
0.17699042 0.0042121685 -0.18283638 -0.057721134 -0.10903062 0.082567066 -0.24150378 -0.04283274
-0.025644027 -0.48214567 0.0004999508 -0.065099664 0.048788402 0.0960317 0.10827525 -0.08041445
0.13222879 -0.37207034 -0.014529377 0.13306722 0.037993915 -0.14725174 0.19833843 -0.37611496
0.09348602 -0.015880464 0.059606794 0.19796656 -0.44088662 0.04342412 -0.17955373 -0.32226682
0.018736383 0.0757498 -0.03005232 0.13553388 -0.1307427 -0.08100463 0.071774945 -0.26040265
-0.07413159 -0.0045635905 -0.0013583779 0.056698237 0.1166068 0.20868288 -0.030411193 -0.018700365
-0.0048778215 0.018621765 -0.2313983 -0.00066890335 -0.12891659 0.062880374 0.19009541 -0.05394707
0.24218875 -0.17195441 -0.00089889 0.028552301 -0.026103247 -0.047660787 0.24261314 0.049717274
0.18333592 0.0650689 -0.08544989 0.14446427 0.19590564 -0.015059345 -0.018301236 0.18246117
-0.11090486 0.039655108 -0.041128956 0.034517914 -0.043110464 0.19381094 -0.020689707 -0.2680884
0.051115233 0.07157825 -0.32933864 0.06629364 0.097481124 -0.029337835 0.41572577 -0.05286073
-0.06695358 -0.09563474 0.0540795 0.3862075 0.17302608 -0.24507418 0.17483221 0.16190515
-0.021411322 -0.05181233 -0.038869027 0.019979956 -0.062722534 -0.37167674 0.037281718 0.05445347
-0.080031894 0.06508321 0.1907257 -0.058517385 -0.20506017 0.171753 -0.10333879 -0.031785656
00000000: e761 e23e 031e 603d b6e2 073e 6368 e43d
00000010: 0773 003e 791e e33d b8ff 51bd 04e6 0abe
00000020: 1d6c d53d f890 6c3c fd43 1fbd e27d 02be
00000030: 03c1 9cbe 043f 3f3e b923 3b3e bdf1 273e
00000040: 89be 673e 198a aa3d 717f 803d 4da0 e8bc
00000050: 2a8c eebc 38e9 0e3e 2cb7 823c bbcb ac3e
00000060: d4d2 503d d6d3 e73d 62f1 9fbe f180 fe3d
00000070: 2584 3d3f b7b8 61be bd55 6bbd 931d 9c3d
00000080: b03b 3e3d 1dec e6bd b939 913e d42d 96be
00000090: 42ec 9fbe 035e 983c c713 163e 314a f93d
000000a0: 4a14 21bc c35b 02bd dd69 033c b878 1fbc
000000b0: ae21 e73d 54cb f1bc 2555 803e 7862 99bc
000000c0: 7cde 0cbd 4788 153e ee86 f03d 544e 3e3d
000000d0: a36b 523d 47b7 11bd 8608 1e3e 5c7a 31bc
000000e0: 35fa 043e 637f 663e 5f2b e03e a791 61be
000000f0: 7f5c 3fbc 2659 8ebe 374a 403e 1eca a33c
00000100: df2f f93d 3bd0 893e aa33 d1bc 45b6 e2be
00000110: ad01 293e 7511 ee3b dfb2 76bc 06f3 a8bd
00000120: eeaf ba3d 0546 2eba cfc0 debd 92a2 e33d
00000130: eb9b adbd 37c0 603e 77db b03d c5cf 2e3e
00000140: 08c6 11be 7b16 32be a4e6 1e3e f225 83bd
00000150: 24de fbbc 63ba 9b3e affc 283e 4706 f73d
00000160: 29bd 9b3d 57b0 a9bd 421e 503e f030 29bd
00000170: 0821 aa3d 6669 ff3b f2f6 103e f02b d03b
00000180: 47cd ba3e af52 233e f9da 15bd 2582 2bbe
00000190: 3cc6 6cbe a95f 00be ebbd 2cbe 1b55 04be
000001a0: bcb4 4b3d af08 443b 8f73 54bd 4449 853e
000001b0: 0eaa cb3d 3b6a f8bd 8be1 ac3d 1383 1a3e
000001c0: 8c7b 743e bded 9a3d 157c 18bc 716b 90bd
000001d0: c801 393c a5ef 273e 7e5e 6abc b25a 313e
000001e0: 1fa8 6bbd 7393 0f3e a8c4 85bd 44d4 debc
000001f0: b2fe 4dbd e574 95be 7d4e 28be 21ab dabd
00000200: e721 92bd acba b7bd f22a 1b3b fe5c 21be
00000210: ef6c 7f3e 9b67 713e 30bf 073e 603d f13d
00000220: f3dd 073e c3c8 423e 5249 5dbd 7998 d2bd
00000230: 1a74 d03d 8c58 b0bc 9fc8 dcbb 9434 4f3d
00000240: fa3c 353e 3b06 8a3b 7639 3bbe ff6c 6cbd
00000250: 724b dfbd ec18 a93d c44c 77be 6271 2fbd
00000260: 6c13 d2bc ccdb f6be 210f 033a f952 85bd
00000270: 59d6 473d 45ac c43d 6abf dd3d 55b0 a4bd
00000280: fc66 073e 0180 bebe a00c 6ebc c642 083e
00000290: 829f 1b3d 29c9 16be 3b19 4b3e 2492 c0be
000002a0: 9975 bf3d bf17 82bc 4126 743d bfb7 4a3e
000002b0: e4bb e1be 7ddd 313d efdc 37be 2800 a5be
000002c0: 0b7d 993c b622 9b3d 4830 f6bc 65c9 0a3e
000002d0: 6ae1 05be c1e5 a5bd befe 923d 7f53 85be
000002e0: 4ed2 97bd 2c8a 95bb 990b b2ba 693c 683d
000002f0: 8ccf ee3d f7b0 553e e520 f9bc 8231 99bc
00000300: 22d6 9fbb ac8c 983c adf3 6cbe 5859 2fba
00000310: b602 04be 6dc7 803d 5fa8 423e 9af7 5cbd
00000320: 5400 783e d114 30be 7da3 6bba 84e6 e93c
00000330: 7ad6 d5bc f537 43bd 946f 783e 57a4 4b3d
00000340: 69bc 3b3e d842 853d 5a00 afbd 71ee 133e
00000350: 7d9b 483e 79bb 76bc 79ec 95bc 1ad7 3a3e
00000360: 1622 e3bd 656d 223d d676 28bd a862 0d3d
00000370: 9994 30bd 6076 463e 767d a9bc e242 89be
00000380: 355e 513d 9e97 923d 139f a8be f6c4 873d
00000390: 2fa4 c73d e655 f0bc 02da d43e 7e84 58bd
000003a0: f51e 89bd 26dc c3bd 7782 5d3d fdbc c53e
000003b0: c02d 313e baf4 7abe 3707 333e 77ca 253e
000003c0: cc66 afbc 2a39 54bd 2135 1fbd 01ad a33c
000003d0: ac74 80bd 6a4c bebe b7b4 183d 9a0a 5f3d
000003e0: c3e7 a3bd 594a 853d 994d 433e edaf 6fbd
000003f0: 4bfb 51be 05e0 2f3e 4aa3 d3bd ad31 02bd

net.6.bias f4 [7]
0.16407472 0.19721906 -0.10852004 -0.13460433 0.12587553 0.21030398 -0.22094174
00000000: 3403 283e cbf3 493e c13f debd b8d5 09be
00000010: 84e5 003e ed59 573e 8d3e 62be
