preTrained/GAIL_pretrained_7500_actor.pth (torch, 541220 bytes, 8 tensors)

net.0.weight f4 [256, 3]
-0.19609816 -0.5930174 -0.33391452 0.3497249 0.7842695 -0.38229766 0.50544226 0.16439627
-0.63683933 -0.5380046 0.2523402 -0.016847368 0.10859749 -0.54468346 -0.2274869 0.14142883
-0.3718432 -0.12746435 -0.21800011 0.5474541 -0.13409765 -0.37994435 1.136722 -0.14097285
-0.71381634 0.2771919 -0.46773115 -0.57640654 -0.11286821 -0.5175201 -0.532375 -0.61025184
0.21848054 -0.37211177 -0.049115784 -0.50887877 -0.19309081 -0.98928267 -0.17991011 -0.31130725
0.13340162 0.18206297 0.44661632 0.48327938 -0.35714725 -0.6999537 0.9647453 -0.2521431
-0.6881595 0.30820635 -0.13679847 -0.23972298 0.2831785 0.32459545 -0.42464158 0.5794449
-0.06164927 0.06853094 -0.28949445 -0.48635125 -0.164133 -0.53467983 -0.21513514 -0.21272266
-0.1233166 0.18517973 -0.20463149 0.9367081 -0.50826037 -0.3756207 -0.53519773 0.40959227
0.13234164 0.4391382 -0.66037583 0.44419828 0.37980103 -0.44525787 0.0169013 0.21792628
-0.6194029 -0.074866675 0.11933016 -0.015030597 -0.066823244 -0.016580755 0.3888815 -0.012089813
-0.5493944 -0.6070794 0.10626687 -0.10346133 0.38366047 -0.2413643 -0.0018896739 -0.5715544
0.54650486 -1.1659347 0.37005267 -0.33437735 0.38976443 -0.1938867 -0.68389183 -0.20619881
-0.2173446 -0.4409936 0.060193684 -0.093307294 0.3144527 0.09194365 -0.1568457 -0.7207928
0.85209596 -0.5075653 0.19613416 -0.31436777 -0.42347863 -0.122348055 0.50737584 -0.780004
0.14062761 0.4878109 -0.26037693 -0.058417764 0.48078403 -0.2791625 -0.37140083 0.7917047
-0.41129336 -0.24328601 0.38727063 0.21412753 0.023519756 -0.50637954 -0.40570736 0.054453045
-0.4840755 -0.4530352 -0.75972 0.60782224 -0.090140216 0.19871792 -1.3839562 0.26559258
-0.478705 -0.3502175 -0.04117487 -0.439794 -0.12617962 -0.022283707 -0.27755612 1.1779107
-0.24033587 0.498011 0.67746586 -0.19911276 -0.53088397 0.16551593 0.20323259 -0.00830348
0.57246786 -0.49458218 0.26185107 -0.54409707 0.061457872 0.12033142 -0.19101593 -0.46069643
0.34127814 0.021480512 0.32744378 -0.060236603 -0.61722165 -0.044735044 -0.37802646 0.48371586
0.44327092 -0.74938554 -0.31944025 0.22076839 -0.3031946 -0.7161607 -0.17985828 -0.28034043
-0.11450918 -0.1853133 -0.24485546 0.83590543 -0.16707326 -0.35743594 -0.20293072 -0.33116388
0.23426397 1.007589 0.36945873 -0.41358724 -0.61779666 0.056104176 -0.06363494 0.107071884
-0.59480244 -0.24875489 -0.2407955 -0.028144749 -0.17114075 -1.1434731 -0.37899566 -0.77485794
0.28527263 0.025381595 -0.24755427 -0.49349752 -0.5533338 -0.07369798 0.49032933 -0.34289545
-0.62356204 0.70320207 -0.38617134 0.33477288 -0.07304239 -0.08554555 -0.04874005 -0.6181645
0.14749087 -0.35183054 -0.3597739 -0.23155743 -0.061906278 0.15117525 0.13312079 0.07809092
0.20449367 -0.3482511 0.22243972 0.31489226 0.3835991 -0.30220458 0.14123106 0.22853243
-0.26532862 -1.1186352 0.19185644 -0.47628525 0.08021107 -0.34239537 0.27787915 0.09456041
0.2691375 0.18415318 0.23661828 -0.6388015 0.24046606 -0.1575128 -0.5628282 -0.05604949
00000000: f5cd 48be fdcf 17bf d8f6 aabe 240f b33e
00000010: e3c5 483f 85bc c3be aa64 013f 7f57 283e
00000020: e707 23bf abba 09bf bc32 813e 7e03 8abc
00000030: 5c68 de3d 6070 0bbf 53f2 68be b8d2 103e
00000040: 3b62 bebe 0486 02be 6c3b 5fbe f425 0c3f
00000050: e550 09be 1188 c2be 1b80 913f 305b 10be
00000060: abbc 36bf 19ec 8d3e 757a efbe 618f 13bf
00000070: 7327 e7bd 337c 04bf ba49 08bf 7739 1cbf
00000080: 5db9 5f3e 6f85 bebe a22d 49bd e145 02bf
00000090: 99b9 45be a141 7dbf 5b3a 38be aa63 9fbe
000000a0: 6f9a 083e b76e 3a3e e5aa e43e 6570 f73e
000000b0: 01dc b6be 2a30 33bf 8cf9 763f e718 81be
000000c0: 392b 30bf 39cd 9d3e e614 0cbe f179 75be
000000d0: c6fc 903e 6031 a63e 9f6a d9be 8056 143f
000000e0: f283 7cbd f359 8c3d 9e38 94be 0803 f9be
000000f0: 7b12 28be c7e0 08bf 634c 5cbe f8d3 59be
00000100: 6a8d fcbd c19f 3d3e eb8a 51be 1acc 6f3f
00000110: 5a1d 02bf 5b51 c0be b802 09bf 14b6 d13e
00000120: 9184 073e b9d6 e03e 640e 29bf f56d e33e
00000130: 4875 c23e d7f8 e3be 9874 8a3c 1128 5f3e
00000140: 3091 1ebf b353 99bd 5f63 f43d e542 76bc
00000150: a0da 88bd 5dd4 87bc 7a1b c73e 5a14 46bc
00000160: 1da5 0cbf 8e69 1bbf 72a2 d93d 89e3 d3bd
00000170: 256f c43e 3428 77be efae f7ba 6451 12bf
00000180: bee7 0b3f 593d 95bf 8b77 bd3e 8233 abbe
00000190: 348f c73e 3c8a 46be 8913 2fbf c825 53be
000001a0: 958f 5ebe eac9 e1be a78d 763d e517 bfbd
000001b0: f2ff a03e f44c bc3d 299c 20be e085 38bf
000001c0: f622 5a3f cdef 01bf 65d7 483e d0f4 a0be
000001d0: 31d2 d8be 9e91 fabd 62e3 013f 58ae 47bf
000001e0: af00 103e 5ac2 f93e 2050 85be 7747 6fbd
000001f0: 5329 f63e 63ee 8ebe 4028 bebe 29ad 4a3f
00000200: 0b95 d2be f81f 79be 5648 c63e 3f44 5b3e
00000210: 81ac c03c 17a2 01bf e0b8 cfbe 280a 5f3d
00000220: bed8 f7be 3bf4 e7be 037d 42bf 3d9a 1b3f
00000230: 6f9b b8bd b67c 4b3e 7a25 b1bf c0fb 873e
00000240: d218 f5be b54f b3be fba6 28bd ae2c e1be
00000250: 3b35 01be 528c b6bc d61b 8ebe c7c5 963f
00000260: 9b1a 76be 4cfb fe3e 676e 2d3f 37e4 4bbe
00000270: 03e8 07bf 027d 293e 341c 503e 520b 08bc
00000280: 418d 123f e039 fdbe 5811 863e f249 0bbf
00000290: 40bb 7b3d 5270 f63d ae99 43be 67e0 ebbe
000002a0: 02bc ae3e e6f7 af3c b6a6 a73e a8ba 76bd
000002b0: 3d02 1ebf 183c 37bd af8c c1be 9ba9 f73e
000002c0: 68f4 e23e bbd7 3fbf ac8d a3be 1c11 623e
000002d0: 533c 9bbe 4f56 37bf c52c 38be c888 8fbe
000002e0: ca83 eabd c5c2 3dbe 64bb 7abe e6fd 553f
000002f0: 4115 2bbe d801 b7be 12cd 4fbe 508e a9be
00000300: e5e2 6f3e adf8 803f b229 bd3e b5c1 d3be
00000310: ec27 1ebf 7ecd 653d 0953 82bd 8148 db3d
00000320: f944 18bf 9ab9 7ebe 1893 76be d18f e6bc
00000330: 853f 2fbe 545d 92bf b80b c2be 175d 46bf
00000340: 410f 923e 10ed cf3c de7e 7dbe b5ab fcbe
00000350: 49a7 0dbf f7ee 96bd 720c fb3e fe8f afbe
00000360: c3a1 1fbf 0d05 343f 40b8 c5be 5a67 ab3e
00000370: 4097 95bd 8132 afbd a6a3 47bd 0740 1ebf
00000380: d907 173e 2223 b4be 4934 b8be 641d 6dbe
00000390: 7091 7dbd afcd 1a3e d150 083e 22ee 9f3d
000003a0: ca66 513e f84d b2be 3dc7 633e 8f39 a13e
000003b0: 1a67 c43e 8fba 9abe e09e 103e 6804 6a3e
000003c0: 27d9 87be 702f 8fbf 0476 443e a9db f3be
000003d0: b445 a43d 724e afbe 2d46 8e3e e3a8 c13d
000003e0: 64cc 893e a792 3c3e 104c 723e 7f88 23bf
000003f0: bc3c 763e 094b 21be 8215 10bf 2694 65bd

net.0.bias f4 [256]
-0.13312863 -0.13205191 0.02658382 -0.1607954 0.010336098 0.06874857 -0.037266802 0.10616668
0.44101432 0.45058066 -0.010937571 0.38193667 0.3590967 -0.0033241222 -0.1782227 0.1836093
0.25949064 -0.4388118 -0.28280044 0.1666862 0.08120373 -0.21467057 0.12551115 -0.16557732
0.1817534 -0.22627243 0.09958525 -0.5535991 -0.5141759 0.21872751 -0.495698 0.070993684
-0.26397988 0.03346478 0.32512698 0.19273168 -0.18594563 0.34274936 0.069449775 0.32890144
-0.5283772 -0.25134042 0.17740582 -0.23879026 -0.3370514 0.12744415 0.19954607 -0.0041839536
0.0345549 0.14179145 0.10722563 -0.18740876 -0.06789196 -0.32026348 0.08069824 -0.032369234
-0.4098299 -0.05061671 -0.18280052 0.11240764 0.089933135 -0.06397642 -0.0022377712 -0.39857304
-0.35438684 0.22295201 0.021031547 -0.2613871 0.43906927 0.2154098 0.29071772 -0.029882958
0.274535 -0.13116995 -0.1509952 0.18813436 -0.30219713 0.09652057 -0.36409232 -0.43397617
0.23648213 0.24610439 -0.40689918 0.1810965 0.13617785 -0.12922257 -0.11211213 0.060163006
0.20841515 -0.25415793 -0.02707112 -0.49582002 0.011812762 -0.056853622 0.19183083 0.3660016
-0.06612844 0.3451286 0.05971935 -0.04913816 -0.2954696 -0.2658734 0.017051008 -0.42565185
-0.090175696 -0.4079345 0.06307785 -0.052847605 -0.11458968 0.10966902 0.2864469 -0.42544472
-0.530248 0.00042907713 -0.31286317 -0.13710734 -0.18483825 0.18077539 -0.021163352 0.0021478722
-0.2926922 -0.017479207 -0.11847601 -0.18880697 0.2518906 0.09811288 -0.24307738 0.015775748
-0.3001477 0.21397172 -0.09452137 0.1525675 -0.15290515 -0.12989108 -0.12151666 -0.21161975
-0.15438968 -0.17662059 -0.17774253 -0.51269597 -0.195579 -0.3243069 -0.29420188 -0.1719401
-0.49120945 -0.48755187 0.051398627 -0.28994983 -0.34736198 0.012094396 -0.46744472 -0.32195404
-0.11033768 0.25240332 0.13591407 -0.13288315 -0.26468518 0.17710029 -0.17068806 0.015370914
0.09527302 -0.23273084 0.22554705 -0.029597975 0.42982587 -0.05092176 0.34422997 -0.1500103
-0.12248569 -0.33707327 0.038245574 0.068193376 0.007279712 0.3250658 -0.17750953 0.06715258
-0.2575809 -0.20217907 0.28497913 -0.4211436 -0.29363635 -0.45541173 -0.17818157 0.13420536
0.13059169 0.40831363 -0.4556797 -0.10950832 -0.21803519 0.11298294 0.10321643 0.04767974
0.00082737836 0.084488295 -0.30253232 -0.1861051 -0.5613732 -0.40575194 -0.05771559 0.29742256
0.17509119 -0.25701478 -0.53296167 -0.14888982 -0.4620466 0.34602445 -0.241251 -0.09528093
-0.07298835 0.013698059 -0.323926 -0.559373 0.078740634 0.14395529 -0.25595903 -0.10237845
0.37922204 0.07051592 0.15482834 0.17615026 0.19310857 -0.10913132 -0.19780815 0.05925833
0.15566324 -0.04122676 -0.51303726 0.032930564 0.2799796 -0.20841543 0.22330369 0.12409245
-0.3061876 0.28274524 -0.26861686 0.30939567 0.21568523 0.32300195 0.03906772 0.29790857
0.058088314 0.022566931 -0.008997703 0.281947 0.036719143 0.11369943 -0.5100288 -0.294905
0.25387126 -0.22304201 0.1726411 0.24812955 -0.25365946 -0.24339662 0.1415437 -0.0036302686
00000000: df52 08be 9e38 07be 50c6 d93c 8da7 24be
00000010: bd58 293c 0dcc 8c3d 13a5 18bd eb6d d93d
00000020: a1cc e13e 82b2 e63e 7f33 33bc 348d c33e
00000030: 86db b73e 84d9 59bb 0380 36be 1404 3c3e
00000040: f5db 843e f1ab e0be 38cb 90be caaf 2a3e
00000050: 244e a63d 9ad2 5bbe ff85 003e 1a8d 29be
00000060: 901d 3a3e f6b3 67be 5af3 cb3d acb8 0dbf
00000070: 08a1 03bf 1bfa 5f3e 21cc fdbe 2365 913d
00000080: 5f28 87be 5d12 093d 0b77 a63e 745b 453e
00000090: 8868 3ebe d87c af3e af3b 8e3d c565 a83e
000000a0: ba43 07bf b1af 80be dfa9 353e 6f85 74be
000000b0: 0092 acbe b880 023e ce55 4c3e 8c19 89bb
000000c0: 7089 0d3d c731 113e 1c99 db3d 15e8 3fbe
000000d0: f10a 8bbd 93f9 a3be 1e45 a53d 9a95 04bd
000000e0: 3ad5 d1be 7853 4fbd 0f30 3bbe fa35 e63d
000000f0: dd2e b83d 1206 83bd 92a7 12bb c411 ccbe
00000100: 3172 b5be 884d 643e 5a4a ac3c 88d4 85be
00000110: b0cd e03e 6394 5c3e f4d8 943e 1bcd f4bc
00000120: da8f 8c3e 6a51 06be 7c9e 1abe 4ba6 403e
00000130: 95b9 9abe 94ac c53d 4f6a babe 2032 debe
00000140: 5f28 723e ca02 7c3e 1755 d0be 5c71 393e
00000150: 3572 0b3e ec52 04be 0b9b e5bd 7c6d 763d
00000160: c86a 553e fd20 82be 41c4 ddbc 1fdc fdbe
00000170: 518a 413c 58df 68bd 4d6f 443e 9064 bb3e
00000180: 596e 87bd b2b4 b03e 479c 743d 1845 49bd
00000190: cb47 97be 8f20 88be 8eae 8b3c 0aef d9be
000001a0: 09ae b8bd cadc d0be f62e 813d bb76 58bd
000001b0: ffad eabd 279a e03d 2ba9 923e e4d3 d9be
000001c0: 55be 07bf c2f5 e039 9a2f a0be de65 0cbe
000001d0: 3d46 3dbe 2f1d 393e c45e adbc 51c3 0c3b
000001e0: c1db 95be 8e30 8fbc 8da3 f2bd 9d56 41be
000001f0: cef7 803e 68ef c83d 47e9 78be 243c 813c
00000200: f6ac 99be 671b 5b3e 6c94 c1bd a83a 1c3e
00000210: 2b93 1cbe 2b02 05be badd f8bd d9b2 58be
00000220: 5418 1ebe 07dc 34be 2302 36be 0b40 03bf
00000230: dd45 48be 8e0b a6be a1a1 96be 1111 30be
00000240: ce7f fbbe 66a0 f9be 5e87 523d 4e74 94be
00000250: 6ed9 b1be 9327 463c ea54 efbe 29d7 a4be
00000260: b9f8 e1bd 023b 813e 0f2d 0b3e 8512 08be
00000270: d184 87be c759 353e dac8 2ebe 49d6 7b3c
00000280: 801e c33d fe50 6ebe cef5 663e 7477 f2bc
00000290: 2312 dc3e 5693 50bd e93e b03e 4d9c 19be
000002a0: c7d9 fabd de94 acbe 64a7 1c3d f8a8 8b3d
000002b0: a68a ee3b 066f a63e 0fc5 35be 4b87 893d
000002c0: a5e1 83be 0808 4fbe c9e8 913e 22a0 d7be
000002d0: 8157 96be ba2b e9be 3b75 36be 216d 093e
000002e0: d4b9 053e 7c0e d13e da4e e9be e645 e0bd
000002f0: 9e44 5fbe 9a63 e73d 2363 d33d d54b 433d
00000300: 6ce4 583a 3308 ad3d 84e5 9abe 5692 3ebe
00000310: 27b6 0fbf b8be cfbe 2f67 6cbd c547 983e
00000320: 1b4b 333e 7197 83be 2d70 08bf 9376 18be
00000330: 5f91 ecbe 1e2a b13e 810a 77be a622 c3bd
00000340: eb7a 95bd d36d 603c a1d9 a5be 1233 0fbf
00000350: c542 a13d 0469 133e 100d 83be cbab d1bd
00000360: 6429 c23e a76a 903d 528b 1e3e bc60 343e
00000370: 41be 453e 3e80 dfbd 388e 4abe ddb8 723d
00000380: 2f66 1f3e 64dd 28bd 6956 03bf 33e2 063d
00000390: 7c59 8f3e db6a 55be b9a9 643e 2f24 fe3d
000003a0: 9fc4 9cbe fcc3 903e 2688 89be 1c69 9e3e
000003b0: 97dc 5c3e 8360 a53e 7905 203d 7987 983e
000003c0: 03ee 6d3d 49de b83c 1a6b 13bc 5b5b 903e
000003d0: d066 163d 3fdb e83d 3f91 02bf cafd 96be
000003e0: 6afb 813e 2065 64be d4c8 303e ac15 7e3e
000003f0: a7df 81be f73c 79be d5f0 103e cde9 6dbb

net.2.weight f4 [256, 256]
-0.043556467 0.0013390058 -0.17484017 0.027658764 -0.030194456 -0.0122449035 0.00132842 0.003287516
0.19768 0.11683047 -0.056395493 -0.048869785 0.018860588 0.079923116 -0.002635335 0.08634642
0.059512503 0.06162733 0.045828477 -0.000257633 -0.08746166 0.011561498 0.2206088 -0.024638548
0.009756216 -0.020590156 0.032200895 -0.040461376 -0.015501298 0.045986794 0.06050343 0.05503321
-0.01448337 0.033597097 -0.03131893 0.04809107 0.043601707 0.1257523 -0.029064598 0.02906936
0.06281188 -0.03012511 0.0060033742 -0.04820524 0.018132158 -0.06812913 0.049782228 0.023955364
0.046487007 0.0023585705 0.04031566 -0.012594311 0.06182202 -0.006458226 -0.029924393 -0.041004844
-0.020052142 -0.13647293 0.046739846 0.039003313 -0.17293751 -0.005240323 0.043993123 0.02495411
-0.061979055 -0.2080318 -0.00655371 0.017768912 -0.21222895 0.04641704 -0.14075267 0.0628204
0.046852577 -0.030039791 -0.08488735 -0.111905456 -0.004046425 -0.024900744 0.0201212 -0.06056068
0.008139094 -0.048308566 0.038344346 0.0226842 -0.0030262969 -0.07537795 0.027124325 -0.0070773535
-0.022977777 -0.009645351 0.014132831 -0.02684395 0.043821607 -0.06036165 -0.04646601 -0.061767645
0.01850907 -0.13033065 0.020474669 -0.12853138 0.029465161 0.049185406 -0.011971229 0.041350264
-0.050516438 0.04464463 -0.012099081 -0.00074413745 -0.031110091 0.004120663 0.021382526 0.016446248
0.058761984 -0.29205728 0.028929368 -0.16073993 -0.16221541 -0.050263405 0.0031589658 0.03871198
-0.0020389173 -0.1042176 -0.015386928 -0.05585013 -0.05180734 -0.0963398 -0.06942413 -0.09056282
-0.062428452 -0.0626726 -0.051147103 -0.015948981 0.056852706 0.021328695 0.09401263 -0.0072228634
0.07253536 -0.018920531 -0.006332664 -0.085168466 0.030077666 -0.03932439 -0.074108325 0.008647879
-0.050871685 -0.0025862802 0.046329584 -0.047625802 0.01769726 -0.015344 0.0071969233 0.027683131
-0.0893714 -0.04137888 -0.08603274 0.030553307 -0.0019620955 -0.13163279 -0.06755753 -0.024519263
-0.11860636 -0.06173098 -0.08299358 -0.0311769 -0.03827698 -0.0632238 -0.1892806 -0.02286829
0.023054184 0.04789601 -0.035422303 -0.15271093 0.046443157 0.00044338402 0.038787153 -0.05009609
-0.24749441 -0.010448628 -0.0060227024 -0.061724856 0.026260145 -0.012456243 -0.1644259 0.012688176
0.010690182 0.019052945 -0.046976432 -0.0341264 -0.025558995 0.060726967 -0.2625389 0.0072843377
-0.15727982 -0.019955883 0.061849855 -0.012335071 -0.005275242 -0.15957625 0.040892962 0.008740813
-0.0071652667 -0.029539242 0.017325431 0.02547409 0.05161963 -0.029928613 -0.09222426 0.04741647
-0.074585244 -0.0939251 0.040034395 0.0508442 0.0031554878 0.030629016 -0.062055796 -0.026225202
0.068440445 -0.10878723 -0.0448361 0.033415623 -0.0659651 0.014110011 0.015363677 -0.02385486
0.013021581 -0.0436617 -0.03373655 -0.018630132 0.007444742 -0.032602947 0.07477918 -0.021197367
0.01254123 -0.052493088 0.02043732 -0.015215395 0.0033555857 0.09435052 0.013821865 -0.047009565
0.0015615303 0.010583672 -0.056942012 0.014803434 -0.045684826 -0.049173344 -0.0036093637 -0.05689964
0.043514397 0.024888918 -0.0103698075 -0.046911303 0.021410353 0.026080197 -0.013645258 0.011025553
00000000: 4468 32bd 9481 af3a 4d09 33be a294 e23c
00000010: 5d5a f7bc d99e 48bc 611e ae3a 5e73 573b
00000020: a06c 4a3e d044 ef3d f6fe 66bd af2b 48bd
00000030: 8581 9a3c bbae a33d 96b5 2cbb 64d6 b03d
00000040: 62c3 733d f06c 7c3d a4b6 3b3d ea12 87b9
00000050: 191f b3bd 706c 3d3c 46e7 613e c8d6 c9bc
00000060: 89d8 1f3c b0ac a8bc 16e5 033d d4ba 25bd
00000070: 28f9 7dbc a65c 3c3d 72d2 773d 816a 613d
00000080: a84b 6dbc 1c9d 093d 4748 00bd 24fb 443d
00000090: b497 323d 36c5 003e e118 eebc de22 ee3c
000000a0: 84a3 803d efc8 f6bc f4b7 c43b dc72 45bd
000000b0: e489 943c 4987 8bbd 73e8 4b3d 0a3e c43c
000000c0: 2969 3e3d 3f92 1a3b 0922 253d 5e58 4ebc
000000d0: 1639 7d3d 879f d3bb 0024 f5bc b2f4 27bd
000000e0: 6444 a4bc 8fbf 0bbe 4872 3f3d f0c1 1f3d
000000f0: 8816 31be 04b7 abbb 2232 343d 906c cc3c
00000100: c0dd 7dbd 4a06 55be 81c0 d6bb 1c90 913c
00000110: 8c52 59be cb1f 3e3d 7821 10be fba7 803d
00000120: 7de8 3f3d 0216 f6bc 6bd9 adbd b02e e5bd
00000130: e097 84bb a5fc cbbc 37d5 a43c 7a0e 78bd
00000140: d659 053c 34df 45bd f60e 1d3d 37d4 b93c
00000150: d654 46bb c15f 9abd d533 de3c 25e9 e7bb
00000160: e43b bcbc 8907 1ebc 648d 673c d8e7 dbbc
00000170: 497e 333d c73d 77bd 2553 3ebd 1200 7dbd
00000180: 55a0 973c 6675 05be 7eba a73c bb9d 03be
00000190: ec60 f13c a376 493d f922 44bc e55e 293d
000001a0: 53ea 4ebd 4add 363d 393b 46bc 3812 43ba
000001b0: 97da febc a006 873b 682a af3c 48ba 863c
000001c0: 68b0 703d 8888 95be 48fd ec3c 0299 24be
000001d0: cc1b 26be 00e1 4dbd a706 4f3b 7490 1e3d
000001e0: 5b9f 05bb 0970 d5bd 7419 7cbc 1bc3 64bd
000001f0: ef33 54bd cd4d c5bd 3d2e 8ebd 0079 b9bd
00000200: fab4 7fbd 7e5a 80bd a07f 51bd 70a7 82bc
00000210: 62de 683d 84b9 ae3c b289 c03d c5ad ecbb
00000220: 6b8d 943d 3bff 9abc 3c82 cfbb ce6c aebd
00000230: 7065 f63c 9d12 21bd 1bc6 97bd d5af 0d3c
00000240: d45e 50bd 957e 29bb 17c4 3d3d 4613 43bd
00000250: d8f9 903c 6765 7bbc 2bd4 eb3b bcc7 e23c
00000260: 5a08 b7bd e77c 29bd ef31 b0bd ee4a fa3c
00000270: 8096 00bb bfca 06be 9a5b 8abd 9fdc c8bc
00000280: e4e7 f2bd a0d9 7cbd 8af8 a9bd b366 ffbc
00000290: 53c8 1cbd 7b7b 81bd c6d2 41be 4856 bbbc
000002a0: 21dc bc3c 9b2e 443d fa16 11bd 4160 1cbe
000002b0: 2e3b 3e3d ff75 e839 47df 1e3d 8f31 4dbd
000002c0: 2d6f 7dbe b930 2bbc 175a c5bb 34d3 7cbd
000002d0: 841f d73c 4515 4cbc 435f 28be 11e2 4f3c
000002e0: e025 2f3c ec14 9c3c 5c6a 40bd 20c8 0bbd
000002f0: 1961 d1bc d7bc 783d 806b 86be 74b1 ee3b
00000300: f60d 21be 857a a3bc 4656 7d3d 0a19 4abc
00000310: f0db acbb f567 23be 617f 273d a035 0f3c
00000320: 9dca eabb 48fc f1bc 10ee 8d3c 0aaf d03c
00000330: 1b6f 533d da2c f5bc 13e0 bcbd c637 423d
00000340: 26c0 98bd ce5b c0bd 1bfb 233d 0242 503d
00000350: 4dcc 4e3b b4e9 fa3c 382e 7ebd 3cd6 d6bc
00000360: 812a 8c3d d7cb debd 0fa6 37bd d2de 083d
00000370: b618 87bd ad2d 673c efb7 7b3c 446b c3bc
00000380: 7858 553c 9cd6 32bd 562f 0abd 389e 98bc
00000390: 06f3 f33b ab8a 05bd d425 993d 1aa6 adbc
000003a0: bb79 4d3c fe02 57bd 2b6c a73c fe49 79bc
000003b0: 63e9 5b3b d83a c13d 1b75 623c 1a8d 40bd
000003c0: 43ac cc3a 2367 2d3c 073c 69bd 1a8a 723c
000003d0: 0320 3bbd fd69 49bd 138b 6cbb 990f 69bd
000003e0: 273c 323d d8e3 cb3c 20e6 29bc 1126 40bd
000003f0: c464 af3c 23a6 d53c 5c90 5fbc 85a4 343c

net.2.bias f4 [256]
-0.018498205 -0.03922621 -0.059113413 -0.04834861 0.015458536 0.007635458 -0.011374642 -0.019464774
-0.057361223 0.021437135 -0.036673296 -0.01969872 -0.020351574 -0.023300763 -0.06789764 0.015771747
-0.05295616 0.013167751 -0.05968784 0.018424446 -0.024491828 -0.030497666 -0.011476221 -0.040990863
-0.07002533 0.025033697 -0.05999534 -0.016166972 -0.004157948 0.025350442 -0.06937892 -0.06575311
-0.05127781 0.021501737 -0.045428347 -0.12524617 -0.0888377 0.0025292665 -0.049561072 -0.004950019
-0.05899205 -0.03339305 0.0138021875 0.0027991924 -0.0022428252 0.013572129 -0.06476168 -0.055129584
-0.022954725 0.008344512 -0.024372062 -0.04758006 -0.071515426 -0.03207202 -0.036955234 -0.025782876
-0.015773082 -0.06877124 -0.027627053 -0.06294321 0.09531804 -0.013938389 -0.04951179 -0.070742875
-0.07203869 -0.012747011 -0.072930224 -0.04706627 0.0105329435 -0.0005299332 -0.064056404 0.06373005
-0.07521479 -0.032609798 -0.032084007 -0.0074972864 -0.06562999 0.010108339 -0.03087366 -0.010437188
-0.06393899 0.029399244 -0.03530685 0.17295587 -0.071589574 -0.013516192 0.15055712 0.010663977
-0.044971656 -0.054486394 -0.042500734 -0.011679452 -0.02516214 -0.009973336 0.007848732 -0.0075049475
-0.06250149 -0.00038138064 -0.012544319 -0.016954925 -0.04255342 -0.010360841 -0.06412605 0.031175848
-0.07668577 -0.046201706 -0.051900085 -0.1194974 0.010119038 -0.061578654 0.07510304 -0.11382772
-0.02206081 -0.030618161 -0.040194176 -0.083797365 -0.0043367683 0.00064729206 -0.0034831804 -0.07111623
-0.08082983 -0.03736517 -0.06816815 -0.028289506 0.014610629 -0.08666134 -0.07413369 -0.032563012
-0.029713789 -0.07546169 -0.015766138 0.016580427 -0.05277874 0.00050825084 0.0001028578 -0.03226634
0.01804225 -0.053682152 -0.075540476 -0.0059619993 -0.09348422 -0.08725319 -0.0048471508 -0.060540833
-0.06406294 0.011846522 0.012483917 -0.04663723 0.0056915153 -0.044164367 0.004489562 -0.024512028
-0.044719957 -0.052429967 -0.063173816 -0.017474776 -0.009472299 -8.462802e-05 0.22467299 0.010161759
0.040389776 -0.06906588 0.005519885 -0.026345205 0.11111132 0.0009938669 -0.046901517 -0.05579421
-0.031871986 -0.06331309 -0.0643905 -0.003995062 -0.039821036 0.009655537 -0.019916888 -0.13304967
-0.03781328 0.011849603 -0.075983085 -0.061741326 -0.029276071 0.078379415 -0.018716207 -0.13716802
-0.03971522 -0.07560771 -0.01668837 0.027385922 -0.010494238 0.0016483665 0.08050924 -0.11942996
-0.056794606 -0.06960652 -0.028538534 -0.020184936 0.00031881902 -0.01940306 -0.056878097 -0.07633913
-0.06735226 -0.060695216 -0.041371554 -0.008886415 -0.019954791 -0.010191672 0.021691157 -0.06886776
-0.0019264676 -0.022147153 -0.076468304 -0.057084855 0.07572809 -0.0240693 -0.06511907 -0.030314408
-0.0020717848 0.02970733 0.0002618319 -0.056105897 -0.0932428 -0.05694144 0.013177066 -0.051687546
-0.005920365 -0.12421623 -0.013236662 -0.00038671482 -0.068569995 -0.04076246 -0.03820309 -0.073353544
-0.010954167 -0.041881114 -0.019082107 -0.026332414 -0.020243712 -0.019634107 0.016458418 -0.04463863
-0.08112973 0.0090045305 -0.0035667138 -0.0057846517 -0.002054379 -0.049511187 -0.035935983 -0.058243144
-0.03646651 0.0134313805 -0.065938935 -0.03372084 -0.0095397495 -0.008576212 -0.01204087 -0.021359025
00000000: 8c89 97bc aaab 20bd e820 72bd 3109 46bd
00000010: cd45 7d3c dd32 fa3b b55c 3abc 9774 9fbc
00000020: 9af3 6abd ee9c af3c bd36 16bd 365f a1bc
00000030: 58b8 a6bc 3ee1 bebc eb0d 8bbd c033 813c
00000040: 8fe8 58bd 8dbd 573c 3d7b 74bd ddee 963c
00000050: 16a3 c8bc 3ed6 f9bc c206 3cbc 09e6 27bd
00000060: 7169 8fbd 7813 cd3c acbd 75bd 9970 84bc
00000070: 653f 88bb bbab cf3c 8916 8ebd 91a9 86bd
00000080: ae08 52bd 6924 b03c 1313 3abd 8840 00be
00000090: 8af0 b5bd 0dc2 253b 8d00 4bbd c533 a2bb
000000a0: a6a1 71bd 27c7 08bd 9222 623c a872 373b
000000b0: 5dfc 12bb a35d 5e3c c6a1 84bd 8fcf 61bd
000000c0: 8c0b bcbc 6cb7 083c eba7 c7bc 4fe3 42bd
000000d0: ae76 92bd f35d 03bd 5f5e 17bd 9c36 d3bc
000000e0: 8d36 81bc f0d7 8cbd 2152 e2bc 5fe8 80bd
000000f0: 1b36 c33d d75d 64bc e0cc 4abd a4e1 90bd
00000100: 0589 93bd d7d8 50bc 715c 95bd 90c8 40bd
00000110: 5e92 2c3c 37eb 0aba 0130 83bd e784 823d
00000120: 360a 9abd da91 05bd 856a 03bd ccab f5bb
00000130: 0469 86bd 729d 253c c2ea fcbc bd00 2bbc
00000140: 72f2 82bd afd6 f03c ea9d 10bd 581b 313e
00000150: 8e9d 92bd 0573 5dbc a52b 1a3e f6b7 2e3c
00000160: 3334 38bd 202d 5fbd 4015 2ebd 2c5b 3fbc
00000170: d520 cebc 3467 23bc f897 003c 10ec f5bb
00000180: c800 80bd 0bf4 c7b9 b086 4dbc 0ee5 8abc
00000190: 7f4c 2ebd 84c0 29bc 8554 83bd 7e64 ff3c
000001a0: 6e0d 9dbd 003e 3dbd 2f95 54bd 0ebb f4bd
000001b0: 52ca 253c e639 7cbd 9fcf 993d 821e e9bd
000001c0: dfb8 b4bc f0d2 fabc a6a2 24bd f49d abbd
000001d0: 731b 8ebb 09af 293a 1246 64bb 63a5 91bd
000001e0: 1c8a a5bd 380c 19bd be9b 8bbd 65bf e7bc
000001f0: 6b61 6f3c 807b b1bd 67d3 97bd cb60 05bd
00000200: 556a f3bc a98b 9abd fd27 81bc add3 873c
00000210: 852e 58bd 233c 053a 5cb5 d738 b629 04bd
00000220: 57cd 933c d1e1 5bbd f7b4 9abd e05c c3bb
00000230: a874 bfbd cdb1 b2bd d9d4 9ebb aaf9 77bd
00000240: 6e33 83bd ea17 423c 5889 4c3c ae06 3fbd
00000250: e47f ba3b b2e5 34bd 2d1d 933b 73cd c8bc
00000260: 462c 37bd cec0 56bd 4661 81bd 4327 8fbc
00000270: b431 1bbc 537a b1b8 ad10 663e 827d 263c
00000280: c06f 253d 6972 8dbd 27e0 b43b e6d1 d7bc
00000290: 558e e33d a444 823a ce1b 40bd 7888 64bd
000002a0: 338c 02bd 4baa 81bd 2bdf 83bd 02e9 82bb
000002b0: 621b 23bd 4232 1e3c be28 a3bc 2c3e 08be
000002c0: 19e2 1abd d624 423c 059d 9bbd 79e4 7cbd
000002d0: 5fd4 efbc 6385 a03d bb52 99bc c675 0cbe
000002e0: 6dac 22bd 37d8 9abd 0cb6 88bc 7158 e03c
000002f0: 06f0 2bbc 000e d83a 07e2 a43d b297 f4bd
00000300: 76a1 68bd dd8d 8ebd a5c9 e9bc e15a a5bc
00000310: 2a27 a739 2bf3 9ebc 02f9 68bd b157 9cbd
00000320: fbef 89bd 8c9b 78bd 3875 29bd 5398 11bc
00000330: 3b78 a3bc f8fa 26bc a7b1 b13c 8a0a 8dbd
00000340: 8781 fcba f26d b5bc 6a9b 9cbd cfd1 69bd
00000350: 5417 9b3d fb2c c5bc 265d 85bd ec55 f8bc
00000360: c8c6 07bb c95c f33c 7c46 8939 4ccf 65bd
00000370: 15f6 bebd 6d3b 69bd 9fe4 573c 52b6 53bd
00000380: 9fff c1bb 1465 febd 96de 58bc fcbf cab9
00000390: 6d6e 8cbd 8af6 26bd d87a 1cbd 623a 96bd
000003a0: 1b79 33bc 888b 2bbd 1452 9cbc 13b7 d7bc
000003b0: 24d6 a5bc b5d7 a0bc ced3 863c ffd6 36bd
000003c0: 5827 a6bd bd87 133c 87bf 69bb 2d8d bdbb
000003d0: c3a2 06bb 3ecc 4abd 9c31 13bd 5d90 6ebd
000003e0: e85d 15bd 4b0f 5c3c fe0a 87bd dd1e 0abd
000003f0: 9c4c 1cbc 3e83 0cbc 1247 45bc 1ff9 aebc

net.4.weight f4 [256, 256]
-0.03609317 -0.022467477 -0.024845868 -0.07036867 -0.10171376 -0.25380927 0.019678924 -0.011856703
0.121137604 0.029117089 -0.021334847 -0.052377567 0.012963757 -0.025340647 -0.011733428 -0.012888182
0.16656663 -0.09422342 -0.057655722 -0.030153008 0.028007725 0.007864891 0.06854472 0.16500016
-0.044164494 0.20311008 -0.06839752 -0.012148279 0.05082911 -0.052215967 -0.49043456 0.046141144
-0.00036628544 -0.065208726 -0.040160924 -0.3554446 -0.38587663 0.013663099 0.16022313 -0.025753185
0.033195883 -0.0088217305 0.009140011 0.057589505 -0.009663959 -0.0038574792 -0.016911069 0.030079072
0.05096741 0.0167812 0.23930739 0.065080725 0.32459772 0.107918106 -0.021842102 0.27611405
-0.046792164 -0.098132 0.15507336 0.014121875 -0.030669717 0.12457218 0.02241386 0.13097182
-0.005866902 0.07335218 -0.059801005 0.037257813 -0.12720631 -0.00064079603 0.15654512 -0.31968498
-0.15376997 0.021953223 0.21884169 -0.09423615 0.028529394 -0.025157487 -0.019318156 0.18319775
-0.013304891 -0.0076715564 -0.039557714 -0.005798803 -0.013072224 0.032951627 0.0048084864 0.025173176
0.12101846 -0.037858203 0.1857869 0.058312144 0.0265429 0.05661264 -0.049182218 -0.012366943
0.18015364 -0.041021653 0.0514236 0.032596737 0.11215991 -0.041061614 0.06672929 -0.16894498
0.06289488 0.08599987 -0.22323453 0.055908587 0.03366991 -0.008791067 -0.3910064 -0.067749485
-0.0124430265 0.10349253 -0.043397903 -0.25271642 0.115454465 -0.07189431 -0.06751053 0.08337242
-0.00033364794 -0.020450957 0.06592316 -0.05121439 -0.1070023 0.3073007 0.087120384 0.020156734
0.0679713 -0.09488244 -0.3168971 0.07963748 0.082426205 -0.06270084 -0.031035857 -0.0055162576
0.12956658 -0.07702613 -0.018347234 0.13035539 0.058797233 -0.016015178 0.022073092 0.028945684
0.4051716 0.00817491 -0.061436217 0.05579496 -0.11913271 -0.064139165 -0.04974487 0.004195813
0.0054184366 0.1046517 0.14138797 0.040349014 -0.028678637 0.05089086 -0.017810434 -0.055450458
0.1363728 0.1719734 -0.101414844 -0.048678946 0.47658375 -0.082878046 -0.031124625 -0.014435361
-0.3475023 -0.08844062 -0.049116984 -0.056358036 0.20618969 0.17788339 0.010020033 -0.05952157
-0.053196803 0.0591585 -0.07221506 -0.005390496 0.026203636 -0.12231971 0.15210672 0.1940318
-0.027844539 0.25230652 0.040732794 0.39751363 -0.033193026 -0.21935837 0.11516668 -0.13309896
-0.00918976 0.12884593 0.19722433 0.011744589 0.10916539 -0.056718662 0.049790397 0.09918921
-0.026332887 -0.07192712 0.048190124 -0.0034964308 0.21803842 0.09915294 0.03556654 0.02609829
-0.008844462 0.046528507 0.081534214 -0.0031610837 -0.2654937 0.08495823 -0.027211364 -0.049430564
-0.048877697 0.14213932 -0.09280819 0.14485824 -0.13590153 0.06557949 -0.0023315442 0.001166391
0.26730454 0.27504647 -0.009085953 0.012431729 0.367061 0.0016202703 0.18800013 -0.079757616
-0.07905184 0.0011288264 -0.48957828 -0.08741276 -0.0059092436 -0.15151964 0.005676437 -0.023438344
-0.061544027 0.029066935 0.019487157 -0.011807028 -0.06699423 0.03432105 0.03368169 0.011982165
-0.024755627 0.004057997 0.013901307 -0.018485993 0.08275616 0.021442102 0.036966994 0.26087695
00000000: 6fd6 13bd b70d b8bc 9089 cbbc 731d 90bd
00000010: 4e4f d0bd 4af3 81be b235 a13c 9e42 42bc
00000020: fe16 f83d f686 ee3c 6bc6 aebc dc89 56bd
00000030: f065 543c 3097 cfbc 903d 40bc f428 53bc
00000040: 7190 2a3e 35f8 c0bd 6828 6cbd 7103 f7bc
00000050: 7570 e53c bedb 003c 2d61 8c3d cdf5 283e
00000060: d4e5 34bd 17fc 4f3e 0014 8cbd 9309 47bc
00000070: 2f32 503d 69e0 55bd 3d1a fbbe 7ffe 3c3d
00000080: 000a c0b9 278c 85bd c87f 24bd d6fc b5be
00000090: 9f91 c5be 31db 5f3c 8811 243e 58f8 d2bc
000000a0: 68f8 073d 0589 10bc fcbf 153c f9e2 6b3d
000000b0: 9555 1ebc c3cd 7cbb 1589 8abc 6368 f63c
000000c0: 34c3 503d ba78 893c ff0c 753e 0b49 853d
000000d0: ac31 a63e 2b04 dd3d 35ee b2bc d25e 8d3e
000000e0: 24a9 3fbd 6ef9 c8bd 8dcb 1e3e 705f 673c
000000f0: 0f3f fbbc b31f ff3d 459d b73c 7a1d 063e
00000100: 243f c0bb ab39 963d e6f1 74bd a69b 183d
00000110: 5f42 02be 18fb 27ba 5d4d 203e c0ad a3be
00000120: e075 1dbe 3fd7 b33c 0918 603e e2fe c0bd
00000130: 7ab6 e93c 1317 cebc 1c41 9ebc 3198 3b3e
00000140: c2fc 59bc ae61 fbbb 4507 22bd e303 bebb
00000150: e22c 56bc 49f8 063d 8290 9d3b fa37 ce3c
00000160: 87d8 f73d 3411 1bbd ec3e 3e3e b7d8 6e3d
00000170: 7f70 d93c a8e2 673d 4b73 49bd b89e 4abc
00000180: 327a 383e 5206 28bd 8ea1 523d 2884 053d
00000190: 18b4 e53d 3930 28bd 5ea9 883d eaff 2cbe
000001a0: 08cf 803d b320 b03d 9897 64be 6700 653d
000001b0: 76e9 093d 6808 10bc fe31 c8be 3ec0 8abd
000001c0: d6dd 4bbc e4f3 d33d 00c2 31bd 0c64 81be
000001d0: 6473 ec3d 533d 93bd f642 8abd 29bf aa3d
000001e0: 78ed aeb9 c488 a7bc b902 873d 2ec6 51bd
000001f0: 0624 dbbd 8456 9d3e 2c6c b23d bc1f a53c
00000200: 8934 8b3d ba51 c2bd 5640 a2be fa18 a33d
00000210: 12cf a83d 4c69 80bd e93e febc b9c1 b4bb
00000220: 1aad 043e e0bf 9dbd f04c 96bc e27b 053e
00000230: 5ed5 703d 4332 83bc a1d2 b43c 801f ed3c
00000240: a772 cf3e 0ff0 053c 8ba4 7bbd 4289 643d
00000250: dafb f3bd 655b 83bd 47c1 4bbd 087d 893b
00000260: 248d b13b a153 d63d 02c8 103e 0245 253d
00000270: 76ef eabc ef72 503d 30e7 91bc 0520 63bd
00000280: 50a5 0b3e cc19 303e 96b2 cfbd 9363 47bd
00000290: c902 f43e f7bb a9bd 12f9 febc 4b82 6cbc
000002a0: d2eb b1be 5b20 b5bd e42e 49bd afd7 66bd
000002b0: 6423 533e 1027 363e 112b 243c e4cc 73bd
000002c0: e4e4 59bd 2f50 723d 7de5 93bd c2a2 b0bb
000002d0: 02a9 d63c c282 fabd ddc1 1b3e 46b0 463e
000002e0: 3b1a e4bc 522e 813e 6ed7 263d e886 cb3e
000002f0: 69f5 07bd 7b9f 60be 82dc eb3d 184b 08be
00000300: a690 16bc 30f0 033e 2df5 493e 606c 403c
00000310: 1b92 df3d d451 68bd 04f1 4b3d b623 cb3d
00000320: 11b8 d7bc 874e 93bd 0263 453d 6024 65bb
00000330: 7745 5f3e b210 cb3d 38ae 113d 15cc d53c
00000340: 5de8 10bc ad94 3e3d 69fb a63d 2f2a 4fbb
00000350: caee 87be 95fe ad3d 5eea debc b477 4abd
00000360: fb33 48bd f88c 113e 3812 bebd b855 143e
00000370: c529 0bbe 8a4e 863d d2cc 18bb 96e1 983a
00000380: 24dc 883e e4d2 8c3e 40dd 14bc 73ae 4b3c
00000390: 6bef bb3e 405f d43a 1b83 403e f657 a3bd
000003a0: eee5 a1bd 21f5 933a 01aa fabe 7605 b3bd
000003b0: 54a2 c1bb f727 1bbe 6801 ba3b c501 c0bc
000003c0: 9715 7cbd c81d ee3c 88a3 9f3c 4472 41bc
000003d0: 4534 89bd 3b94 0c3d d0f5 093d d850 443c
000003e0: 50cc cabc f2f8 843b 4fc2 633c f06f 97bc
000003f0: 107c a93d 59a7 af3c b46a 173d aa91 853e

net.4.bias f4 [256]
0.020855805 -0.034639 -0.14151794 -0.04082391 0.19491766 -0.08610763 -0.14647885 -0.10042302
0.0012865546 0.05445572 -0.09962057 -0.14113633 -0.037498172 0.05051605 0.1713195 0.19579653
-0.048846845 0.059066966 -0.06787006 -0.09443228 -0.009747883 -0.046081167 -0.05377588 -0.087666675
-0.07921712 -0.11819193 0.0159403 -0.018298721 -0.03278469 -0.10420927 -0.12498578 -0.031630542
0.10417088 -0.038275674 -0.05985414 -0.099163525 -0.08741601 -0.13462183 -0.06229915 -0.00887364
-0.07207228 -0.06307072 -0.055542555 -0.06217009 0.08656772 -0.034187164 -0.14942697 -0.048762392
-0.0304132 0.09234856 -0.03651795 0.023392687 0.06640953 -0.09620326 -0.10444887 -0.07449315
-0.0708247 -0.058773775 -0.109742455 -0.062173255 -0.062363412 -0.066695556 0.3059692 -0.13017826
0.012754823 -0.09846751 -0.13076946 -0.048963938 -0.10991499 -0.028085945 -0.14518496 -0.0764944
0.15369067 -0.007731593 -0.06893543 -0.08866961 -0.06973705 0.022039797 0.09831222 -0.04009246
-0.102226615 -0.0052528675 0.21762909 -0.09115846 -0.075846784 -0.15347427 0.18763988 0.009527201
0.026664639 -0.09724327 -0.12349317 -0.082218826 -0.07451701 -0.017874574 0.16906185 -0.06514576
-0.08477464 -0.10786167 -0.08397629 -0.028855806 0.038321495 -0.16142105 0.032512095 0.019738302
-0.04894891 -0.08900116 0.05788698 -0.2275436 0.07666443 0.047671787 -0.010285278 0.11832292
0.06279694 0.018754732 -0.014131738 -0.052591395 -0.082148954 0.07171041 -0.06257329 0.17917922
-0.124478824 -0.057298563 -0.03177074 -0.103556074 -0.056710012 -0.11788168 -0.06180451 0.06374163
-0.0696727 -0.06962968 0.07082671 -0.07913667 -0.20162863 -0.024972651 0.20282723 -0.11127689
0.026119547 0.1294688 -0.10137538 -0.047757268 -0.0054660114 -0.114112966 0.013480559 -0.17241216
0.016133146 -0.076440364 0.055112645 -0.07382386 -0.014116783 -0.07519447 -0.11044306 -0.058836948
-0.052872438 -0.020970749 -0.039548375 -0.09832571 -0.05610506 0.1795395 -0.08683945 -0.08361181
-0.06982376 -0.00452403 -0.008993342 0.18831025 -0.0472385 0.012120574 0.16945212 0.023629926
-0.02971197 -0.07643935 -0.14845346 0.052813057 -0.08952819 -0.008576118 -0.06511246 -0.025755422
-0.105402485 0.039441958 -0.109562986 0.21452874 0.034394175 -0.09476428 -0.04988329 -0.04094701
-0.056404795 -0.08049974 -0.016471583 -0.08174801 -0.06640968 0.054951016 -0.07766484 -0.04877563
-0.02802095 -0.12053521 -0.037976086 -0.0058895964 0.013536424 0.066891566 -0.007368631 -0.03302072
0.0013749971 -0.0451095 -0.08920717 0.026717136 -0.067938544 -0.03725132 -0.1217941 -0.07229224
0.27379826 -0.05013996 -0.029311188 -0.040034965 0.21981254 -0.048282843 -0.043418895 -0.03245337
-0.06043714 -0.058201287 -0.019604104 -0.06810174 -0.05066102 -0.09662803 -0.08802733 -0.10178283
-0.05445455 -0.07228988 -0.101856664 0.059905138 0.05201218 -0.03411391 0.020082105 -0.041566197
-0.09271178 -0.15374821 -0.051973715 -0.0720946 -0.052601203 -0.03315956 0.17808324 0.20822614
-0.029423479 -0.055774506 -0.08147237 -0.10785151 -0.1727126 -0.12384482 -0.042191315 -0.017236808
-0.028418723 0.09875909 0.15752928 0.08215434 0.014470662 0.021431424 -0.027942467 -0.113422774
00000000: cbd9 aa3c a0e1 0dbd 14ea 10be f936 27bd
00000010: 7f98 473e 3259 b0bd 8dfe 15be 96aa cdbd
00000020: 9ca1 a83a f60c 5f3d df05 ccbd 0b86 10be
00000030: af97 19bd ebe9 4e3d 616e 2f3e e37e 483e
00000040: a113 48bd 34f0 713d 75ff 8abd b665 c1bd
00000050: 96b5 1fbc 9bbf 3cbd 1944 5cbd 968a b3bd
00000060: 963c a2bd 9c0e f2bd 3b95 823c 33e7 95bc
00000070: 3d49 06bd ab6b d5bd 8bf8 ffbd 078f 01bd
00000080: 8b57 d53d f4c6 1cbd 9d29 75bd 3f16 cbbd
00000090: 2a07 b3bd 4eda 09be 652d 7fbd be62 11bc
000000a0: a29a 93bd 392b 81bd 9780 63bd 10a6 7ebd
000000b0: 6b4a b13d d707 0cbd 6203 19be 13bb 47bd
000000c0: 1a25 f9bc 3e21 bd3d d993 15bd 05a2 bf3c
000000d0: b801 883d 3706 c5bd 4ae9 d5bd dd8f 98bd
000000e0: 8a0c 91bd c5bc 70bd a7c0 e0bd 62a9 7ebd
000000f0: c770 7fbd ae97 88bd ffa7 9c3e 734d 05be
00000100: 9bf9 503c 55a9 c9bd 6ee8 05be 698e 48bd
00000110: 1c1b e1bd 7f14 e6bc 5eab 14be 19a9 9cbd
00000120: 1661 1d3e 4e59 fdbb 052e 8dbd 6a98 b5bd
00000130: 4cd2 8ebd ce8c b43c eb57 c93d fe37 24bd
00000140: 305c d1bd 3f20 acbb 29da 5e3e 49b1 babd
00000150: 8f55 9bbd 5c28 1dbe ab24 403e fa17 1c3c
00000160: cd6f da3c 7b27 c7bd fde9 fcbd 5862 a8bd
00000170: 609c 98bd b36d 92bc 8d1e 2d3e 246b 85bd
00000180: 549e adbd 94e6 dcbd c3fb abbd 0363 ecbc
00000190: 00f7 1c3d 8f4b 25be 672b 053d 38b2 a13c
000001a0: a77e 48bd 3d46 b6bd e61a 6d3d 3101 69be
000001b0: 3e02 9d3d 7e43 433d 9583 28bc 4953 f23d
000001c0: af9b 803d 86a3 993c ce88 67bc 136a 57bd
000001d0: b63d a8bd e8dc 923d 6d26 80bd c27a 373e
000001e0: c1ee febd e6b1 6abd 0922 02bd 3515 d4bd
000001f0: c248 68bd f36b f1bd ba26 7dbd f98a 823d
00000200: 8fb0 8ebd 019a 8ebd 980d 913d 6812 a2bd
00000210: bc77 4ebe 7293 ccbc f1b1 4f3e 23e5 e3bd
00000220: a9f8 d53c 7893 043e e59d cfbd 209d 43bd
00000230: 3a1c b3bb 0fb4 e9bd 90dd 5c3c d08c 30be
00000240: a929 843c c48c 9cbd ccbd 613d f730 97bd
00000250: 144a 67bc 8fff 99bd f92f e2bd 03ff 70bd
00000260: c590 58bd d9ca abbc 7afd 21bd fd5e c9bd
00000270: 6bce 65bd 34d9 373e e2d8 b1bd ab3c abbd
00000280: c2ff 8ebd 503e 94bb cf58 13bc 67d4 403e
00000290: 287d 41bd 5f95 463c db84 2d3e 8c93 c13c
000002a0: 8466 f3bc 3c8c 9cbd 2f04 18be 8152 583d
000002b0: 8e5a b7bd d982 0cbc ae59 85bd 09fd d2bc
000002c0: 42dd d7bd e48d 213d 8f62 e0bd 6cad 5b3e
000002d0: e8e0 0c3d c613 c2bd 6c52 4cbd 0db8 27bd
000002e0: b708 67bd 0cdd a4bd 6aef 86bc 806b a7bd
000002f0: cc01 88bd 5114 613d be0e 9fbd f4c8 47bd
00000300: 318c e5bc 2adb f6bd d08c 1bbd 84fd c0bb
00000310: e1c7 5d3c 72fe 883d 8f74 f1bb bc40 07bd
00000320: 3f39 b43a bdc4 38bd 40b2 b6bd e5dd da3c
00000330: 5d23 8bbd d794 18bd 2f6f f9bd f40d 94bd
00000340: 492f 8c3e 8f5f 4dbd 041e f0bc b4fb 23bd
00000350: 8a16 613e 3bc4 45bd 03d8 31bd d3ed 04bd
00000360: ef8c 77bd 7964 6ebd c998 a0bc ed78 8bbd
00000370: ee81 4fbd ebe4 c5bd ac47 b4bd 8473 d0bd
00000380: bc0b 5fbd b70c 94bd 3a9a d0bd 175f 753d
00000390: b90a 553d 07bb 0bbd 3a83 a43c 5141 2abd
000003a0: acdf bdbd 2c70 1dbe 64e2 54bd 55a6 93bd
000003b0: 5c74 57bd 52d2 07bd 745b 363e 3c39 553e
000003c0: 8209 f1bc cf73 64bd fcda a6bd 41e1 dcbd
000003d0: 92db 30be 5aa2 fdbd cdd0 2cbd 3534 8dbc
000003e0: 62ce e8bc 3542 ca3d 5b4f 213e 8940 a83d
000003f0: 5b16 6d3c f490 af3c 9ae7 e4bc 334a e8bd

net.6.weight f4 [7, 256]
0.44391146 0.091190375 0.13270077 0.11152723 0.155203 0.110898964 -0.15998673 -0.053519983
0.2154278 -0.022267906 -0.038883198 -0.26053837 -0.25869104 -0.30180416 0.20843337 0.18701927
0.22631277 0.09407157 0.13208368 -0.028396698 -0.02911957 -0.10613018 0.015956484 0.42156795
-0.5015792 0.4106748 -0.25854757 0.08277777 0.82723176 -0.35411042 -0.01968156 0.19856998
-0.117848344 -0.10823772 0.43475798 -0.2933184 -0.31234938 0.0098242825 0.2121167 0.34357658
-0.13920766 -0.031825792 0.008020845 0.11642953 0.11577004 -0.14901836 0.29762986 -0.11238901
-0.034391865 0.147703 0.1208242 0.018357893 -0.1938921 -0.03483033 0.07972792 -0.12006097
0.12986071 0.8500282 0.53281873 -0.3431721 -0.011679768 -0.38853297 0.21600516 0.115822636
-0.01189337 0.113974504 0.021131514 -0.44279686 0.007569953 0.0072652646 -0.01493033 -0.08249478
0.12691647 0.13379882 -0.011994629 0.46427417 -0.19759996 0.1948993 0.06315818 0.1706126
-0.0054568155 -0.27250567 0.18382864 -0.07268712 -0.18241186 0.32008886 0.18963236 0.02900463
0.16535863 -0.08285587 0.20324042 -0.041306436 0.086268984 0.10683692 0.16602688 0.006352894
0.30197743 0.1146132 -0.03658578 -0.16748865 -0.30562136 -0.19687715 -0.070805326 -0.17696932
0.0114850085 0.0029912402 0.08023319 -0.19244576 0.098762736 -0.19056422 0.3191464 0.15487237
0.24607135 0.106126085 -0.009318892 -0.07051743 0.011291929 0.09500441 -0.014304755 0.19129393
-0.05753338 0.14021091 -0.06529298 -0.2390006 -0.050291725 -0.35141918 -0.1444033 0.0046990192
-0.105170384 -0.08971152 -0.09297301 0.082241334 0.314782 0.23521104 0.1596657 -0.047420852
0.23102176 0.07798058 -0.054025 -0.10198159 0.12843576 -0.021526597 -0.06801968 0.05058725
0.11644975 0.0814799 -0.1923597 -0.040308848 -0.10903062 0.082567066 -0.08502822 -0.04283274
0.5135667 -0.60086334 0.07451936 -0.065099664 0.048788402 0.12601784 0.1962861 -0.08041445
0.34008804 -0.16774322 -0.014529377 0.15964043 0.037993915 -0.115198076 0.20349027 -0.14779875
0.16406715 0.00076207565 0.059606794 0.1321187 -0.3100405 0.043392256 -0.17955373 -0.32211536
0.26231351 0.05960301 0.16858423 0.1649014 -0.13407367 0.008066289 -0.00521435 -0.2811924
0.18885142 -0.6545755 -0.0013035423 0.056698237 -0.017441036 0.20758162 -0.030404205 0.0030185664
-0.004881013 -0.13682376 0.2802818 0.32046986 -0.15494412 0.038481604 0.19154897 -0.047631126
0.25892955 0.0033315711 -0.00093022897 0.051744513 -0.0208443 -0.047660787 0.16999716 0.049717274
0.21325786 -0.029938217 -0.08544989 0.2806968 0.21672131 -0.015059345 -0.018301236 0.13165857
-0.108505264 0.039655108 0.02969508 0.034517914 -0.043110464 0.3904249 -0.020822827 -0.20642708
0.051115233 -0.21335621 -0.13452747 -0.16180445 0.19083671 -0.029337835 0.49892047 -0.050823264
-0.04816846 -0.09563474 0.20271891 0.4552714 0.010514773 -0.24242425 0.1963948 0.19213556
0.05324313 -0.05181233 -0.038869027 0.029429693 -0.094459 -0.5571856 0.037281718 0.054457866
-0.15700394 0.089730926 0.20442131 0.27838317 -0.5582137 0.18567643 -0.10709243 -0.40894732
00000000: 5d48 e33e 05c2 ba3d b6e2 073e 6368 e43d
00000010: 89ed 1e3e ff1e e33d 90d3 23be c537 5bbd
00000020: 1b99 5c3e 2f6b b6bc fd43 1fbd 4965 85be
00000030: 2773 84be 1386 9abe 8f6f 553e fb81 3f3e
00000040: 89be 673e 98a8 c03d f240 073e 31a0 e8bc
00000050: 2a8c eebc c85a d9bd 2cb7 823c c1d7 d73e
00000060: 7f67 00bf f843 d23e 5960 84be 6487 a93d
00000070: 76c5 533f f64d b5be 393b a1bc ee55 4b3e
00000080: 795a f1bd bdab ddbd 9998 de3e d42d 96be
00000090: 42ec 9fbe 07f6 203c 1f35 593e 45e9 af3e
000000a0: 748c 0ebe c35b 02bd dd69 033c 9b72 ee3d
000000b0: d818 ed3d 4598 18be f162 983e 362c e6bd
000000c0: 7cde 0cbd 753f 173e ae72 f73d 4b63 963c
000000d0: a78b 46be 40aa 0ebd 6448 a33d 87e2 f5bd
000000e0: 35fa 043e 739b 593f cf66 083f 41b4 afbe
000000f0: 7f5c 3fbc cbed c6be 7530 5d3e 6b34 ed3d
00000100: 69dc 42bc 776b e93d ff1b ad3c 45b6 e2be
00000110: 5e0d f83b 7511 ee3b 589e 74bc 06f3 a8bd
00000120: 64f6 013e 8f02 093e 1f85 44bc 58b5 ed3e
00000130: a557 4abe af93 473e 1359 813d 12b5 2e3e
00000140: 16cf b2bb dd85 8bbe 933d 3c3e fcdc 94bd
00000150: 2dca 3abe b0e2 a33e fc2e 423e 1e9b ed3c
00000160: c653 293e 57b0 a9bd 421e 503e f030 29bd
00000170: cbad b03d 51cd da3d f302 2a3e f02b d03b
00000180: c99c 9a3e 53ba ea3d f9da 15bd 2582 2bbe
00000190: 677a 9cbe 2a9a 49be 6202 91bd 7237 35be
000001a0: 9e2b 3c3c af08 443b 4c51 a43d 8010 45be
000001b0: 1e44 ca3d 4423 43be 2867 a33e dd96 1e3e
000001c0: 21fa 7b3e a258 d93d 44ae 18bc 716b 90bd
000001d0: c801 393c ac91 c23d 7e5e 6abc 8ee2 433e
000001e0: 1fa8 6bbd 7393 0f3e 53b8 85bd 93bc 74be
000001f0: b2fe 4dbd 37ed b3be 75de 13be 3bfa 993b
00000200: 9263 d7bd acba b7bd a268 bebd 256e a83d
00000210: 1b2b a13e 2adb 703e 687f 233e 5e3c 42bd
00000220: f890 6c3e 48b4 9f3d 5249 5dbd b9db d0bd
00000230: aa84 033e 8c58 b0bc e74d 8bbd 9434 4f3d
00000240: 357d ee3d efde a63d f1f9 44be e41a 25bd
00000250: 724b dfbd ec18 a93d 4723 aebd 6271 2fbd
00000260: 1b79 033f 2ed2 19bf 9b9d 983d f952 85bd
00000270: 59d6 473d d20a 013e 39ff 483e 55b0 a4bd
00000280: 0520 ae3e e1c4 2bbe a00c 6ebc c878 233e
00000290: 829f 1b3d f8ec ebbd c15f 503e 8e58 17be
000002a0: 3801 283e 08c6 473a 4126 743d 204a 073e
000002b0: a1bd 9ebe 14bc 313d efdc 37be 4eec a4be
000002c0: f54d 863e 4922 743d 58a1 2c3e eadb 283e
000002d0: 9c4a 09be 7828 043c 23dd aabb 73f8 8fbe
000002e0: 4462 413e 4392 27bf 9fdb aaba 693c 683d
000002f0: 81e0 8ebc 4790 543e 3d12 f9bc 24d3 453b
00000300: e8f0 9fbb 871b 0cbe 1981 8f3e a014 a43e
00000310: aca9 1ebe e39e 1d3d 6a25 443e db18 43bd
00000320: 6a92 843e 7d56 5a3b 9cda 73ba 0ef2 533d
00000330: aac1 aabc f537 43bd bc13 2e3e 57a4 4b3d
00000340: 4560 5a3e fe40 f5bc 5a00 afbd 7eb7 8f3e
00000350: 31ec 5d3e 79bb 76bc 79ec 95bc 81d1 063e
00000360: 0238 debd 656d 223d 1943 f33c a862 0d3d
00000370: 9994 30bd c6e5 c73e a294 aabc 9f61 53be
00000380: 355e 513d 0d7a 5abe 92c1 09be 11b0 25be
00000390: b36a 433e e655 f0bc 8172 ff3e 0e2c 50bd
000003a0: 4b4c 45bd 26dc c3bd 8c95 4f3e 5519 e93e
000003b0: 2846 2c3c 103e 78be b81b 493e 2fbf 443e
000003c0: 7815 5a3d 2a39 54bd 2135 1fbd 8a16 f13c
000003d0: b873 c1bd b7a3 0ebf b7b4 183d 360f 5f3d
000003e0: a4c5 20be d9c4 b73d d253 513e 3d88 8e3e
000003f0: 18e7 0ebf f621 3e3e 4753 dbbd 8b61 d1be

net.6.bias f4 [7]
0.20459604 0.22200829 -0.16697812 -0.143343 0.14898595 0.24643327 -0.25225094
00000000: a081 513e 2456 633e 50fc 2abe 82c8 12be
00000010: c68f 183e 0159 7c3e 0927 81be
