preTrained/GAIL_pretrained_6400_actor.pth (torch, 541220 bytes, 8 tensors)

net.0.weight f4 [256, 3]
000000 f5 cd 48 be fd cf 17 bf d8 f6 aa be 24 0f b3 3e
       -0.19609816 -0.5930174 -0.33391452 0.3497249
000010 e3 c5 48 3f 85 bc c3 be aa 64 01 3f 7f 57 28 3e
       0.7842695 -0.38229766 0.50544226 0.16439627
000020 e7 07 23 bf ab ba 09 bf bc 32 81 3e 7e 03 8a bc
       -0.63683933 -0.5380046 0.2523402 -0.016847368
000030 4b 86 d5 3d dc 35 e8 be 3b 17 48 be d4 69 3d 3e
       0.10426005 -0.4535359 -0.19540112 0.18497401
000040 a2 1e 6b be 38 14 9e bd 6c 3b 5f be f4 25 0c 3f
       -0.22960904 -0.077187 -0.21800011 0.5474541
000050 e5 50 09 be 90 d9 c2 be 77 02 8e 3f 14 a1 0c be
       -0.13409765 -0.38056612 1.1094502 -0.13733321
000060 ab bc 36 bf 19 ec 8d 3e 75 7a ef be 61 8f 13 bf
       -0.71381634 0.2771919 -0.46773115 -0.57640654
000070 73 27 e7 bd 33 7c 04 bf ba 49 08 bf 77 39 1c bf
       -0.11286821 -0.5175201 -0.532375 -0.61025184
000080 5d b9 5f 3e 6f 85 be be a2 2d 49 bd e1 45 02 bf
       0.21848054 -0.37211177 -0.049115784 -0.50887877
000090 a6 5d 49 be 3e 58 74 bf ee ab 3b be aa 63 9f be
       -0.1966463 -0.95447147 -0.18327305 -0.31130725
0000a0 6f 9a 08 3e b7 6e 3a 3e e5 aa e4 3e 65 70 f7 3e
       0.13340162 0.18206297 0.44661632 0.48327938
0000b0 01 dc b6 be 2a 30 33 bf 8c f9 76 3f e7 18 81 be
       -0.35714725 -0.6999537 0.9647453 -0.2521431
0000c0 39 2b 30 bf 39 cd 9d 3e e6 14 0c be f1 79 75 be
       -0.6881595 0.30820635 -0.13679847 -0.23972298
0000d0 c6 fc 90 3e 60 31 a6 3e 9f 6a d9 be 80 56 14 3f
       0.2831785 0.32459545 -0.42464158 0.5794449
0000e0 f2 83 7c bd f3 59 8c 3d 9e 38 94 be 08 03 f9 be
       -0.06164927 0.06853094 -0.28949445 -0.48635125
0000f0 7b 12 28 be c7 e0 08 bf 63 4c 5c be f8 d3 59 be
       -0.164133 -0.53467983 -0.21513514 -0.21272266
000100 6a 8d fc bd c1 9f 3d 3e eb 8a 51 be 1a cc 6f 3f
       -0.1233166 0.18517973 -0.20463149 0.9367081
000110 5a 1d 02 bf 5b 51 c0 be b8 02 09 bf 14 b6 d1 3e
       -0.50826037 -0.3756207 -0.53519773 0.40959227
000120 91 84 07 3e b9 d6 e0 3e 64 0e 29 bf f5 6d e3 3e
       0.13234164 0.4391382 -0.66037583 0.44419828
000130 48 75 c2 3e d7 f8 e3 be 98 74 8a 3c 11 28 5f 3e
       0.37980103 -0.44525787 0.0169013 0.21792628
000140 30 91 1e bf b3 53 99 bd 5f 63 f4 3d e5 42 76 bc
       -0.6194029 -0.074866675 0.11933016 -0.015030597
000150 a0 da 88 bd 5d d4 87 bc 7a 1b c7 3e 5a 14 46 bc
       -0.066823244 -0.016580755 0.3888815 -0.012089813
000160 1d a5 0c bf 8e 69 1b bf 72 a2 d9 3d 89 e3 d3 bd
       -0.5493944 -0.6070794 0.10626687 -0.10346133
000170 25 6f c4 3e 34 28 77 be ef ae f7 ba 64 51 12 bf
       0.38366047 -0.2413643 -0.0018896739 -0.5715544
000180 48 2b 0b 3f f4 61 90 bf 37 d3 bb 3e 82 33 ab be
       0.54362917 -1.1279893 0.36684582 -0.33437735
000190 34 8f c7 3e 3c 8a 46 be 89 13 2f bf c8 25 53 be
       0.38976443 -0.1938867 -0.68389183 -0.20619881
0001a0 95 8f 5e be ea c9 e1 be a7 8d 76 3d e5 17 bf bd
       -0.2173446 -0.4409936 0.060193684 -0.093307294
0001b0 f2 ff a0 3e f4 4c bc 3d 29 9c 20 be e0 85 38 bf
       0.3144527 0.09194365 -0.1568457 -0.7207928
0001c0 f6 22 5a 3f cd ef 01 bf 65 d7 48 3e d0 f4 a0 be
       0.85209596 -0.5075653 0.19613416 -0.31436777
0001d0 31 d2 d8 be 9e 91 fa bd 62 e3 01 3f 58 ae 47 bf
       -0.42347863 -0.122348055 0.50737584 -0.780004
0001e0 af 00 10 3e 5a c2 f9 3e 20 50 85 be 77 47 6f bd
       0.14062761 0.4878109 -0.26037693 -0.058417764
0001f0 53 29 f6 3e 63 ee 8e be 40 28 be be 29 ad 4a 3f
       0.48078403 -0.2791625 -0.37140083 0.7917047
000200 0b 95 d2 be f8 1f 79 be 56 48 c6 3e 3f 44 5b 3e
       -0.41129336 -0.24328601 0.38727063 0.21412753
000210 81 ac c0 3c 17 a2 01 bf e0 b8 cf be 28 0a 5f 3d
       0.023519756 -0.50637954 -0.40570736 0.054453045
000220 be d8 f7 be 3b f4 e7 be 03 7d 42 bf 3d 9a 1b 3f
       -0.4840755 -0.4530352 -0.75972 0.60782224
000230 6f 9b b8 bd 0b 81 4b 3e 11 24 ad bf 56 b0 88 3e
       -0.090140216 0.19873445 -1.3526632 0.26697034
000240 d2 18 f5 be b5 4f b3 be fb a6 28 bd ae 2c e1 be
       -0.478705 -0.3502175 -0.04117487 -0.439794
000250 3b 35 01 be 52 8c b6 bc 5f ff 90 be fd 64 92 3f
       -0.12617962 -0.022283707 -0.28319833 1.1437069
000260 b0 85 77 be c8 57 f6 3e b5 ba 1d 3f 78 9f 58 be
       -0.24172091 0.48113847 0.6161302 -0.21154583
000270 03 e8 07 bf 02 7d 29 3e 34 1c 50 3e 52 0b 08 bc
       -0.53088397 0.16551593 0.20323259 -0.00830348
000280 41 8d 12 3f e0 39 fd be 58 5a 87 3e 12 ce 15 bf
       0.57246786 -0.49458218 0.26436114 -0.58517563
000290 72 5c 7d 3d 52 70 f6 3d ae 99 43 be 67 e0 eb be
       0.06185574 0.12033142 -0.19101593 -0.46069643
0002a0 02 bc ae 3e e6 f7 af 3c b6 a6 a7 3e a8 ba 76 bd
       0.34127814 0.021480512 0.32744378 -0.060236603
0002b0 3d 02 1e bf 18 3c 37 bd af 8c c1 be 9b a9 f7 3e
       -0.61722165 -0.044735044 -0.37802646 0.48371586
0002c0 68 f4 e2 3e bb d7 3f bf ac 8d a3 be 1c 11 62 3e
       0.44327092 -0.74938554 -0.31944025 0.22076839
0002d0 53 3c 9b be 4f 56 37 bf c5 2c 38 be c8 88 8f be
       -0.3031946 -0.7161607 -0.17985828 -0.28034043
0002e0 ca 83 ea bd c5 c2 3d be 64 bb 7a be e6 fd 55 3f
       -0.11450918 -0.1853133 -0.24485546 0.83590543
0002f0 41 15 2b be d8 01 b7 be 12 cd 4f be 50 8e a9 be
       -0.16707326 -0.35743594 -0.20293072 -0.33116388
000300 44 78 68 3e 99 01 73 3f 34 c8 bb 3e 7d e2 db be
       0.22702128 0.9492431 0.3667618 -0.42946234
000310 0e 62 15 bf 63 ba 84 3d 09 53 82 bd 81 48 db 3d
       -0.58352745 0.06480863 -0.06363494 0.107071884
000320 f9 44 18 bf 9a b9 7e be 18 93 76 be d1 8f e6 bc
       -0.59480244 -0.24875489 -0.2407955 -0.028144749
000330 21 c6 3f be 00 48 87 bf 58 28 c9 be 17 5d 46 bf
       -0.18727924 -1.0568848 -0.39288592 -0.77485794
000340 41 0f 92 3e 10 ed cf 3c de 7e 7d be b5 ab fc be
       0.28527263 0.025381595 -0.24755427 -0.49349752
000350 49 a7 0d bf f7 ee 96 bd 72 0c fb 3e fe 8f af be
       -0.5533338 -0.07369798 0.49032933 -0.34289545
000360 c3 a1 1f bf 0d 05 34 3f 40 b8 c5 be 5a 67 ab 3e
       -0.62356204 0.70320207 -0.38617134 0.33477288
000370 40 97 95 bd 81 32 af bd a6 a3 47 bd 07 40 1e bf
       -0.07304239 -0.08554555 -0.04874005 -0.6181645
000380 d9 07 17 3e 22 23 b4 be 49 34 b8 be 64 1d 6d be
       0.14749087 -0.35183054 -0.3597739 -0.23155743
000390 70 91 7d bd af cd 1a 3e d1 50 08 3e 22 ee 9f 3d
       -0.061906278 0.15117525 0.13312079 0.07809092
0003a0 ca 66 51 3e f8 4d b2 be 3d c7 63 3e 8f 39 a1 3e
       0.20449367 -0.3482511 0.22243972 0.31489226
0003b0 1a 67 c4 3e 8f ba 9a be e0 9e 10 3e 68 04 6a 3e
       0.3835991 -0.30220458 0.14123106 0.22853243
0003c0 52 18 81 be 5f 34 8a bf 26 85 50 3e a9 db f3 be
       -0.25213867 -1.0797232 0.20363292 -0.47628525
0003d0 b4 45 a4 3d 72 4e af be 2d 46 8e 3e e3 a8 c1 3d
       0.08021107 -0.34239537 0.27787915 0.09456041
0003e0 64 cc 89 3e a7 92 3c 3e 10 4c 72 3e 7f 88 23 bf
       0.2691375 0.18415318 0.23661828 -0.6388015
0003f0 bc 3c 76 3e 09 4b 21 be 82 15 10 bf 26 94 65 bd
       0.24046606 -0.1575128 -0.5628282 -0.05604949

net.0.bias f4 [256]
000000 df 52 08 be 9e 38 07 be 50 c6 d9 3c 8d a7 24 be
       -0.13312863 -0.13205191 0.02658382 -0.1607954
000010 06 c4 2d 3d 85 c3 f3 3d 13 a5 18 bd f3 e2 e0 3d
       0.04242327 0.11902527 -0.037266802 0.10980787
000020 a1 cc e1 3e 82 b2 e6 3e 7f 33 33 bc 34 8d c3 3e
       0.44101432 0.45058066 -0.010937571 0.38193667
000030 21 23 b6 3e 84 d9 59 bb 03 80 36 be 14 04 3c 3e
       0.35573676 -0.0033241222 -0.1782227 0.1836093
000040 f5 db 84 3e f1 ab e0 be 38 cb 90 be ca af 2a 3e
       0.25949064 -0.4388118 -0.28280044 0.1666862
000050 24 4e a6 3d 9a d2 5b be ff 85 00 3e 1a 8d 29 be
       0.08120373 -0.21467057 0.12551115 -0.16557732
000060 90 1d 3a 3e f6 b3 67 be 5a f3 cb 3d ac b8 0d bf
       0.1817534 -0.22627243 0.09958525 -0.5535991
000070 08 a1 03 bf 1b fa 5f 3e 21 cc fd be 23 65 91 3d
       -0.5141759 0.21872751 -0.495698 0.070993684
000080 9a cc 88 be 5d 12 09 3d 0b 77 a6 3e 74 5b 45 3e
       -0.267186 0.03346478 0.32512698 0.19273168
000090 88 68 3e be d8 7c af 3e af 3b 8e 3d c5 65 a8 3e
       -0.18594563 0.34274936 0.069449775 0.32890144
0000a0 ba 43 07 bf b1 af 80 be df a9 35 3e 6f 85 74 be
       -0.5283772 -0.25134042 0.17740582 -0.23879026
0000b0 00 92 ac be b8 80 02 3e ce 55 4c 3e ab dd 37 bb
       -0.3370514 0.12744415 0.19954607 -0.0028055708
0000c0 70 89 0d 3d c7 31 11 3e 82 c2 d8 3d 6c a3 4c be
       0.0345549 0.14179145 0.105839744 -0.19984215
0000d0 f1 0a 8b bd 93 f9 a3 be 3d 15 a6 3d 9a 95 04 bd
       -0.06789196 -0.32026348 0.0810952 -0.032369234
0000e0 3a d5 d1 be 78 53 4f bd 0f 30 3b be fa 35 e6 3d
       -0.4098299 -0.05061671 -0.18280052 0.11240764
0000f0 dd 2e b8 3d 12 06 83 bd 92 a7 12 bb c4 11 cc be
       0.089933135 -0.06397642 -0.0022377712 -0.39857304
000100 ad d3 b6 be 74 37 6d 3e 5a 4a ac 3c 88 d4 85 be
       -0.3570837 0.23165685 0.021031547 -0.2613871
000110 1b b1 d9 3e 63 94 5c 3e f4 d8 94 3e 1b cd f4 bc
       0.42517933 0.2154098 0.29071772 -0.029882958
000120 da 8f 8c 3e 6a 51 06 be 7c 9e 1a be 4b a6 40 3e
       0.274535 -0.13116995 -0.1509952 0.18813436
000130 95 b9 9a be 94 ac c5 3d 4f 6a ba be 20 32 de be
       -0.30219713 0.09652057 -0.36409232 -0.43397617
000140 76 37 7e 3e ca 02 7c 3e 17 55 d0 be 5c 71 39 3e
       0.24825844 0.24610439 -0.40689918 0.1810965
000150 35 72 0b 3e ec 52 04 be 0b 9b e5 bd 7c 6d 76 3d
       0.13617785 -0.12922257 -0.11211213 0.060163006
000160 e3 04 4a 3e fd 20 82 be 41 c4 dd bc 1f dc fd be
       0.19728427 -0.25415793 -0.02707112 -0.49582002
000170 51 8a 41 3c f8 37 21 3d 4d 6f 44 3e 90 64 bb 3e
       0.011812762 0.039360017 0.19183083 0.3660016
000180 59 6e 87 bd b2 b4 b0 3e 47 9c 74 3d 18 45 49 bd
       -0.06612844 0.3451286 0.05971935 -0.04913816
000190 cb 47 97 be 8f 20 88 be 8e ae 8b 3c 0a ef d9 be
       -0.2954696 -0.2658734 0.017051008 -0.42565185
0001a0 09 ae b8 bd ca dc d0 be f6 2e 81 3d c4 45 63 bd
       -0.090175696 -0.4079345 0.06307785 -0.055486456
0001b0 ff ad ea bd bc d5 c7 3d 2b a9 92 3e e4 d3 d9 be
       -0.11458968 0.097575635 0.2864469 -0.42544472
0001c0 55 be 07 bf af a1 df bb 9a 2f a0 be 7e 9c 8d bd
       -0.530248 -0.006824694 -0.31286317 -0.06914614
0001d0 3d 46 3d be 2f 1d 39 3e de 72 cb bc 51 c3 0c 3b
       -0.18483825 0.18077539 -0.024835046 0.0021478722
0001e0 c1 db 95 be 8e 30 8f bc a1 e1 19 be 9d 56 41 be
       -0.2926922 -0.017479207 -0.15027477 -0.18880697
0001f0 8e 32 88 3e 68 ef c8 3d 47 e9 78 be 17 e8 47 3d
       0.2660107 0.09811288 -0.24307738 0.048805322
000200 f6 ac 99 be 4b e5 4c 3e 6c 94 c1 bd a8 3a 1c 3e
       -0.3001477 0.20009343 -0.09452137 0.1525675
000210 2b 93 1c be 2b 02 05 be ba dd f8 bd d9 b2 58 be
       -0.15290515 -0.12989108 -0.12151666 -0.21161975
000220 2f 0b 1f be 07 dc 34 be 23 02 36 be 0b 40 03 bf
       -0.1553161 -0.17662059 -0.17774253 -0.51269597
000230 dd 45 48 be 8e 0b a6 be a1 a1 96 be 11 11 30 be
       -0.195579 -0.3243069 -0.29420188 -0.1719401
000240 ce 7f fb be 66 a0 f9 be 5e 87 52 3d 4e 74 94 be
       -0.49120945 -0.48755187 0.051398627 -0.28994983
000250 6e d9 b1 be 45 e2 da 3c ea 54 ef be 29 d7 a4 be
       -0.34736198 0.026719222 -0.46744472 -0.32195404
000260 b9 f8 e1 bd 02 3b 81 3e 0f 2d 0b 3e 85 12 08 be
       -0.11033768 0.25240332 0.13591407 -0.13288315
000270 d1 84 87 be 54 85 92 3e da c8 2e be 99 f6 b6 3d
       -0.26468518 0.28617346 -0.17068806 0.089337535
000280 80 1e c3 3d fe 50 6e be ce f5 66 3e 74 77 f2 bc
       0.09527302 -0.23273084 0.22554705 -0.029597975
000290 73 88 da 3e 8b 04 93 bd e9 3e b0 3e 4d 9c 19 be
       0.42682227 -0.07178601 0.34422997 -0.1500103
0002a0 c7 d9 fa bd de 94 ac be 64 a7 1c 3d 08 d0 03 3d
       -0.12248569 -0.33707327 0.038245574 0.032180816
0002b0 a6 8a ee 3b 06 6f a6 3e 0f c5 35 be 33 f2 85 3d
       0.007279712 0.3250658 -0.17750953 0.065403365
0002c0 a5 e1 83 be 08 08 4f be c9 e8 91 3e 22 a0 d7 be
       -0.2575809 -0.20217907 0.28497913 -0.4211436
0002d0 81 57 96 be ba 2b e9 be d0 67 0e be 21 6d 09 3e
       -0.29363635 -0.45541173 -0.13906789 0.13420536
0002e0 d4 b9 05 3e b8 ec cf 3e da 4e e9 be e6 45 e0 bd
       0.13059169 0.4061029 -0.4556797 -0.10950832
0002f0 9e 44 5f be 9a 63 e7 3d d5 59 12 3e d5 4b 43 3d
       -0.21803519 0.11298294 0.1429208 0.04767974
000300 f3 91 02 bb 33 08 ad 3d 84 e5 9a be 56 92 3e be
       -0.0019923418 0.084488295 -0.30253232 -0.1861051
000310 27 b6 0f bf b8 be cf be 2f 67 6c bd c5 47 98 3e
       -0.5613732 -0.40575194 -0.05771559 0.29742256
000320 1b 4b 33 3e 71 97 83 be 2d 70 08 bf 93 76 18 be
       0.17509119 -0.25701478 -0.53296167 -0.14888982
000330 5f 91 ec be 6c 73 a3 3e 81 0a 77 be a6 22 c3 bd
       -0.4620466 0.31923997 -0.241251 -0.09528093
000340 73 e1 8c bd d3 6d 60 3c a1 d9 a5 be 12 33 0f bf
       -0.068789385 0.013698059 -0.323926 -0.559373
000350 c5 42 a1 3d 04 69 13 3e 10 0d 83 be cb ab d1 bd
       0.078740634 0.14395529 -0.25595903 -0.10237845
000360 64 29 c2 3e ae db 9e 3d 52 8b 1e 3e bc 60 34 3e
       0.37922204 0.07756744 0.15482834 0.17615026
000370 41 be 45 3e 3e 80 df bd 38 8e 4a be dd b8 72 3d
       0.19310857 -0.10913132 -0.19780815 0.05925833
000380 2f 66 1f 3e 64 dd 28 bd 69 56 03 bf 33 e2 06 3d
       0.15566324 -0.04122676 -0.51303726 0.032930564
000390 8f 8d 96 3e db 6a 55 be b9 a9 64 3e 2f 24 fe 3d
       0.29404876 -0.20841543 0.22330369 0.12409245
0003a0 9f c4 9c be e0 21 8c 3e 26 88 89 be 1c 69 9e 3e
       -0.3061876 0.27369595 -0.26861686 0.30939567
0003b0 97 dc 5c 3e 83 60 a5 3e 79 05 20 3d 71 97 80 3e
       0.21568523 0.32300195 0.03906772 0.2511554
0003c0 03 ee 6d 3d 49 de b8 3c 1a 6b 13 bc 5b 5b 90 3e
       0.058088314 0.022566931 -0.008997703 0.281947
0003d0 d0 66 16 3d 3f db e8 3d 3f 91 02 bf ca fd 96 be
       0.036719143 0.11369943 -0.5100288 -0.294905
0003e0 6a fb 81 3e 20 65 64 be d4 c8 30 3e 47 66 72 3e
       0.25387126 -0.22304201 0.1726411 0.23671828
0003f0 a7 df 81 be f7 3c 79 be d5 f0 10 3e cd e9 6d bb
       -0.25365946 -0.24339662 0.1415437 -0.0036302686

net.2.weight f4 [256, 256]
000000 44 68 32 bd 94 81 af 3a 4d 09 33 be a2 94 e2 3c
       -0.043556467 0.0013390058 -0.17484017 0.027658764
000010 5d 5a f7 bc d9 9e 48 bc 61 1e ae 3a 5e 73 57 3b
       -0.030194456 -0.0122449035 0.00132842 0.003287516
000020 a0 6c 4a 3e d0 44 ef 3d f6 fe 66 bd af 2b 48 bd
       0.19768 0.11683047 -0.056395493 -0.048869785
000030 85 81 9a 3c bb ae a3 3d 96 b5 2c bb 64 d6 b0 3d
       0.018860588 0.079923116 -0.002635335 0.08634642
000040 62 c3 73 3d f0 6c 7c 3d a4 b6 3b 3d ea 12 87 b9
       0.059512503 0.06162733 0.045828477 -0.000257633
000050 19 1f b3 bd 70 6c 3d 3c 46 e7 61 3e c8 d6 c9 bc
       -0.08746166 0.011561498 0.2206088 -0.024638548
000060 89 d8 1f 3c b0 ac a8 bc 16 e5 03 3d d4 ba 25 bd
       0.009756216 -0.020590156 0.032200895 -0.040461376
000070 28 f9 7d bc a6 5c 3c 3d 72 d2 77 3d 81 6a 61 3d
       -0.015501298 0.045986794 0.06050343 0.05503321
000080 a8 4b 6d bc 1c 9d 09 3d 47 48 00 bd 24 fb 44 3d
       -0.01448337 0.033597097 -0.03131893 0.04809107
000090 b4 97 32 3d 36 c5 00 3e e1 18 ee bc de 22 ee 3c
       0.043601707 0.1257523 -0.029064598 0.02906936
0000a0 84 a3 80 3d ef c8 f6 bc f4 b7 c4 3b dc 72 45 bd
       0.06281188 -0.03012511 0.0060033742 -0.04820524
0000b0 e4 89 94 3c 49 87 8b bd 73 e8 4b 3d 0a 3e c4 3c
       0.018132158 -0.06812913 0.049782228 0.023955364
0000c0 29 69 3e 3d 3f 92 1a 3b 09 22 25 3d 5e 58 4e bc
       0.046487007 0.0023585705 0.04031566 -0.012594311
0000d0 16 39 7d 3d 87 9f d3 bb 00 24 f5 bc b2 f4 27 bd
       0.06182202 -0.006458226 -0.029924393 -0.041004844
0000e0 64 44 a4 bc 8f bf 0b be 48 72 3f 3d f0 c1 1f 3d
       -0.020052142 -0.13647293 0.046739846 0.039003313
0000f0 88 16 31 be 04 b7 ab bb 22 32 34 3d 90 6c cc 3c
       -0.17293751 -0.005240323 0.043993123 0.02495411
000100 c0 dd 7d bd 4a 06 55 be 81 c0 d6 bb 1c 90 91 3c
       -0.061979055 -0.2080318 -0.00655371 0.017768912
000110 8c 52 59 be cb 1f 3e 3d 78 21 10 be fb a7 80 3d
       -0.21222895 0.04641704 -0.14075267 0.0628204
000120 7d e8 3f 3d 02 16 f6 bc 6b d9 ad bd b0 2e e5 bd
       0.046852577 -0.030039791 -0.08488735 -0.111905456
000130 e0 97 84 bb a5 fc cb bc 37 d5 a4 3c 7a 0e 78 bd
       -0.004046425 -0.024900744 0.0201212 -0.06056068
000140 d6 59 05 3c 34 df 45 bd f6 0e 1d 3d 37 d4 b9 3c
       0.008139094 -0.048308566 0.038344346 0.0226842
000150 d6 54 46 bb c1 5f 9a bd d5 33 de 3c 25 e9 e7 bb
       -0.0030262969 -0.07537795 0.027124325 -0.0070773535
000160 e4 3b bc bc 89 07 1e bc 64 8d 67 3c d8 e7 db bc
       -0.022977777 -0.009645351 0.014132831 -0.02684395
000170 49 7e 33 3d c7 3d 77 bd 25 53 3e bd 12 00 7d bd
       0.043821607 -0.06036165 -0.04646601 -0.061767645
000180 55 a0 97 3c 66 75 05 be 7e ba a7 3c bb 9d 03 be
       0.01850907 -0.13033065 0.020474669 -0.12853138
000190 ec 60 f1 3c a3 76 49 3d f9 22 44 bc e5 5e 29 3d
       0.029465161 0.049185406 -0.011971229 0.041350264
0001a0 53 ea 4e bd 4a dd 36 3d 39 3b 46 bc 38 12 43 ba
       -0.050516438 0.04464463 -0.012099081 -0.00074413745
0001b0 97 da fe bc a0 06 87 3b 68 2a af 3c 48 ba 86 3c
       -0.031110091 0.004120663 0.021382526 0.016446248
0001c0 68 b0 70 3d 88 88 95 be 48 fd ec 3c 02 99 24 be
       0.058761984 -0.29205728 0.028929368 -0.16073993
0001d0 cc 1b 26 be 00 e1 4d bd a7 06 4f 3b 74 90 1e 3d
       -0.16221541 -0.050263405 0.0031589658 0.03871198
0001e0 5b 9f 05 bb 09 70 d5 bd 74 19 7c bc 1b c3 64 bd
       -0.0020389173 -0.1042176 -0.015386928 -0.05585013
0001f0 ef 33 54 bd cd 4d c5 bd 3d 2e 8e bd 00 79 b9 bd
       -0.05180734 -0.0963398 -0.06942413 -0.09056282
000200 fa b4 7f bd 7e 5a 80 bd a0 7f 51 bd 70 a7 82 bc
       -0.062428452 -0.0626726 -0.051147103 -0.015948981
000210 62 de 68 3d 84 b9 ae 3c b2 89 c0 3d c5 ad ec bb
       0.056852706 0.021328695 0.09401263 -0.0072228634
000220 6b 8d 94 3d 3b ff 9a bc 3c 82 cf bb ce 6c ae bd
       0.07253536 -0.018920531 -0.006332664 -0.085168466
000230 70 65 f6 3c 9d 12 21 bd 1b c6 97 bd d5 af 0d 3c
       0.030077666 -0.03932439 -0.074108325 0.008647879
000240 d4 5e 50 bd 95 7e 29 bb 17 c4 3d 3d 46 13 43 bd
       -0.050871685 -0.0025862802 0.046329584 -0.047625802
000250 d8 f9 90 3c 67 65 7b bc 2b d4 eb 3b bc c7 e2 3c
       0.01769726 -0.015344 0.0071969233 0.027683131
000260 5a 08 b7 bd e7 7c 29 bd ef 31 b0 bd ee 4a fa 3c
       -0.0893714 -0.04137888 -0.08603274 0.030553307
000270 80 96 00 bb bf ca 06 be 9a 5b 8a bd 9f dc c8 bc
       -0.0019620955 -0.13163279 -0.06755753 -0.024519263
000280 e4 e7 f2 bd a0 d9 7c bd 8a f8 a9 bd b3 66 ff bc
       -0.11860636 -0.06173098 -0.08299358 -0.0311769
000290 53 c8 1c bd 7b 7b 81 bd c6 d2 41 be 48 56 bb bc
       -0.03827698 -0.0632238 -0.1892806 -0.02286829
0002a0 21 dc bc 3c 9b 2e 44 3d fa 16 11 bd 41 60 1c be
       0.023054184 0.04789601 -0.035422303 -0.15271093
0002b0 2e 3b 3e 3d ff 75 e8 39 47 df 1e 3d 8f 31 4d bd
       0.046443157 0.00044338402 0.038787153 -0.05009609
0002c0 2d 6f 7d be b9 30 2b bc 17 5a c5 bb 34 d3 7c bd
       -0.24749441 -0.010448628 -0.0060227024 -0.061724856
0002d0 84 1f d7 3c 45 15 4c bc 43 5f 28 be 11 e2 4f 3c
       0.026260145 -0.012456243 -0.1644259 0.012688176
0002e0 e0 25 2f 3c ec 14 9c 3c 5c 6a 40 bd 20 c8 0b bd
       0.010690182 0.019052945 -0.046976432 -0.0341264
0002f0 19 61 d1 bc d7 bc 78 3d 80 6b 86 be 74 b1 ee 3b
       -0.025558995 0.060726967 -0.2625389 0.0072843377
000300 f6 0d 21 be 85 7a a3 bc 46 56 7d 3d 0a 19 4a bc
       -0.15727982 -0.019955883 0.061849855 -0.012335071
000310 f0 db ac bb f5 67 23 be 61 7f 27 3d a0 35 0f 3c
       -0.005275242 -0.15957625 0.040892962 0.008740813
000320 9d ca ea bb 48 fc f1 bc 10 ee 8d 3c 0a af d0 3c
       -0.0071652667 -0.029539242 0.017325431 0.02547409
000330 1b 6f 53 3d da 2c f5 bc 13 e0 bc bd c6 37 42 3d
       0.05161963 -0.029928613 -0.09222426 0.04741647
000340 26 c0 98 bd ce 5b c0 bd 1b fb 23 3d 02 42 50 3d
       -0.074585244 -0.0939251 0.040034395 0.0508442
000350 4d cc 4e 3b b4 e9 fa 3c 38 2e 7e bd 3c d6 d6 bc
       0.0031554878 0.030629016 -0.062055796 -0.026225202
000360 81 2a 8c 3d d7 cb de bd 0f a6 37 bd d2 de 08 3d
       0.068440445 -0.10878723 -0.0448361 0.033415623
000370 b6 18 87 bd ad 2d 67 3c ef b7 7b 3c 44 6b c3 bc
       -0.0659651 0.014110011 0.015363677 -0.02385486
000380 78 58 55 3c 9c d6 32 bd 56 2f 0a bd 38 9e 98 bc
       0.013021581 -0.0436617 -0.03373655 -0.018630132
000390 06 f3 f3 3b ab 8a 05 bd d4 25 99 3d 1a a6 ad bc
       0.007444742 -0.032602947 0.07477918 -0.021197367
0003a0 bb 79 4d 3c fe 02 57 bd 2b 6c a7 3c fe 49 79 bc
       0.01254123 -0.052493088 0.02043732 -0.015215395
0003b0 63 e9 5b 3b d8 3a c1 3d 1b 75 62 3c 1a 8d 40 bd
       0.0033555857 0.09435052 0.013821865 -0.047009565
0003c0 43 ac cc 3a 23 67 2d 3c 07 3c 69 bd 1a 8a 72 3c
       0.0015615303 0.010583672 -0.056942012 0.014803434
0003d0 03 20 3b bd fd 69 49 bd 13 8b 6c bb 99 0f 69 bd
       -0.045684826 -0.049173344 -0.0036093637 -0.05689964
0003e0 27 3c 32 3d d8 e3 cb 3c 20 e6 29 bc 11 26 40 bd
       0.043514397 0.024888918 -0.0103698075 -0.046911303
0003f0 c4 64 af 3c 23 a6 d5 3c 5c 90 5f bc 85 a4 34 3c
       0.021410353 0.026080197 -0.013645258 0.011025553

net.2.bias f4 [256]
000000 8c 89 97 bc 67 67 0d bd e8 20 72 bd 31 09 46 bd
       -0.018498205 -0.03452244 -0.059113413 -0.04834861
000010 cd 45 7d 3c 4f b6 02 3d b5 5c 3a bc 97 74 9f bc
       0.015458536 0.031912144 -0.011374642 -0.019464774
000020 9a f3 6a bd ee 9c af 3c 5c 1c 49 3b 36 5f a1 bc
       -0.057361223 0.021437135 0.003068707 -0.01969872
000030 58 b8 a6 bc 3e e1 be bc eb 0d 8b bd c0 33 81 3c
       -0.020351574 -0.023300763 -0.06789764 0.015771747
000040 a3 46 0f bd 8d bd 57 3c ca 3b 15 bd 30 c4 c9 3c
       -0.034979474 0.013167751 -0.036433972 0.024629682
000050 16 a3 c8 bc 3e d6 f9 bc c2 06 3c bc 09 e6 27 bd
       -0.024491828 -0.030497666 -0.011476221 -0.040990863
000060 71 69 8f bd c2 e2 0d 3d ac bd 75 bd 99 70 84 bc
       -0.07002533 0.03464008 -0.05999534 -0.016166972
000070 65 3f 88 bb 11 76 ea 3c 6f 8a ee bd 91 a9 86 bd
       -0.004157948 0.028620752 -0.11647498 -0.06575311
000080 ae 08 52 bd 0a 81 00 3d 13 13 3a bd 7e be f3 bd
       -0.05127781 0.03137306 -0.045428347 -0.11901568
000090 8a f0 b5 bd 0d c2 25 3b 8d 00 4b bd c5 33 a2 bb
       -0.0888377 0.0025292665 -0.049561072 -0.004950019
0000a0 a6 a1 71 bd 27 c7 08 bd da eb f0 3c a8 72 37 3b
       -0.05899205 -0.03339305 0.029409338 0.0027991924
0000b0 5d fc 12 bb 22 04 a3 3c 57 cd 70 bd 81 66 b1 bc
       -0.0022428252 0.019899432 -0.058789577 -0.021655323
0000c0 e2 17 a1 bc 5c 89 44 3c eb a7 c7 bc a8 86 27 bd
       -0.019664709 0.01199564 -0.024372062 -0.040899903
0000d0 2b 7d 86 bd 76 ef b5 3c 5f 5e 17 bd 44 b3 c3 bc
       -0.06566843 0.02220891 -0.036955234 -0.023889191
0000e0 8d 36 81 bc 7b e7 7f bd d1 2c 25 bd 5f e8 80 bd
       -0.015773082 -0.062476616 -0.040325943 -0.06294321
0000f0 bc bd ff 3d d7 5d 64 bc e0 cc 4a bd a4 e1 90 bd
       0.12487361 -0.013938389 -0.04951179 -0.070742875
000100 05 89 93 bd d7 d8 50 bc 71 5c 95 bd 90 c8 40 bd
       -0.07203869 -0.012747011 -0.072930224 -0.04706627
000110 5e 92 2c 3c 37 eb 0a ba 01 30 83 bd 23 56 8f 3d
       0.0105329435 -0.0005299332 -0.064056404 0.06998851
000120 36 0a 9a bd da 91 05 bd 85 6a 03 bd 5a f1 61 3c
       -0.07521479 -0.032609798 -0.032084007 0.013790453
000130 04 69 86 bd 49 47 82 3c 16 35 ce bc bd 00 2b bc
       -0.06562999 0.015903132 -0.025171798 -0.010437188
000140 72 f2 82 bd 8b 12 2a 3d ea 9d 10 bd 76 4e 32 3e
       -0.06393899 0.04152159 -0.03530685 0.17412743
000150 2b 28 4d bd 05 73 5d bc fb 94 f7 3d f6 b7 2e 3c
       -0.050087135 -0.013516192 0.12088963 0.010663977
000160 d3 28 b3 bc 20 2d 5f bd 40 15 2e bd 2c 5b 3f bc
       -0.021870052 -0.054486394 -0.042500734 -0.011679452
000170 d5 20 ce bc 34 67 23 bc 96 53 32 3c 10 ec f5 bb
       -0.02516214 -0.009973336 0.010884186 -0.0075049475
000180 c8 00 80 bd 0b f4 c7 b9 99 ae e2 bb 0e e5 8a bc
       -0.06250149 -0.00038138064 -0.0069177863 -0.016954925
000190 7f 4c 2e bd 59 75 00 3d 85 54 83 bd c3 5a ed bc
       -0.04255342 0.03136191 -0.06412605 -0.028973943
0001a0 6e 0d 9d bd 00 3e 3d bd 2f 95 54 bd 0e bb f4 bd
       -0.07668577 -0.046201706 -0.051900085 -0.1194974
0001b0 52 ca 25 3c e6 39 7c bd ef f3 e0 3c 78 2b 57 bd
       0.010119038 -0.061578654 0.027460067 -0.05253169
0001c0 0f bd 9a bc f0 d2 fa bc a6 a2 24 bd 21 49 94 bd
       -0.018888978 -0.030618161 -0.040194176 -0.07240511
0001d0 73 1b 8e bb 09 af 29 3a 12 46 64 bb 63 a5 91 bd
       -0.0043367683 0.00064729206 -0.0034831804 -0.07111623
0001e0 e8 38 9a bc 38 0c 19 bd be 9b 8b bd 65 bf e7 bc
       -0.018825963 -0.03736517 -0.06816815 -0.028289506
0001f0 6b 61 6f 3c 80 7b b1 bd 67 d3 97 bd cb 60 05 bd
       0.014610629 -0.08666134 -0.07413369 -0.032563012
000200 55 6a f3 bc a9 8b 9a bd 02 d6 c9 bc ad d3 87 3c
       -0.029713789 -0.07546169 -0.02463818 0.016580427
000210 09 62 d7 bc 23 3c 05 3a 5c b5 d7 38 b6 29 04 bd
       -0.026291864 0.00050825084 0.0001028578 -0.03226634
000220 57 cd 93 3c d1 e1 5b bd f7 b4 9a bd b9 b2 98 39
       0.01804225 -0.053682152 -0.075540476 0.00029124858
000230 a8 74 bf bd ca 7c ab bd d9 d4 9e bb aa f9 77 bd
       -0.09348422 -0.08373411 -0.0048471508 -0.060540833
000240 8c e1 0e 3c 4d 1b 13 3d 72 0a 9a 3c ae 06 3f bd
       0.008720767 0.035914708 0.018803809 -0.04663723
000250 e4 7f ba 3b b2 e5 34 bd 2d 1d 93 3b 73 cd c8 bc
       0.0056915153 -0.044164367 0.004489562 -0.024512028
000260 b3 86 1d bd ce c0 56 bd 6a f8 68 bd 43 27 8f bc
       -0.038458537 -0.052429967 -0.05687753 -0.017474776
000270 b4 31 1b bc 53 7a b1 b8 0e 4b 52 3e 82 7d 26 3c
       -0.009472299 -8.462802e-05 0.20536444 0.010161759
000280 c0 6f 25 3d fe e6 86 bd 27 e0 b4 3b e0 21 b7 bb
       0.040389776 -0.06587027 0.005519885 -0.005588755
000290 b9 2f 84 3d a4 44 82 3a ce 1b 40 bd 78 88 64 bd
       0.06454415 0.0009938669 -0.046901517 -0.05579421
0002a0 94 fd bb bc 08 71 69 bd 2b df 83 bd 02 e9 82 bb
       -0.022948064 -0.05699256 -0.0643905 -0.003995062
0002b0 46 f6 0a bd 42 32 1e 3c c0 6e 63 bc 2c 3e 08 be
       -0.03392627 0.009655537 -0.013881385 -0.13304967
0002c0 19 e2 1a bd d6 24 42 3c 05 9d 9b bd 79 e4 7c bd
       -0.03781328 0.011849603 -0.075983085 -0.061741326
0002d0 dd 37 bc bc 0c e6 8f 3d bb 52 99 bc c6 75 0c be
       -0.022975856 0.070263 -0.018716207 -0.13716802
0002e0 5d 0b 09 bd 37 d8 9a bd 0c b6 88 bc ed 78 b3 3d
       -0.033458102 -0.07560771 -0.01668837 0.08763299
0002f0 06 f0 2b bc ef 09 95 bc 8a 9a 56 3d b2 97 f4 bd
       -0.010494238 -0.018193213 0.052393474 -0.11942996
000300 10 dd 01 bc dd 8d 8e bd a5 c9 e9 bc e1 5a a5 bc
       -0.007926241 -0.06960652 -0.028538534 -0.020184936
000310 2a 27 a7 39 2b f3 9e bc 02 f9 68 bd 51 b4 95 bd
       0.00031881902 -0.01940306 -0.056878097 -0.07309783
000320 fb ef 89 bd 8c 9b 78 bd 38 75 29 bd 53 98 11 bc
       -0.06735226 -0.060695216 -0.041371554 -0.008886415
000330 3b 78 a3 bc f8 fa 26 bc b8 59 e5 3c 8a 0a 8d bd
       -0.019954791 -0.010191672 0.027996883 -0.06886776
000340 87 81 fc ba f2 6d b5 bc 6a 9b 9c bd b3 00 21 bc
       -0.0019264676 -0.022147153 -0.076468304 -0.009826827
000350 ae e9 38 3d fb 2c c5 bc 26 5d 85 bd 62 da e0 bc
       0.04514473 -0.0240693 -0.06511907 -0.027447883
000360 28 b1 85 3b e3 a9 4e 3d 7c 46 89 39 4c cf 65 bd
       0.0040799566 0.050454985 0.0002618319 -0.056105897
000370 15 f6 be bd 6d 3b 69 bd 9f e4 57 3c 52 b6 53 bd
       -0.0932428 -0.05694144 0.013177066 -0.051687546
000380 9f ff c1 bb 14 65 fe bd 48 27 ed bb fc bf ca b9
       -0.005920365 -0.12421623 -0.0072373487 -0.00038671482
000390 6d 6e 8c bd 8a f6 26 bd d8 7a 1c bd 62 3a 96 bd
       -0.068569995 -0.04076246 -0.03820309 -0.073353544
0003a0 1b 79 33 bc d3 5e e4 bc 14 52 9c bc 13 b7 d7 bc
       -0.010954167 -0.027877247 -0.019082107 -0.026332414
0003b0 04 67 27 3d b5 d7 a0 bc 38 4e ba 3c ff d6 36 bd
       0.040869728 -0.019634107 0.022742376 -0.04463863
0003c0 dd 8d 91 bd bd 87 13 3c 87 bf 69 bb bb 61 a1 3c
       -0.071071364 0.0090045305 -0.0035667138 0.019699922
0003d0 c3 a2 06 bb 3e cc 4a bd 9c 31 13 bd 5d 90 6e bd
       -0.002054379 -0.049511187 -0.035935983 -0.058243144
0003e0 e8 5d 15 bd 4b 0f 5c 3c fe 0a 87 bd dd 1e 0a bd
       -0.03646651 0.0134313805 -0.065938935 -0.03372084
0003f0 9c 4c 1c bc 3e 83 0c bc 12 47 45 bc ba 0f 77 bc
       -0.0095397495 -0.008576212 -0.01204087 -0.015079433

net.4.weight f4 [256, 256]
000000 6f d6 13 bd b7 0d b8 bc 90 89 cb bc 73 1d 90 bd
       -0.03609317 -0.022467477 -0.024845868 -0.07036867
000010 4e 4f d0 bd 3a e2 2e bc b2 35 a1 3c 9e 42 42 bc
       -0.10171376 -0.010674054 0.019678924 -0.011856703
000020 fe 16 f8 3d f6 86 ee 3c f9 ae 47 bd dc 89 56 bd
       0.121137604 0.029117089 -0.04875085 -0.052377567
000030 f0 65 54 3c 30 97 cf bc 90 3d 40 bc f4 28 53 bc
       0.012963757 -0.025340647 -0.011733428 -0.012888182
000040 13 ea 92 3d 35 f8 c0 bd 64 36 94 3d 17 0c f7 bc
       0.07173552 -0.09422342 0.07236937 -0.030157132
000050 75 70 e5 3c be db 00 3c 2d 61 8c 3d cd f5 28 3e
       0.028007725 0.007864891 0.06854472 0.16500016
000060 d4 e5 34 bd 01 a7 9c 3e 00 14 8c bd 93 09 47 bc
       -0.044164494 0.30596164 -0.06839752 -0.012148279
000070 2f 32 50 3d f2 2d 60 bd ec 7b 29 bf 7f fe 3c 3d
       0.05082911 -0.054731317 -0.66204715 0.046141144
000080 00 0a c0 b9 f2 2a ef bc c8 7f 24 bd 0f 04 b6 be
       -0.00036628544 -0.029195283 -0.040160924 -0.3554997
000090 9f 91 c5 be 31 db 5f 3c 88 11 24 3e 58 f8 d2 bc
       -0.38587663 0.013663099 0.16022313 -0.025753185
0000a0 68 f8 07 3d 05 89 10 bc 42 12 01 3d f9 e2 6b 3d
       0.033195883 -0.0088217305 0.031511553 0.057589505
0000b0 95 55 1e bc ce b6 a9 bb ff 31 8b bc 41 13 85 3d
       -0.009663959 -0.0051792627 -0.016991613 0.06497813
0000c0 60 5e 42 3d 10 e3 ad 3c ff 0c 75 3e f6 f6 5b 3d
       0.047453284 0.021226436 0.23930739 0.053702317
0000d0 ac 31 a6 3e 08 1a 1c 3e 35 ee b2 bc d2 5e 8d 3e
       0.32459772 0.15244305 -0.021842102 0.27611405
0000e0 24 a9 3f bd 6e f9 c8 bd 2b 0a 8e 3e 70 5f 67 3c
       -0.046792164 -0.098132 0.27742133 0.014121875
0000f0 76 09 9e 3d b3 1f ff 3d 45 9d b7 3c 7a 1d 06 3e
       0.07716648 0.12457218 0.02241386 0.13097182
000100 24 3f c0 bb ab 39 96 3d e6 f1 74 bd a6 9b 18 3d
       -0.005866902 0.07335218 -0.059801005 0.037257813
000110 5f 42 02 be 18 fb 27 ba 5d 4d 20 3e ca bb a3 be
       -0.12720631 -0.00064079603 0.15654512 -0.3197921
000120 e0 75 1d be 3f d7 b3 3c 09 18 60 3e 23 28 54 bd
       -0.15376997 0.021953223 0.21884169 -0.05179609
000130 7a b6 e9 3c b8 f0 cd bc 1c 41 9e bc 31 98 3b 3e
       0.028529394 -0.025139198 -0.019318156 0.18319775
000140 c2 fc 59 bc 11 53 06 bc 45 07 22 bd 1e fa b7 3c
       -0.013304891 -0.0081985155 -0.039557714 0.022458132
000150 bf d6 91 3d 49 f8 06 3d 31 84 9c 3c fa 37 ce 3c
       0.07121038 0.032951627 0.019106003 0.025173176
000160 6a e9 52 3e 34 11 1b bd ec 3e 3e 3e b7 d8 6e 3d
       0.20596853 -0.037858203 0.1857869 0.058312144
000170 7f 70 d9 3c a8 e2 67 3d 65 fc 30 bd b8 9e 4a bc
       0.0265429 0.05661264 -0.043209452 -0.012366943
000180 32 7a 38 3e 52 06 28 bd 8e a1 52 3d 28 84 05 3d
       0.18015364 -0.041021653 0.0514236 0.032596737
000190 18 b4 e5 3d d7 93 c0 bc 5e a9 88 3d d4 ee bd bd
       0.11215991 -0.023507996 0.06672929 -0.092740685
0001a0 08 cf 80 3d b3 20 b0 3d 98 97 64 be 67 00 65 3d
       0.06289488 0.08599987 -0.22323453 0.055908587
0001b0 76 e9 09 3d 68 08 10 bc 2f 3d c9 be d3 b6 da bd
       0.03366991 -0.008791067 -0.39304492 -0.10679402
0001c0 4e 22 36 bd e4 f3 d3 3d 00 c2 31 bd 0c 64 81 be
       -0.04446631 0.10349253 -0.043397903 -0.25271642
0001d0 64 73 ec 3d 53 3d 93 bd f6 42 8a bd 29 bf aa 3d
       0.115454465 -0.07189431 -0.06751053 0.08337242
0001e0 4c d2 cb bd c4 88 a7 bc b9 02 87 3d 2e c6 51 bd
       -0.0995222 -0.020450957 0.06592316 -0.05121439
0001f0 06 24 db bd 84 56 9d 3e 2c 6c b2 3d bc 1f a5 3c
       -0.1070023 0.3073007 0.087120384 0.020156734
000200 89 34 8b 3d ba 51 c2 bd 33 6e 81 be fa 18 a3 3d
       0.0679713 -0.09488244 -0.25279388 0.07963748
000210 b9 5d 34 3e 4c 69 80 bd e9 3e fe bc b9 c1 b4 bb
       0.17613877 -0.06270084 -0.031035857 -0.0055162576
000220 1a ad 04 3e e0 bf 9d bd f0 4c 96 bc e2 7b 05 3e
       0.12956658 -0.07702613 -0.018347234 0.13035539
000230 5e d5 70 3d 43 32 83 bc a1 d2 b4 3c 80 1f ed 3c
       0.058797233 -0.016015178 0.022073092 0.028945684
000240 60 c9 51 3e 70 93 16 bc d9 fc 81 bd 42 89 64 3d
       0.20486975 -0.009190425 -0.06347055 0.05579496
000250 da fb f3 bd 65 5b 83 bd 47 c1 4b bd 08 7d 89 3b
       -0.11913271 -0.064139165 -0.04974487 0.004195813
000260 24 8d b1 3b a1 53 d6 3d 54 f5 10 3e 02 45 25 3d
       0.0054184366 0.1046517 0.14156085 0.040349014
000270 76 ef ea bc ef 72 50 3d 53 33 66 3c 05 20 63 bd
       -0.028678637 0.05089086 0.014050323 -0.055450458
000280 50 a5 0b 3e cc 19 30 3e 96 b2 cf bd cf 32 b0 3c
       0.1363728 0.1719734 -0.101414844 0.021508602
000290 69 e3 cc 3e f7 bb a9 bd 12 f9 fe bc 4b 82 6c bc
       0.4001725 -0.082878046 -0.031124625 -0.014435361
0002a0 b5 b3 ee bd 8c 1f b5 bd e4 2e 49 bd af d7 66 bd
       -0.1165537 -0.08843908 -0.049116984 -0.056358036
0002b0 64 23 53 3e 10 27 36 3e 11 2b 24 3c e4 cc 73 bd
       0.20618969 0.17788339 0.010020033 -0.05952157
0002c0 e4 e4 59 bd 2f 50 72 3d 7d e5 93 bd c2 a2 b0 bb
       -0.053196803 0.0591585 -0.07221506 -0.005390496
0002d0 02 a9 d6 3c 4f 4d 0d be dd c1 1b 3e 46 b0 46 3e
       0.026203636 -0.13799022 0.15210672 0.1940318
0002e0 3b 1a e4 bc 52 2e 81 3e 6e d7 26 3d d1 05 d8 3e
       -0.027844539 0.25230652 0.040732794 0.42191938
0002f0 69 f5 07 bd 25 a4 28 be a4 bf 80 3d 18 4b 08 be
       -0.033193026 -0.16468866 0.062865525 -0.13309896
000300 6c 05 54 bd 30 f0 03 3e 2d f5 49 3e 60 6c 40 3c
       -0.051762983 0.12884593 0.19722433 0.011744589
000310 1b 92 df 3d d4 51 68 bd 04 f1 4b 3d 74 d7 d7 3d
       0.10916539 -0.056718662 0.049790397 0.10539141
000320 11 b8 d7 bc 87 4e 93 bd 02 63 45 3d 60 24 65 bb
       -0.026332887 -0.07192712 0.048190124 -0.0034964308
000330 77 45 5f 3e b2 10 cb 3d 38 ae 11 3d 15 cc d5 3c
       0.21803842 0.09915294 0.03556654 0.02609829
000340 5d e8 10 bc ad 94 3e 3d 69 fb a6 3d 9a a7 af 3d
       -0.008844462 0.046528507 0.081534214 0.08576889
000350 6c 87 c0 be 95 fe ad 3d 5e ea de bc b4 77 4a bd
       -0.3760332 0.08495823 -0.027211364 -0.049430564
000360 fb 33 48 bd 55 b1 05 3e 38 12 be bd b8 55 14 3e
       -0.048877697 0.13055928 -0.09280819 0.14485824
000370 c5 29 0b be 8a 4e 86 3d d2 cc 18 bb 96 e1 98 3a
       -0.13590153 0.06557949 -0.0023315442 0.001166391
000380 24 dc 88 3e e4 d2 8c 3e 40 dd 14 bc 73 ae 4b 3c
       0.26730454 0.27504647 -0.009085953 0.012431729
000390 6b ef bb 3e 40 5f d4 3a 1b 83 40 3e f6 57 a3 bd
       0.367061 0.0016202703 0.18800013 -0.079757616
0003a0 ee e5 a1 bd ac a1 ed 3d 01 aa fa be 76 05 b3 bd
       -0.07905184 0.11603102 -0.48957828 -0.08741276
0003b0 fb d7 c5 3d f7 27 1b be 31 b0 b5 3b c5 01 c0 bc
       0.09660336 -0.15151964 0.0055446853 -0.023438344
0003c0 d8 68 b7 bd c8 1d ee 3c 88 a3 9f 3c 6a 17 4d bc
       -0.08955544 0.029066935 0.019487157 -0.012517789
0003d0 45 34 89 bd 3b 94 0c 3d d0 f5 09 3d d8 50 44 3c
       -0.06699423 0.03432105 0.03368169 0.011982165
0003e0 50 cc ca bc f2 f8 84 3b 4f c2 63 3c f0 6f 97 bc
       -0.024755627 0.004057997 0.013901307 -0.018485993
0003f0 10 7c a9 3d 59 a7 af 3c b4 6a 17 3d 23 98 85 3e
       0.08275616 0.021442102 0.036966994 0.26092634

net.4.bias f4 [256]
000000 63 69 07 3c 6c 1d 05 3c 14 ea 10 be f9 36 27 bd
       0.008264872 0.0081246905 -0.14151794 -0.04082391
000010 5b 01 45 3e 32 59 b0 bd 5b bd 99 bd 79 4d 93 bd
       0.19238798 -0.08610763 -0.0750682 -0.07192511
000020 f8 85 af 3c 86 80 47 3d df 05 cc bd 0f 3e d6 bd
       0.021426186 0.048706554 -0.09962057 -0.104610555
000030 3d a9 ce 3c 58 91 c3 bd c0 d7 3c 3e 52 08 4f 3e
       0.025227183 -0.095492065 0.18441677 0.20218018
000040 a1 13 48 bd e3 94 c1 3d c2 1b 67 3c b6 65 c1 bd
       -0.048846845 0.09452226 0.014105739 -0.09443228
000050 96 b5 1f bc 5b 25 1f bd 19 44 5c bd 96 0c 83 bd
       -0.009747883 -0.038853984 -0.05377588 -0.06398885
000060 69 b1 86 bd c2 59 95 bd cc f8 6b 3b 84 c2 c2 bb
       -0.06576807 -0.072925106 0.0036006449 -0.005943598
000070 fb 10 cf bc f2 43 e5 bd 05 ff be bd 80 c6 12 bc
       -0.025276652 -0.111946 -0.09325985 -0.008958459
000080 a3 43 15 3d 02 ba 42 bd 73 79 8d bd 3f 16 cb bd
       0.036441457 -0.047540672 -0.0690793 -0.099163525
000090 2a 07 b3 bd c0 ea 2f bd 7b b1 6a bd b2 a9 99 3c
       -0.08741601 -0.042948484 -0.057298165 0.018757675
0000a0 4d 29 3d bc 39 2b 81 bd 97 80 63 bd c8 93 2a bd
       -0.011545491 -0.06307072 -0.055542555 -0.04164484
0000b0 53 74 b8 3d fb 70 54 bd 2a 1b 14 be 1f c0 bd bb
       0.09006562 -0.05186556 -0.14463487 -0.005790725
0000c0 1a 25 f9 bc 3e e7 a2 3d d9 93 15 bd 84 3b 6d ba
       -0.0304132 0.07954262 -0.03651795 -0.0009049701
0000d0 1e be a8 3c 37 06 c5 bd 01 b6 cf bd c4 f1 c8 bd
       0.020598467 -0.09620326 -0.10142136 -0.09811738
0000e0 8a 0c 91 bd c5 bc 70 bd ec 0b b1 bd 81 8a f9 bc
       -0.0708247 -0.058773775 -0.08644852 -0.030461552
0000f0 c7 70 7f bd ec a1 8b bd 9c bd 9a 3e 6e 43 b6 bc
       -0.062363412 -0.068179935 0.30222785 -0.02224895
000100 c7 92 c1 3a 2f 9d 43 bd c7 b8 06 be 69 8e 48 bd
       0.0014768475 -0.047757324 -0.13156424 -0.048963938
000110 18 ea 85 bd 7f 14 e6 bc 5e ab 14 be 19 a9 9c bd
       -0.065387905 -0.028085945 -0.14518496 -0.0764944
000120 6a 8d 2f 3e d0 e9 06 be 25 9b 94 bd 58 2c 33 bc
       0.17143789 -0.1317513 -0.07256154 -0.010935865
000130 8c ac 93 bd dc 82 25 bc ea 03 be 3d fe 37 24 bd
       -0.07210645 -0.010102 0.0927809 -0.04009246
000140 15 32 39 bd ff b1 0c bd 8d cc 5f 3e 49 b1 ba bd
       -0.045213778 -0.034349438 0.21855374 -0.09115846
000150 8f bd 7a bc 7d b1 16 be af 15 49 3e 0f 5f 67 bc
       -0.015303983 -0.14716144 0.19637178 -0.014121785
000160 57 9c c4 3c 7b 27 c7 bd fd e9 fc bd 58 62 a8 bd
       0.02400033 -0.09724327 -0.12349317 -0.082218826
000170 60 9c 98 bd fa df 48 bd 9b 33 3d 3e 24 6b 85 bd
       -0.07451701 -0.049041726 0.18476717 -0.06514576
000180 0e 82 8f bd 04 a1 c6 bd c3 fb ab bd 03 63 ec bc
       -0.07007228 -0.0969868 -0.08397629 -0.028855806
000190 5e 1b 56 bb 43 e6 0e be 43 25 90 3d fa 17 55 bc
       -0.003267012 -0.13955025 0.07038357 -0.013006205
0001a0 d7 31 71 bd 3d 46 b6 bd 98 0d b0 3d fd c9 4c be
       -0.05888542 -0.08900116 0.08596343 -0.19998927
0001b0 db e9 e7 3d ac 39 2c 3b a0 47 e3 3c 0f 27 10 3e
       0.11323901 0.0026279492 0.027744114 0.140774
0001c0 06 82 d4 3d cb 7e 5d 3d f7 cd 0f bc 13 6a 57 bd
       0.103763625 0.054075997 -0.008777133 -0.052591395
0001d0 b6 3d a8 bd 29 4e 53 3d 6d 26 80 bd d0 79 41 3e
       -0.082148954 0.05158821 -0.06257329 0.18894124
0001e0 c1 ee fe bd e6 b1 6a bd 09 22 02 bd 01 d7 ab bd
       -0.124478824 -0.057298563 -0.03177074 -0.08390618
0001f0 c2 48 68 bd f3 6b f1 bd 01 e0 d6 bc 5a 90 7d 3d
       -0.056710012 -0.11788168 -0.02622986 0.061905243
000200 df 83 53 bd 01 9a 8e bd 1c c1 74 3d 4d cb 1a bc
       -0.051639434 -0.06962968 0.059754476 -0.009447885
000210 f7 7e 16 be 72 93 cc bc dd 2b 53 3e d3 7f ea bd
       -0.1469687 -0.024972651 0.20622201 -0.11450162
000220 b5 1d 82 bc c3 61 9c 3d e5 9d cf bd fd d7 29 bd
       -0.015883306 0.07635834 -0.10137538 -0.041465748
000230 8c 89 8f 3d 0f b4 e9 bd d4 1a ce 3c d0 8c 30 be
       0.07008657 -0.114112966 0.025159277 -0.17241216
000240 1e 37 ea 3c fe 88 01 bc 6b f0 9a 3c c5 b3 92 bd
       0.028590735 -0.007906197 0.018913468 -0.071631946
000250 14 4a 67 bc 8f ff 99 bd b4 3c 84 bc 03 ff 70 bd
       -0.014116783 -0.07519447 -0.016142227 -0.058836948
000260 32 07 77 bd 1b ac 3a bd 75 50 c4 3c fd 5e c9 bd
       -0.060309596 -0.04557429 0.023964146 -0.09832571
000270 6b ce 65 bd f9 f0 40 3e 5d 2d a0 3b ab 3c ab bd
       -0.05610506 0.18841924 0.00488822 -0.08361181
000280 99 f6 63 bd 92 3c 1b 3d cf 58 13 bc 0a 3c 4d 3e
       -0.055655096 0.03789956 -0.008993342 0.20042434
000290 28 7d 41 bd da 49 72 bb 59 2a 39 3e b9 ce 3e 3d
       -0.0472385 -0.0036970288 0.1808256 0.046583865
0002a0 08 48 06 bd ef 78 5d bd 2f 04 18 be 6e b5 7c 3d
       -0.032783538 -0.05407041 -0.14845346 0.061696462
0002b0 2d 43 2a be cc 2a ec bc ae 59 85 bd 14 42 5f bc
       -0.16627188 -0.028829 -0.06511246 -0.013626594
0002c0 9e 51 9a bd 83 44 4a 3d 78 74 ec bd 31 7e 60 3e
       -0.075350985 0.049381744 -0.11545652 0.21923138
0002d0 27 36 50 3c 95 ec 93 bd b1 fd 25 3c c9 74 52 3c
       0.012708223 -0.07222859 0.0101312855 0.012845227
0002e0 6b 80 a8 bc 36 08 ff bd 7f 97 1e bd 80 6b a7 bd
       -0.020569047 -0.12452738 -0.038718697 -0.08174801
0002f0 e7 93 30 bd da 22 80 3d 2b d6 93 bd 9b 5d 26 3c
       -0.0431098 0.062566474 -0.07218584 0.010154153
000300 31 8c e5 bc 81 e1 64 bd 3e b6 29 be 04 be a6 bc
       -0.02802095 -0.05587912 -0.16573426 -0.020354278
000310 42 17 3c 3a cf 4e f2 3d b6 1f ab 3b 60 a3 81 bd
       0.00071750965 0.11831438 0.005222286 -0.063299894
000320 43 f8 7c 3c 09 a1 fc bc 5b 8a ab bd dd d5 f4 3c
       0.01544005 -0.030838506 -0.083759986 0.029887134
000330 5d 23 8b bd d7 94 18 bd c7 ca 91 bd f4 0d 94 bd
       -0.067938544 -0.03725132 -0.07118755 -0.07229224
000340 89 24 8b 3e 0e 4f 88 bd 04 1e f0 bc 10 17 c8 bd
       0.27176312 -0.066557035 -0.029311188 -0.09770024
000350 7e c4 67 3e 3b c4 45 bd 03 d8 31 bd c1 a7 58 bd
       0.2263355 -0.048282843 -0.043418895 -0.052894358
000360 93 b9 5d bd 79 64 6e bd fe ba ea 3a ed 78 8b bd
       -0.054132055 -0.058201287 0.0017908511 -0.06810174
000370 ee 81 4f bd 76 8d db bd b0 0f af bd d2 6f 00 bd
       -0.05066102 -0.10720341 -0.08547914 -0.03135664
000380 bc 0b 5f bd da 79 34 bd 3a 9a d0 bd c3 7c 55 3d
       -0.05445455 -0.04406152 -0.101856664 0.052120935
000390 92 c5 46 3d 07 bb 0b bd 8c 08 2d 3d 51 41 2a bd
       0.04852826 -0.03411391 0.04224448 -0.041566197
0003a0 d8 c4 27 bd 2c 70 1d be b3 04 ef bc 2e 89 ab bd
       -0.04095921 -0.15374821 -0.029177045 -0.08375774
0003b0 5c 74 57 bd db d5 d8 bc 3c cf 45 3e 5c 36 59 3e
       -0.052601203 -0.026469162 0.19317335 0.21212143
0003c0 82 09 f1 bc cf 73 64 bd fc da a6 bd c4 fe cf bd
       -0.029423479 -0.055774506 -0.08147237 -0.101560146
0003d0 cf ad 00 bd 31 7f 85 bd cd d0 2c bd e8 93 36 bc
       -0.031415757 -0.065184005 -0.042191315 -0.011143662
0003e0 b6 96 fb 3b a3 a5 d2 3d cb 4e 2a 3e 89 a4 09 3d
       0.0076778783 0.10285499 0.1663162 0.03360418
0003f0 7b f2 41 3d 5b 94 30 3c e8 4d e5 bc f0 8a 92 bd
       0.047350388 0.010777558 -0.02799125 -0.071554065

net.6.weight f4 [7, 256]
000000 47 9e dc 3e ce 40 23 3d b6 e2 07 3e 63 68 e4 3d
       0.43089506 0.039856724 0.13270077 0.11152723
000010 4f c6 0d 3e ff 1e e3 3d 5f 8a 5e 3c da 97 5d bd
       0.1384518 0.110898964 0.013582795 -0.054099895
000020 b0 39 f6 3d 74 07 e3 bc fd 43 1f bd 9f 25 1c be
       0.12022722 -0.027713515 -0.038883198 -0.15248726
000030 eb af 65 be 06 31 1a be cc 5d 45 3e 40 06 2f 3e
       -0.22430389 -0.15057763 0.19274062 0.17092228
000040 89 be 67 3e 61 b2 c3 3d 4c 00 d2 3d 31 a0 e8 bc
       0.22631277 0.095555075 0.10253963 -0.028396698
000050 2a 8c ee bc a9 8d 80 bd 2c b7 82 3c d0 34 02 3f
       -0.02911957 -0.062770195 0.015956484 0.50861835
000060 67 da ac bd 68 31 f2 3e f7 7d 76 be 8e 3e 91 3d
       -0.084400944 0.4730332 -0.2407149 0.070920095
000070 4e 50 80 3f 3a 00 76 be b2 b1 ad 3c f1 96 4b 3e
       1.0024507 -0.24023524 0.021202896 0.19881798
000080 c1 61 42 bd 2e 1a ba bd 17 6c e2 3e d4 2d 96 be
       -0.047456507 -0.09087025 0.4422309 -0.2933184
000090 42 ec 9f be 90 3e 31 3d 93 87 58 3e fc ee ab 3e
       -0.31234938 0.043272555 0.21145467 0.33580768
0000a0 4d 5b ae bd c3 5b 02 bd dd 69 03 3c 83 b7 f1 3c
       -0.08513508 -0.031825792 0.008020845 0.02950645
0000b0 97 c2 f6 3d c2 f3 21 bd 07 62 d7 3e 3b e2 cd bc
       0.12048834 -0.039539106 0.42066976 -0.02513229
0000c0 7c de 0c bd 4d 4b dd 3d ae 72 f7 3d 80 91 e6 3c
       -0.034391865 0.10805378 0.1208242 0.028145552
0000d0 ac 10 98 bd 40 aa 0e bd 5d 1c 10 3e 20 34 62 be
       -0.07425055 -0.03483033 0.1407332 -0.22090197
0000e0 35 fa 04 3e 73 9b 59 3f b2 d1 19 3f 2d d4 93 be
       0.12986071 0.8500282 0.60085595 -0.28872815
0000f0 7f 5c 3f bc e1 c5 01 bf 8f 71 4c 3e f3 df 25 3d
       -0.011679768 -0.50692564 0.19965194 0.040496778
000100 46 ce bb 3d 22 a4 75 3e 79 21 84 3c 45 b6 e2 be
       0.09170203 0.23988393 0.016129242 -0.44279686
000110 52 f7 b2 3c 75 11 ee 3b 58 9e 74 bc 06 f3 a8 bd
       0.021846447 0.0072652646 -0.01493033 -0.08249478
000120 99 63 d6 3d 54 f7 55 3e d1 7c 28 bd f6 f5 db 3e
       0.104682155 0.2089513 -0.04113466 0.4296109
000130 eb 9b ad bd 9a e0 46 3e b0 fd 8a 3d 12 b5 2e 3e
       -0.084770046 0.19421616 0.06786668 0.1706126
000140 a4 6e fa bc 7d b4 cc bd a1 08 2c 3e fc dc 94 bd
       -0.030570336 -0.09995363 0.16800167 -0.07268712
000150 b8 0b ec 3d a3 3a a4 3e 63 2a 34 3e c7 38 9b 3d
       0.11525673 0.32075986 0.17594294 0.07579189
000160 53 43 36 3e 57 b0 a9 bd 42 1e 50 3e f0 30 29 bd
       0.1779912 -0.08285587 0.20324042 -0.041306436
000170 cb ad b0 3d 66 69 ff 3b 29 5b 1b 3e f0 2b d0 3b
       0.086268984 0.007794547 0.15171494 0.006352894
000180 89 67 b5 3e 81 ce fa 3d f9 da 15 bd 25 82 2b be
       0.35430554 0.12246419 -0.03658578 -0.16748865
000190 80 52 57 be 3e 1b 56 be 18 b3 df bd 45 a3 11 be
       -0.21027565 -0.2090883 -0.10922831 -0.14222439
0001a0 0a 39 ea 3d af 08 44 3b 4f 54 75 3d ee 3d b5 3e
       0.114366606 0.0029912402 0.059894856 0.3539881
0001b0 d8 dd e2 3d b4 e2 fd bd 6f 1a 3d 3e 0c 99 1a 3e
       0.110774696 -0.12396756 0.18467115 0.15097445
0001c0 86 dc 75 3e 14 a5 d1 3d 15 7c 18 bc 71 6b 90 bd
       0.24009904 0.10236564 -0.009306927 -0.07051743
0001d0 c8 01 39 3c 28 6d 34 3e 7e 5e 6a bc bf 39 39 3e
       0.011291929 0.17619765 -0.014304755 0.18088435
0001e0 1f a8 6b bd 73 93 0f 3e 53 b8 85 bd 36 eb ef bd
       -0.05753338 0.14021091 -0.06529298 -0.11714785
0001f0 b2 fe 4d bd 37 ed b3 be 35 f4 e1 bd 09 2a 4e bd
       -0.050291725 -0.35141918 -0.11032907 -0.050333057
000200 36 f6 56 bd ac ba b7 bd e3 62 29 bd a6 cf c6 bd
       -0.0524809 -0.08971152 -0.04135407 -0.097075745
000210 ba f9 e3 3e 2a db 70 3e 63 5d 15 3e 1b e9 ab 3c
       0.44526464 0.23521104 0.14586405 0.020985177
000220 14 3f 8b 3e 11 e5 05 3e 52 49 5d bd 56 23 d1 bd
       0.27196562 0.13075663 -0.054025 -0.10211818
000230 23 aa 09 3e 8c 58 b0 bc ec 6e f9 bd 94 34 4f 3d
       0.13443808 -0.021526597 -0.1217936 0.05058725
000240 89 ba e2 3d ca 39 ac 3d 5d 85 4c be c6 a2 6c bd
       0.11070735 0.0840946 -0.19972749 -0.05777242
000250 72 4b df bd ec 18 a9 3d 9e 8f 09 bd 62 71 2f bd
       -0.10903062 0.082567066 -0.03358423 -0.04283274
000260 97 a2 28 3f f4 57 d2 be db 34 13 3e f9 52 85 bd
       0.6587309 -0.41082728 0.14375632 -0.065099664
000270 59 d6 47 3d 03 b8 e1 3d 15 56 5c 3e 55 b0 a4 bd
       0.048788402 0.110214256 0.21517213 -0.08041445
000280 97 62 58 3e 4a af 66 be a0 0c 6e bc 6e 1b 14 3e
       0.21131359 -0.22527805 -0.014529377 0.14463589
000290 82 9f 1b 3d 49 21 cc bd 0a c8 44 3e f9 ed be be
       0.037993915 -0.09967286 0.19216934 -0.37290934
0002a0 67 9f 28 3e b5 55 09 bb 41 26 74 3d ba 99 3c 3e
       0.16467057 -0.0020955626 0.059606794 0.18418017
0002b0 7e 52 89 3d bc 50 bd 3d ef dc 37 be c7 da cc be
       0.06705187 0.092439145 -0.17955373 -0.40010664
0002c0 35 7a 73 3d 81 96 bd 3d a7 03 4e 3d 28 d9 18 3e
       0.059442718 0.09257222 0.050296452 0.14926589
0002d0 eb 9f fc bd d1 f5 98 3d a1 88 78 3d 90 87 53 be
       -0.123351894 0.07468761 0.060677174 -0.20657182
0002e0 39 f3 cb 3d 50 79 01 bf d2 c7 91 3c 69 3c 68 3d
       0.099585004 -0.50575733 0.017795477 0.056698237
0002f0 bc 47 99 3c af 5b 65 3e e5 20 f9 bc b1 a3 1f 3c
       0.018710963 0.22398256 -0.030411193 0.009743617
000300 e8 f0 9f bb 67 cf 4c bd c6 bf 21 3e af 6f 8e 3e
       -0.004881013 -0.05000248 0.15795812 0.27819583
000310 84 6d 00 be f8 61 9a 3d eb 3c 8a 3e d7 e8 d8 bd
       -0.12541777 0.07538217 0.26999602 -0.10591286
000320 b2 67 8d 3e f2 4a 11 3e 31 9e 6b ba 1f ad b8 3d
       0.27618176 0.14188746 -0.0008988111 0.09017395
000330 aa c1 aa bc f5 37 43 bd cb ac ae 3e 57 a4 4b 3d
       -0.0208443 -0.047660787 0.34116206 0.049717274
000340 a6 d8 48 3e b9 11 d3 3c 5a 00 af bd d4 42 55 3e
       0.19613895 0.025765287 -0.08544989 0.20826274
000350 e9 81 4d 3e 79 bb 76 bc 79 ec 95 bc bc 45 8e 3e
       0.20069088 -0.015059345 -0.018301236 0.27787578
000360 16 22 e3 bd 65 6d 22 3d 73 25 84 bb a8 62 0d 3d
       -0.11090486 0.039655108 -0.0040327846 0.034517914
000370 99 94 30 bd 64 e5 ff 3e 76 7d a9 bc 62 de 8c be
       -0.043110464 0.499797 -0.020689707 -0.27513415
000380 35 5e 51 3d 31 36 9d bd 92 c1 09 be e7 f5 00 be
       0.051115233 -0.07676352 -0.13452747 -0.12593804
000390 da 41 60 3e e6 55 f0 bc c0 6b ab 3e 0e 2c 50 bd
       0.2190012 -0.029337835 0.33480644 -0.050823264
0003a0 8f a8 1a bd 26 dc c3 bd b9 a1 c4 3e 5f 7f 19 3f
       -0.037758406 -0.09563474 0.38404635 0.5995998
0003b0 28 46 2c 3c e8 9a 40 be eb a4 3b 3e 5b b4 35 3e
       0.010514773 -0.18809092 0.1832463 0.17744581
0003c0 78 15 5a 3d 2a 39 54 bd 21 35 1f bd 9c 76 ee 3c
       0.05324313 -0.05181233 -0.038869027 0.029109292
0003d0 89 90 26 3d 3a 0c e8 be b7 b4 18 3d 9a 0a 5f 3d
       0.040665183 -0.45321828 0.037281718 0.05445347
0003e0 83 f1 00 be be 7e 9f 3d a5 9b 46 3e 4a 90 0f bd
       -0.1259213 0.07787846 0.19395311 -0.035049714
0003f0 79 0c 57 be c5 39 5d 3e 4a a3 d3 bd 90 ed 32 be
       -0.21000852 0.21604069 -0.10333879 -0.17473435

net.6.bias f4 [7]
000000 bd 20 37 3e 92 ae 57 3e f7 6b 27 be a8 27 0e be
       0.17883582 0.21062687 -0.16349779 -0.13882315
000010 e3 af 06 3e 7b ed 6a 3e 33 10 6f be
       0.13153033 0.22942154 -0.23346023
