preTrained/GAIL_pretrained_6500_discriminator.pth (torch, 542340 bytes, 7 tensors)

net.0.weight f4 [256, 10]
0	0xbece2fc7	-0.40270826
1	0xbd90e20b	-0.07074364
2	0x3ca85cc6	0.02055205
3	0x3e76a086	0.24084672
4	0xbe3efd51	-0.1865132
5	0x3e83d9f7	0.2575223
6	0x3b0c84ec	0.0021441532
7	0xbe85a49f	-0.26102158
8	0x3e25deeb	0.16198318
9	0x3e0af8c7	0.13571464
10	0xbe0b58a3	-0.13608031
11	0x3e6a2412	0.22865322
12	0xbe519dec	-0.20470399
13	0x3ebd3ece	0.3696198
14	0xbe1b7579	-0.15181531
15	0xbe65844b	-0.22413747
16	0xbc418d8c	-0.011813533
17	0x3c24a4a7	0.010049022
18	0xbeb45ff5	-0.3522946
19	0x3dd54f13	0.10415473
20	0xbdd29228	-0.10281783
21	0xbee81651	-0.45329526
22	0xbee2f0f9	-0.44324473
23	0xbeb5a887	-0.3548014
24	0xbe7ca8dd	-0.24673791
25	0xbddc87fe	-0.10768126
26	0xbe1b3b07	-0.15159236
27	0xbcf1e04c	-0.029525898
28	0x3dee7745	0.116438426
29	0x3e5eba21	0.2175069
30	0x3e1ae970	0.15128112
31	0x3e5cf51c	0.21577877
32	0x3e93a60f	0.2883763
33	0xbe785b5c	-0.24253601
34	0xbd48832c	-0.04895322
35	0x3e9cac4e	0.30600208
36	0xbe5e0235	-0.2168053
37	0xbe0688a3	-0.1313806
38	0xbe46396d	-0.19357844
39	0x3e1c5dd8	0.15270174
40	0xbe4b92da	-0.19880238
41	0xbe94cad7	-0.29061005
42	0x3e097cc2	0.13426498
43	0x3dd1d497	0.102456264
44	0xbe52b08f	-0.20575164
45	0x3db220db	0.08697673
46	0xbda066bc	-0.07832095
47	0xbeae3f57	-0.340327
48	0x3abd1ccc	0.0014428138
49	0x3e961e8b	0.29320177
50	0xbe82e90c	-0.25568426
51	0x3b8b70d8	0.0042553954
52	0xbea30b56	-0.31844586
53	0xbe979ca5	-0.29611698
54	0x3e557de0	0.20848799
55	0xbe06476d	-0.13113184
56	0x3e9912e2	0.2989722
57	0xbcbe9c6f	-0.023267953
58	0xbdac11b1	-0.08401812
59	0x3d51a235	0.051180083
60	0xbf040a55	-0.51578265
61	0xbec2b5a1	-0.38029197
62	0x3c5f4bb3	0.013628888
63	0x3be36c5c	0.0069404077
64	0x3ddc43ca	0.10755117
65	0xbe3421a3	-0.17590956
66	0x3eb1f5ec	0.34757936
67	0x3e6b0c8a	0.22954002
68	0xbd023f97	-0.031798925
69	0xbccc7253	-0.024956858
70	0xbeb9690a	-0.3621295
71	0xbf204cbc	-0.6261709
72	0x3ea7cde1	0.3277426
73	0x3d98dfe5	0.074645795
74	0x3e5c43f2	0.21510294
75	0x3e36d991	0.17856432
76	0x3e22452d	0.15846701
77	0x3e6cbc3d	0.23118682
78	0xbe1bb656	-0.15206274
79	0x3da9dd09	0.08294112
80	0x3de8d6bd	0.11369083
81	0xbe715ff9	-0.23571767
82	0x3d05c675	0.032659966
83	0xbdff7aab	-0.12474569
84	0x3db3644c	0.087593645
85	0xbd479c74	-0.04873319
86	0x3ab8aec3	0.0014090169
87	0xbdc1b861	-0.094589956
88	0xbd75e755	-0.06003507
89	0xbe6668a9	-0.22500862
90	0xbd1d8685	-0.038458366
91	0xbe617177	-0.2201594
92	0x3e247925	0.16061838
93	0xbe1f8191	-0.1557677
94	0x3e740c5b	0.23832838
95	0x3ecbe2db	0.39821514
96	0x3e26746c	0.16255349
97	0x3e5b3a35	0.21408923
98	0x3e8fa957	0.28058884
99	0xbdf2cb30	-0.11855161
100	0x3e2fb00b	0.17156999
101	0x3f3b9174	0.7326882
102	0x3e632d12	0.22185162
103	0x3b828867	0.0039835456
104	0x3e78dc20	0.24302721
105	0x3eb8ad6a	0.36069804
106	0x3dd78b23	0.10524585
107	0xbd989072	-0.07449426
108	0xbdd54fcc	-0.10415611
109	0xbe56aefc	-0.20965189
110	0x3e2cb041	0.1686411
111	0xbf003aa7	-0.50089496
112	0xbe33e578	-0.17568004
113	0xbe8f993c	-0.28046596
114	0x3d464b6a	0.048411764
115	0xbebfcf6c	-0.37462938
116	0x3beb9bd7	0.0071902084
117	0x3df2550a	0.11832626
118	0x3dac980d	0.08427439
119	0x3d8b6d3b	0.068079434
120	0x3e6ec378	0.23316753
121	0xbe20b35c	-0.1569342
122	0xbe5be478	-0.21473873
123	0xbe76ba7c	-0.24094576
124	0xbe8f0e73	-0.2794071
125	0xbe7f2021	-0.249146
126	0xbde79eb3	-0.11309566
127	0xbea7eae6	-0.327964
128	0xbdb0155b	-0.08597823
129	0x3ea5d666	0.32390136
130	0xbd937f74	-0.07202044
131	0x3eb6e2c0	0.35719872
132	0xbe4fd892	-0.20297459
133	0x3e69e8da	0.22842732
134	0xbe2ef9ac	-0.1708743
135	0xbd800c3c	-0.062523335
136	0x3e3e0aaa	0.18558756
137	0x3dae49e9	0.08510191
138	0x3e2a85a3	0.16652541
139	0x3e08ef1e	0.13372466
140	0x3e3a11a2	0.18170789
141	0x3c2d717f	0.010586142
142	0x3e7acce1	0.24492218
143	0xbe985a92	-0.297566
144	0xbe06683f	-0.13125704
145	0xbe420fc2	-0.18951324
146	0xbdabe901	-0.08394051
147	0x3e438c1a	0.19096413
148	0x3e231767	0.15926896
149	0x3e8d52f2	0.27602345
150	0xbd3f09ae	-0.04664009
151	0xbeb84bf9	-0.35995463
152	0x3e86fb5f	0.26363656
153	0x3da94086	0.0826426
154	0x3dbce5be	0.09223507
155	0x3ed7043c	0.41995418
156	0xbe1e1e00	-0.15441132
157	0x3d6bf273	0.057604264
158	0xbd512f9d	-0.0510708
159	0x3dbfbfbe	0.09362744
160	0x3ea61177	0.324352
161	0xbeafdd96	-0.34348744
162	0x3d2b0a3c	0.041757807
163	0x3eb84bf6	0.35995454
164	0xbe068685	-0.13137253
165	0x3cdeae5a	0.027182747
166	0xbe96e2b4	-0.29469836
167	0xbe30d439	-0.17268457
168	0xbeb7f958	-0.35932422
169	0x3e517731	0.20455624
170	0x3cdde602	0.027087215
171	0x3ec9766d	0.39348164
172	0xbea7a220	-0.3274088
173	0x3dca2b10	0.09871495
174	0x3e6a5a0c	0.22885913
175	0xbc5a5b7c	-0.013327476
176	0x3dfd234a	0.123602465
177	0xbe5dad63	-0.21648173
178	0xbe7e8a90	-0.24857545
179	0xbe76aeae	-0.24090073
180	0x3e559635	0.2085808
181	0x3b4c0cb2	0.0031135497
182	0x3c0ec97f	0.008715033
183	0xbd317b05	-0.04333021
184	0x3d0e2947	0.034707334
185	0x3dd9f78d	0.1064292
186	0x3e316612	0.17324093
187	0x3e2f56de	0.17122981
188	0x3e0c95ea	0.13729063
189	0x3e3d93ac	0.18513364
190	0xbe2f89ec	-0.17142457
191	0xbf2dafef	-0.6784658
192	0x3e9c8aa3	0.3057452
193	0xbe01166e	-0.12606212
194	0xbdf72746	-0.12068038
195	0xbd8afdac	-0.06786665
196	0xbdae3d18	-0.085077465
197	0x3eabbb9e	0.33541578
198	0x3e1eba7c	0.15500826
199	0x3e2062b3	0.15662651
200	0xbdcdd255	-0.10049883
201	0x3d8e4464	0.06946638
202	0xbe6c047e	-0.23048589
203	0x3e100039	0.14062585
204	0xbeb58926	-0.35456198
205	0xbe368678	-0.17824733
206	0xbe307b9b	-0.17234652
207	0x3dd853c9	0.10562856
208	0xbd43b403	-0.047779094
209	0x3dddfee7	0.108396344
210	0xbe8a7a8b	-0.27046618
211	0xbee319f7	-0.44355747
212	0x3dc3efb6	0.095672056
213	0xbe59a5aa	-0.21254602
214	0xbe9af1ec	-0.30262697
215	0xbd5d4158	-0.054017395
216	0xbe8f8210	-0.28028917
217	0xbe005664	-0.12532955
218	0x3e47d8de	0.19516322
219	0xbe8d2428	-0.27566648
220	0x3e0babab	0.13639705
221	0x3e8db374	0.27675974
222	0x3d940c8e	0.07228957
223	0xbe768960	-0.24075842
224	0xbe0e836f	-0.13917325
225	0x3e88f599	0.26749876
226	0xbdef82c5	-0.11694864
227	0xbcf4bdbf	-0.029875634
228	0x3e19c476	0.1501635
229	0x3e6823a5	0.22669847
230	0x3e5a09d5	0.21292813
231	0xbf024a38	-0.508945
232	0xbea5fc00	-0.32418823
233	0x3e32b5ab	0.17452113
234	0xbd59acba	-0.05314324
235	0xbe1f2576	-0.15541634
236	0x3d110f1a	0.035414793
237	0xbe2cf447	-0.1689006
238	0x3d68bdab	0.056821506
239	0x3e6117f5	0.21981795
240	0xbe2288b2	-0.15872458
241	0xbe5cae93	-0.2155097
242	0xbe89f6fc	-0.26946247
243	0xbe4c27e3	-0.1993709
244	0x3e08e595	0.13368829
245	0x3e3628b1	0.1778896
246	0x3d3c3873	0.04595227
247	0x3e2ffea0	0.17186975
248	0x3d875026	0.06607084
249	0xbe04a814	-0.12954742
250	0x3e89b8ff	0.26898953
251	0x3ea7a387	0.3274195
252	0xbc626a0a	-0.013819227
253	0xbe20450a	-0.15651336
254	0x3d8fa286	0.07013421
255	0xbd80e2db	-0.06293269

net.0.bias f4 [256]
0	0x3e600a52	0.21878937
1	0xbe3a3468	-0.18184054
2	0x3c8f77f8	0.01751326
3	0x3e209d58	0.15685022
4	0xbdf99c57	-0.121880226
5	0xbe9f6f8a	-0.31139785
6	0x3e3c4529	0.18385758
7	0x3eddf7ac	0.4335302
8	0xbed2c9e6	-0.4116966
9	0x3e857471	0.260654
10	0x3e8b404e	0.27197498
11	0xbed4d9cd	-0.4157242
12	0xbdaa45bd	-0.08314083
13	0xbcbc4181	-0.022980453
14	0xbe70bd4a	-0.23509708
15	0x3ec21438	0.3790605
16	0xbe3fbf3b	-0.18725292
17	0xbed65e3c	-0.4186877
18	0x3e94a0bb	0.29028878
19	0xbe85ddcf	-0.2614579
20	0xbe4bae16	-0.19890627
21	0xbe6f84e5	-0.23390539
22	0x3e2ee691	0.17080142
23	0x3d46eb01	0.04856396
24	0xbe10ee1f	-0.14153336
25	0xbe997326	-0.29970664
26	0xbe50641b	-0.20350687
27	0x3e684291	0.22681643
28	0x3e8e00ce	0.2773499
29	0x3e1a4429	0.15065064
30	0xbe842bb2	-0.25814587
31	0x3e95e889	0.29278973
32	0xbe967f56	-0.29394025
33	0x3e697d84	0.22801787
34	0x3e5aa901	0.21353532
35	0x3e03b276	0.12861046
36	0xbdc2d432	-0.09513129
37	0x3e1aa855	0.15103276
38	0xbce4bd64	-0.02792234
39	0x3e603eab	0.21898906
40	0xbdc2d45b	-0.0951316
41	0x3e861fc1	0.261961
42	0xbda7b7b2	-0.08189334
43	0xbee524f9	-0.4475477
44	0xbe8304e5	-0.25589672
45	0x3e7bc942	0.24588493
46	0xbee984bd	-0.45609084
47	0x3e5fbf08	0.21850216
48	0xbd6555b0	-0.05598992
49	0xbd8b9661	-0.06815792
50	0x3e0b6ce1	0.13615753
51	0xbe31c100	-0.1735878
52	0x3e205951	0.15659072
53	0x3e2bfabb	0.16794865
54	0xbeea1a75	-0.4572331
55	0x3e9aa937	0.30207226
56	0x3d548fce	0.051894955
57	0xbd6b49ec	-0.057443544
58	0x3cc12d07	0.023581041
59	0xbe9a5816	-0.3014533
60	0x3e13dd82	0.14439967
61	0x3e9d7c75	0.30759016
62	0xbe5e6b90	-0.2172072
63	0x3da91ce2	0.08257462
64	0x3e0d2ae8	0.13785899
65	0x3ec72e49	0.389025
66	0x3e431ab3	0.19053154
67	0x3d26c6c7	0.040716913
68	0xbe8066f0	-0.25078535
69	0xbeba25e1	-0.36357024
70	0xbf001e24	-0.5004599
71	0xbe980df1	-0.29698136
72	0x3d5f5d0b	0.054532092
73	0x3e3fbcad	0.18724318
74	0x3d1e273d	0.03861164
75	0x3e405f12	0.18786266
76	0x3e1275a6	0.14302692
77	0x3f034a14	0.5128491
78	0x3ec3f9d3	0.38276538
79	0xbdc2c270	-0.09509742
80	0xbb46d974	-0.0030342015
81	0x3ea8f2dd	0.3299779
82	0xbe3b8a20	-0.1831441
83	0x3e53af51	0.20672347
84	0xbe88dcf7	-0.26731083
85	0xbe67779d	-0.22604223
86	0x3e4c651e	0.19960448
87	0x3e7399c2	0.23789123
88	0x3d85c62b	0.06531938
89	0xbe18a598	-0.14906919
90	0x3e15fd76	0.14647469
91	0xbed60fbb	-0.41808876
92	0xbda816d0	-0.08207476
93	0xbeb7cf19	-0.3590019
94	0xbde193e7	-0.11014538
95	0x3eedbf6d	0.4643511
96	0x3ee46e1d	0.4461526
97	0xbe6e75f1	-0.23287179
98	0x3e79392a	0.24338213
99	0x3e8c5249	0.2740653
100	0xbeb1792d	-0.34662762
101	0xbe6c708a	-0.23089805
102	0x3dc03215	0.093845524
103	0x3ebfafb1	0.3743873
104	0x3e947ef6	0.29003114
105	0x3ea5d089	0.32385662
106	0xbe2da3dc	-0.16957039
107	0x3bc44476	0.0059896065
108	0x3e37ddf9	0.1795577
109	0x3dc74360	0.09729648
110	0x3cf09584	0.02936817
111	0xbe807e9c	-0.25096595
112	0xbd8eabd3	-0.069663666
113	0xbe9385e9	-0.28813103
114	0xbe8cefd5	-0.27526727
115	0xbe0ab4e3	-0.13545565
116	0x3eb7e0ff	0.35913846
117	0x3ef14b17	0.47127602
118	0x3a8e1d51	0.0010842477
119	0xbf057038	-0.5212436
120	0xbe7800fb	-0.24219124
121	0xbed6cf7c	-0.41955173
122	0xbded2c0f	-0.11580669
123	0x3cc491fe	0.023995396
124	0x3c2b2bae	0.010447426
125	0xbd4091a3	-0.04701389
126	0x3c18fcf5	0.009337653
127	0x3e0656bf	0.13119029
128	0x3d943d7b	0.07238289
129	0xbdb742ee	-0.08948313
130	0xbd3d58b5	-0.046227176
131	0xbe971fb6	-0.2951638
132	0x3a719f9b	0.00092172035
133	0x3dfdf86d	0.12400899
134	0xbe54783c	-0.20748991
135	0xbe11b2c4	-0.1422835
136	0x3dd21b3c	0.10259101
137	0x3d03ff63	0.032225978
138	0xbdcfbac0	-0.101430416
139	0x3e257f89	0.16161932
140	0xbe114850	-0.14187741
141	0xbebb5c4c	-0.36593854
142	0xbe0e4074	-0.13891774
143	0xbe4cd0d6	-0.2000154
144	0xbec74482	-0.38919455
145	0x3ee9fa0b	0.4569858
146	0x3e9b035b	0.30275998
147	0xbb34aa38	-0.0027567279
148	0x3e521de6	0.20519218
149	0x3e918153	0.2841898
150	0x3e293c57	0.16526924
151	0x3eac2c34	0.33627474
152	0x3d8d9425	0.06913022
153	0x3d968c45	0.07350973
154	0xbf003170	-0.50075436
155	0x3dcb2029	0.099182434
156	0xbea891fb	-0.32923874
157	0xbe04880f	-0.12942527
158	0x3e3f49c6	0.18680486
159	0x3bbfa4c2	0.005848498
160	0xbe038e50	-0.12847257
161	0xbd8f3a16	-0.06993501
162	0x3d3cfc69	0.046139155
163	0x3dc5ed46	0.09664397
164	0xbe1d4187	-0.15357028
165	0x3ec8c60a	0.39213592
166	0xbe4d6190	-0.20056748
167	0x3d6aca3b	0.05732177
168	0xbdf3e0d0	-0.11908114
169	0xbe89c845	-0.26910606
170	0x3ea54934	0.32282412
171	0xbe46366f	-0.19356702
172	0xbeb1ef52	-0.347529
173	0x3e91c337	0.2846925
174	0x3e8acdff	0.27110288
175	0xbf0dfa48	-0.55460024
176	0xbb39ffa0	-0.0028381124
177	0xbddc2658	-0.10749501
178	0x3d2fcad8	0.042918056
179	0x3d18bf1c	0.03729163
180	0xbe12a757	-0.14321648
181	0x3ed686de	0.4189977
182	0xbe7c5426	-0.24641475
183	0x3eb8f1f4	0.36122096
184	0x3e1c1b10	0.15244699
185	0x3e8024a6	0.2502796
186	0xbca31c61	-0.019910993
187	0xbe835d44	-0.25657094
188	0x3e895498	0.26822352
189	0x3e3a7adf	0.18210934
190	0xbe0fd2a0	-0.14045191
191	0x3e311d7b	0.17296402
192	0xbe323aea	-0.17405286
193	0xbef276d7	-0.47356293
194	0xbe388622	-0.18019918
195	0x3e0b305a	0.13592663
196	0x3e4d0e47	0.20024978
197	0xbe80399a	-0.25043947
198	0xbc9f8bf9	-0.019475924
199	0xbdfca883	-0.123368286
200	0x3dab5da2	0.083674684
201	0x3e2d68cb	0.16934507
202	0xbed5a093	-0.4172407
203	0xbdeb1aa5	-0.114796914
204	0xbdaa6a1d	-0.08321021
205	0x3e17dd48	0.14830506
206	0x3eeeed4a	0.46665412
207	0xbe2f120a	-0.17096725
208	0xbe568ccd	-0.20952149
209	0xbe3c400a	-0.18383804
210	0xbe18140b	-0.14851396
211	0x3e81807d	0.2529334
212	0x3d84bb33	0.06481018
213	0x3e003328	0.12519515
214	0x3e1d5746	0.15365323
215	0xbeb77b35	-0.35836187
216	0x3d2bb5dd	0.041921485
217	0xbda55f17	-0.080747776
218	0x3e9affbc	0.30273235
219	0xbd948c73	-0.07253351
220	0xbe0b31d1	-0.13593222
221	0xbe3be380	-0.18348503
222	0x3e9347f7	0.28765842
223	0x3e6c7880	0.23092842
224	0x3db1eae2	0.086873785
225	0xbebb8503	-0.36624917
226	0x3cc1643c	0.023607366
227	0xbe5def7d	-0.21673389
228	0x3edb87a1	0.42876914
229	0xbe92f556	-0.287028
230	0x3db70e03	0.089382194
231	0xbe77a561	-0.24184181
232	0x3eb3717a	0.35047513
233	0x3e94de0d	0.2907566
234	0x3dddd34a	0.10831316
235	0x3ddeb1cf	0.10873758
236	0x3d33f981	0.043939117
237	0x3dcbdbe1	0.09954048
238	0x3e2046d6	0.15652022
239	0x3d83f7bb	0.06443735
240	0x3e9de131	0.3083587
241	0xbdef5dca	-0.11687811
242	0xbe7dcfa0	-0.24786234
243	0xbdbf0883	-0.09327795
244	0xbe8d263c	-0.27568233
245	0x3e2c4581	0.16823389
246	0xbe0db395	-0.13838036
247	0xbdf447c7	-0.11927753
248	0x3e0359ed	0.12827273
249	0xbe08bff3	-0.13354473
250	0xbe9f03bf	-0.31057546
251	0xbf1ba3bd	-0.6079672
252	0x3d5d857f	0.05408239
253	0xbe4b3ea9	-0.19848122
254	0xbe8f3ad6	-0.27974576
255	0xbe1ec1fb	-0.15503685

net.2.weight f4 [256, 256]
0	0xbd8c5666	-0.06852417
1	0x3c6f0038	0.0145874545
2	0xbd87cb8b	-0.066306196
3	0xbc3d579f	-0.011556535
4	0xbd69d892	-0.057091303
5	0x3d3c7eec	0.04601948
6	0xbdbc527e	-0.09195422
7	0x3c057bf1	0.008147226
8	0xbd25319c	-0.040330514
9	0xbdabdbbe	-0.08391522
10	0xbdcc320b	-0.099704824
11	0x3d2a2178	0.041535825
12	0x3d79736e	0.060901098
13	0xbce8e4c3	-0.028429395
14	0x3b8958c6	0.004191491
15	0xbc1fa12c	-0.009743016
16	0xbd0f783c	-0.035026774
17	0x3d676d76	0.056500874
18	0xbb1bf791	-0.0023798684
19	0x3d58886d	0.05286448
20	0xbd5a73ed	-0.05333321
21	0xbe19f4c2	-0.15034774
22	0xbd823902	-0.063585296
23	0x3d450a7f	0.048105713
24	0xbcc7d1c0	-0.024392009
25	0x3c324c16	0.010882398
26	0x3d821594	0.06351772
27	0xbcd915a9	-0.026499586
28	0xbd3f2cb5	-0.046673495
29	0xbe62743b	-0.22114651
30	0x3c7cee50	0.0154376775
31	0xbc7da297	-0.015480659
32	0xbc58b538	-0.0132268
33	0xbcb1eff6	-0.021720868
34	0xbd9745ef	-0.07386386
35	0x3dc04fed	0.09390245
36	0x3d1230b4	0.03569098
37	0x3d97707f	0.07394504
38	0xbe29f876	-0.16598687
39	0xbb5b8a05	-0.0033499014
40	0x3c273dd0	0.010207608
41	0x3d03c3be	0.032169096
42	0x3d2c04e8	0.041996866
43	0x3d1ea814	0.03873451
44	0xbb74bdb0	-0.0037344508
45	0xbe0ad68e	-0.13558409
46	0x3d5b7904	0.053582206
47	0x3acfee73	0.001586391
48	0xbd5cd103	-0.053910267
49	0x3d07c42c	0.03314607
50	0xbd39b484	-0.04533817
51	0x3b81a7b0	0.0039567575
52	0xbd4511bd	-0.04811262
53	0x3df35226	0.11880903
54	0xbbeb0457	-0.007172148
55	0xbd69ad6a	-0.057050146
56	0x3d579b2a	0.05263821
57	0x38a63fd1	7.9273836e-05
58	0xbe263810	-0.16232324
59	0x3c3930bd	0.011303124
60	0x3d76ecdf	0.06028449
61	0xbe2a922c	-0.16657323
62	0xbd452288	-0.048128635
63	0x3d10d695	0.03536089
64	0xbd7e2965	-0.062051196
65	0xbbc3c80f	-0.0059747766
66	0xbd229a6f	-0.03969806
67	0x3d9d01f5	0.07666389
68	0xbccf79d4	-0.025326647
69	0x3d182ef6	0.03715416
70	0x3d3b354a	0.045705117
71	0xbe252a22	-0.16129354
72	0x3c90d33b	0.017678848
73	0x3adf5cc1	0.0017041193
74	0xbc717d6f	-0.014739378
75	0x3d10e82f	0.035377678
76	0x3c1022c8	0.008797355
77	0xbdcc9a4b	-0.099903665
78	0x3c96b39a	0.018396188
79	0xbd7132ad	-0.05888622
80	0xbbdbed30	-0.0067116246
81	0xbd987be7	-0.074455075
82	0xbd8c0cda	-0.06838389
83	0xbda5a42a	-0.080879524
84	0x3d5b4326	0.053530835
85	0xbcbd5061	-0.023109617
86	0x3e60374e	0.21896097
87	0x3c85c6b6	0.016330104
88	0x3ca74747	0.02041973
89	0xbc901d0e	-0.01759198
90	0xbd76674a	-0.060157098
91	0x3d998581	0.07496167
92	0xbd88a0ff	-0.066713326
93	0x3d3d24b3	0.046177577
94	0xbd2ba243	-0.04190279
95	0xbda81527	-0.082071595
96	0xbcd5b617	-0.026087804
97	0xbd789b26	-0.060694836
98	0xbc18e4f2	-0.009331929
99	0x3d303780	0.04302168
100	0x3cf71aa8	0.030164078
101	0x3b96abd0	0.0045981184
102	0xbaa7b028	-0.0012793588
103	0xbd62d7a8	-0.055381447
104	0xbe0072ab	-0.12543742
105	0x3d785700	0.060629845
106	0x3d0f1123	0.034928452
107	0x3d29ef89	0.041488204
108	0xbce7ce33	-0.028296566
109	0x3d9b4d0a	0.075830534
110	0xbcde37dc	-0.027126245
111	0x3cfb1fd2	0.030654822
112	0xbc04478d	-0.0080737
113	0x3d34c498	0.0441328
114	0xbb35a0f0	-0.0027714334
115	0xbe0c769b	-0.1371712
116	0x3cb52d8d	0.022116447
117	0xbd7884a9	-0.06067339
118	0xbc13c0cf	-0.009018137
119	0x3e174c73	0.14775257
120	0x3d029d60	0.031888366
121	0xbdea00a4	-0.114259034
122	0x3dafb156	0.08578746
123	0xbcb88ed8	-0.02252905
124	0xba02e300	-0.0004992932
125	0x3d868670	0.06568611
126	0xbd56daca	-0.052454747
127	0xbd46e294	-0.048555925
128	0xbc6f792f	-0.014616295
129	0x3d51a305	0.05118086
130	0xbcad34cf	-0.021143345
131	0xbdeadaba	-0.114675
132	0xbd972f85	-0.073821105
133	0xbd800868	-0.06251603
134	0x3d9be201	0.07611466
135	0xbae7c680	-0.0017683059
136	0x3dc586bf	0.096448414
137	0xbd67c1c3	-0.05658127
138	0x3d976a84	0.07393363
139	0xbbbfff76	-0.0058593107
140	0xbcaf1924	-0.021374293
141	0x3d56ffbc	0.05248998
142	0xbd343dd2	-0.04400427
143	0xbd6943a6	-0.05694928
144	0xbc1937be	-0.009351669
145	0xbdb83e50	-0.0899626
146	0xbd3210f4	-0.0434732
147	0xbdf28638	-0.118420064
148	0xbe2d3170	-0.1691339
149	0xbd7c9562	-0.0616659
150	0xbd31a08b	-0.043365996
151	0xbc643494	-0.013928551
152	0xbd62ddf8	-0.055387467
153	0xbcc673f4	-0.024225213
154	0x3e15dccb	0.14635007
155	0xbd57ec06	-0.052715324
156	0xbc7692cd	-0.0150496485
157	0x3d354b38	0.044261187
158	0x3d568b49	0.052378926
159	0xbda14902	-0.07875253
160	0xbce4556a	-0.02787276
161	0x3d5b3795	0.053519804
162	0xbd26c83f	-0.040718313
163	0x3d7d6bd1	0.0618704
164	0x3ca12f9e	0.019676026
165	0x3b30cdfd	0.0026978247
166	0xbc7917b8	-0.015203409
167	0x3d9fc6b1	0.07801569
168	0x3d119172	0.035539098
169	0xbd59e2e8	-0.05319491
170	0xbdd7a63e	-0.10529755
171	0xbddcbf45	-0.10778669
172	0x3d1634d9	0.036671493
173	0x3d11341d	0.03545009
174	0xbe0674ac	-0.13130444
175	0xbd1501a8	-0.036378533
176	0xbd057cd3	-0.032589745
177	0x3d64893a	0.055794932
178	0xbe5a0953	-0.2129262
179	0x3d717cb3	0.058956813
180	0xbca31fd0	-0.01991263
181	0xbd841c1d	-0.06450675
182	0x3cfd863e	0.0309478
183	0xbda8bd61	-0.08239246
184	0xbe39f611	-0.18160273
185	0xbb941145	-0.0045186603
186	0xbd5c3080	-0.05375719
187	0xbca7f26b	-0.020501336
188	0x3d09cc62	0.03364218
189	0xbdff306d	-0.12460408
190	0xbcb1f02c	-0.021720968
191	0x3d4785bf	0.048711535
192	0x3d3e39ae	0.046441726
193	0xbd412982	-0.047158726
194	0x3d06e0d4	0.032929257
195	0xbcfaf1fd	-0.030632967
196	0x3c26a92c	0.01017217
197	0xba595700	-0.0008290857
198	0x3d040379	0.032229874
199	0xbd84c1ef	-0.064823024
200	0xbdba3c4c	-0.09093532
201	0xbb715c94	-0.0036828863
202	0xbd8d0cac	-0.068871826
203	0xbc96852f	-0.018374054
204	0x3c62ef36	0.013850978
205	0xbd8e8ef0	-0.06960857
206	0xbd0fcb1e	-0.035105817
207	0x3cd4a9e0	0.025959909
208	0xbc419e38	-0.011817507
209	0x3d530899	0.05152187
210	0xbc93241e	-0.017961558
211	0xbd849d4d	-0.06475315
212	0xbc109c31	-0.008826301
213	0x3db3a86b	0.087723576
214	0x3d346ab8	0.044047087
215	0xbd468dff	-0.04847526
216	0xbba6605a	-0.005077404
217	0xbdcac139	-0.099001355
218	0xbdc9a731	-0.09846342
219	0xbd1712cc	-0.03688316
220	0xbc603890	-0.013685361
221	0xbdcfd4bd	-0.101479985
222	0x3d464e6c	0.048414633
223	0x3b8a24a7	0.004215795
224	0x3caa18c8	0.02076377
225	0xbb8b6ec6	-0.0042551486
226	0x3d229cf3	0.03970046
227	0x3ceba710	0.028766185
228	0xbd9a1790	-0.075240254
229	0x3c989836	0.018627267
230	0xbc4a5fad	-0.012351912
231	0xbb1a37d4	-0.0023531811
232	0x3bf50c63	0.0074782833
233	0x3bb7d185	0.0056096935
234	0x3d6f8d71	0.0584845
235	0x3ccbc657	0.02487485
236	0xbce037c7	-0.027370347
237	0xbd034e68	-0.032057196
238	0x3c0ee767	0.008722163
239	0xbcb973dc	-0.022638254
240	0x3e1b5960	0.15170813
241	0x3c722c68	0.014781095
242	0xbd54b820	-0.051933408
243	0xbdf41aa8	-0.11919147
244	0xbe25abf2	-0.16178873
245	0xbba2abd0	-0.0049643293
246	0x3d665aa5	0.05623879
247	0xbcbdae0e	-0.023154285
248	0xbd6165af	-0.055028614
249	0x3c451065	0.012027835
250	0x3d6f2b25	0.058390755
251	0xbd93283a	-0.07185407
252	0xbcfeb920	-0.031094134
253	0x3d355270	0.04426807
254	0xbd65d2c5	-0.05610921
255	0x3d667ecd	0.05627327

net.2.bias f4 [256]
0	0xbd492cc0	-0.049114943
1	0x3d24c465	0.04022636
2	0xbceb619a	-0.028733063
3	0xbe0e5d94	-0.13902885
4	0xbc6d4d5b	-0.014483775
5	0x3d436516	0.047703825
6	0xbc98e81e	-0.01866537
7	0xbc4f0135	-0.012634565
8	0xbdddbe66	-0.10827331
9	0xbcc6eae5	-0.024281928
10	0xbd0fbc56	-0.03509172
11	0x3be84840	0.007088691
12	0x3c2da48d	0.010598314
13	0xbcb2782c	-0.021785818
14	0x3c3fed5d	0.011714307
15	0x3d185584	0.03719093
16	0xbab0300e	-0.0013442056
17	0xbd786dd5	-0.06065162
18	0x3e7fe8ed	0.24991198
19	0x3e54fd6b	0.20799796
20	0xbd873ae9	-0.06603033
21	0xbd7abd0a	-0.061215438
22	0x3c982699	0.018573092
23	0x3e2efa65	0.17087705
24	0xbaa54719	-0.001260969
25	0xbdf4f38a	-0.11960514
26	0x3c6f948b	0.014622818
27	0xbdbbc36b	-0.091681324
28	0x38fddcef	0.00012105132
29	0x3e16ed95	0.14739068
30	0xbd34f02b	-0.044174355
31	0x3c726334	0.01479416
32	0x3d87d8cd	0.06633148
33	0xbd0a855a	-0.03381858
34	0x3d886799	0.06660385
35	0x3e58dbe7	0.21177636
36	0x3d4c53bf	0.049884554
37	0x3e32d209	0.17462935
38	0xbc95500f	-0.018226651
39	0xbcb2ba2d	-0.021817291
40	0xbbce4aad	-0.006295523
41	0xbdce3b17	-0.10069864
42	0xbd4bc649	-0.049749646
43	0xbdf0b5bd	-0.11753414
44	0xbd9d652e	-0.07685314
45	0xbc2c09ed	-0.010500413
46	0xbd85bc89	-0.06530101
47	0xbdf6f867	-0.12059098
48	0xbdc21319	-0.09476299
49	0xbe210827	-0.15725766
50	0xbdaaa611	-0.08332456
51	0xbdcc53d1	-0.09976924
52	0xbd2b7fb2	-0.041869827
53	0xbd5215eb	-0.051290434
54	0xbd7ddff7	-0.061981168
55	0x3dab7d38	0.08373493
56	0xbdf262bc	-0.11835238
57	0xbdfb5bad	-0.12273345
58	0xbdbaf46d	-0.09128652
59	0xbc289e41	-0.010291637
60	0xbd81e0cd	-0.063417055
61	0xbd2ece0c	-0.04267697
62	0xbd693bac	-0.056941673
63	0xbd406214	-0.046968535
64	0xbd58c94a	-0.05292634
65	0x3aec63cc	0.0018035113
66	0x3e1260ed	0.14294787
67	0xbe290717	-0.16506611
68	0xbb86110f	-0.004091389
69	0x3e38f751	0.18063094
70	0xbcdcd83f	-0.026958583
71	0xbd9937cc	-0.074813455
72	0xbd2aa924	-0.04166521
73	0x3c87e133	0.016586876
74	0xbd129355	-0.035785038
75	0xbdc0c2b1	-0.094121344
76	0xbdb11651	-0.08646835
77	0xbb9e46de	-0.0048302254
78	0xbe0246c4	-0.12722307
79	0x3db2d79f	0.08732533
80	0x3c3f18a3	0.011663589
81	0x3d73a6d5	0.059485275
82	0xbd470046	-0.048584245
83	0x3c3be36b	0.011467795
84	0xbd806823	-0.062698625
85	0xbb7ade59	-0.0038279502
86	0xbd13aae5	-0.03605165
87	0xbc1a1b8f	-0.009405985
88	0xbd12a0c8	-0.035797864
89	0xbdc688e3	-0.09694078
90	0xbdb3a3f7	-0.08771508
91	0xbd78c12c	-0.060731098
92	0xbd9e71cf	-0.07736551
93	0xbdae0b22	-0.08498217
94	0xbdc0de92	-0.09417452
95	0xbde55afc	-0.111989945
96	0xbde2c050	-0.11071837
97	0xbc004beb	-0.0078306
98	0x3c90f74e	0.017696049
99	0x3d57f003	0.052719127
100	0xbdca173d	-0.098677136
101	0xbd8365ff	-0.064159386
102	0x3b909553	0.004412332
103	0xbd1ff7cc	-0.039054677
104	0xbdb54c6e	-0.088524684
105	0xbddbc02b	-0.107300125
106	0x3d1c0698	0.038092226
107	0x3ccfdb08	0.025372997
108	0x3c439abd	0.011938748
109	0xbdd45a50	-0.10368788
110	0xbd18da8c	-0.037317798
111	0x3e583ee5	0.21117742
112	0xbd2c1858	-0.042015404
113	0xbce2c724	-0.027682848
114	0xbcb54a26	-0.022130083
115	0x3e0dc087	0.13842975
116	0xbdd03559	-0.10166425
117	0x3e2d4c75	0.16923697
118	0x3bfb1893	0.0076628416
119	0xbd9cf536	-0.07663958
120	0x3c822830	0.015888304
121	0xbd6928ef	-0.056923803
122	0xbcccfaac	-0.025021873
123	0xba1bf586	-0.00059493666
124	0x3e9e7a2f	0.30952594
125	0x3e09a3d7	0.13441406
126	0xbcc6dfe6	-0.024276685
127	0xbe153d64	-0.145742
128	0xbd39a33a	-0.04532168
129	0xbda68bb2	-0.081321135
130	0x3e2c1f73	0.16808872
131	0x3e4c1f14	0.1993373
132	0x3cee64c5	0.029100785
133	0xbcd92ede	-0.026511606
134	0x3d66f1bc	0.05638288
135	0xbd1450a0	-0.036209702
136	0x3d5737f2	0.052543588
137	0x392f0eb3	0.00016694776
138	0xbd037d13	-0.032101702
139	0xbd2a44b3	-0.041569423
140	0x3d15efe1	0.03660572
141	0xbd569668	-0.052389532
142	0xbd629ec9	-0.05532721
143	0xbd17b776	-0.037040196
144	0xbd587739	-0.052848075
145	0xbcce6e2a	-0.025199015
146	0xbda243bf	-0.07923078
147	0xbd30f4fe	-0.043202393
148	0xbdd233a8	-0.10263759
149	0xbd48ed16	-0.049054228
150	0xbd3ab549	-0.045583043
151	0xbd92aa77	-0.0716142
152	0xbd14a959	-0.036294315
153	0x3c93b767	0.018031789
154	0xbd620b62	-0.055186637
155	0xbd0a6dfe	-0.033796303
156	0xbcbebf8b	-0.023284694
157	0x3d1118af	0.03542393
158	0xbd072ba4	-0.033000603
159	0x3dc65b05	0.09685329
160	0xbcd7a2b7	-0.026322706
161	0xbb1b298e	-0.0023675892
162	0xbe014c36	-0.12626728
163	0xbd07c3dd	-0.033145774
164	0x3e62744e	0.22114679
165	0x3c0cae94	0.008586545
166	0x3e272d6e	0.16325924
167	0x3c834b44	0.0160271
168	0xbd85fedd	-0.06542752
169	0x3af8dfcc	0.0018987595
170	0xbc6abb1a	-0.014326835
171	0xbde1ff5e	-0.110350356
172	0xbc039abb	-0.008032496
173	0xbc276924	-0.010217939
174	0xbcb44ff6	-0.022010785
175	0x3de89db7	0.11358207
176	0xbc8aa730	-0.016925424
177	0x3d4d5924	0.05013384
178	0x3c57ed43	0.013179126
179	0x3d1b3e37	0.03790113
180	0xbd1ef1f0	-0.03880495
181	0x3c9da560	0.019243896
182	0xbd93805c	-0.07202217
183	0x3d866a8d	0.06563292
184	0xbdb15e25	-0.08660535
185	0x3e124500	0.14284134
186	0xbd14f394	-0.036365107
187	0xbd1d1e2f	-0.038358863
188	0x3d390c21	0.045177583
189	0xbd852020	-0.06500268
190	0xbdf48ae1	-0.119405515
191	0xbd8e44ab	-0.06946691
192	0xbd870fbd	-0.06594799
193	0x3d29f8a6	0.041496895
194	0xbd81fdfc	-0.06347272
195	0xbd8e30a2	-0.0694287
196	0x3e2bbb53	0.16770677
197	0xbdba68b9	-0.091020055
198	0x3df1c188	0.11804491
199	0xbd3f197a	-0.046655156
200	0x3e459644	0.19295603
201	0xbddb9ad6	-0.10722892
202	0x3b22e5b0	0.0024856143
203	0x3dfbad76	0.122889444
204	0x3d2707a2	0.040778764
205	0xbd30cd44	-0.043164507
206	0x3ceb89e1	0.02875227
207	0x3c68b9ef	0.014204486
208	0xbd5a35fa	-0.053274132
209	0xbc6c2af1	-0.014414535
210	0x3c12ac22	0.0089521725
211	0xbc5767b9	-0.013147288
212	0x3927b5b7	0.00015994055
213	0xbd12c77a	-0.035834767
214	0x3e6e0e4d	0.23247643
215	0xbdd60dae	-0.10451828
216	0xbc85c4ca	-0.016329188
217	0xbd6a9a91	-0.057276312
218	0xbd7bcf45	-0.061476965
219	0x3c47b58f	0.012189283
220	0xbdde9982	-0.10869123
221	0xbd30cbc9	-0.043163095
222	0xbdbceded	-0.09225068
223	0xbd6a7df3	-0.05724902
224	0x3cb71daa	0.022353012
225	0x3e24a27a	0.16077605
226	0xbcf248a7	-0.029575659
227	0xbd84efda	-0.064910606
228	0xbd9d43a5	-0.07678918
229	0xbccd48d7	-0.025059147
230	0xbd751a56	-0.05983957
231	0xbd0ee53d	-0.034886587
232	0xbd2e5ada	-0.04256711
233	0x3c4355be	0.011922298
234	0xbde2137b	-0.11038872
235	0xbd5bb66d	-0.05364077
236	0x3d08cf5b	0.033400875
237	0xbd4ae2a2	-0.04953254
238	0x3d8952f5	0.06705276
239	0xbd7c9e2e	-0.06167429
240	0x3e0a054c	0.13478583
241	0xbce5c5f3	-0.028048491
242	0x3ce52abc	0.027974479
243	0xbdbeaf2b	-0.093107544
244	0x3c54728c	0.012966763
245	0x3de6de24	0.11272839
246	0x3bd05ad7	0.006358485
247	0x3bc5b3c9	0.006033395
248	0xbdcf149e	-0.10111354
249	0x3d8051cc	0.062656015
250	0xbda77a34	-0.08177605
251	0x3ba6f584	0.0050951857
252	0x3e289aa0	0.16465235
253	0xbd41c31c	-0.04730521
254	0xbd525601	-0.05135155
255	0x3e344682	0.17605022

net.4.weight f4 [256, 256]
0	0x3c38ef03	0.011287454
1	0x3e76cfc5	0.24102695
2	0x3de69f63	0.11260869
3	0x3f10de48	0.56589174
4	0x3e573d2c	0.21019429
5	0xbd200bdc	-0.03907381
6	0x3c546272	0.012962924
7	0x3c0cdfc0	0.008598268
8	0x3e6ca610	0.23110223
9	0x3dc7b640	0.09751558
10	0x3c2df763	0.010618064
11	0xbd45655e	-0.048192374
12	0x3d32922b	0.043596428
13	0x3d1c46ef	0.038153585
14	0xbd3cccc3	-0.046093713
15	0x3e8056f5	0.25066343
16	0x3cac657d	0.021044487
17	0xbd36bbf5	-0.044612844
18	0xbf036cc1	-0.5133782
19	0xbdadea14	-0.084919125
20	0x3dedbe63	0.11608579
21	0x3c7b73e0	0.015347451
22	0xbcc1ba11	-0.023648294
23	0x3e383740	0.17989826
24	0x3c0f0d27	0.008731163
25	0x3f0d4ff4	0.55200124
26	0x3dda02b5	0.106450476
27	0x3ec625a1	0.38700584
28	0xbc96fec4	-0.018432029
29	0x3cfa6de6	0.030569982
30	0xbb5093a0	-0.0031826273
31	0x3caf9459	0.021433042
32	0x3ed772cd	0.42079774
33	0x3d6fc3b2	0.05853624
34	0xbed8066a	-0.42192394
35	0xbec02a7d	-0.37532416
36	0x3d82b992	0.06383051
37	0x3d8064a2	0.06269194
38	0x3d627783	0.055289757
39	0x3d130f5b	0.035903316
40	0x3d48dcf9	0.04903886
41	0x3dc39b1f	0.095510714
42	0x3d70af82	0.058761127
43	0x3e29aee5	0.16570623
44	0x3d205203	0.039140712
45	0x3acceeef	0.0015635173
46	0x3d724cfa	0.05915544
47	0x3e271b76	0.1631907
48	0x3e262d3e	0.16228196
49	0x3e6af26c	0.22944039
50	0x3e0dc71c	0.13845485
51	0x3e02edfa	0.12786093
52	0xbd0adc70	-0.03390163
53	0x3d303d58	0.043027252
54	0xbd173134	-0.036912158
55	0x3e5ef02a	0.21771303
56	0x3ea99396	0.33120412
57	0x3eed6547	0.4636633
58	0x3b542fe9	0.003237719
59	0xbbebd4ac	-0.0071969833
60	0xbd719410	-0.058979094
61	0xbcbd3523	-0.023096627
62	0x3b3f5fab	0.002920131
63	0x3e131030	0.14361644
64	0xbc705e69	-0.014670947
65	0x3cdfdb9e	0.027326401
66	0x3c093450	0.008374289
67	0x3e9461b0	0.2898078
68	0xbce450ca	-0.027870554
69	0xbe40d77b	-0.188322
70	0x3e4cfa28	0.20017302
71	0xbce5e748	-0.028064385
72	0xbd3d52f3	-0.046221685
73	0x3ec9fdd1	0.3945146
74	0xbd6ed972	-0.05831284
75	0x3e5716a5	0.21004732
76	0x3d2a30fd	0.041550625
77	0xbd6074eb	-0.054799
78	0x3ef6d52e	0.48209518
79	0x3db3b2eb	0.0877436
80	0x3c1e491f	0.009660988
81	0xbddf2d76	-0.10897343
82	0xbbf7ef38	-0.007566359
83	0xbcc1d67b	-0.023661843
84	0x3d1bb014	0.038009718
85	0x3c8baa57	0.017048998
86	0x3dff5a6e	0.1246842
87	0x3d497bcc	0.049190328
88	0x3bc07060	0.005872771
89	0x3e43d238	0.19123161
90	0xbd2724ec	-0.040806696
91	0xbd766f5c	-0.060164794
92	0x3e8813e6	0.2657768
93	0xbcecc57c	-0.028902762
94	0xbd7fe2aa	-0.062472023
95	0x3d09e7ba	0.033668257
96	0x3be695f4	0.007036919
97	0x3e655951	0.22397353
98	0xbd26fc3b	-0.04076789
99	0x3e873292	0.2640577
100	0x3d77a819	0.060463045
101	0xbd44e492	-0.048069544
102	0x3cd23f64	0.025664993
103	0xbd12b769	-0.035819445
104	0x3db6194d	0.088915445
105	0x3cf227b9	0.029559957
106	0x3e5da77d	0.21645923
107	0xbdadfd74	-0.08495608
108	0x3cb4318b	0.02199628
109	0x3f0afe16	0.54293954
110	0x3d09ad52	0.033612557
111	0xbd495449	-0.049152646
112	0x3ca63d26	0.02029283
113	0x3dcec4f6	0.10096161
114	0xbd10d615	-0.035360415
115	0x3e33ab08	0.17545712
116	0xbcd73e6e	-0.026274886
117	0xbd10a9e4	-0.03531827
118	0xbbba7571	-0.0056902696
119	0x3cffa774	0.031207778
120	0x3e365648	0.17806351
121	0xbd1b195f	-0.037865993
122	0x3ccc4a5e	0.024937805
123	0x3d2a0ac2	0.041514166
124	0xbe15de0b	-0.14635484
125	0x3c6aa27c	0.014320966
126	0xbd2ab293	-0.041674208
127	0x3f87da10	1.0613422
128	0xbc6327e0	-0.013864487
129	0xbcde05bf	-0.02710235
130	0x3e86940f	0.26284835
131	0xbdd4bff3	-0.10388174
132	0xbd0cb4d2	-0.03435213
133	0xbd28e166	-0.04123058
134	0xbdba180d	-0.090866186
135	0xbb857a69	-0.0040734303
136	0x3e2a1207	0.1660844
137	0xbaaac3cf	-0.0013028326
138	0x3dbfcde5	0.09365443
139	0xbd849b1b	-0.064748965
140	0x3d6ef8cd	0.058342744
141	0xbd86f7be	-0.06590222
142	0xbe660f64	-0.22466809
143	0x3cc0b8dd	0.02352565
144	0x3c8d3f3c	0.017242067
145	0x3c3b877f	0.011445879
146	0x3eed7655	0.46379343
147	0x3d5b6045	0.053558607
148	0xbad1f1c5	-0.0016017488
149	0xbb555699	-0.0032552837
150	0x3e40ae32	0.1881645
151	0xbd2b2954	-0.04178746
152	0x3c2945c0	0.010331571
153	0x3c7d1870	0.015447721
154	0x3c8a1bfa	0.016859043
155	0xbcc14bfc	-0.023595802
156	0xbc2a3a68	-0.010389902
157	0xbc2e2e58	-0.010631166
158	0xbb2baacb	-0.002619433
159	0x3b4dbc0c	0.0031392602
160	0x3d49595f	0.049157497
161	0x3da0b503	0.07847025
162	0x3f02c0e0	0.51075554
163	0x3e7a922b	0.24469821
164	0xbe226ebb	-0.15862553
165	0xbcc63dff	-0.024199484
166	0x3d41b52a	0.047291912
167	0x3cd212bc	0.025643699
168	0xbd64fab2	-0.055903144
169	0x3da14521	0.078745134
170	0x3d1f884c	0.038948342
171	0x3ea83b1d	0.328576
172	0x3d082173	0.033235025
173	0x3c9ff9d7	0.019528313
174	0xbd0f4d61	-0.034985904
175	0x3e80fcd4	0.25192893
176	0xbd9ff8b5	-0.07811109
177	0x3d77db8e	0.060512118
178	0x3cfd9162	0.030953113
179	0x3e9266bf	0.28594014
180	0x3d3dc05a	0.04632602
181	0x3d179df1	0.03701586
182	0x3ef523d5	0.478789
183	0x3e4dab12	0.2008479
184	0xbd8967f0	-0.06709278
185	0xbc3bb31b	-0.011456276
186	0x3d41d9ab	0.047326725
187	0x3d9c2a01	0.07625199
188	0x3c9257dc	0.01786416
189	0xbd3c50e8	-0.045975596
190	0x3ece875b	0.40337643
191	0x3d782ad6	0.060587727
192	0xbd26692b	-0.04062764
193	0xbe3cbfea	-0.18432584
194	0x3cc95c3f	0.02458012
195	0xbce2219c	-0.027603917
196	0xbeb4ffd8	-0.35351443
197	0x3edb8281	0.42873004
198	0xbe3df9a5	-0.18552263
199	0x3ca8c4e0	0.02060169
200	0xbe4eb19d	-0.20184942
201	0x3dc90bfb	0.09816738
202	0xbae79476	-0.0017668146
203	0x3e087a77	0.13327967
204	0xbd511ba2	-0.051051743
205	0x3ea3ebbd	0.32015792
206	0xbe529e7a	-0.20568267
207	0x3bde209a	0.0067787888
208	0x3e2004b5	0.15626796
209	0xbd1786ac	-0.036993667
210	0x3d876d7d	0.0661268
211	0xbd5ea03f	-0.05435204
212	0x3da09a84	0.078419715
213	0x3d5e7c0f	0.05431753
214	0xbe513975	-0.20432074
215	0x3d1bb28f	0.038012084
216	0x3cbba3cf	0.022905258
217	0x3d34f972	0.044183202
218	0xbcb4f002	-0.0220871
219	0xbd67021e	-0.056398503
220	0x3dda02c5	0.106450595
221	0x3e3a1beb	0.18174712
222	0x3b6a5f51	0.003576238
223	0x3cbb2540	0.02284491
224	0x3e879f8e	0.26488918
225	0xbd667943	-0.056267988
226	0x3d064c60	0.03278768
227	0x3d767f6c	0.060180113
228	0x3d881b5c	0.066458434
229	0x3d68ed0f	0.0568667
230	0x3c517118	0.012783311
231	0xbca520c5	-0.020157227
232	0xbd7f6c76	-0.062359296
233	0x3db928e5	0.09041003
234	0x3efd91bf	0.49525258
235	0xbd379476	-0.044819318
236	0x3d83a45a	0.06427832
237	0x3d8429a9	0.064532585
238	0x3e2f26bb	0.17104618
239	0x3d78b030	0.0607149
240	0x3db95024	0.09048489
241	0x3eceaaa4	0.40364563
242	0x3d99e4cf	0.07514345
243	0xbd31940e	-0.043354087
244	0xbd291ea1	-0.041288976
245	0x3d991abf	0.074758045
246	0x3d588b8b	0.052867454
247	0xbd9f72be	-0.07785557
248	0x3e0a5d39	0.13512124
249	0xbd238fcc	-0.039932057
250	0x3d443dff	0.047910687
251	0xbe9cab57	-0.30599472
252	0x3c8f33ac	0.017480694
253	0x3cd0d060	0.025489986
254	0xbae30c6c	-0.0017322428
255	0xbe0d9d1a	-0.1382946

net.4.bias f4 [256]
0	0x3cd5d6d7	0.02610342
1	0xbd4236ec	-0.04741566
2	0xbd5fd23d	-0.05464386
3	0xbd9d6295	-0.07684819
4	0xba5295f3	-0.00080332084
5	0xbc6dfd29	-0.01452569
6	0x3c98884e	0.018619683
7	0xbb8c4903	-0.0042811646
8	0x3cdba71d	0.026813084
9	0x3da67c0b	0.08129128
10	0xbd7598a9	-0.05996004
11	0x3c237e2b	0.009978811
12	0x3c1f1547	0.009709663
13	0xbc3456fe	-0.011007069
14	0xbb01d5d9	-0.00198113
15	0xbd16d463	-0.03682364
16	0x3dc84c24	0.09780148
17	0x3e462166	0.19348678
18	0xbca5db02	-0.020246033
19	0x3dc8a4c1	0.09797049
20	0x3e085280	0.13312721
21	0xbc51cf10	-0.012805715
22	0x3d9932df	0.07480406
23	0xbd2d8e7d	-0.042372216
24	0xbc47435a	-0.012162054
25	0x3c93c2a7	0.018037153
26	0xbd106e99	-0.035261724
27	0x3c774d8c	0.015094172
28	0xbd27958c	-0.040914103
29	0x3dc091f8	0.09402841
30	0xbd3473f7	-0.044055905
31	0xbc6f41dd	-0.014603105
32	0xbcdc12b7	-0.026864393
33	0xbc1256f5	-0.008931865
34	0xbd7a3788	-0.061088115
35	0xbc608919	-0.013704562
36	0xbc6a34e6	-0.0142948385
37	0x3df4fbd6	0.119620964
38	0xbd0957e2	-0.033531077
39	0x3dc5a75a	0.096510604
40	0xbd040d49	-0.032239232
41	0xbd9f59f8	-0.07780832
42	0xbd4c1110	-0.04982096
43	0x3db94f98	0.090483844
44	0xbd4d526b	-0.050127428
45	0x3d036862	0.03208197
46	0xbc5b6759	-0.013391339
47	0x3d82e98f	0.06392204
48	0xbaeb3ec1	-0.0017947779
49	0xbc1d1449	-0.009587356
50	0x3dd19c3c	0.102348775
51	0xbbef5159	-0.0073033986
52	0xbcfafa13	-0.030636823
53	0xbbb4ea3b	-0.0055210865
54	0xbd595329	-0.053057823
55	0x3d828033	0.06372108
56	0xbd767d81	-0.060178284
57	0xbd1af4b2	-0.037831016
58	0xbdaf8d9d	-0.085719325
59	0xbd6b521d	-0.057451356
60	0xbd4a3a06	-0.04937174
61	0xbcded960	-0.027203262
62	0xbce5bf03	-0.028045183
63	0x3e2a95c2	0.1665869
64	0x3de8dce0	0.113702536
65	0x3d49f0c8	0.049301893
66	0x3d8457a4	0.064620286
67	0x3da5fc4c	0.081047624
68	0xbceeaa05	-0.029133806
69	0x3cac16f9	0.021007048
70	0xbd10db7b	-0.035365563
71	0x3e236ec1	0.15960218
72	0xbcb6e485	-0.022325763
73	0x3dcc66ce	0.09980546
74	0xbc41957f	-0.011815428
75	0xbb4704ef	-0.003036793
76	0xbd5d87cf	-0.054084595
77	0x3e69ca58	0.22831094
78	0xbcec9917	-0.028881593
79	0x3ce3e7d8	0.027820513
80	0xbd213169	-0.03935376
81	0x3e13eb6e	0.14445278
82	0x3e20bb32	0.1569641
83	0xbd8ed3e9	-0.069740124
84	0x3d2982ed	0.041384626
85	0x3cc43ab3	0.023953771
86	0xbcc7a76e	-0.024371829
87	0xbc461fd6	-0.012092551
88	0xbd29ffb3	-0.04150362
89	0x3d425a01	0.047449116
90	0x3d85c355	0.06531397
91	0xbc831214	-0.015999831
92	0xbd6d6e7e	-0.0579667
93	0x3ac0afa7	0.0014700786
94	0xbbe2ab69	-0.0069174063
95	0x3d4da12f	0.050202545
96	0x3dedf23a	0.11618467
97	0x3e3a9c2f	0.18223642
98	0xbd7b6cca	-0.061383046
99	0xbc210008	-0.009826668
100	0x3add35f4	0.0016877041
101	0x3e810dc9	0.2520583
102	0xbcb6705c	-0.022270374
103	0x3daceb84	0.084433585
104	0x3e3cec30	0.18449473
105	0xbd1d30bf	-0.038376566
106	0x3b46dd04	0.0030344138
107	0x3c30949a	0.010777617
108	0x3e5558be	0.20834634
109	0xbd81f613	-0.06345763
110	0xbd5736da	-0.052542545
111	0x3d55daec	0.052210733
112	0x3df0bc49	0.117546625
113	0xbca1e2a1	-0.019761385
114	0xbc722eda	-0.014781678
115	0xbd53bf18	-0.051695913
116	0xbbbaf429	-0.0057053757
117	0xbc1e936b	-0.009678702
118	0x3e4c5b94	0.1995681
119	0xbd118035	-0.03552266
120	0xbd7bec27	-0.06150451
121	0x3d218456	0.039432846
122	0xbd15a716	-0.0365363
123	0x3da21a98	0.079152286
124	0xbd2abfc9	-0.041686807
125	0xbbd3c99f	-0.006463244
126	0x3dcd50cc	0.100251764
127	0xbd19474b	-0.037421506
128	0xbc072c92	-0.0082503725
129	0xbd726fbd	-0.059188593
130	0xbb94f6a0	-0.0045460016
131	0x3e5635f2	0.20919016
132	0x3e469dd0	0.19396138
133	0xbd9160fd	-0.07098577
134	0xbcecf186	-0.028923761
135	0x3e539fd7	0.20666443
136	0x3c975dce	0.018477347
137	0xbd9e3c8f	-0.077263944
138	0x3e39b6bd	0.18136115
139	0x3d46eae0	0.048563838
140	0xbb80eae8	-0.003934253
141	0xbbb722b6	-0.0055888547
142	0xbc80963d	-0.01569664
143	0x3c859d8b	0.016310474
144	0xbd408a4a	-0.047006883
145	0xbc47ec41	-0.012202323
146	0xbcecbe9c	-0.028899483
147	0xbd7c635f	-0.061618205
148	0xbcccf5fd	-0.02501964
149	0xbaa92cfc	-0.0012907083
150	0xbd9c73db	-0.07639285
151	0x3ca59d79	0.02021669
152	0x3e5723d4	0.21009761
153	0x3c38dc48	0.011282988
154	0x3c6f63e3	0.014611217
155	0xbd6d0189	-0.057862792
156	0x3d842454	0.064522415
157	0x3d2f1e8e	0.04275375
158	0x3d8340d0	0.064088464
159	0x3ba2ca51	0.0049679657
160	0xbd558caf	-0.05213612
161	0xbbed70c0	-0.007246107
162	0x3e201b76	0.15635476
163	0xbc3cfc2b	-0.011534731
164	0xbcce09b2	-0.025151107
165	0xbd6d79d4	-0.057977512
166	0x3de2eb37	0.1108002
167	0x3e18bca2	0.14915708
168	0xbccaf124	-0.024773188
169	0xbcbe2909	-0.023212926
170	0xbceb482c	-0.028720938
171	0xbcf55cb2	-0.029951427
172	0x3ddde1cc	0.10834083
173	0x3e568802	0.2095032
174	0xbd674477	-0.056461778
175	0xbd454205	-0.048158664
176	0xbcb64f46	-0.022254597
177	0x3d8070d0	0.06271517
178	0x3d63a1b3	0.05557413
179	0xbbb87470	-0.005629115
180	0x3dbeb209	0.09311301
181	0x3da5cfb5	0.080962576
182	0xbd5e98d4	-0.054344967
183	0xbbdd4420	-0.006752506
184	0x3ad1d296	0.0016008194
185	0xbd531306	-0.051531814
186	0xbd562593	-0.052281927
187	0x3c10f74a	0.008848021
188	0xbc929552	-0.017893467
189	0xbc7dcff0	-0.015491471
190	0x3e21fdd1	0.1581948
191	0xbd895be2	-0.067069784
192	0xbd69077d	-0.056891907
193	0x3de10fe7	0.10989361
194	0xbd1c3f97	-0.03814658
195	0x3de52c8a	0.11190136
196	0x3b996e3c	0.0046823304
197	0x3de81b0d	0.113332845
198	0xbd815a8f	-0.06316101
199	0xbb75f055	-0.0037527282
200	0xbcb078cc	-0.021541975
201	0xbc75ed3d	-0.015010175
202	0x3dc51d2d	0.096247055
203	0xbc8e9e35	-0.017409423
204	0x3d77cdc2	0.06049896
205	0x3be93385	0.0071167373
206	0x3c7e5d6a	0.015525201
207	0xbce65f5c	-0.028121643
208	0xba02a133	-0.0004983127
209	0x3b80051a	0.003906858
210	0xbd573dfb	-0.052549344
211	0x3e00e07e	0.12585637
212	0x3aaad014	0.0013031983
213	0x3b707564	0.0036691064
214	0x3d1254ba	0.035725333
215	0x3dd01809	0.10160834
216	0x3e50a24c	0.20374411
217	0x3d71672c	0.058936283
218	0xbcd81d33	-0.02638111
219	0xbc44be1e	-0.012008218
220	0xbc8f0842	-0.017459992
221	0xbcea999a	-0.028637696
222	0xbd6fcc48	-0.058544427
223	0x3c159601	0.009130002
224	0xbb9b2cbb	-0.004735557
225	0x3a85b93b	0.0010202298
226	0xb970b553	-0.00022955732
227	0x3da83226	0.0821269
228	0xbd08d238	-0.033403605
229	0x3d1fe09b	0.03903256
230	0xbd17af88	-0.037032634
231	0x3e26ebbf	0.16300867
232	0x3e2097e8	0.15682948
233	0x3cda8c35	0.026678184
234	0x3d38bb4d	0.0451005
235	0xbc934a73	-0.017979836
236	0xbd045c5a	-0.032314636
237	0x3cb4905a	0.022041488
238	0xbba814cf	-0.0051294337
239	0x3cfad6aa	0.030619938
240	0x3e0d055c	0.13771576
241	0xbc6d5018	-0.014484428
242	0x3d3a514a	0.04548768
243	0x3d178a01	0.036996845
244	0xbc453dd4	-0.012038667
245	0x3a14c925	0.0005675725
246	0x3d1b6155	0.03793462
247	0xbc8fb723	-0.017543381
248	0xbd6089c7	-0.054818895
249	0xbd87ccd6	-0.06630866
250	0xbdef132d	-0.11673579
251	0x3dbf21b1	0.09332598
252	0xbbb1bb2d	-0.0054239244
253	0xbd7c8e6a	-0.061659254
254	0xbd889e86	-0.06670861
255	0x3dd3cdd1	0.10341991

net.6.weight f4 [1, 256]
0	0x3fc68634	1.5509706
1	0x3ef58d37	0.479593
2	0x3d39cfb6	0.045364104
3	0x3ef24926	0.47321433
4	0x3f41f680	0.75766754
5	0xbcd52284	-0.026017435
6	0x3e659abc	0.22422308
7	0xbd129a8d	-0.035791922
8	0xbee21a75	-0.4416081
9	0x3f80a047	1.0048913
10	0x3f26c13a	0.6513859
11	0x3ec56aa1	0.38557914
12	0x3e41e409	0.18934645
13	0x3b5ddf93	0.0033855184
14	0x3bee8d2e	0.0072800135
15	0x3c9ff2b2	0.019524906
16	0xbf715423	-0.9426901
17	0x3fd51cab	1.6649374
18	0x3dac3b0d	0.084097005
19	0x3f9a8e7c	1.2074733
20	0xbf687734	-0.9080689
21	0x3b3c5160	0.0028735027
22	0xbd91e0e0	-0.071229696
23	0xbd620b0c	-0.055186316
24	0xbdee1643	-0.1162534
25	0x3db066d8	0.08613366
26	0x3cd80ed5	0.02637426
27	0x3baf5c9d	0.0053516165
28	0xbc763d38	-0.015029244
29	0x3faf9259	1.3716537
30	0x3b2bb08d	0.0026197762
31	0x3e80e42a	0.25174075
32	0x3c37e01a	0.011222864
33	0x3f0a686d	0.5406559
34	0x3f238165	0.63869315
35	0x3cc60725	0.024173329
36	0xbd7ce56a	-0.061742224
37	0x3fc8ac74	1.5677629
38	0x3e0faa2a	0.14029756
39	0x3f7c2693	0.9849636
40	0x3ea318b5	0.31854787
41	0xbcfa7bf7	-0.03057669
42	0x3c1cadb8	0.009562902
43	0x3fab619e	1.3389165
44	0xbc91d00c	-0.0177994
45	0x3f4cd4c8	0.8001218
46	0x3ec28eac	0.37999475
47	0x3f9946e9	1.1974765
48	0xbc49ad94	-0.012309451
49	0x3f9700cd	1.1797119
50	0x3f84560d	1.0338761
51	0x3fb3bfa6	1.4042861
52	0xbbf4daf5	-0.007472391
53	0x3e3835ab	0.17989223
54	0xba12bcf0	-0.0005597612
55	0xbf862f6b	-1.0483221
56	0x3d48f5c1	0.049062494
57	0xbd34c19d	-0.044129957
58	0x3ebfe3b4	0.3747841
59	0xbc1394ee	-0.009007676
60	0x3f56ffac	0.83983874
61	0xbd2b5344	-0.041827455
62	0x3ed75ff6	0.420654
63	0x3fc7772a	1.5583241
64	0x3f6bf0c0	0.9216423
65	0x3e7287cf	0.2368462
66	0xbfdb5a6f	-1.7136973
67	0x3f724271	0.9463263
68	0x3f2638e4	0.6493056
69	0x3d77d0f2	0.060502
70	0x3f015a41	0.5052834
71	0xbf9fbe6a	-1.2479985
72	0xbea08632	-0.31352383
73	0x3fa52a2d	1.2903496
74	0x3e03a9b2	0.12857702
75	0x3dc3da75	0.09563152
76	0x3bdb422b	0.0066912374
77	0x3f5f9413	0.8733532
78	0xbd138b5e	-0.036021583
79	0x3f963424	1.1734662
80	0x3ecdc699	0.4019058
81	0xbf90c428	-1.1309862
82	0xbf90e522	-1.1319926
83	0x3c806eda	0.015677858
84	0x3ea62a15	0.3245398
85	0x3fba8ddc	1.4574542
86	0xbc1cd326	-0.009571826
87	0x3d16ec92	0.036846705
88	0x3b11bec1	0.0022238942
89	0x3fa9f3dc	1.3277545
90	0x3faf16ab	1.3678793
91	0x3def9ed3	0.11700215
92	0x3e49ff19	0.19726218
93	0xbd5c9993	-0.053857397
94	0x3daf2964	0.085528165
95	0x3f172f13	0.59056205
96	0x3fec52ba	1.8462746
97	0x3f7cb438	0.9871249
98	0xbd79b591	-0.06096417
99	0x3aa0a55c	0.0012256312
100	0xbe3de0c2	-0.1854277
101	0xbfd9897f	-1.6995085
102	0xba8cbcab	-0.001073738
103	0x3f674535	0.90339977
104	0x3fb474bf	1.4098128
105	0xbd250832	-0.04029102
106	0xbc12f552	-0.008969622
107	0xbb303084	-0.0026884386
108	0x3ea3571e	0.31902403
109	0x3ece5589	0.40299633
110	0xbce90333	-0.028443908
111	0x3e685529	0.22688736
112	0x3f83bcc8	1.0291986
113	0xbdd92b2a	-0.10603936
114	0x3f98d457	1.1939801
115	0x3ecfc9e8	0.4058373
116	0xbc70bbd1	-0.014693216
117	0x3e272ace	0.16324922
118	0x3f9634a3	1.1734813
119	0x3a572380	0.0008206889
120	0xbd4f2898	-0.050575823
121	0x3fba9249	1.4575893
122	0x3f01a1a7	0.50637287
123	0x3fa50edd	1.2895161
124	0x3f519d06	0.81880224
125	0x3ebd55ca	0.36979514
126	0x3fbf1f0a	1.4931347
127	0x3f46a249	0.7759138
128	0xbd3ddec4	-0.046355024
129	0x3f1688f2	0.5880271
130	0xbeff2b09	-0.4983752
131	0x3e8eecc2	0.27915007
132	0x3f9aa5eb	1.2081884
133	0x3f152c58	0.5827079
134	0x3a4e1811	0.00078618625
135	0xbfa19dc3	-1.262627
136	0xbe9caa6c	-0.30598772
137	0x3f964a92	1.1741507
138	0x40059d00	2.0877075
139	0x3f5d6452	0.864812
140	0x3b04d7a4	0.0020270133
141	0x3f7a1066	0.9768127
142	0x3e1b2bd1	0.15153433
143	0x3f6b8c75	0.92011195
144	0xbd3a3b5c	-0.045466766
145	0x3df76d50	0.120813966
146	0xbc39a0e9	-0.011329868
147	0xbb639e21	-0.0034731703
148	0x3e9a3bf6	0.30123872
149	0xbd7671d1	-0.060167138
150	0x3f3b403b	0.7314488
151	0x3e8de9f6	0.2771756
152	0x3fe947a7	1.8224992
153	0xbd314066	-0.043274306
154	0x3f8487a9	1.03539
155	0xbd14e897	-0.036354627
156	0x3e924bf0	0.2857356
157	0xbfc2973e	-1.5202405
158	0xbebd7204	-0.3700105
159	0xbd81bf56	-0.063353226
160	0xbc39f04c	-0.011348795
161	0xbe90f0fe	-0.28308862
162	0x3fca74a0	1.5816841
163	0xbd55d3fb	-0.052204113
164	0x3e63e935	0.2225693
165	0x3f1031e5	0.56326133
166	0x3f7e3f6f	0.9931554
167	0xbf124499	-0.5713592
168	0x3f72edb2	0.94893944
169	0x3bd3a4f2	0.006458872
170	0xbd4e8dea	-0.05042831
171	0xbbe533c3	-0.006994696
172	0x3fc1e5e9	1.5148288
173	0x3febbc53	1.8416847
174	0x3cc747c2	0.024326209
175	0xbd141bc0	-0.036159277
176	0x3c9d6898	0.019214913
177	0x3ee5d6a1	0.4489031
178	0xbea6696f	-0.32502314
179	0x3d8e39fe	0.06944655
180	0x3fbe5c68	1.487195
181	0x3f42ffce	0.76171577
182	0xbc6cc685	-0.014451628
183	0xbf7847a1	-0.969843
184	0x3fed37a8	1.853261
185	0xbcb6165e	-0.022227462
186	0x3b20eda0	0.0024555698
187	0x3df9ab0f	0.1219083
188	0x3e6e1e56	0.2325376
189	0xbcd1bbe4	-0.025602289
190	0x3fda7d49	1.7069484
191	0xbe81f690	-0.25383425
192	0x3cce8d2c	0.0252138
193	0x3fd6acf1	1.6771528
194	0x3d653c77	0.055965867
195	0x3fd7be21	1.6854898
196	0x3fa91d2a	1.3212025
197	0x3fa0ce82	1.2563021
198	0xbc18ecfc	-0.009333845
199	0xbd2bd35b	-0.04194961
200	0x3f2d861e	0.6778277
201	0xbc679bd8	-0.014136277
202	0x3f5a9684	0.8538592
203	0x3dc34b5e	0.095358595
204	0x3fbe0051	1.4843847
205	0xba9ab4c7	-0.0011803143
206	0x3ee1f567	0.4413254
207	0x3d7906e1	0.060797576
208	0x3faa99b5	1.3328158
209	0x3eb23b02	0.34810644
210	0xbe950835	-0.29107824
211	0xbf63d6a2	-0.8899938
212	0xbdc38b77	-0.09548085
213	0xbecf6df1	-0.40513566
214	0x3f9e7133	1.2378296
215	0xbf2d335d	-0.676565
216	0x3fa1e75f	1.2648734
217	0x3fba28e7	1.4543732
218	0x3ce1782a	0.027523119
219	0xbdf01abe	-0.11723851
220	0x3c228183	0.009918573
221	0xb9a062cf	-0.00030591196
222	0xbd163b3a	-0.036677577
223	0x3fc96b2a	1.5735829
224	0xbd878554	-0.06617227
225	0xbcb404ba	-0.02197491
226	0xbc1524e5	-0.009103035
227	0xbf243a2d	-0.6415127
228	0xbe1c8dd3	-0.15288477
229	0x3fd4c9d7	1.6624097
230	0x3d2c3fe1	0.042053107
231	0x4000a800	2.010254
232	0x3f7dbb5a	0.99114
233	0x3f042213	0.51614493
234	0xbecc2f66	-0.39879912
235	0x3f4c4d8f	0.79805845
236	0x3f5cf2e4	0.8630812
237	0x3d539c98	0.05166301
238	0x3e1954a8	0.149737
239	0x3f640b26	0.8907951
240	0x3f9ff8bb	1.2497782
241	0xbcca6b03	-0.02470923
242	0x3e1cfbfe	0.15330502
243	0x3ef39b89	0.475796
244	0x3fa1688a	1.2610028
245	0x3df31f3b	0.11871191
246	0x3fa07362	1.2535212
247	0xbe923749	-0.28557804
248	0x3ccdbcd1	0.025114449
249	0x3f151396	0.5823301
250	0xbf3e8555	-0.744222
251	0x3feff761	1.8747369
252	0xbd26d69c	-0.04073201
253	0x3cf94971	0.030430527
254	0xbe9853c6	-0.29751414
255	0x3fe72936	1.8059452
