preTrained/GAIL_pretrained_7700_discriminator.pth (torch, 542340 bytes, 7 tensors)

net.0.weight f4 [256, 10]
00000000: c72f cebe 0be2 90bd c65c a83c 86a0 763e
00000010: 51fd 3ebe f7d9 833e ec84 0c3b 9fa4 85be
00000020: ebde 253e c7f8 0a3e 52d5 16be 653d 5b3e
00000030: 6b3e 5cbe 64da b73e 3c44 24be 4ae0 5abe
00000040: 3d10 92ba 6bb3 a7b7 6357 babe feba eb3d
00000050: 2892 d2bd 5116 e8be f9f0 e2be 87a8 b5be
00000060: dda8 7cbe fe87 dcbd 073b 1bbe 4ce0 f1bc
00000070: 4577 ee3d 21ba 5e3e 70e9 1a3e 1cf5 5c3e
00000080: 0fa6 933e 5c5b 78be 2c83 48bd 4eac 9c3e
00000090: 3502 5ebe a388 06be 6d39 46be d85d 1c3e
000000a0: da92 4bbe d7ca 94be c27c 093e 97d4 d13d
000000b0: 8fb0 52be db20 b23d bc66 a0bd 573f aebe
000000c0: cc1c bd3a 8b1e 963e 0ce9 82be d870 8b3b
000000d0: 560b a3be a59c 97be e07d 553e 6d47 06be
000000e0: e212 993e 6f9c bebc b111 acbd 35a2 513d
000000f0: aeb1 09bf 11f8 cfbe 1618 893c 522b d63b
00000100: a73d e73d d48b 3bbe 8cf7 b23e 3cea 743e
00000110: 962b 13bd ce7c f0bc 392e bdbe ca99 2ebf
00000120: 6448 af3e e715 9b3d 1aa7 643e d319 3c3e
00000130: 4e0a 233e 9906 743e 33c6 21be d7f6 ab3d
00000140: b906 043e 810a 99be 61da 2e3d 8b17 e0bd
00000150: fc10 c13d 0b0c 7fbd 2fa6 4fbc eaac b2bd
00000160: 8797 2bbd bce3 70be 35dc 25bd e807 79be
00000170: 7af3 223e 2ebd 22be 15cc 703e 268c d03e
00000180: 3c81 2c3e 81a0 543e 9dcb 8d3e ad74 e3bd
00000190: 3c2a 383e 80be 4b3f 7f75 6f3e 3edc a03a
000001a0: a645 7d3e 4eb2 c03e d033 d63d 9512 99bd
000001b0: d80b e3bd b789 57be c3e5 243e 9476 0abf
000001c0: 6871 44be b7bf 8fbe cbbc 463d ab11 c7be
000001d0: 0445 213c 4237 f73d 35a8 ac3d 4b75 8c3d
000001e0: 78c3 6e3e 5cb3 20be 78e4 5bbe 7cba 76be
000001f0: 730e 8fbe 2120 7fbe b39e e7bd e6ea a7be
00000200: 5b15 b0bd 66d6 a53e e3f8 a3bd d995 b33e
00000210: 98c6 57be 007a 603e 2651 37be 2586 59bd
00000220: dfe0 473e 2c01 9a3d acea 203e 11ae 123e
00000230: eb18 2d3e 908e d83c ba2f 703e ee67 9abe
00000240: 1d34 0bbe 2a9e 3fbe 99f2 a9bd 85dd 423e
00000250: ce48 213e 3496 903e 947b 17bd 8b32 c9be
00000260: f0bf 8f3e 3271 af3d 5267 bd3d 0c6b de3e
00000270: 10a5 20be 88c3 623d db5e 4abd d85d c33d
00000280: d572 a33e 031d babe fc9b 163d da79 b43e
00000290: 52b7 0bbe ec84 073d 4df3 92be 2531 38be
000002a0: f0c2 bcbe 4385 593e 02e6 dd3c 6d76 c93e
000002b0: 20a2 a7be 102b ca3d 0c5a 6a3e 7c5b 5abc
000002c0: 4a23 fd3d 63ad 5dbe 908a 7ebe aeae 76be
000002d0: 4bbb 4b3e e2fd a1ba 3489 94ba f99c 5ebd
000002e0: f5c5 c63c 361f f13d f4fd 3c3e f534 253e
000002f0: fbba 003e 5347 493e 0c0d 4fbe 961a 35bf
00000300: 658d 8f3e 12a2 19be ca89 16be 82e5 33bd
00000310: d084 73bd 8cd8 9e3e 81cc 033e e359 3c3e
00000320: 8ee4 d7bd 7782 783d 838c 71be 81a1 0b3e
00000330: bcdc b7be 738c 33be d639 2ebe d13b cf3d
00000340: 3df8 48bd a111 e23d 131f 8ebe 284f fcbe
00000350: f0ee b03d 2abc 5bbe cce1 9fbe cde2 60bd
00000360: d70c 8ebe a0aa 02be e051 423e d0bf 8cbe
00000370: abab 0b3e 74b3 8d3e 8e0c 943d 6089 76be
00000380: 6f83 0ebe 99f5 883e c582 efbd bfbd f4bc
00000390: 76c4 193e a523 683e 6986 5e3e 06a7 07bf
000003a0: f287 a5be eebb 333e 6539 66bd 9c24 20be
000003b0: 55ee 193d 5d56 30be 553d 633d 4793 643e
000003c0: ce30 24be 08ce 5bbe d1ee 8abe 30fb 4dbe
000003d0: 5dfb 063e 48c1 373e e49b 423d 9d9f 2d3e
000003e0: bbbf 823d 610c 03be bf27 873e 52f6 a33e
000003f0: 2199 afbc 53b6 27be 9c20 833d ccce 68bd
-0.40270826 -0.07074364 0.02055205 0.24084672 -0.1865132 0.2575223 0.0021441532 -0.26102158
0.16198318 0.13571464 -0.14729813 0.21410139 -0.21508186 0.35908806 -0.16041654 -0.21374622
-0.0011143755 -1.99915e-05 -0.36394796 0.11510275 -0.10281783 -0.45329526 -0.44324473 -0.3548014
-0.24673791 -0.10768126 -0.15159236 -0.029525898 0.116438426 0.2175069 0.15128112 0.21577877
0.2883763 -0.24253601 -0.04895322 0.30600208 -0.2168053 -0.1313806 -0.19357844 0.15270174
-0.19880238 -0.29061005 0.13426498 0.102456264 -0.20575164 0.08697673 -0.07832095 -0.340327
0.0014428138 0.29320177 -0.25568426 0.0042553954 -0.31844586 -0.29611698 0.20848799 -0.13113184
0.2989722 -0.023267953 -0.08401812 0.051180083 -0.5378674 -0.40618947 0.016735118 0.006535926
0.11291056 -0.18315059 0.34954488 0.23917478 -0.03593024 -0.029356387 -0.36949328 -0.68203413
0.34234917 0.07572537 0.22329369 0.18369226 0.159219 0.23830642 -0.15798263 0.0839669
0.1289319 -0.29890826 0.04268873 -0.109419905 0.09427068 -0.062267344 -0.012673899 -0.08724387
-0.041892555 -0.23524374 -0.04049321 -0.24319422 0.15913191 -0.15892479 0.23515351 0.40731925
0.16846174 0.20764352 0.27694407 -0.111062385 0.17984861 0.79587555 0.23384665 0.0012272669
0.247336 0.37636036 0.10459101 -0.07474247 -0.110862434 -0.21048628 0.16103272 -0.54087186
-0.19183886 -0.28075954 0.04851989 -0.38880667 0.009843115 0.120710865 0.084305204 0.06858309
0.23316753 -0.1569342 -0.21473873 -0.24094576 -0.2794071 -0.249146 -0.11309566 -0.327964
-0.08597823 0.32390136 -0.08006456 0.35075262 -0.21071851 0.2192154 -0.1790205 -0.053106446
0.19519375 0.07519755 0.1571452 0.14324214 0.16904037 0.026435167 0.23455706 -0.30157417
-0.13594098 -0.18712679 -0.08298225 0.19029815 0.15750429 0.28239596 -0.036983088 -0.39296374
0.28076124 0.08566512 0.092482224 0.43441045 -0.15687966 0.055362254 -0.049406867 0.09539384
0.31923547 -0.3635026 0.036769852 0.35249215 -0.1364415 0.03308575 -0.2870125 -0.17987497
-0.36867476 0.21242242 0.027087215 0.39348164 -0.3274088 0.09871495 0.22885913 -0.013327476
0.123602465 -0.21648173 -0.24857545 -0.24090073 0.19895665 -0.0012358988 -0.0011332394 -0.05434892
0.024264315 0.11773531 0.1845625 0.16133483 0.12571327 0.19656114 -0.2021982 -0.7074369
0.28037563 -0.15003231 -0.14701 -0.043920048 -0.05945283 0.31024587 0.12870981 0.18393664
-0.1054164 0.060671296 -0.23588757 0.13635828 -0.35910594 -0.17534046 -0.1701425 0.10118831
-0.049064863 0.11038519 -0.27758083 -0.4927914 0.08639324 -0.21458498 -0.31226957 -0.054903794
-0.2774417 -0.12760401 0.18976545 -0.2749009 0.13639705 0.27675974 0.07228957 -0.24075842
-0.13917325 0.26749876 -0.11694864 -0.029875634 0.1501635 0.22669847 0.21730961 -0.5298923
-0.3233028 0.17552158 -0.05620708 -0.15638965 0.037580807 -0.17220445 0.055478413 0.22321807
-0.16034243 -0.21465313 -0.27135327 -0.20115352 0.13181825 0.17944825 0.04751195 0.16955419
0.06384226 -0.12797691 0.2639751 0.32023865 -0.021435322 -0.16378145 0.06402704 -0.056837842

net.0.bias f4 [256]
00000000: 520a 603e 32d3 44be f877 8f3c 589d 203e
00000010: 579c f9bd 8a6f 9fbe 3b74 3f3e 1772 e53e
00000020: 218b cdbe f1b1 843e 9f64 913e 5620 ddbe
00000030: bd45 aabd 67a9 01bd 554f 77be c9d8 ca3e
00000040: c96e 45be 3c5e d6be bf2a 8f3e 7740 92be
00000050: d4c3 50be de04 79be 91e6 2e3e 7ae2 4b3d
00000060: 7d11 13be 455a 9dbe 1b64 50be aa42 6e3e
00000070: 5465 8e3e 2944 1a3e b22b 84be 89e8 953e
00000080: 567f 96be 847d 693e e2f2 4a3e af83 033e
00000090: 32d4 c2bd 55a8 1a3e 64bd e4bc d61c 583e
000000a0: 5e76 bcbd f47c 883e b2b7 a7bd 6a9e f1be
000000b0: e504 83be b55f 7f3e 83cf f1be 08bf 5f3e
000000c0: b055 65bd 6196 8bbd 5508 fb3d 58ba 35be
000000d0: 5159 203e 5375 3b3e 3991 f7be 097d 8c3e
000000e0: fc30 4b3d ec49 6bbd 452d 873c 8b01 9dbe
000000f0: 82dd 133e 68e0 9e3e 906b 5ebe e21c a93d
00000100: dfd8 0b3e 3248 cc3e b31a 433e 40d8 3e3d
00000110: f066 80be a7f6 bebe e6e8 04bf f10d 98be
00000120: a3fb 4d3d 493f 303e 76fd 313c 4702 493e
00000130: a675 123e 1df3 073f 01d7 cd3e 70c2 c2bd
00000140: 74d9 46bb cce7 ac3e 64fd 44be 7b2a 533e
00000150: f7dc 88be 7c02 7ebe 1e65 4c3e c299 733e
00000160: 7efc fe3c 3141 26be 1fe1 053e bb0f d6be
00000170: 62ae afbd 19cf b7be f3b6 f9bd bed0 f33e
00000180: 25e1 eb3e f175 6ebe 2a39 793e 6b2b 8e3e
00000190: 611d b4be 8a70 6cbe 1532 c03d 7915 c23e
000001a0: 6b37 953e 570a ac3e 6edc 50be 7644 c43b
000001b0: e2d7 3d3e 8670 a83d 79bd dcb9 07d1 80be
000001c0: 30a3 99bd e83d 96be cde2 95be e3b4 0abe
000001d0: a04b b33e 29f6 f93e 511d 8e3a 2d08 0ebf
000001e0: fb00 78be 68ad dfbe 015e 11be fe91 c43c
000001f0: ae2b 2b3c 3cd7 54bd f5fc 183c 2d3c 033e
00000200: 6fc1 963d 8119 eebd 5ac9 67bd 15b2 a0be
00000210: 21da d5bb 6df8 fd3d 3379 50be 2f72 febd
00000220: 9703 cd3d 6cee e23c 6de6 d0bd ca58 1d3e
00000230: 7e13 17be 3179 c0be 7440 0ebe d6d0 4cbe
00000240: 27ee cdbe 908a ed3e a3cf 9c3e 7614 16bd
00000250: 8738 503e 0981 923e 0cdb 223e 74a3 b33e
00000260: 2594 8d3d 458c 963d fd1e 05bf 48dc de3d
00000270: c07d afbe c5f5 05be c649 3f3e 4998 013c
00000280: 508e 03be 163a 8fbd 69fc 3c3d 573a a53d
00000290: fc51 26be ebb3 d03e b476 52be a05d 693d
000002a0: c578 17be 45c8 89be 740f 993e 7a31 5cbe
000002b0: c000 bbbe d1f2 973e 4054 8d3e 0ae2 12bf
000002c0: 564e a3bc 5826 dcbd e01d 1c3d 1cbf 183d
000002d0: 57a7 12be 05d4 da3e 570d 87be b62c b83e
000002e0: 101b 1c3e a624 803e 37c2 57bd 8239 85be
000002f0: 9854 893e 4fbe 3b3e 4c8d 18be 7b1d 313e
00000300: ea3a 32be 4e41 f8be 1c13 42be 878a 083e
00000310: d653 573e 9a39 80be f98b 9fbc cea1 01be
00000320: d67b a53d 447f 2f3e a697 debe a51a ebbd
00000330: ed8c aabd ae73 213e cdf5 f13e fd75 0ebe
00000340: cd8c 56be 0a40 3cbe 4562 20be 01b9 853e
00000350: 5502 853d 05c2 203e cdb9 143e 260d c0be
00000360: ddb5 2b3d d291 e3bd 8f67 943e df2e 9bbd
00000370: d131 0bbe dbb4 3bbe 1491 933e 5825 6d3e
00000380: e2ea b13d 0541 c3be 3c64 c13c 1dff 5fbe
00000390: e6d7 e33e 56f5 92be 030e b73d bc1f 7bbe
000003a0: 4562 b03e 0dde 943e e334 d43d a731 e03d
000003b0: bf62 283d d2e6 c63d 6a3e 123e f334 413d
000003c0: 9e85 9d3e edd2 efbd a0cf 7dbe 6281 c0bd
000003d0: cac4 8ebe cb0d 113e 95b3 0dbe c05a 06be
000003e0: 56dd 1f3e f3bf 08be bf03 9fbe 4a95 20bf
000003f0: bfd1 703d a93e 4bbe 3bef 9ebe b857 27be
0.21878937 -0.1922119 0.01751326 0.15685022 -0.121880226 -0.31139785 0.18696682 0.44813606
-0.4014521 0.2591701 0.2839708 -0.43188733 -0.08314083 -0.031655695 -0.24151357 0.3961852
-0.19280542 -0.4186877 0.279623 -0.28564808 -0.20387203 -0.24318263 0.17080142 0.04977653
-0.1436214 -0.30732933 -0.20350687 0.23267618 0.27811682 0.15065064 -0.25814587 0.29278973
-0.29394025 0.22801787 0.19819215 0.12843202 -0.09513129 0.15103276 -0.02792234 0.2110475
-0.09202264 0.26657832 -0.08189334 -0.47191173 -0.25589672 0.24938853 -0.4722863 0.21850216
-0.05598992 -0.06815792 0.122574486 -0.17746866 0.15659072 0.18306474 -0.48352984 0.27439144
0.049607262 -0.057443544 0.016501078 -0.3066524 0.14439967 0.31030583 -0.2172072 0.08257462
0.13656949 0.3989883 0.19053154 0.04659295 -0.25078535 -0.37297556 -0.51917875 -0.29698136
0.050288808 0.17211641 0.010863652 0.19629775 0.14302692 0.53105336 0.40203097 -0.09509742
-0.0030342015 0.33770597 -0.19237286 0.20621674 -0.26731083 -0.24805635 0.19960448 0.23789123
0.031126257 -0.16235806 0.13074158 -0.41808876 -0.08578183 -0.3590019 -0.12193098 0.47620195
0.4607021 -0.23287179 0.24338213 0.277675 -0.35178664 -0.23089805 0.093845524 0.37907007
0.29143843 0.3360164 -0.20396587 0.0059896065 0.18539384 0.08224587 -0.00042102838 -0.25159475
-0.07501829 -0.29344106 -0.29274598 -0.13545565 0.35018635 0.48820618 0.0010842477 -0.55481225
-0.24219124 -0.43686986 -0.14196016 0.023995396 0.010447426 -0.051963076 0.009337653 0.12815924
0.07361113 -0.11625958 -0.05658851 -0.31385866 -0.006526247 0.12400899 -0.20358734 -0.124241225
0.1001045 0.027701579 -0.102002 0.15365902 -0.1475353 -0.37592462 -0.13891774 -0.2000154
-0.40220758 0.46394777 0.30627164 -0.036640607 0.20334063 0.2861407 0.15903872 0.35085642
0.06913022 0.07350973 -0.5200041 0.10881859 -0.34275627 -0.13082035 0.18680486 0.007909843
-0.12847257 -0.06993501 0.046139155 0.08067768 -0.16242212 0.40762267 -0.20553094 0.056974053
-0.14792164 -0.26910606 0.29894602 -0.21503249 -0.3652401 0.29677442 0.2760334 -0.5737616
-0.019934814 -0.10749501 0.03811443 0.03729163 -0.14321648 0.42739883 -0.26377365 0.35971612
0.15244699 0.2502796 -0.052675452 -0.26020437 0.26822352 0.18334316 -0.1489765 0.17296402
-0.17405286 -0.48487324 -0.18952602 0.13334094 0.21028075 -0.25043947 -0.019475924 -0.1265938
0.080802605 0.17138392 -0.43475074 -0.114796914 -0.08327661 0.15766785 0.47257844 -0.13912196
-0.20952149 -0.18383804 -0.15662487 0.2611771 0.064945854 0.15699013 0.14524002 -0.3751003
0.041921485 -0.111117974 0.2898526 -0.07577299 -0.13593222 -0.1833071 0.28821623 0.23158777
0.086873785 -0.38135543 0.023607366 -0.21874662 0.44500655 -0.287028 0.089382194 -0.24523824
0.34449974 0.2907566 0.1036165 0.109469704 0.041109797 0.09711994 0.14281622 0.047169637
0.30766004 -0.11710153 -0.24786234 -0.09399678 -0.27884513 0.14165418 -0.13838036 -0.13120556
0.15611777 -0.13354473 -0.31057546 -0.627278 0.05879378 -0.19848122 -0.31041893 -0.16342056

net.2.weight f4 [256, 256]
00000000: 6656 8cbd 3800 6f3c 8bcb 87bd 9f57 3dbc
00000010: 92d8 69bd ec7e 3c3d 7e52 bcbd f17b 053c
00000020: 9c31 25bd bedb abbd 0b32 ccbd 7821 2a3d
00000030: 6e73 793d c3e4 e8bc c658 893b 2ca1 1fbc
00000040: 3c78 0fbd 766d 673d 91f7 1bbb 6d88 583d
00000050: ed73 5abd c2f4 19be 0239 82bd 7f0a 453d
00000060: c0d1 c7bc 164c 323c 9415 823d a915 d9bc
00000070: b52c 3fbd 3b74 62be 50ee 7c3c 97a2 7dbc
00000080: 38b5 58bc f6ef b1bc ef45 97bd ed4f c03d
00000090: b430 123d 7f70 973d 76f8 29be 058a 5bbb
000000a0: d03d 273c bec3 033d e804 2c3d 14a8 1e3d
000000b0: b0bd 74bb 8ed6 0abe 0479 5b3d 73ee cf3a
000000c0: 03d1 5cbd 2cc4 073d 84b4 39bd b0a7 813b
000000d0: bd11 45bd 2652 f33d 5704 ebbb 6aad 69bd
000000e0: 2a9b 573d d13f a638 1038 26be bd30 393c
000000f0: dfec 763d 2c92 2abe 8822 45bd 95d6 103d
00000100: 6529 7ebd 0fc8 c3bb 6f9a 22bd f501 9d3d
00000110: d479 cfbc f62e 183d 4a35 3b3d 222a 25be
00000120: 3bd3 903c c15c df3a 6f7d 71bc 2fe8 103d
00000130: c822 103c 4b9a ccbd 9ab3 963c ad32 71bd
00000140: 30ed dbbb e77b 98bd da0c 8cbd 2aa4 a5bd
00000150: 2643 5b3d 6150 bdbc 4e37 603e b6c6 853c
00000160: 4747 a73c 0e1d 90bc 4a67 76bd 8185 993d
00000170: ffa0 88bd b324 3d3d 43a2 2bbd 2715 a8bd
00000180: 17b6 d5bc 269b 78bd f2e4 18bc 8037 303d
00000190: a81a f73c d0ab 963b 28b0 a7ba a8d7 62bd
000001a0: ab72 00be 0057 783d 2311 0f3d 89ef 293d
000001b0: 33ce e7bc 0a4d 9b3d dc37 debc d21f fb3c
000001c0: 8d47 04bc 98c4 343d f0a0 35bb 9b76 0cbe
000001d0: 8d2d b53c a984 78bd cfc0 13bc 734c 173e
000001e0: 609d 023d a400 eabd 56b1 af3d d88e b8bc
000001f0: 00e3 02ba 7086 863d cada 56bd 94e2 46bd
00000200: 2f79 6fbc 05a3 513d cf34 adbc bada eabd
00000210: 852f 97bd 6808 80bd 01e2 9b3d 80c6 e7ba
00000220: bf86 c53d c3c1 67bd 846a 973d 76ff bfbb
00000230: 2419 afbc bcff 563d d23d 34bd a643 69bd
00000240: be37 19bc 503e b8bd f410 32bd 3886 f2bd
00000250: 7031 2dbe 6295 7cbd 8ba0 31bd 9434 64bc
00000260: f8dd 62bd f473 c6bc cbdc 153e 06ec 57bd
00000270: cd92 76bc 384b 353d 498b 563d 0249 a1bd
00000280: 6a55 e4bc 9537 5b3d 3fc8 26bd d16b 7d3d
00000290: 9e2f a13c fdcd 303b b817 79bc b1c6 9f3d
000002a0: 7291 113d e8e2 59bd 3ea6 d7bd 45bf dcbd
000002b0: d934 163d 1d34 113d ac74 06be a801 15bd
000002c0: d37c 05bd 3a89 643d 5309 5abe b37c 713d
000002d0: d01f a3bc 1d1c 84bd 3e86 fd3c 61bd a8bd
000002e0: 11f6 39be 4511 94bb 8030 5cbd 6bf2 a7bc
000002f0: 62cc 093d 6d30 ffbd 2cf0 b1bc bf85 473d
00000300: ae39 3e3d 8229 41bd d4e0 063d fdf1 fabc
00000310: 2ca9 263c 0057 59ba 7903 043d efc1 84bd
00000320: 4c3c babd 945c 71bb ac0c 8dbd 2f85 96bc
00000330: 36ef 623c f08e 8ebd 1ecb 0fbd e0a9 d43c
00000340: 389e 41bc 9908 533d 1e24 93bc 4d9d 84bd
00000350: 319c 10bc 6ba8 b33d b86a 343d ff8d 46bd
00000360: 5a60 a6bb 39c1 cabd 31a7 c9bd cc12 17bd
00000370: 9038 60bc bdd4 cfbd 6c4e 463d a724 8a3b
00000380: c818 aa3c c66e 8bbb f39c 223d 10a7 eb3c
00000390: 9017 9abd 3698 983c ad5f 4abc d437 1abb
000003a0: 630c f53b 85d1 b73b 718d 6f3d 57c6 cb3c
000003b0: c737 e0bc 684e 03bd 67e7 0e3c dc73 b9bc
000003c0: 6059 1b3e 682c 723c 20b8 54bd a81a f4bd
000003d0: f2ab 25be d0ab a2bb a55a 663d 0eae bdbc
000003e0: af65 61bd 6510 453c 252b 6f3d 3a28 93bd
000003f0: 20b9 febc 7052 353d c5d2 65bd cd7e 663d
-0.06852417 0.0145874545 -0.066306196 -0.011556535 -0.057091303 0.04601948 -0.09195422 0.008147226
-0.040330514 -0.08391522 -0.099704824 0.041535825 0.060901098 -0.028429395 0.004191491 -0.009743016
-0.035026774 0.056500874 -0.0023798684 0.05286448 -0.05333321 -0.15034774 -0.063585296 0.048105713
-0.024392009 0.010882398 0.06351772 -0.026499586 -0.046673495 -0.22114651 0.0154376775 -0.015480659
-0.0132268 -0.021720868 -0.07386386 0.09390245 0.03569098 0.07394504 -0.16598687 -0.0033499014
0.010207608 0.032169096 0.041996866 0.03873451 -0.0037344508 -0.13558409 0.053582206 0.001586391
-0.053910267 0.03314607 -0.04533817 0.0039567575 -0.04811262 0.11880903 -0.007172148 -0.057050146
0.05263821 7.9273836e-05 -0.16232324 0.011303124 0.06028449 -0.16657323 -0.048128635 0.03536089
-0.062051196 -0.0059747766 -0.03969806 0.07666389 -0.025326647 0.03715416 0.045705117 -0.16129354
0.017678848 0.0017041193 -0.014739378 0.035377678 0.008797355 -0.099903665 0.018396188 -0.05888622
-0.0067116246 -0.074455075 -0.06838389 -0.080879524 0.053530835 -0.023109617 0.21896097 0.016330104
0.02041973 -0.01759198 -0.060157098 0.07496167 -0.066713326 0.046177577 -0.04190279 -0.082071595
-0.026087804 -0.060694836 -0.009331929 0.04302168 0.030164078 0.0045981184 -0.0012793588 -0.055381447
-0.12543742 0.060629845 0.034928452 0.041488204 -0.028296566 0.075830534 -0.027126245 0.030654822
-0.0080737 0.0441328 -0.0027714334 -0.1371712 0.022116447 -0.06067339 -0.009018137 0.14775257
0.031888366 -0.114259034 0.08578746 -0.02252905 -0.0004992932 0.06568611 -0.052454747 -0.048555925
-0.014616295 0.05118086 -0.021143345 -0.114675 -0.073821105 -0.06251603 0.07611466 -0.0017683059
0.096448414 -0.05658127 0.07393363 -0.0058593107 -0.021374293 0.05248998 -0.04400427 -0.05694928
-0.009351669 -0.0899626 -0.0434732 -0.118420064 -0.1691339 -0.0616659 -0.043365996 -0.013928551
-0.055387467 -0.024225213 0.14635007 -0.052715324 -0.0150496485 0.044261187 0.052378926 -0.07875253
-0.02787276 0.053519804 -0.040718313 0.0618704 0.019676026 0.0026978247 -0.015203409 0.07801569
0.035539098 -0.05319491 -0.10529755 -0.10778669 0.036671493 0.03545009 -0.13130444 -0.036378533
-0.032589745 0.055794932 -0.2129262 0.058956813 -0.01991263 -0.06450675 0.0309478 -0.08239246
-0.18160273 -0.0045186603 -0.05375719 -0.020501336 0.03364218 -0.12460408 -0.021720968 0.048711535
0.046441726 -0.047158726 0.032929257 -0.030632967 0.01017217 -0.0008290857 0.032229874 -0.064823024
-0.09093532 -0.0036828863 -0.068871826 -0.018374054 0.013850978 -0.06960857 -0.035105817 0.025959909
-0.011817507 0.05152187 -0.017961558 -0.06475315 -0.008826301 0.087723576 0.044047087 -0.04847526
-0.005077404 -0.099001355 -0.09846342 -0.03688316 -0.013685361 -0.101479985 0.048414633 0.004215795
0.02076377 -0.0042551486 0.03970046 0.028766185 -0.075240254 0.018627267 -0.012351912 -0.0023531811
0.0074782833 0.0056096935 0.0584845 0.02487485 -0.027370347 -0.032057196 0.008722163 -0.022638254
0.15170813 0.014781095 -0.051933408 -0.11919147 -0.16178873 -0.0049643293 0.05623879 -0.023154285
-0.055028614 0.012027835 0.058390755 -0.07185407 -0.031094134 0.04426807 -0.05610921 0.05627327

net.2.bias f4 [256]
00000000: c02c 49bd 65c4 243d 9a61 ebbc ecb9 20be
00000010: c919 2cbd c427 493d 1ee8 98bc 3501 4fbc
00000020: 66be ddbd 7842 09bd 56bc 0fbd f36e a83c
00000030: 8da4 2d3c 2c78 b2bc c1d5 b03b 459e 5c3c
00000040: 0e30 b0ba d56d 78bd 25d3 933e 482a 3b3e
00000050: 7eea 84bd 0abd 7abd fa0a 6c3b bb0b 0d3e
00000060: 1947 a5ba 82d2 bfbd 8b94 6f3c 3a79 f7bd
00000070: efdc fd38 29ec 273e 2bf0 34bd fd2b 8b3c
00000080: a7ec ad3d 5a85 0abd 7f7d 9d3d d298 573e
00000090: d289 1e3d 45bd 093e bcc2 f0bc 2dba b2bc
000000a0: ad4a cebb 173b cebd 49c6 4bbd bdb5 f0bd
000000b0: ba17 29bd ed09 2cbc 89bc 85bd 67f8 f6bd
000000c0: 2bf3 d4bd 2708 21be c5ca 34bd d153 ccbd
000000d0: b27f 2bbd eb15 52bd f7df 7dbd e0c2 4c3d
000000e0: c092 05be d84a 9dbd 6df4 babd 419e 28bc
000000f0: cde0 81bd 0cce 2ebd ac3b 69bd d43c 9a3b
00000100: 1ec0 9bbd 43a5 b53c d897 1e3e 9e49 f0bd
00000110: f70b 86bb 8975 0c3e 21a7 3bbc cc37 99bd
00000120: 24a9 2abd bbde adbc f69f bbbc 5158 b3bd
00000130: 5116 b1bd de46 9ebb 4c76 00be c38d 543d
00000140: a318 3f3c 30f5 1a3d 4600 47bd 6be3 3b3c
00000150: 2368 80bd 59de 7abb 602d 74bc 8f1b 1abc
00000160: c8a0 12bd ab91 95bd f7a3 b3bd 2cc1 78bd
00000170: 365c bbbd 220b aebd 92de c0bd fc5a e5bd
00000180: 50c0 e2bd eb4b 00bc f596 b13c d926 083d
00000190: 3d17 cabd ff65 83bd 5395 903b 8277 2fbd
000001a0: 6e4c b5bd 2bc0 dbbd 9806 1c3d 0fd8 4a3d
000001b0: 06f5 303c e580 bdbd 8cda 18bd 72a2 383e
000001c0: 5818 2cbd daec b5bc 264a b5bc 7d53 f63d
000001d0: 5935 d0bd fab8 323e e6d7 27bd 7194 9ebd
000001e0: db7c 04bd ef28 69bd acfa ccbc f6b7 e2bb
000001f0: 7598 8f3e 3951 1d3e e6df c6bc ca95 0dbe
00000200: 3aa3 39bd b28b a6bd 0086 123e 6857 413e
00000210: 5d96 cb3c de2e d9bc b12b 693d bfeb 3fbd
00000220: f237 573d b30e 2f39 137d 03bd b344 2abd
00000230: ccb9 113d 6896 56bd 9092 9ebc 76b7 17bd
00000240: 3977 58bd 2a6e cebc 89db b3bd fef4 30bd
00000250: a833 d2bd 16ed 48bd 49b5 3abd 77aa 92bd
00000260: 59a9 14bd 266d 123c 620b 62bd fe6d 0abd
00000270: 8bbf bebc 3920 133d a42b 07bd 8c21 e13d
00000280: 23a9 e9bc 52e6 eeba ec1e fabd ddc3 07bd
00000290: 8ef3 653e 4629 693c 9bf9 373e 444b 833c
000002a0: ddfe 85bd 0014 c1bc 1abb 6abc 1bbe eabd
000002b0: bb9a 03bc 2469 27bc f64f b4bc 4620 ef3d
000002c0: 30a7 8abc 082e a73c 43ed 573c c99b dd3c
000002d0: f0f1 1ebd 7bb1 dc3c cd00 acbd 2da9 103d
000002e0: 1cc6 47bd a905 173e 94f3 14bd efcf f3bc
000002f0: 840b 863c 2020 85bd c61b f1bd ab44 8ebd
00000300: bd0f 87bd 6199 373d fcfd 81bd afee dfbd
00000310: 395e 3a3e fd76 a5bd a4bd 033e 7a19 3fbd
00000320: 0dd8 643e d69a dbbd 7feb 6fbb 1566 a83d
00000330: a207 273d 7b45 00bd e343 8e3c 63d9 82bb
00000340: fa35 5abd f12a 6cbc 22ac 123c b967 57bc
00000350: b7b5 2739 7ac7 12bd 67e8 773e ae0d d6bd
00000360: cac4 85bc 8e1c 76bd 45cf 7bbd 8fb5 473c
00000370: 8299 debd 3c49 44bd eded bcbd f37d 6abd
00000380: 5a2c 813c 1936 a33d a748 f2bc daef 84bd
00000390: e344 d2bd d748 cdbc 561a 75bd 3de5 0ebd
000003a0: da5a 2ebd 4dac 7abc 4c56 ccbd 6db6 5bbd
000003b0: ad2a ab3c ed5e d9bc 5bc4 7e3d 2e9e 7cbd
000003c0: 5c22 093e a3a9 3abd bc2a e53c 2baf bebd
000003d0: 8c72 543c 6bd5 f13d d75a d03b c9b3 c53b
000003e0: ffa1 a3bd ecd9 993d 9446 d8bd d66f f03b
000003f0: dc8b 073e 1cc3 41bd 0156 52bd 210a 3d3e
-0.049114943 0.04022636 -0.028733063 -0.15695924 -0.04201678 0.04911019 -0.01866537 -0.012634565
-0.10827331 -0.033510655 -0.03509172 0.020560717 0.010598314 -0.021785818 0.005396575 0.013465469
-0.0013442056 -0.06065162 0.28872028 0.18277848 -0.06490038 -0.061215438 0.0036017285 0.13774006
-0.001260969 -0.09366323 0.014622818 -0.12083669 0.00012105132 0.16398682 -0.044174355 0.016988749
0.084924035 -0.03381858 0.07689952 0.2105439 0.038705654 0.13451107 -0.029389732 -0.021817291
-0.006295523 -0.10069864 -0.049749646 -0.11753414 -0.041282393 -0.010500413 -0.06530101 -0.12059098
-0.10397943 -0.15725766 -0.04413869 -0.09976924 -0.041869827 -0.051290434 -0.061981168 0.049990535
-0.13044262 -0.07680291 -0.09128652 -0.010291637 -0.063417055 -0.04267697 -0.056941673 0.0047069583
-0.07605003 0.02217353 0.15487611 -0.11732791 -0.004090782 0.13716711 -0.011453421 -0.074813455
-0.04166521 -0.02122437 -0.022903424 -0.087570794 -0.08646835 -0.0048302254 -0.12545127 0.051893007
0.011663589 0.037831485 -0.048584245 0.011467795 -0.062698625 -0.0038279502 -0.014903396 -0.009405985
-0.035797864 -0.073031746 -0.08771508 -0.060731098 -0.09148447 -0.08498217 -0.09417452 -0.111989945
-0.11071837 -0.0078306 0.021678427 0.033240173 -0.098677136 -0.064159386 0.004412332 -0.04283858
-0.088524684 -0.107300125 0.038092226 0.049522456 0.010800606 -0.092531 -0.037317798 0.18030718
-0.042015404 -0.022207666 -0.022130083 0.12027643 -0.10166425 0.17453375 -0.04097738 -0.07743157
-0.032345634 -0.056923803 -0.025021873 -0.0069189025 0.28046003 0.15363015 -0.024276685 -0.13826671
-0.04532168 -0.081321135 0.1430893 0.18880999 0.024851972 -0.026511606 0.056926433 -0.046855684
0.052543588 0.00016694776 -0.032101702 -0.041569423 0.03557758 -0.052389532 -0.019356996 -0.037040196
-0.052848075 -0.025199015 -0.087821074 -0.043202393 -0.10263759 -0.049054228 -0.045583043 -0.0716142
-0.036294315 0.008937156 -0.055186637 -0.033796303 -0.023284694 0.0359194 -0.033000603 0.10992727
-0.028523033 -0.00182266 -0.12212929 -0.033145774 0.2245619 0.014231032 0.1796631 0.0160271
-0.06542752 -0.023569107 -0.014326835 -0.11462041 -0.008032496 -0.010217939 -0.022010785 0.116760775
-0.016925424 0.020407692 0.013179126 0.027051823 -0.03880495 0.026940098 -0.0839859 0.03531759
-0.048772916 0.14748253 -0.036365107 -0.029762236 0.016362913 -0.06500268 -0.117728755 -0.06946691
-0.06594799 0.044824008 -0.06347272 -0.10934197 0.18200006 -0.08079336 0.12865311 -0.046655156
0.22348042 -0.10722892 -0.0036608872 0.082225956 0.040778764 -0.03131626 0.017366355 -0.0039931997
-0.053274132 -0.014414535 0.0089521725 -0.013147288 0.00015994055 -0.035834767 0.24209748 -0.10451828
-0.016329188 -0.060085826 -0.061476965 0.012189283 -0.10869123 -0.047921404 -0.09225068 -0.05724902
0.015768219 0.07969303 -0.029575659 -0.064910606 -0.10267045 -0.025059147 -0.05983957 -0.034886587
-0.04256711 -0.015299869 -0.09977397 -0.05364077 0.020894373 -0.026534522 0.062198978 -0.06167429
0.13392013 -0.045571934 0.027974479 -0.093107544 0.012966763 0.11808284 0.006358485 0.006033395
-0.07989883 0.075122684 -0.10560337 0.0073375506 0.13236946 -0.04730521 -0.05135155 0.18460895

net.4.weight f4 [256, 256]
00000000: 03ef 383c c5cf 763e 639f e63d 48de 103f
00000010: 2c3d 573e d80b 20bd 7262 543c c0df 0c3c
00000020: 10a6 6c3e 40b6 c73d 63f7 2d3c 5d65 45bd
00000030: 2b92 323d ef46 1c3d c3cc 3cbd f556 803e
00000040: 7d65 ac3c f5bb 36bd c16c 03bf 01ea adbd
00000050: 63be ed3d e073 7b3c 11ba c1bc 4037 383e
00000060: 270d 0f3c f44f 0d3f b502 da3d a125 c63e
00000070: c4fe 96bc e66d fa3c a093 50bb 6094 af3c
00000080: cd72 d73e b2c3 6f3d 6a06 d8be 7d2a c0be
00000090: 92b9 823d a264 803d 8377 623d 5b0f 133d
000000a0: f9dc 483d 1f9b c33d 82af 703d e5ae 293e
000000b0: 0352 203d efee cc3a fa4c 723d 761b 273e
000000c0: 3e2d 263e 6cf2 6a3e 1cc7 0d3e faed 023e
000000d0: 70dc 0abd 583d 303d 3431 17bd 2af0 5e3e
000000e0: 9693 a93e 4765 ed3e e92f 543b acd4 ebbb
000000f0: 1094 71bd 2335 bdbc ab5f 3f3b 3010 133e
00000100: 695e 70bc 9fdb df3c 6734 093c b061 943e
00000110: ca50 e4bc 7bd7 40be 28fa 4c3e 48e7 e5bc
00000120: f352 3dbd d1fd c93e 72d9 6ebd a516 573e
00000130: fd30 2a3d eb74 60bd 2ed5 f63e ebb2 b33d
00000140: 1f49 1e3c 762d dfbd 38ef f7bb 7bd6 c1bc
00000150: 14b0 1b3d 57aa 8b3c 6e5a ff3d cc7b 493d
00000160: 6070 c03b 38d2 433e ec24 27bd 5c6f 76bd
00000170: e613 883e 7cc5 ecbc aae2 7fbd bae7 093d
00000180: f495 e63b 5159 653e 3bfc 26bd 9232 873e
00000190: 19a8 773d 92e4 44bd 643f d23c 69b7 12bd
000001a0: 4d19 b63d b927 f23c 7da7 5d3e 74fd adbd
000001b0: 8b31 b43c 16fe 0a3f 52ad 093d 4454 49bd
000001c0: 263d a63c f6c4 ce3d 15d6 10bd 08ab 333e
000001d0: 6e3e d7bc e1a9 10bd 7175 babb 74a7 ff3c
000001e0: 4856 363e 5f19 1bbd 5e4a cc3c c20a 2a3d
000001f0: e9dd 15be 90a2 6a3c 93b2 2abd 10da 873f
00000200: e027 63bc bf05 debc 0f94 863e ecbf d4bd
00000210: d2b4 0cbd 66e1 28bd 0d18 babd 697a 85bb
00000220: 0712 2a3e cfc3 aaba e5cd bf3d 1b9b 84bd
00000230: cdf8 6e3d bef7 86bd 640f 66be ddb8 c03c
00000240: 3c3f 8d3c 7f87 3b3c 5576 ed3e 4560 5b3d
00000250: c5f1 d1ba 9956 55bb 32ae 403e 5429 2bbd
00000260: c045 293c 7218 7d3c fa1b 8a3c fc4b c1bc
00000270: 683a 2abc 462e 2ebc cbaa 2bbb 51bc 4d3b
00000280: 5f59 493d 03b5 a03d e0c0 023f 2b92 7a3e
00000290: ba6e 22be ff3d c6bc 2eb5 413d bc12 d23c
000002a0: b2fa 64bd 2145 a13d 4c88 1f3d 1d3b a83e
000002b0: 7321 083d d7f9 9f3c 614d 0fbd d4fc 803e
000002c0: b5f8 9fbd 8edb 773d 6291 fd3c bf66 923e
000002d0: 5ac0 3d3d f19d 173d d523 f53e 13ab 4d3e
000002e0: f067 89bd 90b2 3bbc abd9 413d 012a 9c3d
000002f0: dc57 923c e850 3cbd 5b87 ce3e d62a 783d
00000300: 2b69 26bd eabf 3cbe 3f5c c93c 9c21 e2bc
00000310: d8ff b4be 8182 db3e a5f9 3dbe e0c4 a83c
00000320: 8eb1 4ebe fb0b c93d 7694 e7ba 777a 083e
00000330: a21b 51bd bdeb a33e 7a9e 52be 9a20 de3b
00000340: b504 203e ac86 17bd 7d6d 873d 3fa0 5ebd
00000350: 849a a03d 0f7c 5e3d 7439 51be 8fb2 1b3d
00000360: cfa3 bb3c 72f9 343d 02f0 b4bc 1e02 67bd
00000370: c502 da3d ed1b 3a3e 515f 6a3b 4025 bb3c
00000380: 8e9f 873e 0079 66bd 604c 063d 6c7f 763d
00000390: 5c1b 883d 0fed 683d 1871 513c c520 a5bc
000003a0: 766c 7fbd e528 b93d bf91 fd3e 7694 37bd
000003b0: 5aa4 833d a929 843d bb26 2f3e 30b0 783d
000003c0: 4a50 b93d a4aa ce3e cfe4 993d 0e94 31bd
000003d0: a11e 29bd c11a 993d 8b8b 583d be72 9fbd
000003e0: 395d 0a3e ca8f 23bd ff3d 443d 57ab 9cbe
000003f0: b033 8f3c 60d0 d03c 6c0c e3ba 1a9d 0dbe
0.011287454 0.24102695 0.11260869 0.56589174 0.21019429 -0.039073795 0.012962924 0.008598268
0.23110223 0.09751558 0.010618064 -0.04819237 0.043596428 0.038153585 -0.046093713 0.25066343
0.021044487 -0.044612844 -0.5133782 -0.08491898 0.11608579 0.015347451 -0.023648294 0.17989826
0.008731163 0.55200124 0.106450476 0.38700584 -0.018432029 0.030569982 -0.0031826273 0.021433055
0.42079774 0.05853624 -0.42192394 -0.37532416 0.06383051 0.06269194 0.055289757 0.035903316
0.04903886 0.095510714 0.058761127 0.16570623 0.039140712 0.0015635173 0.05915544 0.1631907
0.16228196 0.22944039 0.13845485 0.12786093 -0.03390163 0.043027252 -0.036912158 0.21771303
0.33120412 0.4636633 0.003237719 -0.0071969833 -0.058979094 -0.023096627 0.002920131 0.14361644
-0.014670947 0.027326403 0.00837431 0.2898078 -0.027870554 -0.188322 0.20017302 -0.028064385
-0.046221685 0.3945146 -0.05831284 0.21004732 0.041550625 -0.054799 0.48209518 0.0877436
0.009660988 -0.10897343 -0.007566359 -0.023661843 0.038009718 0.017048998 0.1246842 0.049190328
0.005872771 0.19123161 -0.040806696 -0.060164794 0.2657768 -0.028902762 -0.062472023 0.033668257
0.007036919 0.22397353 -0.04076789 0.2640577 0.060463045 -0.048069544 0.025664993 -0.035819445
0.088915445 0.029559957 0.21645923 -0.08495608 0.02199628 0.54293954 0.033612557 -0.049152628
0.02029283 0.10096161 -0.035360415 0.17545712 -0.026274886 -0.03531826 -0.0056902696 0.031207778
0.17806351 -0.037865993 0.024937805 0.041514166 -0.14635433 0.0143209845 -0.041674208 1.0613422
-0.013864487 -0.02710235 0.26284835 -0.10388169 -0.03435213 -0.04123058 -0.090866186 -0.0040734303
0.1660844 -0.0013028326 0.09365443 -0.064748965 0.058342744 -0.06590222 -0.22466809 0.02352565
0.017242067 0.011445879 0.46379343 0.053558607 -0.0016017488 -0.0032552837 0.1881645 -0.04178746
0.010331571 0.015447723 0.016859043 -0.023595802 -0.010389902 -0.01063115 -0.002619433 0.0031392763
0.049157497 0.07847025 0.51075554 0.24469821 -0.15862551 -0.024199484 0.047291927 0.025643699
-0.055903144 0.078745134 0.038948342 0.328576 0.033235025 0.019528313 -0.034985904 0.25192893
-0.07811109 0.060512118 0.030953113 0.28594014 0.04632602 0.03701586 0.478789 0.20084791
-0.06709278 -0.011456147 0.047326725 0.07625199 0.01786416 -0.045975596 0.40337643 0.060587727
-0.04062764 -0.18432584 0.02458012 -0.027603917 -0.35351443 0.42873004 -0.18552263 0.02060169
-0.20184919 0.09816738 -0.0017668146 0.13327967 -0.051051743 0.32015792 -0.20568267 0.0067787888
0.15626796 -0.036993667 0.0661268 -0.05435204 0.078419715 0.05431753 -0.20432073 0.038012084
0.022905258 0.044183202 -0.0220871 -0.056398503 0.106450595 0.18174715 0.003576238 0.02284491
0.26488918 -0.05626774 0.03278768 0.060180113 0.066458434 0.0568667 0.012783311 -0.020157227
-0.062359296 0.09041003 0.49525258 -0.044819318 0.06427832 0.064532585 0.17104618 0.0607149
0.09048517 0.40364563 0.07514345 -0.043354087 -0.041288976 0.07475806 0.052867454 -0.07785557
0.13512124 -0.03993205 0.047910687 -0.30599472 0.017480701 0.025489986 -0.0017322428 -0.1382946

net.4.bias f4 [256]
00000000: 2ad9 d53c ec36 42bd 3dd2 5fbd 9562 9dbd
00000010: f395 52ba cab1 a9bc 4e88 983c 0349 8cbb
00000020: 1da7 db3c ae26 a83d a998 75bd 2b7e 233c
00000030: 4715 1f3c fe56 34bc d9d5 01bb 63d4 16bd
00000040: cb35 f73d 6052 5c3e 02db a5bc 9716 953d
00000050: 55a6 103e 2143 63bc ded8 2b3d 7d8e 2dbd
00000060: 5a43 47bc a7c2 933c 2e95 19bd 8c4d 773c
00000070: 8c95 27bd 7bdf 0a3e f773 34bd dd41 6fbc
00000080: 3fc4 f4bc 5a5f 78bc 8837 7abd 1989 60bc
00000090: e634 6abc 8186 093e e257 09bd 5920 a03d
000000a0: d789 22bd f859 9fbd 1011 4cbd 3883 ba3d
000000b0: 6b52 4dbd 6268 033d 5967 5bbc 7c80 783d
000000c0: c13e ebba 4914 1dbc 3c9c d13d 8257 0ebc
000000d0: 13fa fabc 3bea b4bb 2953 59bd 8741 373d
000000e0: 817d 76bd b2f4 1abd 9d8d afbd 1d52 6bbd
000000f0: 063a 4abd 60d9 debc 03bf e5bc 7eaf 513e
00000100: 9598 053e c8f0 493d a457 843d 6409 9f3d
00000110: 05aa eebc f916 ac3c 7bdb 10bd a815 123e
00000120: bfe0 123c b8a1 e53d 7f95 41bc ef04 47bb
00000130: df49 09bd fe6f 873e 1799 ecbc 4a16 d53c
00000140: 6931 21bd 75b7 283e 7dc9 183e e9d3 8ebd
00000150: ed82 293d 1d4e c43c 6ea7 c7bc d61f 46bc
00000160: b3ff 29bd 015a 423d d432 c73d 1412 83bc
00000170: 7e6e 6dbd a7af c03a 69ab e2bb 2fa1 4d3d
00000180: b75e ef3d c067 233e ca6c 7bbd 0800 21bc
00000190: f435 dd3a c90d 813e 5c70 b6bc 4853 ad3d
000001a0: fd7c 453e 4bec 2bbd 04dd 463b 9a94 303c
000001b0: b707 823e 13f6 81bd da36 57bd bb71 a53d
000001c0: 4427 123e a1e2 a1bc da2e 72bc 18bf 53bd
000001d0: 4254 3abc 6b93 1ebc 3d78 553e 3580 11bd
000001e0: 27ec 7bbd 1679 ba3d 16a7 15bd 0692 ae3d
000001f0: 9b24 39bd 9fc9 d3bb cc50 cd3d 4b47 19bd
00000200: 922c 07bc bd6f 72bd a0f6 94bb 3ec4 703e
00000210: 57a1 463e fd60 91bd 86f1 ecbc 5409 723e
00000220: ce5d 973c 8f3c 9ebd d40c 563e 96a0 583d
00000230: e8ea 80bb b622 b7bb 3d96 80bc 8b9d 853c
00000240: 4a8a 40bd 4149 d5bb 9cbe ecbc 5f63 7cbd
00000250: fdf5 ccbc fc2c a9ba db73 9cbd 799d a53c
00000260: e3a5 5c3e 3bdc 383c e363 6f3c 8901 6dbd
00000270: 5424 843d 8e1e 2f3d b215 ad3d 80f6 a7bb
00000280: af8c 55bd c070 edbb 47b7 523e 2bfc 3cbc
00000290: b209 cebc d479 6dbd 1d97 d13d ab74 fd3d
000002a0: 24f1 cabc 0929 bebc 2c48 ebbc b25c f5bc
000002b0: 3bf4 bd3d 99aa 7a3e 7744 67bd 0542 45bd
000002c0: 464f b6bc d070 803d 1ac1 1c3d 7074 b8bb
000002d0: 5bcd b13d 8812 b43d d498 5ebd 919b f13b
000002e0: 746f 093b 0613 53bd 9325 56bd 4af7 103c
000002f0: 5295 92bc f0cf 7dbc 51a8 353e e25b 89bd
00000300: 7d07 69bd dd96 bb3d 973f 1cbd f67f d03d
00000310: 5293 523b 1296 f13d 8f5a 81bd 55f0 75bb
00000320: cc78 b0bc 3ded 75bc 2d1d c53d 359e 8ebc
00000330: bef1 773d 8533 e93b 6a5d 7e3c 5c5f e6bc
00000340: a409 5b3c 1a05 803b fb3d 57bd b096 143e
00000350: 14d0 aa3a 6475 703b efb9 ed3c 3414 ee3d
00000360: 70af 783e 308e 723d 331d d8bc 1ebe 44bc
00000370: 4208 8fbc 9a99 eabc 48cc 6fbd 0196 153c
00000380: 1792 963c 3bb9 853a 53b5 70b9 a774 db3d
00000390: 38d2 08bd 2258 133d 88af 17bd 9676 2f3e
000003a0: 2fcf 323e 3a17 c83d 4dbb 383d 734a 93bc
000003b0: 5a5c 04bd 5a90 b43c cf14 a8bb aead f73b
000003c0: 8e3a 0d3e 1850 6dbc 4a51 3a3d 018a 173d
000003d0: d43d 45bc b4e6 043c 7d76 013d 23b7 8fbc
000003e0: c789 60bd d6cc 87bd 0f6e f3bd 84f5 173e
000003f0: 2dbb b1bb 6a8e 7cbd fe08 99bd b0a7 ad3d
0.026104528 -0.04741566 -0.05464386 -0.07684819 -0.00080332084 -0.02071466 0.018619683 -0.0042811646
0.026813084 0.082105026 -0.05996004 0.009978811 0.009709663 -0.011007069 -0.00198113 -0.03682364
0.12070807 0.21515799 -0.020246033 0.07279699 0.1412595 -0.013870985 0.041954868 -0.042372216
-0.012162054 0.018037153 -0.037495784 0.015094172 -0.040914103 0.13561814 -0.044055905 -0.014603105
-0.029878734 -0.015159452 -0.061088115 -0.013704562 -0.0142948385 0.13430215 -0.033531077 0.0781867
-0.039682236 -0.07780832 -0.04982096 0.09107059 -0.050127428 0.03208197 -0.013391339 0.060669407
-0.0017947779 -0.009587356 0.102348775 -0.008687856 -0.030636823 -0.0055210865 -0.053057823 0.044740226
-0.060178284 -0.037831016 -0.085719325 -0.057451356 -0.04937174 -0.027203262 -0.028045183 0.20477101
0.13046487 0.049301893 0.064620286 0.07765463 -0.029133806 0.021007048 -0.035365563 0.14266074
0.008964716 0.11212486 -0.011815428 -0.003036793 -0.033517715 0.2645263 -0.028881593 0.026011605
-0.03935376 0.16476233 0.14920612 -0.069740124 0.041384626 0.023963029 -0.024371829 -0.012092551
-0.04150362 0.047449116 0.097264916 -0.015999831 -0.0579667 0.0014700786 -0.0069174063 0.050202545
0.11687987 0.15957546 -0.061383046 -0.009826668 0.0016877041 0.2520583 -0.022270374 0.0846315
0.1928596 -0.041973393 0.0030344138 0.010777617 0.2539651 -0.06345763 -0.052542545 0.08078333
0.14272791 -0.019761385 -0.014781678 -0.051695913 -0.011372628 -0.009678702 0.20846649 -0.03552266
-0.06150451 0.091051266 -0.0365363 0.085239455 -0.045200925 -0.006463244 0.100251764 -0.037421506
-0.0082503725 -0.059188593 -0.0045460016 0.2351236 0.19397484 -0.07098577 -0.028923761 0.23636371
0.018477347 -0.077263944 0.20903331 0.05288752 -0.003934253 -0.0055888547 -0.01569664 0.016310474
-0.047006883 -0.0065089767 -0.028899483 -0.061618205 -0.02501964 -0.0012907083 -0.07639285 0.02021669
0.21547656 0.011282976 0.014611217 -0.057862792 0.064522415 0.04275375 0.08451404 -0.0051258206
-0.05213612 -0.007246107 0.20577727 -0.011534731 -0.025151107 -0.057977512 0.10233901 0.12375768
-0.024773188 -0.023212926 -0.028720938 -0.029951427 0.09275099 0.2447914 -0.056461778 -0.048158664
-0.022254597 0.06271517 0.038270094 -0.005629115 0.086817466 0.08792597 -0.054344967 0.0073732813
0.0020970972 -0.051531814 -0.052281927 0.008848021 -0.017893467 -0.015491471 0.17739989 -0.067069784
-0.056891907 0.09159634 -0.03814658 0.101806566 0.0032131267 0.11796202 -0.06316101 -0.0037527282
-0.021541975 -0.015010175 0.096247055 -0.017409423 0.060533278 0.0071167373 0.015525201 -0.028121643
0.013368998 0.003906858 -0.052549344 0.14510608 0.0013031983 0.0036691064 0.029019324 0.11624947
0.24285674 0.05921763 -0.02638111 -0.012008218 -0.017459992 -0.028637696 -0.058544427 0.009130002
0.018380208 0.0010202298 -0.00022955732 0.10715609 -0.033403605 0.035972722 -0.037032634 0.1713508
0.17461847 0.09770055 0.0451005 -0.017979836 -0.032314636 0.022041488 -0.0051294337 0.007558546
0.13791868 -0.014484428 0.04548768 0.036996845 -0.012038667 0.008111645 0.03160714 -0.017543381
-0.054818895 -0.06630866 -0.118862264 0.1483975 -0.0054239244 -0.061659254 -0.07472418 0.084792495

net.6.weight f4 [1, 256]
00000000: 3486 c63f 378d f53e b6cf 393d 2649 f23e
00000010: 80f6 413f 334e 09bd bc9a 653e 8d9a 12bd
00000020: 751a e2be 6fa0 803f 3ac1 263f a16a c53e
00000030: 09e4 413e 93df 5d3b 2e8d ee3b b2f2 9f3c
00000040: 84fe 71bf 9abd e33f 0d3b ac3d 055b a03f
00000050: 25fa 88bf 48b6 383b 4c43 21bb 0c0b 62bd
00000060: 4316 eebd d866 b03d 1830 d63c 9d5c af3b
00000070: 383d 76bc c929 bc3f 8db0 2b3b 2ae4 803e
00000080: 84dd 123c 22ce 093f 6581 233f 2507 c63c
00000090: 6ae5 7cbd a546 cf3f 2aaa 0f3e d8ce 723f
000000a0: 635f 9e3e f77b fabc b8ad 1c3c a761 ab3f
000000b0: 0cd0 91bc c8d4 4c3f ac8e c23e 0e76 983f
000000c0: 94ad 49bc cd00 973f 0d56 843f 0d80 ae3f
000000d0: f5da f4bb ab35 383e f0bc 12ba 471e 86bf
000000e0: c1f5 483d 9dc1 34bd b4e3 bf3e ee94 13bc
000000f0: acff 563f 4453 2bbd f65f d73e 10e2 d83f
00000100: 6e66 863f cf87 723e 6f5a dbbf 3d4b 713f
00000110: e438 263f f2d0 773d 415a 013f d590 9fbf
00000120: 8770 dfbe 1cc4 aa3f b2a9 033e 75da c33d
00000130: 02a3 d9bb de39 5e3f 5e8b 13bd 3366 953f
00000140: 99c6 cd3e 0af1 99bf 8ffb 8fbf da6e 803c
00000150: 152a a63e dc8d ba3f 26d3 1cbc 92ec 163d
00000160: c1be 113b dcf3 a93f 9663 b83f d39e ef3d
00000170: 19ff 493e 9399 5cbd 6429 af3d 132f 173f
00000180: 8220 ef3f 1352 753f 91b5 79bd 5ca5 a03a
00000190: c2e0 3dbe 7f89 d9bf abbc 8cba 6645 673f
000001a0: 83da b93f 0c9e 24bd 52f5 12bc 8430 30bb
000001b0: cc9e a03e 8955 ce3e 3303 e9bc 962e 5a3e
000001c0: 2e45 633f 2a2b d9bd 57d4 983f e8c9 cf3e
000001d0: 5972 67bc ce2a 273e 7689 933f 8023 573a
000001e0: 9828 4fbd 80ad b73f a7a1 013f 1321 9b3f
000001f0: aaf7 563f ca55 bd3e 0a1f bf3f 49a2 463f
00000200: c4de 3dbd f288 163f 092b ffbe 911b 893e
00000210: a8e0 993f 582c 153f 1118 4e3a 89d6 cabf
00000220: 6caa 9cbe 924a 963f 54f5 0e40 9dc8 873f
00000230: a4d7 043b 6610 7a3f d12b 1b3e 758c 6b3f
00000240: 5c3b 3abd 9aca b23e e9a0 39bc 219e 63bb
00000250: f63b 9a3e d171 76bd 3b40 3b3f f6e9 8d3e
00000260: 1bbe e13f 6640 31bd a987 843f 97e8 14bd
00000270: f04b 923e 3e97 c2bf d5d8 01bf 95b3 7bbd
00000280: 4cf0 39bc fef0 90be 7545 c03f fbd3 55bd
00000290: 35e9 633e e531 103f e0a8 743f 72a4 0cbf
000002a0: b2ed 723f f2a4 d33b ea8d 4ebd c333 e5bb
000002b0: b2ba bf3f 585a ea3f c247 c73c c01b 14bd
000002c0: 9868 9d3c a1d6 e53e 521c 06bf fe39 8e3d
000002d0: 3ed5 bd3f 0a06 433f 85c6 6cbc 510f 50bf
000002e0: c47b eb3f 5e16 b6bc a0ed 203b 0fab f93d
000002f0: 561e 6e3e e4bb d1bc d4ef eb3f 90f6 81be
00000300: 2c8d ce3c 1bb7 d73f 773c 653d 6f37 d63f
00000310: a18c aa3f 2404 a43f fcec 18bc 5bd3 2bbd
00000320: 1e86 2d3f d89b 67bc 8496 5a3f 5e4b c33d
00000330: 5100 be3f c7b4 9aba 67f5 e13e e106 793d
00000340: fb7e b03f 023b b23e 3508 95be 48e1 3dbf
00000350: 778b c3bd f16d cfbe 3710 a23f 41df 23bf
00000360: 55fd 9e3f f228 ba3f 2a78 e13c be1a f0bd
00000370: 8381 223c cf62 a0b9 3a3b 16bd 2a6b c93f
00000380: 089d 39be ba04 b4bc e524 15bc d659 1dbf
00000390: d38d 1cbe 8539 d33f e13f 2c3d 2a18 0940
000003a0: 4dcf 6a3f 3cc8 f23e 662f ccbe 8f4d 4c3f
000003b0: e4f2 5c3f 989c 533d a854 193e 4085 a33f
000003c0: bbf8 9f3f 036b cabc fefb 1c3e 899b f33e
000003d0: 8a68 a13f 3151 e93d 0da4 9f3f 4937 92be
000003e0: d1bc cd3c 9613 153f 0285 3ebf f47e ec3f
000003f0: 9cd6 26bd 7149 f93c 4090 89be 521a e53f
1.5509706 0.479593 0.045364104 0.47321433 0.75766754 -0.033521842 0.22422308 -0.035791922
-0.4416081 1.004896 0.6513859 0.38557914 0.18934645 0.0033855184 0.0072800135 0.019524906
-0.94528985 1.7792237 0.084097005 1.2527777 -1.0701338 0.002818482 -0.0024606762 -0.055186316
-0.1162534 0.08613366 0.02614598 0.0053516165 -0.015029244 1.4700252 0.0026197762 0.25174075
0.008963946 0.5383016 0.63869315 0.024173329 -0.061742224 1.6193434 0.14029756 0.9484687
0.3093215 -0.03057669 0.009562902 1.3389176 -0.0177994 0.8001218 0.37999475 1.1911027
-0.012309451 1.1797119 1.0338761 1.3632828 -0.007472391 0.17989223 -0.0005597612 -1.047799
0.049062494 -0.044129957 0.3747841 -0.009007676 0.83983874 -0.041827455 0.420654 1.6943989
1.0500009 0.2368462 -1.7136973 0.9425543 0.6493056 0.060502 0.5052834 -1.2466074
-0.4364054 1.3341098 0.12857702 0.09563152 -0.0066417465 0.8680705 -0.036021583 1.1671814
0.4019058 -1.2026684 -1.1248645 0.015677858 0.3245398 1.4574542 -0.009571826 0.036846705
0.0022238942 1.3277545 1.4405391 0.11700215 0.19726218 -0.053857397 0.085528165 0.59056205
1.8681796 0.9582836 -0.06096417 0.0012256312 -0.1854277 -1.6995085 -0.001073738 0.9034027
1.451981 -0.040189788 -0.008969622 -0.0026884386 0.31371152 0.40299633 -0.028443908 0.21306834
0.88777435 -0.10603936 1.1939801 0.4058373 -0.014126384 0.16324922 1.1526325 0.0008206889
-0.050575823 1.4349823 0.50637287 1.2119468 0.83971655 0.36979514 1.4931347 0.7759138
-0.046355024 0.5880271 -0.4983752 0.26778844 1.2021685 0.5827079 0.00078618625 -1.5846721
-0.30598772 1.1741507 2.2337236 1.0608097 0.0020270133 0.9768127 0.15153433 0.92011195
-0.045466766 0.34920198 -0.011329868 -0.0034731703 0.30123872 -0.060167138 0.7314488 0.2771756
1.763614 -0.043274306 1.03539 -0.036354627 0.2857356 -1.5202405 -0.50721484 -0.06145056
-0.011348795 -0.28308862 1.5021197 -0.052204113 0.2225693 0.56326133 0.9557018 -0.54938424
0.94893944 0.006458872 -0.05042831 -0.006994696 1.497885 1.8308821 0.024326209 -0.036159277
0.019214913 0.4489031 -0.52386963 0.06944655 1.4830701 0.7618109 -0.014451628 -0.8127337
1.8397145 -0.022227462 0.0024555698 0.1219083 0.2325376 -0.025602289 1.8432565 -0.25383425
0.0252138 1.6852754 0.055965867 1.6735667 1.3324167 1.2813764 -0.009333845 -0.04194961
0.6778277 -0.014136277 0.8538592 0.095358595 1.4843847 -0.0011803143 0.4413254 0.060797576
1.3788751 0.34810644 -0.29107824 -0.74171877 -0.09548085 -0.40513566 1.2661198 -0.64012533
1.2421061 1.4543746 0.027523119 -0.11723851 0.009918573 -0.00030591196 -0.036677577 1.5735829
-0.18126309 -0.02197491 -0.009103035 -0.61465204 -0.15288477 1.6501929 0.042053107 2.1420999
0.91722566 0.47418392 -0.39879912 0.79805845 0.8630812 0.05166301 0.149737 1.277504
1.2497782 -0.02470923 0.15330502 0.475796 1.2610028 0.11392439 1.2471939 -0.28557804
0.025114449 0.5823301 -0.74421704 1.8476243 -0.04073201 0.030430527 -0.26867867 1.7898657
