preTrained/GAIL_pretrained_6500_actor.pth (torch, 541220 bytes, 8 tensors)

net.0.weight f4 [256, 3]
0	0xbe48cdf5	-0.19609816
1	0xbf17cffd	-0.5930174
2	0xbeaaf6d8	-0.33391452
3	0x3eb30f24	0.3497249
4	0x3f48c5e3	0.7842695
5	0xbec3bc85	-0.38229766
6	0x3f0164aa	0.50544226
7	0x3e28577f	0.16439627
8	0xbf2307e7	-0.63683933
9	0xbf09baab	-0.5380046
10	0x3e8132bc	0.2523402
11	0xbc8a037e	-0.016847368
12	0x3dc49ec0	0.09600592
13	0xbf09016c	-0.53517795
14	0xbe57dc48	-0.21080124
15	0x3e2dd734	0.16976625
16	0xbe77e06d	-0.24206705
17	0xbdbcd398	-0.09220046
18	0xbe5f3b6c	-0.21800011
19	0x3f0c25f4	0.5474541
20	0xbe0950e5	-0.13409765
21	0xbec29d3e	-0.3801059
22	0x3f8ec027	1.115239
23	0xbe0c4867	-0.13699494
24	0xbf36bcab	-0.71381634
25	0x3e8dec19	0.2771919
26	0xbeef7a75	-0.46773115
27	0xbf138f61	-0.57640654
28	0xbde72773	-0.11286821
29	0xbf047c33	-0.5175201
30	0xbf0849ba	-0.532375
31	0xbf1c3977	-0.61025184
32	0x3e5fb95d	0.21848054
33	0xbebe856f	-0.37211177
34	0xbd492da2	-0.049115784
35	0xbf0245e1	-0.50887877
36	0xbe48488f	-0.19558929
37	0xbf7539c8	-0.9579129
38	0xbe3ab5d6	-0.18233427
39	0xbe9f63aa	-0.31130725
40	0x3e089a6f	0.13340162
41	0x3e3a6eb7	0.18206297
42	0x3ee4aae5	0.44661632
43	0x3ef77065	0.48327938
44	0xbeb6dc01	-0.35714725
45	0xbf33302a	-0.6999537
46	0x3f76f98c	0.9647453
47	0xbe8118e7	-0.2521431
48	0xbf302b39	-0.6881595
49	0x3e9dcd39	0.30820635
50	0xbe0c14e6	-0.13679847
51	0xbe7579f1	-0.23972298
52	0x3e90fcc6	0.2831785
53	0x3ea63160	0.32459545
54	0xbed96a9f	-0.42464158
55	0x3f145680	0.5794449
56	0xbd7c83f2	-0.06164927
57	0x3d8c59f3	0.06853094
58	0xbe94389e	-0.28949445
59	0xbef90308	-0.48635125
60	0xbe28127b	-0.164133
61	0xbf08e0c7	-0.53467983
62	0xbe5c4c63	-0.21513514
63	0xbe59d3f8	-0.21272266
64	0xbdfc8d6a	-0.1233166
65	0x3e3d9fc1	0.18517973
66	0xbe518aeb	-0.20463149
67	0x3f6fcc1a	0.9367081
68	0xbf021d5a	-0.50826037
69	0xbec0515b	-0.3756207
70	0xbf0902b8	-0.53519773
71	0x3ed1b614	0.40959227
72	0x3e078491	0.13234164
73	0x3ee0d6b9	0.4391382
74	0xbf290e64	-0.66037583
75	0x3ee36df5	0.44419828
76	0x3ec27548	0.37980103
77	0xbee3f8d7	-0.44525787
78	0x3c8a7498	0.0169013
79	0x3e5f2811	0.21792628
80	0xbf1e9130	-0.6194029
81	0xbd9953b3	-0.074866675
82	0x3df4635f	0.11933016
83	0xbc7642e5	-0.015030597
84	0xbd88daa0	-0.066823244
85	0xbc87d45d	-0.016580755
86	0x3ec71b7a	0.3888815
87	0xbc46145a	-0.012089813
88	0xbf0ca51d	-0.5493944
89	0xbf1b698e	-0.6070794
90	0x3dd9a272	0.10626687
91	0xbdd3e389	-0.10346133
92	0x3ec46f25	0.38366047
93	0xbe772834	-0.2413643
94	0xbaf7aeef	-0.0018896739
95	0xbf125164	-0.5715544
96	0x3f0bb41f	0.5457172
97	0xbf90a168	-1.1299257
98	0x3ebcda46	0.3688528
99	0xbeab3382	-0.33437735
100	0x3ec78f34	0.38976443
101	0xbe468a3c	-0.1938867
102	0xbf2f1389	-0.68389183
103	0xbe5325c8	-0.20619881
104	0xbe5e8f95	-0.2173446
105	0xbee1c9ea	-0.4409936
106	0x3d768da7	0.060193684
107	0xbdbf17e5	-0.093307294
108	0x3ea0fff2	0.3144527
109	0x3dbc4cf4	0.09194365
110	0xbe209c29	-0.1568457
111	0xbf3885e0	-0.7207928
112	0x3f5a22f6	0.85209596
113	0xbf01efcd	-0.5075653
114	0x3e48d765	0.19613416
115	0xbea0f4d0	-0.31436777
116	0xbed8d231	-0.42347863
117	0xbdfa919e	-0.122348055
118	0x3f01e362	0.50737584
119	0xbf47ae58	-0.780004
120	0x3e1000af	0.14062761
121	0x3ef9c25a	0.4878109
122	0xbe855020	-0.26037693
123	0xbd6f4777	-0.058417764
124	0x3ef62953	0.48078403
125	0xbe8eee63	-0.2791625
126	0xbebe2840	-0.37140083
127	0x3f4aad29	0.7917047
128	0xbed2950b	-0.41129336
129	0xbe791ff8	-0.24328601
130	0x3ec64856	0.38727063
131	0x3e5b443f	0.21412753
132	0x3cc0ac81	0.023519756
133	0xbf01a217	-0.50637954
134	0xbecfb8e0	-0.40570736
135	0x3d5f0a28	0.054453045
136	0xbef7d8be	-0.4840755
137	0xbee7f43b	-0.4530352
138	0xbf427d03	-0.75972
139	0x3f1b9a3d	0.60782224
140	0xbdb89b6f	-0.090140216
141	0x3e510338	0.20411384
142	0xbfacf608	-1.3512583
143	0x3e8b8288	0.27248025
144	0xbef518d2	-0.478705
145	0xbeb34fb5	-0.3502175
146	0xbd28a6fb	-0.04117487
147	0xbee12cae	-0.439794
148	0xbe01353b	-0.12617962
149	0xbcb68c52	-0.022283707
150	0xbe90c10c	-0.28272283
151	0x3f932531	1.1495725
152	0xbe771dcc	-0.2413246
153	0x3ef663aa	0.48122913
154	0x3f202b3a	0.6256596
155	0xbe58f8d8	-0.21188676
156	0xbf07e803	-0.53088397
157	0x3e297d02	0.16551593
158	0x3e501c34	0.20323259
159	0xbc080b52	-0.00830348
160	0x3f128d41	0.57246786
161	0xbefd39e0	-0.49458218
162	0x3e886fb9	0.26647738
163	0xbf11c217	-0.5693678
164	0x3d8903fc	0.06690213
165	0x3df67052	0.12033142
166	0xbe4399ae	-0.19101593
167	0xbeebe067	-0.46069643
168	0x3eaebc02	0.34127814
169	0x3caff7e6	0.021480512
170	0x3ea7a6b6	0.32744378
171	0xbd76baa8	-0.060236603
172	0xbf1e023d	-0.61722165
173	0xbd373c18	-0.044735044
174	0xbec18caf	-0.37802646
175	0x3ef7a99b	0.48371586
176	0x3ee2f468	0.44327092
177	0xbf3fd7bb	-0.74938554
178	0xbea38dac	-0.31944025
179	0x3e62111c	0.22076839
180	0xbe9b3c53	-0.3031946
181	0xbf37564f	-0.7161607
182	0xbe382cc5	-0.17985828
183	0xbe8f88c8	-0.28034043
184	0xbdea83ca	-0.11450918
185	0xbe3dc2c5	-0.1853133
186	0xbe7abb64	-0.24485546
187	0x3f55fde6	0.83590543
188	0xbe2b1541	-0.16707326
189	0xbeb701d8	-0.35743594
190	0xbe4fcd12	-0.20293072
191	0xbea98e50	-0.33116388
192	0x3e6adeb2	0.22936514
193	0x3f7592a0	0.95926857
194	0x3ebcc53b	0.36869225
195	0xbee8d590	-0.45475435
196	0xbf1af4a2	-0.6052953
197	0x3d08bb21	0.033381585
198	0xbd825309	-0.06363494
199	0x3ddb4881	0.107071884
200	0xbf1844f9	-0.59480244
201	0xbe7eb99a	-0.24875489
202	0xbe769318	-0.2407955
203	0xbce68fd1	-0.028144749
204	0xbe41e627	-0.18935452
205	0xbf887523	-1.0660747
206	0xbec9cb88	-0.39413095
207	0xbf465d17	-0.77485794
208	0x3e920f41	0.28527263
209	0x3ccfed10	0.025381595
210	0xbe7d7ede	-0.24755427
211	0xbefcabb5	-0.49349752
212	0xbf0da749	-0.5533338
213	0xbd96eef7	-0.07369798
214	0x3efb0c72	0.49032933
215	0xbeaf8ffe	-0.34289545
216	0xbf1fa1c3	-0.62356204
217	0x3f34050d	0.70320207
218	0xbec5b840	-0.38617134
219	0x3eab675a	0.33477288
220	0xbd959740	-0.07304239
221	0xbdaf3281	-0.08554555
222	0xbd47a3a6	-0.04874005
223	0xbf1e4007	-0.6181645
224	0x3e1707d9	0.14749087
225	0xbeb42322	-0.35183054
226	0xbeb83449	-0.3597739
227	0xbe6d1d64	-0.23155743
228	0xbd7d9170	-0.061906278
229	0x3e1acdaf	0.15117525
230	0x3e0850d1	0.13312079
231	0x3d9fee22	0.07809092
232	0x3e5166ca	0.20449367
233	0xbeb24df8	-0.3482511
234	0x3e63c73d	0.22243972
235	0x3ea1398f	0.31489226
236	0x3ec4671a	0.3835991
237	0xbe9aba8f	-0.30220458
238	0x3e109ee0	0.14123106
239	0x3e6a0468	0.22853243
240	0xbe81ab74	-0.2532612
241	0xbf8ac6c3	-1.0841907
242	0x3e4ee24b	0.20203511
243	0xbef3dba9	-0.47628525
244	0x3da445b4	0.08021107
245	0xbeaf4e72	-0.34239537
246	0x3e8e462d	0.27787915
247	0x3dc1a8e3	0.09456041
248	0x3e89cc64	0.2691375
249	0x3e3c92a7	0.18415318
250	0x3e724c10	0.23661828
251	0xbf23887f	-0.6388015
252	0x3e763cbc	0.24046606
253	0xbe214b09	-0.1575128
254	0xbf101582	-0.5628282
255	0xbd659426	-0.05604949

net.0.bias f4 [256]
0	0xbe0852df	-0.13312863
1	0xbe07389e	-0.13205191
2	0x3cd9c650	0.02658382
3	0xbe24a78d	-0.1607954
4	0x3cdd5e94	0.027022637
5	0x3dd503fe	0.10401152
6	0xbd18a513	-0.037266802
7	0x3de19482	0.11014654
8	0x3ee1cca1	0.44101432
9	0x3ee6b282	0.45058066
10	0xbc33337f	-0.010937571
11	0x3ec38d34	0.38193667
12	0x3eb69e04	0.3566743
13	0xbb59d984	-0.0033241222
14	0xbe368003	-0.1782227
15	0x3e3c0414	0.1836093
16	0x3e84dbf5	0.25949064
17	0xbee0abf1	-0.4388118
18	0xbe90cb38	-0.28280044
19	0x3e2aafca	0.1666862
20	0x3da64e24	0.08120373
21	0xbe5bd29a	-0.21467057
22	0x3e0085ff	0.12551115
23	0xbe298d1a	-0.16557732
24	0x3e3a1d90	0.1817534
25	0xbe67b3f6	-0.22627243
26	0x3dcbf35a	0.09958525
27	0xbf0db8ac	-0.5535991
28	0xbf03a108	-0.5141759
29	0x3e5ffa1b	0.21872751
30	0xbefdcc21	-0.495698
31	0x3d916523	0.070993684
32	0xbe87c58b	-0.265179
33	0x3d09125d	0.03346478
34	0x3ea6770b	0.32512698
35	0x3e455b74	0.19273168
36	0xbe3e6888	-0.18594563
37	0x3eaf7cd8	0.34274936
38	0x3d8e3baf	0.069449775
39	0x3ea865c5	0.32890144
40	0xbf0743ba	-0.5283772
41	0xbe80afb1	-0.25134042
42	0x3e35a9df	0.17740582
43	0xbe74856f	-0.23879026
44	0xbeac9200	-0.3370514
45	0x3e0280b8	0.12744415
46	0x3e4c55ce	0.19954607
47	0x3b312787	0.0027031617
48	0x3d0d8970	0.0345549
49	0x3e1131c7	0.14179145
50	0x3dd99298	0.10623664
51	0xbe4cfccb	-0.20018308
52	0xbd8b0af1	-0.06789196
53	0xbea3f993	-0.32026348
54	0x3db06af5	0.086141504
55	0xbd04959a	-0.032369234
56	0xbed1d53a	-0.4098299
57	0xbd4f5378	-0.05061671
58	0xbe3b300f	-0.18280052
59	0x3de635fa	0.11240764
60	0x3db82edd	0.089933135
61	0xbd830612	-0.06397642
62	0xbb12a792	-0.0022377712
63	0xbecc11c4	-0.39857304
64	0xbeb5d6a6	-0.35515326
65	0x3e4d090b	0.20022981
66	0x3cac4a5a	0.021031547
67	0xbe85d488	-0.2613871
68	0x3ed90deb	0.4239343
69	0x3e5c9463	0.2154098
70	0x3e94d8f4	0.29071772
71	0xbcf4cd1b	-0.029882958
72	0x3e8c8fda	0.274535
73	0xbe06516a	-0.13116995
74	0xbe1a9e7c	-0.1509952
75	0x3e40a64b	0.18813436
76	0xbe9ab995	-0.30219713
77	0x3dc5ac94	0.09652057
78	0xbeba6a4f	-0.36409232
79	0xbede3220	-0.43397617
80	0x3e7c949a	0.24666062
81	0x3e7c02ca	0.24610439
82	0xbed05517	-0.40689918
83	0x3e39715c	0.1810965
84	0x3e0b7235	0.13617785
85	0xbe0452ec	-0.12922257
86	0xbde59b0b	-0.11211213
87	0x3d766d7c	0.060163006
88	0x3e45a18f	0.19299911
89	0xbe8220fd	-0.25415793
90	0xbcddc441	-0.02707112
91	0xbefddc1f	-0.49582002
92	0x3c418a51	0.011812762
93	0x3cb10179	0.021607148
94	0x3e446f4d	0.19183083
95	0x3ebb6490	0.3660016
96	0xbd876e59	-0.06612844
97	0x3eb0b4b2	0.3451286
98	0x3d749c47	0.05971935
99	0xbd494518	-0.04913816
100	0xbe9747cb	-0.2954696
101	0xbe88208f	-0.2658734
102	0x3c8bae8e	0.017051008
103	0xbed9ef0a	-0.42565185
104	0xbdb8ae09	-0.090175696
105	0xbed0dcca	-0.4079345
106	0x3d812ef6	0.06307785
107	0xbd62bca1	-0.05535567
108	0xbdeaadff	-0.11458968
109	0x3dbfcdf9	0.09365458
110	0x3e92a92b	0.2864469
111	0xbed9d3e4	-0.42544472
112	0xbf07be55	-0.530248
113	0xbbd2e4d0	-0.006435968
114	0xbea02f9a	-0.31286317
115	0xbd858a18	-0.0652048
116	0xbe3d463d	-0.18483825
117	0x3e391d2f	0.18077539
118	0xbcb57f30	-0.022155374
119	0x3b0cc351	0.0021478722
120	0xbe95dbc1	-0.2926922
121	0xbc8f308e	-0.017479207
122	0xbe186fa5	-0.14886339
123	0xbe41569d	-0.18880697
124	0x3e8a13a3	0.26968107
125	0x3dc8ef68	0.09811288
126	0xbe78e947	-0.24307738
127	0x3cfda717	0.030963464
128	0xbe99acf6	-0.3001477
129	0x3e4f4f20	0.20245028
130	0xbdc1946c	-0.09452137
131	0x3e1c3aa8	0.1525675
132	0xbe1c932b	-0.15290515
133	0xbe05022b	-0.12989108
134	0xbdf8ddba	-0.12151666
135	0xbe58b2d9	-0.21161975
136	0xbe18f63f	-0.14937685
137	0xbe34dc07	-0.17662059
138	0xbe360223	-0.17774253
139	0xbf03400b	-0.51269597
140	0xbe4845dd	-0.195579
141	0xbea60b8e	-0.3243069
142	0xbe96a1a1	-0.29420188
143	0xbe301111	-0.1719401
144	0xbefb7fce	-0.49120945
145	0xbef9a066	-0.48755187
146	0x3d52875e	0.051398627
147	0xbe94744e	-0.28994983
148	0xbeb1d96e	-0.34736198
149	0x3ce9451b	0.028475335
150	0xbeef54ea	-0.46744472
151	0xbea4d729	-0.32195404
152	0xbde1f8b9	-0.11033768
153	0x3e813b02	0.25240332
154	0x3e0b2d0f	0.13591407
155	0xbe081285	-0.13288315
156	0xbe8784d1	-0.26468518
157	0x3e900f07	0.28136465
158	0xbe2ec8da	-0.17068806
159	0x3db6c5fe	0.08924483
160	0x3dc31e80	0.09527302
161	0xbe6e50fe	-0.23273084
162	0x3e66f5ce	0.22554705
163	0xbcf27774	-0.029597975
164	0x3edaa22d	0.42701855
165	0xbd8dc49d	-0.06922267
166	0x3eb03ee9	0.34422997
167	0xbe199c4d	-0.1500103
168	0xbdfad9c7	-0.12248569
169	0xbeac94de	-0.33707327
170	0x3d1ca764	0.038245574
171	0x3cd37f8d	0.025817657
172	0x3bee8aa6	0.007279712
173	0x3ea66f06	0.3250658
174	0xbe35c50f	-0.17750953
175	0x3d801be7	0.06255322
176	0xbe83e1a5	-0.2575809
177	0xbe4f0808	-0.20217907
178	0x3e91e8c9	0.28497913
179	0xbed7a022	-0.4211436
180	0xbe965781	-0.29363635
181	0xbee92bba	-0.45541173
182	0xbe17affc	-0.14813226
183	0x3e096d21	0.13420536
184	0x3e05b9d4	0.13059169
185	0x3ec3c526	0.3823635
186	0xbee94eda	-0.4556797
187	0xbde045e6	-0.10950832
188	0xbe5f449e	-0.21803519
189	0x3de7639a	0.11298294
190	0x3e104d0a	0.14091888
191	0x3d434bd5	0.04767974
192	0xbb1ff5c4	-0.0024407962
193	0x3dad0833	0.084488295
194	0xbe9ae584	-0.30253232
195	0xbe3e9256	-0.1861051
196	0xbf0fb627	-0.5613732
197	0xbecfbeb8	-0.40575194
198	0xbd6c672f	-0.05771559
199	0x3e9847c5	0.29742256
200	0x3e334b1b	0.17509119
201	0xbe839771	-0.25701478
202	0xbf08702d	-0.53296167
203	0xbe187693	-0.14888982
204	0xbeec915f	-0.4620466
205	0x3ea561f1	0.32301286
206	0xbe770a81	-0.241251
207	0xbdc322a6	-0.09528093
208	0xbd84dc34	-0.06487313
209	0x3c606dd3	0.013698059
210	0xbea5d9a1	-0.323926
211	0xbf0f3312	-0.559373
212	0x3da142c5	0.078740634
213	0x3e136904	0.14395529
214	0xbe830d10	-0.25595903
215	0xbdd1abcb	-0.10237845
216	0x3ec22964	0.37922204
217	0x3da33399	0.07968826
218	0x3e1e8b52	0.15482834
219	0x3e3460bc	0.17615026
220	0x3e45be41	0.19310857
221	0xbddf803e	-0.10913132
222	0xbe4a8e38	-0.19780815
223	0x3d72b8dd	0.05925833
224	0x3e1f662f	0.15566324
225	0xbd28dd64	-0.04122676
226	0xbf035669	-0.51303726
227	0x3d06e233	0.032930564
228	0x3e8d5313	0.27602443
229	0xbe556adb	-0.20841543
230	0x3e64a9b9	0.22330369
231	0x3dfe242f	0.12409245
232	0xbe9cc49f	-0.3061876
233	0x3e8d5857	0.2760646
234	0xbe898826	-0.26861686
235	0x3e9e691c	0.30939567
236	0x3e5cdc97	0.21568523
237	0x3ea56083	0.32300195
238	0x3d200579	0.03906772
239	0x3e721261	0.23639823
240	0x3d6dee03	0.058088314
241	0x3cb8de49	0.022566931
242	0xbc136b1a	-0.008997703
243	0x3e905b5b	0.281947
244	0x3d1666d0	0.036719143
245	0x3de8db3f	0.11369943
246	0xbf02913f	-0.5100288
247	0xbe96fdca	-0.294905
248	0x3e81fb6a	0.25387126
249	0xbe646520	-0.22304201
250	0x3e30c8d4	0.1726411
251	0x3e77202c	0.24133366
252	0xbe81dfa7	-0.25365946
253	0xbe793cf7	-0.24339662
254	0x3e10f0d5	0.1415437
255	0xbb6de9cd	-0.0036302686

net.2.weight f4 [256, 256]
0	0xbd326844	-0.043556467
1	0x3aaf8194	0.0013390058
2	0xbe33094d	-0.17484017
3	0x3ce294a2	0.027658764
4	0xbcf75a5d	-0.030194456
5	0xbc489ed9	-0.0122449035
6	0x3aae1e61	0.00132842
7	0x3b57735e	0.003287516
8	0x3e4a6ca0	0.19768
9	0x3def44d0	0.11683047
10	0xbd66fef6	-0.056395493
11	0xbd482baf	-0.048869785
12	0x3c9a8185	0.018860588
13	0x3da3aebb	0.079923116
14	0xbb2cb596	-0.002635335
15	0x3db0d664	0.08634642
16	0x3d73c362	0.059512503
17	0x3d7c6cf0	0.06162733
18	0x3d3bb6a4	0.045828477
19	0xb98712ea	-0.000257633
20	0xbdb31f19	-0.08746166
21	0x3c3d6c70	0.011561498
22	0x3e61e746	0.2206088
23	0xbcc9d6c8	-0.024638548
24	0x3c1fd889	0.009756216
25	0xbca8acb0	-0.020590156
26	0x3d03e516	0.032200895
27	0xbd25bad4	-0.040461376
28	0xbc7df928	-0.015501298
29	0x3d3c5ca6	0.045986794
30	0x3d77d272	0.06050343
31	0x3d616a81	0.05503321
32	0xbc6d4ba8	-0.01448337
33	0x3d099d1c	0.033597097
34	0xbd004847	-0.03131893
35	0x3d44fb24	0.04809107
36	0x3d3297b4	0.043601707
37	0x3e00c536	0.1257523
38	0xbcee18e1	-0.029064598
39	0x3cee22de	0.02906936
40	0x3d80a384	0.06281188
41	0xbcf6c8ef	-0.03012511
42	0x3bc4b7f4	0.0060033742
43	0xbd4572dc	-0.04820524
44	0x3c9489e4	0.018132158
45	0xbd8b8749	-0.06812913
46	0x3d4be873	0.049782228
47	0x3cc43e0a	0.023955364
48	0x3d3e6929	0.046487007
49	0x3b1a923f	0.0023585705
50	0x3d252209	0.04031566
51	0xbc4e585e	-0.012594311
52	0x3d7d3916	0.06182202
53	0xbbd39f87	-0.006458226
54	0xbcf52400	-0.029924393
55	0xbd27f4b2	-0.041004844
56	0xbca44464	-0.020052142
57	0xbe0bbf8f	-0.13647293
58	0x3d3f7248	0.046739846
59	0x3d1fc1f0	0.039003313
60	0xbe311688	-0.17293751
61	0xbbabb704	-0.005240323
62	0x3d343222	0.043993123
63	0x3ccc6c90	0.02495411
64	0xbd7dddc0	-0.061979055
65	0xbe55064a	-0.2080318
66	0xbbd6c081	-0.00655371
67	0x3c91901c	0.017768912
68	0xbe59528c	-0.21222895
69	0x3d3e1fcb	0.04641704
70	0xbe102178	-0.14075267
71	0x3d80a7fb	0.0628204
72	0x3d3fe87d	0.046852577
73	0xbcf61602	-0.030039791
74	0xbdadd96b	-0.08488735
75	0xbde52eb0	-0.111905456
76	0xbb8497e0	-0.004046425
77	0xbccbfca5	-0.024900744
78	0x3ca4d537	0.0201212
79	0xbd780e7a	-0.06056068
80	0x3c0559d6	0.008139094
81	0xbd45df34	-0.048308566
82	0x3d1d0ef6	0.038344346
83	0x3cb9d437	0.0226842
84	0xbb4654d6	-0.0030262969
85	0xbd9a5fc1	-0.07537795
86	0x3cde33d5	0.027124325
87	0xbbe7e925	-0.0070773535
88	0xbcbc3be4	-0.022977777
89	0xbc1e0789	-0.009645351
90	0x3c678d64	0.014132831
91	0xbcdbe7d8	-0.02684395
92	0x3d337e49	0.043821607
93	0xbd773dc7	-0.06036165
94	0xbd3e5325	-0.04646601
95	0xbd7d0012	-0.061767645
96	0x3c97a055	0.01850907
97	0xbe057566	-0.13033065
98	0x3ca7ba7e	0.020474669
99	0xbe039dbb	-0.12853138
100	0x3cf160ec	0.029465161
101	0x3d4976a3	0.049185406
102	0xbc4422f9	-0.011971229
103	0x3d295ee5	0.041350264
104	0xbd4eea53	-0.050516438
105	0x3d36dd4a	0.04464463
106	0xbc463b39	-0.012099081
107	0xba431238	-0.00074413745
108	0xbcfeda97	-0.031110091
109	0x3b8706a0	0.004120663
110	0x3caf2a68	0.021382526
111	0x3c86ba48	0.016446248
112	0x3d70b068	0.058761984
113	0xbe958888	-0.29205728
114	0x3cecfd48	0.028929368
115	0xbe249902	-0.16073993
116	0xbe261bcc	-0.16221541
117	0xbd4de100	-0.050263405
118	0x3b4f06a7	0.0031589658
119	0x3d1e9074	0.03871198
120	0xbb059f5b	-0.0020389173
121	0xbdd57009	-0.1042176
122	0xbc7c1974	-0.015386928
123	0xbd64c31b	-0.05585013
124	0xbd5433ef	-0.05180734
125	0xbdc54dcd	-0.0963398
126	0xbd8e2e3d	-0.06942413
127	0xbdb97900	-0.09056282
128	0xbd7fb4fa	-0.062428452
129	0xbd805a7e	-0.0626726
130	0xbd517fa0	-0.051147103
131	0xbc82a770	-0.015948981
132	0x3d68de62	0.056852706
133	0x3caeb984	0.021328695
134	0x3dc089b2	0.09401263
135	0xbbecadc5	-0.0072228634
136	0x3d948d6b	0.07253536
137	0xbc9aff3b	-0.018920531
138	0xbbcf823c	-0.006332664
139	0xbdae6cce	-0.085168466
140	0x3cf66570	0.030077666
141	0xbd21129d	-0.03932439
142	0xbd97c61b	-0.074108325
143	0x3c0dafd5	0.008647879
144	0xbd505ed4	-0.050871685
145	0xbb297e95	-0.0025862802
146	0x3d3dc417	0.046329584
147	0xbd431346	-0.047625802
148	0x3c90f9d8	0.01769726
149	0xbc7b6567	-0.015344
150	0x3bebd42b	0.0071969233
151	0x3ce2c7bc	0.027683131
152	0xbdb7085a	-0.0893714
153	0xbd297ce7	-0.04137888
154	0xbdb031ef	-0.08603274
155	0x3cfa4aee	0.030553307
156	0xbb009680	-0.0019620955
157	0xbe06cabf	-0.13163279
158	0xbd8a5b9a	-0.06755753
159	0xbcc8dc9f	-0.024519263
160	0xbdf2e7e4	-0.11860636
161	0xbd7cd9a0	-0.06173098
162	0xbda9f88a	-0.08299358
163	0xbcff66b3	-0.0311769
164	0xbd1cc853	-0.03827698
165	0xbd817b7b	-0.0632238
166	0xbe41d2c6	-0.1892806
167	0xbcbb5648	-0.02286829
168	0x3cbcdc21	0.023054184
169	0x3d442e9b	0.04789601
170	0xbd1116fa	-0.035422303
171	0xbe1c6041	-0.15271093
172	0x3d3e3b2e	0.046443157
173	0x39e875ff	0.00044338402
174	0x3d1edf47	0.038787153
175	0xbd4d318f	-0.05009609
176	0xbe7d6f2d	-0.24749441
177	0xbc2b30b9	-0.010448628
178	0xbbc55a17	-0.0060227024
179	0xbd7cd334	-0.061724856
180	0x3cd71f84	0.026260145
181	0xbc4c1545	-0.012456243
182	0xbe285f43	-0.1644259
183	0x3c4fe211	0.012688176
184	0x3c2f25e0	0.010690182
185	0x3c9c14ec	0.019052945
186	0xbd406a5c	-0.046976432
187	0xbd0bc820	-0.0341264
188	0xbcd16119	-0.025558995
189	0x3d78bcd7	0.060726967
190	0xbe866b80	-0.2625389
191	0x3beeb174	0.0072843377
192	0xbe210df6	-0.15727982
193	0xbca37a85	-0.019955883
194	0x3d7d5646	0.061849855
195	0xbc4a190a	-0.012335071
196	0xbbacdbf0	-0.005275242
197	0xbe2367f5	-0.15957625
198	0x3d277f61	0.040892962
199	0x3c0f35a0	0.008740813
200	0xbbeaca9d	-0.0071652667
201	0xbcf1fc48	-0.029539242
202	0x3c8dee10	0.017325431
203	0x3cd0af0a	0.02547409
204	0x3d536f1b	0.05161963
205	0xbcf52cda	-0.029928613
206	0xbdbce013	-0.09222426
207	0x3d4237c6	0.04741647
208	0xbd98c026	-0.074585244
209	0xbdc05bce	-0.0939251
210	0x3d23fb1b	0.040034395
211	0x3d504202	0.0508442
212	0x3b4ecc4d	0.0031554878
213	0x3cfae9b4	0.030629016
214	0xbd7e2e38	-0.062055796
215	0xbcd6d63c	-0.026225202
216	0x3d8c2a81	0.068440445
217	0xbddecbd7	-0.10878723
218	0xbd37a60f	-0.0448361
219	0x3d08ded2	0.033415623
220	0xbd8718b6	-0.0659651
221	0x3c672dad	0.014110011
222	0x3c7bb7ef	0.015363677
223	0xbcc36b44	-0.02385486
224	0x3c555878	0.013021581
225	0xbd32d69c	-0.0436617
226	0xbd0a2f56	-0.03373655
227	0xbc989e38	-0.018630132
228	0x3bf3f306	0.007444742
229	0xbd058aab	-0.032602947
230	0x3d9925d4	0.07477918
231	0xbcada61a	-0.021197367
232	0x3c4d79bb	0.01254123
233	0xbd5702fe	-0.052493088
234	0x3ca76c2b	0.02043732
235	0xbc7949fe	-0.015215395
236	0x3b5be963	0.0033555857
237	0x3dc13ad8	0.09435052
238	0x3c62751b	0.013821865
239	0xbd408d1a	-0.047009565
240	0x3accac43	0.0015615303
241	0x3c2d6723	0.010583672
242	0xbd693c07	-0.056942012
243	0x3c728a1a	0.014803434
244	0xbd3b2003	-0.045684826
245	0xbd4969fd	-0.049173344
246	0xbb6c8b13	-0.0036093637
247	0xbd690f99	-0.05689964
248	0x3d323c27	0.043514397
249	0x3ccbe3d8	0.024888918
250	0xbc29e620	-0.0103698075
251	0xbd402611	-0.046911303
252	0x3caf64c4	0.021410353
253	0x3cd5a623	0.026080197
254	0xbc5f905c	-0.013645258
255	0x3c34a485	0.011025553

net.2.bias f4 [256]
0	0xbc97898c	-0.018498205
1	0xbd0d6767	-0.03452244
2	0xbd7220e8	-0.059113413
3	0xbd460931	-0.04834861
4	0x3c7d45cd	0.015458536
5	0xbc926231	-0.017869087
6	0xbc3a5cb5	-0.011374642
7	0xbc9f7497	-0.019464774
8	0xbd6af39a	-0.057361223
9	0x3caf9cee	0.021437135
10	0x3b491c5c	0.003068707
11	0xbca15f36	-0.01969872
12	0xbca6b858	-0.020351574
13	0xbcbee13e	-0.023300763
14	0xbd8b0deb	-0.06789764
15	0x3c8133c0	0.015771747
16	0xbd0b3d51	-0.033994023
17	0x3c57bd8d	0.013167751
18	0xbcb314d7	-0.021860523
19	0x3c96eedd	0.018424446
20	0xbcc8a316	-0.024491828
21	0xbcf9d63e	-0.030497666
22	0xbc3c06c2	-0.011476221
23	0xbd27e609	-0.040990863
24	0xbd8f6971	-0.07002533
25	0x3cda26f0	0.026629895
26	0xbd75bdac	-0.05999534
27	0xbc847099	-0.016166972
28	0xbb883f65	-0.004157948
29	0x3cea7611	0.028620752
30	0xbe010b98	-0.12602079
31	0xbd86a991	-0.06575311
32	0xbd5208ae	-0.05127781
33	0x3d2a2376	0.041537724
34	0xbd3a1313	-0.045428347
35	0xbdf3be7e	-0.11901568
36	0xbdb5f08a	-0.0888377
37	0x3b25c20d	0.0025292665
38	0xbd4b008d	-0.049561072
39	0xbba233c5	-0.004950019
40	0xbd71a1a6	-0.05899205
41	0xbd08c727	-0.03339305
42	0x3c622292	0.0138021875
43	0x3b3772a8	0.0027991924
44	0xbb12fc5d	-0.0022428252
45	0x3ca30422	0.019899432
46	0xbd70cd57	-0.058789577
47	0xbccd845a	-0.025087524
48	0xbca117e2	-0.019664709
49	0x3c44895c	0.01199564
50	0xbcc7a7eb	-0.024372062
51	0xbd2786a8	-0.040899903
52	0xbd867d2b	-0.06566843
53	0x3c8835bf	0.01662719
54	0xbd175e5f	-0.036955234
55	0xbcc3b344	-0.023889191
56	0xbc81368d	-0.015773082
57	0xbd7fe77b	-0.062476616
58	0xbc8893c9	-0.016672032
59	0xbd80e85f	-0.06294321
60	0x3de13103	0.10995676
61	0xbc645dd7	-0.013938389
62	0xbd4acce0	-0.04951179
63	0xbd90e1a4	-0.070742875
64	0xbd938905	-0.07203869
65	0xbc50d8d7	-0.012747011
66	0xbd955c71	-0.072930224
67	0xbd40c890	-0.04706627
68	0x3c2c925e	0.0105329435
69	0xba0aeb37	-0.0005299332
70	0xbd833001	-0.064056404
71	0x3d8284e7	0.06373005
72	0xbd9a0a36	-0.07521479
73	0xbd0591da	-0.032609798
74	0xbd036a85	-0.032084007
75	0x3c61f15a	0.013790453
76	0xbd866904	-0.06562999
77	0x3c259d72	0.010108339
78	0xbcce3516	-0.025171798
79	0xbc2b00bd	-0.010437188
80	0xbd82f272	-0.06393899
81	0x3d1251c6	0.035722516
82	0xbd109dea	-0.03530685
83	0x3e34ba70	0.17649245
84	0xbd413bf8	-0.04717633
85	0xbc5d7305	-0.013516192
86	0x3df84d73	0.12124147
87	0x3c2eb7f6	0.010663977
88	0xbccf8c2c	-0.025335394
89	0xbd5f2d20	-0.054486394
90	0xbd2e1540	-0.042500734
91	0xbc3f5b2c	-0.011679452
92	0xbcce20d5	-0.02516214
93	0xbc236734	-0.009973336
94	0x3c325396	0.010884186
95	0xbbf5ec10	-0.0075049475
96	0xbd8000c8	-0.06250149
97	0xb9c7f40b	-0.00038138064
98	0xbbe2ae99	-0.0069177863
99	0xbc8ae50e	-0.016954925
100	0xbd2e4c7f	-0.04255342
101	0x3d007559	0.03136191
102	0xbd835485	-0.06412605
103	0xbced5ac3	-0.028973943
104	0xbd9d0d6e	-0.07668577
105	0xbd3d3e00	-0.046201706
106	0xbd54952f	-0.051900085
107	0xbdf4bb0e	-0.1194974
108	0x3c25ca52	0.010119038
109	0xbd7c39e6	-0.061578654
110	0x3ce0f3ef	0.027460067
111	0xbd96f109	-0.073701926
112	0xbc9abd0f	-0.018888978
113	0xbcfad2f0	-0.030618161
114	0xbd24a2a6	-0.040194176
115	0xbd944921	-0.07240511
116	0xbb8e1b73	-0.0043367683
117	0x3a29af09	0.00064729206
118	0xbb644612	-0.0034831804
119	0xbd91a563	-0.07111623
120	0xbcbcdd72	-0.023054812
121	0xbd190c38	-0.03736517
122	0xbd8b9bbe	-0.06816815
123	0xbce7bf65	-0.028289506
124	0x3c6f616b	0.014610629
125	0xbdb17b80	-0.08666134
126	0xbd97d367	-0.07413369
127	0xbd0560cb	-0.032563012
128	0xbcf36a55	-0.029713789
129	0xbd9a8ba9	-0.07546169
130	0xbcc3df88	-0.023910299
131	0x3c87d3ad	0.016580427
132	0xbcf31fdc	-0.029678278
133	0x3a053c23	0.00050825084
134	0x38d7b55c	0.0001028578
135	0xbd0429b6	-0.03226634
136	0x3c93cd57	0.01804225
137	0xbd5be1d1	-0.053682152
138	0xbd9ab4f7	-0.075540476
139	0x3998b2b9	0.00029124858
140	0xbdbf74a8	-0.09348422
141	0xbdab7cca	-0.08373411
142	0xbb9ed4d9	-0.0048471508
143	0xbd77f9aa	-0.060540833
144	0xbc167450	-0.0091830045
145	0x3d010ffa	0.031509377
146	0x3c9a0a72	0.018803809
147	0xbd3f06ae	-0.04663723
148	0x3bba7fe4	0.0056915153
149	0xbd34e5b2	-0.044164367
150	0x3b931d2d	0.004489562
151	0xbcc8cd73	-0.024512028
152	0xbd1d86b3	-0.038458537
153	0xbd56c0ce	-0.052429967
154	0xbd68f86a	-0.05687753
155	0xbc8f2743	-0.017474776
156	0xbc1b31b4	-0.009472299
157	0xb8b17a53	-8.462802e-05
158	0x3e5917c5	0.21200474
159	0x3c267d82	0.010161759
160	0x3d256fc0	0.040389776
161	0xbd86e6fe	-0.06587027
162	0x3bb4e027	0.005519885
163	0x3c6b2548	0.01435215
164	0x3d880772	0.06642045
165	0x3a8244a4	0.0009938669
166	0xbd401bce	-0.046901517
167	0xbd648878	-0.05579421
168	0xbcd7da8a	-0.026349325
169	0xbd81aa4b	-0.06331309
170	0xbd83df2b	-0.0643905
171	0xbb82e902	-0.003995062
172	0xbd0af646	-0.03392627
173	0x3c1e3242	0.009655537
174	0xbc636ec0	-0.013881385
175	0xbe083e2c	-0.13304967
176	0xbd1ae219	-0.03781328
177	0x3c4224d6	0.011849603
178	0xbd9b9d05	-0.075983085
179	0xbd7ce479	-0.061741326
180	0xbcbc37dd	-0.022975856
181	0x3da06d08	0.07833296
182	0xbc9952bb	-0.018716207
183	0xbe0c75c6	-0.13716802
184	0xbd090b5d	-0.033458102
185	0xbd9ad837	-0.07560771
186	0xbc88b60c	-0.01668837
187	0x3db0657f	0.08613109
188	0xbc2bf006	-0.010494238
189	0xbc9be301	-0.019029142
190	0x3d62f124	0.05540575
191	0xbdf497b2	-0.11942996
192	0xbc01dd10	-0.007926241
193	0xbd8e8ddd	-0.06960652
194	0xbce9c9a5	-0.028538534
195	0xbca55ae1	-0.020184936
196	0x39a7272a	0.00031881902
197	0xbc9ef32b	-0.01940306
198	0xbd68f902	-0.056878097
199	0xbd95b451	-0.07309783
200	0xbd89effb	-0.06735226
201	0xbd789b8c	-0.060695216
202	0xbd297538	-0.041371554
203	0xbc119853	-0.008886415
204	0xbca3783b	-0.019954791
205	0xbc26faf8	-0.010191672
206	0x3ce559b8	0.027996883
207	0xbd8d0a8a	-0.06886776
208	0xbafc8187	-0.0019264676
209	0xbcb56df2	-0.022147153
210	0xbd9c9b6a	-0.076468304
211	0xbc13e6c9	-0.009027191
212	0x3d8f8ce8	0.070092976
213	0xbcc52cfb	-0.0240693
214	0xbd855d26	-0.06511907
215	0xbce0da62	-0.027447883
216	0x3b85b128	0.0040799566
217	0x3d27044e	0.04077559
218	0x3989467c	0.0002618319
219	0xbd65cf4c	-0.056105897
220	0xbdbef615	-0.0932428
221	0xbd693b6d	-0.05694144
222	0x3c57e49f	0.013177066
223	0xbd53b652	-0.051687546
224	0xbbc1ff9f	-0.005920365
225	0xbdfe6514	-0.12421623
226	0xbbed2748	-0.0072373487
227	0xb9cabffc	-0.00038671482
228	0xbd8c6e6d	-0.068569995
229	0xbd26f68a	-0.04076246
230	0xbd1c7ad8	-0.03820309
231	0xbd963a62	-0.073353544
232	0xbc33791b	-0.010954167
233	0xbce45ed3	-0.027877247
234	0xbc9c5214	-0.019082107
235	0xbcd7b713	-0.026332414
236	0x3d36432a	0.044497646
237	0xbca0d7b5	-0.019634107
238	0x3cba4e38	0.022742376
239	0xbd36d6ff	-0.04463863
240	0xbda1d539	-0.07901997
241	0x3c1387bd	0.0090045305
242	0xbb69bf87	-0.0035667138
243	0x3ca7cc65	0.020483205
244	0xbb06a2c3	-0.002054379
245	0xbd4acc3e	-0.049511187
246	0xbd13319c	-0.035935983
247	0xbd6e905d	-0.058243144
248	0xbd155de8	-0.03646651
249	0x3c5c0f4b	0.0134313805
250	0xbd870afe	-0.065938935
251	0xbd0a1edd	-0.03372084
252	0xbc1c4c9c	-0.0095397495
253	0xbc0c833e	-0.008576212
254	0xbc454712	-0.01204087
255	0xbcaef91f	-0.021359025

net.4.weight f4 [256, 256]
0	0xbd13d66f	-0.03609317
1	0xbcb80db7	-0.022467477
2	0xbccb8990	-0.024845868
3	0xbd901d73	-0.07036867
4	0xbdd04f4e	-0.10171376
5	0xbd9bc68d	-0.0760623
6	0x3ca135b2	0.019678924
7	0xbc42429e	-0.011856703
8	0x3df816fe	0.121137604
9	0x3cee86f6	0.029117089
10	0xbd47aef9	-0.04875085
11	0xbd5689dc	-0.052377567
12	0x3c5465f0	0.012963757
13	0xbccf9730	-0.025340647
14	0xbc403d90	-0.011733428
15	0xbc5328f4	-0.012888182
16	0x3d03c573	0.032170724
17	0xbdc0f835	-0.09422342
18	0xbd0094a1	-0.031391744
19	0xbcf70371	-0.030153008
20	0x3ce57075	0.028007725
21	0x3c00dbbe	0.007864891
22	0x3d8c612d	0.06854472
23	0x3e28f5cd	0.16500016
24	0xbd34e5d4	-0.044164494
25	0x3e95b731	0.29241326
26	0xbd8c1400	-0.06839752
27	0xbc470993	-0.012148279
28	0x3d50322f	0.05082911
29	0xbd602df2	-0.054731317
30	0xbf412173	-0.75441664
31	0x3d3cfe7f	0.046141144
32	0xb9c00a00	-0.00036628544
33	0xbd593734	-0.05303116
34	0xbd247fc8	-0.040160924
35	0xbeb6040f	-0.3554997
36	0xbec5919f	-0.38587663
37	0x3c5fdb31	0.013663099
38	0x3e241188	0.16022313
39	0xbcd2f858	-0.025753185
40	0x3d07f868	0.033195883
41	0xbc108905	-0.0088217305
42	0x3c15bffc	0.009140011
43	0x3d6be2f9	0.057589505
44	0xbc1e5595	-0.009663959
45	0xbba9b6ce	-0.0051792627
46	0xbc8b31ff	-0.016991613
47	0xbd2f47ed	-0.042793203
48	0x3d425e60	0.047453284
49	0x3cade310	0.021226436
50	0x3e750cff	0.23930739
51	0x3d5bf6f6	0.053702317
52	0x3ea631ac	0.32459772
53	0x3deebeb3	0.11657467
54	0xbcb2ee35	-0.021842102
55	0x3e8d5ed2	0.27611405
56	0xbd3fa924	-0.046792164
57	0xbdc8f96e	-0.098132
58	0x3e8cc8f6	0.2749707
59	0x3c675f70	0.014121875
60	0x3d0d3c24	0.034481183
61	0x3dff1fb3	0.12457218
62	0x3cb79d45	0.02241386
63	0x3e061d7a	0.13097182
64	0xbbc03f24	-0.005866902
65	0x3d9639ab	0.07335218
66	0xbd74f1e6	-0.059801005
67	0x3d189ba6	0.037257813
68	0xbe02425f	-0.12720631
69	0xba27fb18	-0.00064079603
70	0x3e204d5d	0.15654512
71	0xbea3adc0	-0.31968498
72	0xbe1d75e0	-0.15376997
73	0x3cb3d73f	0.021953223
74	0x3e601809	0.21884169
75	0xbd542823	-0.05179609
76	0x3ce9b67a	0.028529394
77	0xbcce1713	-0.025157487
78	0xbc9e411c	-0.019318156
79	0x3e3b9831	0.18319775
80	0xbc59fcc2	-0.013304891
81	0xbc05dd85	-0.00817049
82	0xbd220745	-0.039557714
83	0x3d069d12	0.032864638
84	0x3da42da7	0.0801652
85	0x3d06f849	0.032951627
86	0x3d07d0af	0.033158
87	0x3cce37fa	0.025173176
88	0x3e2c9e6f	0.16857313
89	0xbd1b1134	-0.037858203
90	0x3e3e3eec	0.1857869
91	0x3d6ed8b7	0.058312144
92	0x3cd9707f	0.0265429
93	0x3d67e2a8	0.05661264
94	0xbd30fc65	-0.043209452
95	0xbc4a9eb8	-0.012366943
96	0x3e387a32	0.18015364
97	0xbd280652	-0.041021653
98	0x3d52a18e	0.0514236
99	0x3d058428	0.032596737
100	0x3de5b418	0.11215991
101	0xbcc093d7	-0.023507996
102	0x3d88a95e	0.06672929
103	0xbdbdeed4	-0.092740685
104	0x3d80cf08	0.06289488
105	0x3db020b3	0.08599987
106	0xbe649798	-0.22323453
107	0x3d650067	0.055908587
108	0x3d09e976	0.03366991
109	0xbc100868	-0.008791067
110	0xbec93d2f	-0.39304492
111	0xbddb268b	-0.10700711
112	0xbd36224e	-0.04446631
113	0x3dd3f3e4	0.10349253
114	0xbd31c200	-0.043397903
115	0xbe81640c	-0.25271642
116	0x3dec7364	0.115454465
117	0xbd933d53	-0.07189431
118	0xbd8a42f6	-0.06751053
119	0x3daabf29	0.08337242
120	0xbe0085c8	-0.12551033
121	0xbca788c4	-0.020450957
122	0x3d8702b9	0.06592316
123	0xbd51c62e	-0.05121439
124	0xbddb2406	-0.1070023
125	0x3e9d5684	0.3073007
126	0x3db26c2c	0.087120384
127	0x3ca51fbc	0.020156734
128	0x3d8b3489	0.0679713
129	0xbdc251ba	-0.09488244
130	0xbea70747	-0.3262274
131	0x3da318fa	0.07963748
132	0x3e3e3af4	0.18577176
133	0xbd80694c	-0.06270084
134	0xbcfe3ee9	-0.031035857
135	0xbbb4c1b9	-0.0055162576
136	0x3e04ad1a	0.12956658
137	0xbd9dbfe0	-0.07702613
138	0xbc964cf0	-0.018347234
139	0x3e057be2	0.13035539
140	0x3d70d55e	0.058797233
141	0xbc833243	-0.016015178
142	0x3cb4d2a1	0.022073092
143	0x3ced1f80	0.028945684
144	0x3e4d6f89	0.20062079
145	0xbc175975	-0.009237637
146	0xbd81fcd9	-0.06347055
147	0x3d648942	0.05579496
148	0xbdf3fbda	-0.11913271
149	0xbd835b65	-0.064139165
150	0xbd4bc147	-0.04974487
151	0x3b897d08	0.004195813
152	0x3bb18d24	0.0054184366
153	0x3dd653a1	0.1046517
154	0x3e10f554	0.14156085
155	0x3d254502	0.040349014
156	0xbceaef76	-0.028678637
157	0x3d5072ef	0.05089086
158	0xbb380e92	-0.0028084856
159	0xbd632005	-0.055450458
160	0x3e0ba550	0.1363728
161	0x3e3019cc	0.1719734
162	0xbdcfb296	-0.101414844
163	0x3cb26b96	0.021779817
164	0x3ecfa4e1	0.4055548
165	0xbda9bbf7	-0.082878046
166	0xbcfef912	-0.031124625
167	0xbc6c824b	-0.014435361
168	0xbe63a80c	-0.22232074
169	0xbdb5205b	-0.08844062
170	0xbd492ee4	-0.049116984
171	0xbd66d7af	-0.056358036
172	0x3e532364	0.20618969
173	0x3e362710	0.17788339
174	0x3c242b11	0.010020033
175	0xbd73cce4	-0.05952157
176	0xbd59e4e4	-0.053196803
177	0x3d72502f	0.0591585
178	0xbd93e57d	-0.07221506
179	0xbbb0a2c2	-0.005390496
180	0x3cd6a902	0.026203636
181	0xbe0cc413	-0.13746671
182	0x3e1bc1dd	0.15210672
183	0x3e46b046	0.1940318
184	0xbce41a3b	-0.027844539
185	0x3e812e52	0.25230652
186	0x3d26d76e	0.040732794
187	0x3ec0cbd4	0.3765551
188	0xbd07f569	-0.033193026
189	0xbe1d2619	-0.15346564
190	0x3d7580fc	0.059937462
191	0xbe084b18	-0.13309896
192	0xbd54056c	-0.051762983
193	0x3e03f030	0.12884593
194	0x3e49f52d	0.19722433
195	0x3c406c60	0.011744589
196	0x3ddf921b	0.10916539
197	0xbd6851d4	-0.056718662
198	0x3d4bf104	0.049790397
199	0x3dd7d774	0.10539141
200	0xbcd7b811	-0.026332887
201	0xbd934e87	-0.07192712
202	0x3d456302	0.048190124
203	0xbb652460	-0.0034964308
204	0x3e5f4577	0.21803842
205	0x3dcb10b2	0.09915294
206	0x3d11ae38	0.03556654
207	0x3cd5cc15	0.02609829
208	0xbc10e85d	-0.008844462
209	0x3d3e94ad	0.046528507
210	0x3da6fb69	0.081534214
211	0x3b2c24d1	0.0026267061
212	0xbed02143	-0.40650377
213	0x3dadfe95	0.08495823
214	0xbcdeea5e	-0.027211364
215	0xbd4a77b4	-0.049430564
216	0xbd4833fb	-0.048877697
217	0x3e0acd0d	0.13554783
218	0xbdbe1238	-0.09280819
219	0x3e1455b8	0.14485824
220	0xbe0b29c5	-0.13590153
221	0x3d864e8a	0.06557949
222	0xbb18ccd2	-0.0023315442
223	0x3a98e196	0.001166391
224	0x3e88dc24	0.26730454
225	0x3e8cd2e4	0.27504647
226	0xbc14dd40	-0.009085953
227	0x3c4bae73	0.012431729
228	0x3ebbef6b	0.367061
229	0x3ad45f40	0.0016202703
230	0x3e40831b	0.18800013
231	0xbda357f6	-0.079757616
232	0xbda1e5ee	-0.07905184
233	0x3deda1ac	0.11603102
234	0xbefaaa01	-0.48957828
235	0xbdb30576	-0.08741276
236	0x3cebd458	0.028787777
237	0xbe1b27f7	-0.15151964
238	0x3bb5b031	0.0055446853
239	0xbcc001c5	-0.023438344
240	0xbdfcfa2a	-0.123524025
241	0x3cee1dc8	0.029066935
242	0x3c9fa388	0.019487157
243	0xbbee3ff4	-0.0072708074
244	0xbd893445	-0.06699423
245	0x3d0c943b	0.03432105
246	0x3d09f5d0	0.03368169
247	0x3c4450d8	0.011982165
248	0xbccacc50	-0.024755627
249	0x3b84f8f2	0.004057997
250	0x3c63c24f	0.013901307
251	0xbc976ff0	-0.018485993
252	0x3da97c10	0.08275616
253	0x3cafa759	0.021442102
254	0x3d176ab4	0.036966994
255	0x3e8591aa	0.26087695

net.4.bias f4 [256]
0	0x3c444ff2	0.011981951
1	0x3c317869	0.010831931
2	0xbe10ea14	-0.14151794
3	0xbd2736f9	-0.04082391
4	0x3e428a2a	0.18998018
5	0xbdb05932	-0.08610763
6	0xbd93a8fd	-0.07209966
7	0xbdc32863	-0.095291875
8	0x3c833ae1	0.016019287
9	0x3d4c3aa9	0.04986063
10	0xbdcc05df	-0.09962057
11	0xbd9b6055	-0.07586733
12	0x3cc99661	0.024607839
13	0xbcbaa422	-0.022783343
14	0x3e3b341f	0.18281601
15	0x3e4d618d	0.20056744
16	0xbd4813a1	-0.048846845
17	0x3dbd8459	0.09253759
18	0x3c670da8	0.014102377
19	0xbdc165b6	-0.09443228
20	0xbc1fb596	-0.009747883
21	0xbd63740e	-0.0555306
22	0xbd5c4419	-0.05377588
23	0xbd79f975	-0.061028916
24	0xbd85fb9b	-0.065421306
25	0xbd91bc38	-0.07115978
26	0x3bb3cb14	0.0054868553
27	0xbc21fae3	-0.009886476
28	0xbc20bd00	-0.009810686
29	0xbdc58fa1	-0.09646536
30	0xbdc98515	-0.098398365
31	0xbc52bc35	-0.012862255
32	0x3d3b3f9a	0.045714952
33	0xbd1b90ce	-0.037979893
34	0xbd8b25b2	-0.06794299
35	0xbdcb163f	-0.099163525
36	0xbdb3072a	-0.08741601
37	0xbd1ebcb1	-0.03875417
38	0xbd7f2d65	-0.06229915
39	0x3ca5d512	0.020243201
40	0xba43faed	-0.00074760505
41	0xbd812b39	-0.06307072
42	0xbd638097	-0.055542555
43	0xbd1a86c0	-0.037726164
44	0x3db0927c	0.0862169
45	0xbd27047e	-0.04077577
46	0xbddc184d	-0.107468225
47	0xbbfe466b	-0.0077598593
48	0xbcf9251a	-0.0304132
49	0x3daa1c8c	0.08306226
50	0xbd1593d9	-0.03651795
51	0x3b545ff7	0.0032405832
52	0x3ccc01b1	0.02490315
53	0xbdc50637	-0.09620326
54	0xbdc31e96	-0.09527318
55	0xbd9882db	-0.07446834
56	0xbd910c8a	-0.0708247
57	0xbd70bcc5	-0.058773775
58	0xbd8e4c9c	-0.06948206
59	0xbcca4cec	-0.024694882
60	0xbd7f70c7	-0.062363412
61	0xbd984ee8	-0.07436925
62	0x3e9a4ba5	0.30135837
63	0xbcc85525	-0.024454663
64	0x3ab84d43	0.0014061112
65	0xbd54119a	-0.0517746
66	0xbe05e86e	-0.13076946
67	0xbd488e69	-0.048963938
68	0xbd985913	-0.074388646
69	0xbce6147f	-0.028085945
70	0xbe14ab5e	-0.14518496
71	0xbd9ca919	-0.0764944
72	0x3e2d3ebd	0.16918464
73	0xbded1e81	-0.11578084
74	0xbd23a917	-0.03995618
75	0xbccdb5e8	-0.025111154
76	0xbd93ac8c	-0.07210645
77	0xbbae31d6	-0.0053159995
78	0x3de6331e	0.112402186
79	0xbd2437fe	-0.04009246
80	0xbd2a50cd	-0.041580964
81	0xbce1ee68	-0.027579501
82	0x3e5e0e77	0.21685205
83	0xbdbab149	-0.09115846
84	0xbc2d6763	-0.010583731
85	0xbe1d285c	-0.15347427
86	0x3e475acc	0.1946823
87	0x3b01e9f9	0.0019823296
88	0x3cab5d80	0.020918608
89	0xbdc7277b	-0.09724327
90	0xbdfce9fd	-0.12349317
91	0xbda86258	-0.082218826
92	0xbd989c60	-0.07451701
93	0xbd48dffa	-0.049041726
94	0x3e3ae134	0.1824997
95	0xbd856b24	-0.06514576
96	0xbda10152	-0.0786158
97	0xbdc6a104	-0.0969868
98	0xbdabfbc3	-0.08397629
99	0xbcec6303	-0.028855806
100	0xba88c6d8	-0.0010435237
101	0xbe124801	-0.1428528
102	0x3d8579f0	0.06517398
103	0xbaa7da3d	-0.0012806129
104	0xbd85874a	-0.06519945
105	0xbdb6463d	-0.08900116
106	0x3d97e888	0.07417399
107	0xbe3780f6	-0.17920288
108	0x3de2b1c1	0.1106906
109	0x3b9be346	0.0047573177
110	0x3bc6fad6	0.0060723824
111	0x3e0ce321	0.13758518
112	0x3dd2aef2	0.102872744
113	0x3cffbdae	0.031218376
114	0xbc0fcdf7	-0.008777133
115	0xbd576a13	-0.052591395
116	0xbda83db6	-0.082148954
117	0x3d828385	0.063727416
118	0xbd80266d	-0.06257329
119	0x3e3f43b8	0.18678176
120	0xbdfeeec1	-0.124478824
121	0xbd6ab1e6	-0.057298563
122	0xbd022209	-0.03177074
123	0xbd9d9d2d	-0.076959945
124	0xbd6848c2	-0.056710012
125	0xbdf16bf3	-0.11788168
126	0xbc636f9e	-0.013881592
127	0x3d76d97d	0.060266007
128	0xbd2c687c	-0.04209183
129	0xbd8e9a01	-0.06962968
130	0x3d680323	0.056643616
131	0xbb782ab4	-0.003786725
132	0xbde1ca7b	-0.11024948
133	0xbccc9372	-0.024972651
134	0x3e518742	0.20461753
135	0xbdeba9bc	-0.11506984
136	0xbc8ab089	-0.016929882
137	0x3da9452d	0.08265147
138	0xbdcf9de5	-0.10137538
139	0xbd29d7fd	-0.041465748
140	0x3d929c92	0.0715877
141	0xbde9b40f	-0.114112966
142	0x3ccb5cb2	0.024824474
143	0xbe308cd0	-0.17241216
144	0x3c8429a9	0.016133146
145	0xbc6ea74a	-0.014566252
146	0x3cbb2fd5	0.022849957
147	0xbd92b3c5	-0.071631946
148	0xbc674a14	-0.014116783
149	0xbd99ff8f	-0.07519447
150	0xbd43cf72	-0.047805257
151	0xbd70ff03	-0.058836948
152	0xbd32f6e6	-0.043692492
153	0xbcd0968e	-0.025462415
154	0x3cb0e3d8	0.02159302
155	0xbdc95efd	-0.09832571
156	0xbd65ce6b	-0.05610506
157	0x3e3ebf08	0.1862756
158	0xbb9a7e23	-0.0047147437
159	0xbdab3cab	-0.08361181
160	0xbd7cbd54	-0.061703995
161	0x3d1b3c92	0.03789956
162	0xbc1358cf	-0.008993342
163	0x3e4ade9f	0.19811486
164	0xbd417d28	-0.0472385
165	0xbbf2c942	-0.0074092457
166	0x3e373d90	0.17894578
167	0xbbfcc429	-0.007713814
168	0xbd199af3	-0.037501287
169	0xbd93f4c0	-0.07224417
170	0xbe18042f	-0.14845346
171	0x3d743052	0.059616394
172	0xbe050012	-0.12988308
173	0xbc9a5df8	-0.018843636
174	0xbd8559ae	-0.06511246
175	0x3ab9e30f	0.0014182049
176	0xbda53d88	-0.08068377
177	0x3d577dd4	0.052610233
178	0xbdec7478	-0.11545652
179	0x3e5ed3fd	0.21760555
180	0x3c2b9293	0.010471958
181	0xbdb9c00c	-0.09069833
182	0xbab883dd	-0.0014077384
183	0x3ca56cb1	0.02019343
184	0xbc8e23d3	-0.017351067
185	0xbdee4f08	-0.11636168
186	0xbd02fff8	-0.031982392
187	0xbda76b80	-0.08174801
188	0xbd11b639	-0.03557417
189	0x3d90eeba	0.070767835
190	0xbd93d62b	-0.07218584
191	0x3bba250f	0.0056806873
192	0xbce58c31	-0.02802095
193	0xbd98ab37	-0.07454532
194	0xbe058a11	-0.1304095
195	0xbc4c29d4	-0.0124611445
196	0x3b1eb975	0.0024219428
197	0x3df699ed	0.12041078
198	0x3c47c2a5	0.012192403
199	0xbd652f11	-0.05595309
200	0x3c7cf843	0.01544005
201	0xbce0806f	-0.027404992
202	0xbdab8a5b	-0.083759986
203	0x3d158a64	0.036508933
204	0xbd8b235d	-0.067938544
205	0xbd1894d7	-0.03725132
206	0xbd76f6e5	-0.06029405
207	0xbd940df4	-0.07229224
208	0x3e8abc02	0.27096564
209	0xbd732470	-0.05936092
210	0xbcf01e04	-0.029311188
211	0xbdbb2368	-0.091376126
212	0x3e669a60	0.22519827
213	0xbd45c43b	-0.048282843
214	0xbd31d803	-0.043418895
215	0xbd58a7c1	-0.052894358
216	0xbd5db993	-0.054132055
217	0xbd6e6479	-0.058201287
218	0x3bdc211c	0.006717814
219	0xbd8b78ed	-0.06810174
220	0xbd4f81ee	-0.05066102
221	0xbdcd996a	-0.10039027
222	0xbdaf0fb0	-0.08547914
223	0xbd7762f6	-0.06039711
224	0xbd5f0bbc	-0.05445455
225	0xbce24cd0	-0.027624518
226	0xbdd09a3a	-0.101856664
227	0x3d6d235b	0.057895046
228	0x3d53b249	0.051683698
229	0xbd0bbb07	-0.03411391
230	0x3d2936e2	0.041312106
231	0xbd2a4151	-0.041566197
232	0xbd7cacd5	-0.061688263
233	0xbe1d702c	-0.15374821
234	0xbd2bde1a	-0.04195986
235	0xbd9f906e	-0.0779122
236	0xbd57745c	-0.052601203
237	0xbd14f961	-0.03637064
238	0x3e439df1	0.19103219
239	0x3e57538a	0.21027961
240	0xbcf10982	-0.029423479
241	0xbd6473cf	-0.055774506
242	0xbda6dafc	-0.08147237
243	0xbdcffec4	-0.101560146
244	0xbd6e9df5	-0.05825611
245	0xbdcb86a1	-0.09937788
246	0xbd2cd0cd	-0.042191315
247	0xbc3693e8	-0.011143662
248	0xbc2322e7	-0.009957052
249	0x3dc88f57	0.09792965
250	0x3e28eb6b	0.16496055
251	0x3cf3191c	0.029675059
252	0x3d0f2c8d	0.034954596
253	0x3c324bba	0.010882312
254	0xbce54de8	-0.02799125
255	0xbd908c60	-0.070580244

net.6.weight f4 [7, 256]
0	0x3ee36a89	0.44417217
1	0x3d0994c2	0.033589132
2	0x3e07e2b6	0.13270077
3	0x3de46863	0.11152723
4	0x3e0efff4	0.13964826
5	0x3de31eff	0.110898964
6	0xbcf7c56f	-0.03024551
7	0xbdeac44a	-0.114632204
8	0x3de3fe0e	0.111324415
9	0xbd20240a	-0.03909687
10	0xbd1f43fd	-0.038883198
11	0xbe05a509	-0.13051237
12	0xbe63a59f	-0.22231148
13	0xbe58d59a	-0.21175233
14	0x3e464dcf	0.19365619
15	0x3e30f843	0.17282204
16	0x3e67be89	0.22631277
17	0x3dbf5d6e	0.09343992
18	0x3dac8741	0.08424235
19	0xbce8a031	-0.028396698
20	0xbcee8c2a	-0.02911957
21	0xbe108ebe	-0.14116952
22	0x3c82b72c	0.015956484
23	0x3ee8ada3	0.45444974
24	0xbea05b5e	-0.31319708
25	0x3efa31f2	0.4886623
26	0xbe7d8486	-0.24757585
27	0x3da1ff65	0.07910041
28	0x3f747640	0.95492935
29	0xbe890f3a	-0.2676943
30	0xbbd96513	-0.0066343634
31	0x3e4ba6fd	0.1988792
32	0xbdacabce	-0.08431207
33	0xbda7ff9f	-0.08203053
34	0x3ed33ed3	0.4125887
35	0xbe962dd4	-0.2933184
36	0xbe9fec42	-0.31234938
37	0x3ce996c6	0.028514277
38	0x3e59351f	0.2121167
39	0x3ea43d50	0.32078028
40	0xbdea0eba	-0.1142859
41	0xbd025bc3	-0.031825792
42	0x3c0369dd	0.008020845
43	0x3cc67c3d	0.024229163
44	0x3debd16c	0.115145534
45	0xbe03053d	-0.12794967
46	0x3ec931c9	0.39295796
47	0xbd175c2b	-0.036953133
48	0xbd0cde7c	-0.034391865
49	0x3de2a0fa	0.1106586
50	0x3df772ae	0.1208242
51	0x3d0af4cd	0.033924866
52	0xbd91d1fa	-0.07120128
53	0xbd0eaa40	-0.03483033
54	0x3de49a8b	0.11162289
55	0xbeb17f40	-0.34667397
56	0x3e04fa35	0.12986071
57	0x3f599b73	0.8500282
58	0x3f1c3190	0.61013126
59	0xbe996445	-0.29959312
60	0xbc3f5c7f	-0.011679768
61	0xbf015986	-0.50527227
62	0x3e4e7072	0.20160082
63	0x3d2ed269	0.04268113
64	0x3d994d37	0.07485431
65	0x3e514da0	0.20439768
66	0x3cad1bff	0.021131514
67	0xbee2b645	-0.44279686
68	0xbbfadd48	-0.0076557733
69	0x3bee1175	0.0072652646
70	0xbc749e58	-0.01493033
71	0xbda8f306	-0.08249478
72	0x3ddb7055	0.10714785
73	0x3e13f6f1	0.1444967
74	0xbd2adc35	-0.041713912
75	0x3ed2d728	0.41179776
76	0xbdad9beb	-0.084770046
77	0x3e1920eb	0.14953963
78	0x3d816e3d	0.063198544
79	0x3e2eb512	0.1706126
80	0x3c0baea7	0.008525527
81	0xbddf6fad	-0.10909972
82	0x3e2ed23f	0.1707239
83	0xbd94dcfc	-0.07268712
84	0x3d35990b	0.044335406
85	0x3ea3e2b0	0.32008886
86	0x3e34cc10	0.17655969
87	0x3d56d61d	0.052450288
88	0x3e341990	0.17587876
89	0xbda9b057	-0.08285587
90	0x3e501e42	0.20324042
91	0xbd2930f0	-0.041306436
92	0x3db0adcb	0.086268984
93	0x3bff6966	0.007794547
94	0x3e1bea29	0.15226044
95	0x3bd02bf0	0.006352894
96	0x3ea8c7bb	0.32964882
97	0x3dface81	0.12246419
98	0xbd15daf9	-0.03658578
99	0xbe2b8225	-0.16748865
100	0xbe5bfe4d	-0.21483727
101	0xbe50c454	-0.20387393
102	0xbde85aab	-0.113454185
103	0xbe16af56	-0.14715323
104	0x3dea6296	0.11444585
105	0x3b4408af	0.0029912402
106	0x3d871f37	0.06597751
107	0xbc331214	-0.010929603
108	0x3ddfd4ae	0.10929237
109	0xbe0ba401	-0.13636781
110	0x3e8d9774	0.27654612
111	0x3e1aa18f	0.15100692
112	0x3e775a9d	0.2415566
113	0x3dd96669	0.10615236
114	0xbc187c15	-0.009306927
115	0xbd906b71	-0.07051743
116	0x3c3901c8	0.011291929
117	0x3e1bbd17	0.15208851
118	0xbc6a5e7e	-0.014304755
119	0x3e39e510	0.18153787
120	0xbd6ba81f	-0.05753338
121	0x3e0f9373	0.14021091
122	0xbd85b853	-0.06529298
123	0xbe500db9	-0.20317735
124	0xbd4dfeb2	-0.050291725
125	0xbeb3ed37	-0.35141918
126	0xbe0c3ef3	-0.13695888
127	0xbd4cc149	-0.04998902
128	0xbd8b5308	-0.06802946
129	0xbdb7baac	-0.08971152
130	0xbd388121	-0.045045022
131	0xbd900603	-0.07032397
132	0x3ebd49e1	0.36970428
133	0x3e70db2a	0.23521104
134	0x3e170712	0.14748791
135	0xbd87089a	-0.065934375
136	0x3e7dc944	0.24783808
137	0x3deeca8b	0.11659726
138	0xbd5d4952	-0.054025
139	0xbdd12356	-0.10211818
140	0x3df06109	0.11737258
141	0xbcb0588c	-0.021526597
142	0xbe07b994	-0.13254386
143	0x3d4f3494	0.05058725
144	0x3dee7d35	0.11644975
145	0x3da66eba	0.08126588
146	0xbe561385	-0.20905884
147	0xbd6ca2c6	-0.05777242
148	0xbddf4b72	-0.10903062
149	0x3da918ec	0.082567066
150	0xbd487c02	-0.048946388
151	0xbd2f7162	-0.04283274
152	0x3f1f4b35	0.6222413
153	0xbeef4afb	-0.46736893
154	0x3e225e60	0.15856314
155	0xbd8552f9	-0.065099664
156	0x3d47d659	0.048788402
157	0x3de58b6b	0.112082325
158	0x3e4a52e1	0.19758178
159	0xbda4b055	-0.08041445
160	0x3e5cc7b1	0.21560551
161	0xbe66af4a	-0.22527805
162	0xbc6e0ca0	-0.014529377
163	0x3e1652a9	0.1467997
164	0x3d1b9f82	0.037993915
165	0xbde30775	-0.11085407
166	0x3e480e9d	0.19536825
167	0xbecda340	-0.40163612
168	0x3e2d54c6	0.1692687
169	0xbcbae628	-0.022814825
170	0x3d742641	0.059606794
171	0x3e37ad8b	0.17937295
172	0xbe86566a	-0.26237804
173	0x3da43fae	0.080199584
174	0xbe37dcef	-0.17955373
175	0xbebf9d78	-0.37424827
176	0x3d605cb0	0.054775894
177	0x3db56d26	0.08858709
178	0x3d4e03a7	0.050296452
179	0x3e1ac292	0.15113285
180	0xbe01298a	-0.12613502
181	0x3dac4fdb	0.08413669
182	0x3d89f07b	0.06735321
183	0xbe588f7e	-0.21148488
184	0x3ddf5dc5	0.10906557
185	0xbf243f38	-0.64158964
186	0xbb0ef6b8	-0.0021814536
187	0x3d683c69	0.056698237
188	0xbb0a5e8f	-0.002111349
189	0x3e6741c5	0.22583683
190	0xbcf920e5	-0.030411193
191	0x3bc768ab	0.0060854754
192	0xbb9ff0e8	-0.004881013
193	0xbd62c5ab	-0.055364292
194	0x3db2bd38	0.08727497
195	0x3e8eaa7c	0.27864444
196	0xbe0a7ce4	-0.13524204
197	0x3d9d3993	0.07676997
198	0x3e850eec	0.25987947
199	0xbded1e33	-0.11578026
200	0x3e8d67b2	0.27618176
201	0x3def22bf	0.11676549
202	0xba6b9e31	-0.0008988111
203	0x3d98714e	0.07443486
204	0xbcaac1aa	-0.0208443
205	0xbd4337f5	-0.047660787
206	0x3e94112c	0.2891935
207	0x3d4ba457	0.049717274
208	0x3e4b070a	0.19826904
209	0x39e727aa	0.00044089305
210	0xbdaf005a	-0.08544989
211	0x3e49635a	0.19666806
212	0x3e5067b8	0.20352066
213	0xbc76bb79	-0.015059345
214	0xbc95ec79	-0.018301236
215	0x3e8e45bc	0.27787578
216	0xbde32216	-0.11090486
217	0x3d226d65	0.039655108
218	0xbb279c62	-0.002557539
219	0x3d0d62a8	0.034517914
220	0xbd309499	-0.043110464
221	0x3ee34944	0.44391835
222	0xbca97d76	-0.020689707
223	0xbe9099aa	-0.28242236
224	0x3d515e35	0.051115233
225	0xbe09e9d4	-0.13468105
226	0xbe09c192	-0.13452747
227	0xbe0765c7	-0.13222419
228	0x3e65c7ca	0.22439495
229	0xbcf055e6	-0.029337835
230	0x3ef333c3	0.4750043
231	0xbd502c0e	-0.050823264
232	0xbd3e4a08	-0.04645732
233	0xbdc3dc26	-0.09563474
234	0x3ebf751e	0.3739404
235	0x3f057e85	0.5214618
236	0x3c2c4628	0.010514773
237	0xbe4d6bc6	-0.20060644
238	0x3e3d081c	0.18460125
239	0x3e37f324	0.17963845
240	0x3d5a1578	0.05324313
241	0xbd54392a	-0.05181233
242	0xbd1f3521	-0.038869027
243	0x3cee769c	0.029109292
244	0xbb04fd39	-0.0020292534
245	0xbf0cda7b	-0.55020875
246	0x3d18b4b7	0.037281718
247	0x3d5f0a9a	0.05445347
248	0xbdf34f82	-0.11880399
249	0x3d9b32e4	0.07578066
250	0x3e48cbb7	0.19608961
251	0x3e38c7a3	0.18044905
252	0xbea7111d	-0.32630244
253	0x3e6025b8	0.21889389
254	0xbdd3a34a	-0.10333879
255	0xbe860ac6	-0.26180094

net.6.bias f4 [7]
0	0x3e39d3eb	0.18147247
1	0x3e56ba37	0.20969473
2	0xbe1f9d8f	-0.15587448
3	0xbe0efe26	-0.13964137
4	0x3e08635f	0.13319157
5	0x3e6c41ab	0.23071925
6	0xbe70fded	-0.23534365
