preTrained/GAIL_pretrained_8200_discriminator.pth (torch, 542340 bytes, 7 tensors)

net.0.weight f4 [256, 10]
0	0xbece2fc7	-0.40270826
1	0xbd90e20b	-0.07074364
2	0x3ca85cc6	0.02055205
3	0x3e76a086	0.24084672
4	0xbe3efd51	-0.1865132
5	0x3e83d9f7	0.2575223
6	0x3b0c84ec	0.0021441532
7	0xbe85a49f	-0.26102158
8	0x3e25deeb	0.16198318
9	0x3e0af8c7	0.13571464
10	0xbe15085e	-0.14553973
11	0x3e59999d	0.21250005
12	0xbe5755bc	-0.21028799
13	0x3eb93bd8	0.3617847
14	0xbe236b19	-0.15958823
15	0xbe66e094	-0.22546607
16	0xbc51ea6d	-0.012812239
17	0x3ab994d3	0.0014158733
18	0xbebeb528	-0.37247586
19	0x3dd2f51d	0.10300658
20	0xbdd279f1	-0.10277165
21	0xbee8186b	-0.4533113
22	0xbee2e930	-0.44318533
23	0xbeb5b4c0	-0.35489464
24	0xbe7cbcb3	-0.24681358
25	0xbddd07f7	-0.10792535
26	0xbe1b7b06	-0.15183648
27	0xbcf16e2a	-0.029471476
28	0x3dedfc12	0.11620344
29	0x3e5e7a27	0.21726285
30	0x3e1f1bde	0.15537974
31	0x3e5bf84d	0.21481438
32	0x3e96154f	0.29313132
33	0xbe783036	-0.24237141
34	0xbd48f1ec	-0.04905884
35	0x3e952187	0.29127142
36	0xbe6d1670	-0.2315309
37	0xbe04a761	-0.12954475
38	0xbe52face	-0.20603487
39	0x3e0d4ded	0.13799258
40	0xbe4b92da	-0.19880238
41	0xbe94cad7	-0.29061005
42	0x3e097cc2	0.13426498
43	0x3dd1d497	0.102456264
44	0xbe52b08f	-0.20575164
45	0x3db220db	0.08697673
46	0xbda066bc	-0.07832095
47	0xbeae3f57	-0.340327
48	0x3abd1ccc	0.0014428138
49	0x3e961e8b	0.29320177
50	0xbe82e90c	-0.25568426
51	0x3b8b70d8	0.0042553954
52	0xbea30b56	-0.31844586
53	0xbe979ca5	-0.29611698
54	0x3e557de0	0.20848799
55	0xbe06476d	-0.13113184
56	0x3e9912e2	0.2989722
57	0xbcbe9c6f	-0.023267953
58	0xbdac11b1	-0.08401812
59	0x3d51a235	0.051180083
60	0xbf0eb07d	-0.5573805
61	0xbed0db7e	-0.4079246
62	0x3cac5c8d	0.021040225
63	0x3bd3cbae	0.0064634895
64	0x3dd937a0	0.10606313
65	0xbe3cfb3d	-0.18455215
66	0x3eb3e518	0.35135722
67	0x3e74fa3f	0.23923586
68	0xbd13db7c	-0.03609799
69	0xbcf4a9f9	-0.029866206
70	0xbec2d4a3	-0.38052854
71	0xbf37693f	-0.7164497
72	0x3eb2bb64	0.34908593
73	0x3d9668e7	0.07344227
74	0x3e63c13a	0.22241679
75	0x3e3d5200	0.18488312
76	0x3e228c93	0.15873937
77	0x3e75a708	0.23989499
78	0xbe235546	-0.15950498
79	0x3da40dbb	0.080104314
80	0x3e0d9403	0.13825993
81	0xbe9d2b2a	-0.30696994
82	0x3d3c1d44	0.045926347
83	0xbdca03dc	-0.09864017
84	0x3dd1567e	0.10221575
85	0xbd8bfb96	-0.068350956
86	0xbc90a526	-0.017656874
87	0xbda3ea8c	-0.08003721
88	0xbd09a893	-0.03360803
89	0xbe74491b	-0.23856013
90	0xbd520a07	-0.051279094
91	0xbe7a6b53	-0.24455003
92	0x3e1962ee	0.14979145
93	0xbe2dfe38	-0.16991508
94	0x3e65f86e	0.2245805
95	0x3ed5e23c	0.41774166
96	0x3e36ee65	0.17864378
97	0x3e4a797a	0.19772902
98	0x3e8920ea	0.26782924
99	0xbdce3241	-0.10068179
100	0x3e3cfa1c	0.18454784
101	0x3f526843	0.8219034
102	0x3e763f11	0.24047495
103	0x3abf8268	0.0014611008
104	0x3e809a17	0.2511756
105	0x3ec2f711	0.38079122
106	0x3dd18287	0.10229974
107	0xbd95d811	-0.07316602
108	0xbde2ad15	-0.11068169
109	0xbe58da82	-0.21177104
110	0x3e253008	0.16131604
111	0xbf0d1263	-0.5510618
112	0xbe495135	-0.19659884
113	0xbe8e5279	-0.27797297
114	0x3d4f7aa4	0.05065407
115	0xbecadbd4	-0.3962084
116	0x3c1836ba	0.009290392
117	0x3dfc881c	0.12330648
118	0x3dad9fc4	0.084777385
119	0x3d88e6e0	0.06684661
120	0x3e70ced8	0.23516405
121	0xbe214793	-0.1574996
122	0xbe59902c	-0.21246403
123	0xbe76b828	-0.24093688
124	0xbe8f3874	-0.27972758
125	0xbe8385aa	-0.25687915
126	0xbdf77429	-0.12082703
127	0xbea7cb98	-0.32772517
128	0xbdbc9933	-0.09208908
129	0x3ea1e1c4	0.31617558
130	0xbda3f8e3	-0.08006456
131	0x3eb395d9	0.35075262
132	0xbe57c698	-0.21071851
133	0x3e607a00	0.2192154
134	0xbe375126	-0.1790205
135	0xbd598625	-0.053106446
136	0x3e47e0df	0.19519375
137	0x3d9a012c	0.07519755
138	0x3e20eaac	0.1571452
139	0x3e12ae11	0.14324214
140	0x3e244242	0.160409
141	0x3cca6c7e	0.024709936
142	0x3e667eb3	0.2250927
143	0xbe9e4361	-0.3091078
144	0xbe16b9e6	-0.14719352
145	0xbe32217a	-0.17395583
146	0xbd8f8e3a	-0.070095494
147	0x3e36ed8b	0.17864053
148	0x3e15287a	0.14566222
149	0x3e96d60f	0.2946019
150	0xbd071798	-0.032981485
151	0xbed3abb6	-0.41341943
152	0x3e92daef	0.28682658
153	0x3daf38ee	0.0855578
154	0x3dbde031	0.09271277
155	0x3ee1ab34	0.4407593
156	0xbe218e3d	-0.15776916
157	0x3d5f09f6	0.05445286
158	0xbd44507e	-0.047928326
159	0x3dc6421d	0.09680579
160	0x3ea51a17	0.32246467
161	0xbebe5f05	-0.3718187
162	0x3d21a5e1	0.039464835
163	0x3eb47502	0.3524552
164	0xbe0b8de2	-0.13628343
165	0x3d07ca59	0.03315196
166	0xbe930300	-0.28713226
167	0xbe37c444	-0.17945963
168	0xbebc104a	-0.36731178
169	0x3e589990	0.2115233
170	0x3cc2bb2f	0.023770897
171	0x3eca06a4	0.3945819
172	0xbea9a422	-0.33133036
173	0x3dca5caf	0.09880959
174	0x3e6736aa	0.22579446
175	0xbb093261	-0.002093457
176	0x3e0a11e3	0.13483386
177	0xbe5d706e	-0.2162492
178	0xbe755745	-0.23959072
179	0xbe6b3066	-0.22967681
180	0x3e4bbb4b	0.19895665
181	0xbaa1fde2	-0.0012358988
182	0xba948934	-0.0011332394
183	0xbd5e9cf9	-0.05434892
184	0x3cc6c5f5	0.024264315
185	0x3df11f36	0.11773531
186	0x3e3cfdf4	0.1845625
187	0x3e2534f5	0.16133483
188	0x3e00bafb	0.12571327
189	0x3e494753	0.19656114
190	0xbe54e442	-0.20790198
191	0xbf33f863	-0.70300883
192	0x3e8c90fd	0.27454367
193	0xbe1e0478	-0.15431392
194	0xbe1d562f	-0.15364908
195	0xbd19a919	-0.03751478
196	0xbd5969b5	-0.053079326
197	0x3e9ba639	0.30400255
198	0x3dfadcde	0.12249158
199	0x3e42ddd5	0.19029935
200	0xbde9c0d9	-0.11413736
201	0x3d536e6a	0.05161897
202	0xbe6f889c	-0.23391956
203	0x3e090e45	0.1338435
204	0xbeb98a15	-0.3623816
205	0xbe3569d9	-0.17716159
206	0xbe2e0ac9	-0.16996302
207	0x3dd08a41	0.1018262
208	0xbd41ee38	-0.047346324
209	0x3ddbced3	0.10732808
210	0xbe8e8ee9	-0.27843407
211	0xbef34d36	-0.47519845
212	0x3db59abf	0.08867406
213	0xbe529291	-0.20563723
214	0xbea0f525	-0.3143703
215	0xbd773106	-0.060349487
216	0xbe8f6ec8	-0.28014207
217	0xbdffc62a	-0.12488969
218	0x3e46c59a	0.19411317
219	0xbe8d6cce	-0.27622074
220	0x3e0babab	0.13639705
221	0x3e8db374	0.27675974
222	0x3d940c8e	0.07228957
223	0xbe768960	-0.24075842
224	0xbe0e836f	-0.13917325
225	0x3e88f599	0.26749876
226	0xbdef82c5	-0.11694864
227	0xbcf4bdbf	-0.029875634
228	0x3e19c476	0.1501635
229	0x3e6823a5	0.22669847
230	0x3e5e8669	0.21730961
231	0xbf07a706	-0.5298923
232	0xbea587f2	-0.3233028
233	0x3e33bbee	0.17552158
234	0xbd663965	-0.05620708
235	0xbe20249c	-0.15638965
236	0x3d19ee55	0.037580807
237	0xbe30565d	-0.17220445
238	0x3d633d55	0.055478413
239	0x3e649347	0.22321807
240	0xbe2430ce	-0.16034243
241	0xbe5bce08	-0.21465313
242	0xbe8aeed1	-0.27135327
243	0xbe4dfb30	-0.20115352
244	0x3e06fb5d	0.13181825
245	0x3e37c148	0.17944825
246	0x3d429be4	0.04751195
247	0x3e2d9f9d	0.16955419
248	0x3d82bfbb	0.06384226
249	0xbe030c61	-0.12797691
250	0x3e84542d	0.2584547
251	0x3ea178a7	0.31537363
252	0xbce132d2	-0.027490053
253	0xbe2c7fc1	-0.16845609
254	0x3d6e336f	0.05815452
255	0xbd4eed7f	-0.050519463

net.0.bias f4 [256]
0	0x3e600a52	0.21878937
1	0xbe3c9a51	-0.18418242
2	0x3c907388	0.017633215
3	0x3e29743b	0.16548245
4	0xbdf99c57	-0.121880226
5	0xbe9f6f8a	-0.31139785
6	0x3e43dcc3	0.19127183
7	0x3ee8e521	0.4548731
8	0xbecbe12e	-0.39820236
9	0x3e7fd20a	0.24982467
10	0x3e94c98e	0.29060024
11	0xbedf8fea	-0.43664485
12	0xbda17c5f	-0.0788505
13	0xbd01a967	-0.031655695
14	0xbe817962	-0.2528792
15	0x3ecdf3c8	0.40225053
16	0xbe442285	-0.19153793
17	0xbed9e8c9	-0.42560413
18	0x3e8f2abf	0.279623
19	0xbe956d1a	-0.291848
20	0xbe4eb6b3	-0.20186882
21	0xbe76ae83	-0.24090008
22	0x3e2ee691	0.17080142
23	0x3d4be27a	0.04977653
24	0xbe13117d	-0.1436214
25	0xbea0a19c	-0.31373298
26	0xbe50641b	-0.20350687
27	0x3e70295d	0.23453279
28	0x3e8f22b8	0.27956176
29	0x3e121572	0.14265993
30	0xbe841303	-0.25795755
31	0x3e95e889	0.29278973
32	0xbe967f56	-0.29394025
33	0x3e697d84	0.22801787
34	0x3e4cd14e	0.20001718
35	0x3de468cf	0.11152803
36	0xbdc2d432	-0.09513129
37	0x3e1bbbd6	0.15208372
38	0xbc5986b4	-0.013276745
39	0x3e534722	0.20632604
40	0xbdbdb736	-0.0926346
41	0x3e8a0dfc	0.26963794
42	0xbda7b7b2	-0.08189334
43	0xbef4d4cb	-0.47818598
44	0xbe8304e5	-0.25589672
45	0x3e83433c	0.25637233
46	0xbef5b445	-0.47989097
47	0x3e5fbf08	0.21850216
48	0xbd6555b0	-0.05598992
49	0xbd97d3e4	-0.07413462
50	0x3e11819b	0.14209597
51	0xbe35ba58	-0.17746866
52	0x3e205951	0.15659072
53	0x3e37478b	0.17898385
54	0xbefde75a	-0.4959057
55	0x3e8c7d09	0.27439144
56	0x3d0c0480	0.03418398
57	0xbd6b4658	-0.057440132
58	0x3c872d45	0.016501078
59	0xbe9d6f58	-0.3074901
60	0x3e13dd82	0.14439967
61	0x3ea0be1d	0.31395045
62	0xbe5e6b90	-0.2172072
63	0x3da91ce2	0.08257462
64	0x3e0d421b	0.13794748
65	0x3ed0d4bc	0.40787303
66	0x3e431ab3	0.19053154
67	0x3d522d3e	0.051312678
68	0xbe8066f0	-0.25078535
69	0xbec36be9	-0.38168266
70	0xbf06d93b	-0.5267522
71	0xbe980df1	-0.29698136
72	0x3d3a0e4f	0.045423802
73	0x3e45dc95	0.19322427
74	0xba859438	-0.0010191267
75	0x3e4969d7	0.19669281
76	0x3e1275a6	0.14302692
77	0x3f09ecfa	0.5387722
78	0x3ed1d2b5	0.4098107
79	0xbdc14178	-0.09436315
80	0xbb73fa77	-0.0037228146
81	0x3eaa1bc6	0.33224314
82	0xbe4a72f0	-0.19770408
83	0x3e532a7b	0.20621674
84	0xbe93f94d	-0.2890114
85	0xbe845130	-0.2584319
86	0x3e4c651e	0.19960448
87	0x3e7399c2	0.23789123
88	0x3cfefc7e	0.031126257
89	0xbe2a548a	-0.16633812
90	0x3e03fbe9	0.12889065
91	0xbed60fbb	-0.41808876
92	0xbdafae62	-0.08578183
93	0xbeb7cf19	-0.3590019
94	0xbe026800	-0.12734985
95	0x3ef47410	0.477448
96	0x3eef2212	0.4670568
97	0xbe6e75f1	-0.23287179
98	0x3e67045d	0.22560258
99	0x3e94561b	0.28971943
100	0xbeb41d61	-0.35178664
101	0xbe6c6de0	-0.23088789
102	0x3dc02888	0.09382731
103	0x3ec3f875	0.38275495
104	0x3e9982c9	0.29982594
105	0x3eadbef6	0.33934754
106	0xbe5831aa	-0.21112695
107	0x3bc31c6b	0.0059543154
108	0x3e413729	0.18868698
109	0x3d9f9598	0.077922046
110	0xb9dcbd79	-0.00042102838
111	0xbe864918	-0.2622764
112	0xbd9daac1	-0.07698584
113	0xbea33257	-0.31874344
114	0xbe9f20d5	-0.31079736
115	0xbe1cd81e	-0.15316817
116	0x3eac6bc2	0.33675963
117	0x3efe07ed	0.49615422
118	0x3a8e1d51	0.0010842477
119	0xbf0e082d	-0.55481225
120	0xbe7800fb	-0.24219124
121	0xbedf17f0	-0.4357295
122	0xbe11995b	-0.14218657
123	0x3cc491fe	0.023995396
124	0x3c2b2bae	0.010447426
125	0xbd49b842	-0.049247988
126	0x3c155597	0.0091146445
127	0x3e0a2830	0.13491893
128	0x3d97cae3	0.074117444
129	0xbdf4c3a2	-0.119513765
130	0xbd644d61	-0.055737857
131	0xbea432bb	-0.32069954
132	0xbc230598	-0.009950064
133	0x3dfdf86d	0.12400899
134	0xbe4f5100	-0.20245743
135	0xbdfe4b0c	-0.12416658
136	0x3db6433c	0.08899543
137	0x3cb88626	0.022524904
138	0xbdd0e66d	-0.102002
139	0x3e1d58ca	0.15365902
140	0xbe13c27c	-0.14429659
141	0xbec07da8	-0.37595868
142	0xbe0e27c3	-0.13882355
143	0xbe4cd0d6	-0.2000154
144	0xbed08cf6	-0.40732545
145	0x3ef15399	0.47134092
146	0x3ea1b3fb	0.31582627
147	0xbd921207	-0.07132345
148	0x3e503887	0.20334063
149	0x3e92cca2	0.28671747
150	0x3e22db0c	0.15903872
151	0x3eb74671	0.3579593
152	0x3d8d9425	0.06913022
153	0x3d968c45	0.07350973
154	0xbf0524c7	-0.5200924
155	0x3dfc5a11	0.12321866
156	0xbeb2478e	-0.34820217
157	0xbe09dd12	-0.13463238
158	0x3e428304	0.18995291
159	0x3bfad3e3	0.0076546534
160	0xbe038e50	-0.12847257
161	0xbd8f3a16	-0.06993501
162	0x3d3cfc69	0.046139155
163	0x3db40829	0.08790619
164	0xbe1ac7ae	-0.15115234
165	0x3ed3f58a	0.4139827
166	0xbe5276b4	-0.20553094
167	0x3d7633b7	0.060107913
168	0xbdfef6a9	-0.124493904
169	0xbe89c845	-0.26910606
170	0x3e9b4a3a	0.30330068
171	0xbe5c317a	-0.21503249
172	0xbebb00c0	-0.3652401
173	0x3e9b7875	0.3036534
174	0x3e8f80bc	0.28027904
175	0xbf1438f8	-0.5789943
176	0x3be2fb9d	0.0069269673
177	0xbddc2658	-0.10749501
178	0x3d6d8f9f	0.057998296
179	0x3d2321be	0.0398271
180	0xbe12a757	-0.14321648
181	0x3ed659ba	0.4186533
182	0xbe870d57	-0.26377365
183	0x3ea97c47	0.3310263
184	0x3e1c6be8	0.15275538
185	0x3e8024a6	0.2502796
186	0xbd578662	-0.05261839
187	0xbe862861	-0.26202682
188	0x3e87d683	0.26530847
189	0x3e3526ed	0.1769063
190	0xbe1b0e58	-0.1514219
191	0x3e311d7b	0.17296402
192	0xbe386b30	-0.18009639
193	0xbefbbda6	-0.49168128
194	0xbe378819	-0.17923011
195	0x3e058a5a	0.13041058
196	0x3e5bcd16	0.21464953
197	0xbe80399a	-0.25043947
198	0xbc9f8bf9	-0.019475924
199	0xbddc95c1	-0.10770751
200	0x3db84399	0.08997268
201	0x3e304896	0.1721519
202	0xbee1a53b	-0.44071373
203	0xbdeb1aa5	-0.114796914
204	0xbdacf31e	-0.084448084
205	0x3e2ce6a3	0.16884856
206	0x3ef3d23d	0.47621337
207	0xbe12d0b2	-0.14337423
208	0xbe568ccd	-0.20952149
209	0xbe3bb2f5	-0.18329985
210	0xbe206245	-0.15662487
211	0x3e881a31	0.26582482
212	0x3d850255	0.064945854
213	0x3e1bbb98	0.1520828
214	0x3e14b9cd	0.14524002
215	0xbec36b36	-0.38167733
216	0x3d11b797	0.035575476
217	0xbde37e42	-0.11108066
218	0x3e9134c6	0.28360575
219	0xbd985e18	-0.07439822
220	0xbe0b31d1	-0.13593222
221	0xbe308942	-0.1723986
222	0x3e920317	0.28517982
223	0x3e6aceb3	0.22930412
224	0x3db1eae2	0.086873785
225	0xbec713bc	-0.38882244
226	0x3cc1643c	0.023607366
227	0xbe616960	-0.22012854
228	0x3ee5c447	0.4487631
229	0xbe92f556	-0.287028
230	0x3dafc7d4	0.08583036
231	0xbe7e8ba5	-0.24857958
232	0x3eb8bead	0.36082974
233	0x3e94de0d	0.2907566
234	0x3dd434e3	0.1036165
235	0x3de8bdd8	0.11364335
236	0x3d112ccb	0.03544311
237	0x3da601ff	0.081058495
238	0x3e123e6a	0.14281622
239	0x3d40f854	0.047111824
240	0x3ea08a35	0.31355444
241	0xbde44505	-0.11145977
242	0xbe7dcfa0	-0.24786234
243	0xbdc471e7	-0.09592038
244	0xbe92c8c5	-0.286688
245	0x3e0cb4d5	0.13740857
246	0xbe0db395	-0.13838036
247	0xbe065ac0	-0.13120556
248	0x3e25df62	0.16198495
249	0xbe156ab1	-0.14591481
250	0xbe9effad	-0.3105444
251	0xbf21eafd	-0.6324919
252	0x3d4af123	0.049546372
253	0xbe4b3ea9	-0.19848122
254	0xbea2c0c4	-0.31787694
255	0xbe2757b8	-0.16342056

net.2.weight f4 [256, 256]
0	0xbd8c5666	-0.06852417
1	0x3d23532e	0.03987425
2	0xbd87cb8b	-0.066306196
3	0xbc3d579f	-0.011556535
4	0xbd69d892	-0.057091303
5	0x3d3c7eec	0.04601948
6	0xbde38805	-0.11109928
7	0x3d87b19d	0.06625674
8	0x3d0cfc3e	0.034420244
9	0xbdc158f6	-0.09440796
10	0xbd8546af	-0.065076225
11	0x3dadcbdd	0.084861495
12	0x3d79736e	0.060901098
13	0xbce8e4c3	-0.028429395
14	0x3b8958c6	0.004191491
15	0x3d1d1ca9	0.03835741
16	0xbd0b5d15	-0.034024317
17	0x3d676d76	0.056500874
18	0xbb1bf791	-0.0023798684
19	0x3d58886d	0.05286448
20	0xbd079e8e	-0.033110194
21	0xbe239dcd	-0.15978165
22	0xbd823902	-0.063585296
23	0x3d450a7f	0.048105713
24	0xbcc7d1c0	-0.024392009
25	0x3c1f3634	0.009717513
26	0x3d821594	0.06351772
27	0xbd19e8e5	-0.03757562
28	0xbc0ec257	-0.008713326
29	0xbe629665	-0.22127683
30	0x3c7cee50	0.0154376775
31	0xbc7da297	-0.015480659
32	0xbc58b538	-0.0132268
33	0xbcb1eff6	-0.021720868
34	0xbd9745ef	-0.07386386
35	0x3dbe0543	0.09278347
36	0x3d1230b4	0.03569098
37	0x3d97707f	0.07394504
38	0xbe29f876	-0.16598687
39	0xbb5b8a05	-0.0033499014
40	0x3c273dd0	0.010207608
41	0x3d1e7543	0.03868605
42	0x3d2c04e8	0.041996866
43	0x3c775431	0.015095756
44	0xbb74bdb0	-0.0037344508
45	0xbdf27a21	-0.118397005
46	0x3dd353a3	0.10318687
47	0x3acfee73	0.001586391
48	0xbd5cd103	-0.053910267
49	0x3d07c42c	0.03314607
50	0xbc613288	-0.013744958
51	0x3b81a7b0	0.0039567575
52	0xbd4511bd	-0.04811262
53	0x3df35226	0.11880903
54	0xbbeb0457	-0.007172148
55	0xbd69ad6a	-0.057050146
56	0x3d579b2a	0.05263821
57	0x38a63fd1	7.9273836e-05
58	0xbe263810	-0.16232324
59	0x3c3930bd	0.011303124
60	0x3d76ecdf	0.06028449
61	0xbdf05910	-0.11735737
62	0xbd452288	-0.048128635
63	0x3d10d695	0.03536089
64	0xbd7dbfdb	-0.061950546
65	0x3cfe5cce	0.031050112
66	0xbd229a6f	-0.03969806
67	0x3dd5e71c	0.10444471
68	0xbccf79d4	-0.025326647
69	0x3d182ef6	0.03715416
70	0x3db1e399	0.08685989
71	0xbe252a22	-0.16129354
72	0x3c90d33b	0.017678848
73	0x3d33ddfc	0.043912873
74	0xbc717d6f	-0.014739378
75	0x3d673ce6	0.05645456
76	0x3c1022c8	0.008797355
77	0xbcfbcd82	-0.030737642
78	0xbceb0f00	-0.028693676
79	0xbd7132ad	-0.05888622
80	0xbbdbed30	-0.0067116246
81	0xbd946dee	-0.0724753
82	0xbd746afe	-0.05967235
83	0xbda5a42a	-0.080879524
84	0x3d4bceec	0.049757883
85	0xbcbd5061	-0.023109617
86	0x3e60374e	0.21896097
87	0x3c85c6b6	0.016330104
88	0x3ca74747	0.02041973
89	0x3c7b5b0c	0.0153415315
90	0xbd76674a	-0.060157098
91	0x3d998581	0.07496167
92	0xbd88a0ff	-0.066713326
93	0x3d3d24b3	0.046177577
94	0xbd2c50ca	-0.042069234
95	0xbd259ea7	-0.040434506
96	0x3d2c7bab	0.042110126
97	0xbd789b26	-0.060694836
98	0xbc18e4f2	-0.009331929
99	0x3d6b7041	0.0574801
100	0x3cf71aa8	0.030164078
101	0x3b96abd0	0.0045981184
102	0xbaa7b028	-0.0012793588
103	0xbdffc2e6	-0.12488346
104	0xbdfcda1d	-0.12346289
105	0x3df60875	0.12013332
106	0x3d0f1123	0.034928452
107	0x3d29ef89	0.041488204
108	0x3c17fc55	0.009276469
109	0x3d88b920	0.06675935
110	0xbcde37dc	-0.027126245
111	0x3cfd5d99	0.03092842
112	0xbb05f536	-0.0020440347
113	0x3cec467d	0.028842205
114	0xbb862b98	-0.0040945522
115	0xbe0c72fc	-0.13715738
116	0x3cb52d8d	0.022116447
117	0xbca45107	-0.020058168
118	0xbc13c0cf	-0.009018137
119	0x3e174c73	0.14775257
120	0x3d029d60	0.031888366
121	0xbdb21726	-0.086958215
122	0x3dafb156	0.08578746
123	0xbcb88ed8	-0.02252905
124	0xba02e300	-0.0004992932
125	0x3dd02a75	0.10164348
126	0xbd56daca	-0.052454747
127	0xbd8b6c48	-0.068077624
128	0xbc08f351	-0.008358792
129	0x3d51a305	0.05118086
130	0xbcad34cf	-0.021143345
131	0xbd9ae193	-0.07562556
132	0xbd9b1615	-0.07572571
133	0xbd800868	-0.06251603
134	0x3de5d632	0.11222495
135	0xbae7c680	-0.0017683059
136	0x3d7f110f	0.062272128
137	0xbd67c1c3	-0.05658127
138	0x3d976a84	0.07393363
139	0xbbbfff76	-0.0058593107
140	0xbbd33a52	-0.0064461613
141	0x3d56ffbc	0.05248998
142	0xbd343dd2	-0.04400427
143	0xbd6943a6	-0.05694928
144	0x3d05b441	0.032642607
145	0xbd2af3d4	-0.04173644
146	0xbc2dbb8d	-0.010603798
147	0xbe02653b	-0.12733929
148	0xbe2d3170	-0.1691339
149	0xbd8a26d7	-0.06745689
150	0xbd31a08b	-0.043365996
151	0x3d336aee	0.043803148
152	0xbd62ddf8	-0.055387467
153	0xbcc673f4	-0.024225213
154	0x3e15dccb	0.14635007
155	0xbd12f983	-0.035882484
156	0x3c6851a2	0.014179619
157	0x3d354b38	0.044261187
158	0x3d568b49	0.052378926
159	0xbdcf2a48	-0.101154864
160	0xbce4556a	-0.02787276
161	0x3d5b3795	0.053519804
162	0xbd26c83f	-0.040718313
163	0x3de2fb28	0.110830605
164	0x3d106222	0.035249837
165	0xbd24ee8c	-0.04026656
166	0xbc7917b8	-0.015203409
167	0x3dcde591	0.10053552
168	0x3d694408	0.056949645
169	0xbd59e2e8	-0.05319491
170	0xbe0c6054	-0.13708621
171	0xbddcbf45	-0.10778669
172	0x3d1634d9	0.036671493
173	0x3d965565	0.073405065
174	0xbdab5a81	-0.083668716
175	0x3b8f165f	0.0043666805
176	0xbd1d06b0	-0.038336456
177	0x3d64893a	0.055794932
178	0xbe66abdc	-0.22526497
179	0x3d717cb3	0.058956813
180	0xbca31fd0	-0.01991263
181	0xbd8fffd6	-0.07031219
182	0x3cfd863e	0.0309478
183	0xbd97dd90	-0.074153066
184	0xbe39f611	-0.18160273
185	0xbb941145	-0.0045186603
186	0xbd5c3080	-0.05375719
187	0x3d0e5204	0.034746185
188	0x3ce75ecf	0.02824345
189	0xbdff306d	-0.12460408
190	0x3ca641f3	0.020295119
191	0x3d4785bf	0.048711535
192	0x3d3e39ae	0.046441726
193	0xbc96eff7	-0.018424971
194	0x3d2a7deb	0.04162399
195	0xbcfaf1fd	-0.030632967
196	0x3d1b58ba	0.037926413
197	0xba595700	-0.0008290857
198	0x3d040379	0.032229874
199	0xbd6b57a7	-0.05745664
200	0xbdd74969	-0.10512049
201	0x3d4b5f72	0.04965157
202	0xbd13ad44	-0.03605391
203	0xbc96852f	-0.018374054
204	0x3d3ae7c5	0.04563119
205	0xbdfc25be	-0.12311886
206	0xbbf6ccd9	-0.007531744
207	0x3ce7b0ee	0.028282609
208	0xbc419e38	-0.011817507
209	0x3d530899	0.05152187
210	0xbc93241e	-0.017961558
211	0xbd916fcd	-0.071014024
212	0xbc109c31	-0.008826301
213	0x3d9f2530	0.07770765
214	0x3d346ab8	0.044047087
215	0xbc99f6f3	-0.018794512
216	0xbba6605a	-0.005077404
217	0xbdcac139	-0.099001355
218	0xbdc9a731	-0.09846342
219	0xbbd7bdca	-0.006583904
220	0xbc603890	-0.013685361
221	0xbdcc4657	-0.09974354
222	0x3d464e6c	0.048414633
223	0x3b8a24a7	0.004215795
224	0x3caa18c8	0.02076377
225	0x3c8b8826	0.017032694
226	0x3d229cf3	0.03970046
227	0x3ceba710	0.028766185
228	0xbc9af821	-0.018917145
229	0x3c989836	0.018627267
230	0xbc4a5fad	-0.012351912
231	0xbb1a37d4	-0.0023531811
232	0x3c92425e	0.017853912
233	0x3bb7d185	0.0056096935
234	0x3d6f8d71	0.0584845
235	0x3cc118df	0.02357143
236	0xbd08fc07	-0.033443477
237	0xbcb65603	-0.02225781
238	0x3c0ee767	0.008722163
239	0xbd0567cd	-0.032569695
240	0x3e3a8b97	0.18217312
241	0x3d195e50	0.03744346
242	0xbd54b820	-0.051933408
243	0xbdf41aa8	-0.11919147
244	0xbe25dc3e	-0.16197297
245	0xbbe45474	-0.0069680754
246	0x3d665aa5	0.05623879
247	0xbcbdae0e	-0.023154285
248	0x3d533ba6	0.051570557
249	0x3c36cc0e	0.011157049
250	0x3d6f2b25	0.058390755
251	0xbd0c1b8a	-0.03420595
252	0xbd4a69f8	-0.049417466
253	0x3d355270	0.04426807
254	0xbd65d2c5	-0.05610921
255	0x3d667ecd	0.05627327

net.2.bias f4 [256]
0	0x3a457bf9	0.0007533427
1	0x3d24c465	0.04022636
2	0x3c91b642	0.017787103
3	0xbe14c1b7	-0.14527021
4	0xbd2c18ca	-0.04201583
5	0x3d3c61f7	0.045991864
6	0xbc98e81e	-0.01866537
7	0xbc4f0135	-0.012634565
8	0xbdddbe66	-0.10827331
9	0xbd094278	-0.033510655
10	0xbd0fbc56	-0.03509172
11	0x3be0e1d7	0.0068628597
12	0x3c2da466	0.010598278
13	0xbcb2782c	-0.021785818
14	0x3bb0d5c1	0.005396575
15	0xba0fc89b	-0.00054849096
16	0xbb3be4c8	-0.00286703
17	0xbd786dd5	-0.06065162
18	0x3e9bd7f0	0.30438185
19	0x3e32ef0e	0.17474005
20	0xbd6891a1	-0.056779508
21	0xbd7abd0a	-0.061215438
22	0xbc383375	-0.011242737
23	0x3e0f5fe9	0.1400143
24	0xbaa54719	-0.001260969
25	0xbdc43478	-0.0958032
26	0x3c6f948b	0.014622818
27	0xbdfb8ed2	-0.122831
28	0x38fddcef	0.00012105132
29	0x3df349be	0.118792996
30	0xbcf0168f	-0.029307632
31	0xbb068fe3	-0.002053254
32	0x3d99b1a4	0.075045854
33	0xbd0a855a	-0.03381858
34	0x3da18dbd	0.078883626
35	0x3e5e3d8a	0.21703163
36	0x3d32f3ba	0.043689467
37	0x3e13959f	0.14412545
38	0x3bfc6650	0.0077026263
39	0xbcb2ba2d	-0.021817291
40	0xbbce4aad	-0.006295523
41	0xbdce3b17	-0.10069864
42	0xbd4bc649	-0.049749646
43	0xbdf0b5bd	-0.11753414
44	0xbc1a07f9	-0.009401315
45	0xbc2c09ed	-0.010500413
46	0xbd85bc89	-0.06530101
47	0xbdf6f867	-0.12059098
48	0xbdd4f32b	-0.10397943
49	0xbe210827	-0.15725766
50	0xbd0a72b1	-0.033800784
51	0xbdcc53d1	-0.09976924
52	0xbd2b7fb2	-0.041869827
53	0xbd5215eb	-0.051290434
54	0xbd7ddff7	-0.061981168
55	0x3d5c3f78	0.053771466
56	0xbdfac85c	-0.12245247
57	0xbdb39eec	-0.08770546
58	0xbdbaf46d	-0.09128652
59	0xbc289e41	-0.010291637
60	0xbd81e0cd	-0.063417055
61	0xbd2ece0c	-0.04267697
62	0xbd693bac	-0.056941673
63	0x3c6978c4	0.014249984
64	0xbd656005	-0.055999774
65	0x3c9eb870	0.019375056
66	0x3e14bcd1	0.14525153
67	0xbe0d5917	-0.13803516
68	0xbbf6086c	-0.007508328
69	0x3e29ccbd	0.16582008
70	0x3c055bce	0.008139564
71	0xbd9937cc	-0.074813455
72	0xbd2aa924	-0.04166521
73	0xbcaddebb	-0.02122437
74	0xbd04983c	-0.032371745
75	0xbda01369	-0.07816202
76	0xbdb11651	-0.08646835
77	0xbb9e46de	-0.0048302254
78	0xbe036235	-0.12830432
79	0x3d690a4d	0.05689459
80	0x3c3f18a3	0.011663589
81	0x3d1932a1	0.0374018
82	0xbd470046	-0.048584245
83	0x3c3be36b	0.011467795
84	0xbd806823	-0.062698625
85	0xbb7ade59	-0.0038279502
86	0xbbe6986f	-0.0070372145
87	0xbc821b76	-0.015882235
88	0xbd12a0c8	-0.035797864
89	0xbdb99b20	-0.09062791
90	0xbdb3a3f7	-0.08771508
91	0xbd78c12c	-0.060731098
92	0xbdc0c622	-0.09412791
93	0xbdae0b22	-0.08498217
94	0xbdc0de92	-0.09417452
95	0xbde55afc	-0.111989945
96	0xbde2c050	-0.11071837
97	0xbc004beb	-0.0078306
98	0x3caeb443	0.02132619
99	0x3cf47e4c	0.02984538
100	0xbdca173d	-0.098677136
101	0xbd8365ff	-0.064159386
102	0x3b909553	0.004412332
103	0xbd02223c	-0.03177093
104	0xbdb54c6e	-0.088524684
105	0xbddbc02b	-0.107300125
106	0x3d1c0698	0.038092226
107	0x3d4c0270	0.049807012
108	0x3c30f506	0.010800606
109	0xbdf18983	-0.117938064
110	0xbd18da8c	-0.037317798
111	0x3e2e94fa	0.17049018
112	0xbd2c1858	-0.042015404
113	0xbcb5dbef	-0.0221996
114	0xbcb54a26	-0.022130083
115	0x3de841ac	0.11340651
116	0xbdd03559	-0.10166425
117	0x3e34a18b	0.17639749
118	0xbce2a7cc	-0.027667902
119	0xbdae48f4	-0.085100085
120	0xbd84a213	-0.06476226
121	0xbd6928ef	-0.056923803
122	0xbcccfaac	-0.025021873
123	0xbbe2b7f6	-0.0069189025
124	0x3e882ec1	0.2659817
125	0x3e08c27a	0.13355437
126	0xbcc6dfe6	-0.024276685
127	0xbe0c1938	-0.13681495
128	0xbd39a33a	-0.04532168
129	0xbda68bb2	-0.081321135
130	0x3e0ff869	0.14059605
131	0x3e42fe03	0.1904221
132	0x3ccb965d	0.024851972
133	0xbcd92ede	-0.026511606
134	0x3d7c6f68	0.061629683
135	0xbd3febbf	-0.046855684
136	0x3d5737f2	0.052543588
137	0x392f0eb3	0.00016694776
138	0xbd037d13	-0.032101702
139	0xbd2a44b3	-0.041569423
140	0x3d9bec35	0.07613412
141	0xbd569668	-0.052389532
142	0xbc591eb6	-0.013251951
143	0xbd17b776	-0.037040196
144	0xbd587739	-0.052848075
145	0xbcce6e2a	-0.025199015
146	0xbdd45628	-0.103679955
147	0xbd30f4fe	-0.043202393
148	0xbdd233a8	-0.10263759
149	0xbd48ed16	-0.049054228
150	0xbd3ab549	-0.045583043
151	0xbd92aa77	-0.0716142
152	0xbd14a959	-0.036294315
153	0x3b7742ff	0.0037729142
154	0xbd620b62	-0.055186637
155	0xbd0a6dfe	-0.033796303
156	0xbcbebf8b	-0.023284694
157	0x3cee4c5e	0.02908915
158	0xbd072ba4	-0.033000603
159	0x3de65b30	0.112478614
160	0xbd82e67b	-0.06391617
161	0xbc05474a	-0.008134672
162	0xbdf8ca06	-0.12147908
163	0xbd07c3dd	-0.033145774
164	0x3e5c2e1f	0.21501969
165	0x3b32c529	0.002727816
166	0x3e42c8d6	0.19021925
167	0x3c834b44	0.0160271
168	0xbd85fedd	-0.06542752
169	0xbd3f85b0	-0.046758354
170	0xbc6abb1a	-0.014326835
171	0xbdfed984	-0.124438316
172	0xbc039abb	-0.008032496
173	0xbc276924	-0.010217939
174	0xbcb44ff6	-0.022010785
175	0x3df63850	0.120224595
176	0xbc8aa730	-0.016925424
177	0x3ca72e08	0.020407692
178	0x3c8b897c	0.017033331
179	0x3ccc1e28	0.024916723
180	0xbd1ef1f0	-0.03880495
181	0x3c91a545	0.017779002
182	0xbd8cfe3c	-0.06884429
183	0x3d034239	0.032045577
184	0xbd92cf49	-0.07168443
185	0x3e1c616b	0.15271537
186	0xbd14f394	-0.036365107
187	0xbcf3cfef	-0.029762236
188	0x3d41b0e0	0.04728782
189	0xbd84e0bc	-0.06488177
190	0xbdf50d6b	-0.1196545
191	0xbd8e44ab	-0.06946691
192	0xbd870fbd	-0.06594799
193	0x3d4cef78	0.050033063
194	0xbd81fdfc	-0.06347272
195	0xbde9996e	-0.114062175
196	0x3e3a2740	0.18179035
197	0xbda840c5	-0.08215479
198	0x3df79a86	0.1209002
199	0xbd3f197a	-0.046655156
200	0x3e6ff435	0.23433001
201	0xbddb9ad6	-0.10722892
202	0xbb6feb7f	-0.0036608872
203	0x3d8bfcd6	0.06835334
204	0x3d2707a2	0.040778764
205	0xbd13199f	-0.035913106
206	0x3cc61920	0.024181902
207	0xbb82d963	-0.0039931997
208	0xbd5a35fa	-0.053274132
209	0xbc6c2af1	-0.014414535
210	0x3c12ac22	0.0089521725
211	0xbc5767b9	-0.013147288
212	0x3927b5b7	0.00015994055
213	0xbd14bbdc	-0.03631197
214	0x3e7546fe	0.23952863
215	0xbdd60dae	-0.10451828
216	0xbc85c4ca	-0.016329188
217	0xbd761c8e	-0.060085826
218	0xbd7bcf45	-0.061476965
219	0x3c47b58f	0.012189283
220	0xbdde9982	-0.10869123
221	0xbd63c7fb	-0.055610638
222	0xbdbceded	-0.09225068
223	0xbd6a7df3	-0.05724902
224	0x3cb484f7	0.022036059
225	0x3d262e2f	0.040571388
226	0xbcf248a7	-0.029575659
227	0xbd84efda	-0.064910606
228	0xbdd244e3	-0.10267045
229	0xbccd48d7	-0.025059147
230	0xbd79fd16	-0.061032377
231	0xbd0ee53d	-0.034886587
232	0xbd2e5ada	-0.04256711
233	0xbcb1be6d	-0.021697247
234	0xbdda75b8	-0.10666984
235	0xbd5bb66d	-0.05364077
236	0x3c903fd6	0.017608564
237	0xbd0f3d4a	-0.03497056
238	0x3d5c9091	0.053848807
239	0xbd7c9e2e	-0.06167429
240	0x3e0cf5c0	0.13765621
241	0xbd263514	-0.040577963
242	0x3ce52abc	0.027974479
243	0xbdbeaf2b	-0.093107544
244	0x3c54728c	0.012966763
245	0x3deacf03	0.114652656
246	0x3bd05ad7	0.006358485
247	0x3bc5b3c9	0.006033395
248	0xbdab171a	-0.08354016
249	0x3d932a1e	0.071857676
250	0xbde3d1e2	-0.11124016
251	0x3bb692f0	0.0055717155
252	0x3e111174	0.14166814
253	0xbd41c31c	-0.04730521
254	0xbd525601	-0.05135155
255	0x3e347de4	0.17626148

net.4.weight f4 [256, 256]
0	0x3c38ef03	0.011287454
1	0x3e76cfc5	0.24102695
2	0x3de69f63	0.11260869
3	0x3f10de48	0.56589174
4	0x3e573d2c	0.21019429
5	0xbd200bd8	-0.039073795
6	0x3c546272	0.012962924
7	0x3c0cdfc0	0.008598268
8	0x3e6ca610	0.23110223
9	0x3dc7b640	0.09751558
10	0x3c2df763	0.010618064
11	0xbd45655d	-0.04819237
12	0x3d32922b	0.043596428
13	0x3d1c46ef	0.038153585
14	0xbd3cccc3	-0.046093713
15	0x3e8056f5	0.25066343
16	0x3cac657d	0.021044487
17	0xbd36bbf5	-0.044612844
18	0xbf036cc1	-0.5133782
19	0xbdadea01	-0.08491898
20	0x3dedbe63	0.11608579
21	0x3c7b73e0	0.015347451
22	0xbcc1ba11	-0.023648294
23	0x3e383740	0.17989826
24	0x3c0f0d27	0.008731163
25	0x3f0d4ff4	0.55200124
26	0x3dda02b5	0.106450476
27	0x3ec625a1	0.38700584
28	0xbc96fec4	-0.018432029
29	0x3cfa6de6	0.030569982
30	0xbb5093a0	-0.0031826273
31	0x3caf9460	0.021433055
32	0x3ed772cd	0.42079774
33	0x3d6fc3b2	0.05853624
34	0xbed8066a	-0.42192394
35	0xbec02a7d	-0.37532416
36	0x3d82b992	0.06383051
37	0x3d8064a2	0.06269194
38	0x3d627783	0.055289757
39	0x3d130f5b	0.035903316
40	0x3d48dcf9	0.04903886
41	0x3dc39b1f	0.095510714
42	0x3d70af82	0.058761127
43	0x3e29aee5	0.16570623
44	0x3d205203	0.039140712
45	0x3acceeef	0.0015635173
46	0x3d724cfa	0.05915544
47	0x3e271b76	0.1631907
48	0x3e262d3e	0.16228196
49	0x3e6af26c	0.22944039
50	0x3e0dc71c	0.13845485
51	0x3e02edfa	0.12786093
52	0xbd0adc70	-0.03390163
53	0x3d303d58	0.043027252
54	0xbd173134	-0.036912158
55	0x3e5ef02a	0.21771303
56	0x3ea99396	0.33120412
57	0x3eed6547	0.4636633
58	0x3b542fe9	0.003237719
59	0xbbebd4ac	-0.0071969833
60	0xbd719410	-0.058979094
61	0xbcbd3523	-0.023096627
62	0x3b3f5fab	0.002920131
63	0x3e131030	0.14361644
64	0xbc705e69	-0.014670947
65	0x3cdfdb9f	0.027326403
66	0x3c093467	0.00837431
67	0x3e9461b0	0.2898078
68	0xbce450ca	-0.027870554
69	0xbe40d77b	-0.188322
70	0x3e4cfa28	0.20017302
71	0xbce5e748	-0.028064385
72	0xbd3d52f3	-0.046221685
73	0x3ec9fdd1	0.3945146
74	0xbd6ed972	-0.05831284
75	0x3e5716a5	0.21004732
76	0x3d2a30fd	0.041550625
77	0xbd6074eb	-0.054799
78	0x3ef6d52e	0.48209518
79	0x3db3b2eb	0.0877436
80	0x3c1e491f	0.009660988
81	0xbddf2d76	-0.10897343
82	0xbbf7ef38	-0.007566359
83	0xbcc1d67b	-0.023661843
84	0x3d1bb014	0.038009718
85	0x3c8baa57	0.017048998
86	0x3dff5a6e	0.1246842
87	0x3d497bcc	0.049190328
88	0x3bc07060	0.005872771
89	0x3e43d238	0.19123161
90	0xbd2724ec	-0.040806696
91	0xbd766f5c	-0.060164794
92	0x3e8813e6	0.2657768
93	0xbcecc57c	-0.028902762
94	0xbd7fe2aa	-0.062472023
95	0x3d09e7ba	0.033668257
96	0x3be695f4	0.007036919
97	0x3e655951	0.22397353
98	0xbd26fc3b	-0.04076789
99	0x3e873292	0.2640577
100	0x3d77a819	0.060463045
101	0xbd44e492	-0.048069544
102	0x3cd23f64	0.025664993
103	0xbd12b769	-0.035819445
104	0x3db6194d	0.088915445
105	0x3cf227b9	0.029559957
106	0x3e5da77d	0.21645923
107	0xbdadfd74	-0.08495608
108	0x3cb4318b	0.02199628
109	0x3f0afe16	0.54293954
110	0x3d09ad52	0.033612557
111	0xbd495444	-0.049152628
112	0x3ca63d26	0.02029283
113	0x3dcec4f6	0.10096161
114	0xbd10d615	-0.035360415
115	0x3e33ab08	0.17545712
116	0xbcd73e6e	-0.026274886
117	0xbd10a9e1	-0.03531826
118	0xbbba7571	-0.0056902696
119	0x3cffa774	0.031207778
120	0x3e365648	0.17806351
121	0xbd1b195f	-0.037865993
122	0x3ccc4a5e	0.024937805
123	0x3d2a0ac2	0.041514166
124	0xbe15dde9	-0.14635433
125	0x3c6aa290	0.0143209845
126	0xbd2ab293	-0.041674208
127	0x3f87da10	1.0613422
128	0xbc6327e0	-0.013864487
129	0xbcde05bf	-0.02710235
130	0x3e86940f	0.26284835
131	0xbdd4bfec	-0.10388169
132	0xbd0cb4d2	-0.03435213
133	0xbd28e166	-0.04123058
134	0xbdba180d	-0.090866186
135	0xbb857a69	-0.0040734303
136	0x3e2a1207	0.1660844
137	0xbaaac3cf	-0.0013028326
138	0x3dbfcde5	0.09365443
139	0xbd849b1b	-0.064748965
140	0x3d6ef8cd	0.058342744
141	0xbd86f7be	-0.06590222
142	0xbe660f64	-0.22466809
143	0x3cc0b8dd	0.02352565
144	0x3c8d3f3c	0.017242067
145	0x3c3b877f	0.011445879
146	0x3eed7655	0.46379343
147	0x3d5b6045	0.053558607
148	0xbad1f1c5	-0.0016017488
149	0xbb555699	-0.0032552837
150	0x3e40ae32	0.1881645
151	0xbd2b2954	-0.04178746
152	0x3c2945c0	0.010331571
153	0x3c7d1872	0.015447723
154	0x3c8a1bfa	0.016859043
155	0xbcc14bfc	-0.023595802
156	0xbc2a3a68	-0.010389902
157	0xbc2e2e46	-0.01063115
158	0xbb2baacb	-0.002619433
159	0x3b4dbc51	0.0031392763
160	0x3d49595f	0.049157497
161	0x3da0b503	0.07847025
162	0x3f02c0e0	0.51075554
163	0x3e7a922b	0.24469821
164	0xbe226eba	-0.15862551
165	0xbcc63dff	-0.024199484
166	0x3d41b52e	0.047291927
167	0x3cd212bc	0.025643699
168	0xbd64fab2	-0.055903144
169	0x3da14521	0.078745134
170	0x3d1f884c	0.038948342
171	0x3ea83b1d	0.328576
172	0x3d082173	0.033235025
173	0x3c9ff9d7	0.019528313
174	0xbd0f4d61	-0.034985904
175	0x3e80fcd4	0.25192893
176	0xbd9ff8b5	-0.07811109
177	0x3d77db8e	0.060512118
178	0x3cfd9162	0.030953113
179	0x3e9266bf	0.28594014
180	0x3d3dc05a	0.04632602
181	0x3d179df1	0.03701586
182	0x3ef523d5	0.478789
183	0x3e4dab13	0.20084791
184	0xbd8967f0	-0.06709278
185	0xbc3bb290	-0.011456147
186	0x3d41d9ab	0.047326725
187	0x3d9c2a01	0.07625199
188	0x3c9257dc	0.01786416
189	0xbd3c50e8	-0.045975596
190	0x3ece875b	0.40337643
191	0x3d782ad6	0.060587727
192	0xbd26692b	-0.04062764
193	0xbe3cbfea	-0.18432584
194	0x3cc95c3f	0.02458012
195	0xbce2219c	-0.027603917
196	0xbeb4ffd8	-0.35351443
197	0x3edb8281	0.42873004
198	0xbe3df9a5	-0.18552263
199	0x3ca8c4e0	0.02060169
200	0xbe4eb18e	-0.20184919
201	0x3dc90bfb	0.09816738
202	0xbae79476	-0.0017668146
203	0x3e087a77	0.13327967
204	0xbd511ba2	-0.051051743
205	0x3ea3ebbd	0.32015792
206	0xbe529e7a	-0.20568267
207	0x3bde209a	0.0067787888
208	0x3e2004b5	0.15626796
209	0xbd1786ac	-0.036993667
210	0x3d876d7d	0.0661268
211	0xbd5ea03f	-0.05435204
212	0x3da09a84	0.078419715
213	0x3d5e7c0f	0.05431753
214	0xbe513974	-0.20432073
215	0x3d1bb28f	0.038012084
216	0x3cbba3cf	0.022905258
217	0x3d34f972	0.044183202
218	0xbcb4f002	-0.0220871
219	0xbd67021e	-0.056398503
220	0x3dda02c5	0.106450595
221	0x3e3a1bed	0.18174715
222	0x3b6a5f51	0.003576238
223	0x3cbb2540	0.02284491
224	0x3e879f8e	0.26488918
225	0xbd667900	-0.05626774
226	0x3d064c60	0.03278768
227	0x3d767f6c	0.060180113
228	0x3d881b5c	0.066458434
229	0x3d68ed0f	0.0568667
230	0x3c517118	0.012783311
231	0xbca520c5	-0.020157227
232	0xbd7f6c76	-0.062359296
233	0x3db928e5	0.09041003
234	0x3efd91bf	0.49525258
235	0xbd379476	-0.044819318
236	0x3d83a45a	0.06427832
237	0x3d8429a9	0.064532585
238	0x3e2f26bb	0.17104618
239	0x3d78b030	0.0607149
240	0x3db9504a	0.09048517
241	0x3eceaaa4	0.40364563
242	0x3d99e4cf	0.07514345
243	0xbd31940e	-0.043354087
244	0xbd291ea1	-0.041288976
245	0x3d991ac1	0.07475806
246	0x3d588b8b	0.052867454
247	0xbd9f72be	-0.07785557
248	0x3e0a5d39	0.13512124
249	0xbd238fca	-0.03993205
250	0x3d443dff	0.047910687
251	0xbe9cab57	-0.30599472
252	0x3c8f33b0	0.017480701
253	0x3cd0d060	0.025489986
254	0xbae30c6c	-0.0017322428
255	0xbe0d9d1a	-0.1382946

net.4.bias f4 [256]
0	0x3cd5d92a	0.026104528
1	0xbd4236ec	-0.04741566
2	0xbd5fd23d	-0.05464386
3	0xbd9d6295	-0.07684819
4	0xba5295f3	-0.00080332084
5	0xbca9b1ca	-0.02071466
6	0x3c98884e	0.018619683
7	0xbb8c4903	-0.0042811646
8	0x3cdba71d	0.026813084
9	0x3da7f1d7	0.08200424
10	0xbd7598a9	-0.05996004
11	0x3c237e2b	0.009978811
12	0x3c1f1547	0.009709663
13	0xbc3456fe	-0.011007069
14	0xbb01d5d9	-0.00198113
15	0xbd16d463	-0.03682364
16	0x3e04c1cb	0.12964551
17	0x3e62df8e	0.22155592
18	0xbca5db02	-0.020246033
19	0x3deb87d1	0.11500514
20	0x3e13cc6c	0.1443345
21	0xbc6ac503	-0.014329198
22	0x3db3a963	0.08772542
23	0xbd2d8e7d	-0.042372216
24	0xbc47435a	-0.012162054
25	0x3c93c2a7	0.018037153
26	0xbc6a06e0	-0.014283866
27	0x3c774d8c	0.015094172
28	0xbd27958c	-0.040914103
29	0x3e05e7cb	0.13076703
30	0xbd3473f7	-0.044055905
31	0xbc6f41dd	-0.014603105
32	0xbcf4c43f	-0.029878734
33	0xbc785f24	-0.015159402
34	0xbd7a3788	-0.061088115
35	0xbc608919	-0.013704562
36	0xbc6a34e6	-0.0142948385
37	0x3e40cf8c	0.18829173
38	0xbd0957e2	-0.033531077
39	0x3dc6af3c	0.09701392
40	0xbd2289d7	-0.039682236
41	0xbd9f59f8	-0.07780832
42	0xbd4c1110	-0.04982096
43	0x3dba8338	0.09107059
44	0xbd4d526b	-0.050127428
45	0x3d036862	0.03208197
46	0xbc5b6759	-0.013391339
47	0x3d4508b9	0.04810402
48	0xbaeb3ec1	-0.0017947779
49	0xbc1d1449	-0.009587356
50	0x3dd19c3c	0.102348775
51	0x3c8aeaab	0.016957602
52	0xbcfafa13	-0.030636823
53	0xbbb4ea3b	-0.0055210865
54	0xbd595329	-0.053057823
55	0x3d374172	0.044740148
56	0xbd767d81	-0.060178284
57	0xbd1af4b2	-0.037831016
58	0xbdaf8d9d	-0.085719325
59	0xbd6b521d	-0.057451356
60	0xbd4a3a06	-0.04937174
61	0xbcded960	-0.027203262
62	0xbce5bf03	-0.028045183
63	0x3e6148b2	0.22000387
64	0x3e14652d	0.1449172
65	0x3d49f0c8	0.049301893
66	0x3d8457a4	0.064620286
67	0x3d9f1fd1	0.077697404
68	0xbceeaa05	-0.029133806
69	0x3cac16f9	0.021007048
70	0xbd10db7b	-0.035365563
71	0x3e185742	0.14877036
72	0x3b8def5d	0.004331513
73	0x3dd6486a	0.10463031
74	0xbc41957f	-0.011815428
75	0xbb4704ef	-0.003036793
76	0xbd0c2241	-0.034212355
77	0x3e8d155e	0.27555364
78	0xbcec9917	-0.028881593
79	0x3ca375d0	0.019953638
80	0xbd213169	-0.03935376
81	0x3e36fbd0	0.17869496
82	0x3e21e0dc	0.15808433
83	0xbd8ed3e9	-0.069740124
84	0x3d2982ed	0.041384626
85	0x3cc452ad	0.023965204
86	0xbcc7a76e	-0.024371829
87	0xbc461fd6	-0.012092551
88	0xbd29ffb3	-0.04150362
89	0x3d425a01	0.047449116
90	0x3db80783	0.08985808
91	0xbc831214	-0.015999831
92	0xbd6d6e7e	-0.0579667
93	0x3ac0afa7	0.0014700786
94	0xbbe2ab69	-0.0069174063
95	0x3d4da12f	0.050202545
96	0x3dff14a3	0.12455108
97	0x3e2367c2	0.15957549
98	0xbd7b6cca	-0.061383046
99	0xbc210008	-0.009826668
100	0x3add35f4	0.0016877041
101	0x3e810dc9	0.2520583
102	0xbccd95d9	-0.025095867
103	0x3dad5348	0.0846315
104	0x3e66130a	0.224682
105	0xbd2bec4b	-0.041973393
106	0x3b46dd04	0.0030344138
107	0x3c30949a	0.010777617
108	0x3e8245d3	0.25443897
109	0xbd81f613	-0.06345763
110	0xbd5736da	-0.052542545
111	0x3dac71f6	0.08420174
112	0x3de05c09	0.10955054
113	0xbca1e2a1	-0.019761385
114	0xbc722eda	-0.014781678
115	0xbd53bf18	-0.051695913
116	0xbc3a5442	-0.011372628
117	0xbc1e936b	-0.009678702
118	0x3e5db19e	0.21649787
119	0xbd118035	-0.03552266
120	0xbd7bec27	-0.06150451
121	0x3dc609c6	0.09669833
122	0xbd15a716	-0.0365363
123	0x3dc61cf1	0.09673489
124	0xbd4a8502	-0.049443252
125	0xbbd3c99f	-0.006463244
126	0x3dcd50cc	0.100251764
127	0xbd19474b	-0.037421506
128	0xbc072c92	-0.0082503725
129	0xbd726fbd	-0.059188593
130	0xbb94f6a0	-0.0045460016
131	0x3e72d6ee	0.23714802
132	0x3e467c9e	0.19383475
133	0xbd9160fd	-0.07098577
134	0xbcecf186	-0.028923761
135	0x3e723dfe	0.2365646
136	0x3c975dce	0.018477347
137	0xbd9e3c8f	-0.077263944
138	0x3e59daa6	0.21274814
139	0x3d6e8303	0.05823041
140	0xbb80eae8	-0.003934253
141	0xbbb722b6	-0.0055888547
142	0xbc80963d	-0.01569664
143	0x3c859d8b	0.016310474
144	0xbd408a4a	-0.047006883
145	0xbb2c5b57	-0.002629956
146	0xbcecbe9c	-0.028899483
147	0xbd7c635f	-0.061618205
148	0xbcccf5fd	-0.02501964
149	0xbaa92cfc	-0.0012907083
150	0xbd9c73db	-0.07639285
151	0x3ca59d79	0.02021669
152	0x3e7b836c	0.24561852
153	0x3c2e96f3	0.010656106
154	0x3c6f63e3	0.014611217
155	0xbd6d0189	-0.057862792
156	0x3d842454	0.064522415
157	0x3d2f1e8e	0.04275375
158	0x3db02a72	0.08601846
159	0xbba7f680	-0.0051258206
160	0xbd558caf	-0.05213612
161	0xbbed70c0	-0.007246107
162	0x3e52c364	0.20582348
163	0xbc6d29fe	-0.014475344
164	0xbcce09b2	-0.025151107
165	0xbd6d79d4	-0.057977512
166	0x3e0e9703	0.13924794
167	0x3dfb2e16	0.122646496
168	0xbccaf124	-0.024773188
169	0xbcbe2909	-0.023212926
170	0xbceb482c	-0.028720938
171	0xbcf55cb2	-0.029951427
172	0x3da2ddbb	0.07952448
173	0x3e88e0df	0.26734063
174	0xbd674477	-0.056461778
175	0xbd454205	-0.048158664
176	0xbcb64f46	-0.022254597
177	0x3d8070d0	0.06271517
178	0x3cd0ab79	0.02547239
179	0xbbb87470	-0.005629115
180	0x3db1cd64	0.08681753
181	0x3dafc3c4	0.08582261
182	0xbd5e98d4	-0.054344967
183	0x3c901a03	0.017590528
184	0x37e5d170	2.7396454e-05
185	0xbd531306	-0.051531814
186	0xbd562593	-0.052281927
187	0x3c10f74a	0.008848021
188	0xbc929552	-0.017893467
189	0xbc7dcff0	-0.015491471
190	0x3e3a0860	0.18167257
191	0xbd895be2	-0.067069784
192	0xbd69077d	-0.056891907
193	0x3db71afd	0.089406945
194	0xbd1c3f97	-0.03814658
195	0x3de47f73	0.111571215
196	0x3cc4f815	0.024044076
197	0x3dd9882a	0.10621674
198	0xbd815a8f	-0.06316101
199	0xbb75f055	-0.0037527282
200	0xbcb078cc	-0.021541975
201	0xbc75ed3d	-0.015010175
202	0x3dc51d2d	0.096247055
203	0xbc8e9e35	-0.017409423
204	0x3d5e06e5	0.054205794
205	0x3be93385	0.0071167373
206	0x3c7e5d6a	0.015525201
207	0xbce65f5c	-0.028121643
208	0x3cb710bb	0.022346845
209	0x3b80051a	0.003906858
210	0xbd573dfb	-0.052549344
211	0x3e1e77a3	0.15475325
212	0x3aaad014	0.0013031983
213	0x3b707564	0.0036691064
214	0x3d859c3d	0.06523941
215	0x3de32a1b	0.11092015
216	0x3e7d7e6d	0.24755259
217	0x3d728e30	0.05921763
218	0xbcd81d33	-0.02638111
219	0xbc44be1e	-0.012008218
220	0xbc8f0842	-0.017459992
221	0xbcea999a	-0.028637696
222	0xbd6fcc48	-0.058544427
223	0x3c159601	0.009130002
224	0xbc3eef09	-0.01165367
225	0x3a85b93b	0.0010202298
226	0xb970b553	-0.00022955732
227	0x3df4741a	0.11936207
228	0xbd08d238	-0.033403605
229	0x3d00c1b2	0.031434722
230	0xbd17af88	-0.037032634
231	0x3e45db73	0.19321994
232	0x3e4c570c	0.19955081
233	0x3da59313	0.08084693
234	0x3d38bb4d	0.0451005
235	0xbc934a73	-0.017979836
236	0xbd045c5a	-0.032314636
237	0x3cb4905a	0.022041488
238	0xbba814cf	-0.0051294337
239	0xbae4ccf9	-0.0017456106
240	0x3e0d3a8e	0.13791868
241	0xbc6d5018	-0.014484428
242	0x3d3a514a	0.04548768
243	0x3d178a01	0.036996845
244	0xbc453dd4	-0.012038667
245	0x3d05f28b	0.03270201
246	0x3ccf173d	0.025279636
247	0xbc8fb723	-0.017543381
248	0xbd6089c7	-0.054818895
249	0xbd87ccd6	-0.06630866
250	0xbdf36e0f	-0.118862264
251	0x3e1b745b	0.15181105
252	0xbbb1bb2d	-0.0054239244
253	0xbd7c8e6a	-0.061659254
254	0xbd9ee92c	-0.07759318
255	0x3dad7c0a	0.08470924

net.6.weight f4 [1, 256]
0	0x3fc68634	1.5509706
1	0x3ef58d37	0.479593
2	0x3d39cfb6	0.045364104
3	0x3ef24926	0.47321433
4	0x3f41f680	0.75766754
5	0xbd094e33	-0.033521842
6	0x3e659abc	0.22422308
7	0xbd129a8d	-0.035791922
8	0xbee21a75	-0.4416081
9	0x3f80a067	1.0048951
10	0x3f26c13a	0.6513859
11	0x3ec56aa1	0.38557914
12	0x3e41e409	0.18934645
13	0x3b5ddf93	0.0033855184
14	0x3bee8d2e	0.0072800135
15	0x3c9ff2b2	0.019524906
16	0xbf6e3acb	-0.9305846
17	0x3fe85f08	1.8154001
18	0x3dac3b0d	0.084097005
19	0x3fa67680	1.3004913
20	0xbf8b4249	-1.0879604
21	0x3b376925	0.0027986255
22	0xbd9be96a	-0.076128796
23	0xbd620b0c	-0.055186316
24	0xbdee1643	-0.1162534
25	0x3db066d8	0.08613366
26	0x3b213bdb	0.0024602327
27	0x3baf5c9d	0.0053516165
28	0xbc763d38	-0.015029244
29	0x3fc02025	1.500981
30	0x3b2bb08d	0.0026197762
31	0x3e80e42a	0.25174075
32	0x3c12dd84	0.008963946
33	0x3f09ce22	0.5383016
34	0x3f238165	0.63869315
35	0x3cc60725	0.024173329
36	0xbd7ce56a	-0.061742224
37	0x3fca1a34	1.5789247
38	0x3e0faa2a	0.14029756
39	0x3f763b7c	0.96184516
40	0x3e9e5f63	0.3093215
41	0xbcfa7bf7	-0.03057669
42	0x3c1cadb8	0.009562902
43	0x3fab61a7	1.3389176
44	0xbc91d00c	-0.0177994
45	0x3f4cd4c8	0.8001218
46	0x3ec28eac	0.37999475
47	0x3f96f0dd	1.1792256
48	0xbc49ad94	-0.012309451
49	0x3f9700cd	1.1797119
50	0x3f84560d	1.0338761
51	0x3fb2d5a2	1.3971446
52	0xbbf4daf5	-0.007472391
53	0x3e3835ab	0.17989223
54	0xba12bcf0	-0.0005597612
55	0xbf861e47	-1.047799
56	0x3d48f5c1	0.049062494
57	0xbd34c19d	-0.044129957
58	0x3ebfe3b4	0.3747841
59	0xbc1394ee	-0.009007676
60	0x3f56ffac	0.83983874
61	0xbd2b5344	-0.041827455
62	0x3ed75ff6	0.420654
63	0x3fdd0f3d	1.7270275
64	0x3f8be13f	1.0928115
65	0x3e7287cf	0.2368462
66	0xbfdb5a6f	-1.7136973
67	0x3f714b3e	0.94255435
68	0x3f2638e4	0.6493056
69	0x3d77d0f2	0.060502
70	0x3f015a41	0.5052834
71	0xbfa05f9d	-1.2529179
72	0xbedbc027	-0.42920038
73	0x3fa9cf4f	1.326639
74	0x3e03a9b2	0.12857702
75	0x3dc3da75	0.09563152
76	0xbbd9e419	-0.006649506
77	0x3f60298c	0.87563396
78	0xbd138b5e	-0.036021583
79	0x3f951c63	1.1649288
80	0x3ecdc699	0.4019058
81	0xbf9a7b20	-1.2068825
82	0xbf906001	-1.1279298
83	0x3c806eda	0.015677858
84	0x3ea62a15	0.3245398
85	0x3fba8ddc	1.4574542
86	0xbc1cd326	-0.009571826
87	0x3d16ec92	0.036846705
88	0x3b11bec1	0.0022238942
89	0x3fa9f3dc	1.3277545
90	0x3fbc9497	1.4732846
91	0x3def9ed3	0.11700215
92	0x3e49ff19	0.19726218
93	0xbd5c9993	-0.053857397
94	0x3daf2964	0.085528165
95	0x3f172f13	0.59056205
96	0x3ff6329d	1.9234196
97	0x3f755213	0.9582836
98	0xbd79b591	-0.06096417
99	0x3aa0a55c	0.0012256312
100	0xbe3de0c2	-0.1854277
101	0xbfd9897f	-1.6995085
102	0x3b0d9572	0.002160397
103	0x3f674566	0.9034027
104	0x3fbf4c55	1.494517
105	0xbd249e0c	-0.040189788
106	0xbc12f552	-0.008969622
107	0xbb303084	-0.0026884386
108	0x3e9c6fd4	0.30554068
109	0x3ece5589	0.40299633
110	0xbce90333	-0.028443908
111	0x3e5771c4	0.21039492
112	0x3f5737c9	0.84069496
113	0xbdd92b2a	-0.10603936
114	0x3f98d457	1.1939801
115	0x3ecfc9e8	0.4058373
116	0xbc677259	-0.014126384
117	0x3e272ace	0.16324922
118	0x3f954d8d	1.1664292
119	0x3a572380	0.0008206889
120	0xbd4f2898	-0.050575823
121	0x3fb730d0	1.4311771
122	0x3f01a1a7	0.50637287
123	0x3f9a7729	1.2067615
124	0x3f5ff0c4	0.87476754
125	0x3ebd55ca	0.36979514
126	0x3fbf1f0a	1.4931347
127	0x3f46a249	0.7759138
128	0xbd3ddec4	-0.046355024
129	0x3f1688f2	0.5880271
130	0xbeff2b09	-0.4983752
131	0x3e85aa81	0.26106647
132	0x3f99e0a1	1.2021676
133	0x3f152c58	0.5827079
134	0x3a4e1811	0.00078618625
135	0xbfd4b7cb	-1.6618589
136	0xbe9caa6c	-0.30598772
137	0x3f964a92	1.1741507
138	0x4013aa88	2.3072834
139	0x3f8f11ef	1.1177348
140	0x3b04d7a4	0.0020270133
141	0x3f7a1066	0.9768127
142	0x3e1b2bd1	0.15153433
143	0x3f6b8c75	0.92011195
144	0xbd3a3b5c	-0.045466766
145	0x3ef7683e	0.48321718
146	0xbc39a0e9	-0.011329868
147	0xbb639e21	-0.0034731703
148	0x3e9a3bf6	0.30123872
149	0xbd7671d1	-0.060167138
150	0x3f3b403b	0.7314488
151	0x3e8de9f6	0.2771756
152	0x3fe33e20	1.7753334
153	0xbd31372a	-0.0432655
154	0x3f8487a9	1.03539
155	0xbd14e897	-0.036354627
156	0x3e924bf0	0.2857356
157	0xbfc2973e	-1.5202405
158	0xbefb23e3	-0.49050817
159	0xbd7bb395	-0.06145056
160	0xbc39f04c	-0.011348795
161	0xbe90f0fe	-0.28308862
162	0x3fbefa82	1.4920199
163	0xbd55c8a8	-0.052193314
164	0x3e63e935	0.2225693
165	0x3f1031e5	0.56326133
166	0x3f67f9f3	0.9061577
167	0xbf0d8523	-0.55281276
168	0x3f72edb2	0.94893944
169	0x3bd3a4f2	0.006458872
170	0xbd4e8dea	-0.05042831
171	0xbbe533c3	-0.006994696
172	0x3fbd612a	1.4795277
173	0x3fec65ad	1.8468529
174	0x3cc747c2	0.024326209
175	0xbd141bc0	-0.036159277
176	0x3c9d6898	0.019214913
177	0x3ee5d6a1	0.4489031
178	0xbef48b6b	-0.47762617
179	0x3d8e39fe	0.06944655
180	0x3fbdd53e	1.4830701
181	0x3f42ff6b	0.76170987
182	0xbc6cc685	-0.014451628
183	0xbf44978f	-0.7679376
184	0x3fee471e	1.8615453
185	0xbcb6165e	-0.022227462
186	0x3b20eda0	0.0024555698
187	0x3df9ab0f	0.1219083
188	0x3e6e1e56	0.2325376
189	0xbcd1bbe4	-0.025602289
190	0x3ff035a9	1.8766376
191	0xbe81f690	-0.25383425
192	0x3cce8d2c	0.0252138
193	0x3fd7b111	1.6850911
194	0x3d653c77	0.055965867
195	0x3fd77c02	1.6834719
196	0x3faccf70	1.3500805
197	0x3fa329fc	1.2747188
198	0xbc18ecfc	-0.009333845
199	0xbd2bd35b	-0.04194961
200	0x3f2d861e	0.6778277
201	0xbc679bd8	-0.014136277
202	0x3f5a9684	0.8538592
203	0x3dc34b5e	0.095358595
204	0x3fbd316d	1.4780709
205	0xba9ab4c7	-0.0011803143
206	0x3ee1f567	0.4413254
207	0x3d7906e1	0.060797576
208	0x3fb31410	1.3990498
209	0x3eb23b02	0.34810644
210	0xbe950835	-0.29107824
211	0xbf319a18	-0.69375753
212	0xbdc38b77	-0.09548085
213	0xbecf6df1	-0.40513566
214	0x3fa480e3	1.2851833
215	0xbf1c434f	-0.61040205
216	0x3f9d2b51	1.2278844
217	0x3fba28f2	1.4543746
218	0x3ce1782a	0.027523119
219	0xbdf01abe	-0.11723851
220	0x3c228183	0.009918573
221	0xb9a062cf	-0.00030591196
222	0xbd163b3a	-0.036677577
223	0x3fc96b2a	1.5735829
224	0xbe57754b	-0.21040837
225	0xbcb404ba	-0.02197491
226	0xbc1524e5	-0.009103035
227	0xbf14610b	-0.57960576
228	0xbe1c8dd3	-0.15288477
229	0x3fd3068b	1.6486372
230	0x3d2c3fe1	0.042053107
231	0x400d96c4	2.212327
232	0x3f67cafd	0.9054411
233	0x3ee5559d	0.4479188
234	0xbecc2f66	-0.39879912
235	0x3f4c4d8f	0.79805845
236	0x3f5cf2e4	0.8630812
237	0x3d539c98	0.05166301
238	0x3e1954a8	0.149737
239	0x3fb6eb6f	1.4290599
240	0x3f9ff8bb	1.2497782
241	0xbcca6b03	-0.02470923
242	0x3e1cfbfe	0.15330502
243	0x3ef39b89	0.475796
244	0x3fa1688a	1.2610028
245	0x3dee51a4	0.116366655
246	0x3f9ed524	1.2408795
247	0xbe923749	-0.28557804
248	0x3ccdbcd1	0.025114449
249	0x3f151396	0.5823301
250	0xbf3e8502	-0.74421704
251	0x3fee0689	1.8595744
252	0xbd26d69c	-0.04073201
253	0x3cf94971	0.030430527
254	0xbe8d3d5e	-0.27585882
255	0x3fe51a52	1.7898657
