preTrained/GAIL_pretrained_2000_actor.pth (torch, 541220 bytes, 8 tensors)

net.0.weight f4 [256, 3]
0	0xbf0109b7	-0.5040545
1	0x3eed8676	0.46391648
2	0xbf161dc5	-0.58639175
3	0x3ec1164e	0.3771233
4	0xbe878a8f	-0.264729
5	0xbecdd1b5	-0.40199056
6	0x3d30485e	0.043037765
7	0x3efbf851	0.49212888
8	0xbee52bd0	-0.4475999
9	0x3ddeedb5	0.10885183
10	0xbf2e6fb7	-0.68139213
11	0x3ea31887	0.3185465
12	0xbe804345	-0.25051323
13	0x3e994781	0.29937366
14	0xbeb4d577	-0.3531911
15	0x3ea58ec7	0.32335493
16	0xbee9a1f0	-0.4563136
17	0x3ef2a55a	0.47391778
18	0xbed274e6	-0.4110481
19	0xbd10ba6a	-0.03533403
20	0xbeb28f7d	-0.34875098
21	0xbe8a8918	-0.2705772
22	0xbf08b52b	-0.5340144
23	0x3de35d10	0.11101735
24	0x3d90fe19	0.07079715
25	0x3f293a8a	0.6610495
26	0xbec4f8cc	-0.38471067
27	0x3e3794af	0.17927812
28	0x3f075b90	0.5287409
29	0x3e3c0281	0.1836033
30	0x3dd86ad1	0.105672486
31	0x3f27bf2c	0.6552608
32	0xbeb7833f	-0.3584232
33	0x3edd357e	0.43204874
34	0xbf14a36d	-0.5806187
35	0xbec26cfe	-0.3797378
36	0x3e905398	0.28188777
37	0xbea81b64	-0.32833397
38	0xbeaae2e6	-0.33376235
39	0xbedf9662	-0.4366942
40	0xbf10e894	-0.56604886
41	0xbe818253	-0.25294742
42	0xbe990c4c	-0.29892194
43	0x3ea178fd	0.3153762
44	0xbcca53c3	-0.024698144
45	0xbcb69a35	-0.022290329
46	0xbf55d528	-0.83528376
47	0x3d65b47c	0.056080326
48	0xbe70733d	-0.2348146
49	0xbf357296	-0.7087797
50	0xbea3ff83	-0.32030877
51	0x3ed1a731	0.4094787
52	0x3eb89478	0.36050773
53	0x3e7a219a	0.2442688
54	0x3f21216d	0.6294163
55	0xbd7b51c2	-0.061357267
56	0x3ea51aab	0.3224691
57	0x3e75a4d3	0.23988657
58	0xbf146ac6	-0.57975423
59	0xbecc638e	-0.39919704
60	0xbedfbe80	-0.43700027
61	0x3e62b8c5	0.22140796
62	0xbefda205	-0.49537674
63	0xbe92f998	-0.2870605
64	0xbece0c01	-0.40243533
65	0xbebe9941	-0.37226298
66	0x3ea3974e	0.31951374
67	0xbf2c2279	-0.672401
68	0xbf26d768	-0.65172434
69	0xbf0ab617	-0.541841
70	0x3f09a6a1	0.5376988
71	0x3dc9273c	0.098219365
72	0x3f20d2b2	0.62821496
73	0xbef5b621	-0.47990516
74	0x3e827e89	0.25487164
75	0x3e8de4c3	0.27713594
76	0x3f66334a	0.8992201
77	0x3eba52f2	0.36391407
78	0xbf1c6c20	-0.61102486
79	0xbd8f3a9b	-0.069936
80	0x3e9d5aaa	0.30733234
81	0x3e4a4dc4	0.19756228
82	0xbf072f16	-0.5280622
83	0x3de09277	0.10965436
84	0x3ec6d8aa	0.38837177
85	0x3d2bbe98	0.04192981
86	0x3e968a4f	0.29402396
87	0xbf06d232	-0.5266448
88	0x3e602ade	0.21891353
89	0x3c8af4b7	0.016962392
90	0x3ebad1e4	0.3648826
91	0xbec34702	-0.38140112
92	0xbed0754f	-0.407145
93	0x3e60f804	0.2196961
94	0xbf1d4a9e	-0.6144198
95	0x3e05f54a	0.13081852
96	0xbf08c8de	-0.534315
97	0x3ea39991	0.319531
98	0xbf108ce2	-0.5646497
99	0x3e9924a2	0.2991076
100	0x3f2e8423	0.68170375
101	0x3e8e2bc5	0.27767769
102	0x3e6cc115	0.2312053
103	0xbf04a48c	-0.5181358
104	0xbf0bf8c2	-0.5467645
105	0xbbebdd31	-0.007197999
106	0x3f3acf91	0.7297297
107	0x3ed8646d	0.4226412
108	0x3e2ae531	0.16688992
109	0xbf1a2909	-0.60218865
110	0x3e015d61	0.12633277
111	0x3d900f88	0.07034212
112	0x3f5fe35e	0.8745631
113	0x3d218735	0.039435584
114	0xbe963c1c	-0.29342735
115	0x3d8df2c0	0.069310665
116	0xbf15be5a	-0.5849358
117	0xbc28a84a	-0.0102940295
118	0x3ef29930	0.47382498
119	0xbecac05b	-0.3959988
120	0xbf0263bc	-0.5093343
121	0xbef1d0e7	-0.47229692
122	0xbe71e2a3	-0.23621611
123	0xbe26b347	-0.16279326
124	0xbee718dd	-0.45136157
125	0x3d4975fa	0.049184777
126	0xbef8d3d0	-0.485991
127	0x3e33aed9	0.17547168
128	0x3e3c4e79	0.1838931
129	0xbec3c6e3	-0.38237676
130	0x3d88a5c3	0.066722415
131	0xbede261a	-0.43388444
132	0xbe00eb72	-0.12589815
133	0xbe2d7221	-0.16938068
134	0xbf0f12dc	-0.5588815
135	0xbe927adf	-0.28609368
136	0x3f2bb9e8	0.67080545
137	0xbdf4467a	-0.11927505
138	0x3ed686ef	0.4189982
139	0xbee7363e	-0.4515857
140	0xbf159c56	-0.58441675
141	0xbe895474	-0.26822245
142	0xbf048d37	-0.51777977
143	0x3e90b61d	0.2826394
144	0xbeb0a8dd	-0.34503832
145	0xbec8c29a	-0.3921097
146	0xbd3e70c1	-0.04649425
147	0x3c90f69d	0.01769572
148	0x3f0a5e39	0.5405002
149	0xbd44f006	-0.048080467
150	0xbe79cc13	-0.24394254
151	0x3f12710b	0.5720374
152	0x3aee2dea	0.0018171642
153	0xbd967f04	-0.07348445
154	0x3ed9c1f5	0.4253079
155	0xbeb37a19	-0.3505409
156	0xbe3b9615	-0.1831897
157	0xbf107a4a	-0.564366
158	0xbeeae4ae	-0.45877594
159	0xbecf3587	-0.40470526
160	0x3f30a22a	0.6899744
161	0x3b53388e	0.0032229754
162	0xbef0c343	-0.47023973
163	0x3e88747d	0.26651374
164	0x3ee1d7f4	0.44110072
165	0x3e594567	0.21217881
166	0x3e422899	0.189608
167	0xbf0688e5	-0.52552634
168	0xbeed6d65	-0.46372524
169	0xbec0a7f5	-0.3762814
170	0x3edc12de	0.42983145
171	0x3debc171	0.115115054
172	0x3f11b929	0.56923157
173	0x3ef229b1	0.47297433
174	0x3f03260d	0.51229936
175	0x3efaf6cf	0.49016425
176	0xbe99a4df	-0.300086
177	0x3f23ef36	0.6403688
178	0x3d478c87	0.048718
179	0x3e9ee632	0.31035
180	0xbd203b84	-0.03911926
181	0x3de07e8f	0.10961639
182	0xbf04df7d	-0.51903516
183	0x3dbdec0a	0.092735365
184	0xbf173ca5	-0.5907691
185	0x3f0a7af9	0.5409389
186	0xbe323f0d	-0.17406864
187	0xbd5111ad	-0.051042248
188	0x3dbf650d	0.09345446
189	0x3edff592	0.43742043
190	0xbe0a5ccd	-0.13511963
191	0xbf1428bb	-0.5787465
192	0xbd9bcef0	-0.076078296
193	0x3eccce5d	0.40001193
194	0x3eb86b77	0.3601949
195	0xbe21219a	-0.15735474
196	0xbdbdbdc7	-0.09264713
197	0xbe180a6e	-0.14847729
198	0x3e851cc5	0.25998512
199	0xbea91674	-0.33024943
200	0x3e0b6931	0.13614346
201	0xbddeb337	-0.10874026
202	0x3dc15b2e	0.09441219
203	0x3ef45218	0.47718883
204	0xbe9432a2	-0.2894488
205	0x3e39e328	0.1815306
206	0x3edd3215	0.43202272
207	0x3f088778	0.5333171
208	0xbe62a285	-0.22132309
209	0xbe2ed1b5	-0.17072184
210	0xbf0771c6	-0.5290798
211	0xbe455317	-0.19269978
212	0xbed59300	-0.41713715
213	0xbf066ebe	-0.5251273
214	0x3f15074a	0.5821425
215	0xbed7d89a	-0.4215744
216	0xbe7eed2a	-0.24895158
217	0xbe0713d4	-0.13191158
218	0xbefc2d31	-0.49253228
219	0xbebdd587	-0.3707697
220	0xbe83c3cc	-0.2573532
221	0x3ee44b72	0.4458881
222	0x3f11bb79	0.56926686
223	0xbebc5083	-0.36780176
224	0x3ea0b698	0.31389308
225	0xbe033ff2	-0.12817362
226	0x3d45d210	0.048296034
227	0x3f044da6	0.5168098
228	0xbe24f4c0	-0.1610899
229	0x3e3bfb4c	0.18357581
230	0x3eb2b7d3	0.34905872
231	0xbf10a8b9	-0.5650745
232	0x3f0c567d	0.5481947
233	0x3ef6a2af	0.48170993
234	0xbe67a957	-0.22623192
235	0xbe55e9ee	-0.20890018
236	0xbef8c9ba	-0.48591405
237	0xbdc5c3a1	-0.09656454
238	0xbe5a716d	-0.21332331
239	0xbe09af5e	-0.13445804
240	0xbea4c4b7	-0.32181332
241	0xbeafee68	-0.34361577
242	0xbe603caf	-0.21898149
243	0xbe42b4ab	-0.19014232
244	0xbe807b95	-0.25094286
245	0x3da97f0c	0.082761854
246	0x3e8f5b21	0.27999213
247	0x3e599192	0.21246937
248	0x3dcf855b	0.101328574
249	0x3d5bc801	0.053657535
250	0xbe75ba40	-0.2399683
251	0x3ef6c138	0.4819429
252	0x3e9caef2	0.30602223
253	0xbd00996d	-0.03139632
254	0xbec9b758	-0.39397693
255	0x3eb71f8d	0.3576626

net.0.bias f4 [256]
0	0xbe536461	-0.2064376
1	0xbcfcd0b6	-0.03086124
2	0xbef44a38	-0.47712874
3	0xbe68b224	-0.22724205
4	0x3e577313	0.21039991
5	0x3e5b060c	0.21389025
6	0xbeb75d9c	-0.35813606
7	0xbe0a7b94	-0.13523704
8	0x3e51141f	0.20417832
9	0x3e8bfa82	0.2733956
10	0x3e9e064b	0.30864176
11	0x3eeae556	0.45878094
12	0x3ca94da1	0.0206669
13	0x3e8c642f	0.27420184
14	0xbebbccd3	-0.36679706
15	0x3d215b00	0.039393425
16	0x3ebd1976	0.36933488
17	0xbe5a42ec	-0.21314591
18	0xbeab6c39	-0.33481005
19	0x3d751fb8	0.059844702
20	0xbea4ddea	-0.32200557
21	0x3e4e8023	0.20166068
22	0x3e186d5b	0.14885466
23	0x3e899fa4	0.2687961
24	0xbe9c255b	-0.3049725
25	0xbe3d6464	-0.18495327
26	0x3e0619e9	0.13095821
27	0x3ec5bc3a	0.38620168
28	0xbef99f4d	-0.4875435
29	0xbe751e17	-0.2393726
30	0xbe1f1018	-0.15533483
31	0x3eb78625	0.35844532
32	0x3e86c2fc	0.26320636
33	0xbe33af47	-0.17547332
34	0xbe80cdd9	-0.2515705
35	0x3eea72b8	0.45790648
36	0x3dd99f92	0.10626139
37	0x3d65bb7e	0.05608701
38	0xbee8a7a9	-0.45440415
39	0xbd6198a6	-0.055077218
40	0xbef3796d	-0.47553578
41	0xbf02fb8d	-0.51165086
42	0xbe204180	-0.15649986
43	0xbe9348b6	-0.28766412
44	0x3da7f2a2	0.082005754
45	0x3eecda1e	0.4626016
46	0x3d89a1bd	0.06720302
47	0xbe4ad567	-0.19807969
48	0xbe52d142	-0.20587638
49	0x3f03ae1d	0.5143755
50	0xbe81332b	-0.2523435
51	0xbe5e7957	-0.21725975
52	0xbed54a3c	-0.416582
53	0x3ed024a5	0.40652958
54	0xbf0df8a1	-0.554575
55	0x3e12dca3	0.14341979
56	0xbebd2c0d	-0.3694767
57	0xbe21855b	-0.15773527
58	0x3d27654f	0.0408681
59	0xbe9ec621	-0.31010535
60	0xbe15e3e0	-0.14637709
61	0xbeaad04b	-0.3336204
62	0xbb8d174c	-0.0043057557
63	0xbe31026a	-0.17286077
64	0x3ca4f258	0.02013509
65	0xbedad262	-0.42738634
66	0x3e3cdaef	0.18442892
67	0x3e8d03c9	0.2754195
68	0xbef1fc72	-0.47262913
69	0xbf08635f	-0.5327663
70	0x3ef6679f	0.48125932
71	0x3c7cde1e	0.015433816
72	0x3e873e63	0.26414785
73	0xbe29f11c	-0.16595882
74	0xbea40006	-0.32031268
75	0xbedb4406	-0.42825335
76	0xbecdc186	-0.4018671
77	0xbe028be7	-0.12748681
78	0x3f02446b	0.5088565
79	0x3e5f7099	0.21820296
80	0x3e8a5489	0.2701762
81	0xbe4b9b33	-0.19883423
82	0xbd8adb16	-0.067800686
83	0x3eda1fc8	0.42602372
84	0x3d140e25	0.0361463
85	0x3ecc6c08	0.3992617
86	0x3d43727f	0.047716614
87	0xbdfaadeb	-0.122402035
88	0x3eb29df3	0.3488613
89	0xbf0b56f0	-0.5442953
90	0x3efc1a29	0.4923871
91	0x3eb8efa6	0.36120337
92	0xbf0b4ba9	-0.54412323
93	0x3e1bbbbe	0.15208337
94	0xbce975e3	-0.028498596
95	0xbee301ec	-0.44337404
96	0xbee9d202	-0.45668036
97	0x3eeb32c6	0.45937175
98	0x3ee5437f	0.44778058
99	0xbe63b061	-0.22235252
100	0xbaf7d87c	-0.0018909122
101	0xbd5d3fbd	-0.054015864
102	0xbeb35d8a	-0.35032302
103	0x3e54de1f	0.20787857
104	0xbebd39aa	-0.36958057
105	0x3d5e1abc	0.054224715
106	0x3e664065	0.22485502
107	0xbe6095d2	-0.21932152
108	0xbf02f94e	-0.5116166
109	0xbe89f2e8	-0.26943135
110	0xbe2786c0	-0.16359997
111	0xbe685513	-0.22688703
112	0x3ec6bed5	0.38817468
113	0x3df4a590	0.11945641
114	0xbf08faf5	-0.5350793
115	0x3e007f6e	0.1254861
116	0xbe93763f	-0.28801152
117	0xbcadee9a	-0.021231938
118	0xbc017ca0	-0.007903248
119	0x3e02f8e2	0.12790254
120	0xbd816901	-0.06318856
121	0xbe9892a8	-0.2979939
122	0x3e1af9ee	0.15134403
123	0x3e4f906b	0.20269935
124	0x3d9ddb83	0.07707884
125	0x3e459609	0.19295515
126	0xbed4c9f1	-0.4156032
127	0x3eccc648	0.39995027
128	0xbc880575	-0.016604165
129	0x3ea7d8c2	0.3278256
130	0xbdd125b9	-0.10212273
131	0x3ed936b3	0.42424545
132	0x3b640491	0.003479276
133	0xbf0c5be6	-0.54827726
134	0x3da51cca	0.08062132
135	0x3ee1417d	0.43995276
136	0x3d83e53d	0.06440208
137	0xbe659c6a	-0.22422948
138	0x3e91b5e7	0.28459093
139	0xbc2044be	-0.009782014
140	0xbe843288	-0.25819802
141	0xbbdea81d	-0.006794943
142	0xbcf717ab	-0.030162653
143	0x3f06b1a0	0.52614784
144	0x3f03188d	0.51209337
145	0x3ea4f7b4	0.32220232
146	0xbcdb2594	-0.026751317
147	0x3d7814fd	0.06056689
148	0xbf1297e6	-0.5726303
149	0x3e255867	0.16147004
150	0x3eeb4ab8	0.45955443
151	0x3e84fa53	0.25972232
152	0x3dc0295e	0.0938289
153	0xbe52f2a3	-0.20600371
154	0xbebb51ff	-0.36585996
155	0x3eab207a	0.33423215
156	0x3e3fe542	0.18739799
157	0xbe32c8fa	-0.17459479
158	0x3cfc77c1	0.030818822
159	0x3e5f131b	0.21784632
160	0x3e84819c	0.25880134
161	0xbe422d15	-0.1896251
162	0x3e9fe16f	0.3122668
163	0xbee06718	-0.43828654
164	0xbf0d38d4	-0.5516484
165	0xbd7a0803	-0.061042797
166	0xbf081f5d	-0.53172857
167	0xbf0f6876	-0.5601877
168	0xbe1fdc52	-0.1561139
169	0x3ede9cb4	0.4347893
170	0xbf07ef9f	-0.5310001
171	0xbea291f4	-0.31751978
172	0xbf0f92bb	-0.5608327
173	0xbe4f1bc1	-0.20225431
174	0xbe7219f4	-0.23642713
175	0xbe97fccf	-0.29685065
176	0x3eec6d9a	0.4617737
177	0xbead8953	-0.33893833
178	0xbdc24389	-0.094855376
179	0x3eefe538	0.46854568
180	0xbdd09d4c	-0.10186252
181	0xbe47043b	-0.19435208
182	0x3f04adb2	0.5182754
183	0xbf02eb27	-0.51140064
184	0x3ce64aa6	0.028111767
185	0x3e1b63de	0.15174815
186	0x3ef4715d	0.4774274
187	0x3dfbd175	0.1229581
188	0xbe304c62	-0.17216638
189	0x3e5509f8	0.20804584
190	0x3efc6557	0.49296066
191	0xbeac868b	-0.33696398
192	0x3e759aa1	0.23984767
193	0x3d9667f2	0.07344045
194	0x3cfe1c94	0.031019486
195	0x3eb58f99	0.3546112
196	0xbe37ff1f	-0.17968415
197	0xbdb3ff68	-0.08788949
198	0x3f0954fe	0.5364531
199	0x3dd90297	0.10596197
200	0xbf0c2c66	-0.54755247
201	0xbe9939b3	-0.29926834
202	0xbf007f52	-0.50194275
203	0x3ebc113d	0.36731902
204	0xbe4c23e4	-0.19935566
205	0xbea60712	-0.3242727
206	0x3d74a82e	0.0597307
207	0x3e861d44	0.26194203
208	0xbe91b35f	-0.28457162
209	0xbd70cabb	-0.05878709
210	0xbd19fce4	-0.03759469
211	0xbcdec3b4	-0.027192928
212	0x3ee2a734	0.4426819
213	0xbe961587	-0.293133
214	0x3eddf1d7	0.43348572
215	0x3efb92e3	0.49135503
216	0x3e84e91b	0.25959095
217	0xbeb1a685	-0.34697357
218	0x3e5c75a0	0.21529245
219	0x3da774d2	0.081765786
220	0x3d88b425	0.06674985
221	0x3ec1e41b	0.37869343
222	0x3e2bbe10	0.16771722
223	0xbeca3254	-0.39491522
224	0x3e985604	0.29753125
225	0x3efe6385	0.49685302
226	0x3e2183bb	0.15772907
227	0xbefdb274	-0.4955021
228	0xbdd88642	-0.10572483
229	0xbd8d5746	-0.06901412
230	0x3e9a9c93	0.30197582
231	0xbe821785	-0.2540857
232	0x3ef6a57a	0.48173124
233	0x3d998758	0.07496518
234	0xbec7e472	-0.39041477
235	0xbea3ae1c	-0.31968772
236	0x3e9d4ca3	0.30722532
237	0xbf025d09	-0.5092321
238	0x3e9c9327	0.30581018
239	0x3de56adc	0.112020224
240	0xbeff80d3	-0.49902973
241	0x3dcf9cbe	0.10137318
242	0x3ed5c6da	0.41753274
243	0x3eab8365	0.33498684
244	0xbf07efc9	-0.5310026
245	0x3e7774d3	0.24165659
246	0x3e9e38c3	0.3090268
247	0x3ea9b42f	0.33145282
248	0xbc3aa3c5	-0.011391585
249	0x3e8fb9a0	0.28071308
250	0xbe261529	-0.1621901
251	0x3efca274	0.49342692
252	0x3ea5b38f	0.32363555
253	0xbe00d5d4	-0.12581569
254	0xbe0a9e0a	-0.1353685
255	0xbe014bcd	-0.12626572

net.2.weight f4 [256, 256]
0	0x3c72bd1b	0.014815594
1	0xbd125721	-0.035727624
2	0x3a9a607b	0.0011778021
3	0xbeb6ef62	-0.3572951
4	0xbc8d7b3f	-0.017270682
5	0xbd08281e	-0.033241384
6	0x3c99975d	0.018748933
7	0xbc8ab2f4	-0.016931035
8	0x3df50e22	0.11965586
9	0x3c23e8ba	0.010004217
10	0x3da48524	0.08033207
11	0xbd6df0c8	-0.058090955
12	0xbe1f71b5	-0.1557072
13	0xbf210760	-0.6290188
14	0xbcf9f360	-0.030511558
15	0xbe100c2e	-0.14067146
16	0xbe0235a0	-0.12715769
17	0x3db12356	0.08649318
18	0xbd1ecf4e	-0.03877192
19	0xbe84acdb	-0.25913128
20	0xbd06c7ca	-0.032905377
21	0xbde62137	-0.11236804
22	0xbe0a75ab	-0.1352145
23	0x3d7fa01f	0.062408563
24	0xbd7d8777	-0.061896767
25	0x3e2c4392	0.16822651
26	0xbdb0c80d	-0.08631907
27	0xbd8eda86	-0.06975274
28	0x3cc7aa58	0.024373218
29	0xbd38b932	-0.04509849
30	0xbccf01ca	-0.025269408
31	0xbd8d7e55	-0.069088615
32	0x3cb61fb5	0.022231916
33	0x3dc56295	0.09637944
34	0x3d8617c5	0.065475024
35	0x3d930d1e	0.07180236
36	0xbd6aaeb9	-0.057295535
37	0x3dfd09ef	0.1235541
38	0xbcf0339c	-0.029321484
39	0x3cff76ff	0.031184671
40	0xbd3d0bb8	-0.046153754
41	0x3ca2af24	0.019858904
42	0x3cd6b2a8	0.026208237
43	0x3d6da7a1	0.05802119
44	0x3d53b3a8	0.051685005
45	0xbcae4861	-0.021274747
46	0xbe252a36	-0.16129383
47	0x3d4100b6	0.04711982
48	0x3d7048b8	0.0586631
49	0xbcbb67a7	-0.022876574
50	0xbcf11aa4	-0.029431649
51	0x3d30a9d2	0.043130703
52	0x3d01c2a8	0.03167978
53	0x3d33327d	0.04374932
54	0xbd521b0c	-0.051295325
55	0xbc18c21a	-0.009323621
56	0x3b0c5500	0.0021412969
57	0x3ddd76c1	0.10813666
58	0x3d4328e4	0.04764642
59	0x3d83d3bf	0.06436872
60	0x3d374365	0.044742007
61	0xbeb8dffd	-0.3610839
62	0xbd6edca5	-0.05831589
63	0xbc7eef59	-0.015559995
64	0x3d880ce9	0.066430874
65	0xbd6024ea	-0.054722704
66	0xbd4ea478	-0.05044982
67	0xbd42197c	-0.047387585
68	0xbc8e40f8	-0.017364964
69	0xbd0624f4	-0.032750085
70	0xbe4b3186	-0.1984311
71	0x3c2adc8e	0.010428561
72	0x3d292ee2	0.041304477
73	0xbc6247c8	-0.013811059
74	0xbda24702	-0.079237
75	0xbcc8ba00	-0.024502754
76	0x3bae2ba0	0.005315259
77	0x3cfd3276	0.03090785
78	0xbd9e91b3	-0.07742634
79	0xbca47245	-0.02007402
80	0xbea2203c	-0.31665218
81	0xbd4199a2	-0.047265656
82	0xbc73148e	-0.014836444
83	0x3d2c0f29	0.042006645
84	0x3d51d390	0.051227152
85	0x3c37c717	0.0112169
86	0x3c530b17	0.012881062
87	0xbd010a9d	-0.031504262
88	0x3c9bf4f3	0.0190377
89	0x3c1129d0	0.0088600665
90	0xbcdd90c5	-0.02704657
91	0x3d7b46cb	0.06134681
92	0xba6e7400	-0.0009096265
93	0x3db32059	0.08746404
94	0x3dd0ecc3	0.10201409
95	0xbbef8c06	-0.0073103933
96	0x3d7c5f1e	0.06161415
97	0xbd151c07	-0.036403682
98	0x3d99fe5d	0.07519219
99	0x3c94a6b4	0.018145896
100	0x3c8a6ab4	0.016896583
101	0x3e1f3418	0.15547216
102	0x3d2c3900	0.042046547
103	0xbd84183d	-0.064499356
104	0x3c33b4f2	0.010968434
105	0x3d5c211a	0.053742506
106	0xbd0b9b36	-0.034083568
107	0x3d09632a	0.033541836
108	0xbc2e7bb0	-0.010649607
109	0x3d3e2880	0.046425343
110	0xbc8b5d1c	-0.017012171
111	0x3a2dd53e	0.0006631202
112	0x3d437794	0.04772146
113	0xbeda8ba3	-0.4268466
114	0x3d58e156	0.052949272
115	0xbd46b9db	-0.04851709
116	0x3d09a696	0.033606134
117	0xbe69b633	-0.2282341
118	0xbc937317	-0.017999215
119	0x3d0387e3	0.032112014
120	0xbcde6c53	-0.027151262
121	0x3d5973dc	0.053089008
122	0x3e2dac50	0.16960263
123	0xbd579a1b	-0.0526372
124	0xbd3ff2eb	-0.046862524
125	0x3e027577	0.12740122
126	0x3cc1442c	0.023592077
127	0x3c1acedf	0.009448736
128	0x3d694de0	0.056959033
129	0x3d8a66f0	0.06757915
130	0xbc65e8f3	-0.01403259
131	0x3c4bf688	0.012448914
132	0xbf01ff1a	-0.5077988
133	0xbd260452	-0.040531464
134	0xbd364b73	-0.044505548
135	0xbd41b31a	-0.047289945
136	0xbd4505c0	-0.048101187
137	0x3d8cd8f5	0.06877319
138	0xbf178892	-0.59192765
139	0x3c088fb2	0.008335041
140	0x3e43fef0	0.1914022
141	0x3dc5a489	0.09650523
142	0x3d9e4c43	0.077293895
143	0x3c922ba2	0.017843071
144	0xbc85b770	-0.016322821
145	0x3d62a0cb	0.055329125
146	0xbcd915d5	-0.026499668
147	0x3d8b844c	0.06812343
148	0x3d6d224c	0.057894036
149	0x3ca31429	0.019907074
150	0x3d303f5a	0.043029167
151	0xbdad6b52	-0.08467735
152	0x3d9edc58	0.07756871
153	0x3cd9244f	0.026506571
154	0xbcfd5050	-0.030922085
155	0x3d7a074b	0.06104211
156	0xbb1cba5d	-0.0023914792
157	0x3d2a7adb	0.04162107
158	0x3dcfad63	0.10140493
159	0xbd9ffde9	-0.078121014
160	0xbd8ef670	-0.06980598
161	0x3d76b750	0.060233414
162	0xbcae129c	-0.021249108
163	0x3d8831d7	0.06650131
164	0xbd33a459	-0.043857906
165	0x3d4ca615	0.049963076
166	0xbc545230	-0.012959048
167	0xbb6a3eb7	-0.0035742947
168	0x3d8205ca	0.063487604
169	0x3cf04563	0.029329961
170	0xbcb2253c	-0.02174627
171	0xbc6c0db3	-0.014407563
172	0x3da0fba4	0.07860497
173	0x3ca6242c	0.02028092
174	0xbc9bb8c8	-0.019009009
175	0x3d719e5b	0.05898891
176	0x3d3bc04e	0.045837693
177	0xbc707d08	-0.014678247
178	0xbcc58601	-0.02411175
179	0xbcf67168	-0.030083373
180	0x3c6bca88	0.014391549
181	0x3e040c86	0.12895402
182	0x3cad0385	0.021119842
183	0xbb54a954	-0.003244956
184	0xbc89d9f1	-0.016827555
185	0x3d1bda7f	0.03805017
186	0xbea30f64	-0.3184768
187	0xbcf3b269	-0.029748159
188	0x3d9ff585	0.07810501
189	0xbc681823	-0.014165911
190	0x3d8558d0	0.0651108
191	0x3cba6b37	0.022756202
192	0xbcb4922d	-0.022042358
193	0x3dc8f0f6	0.09811585
194	0xbd18a4bc	-0.037266478
195	0xbe00bc7e	-0.12571904
196	0x3c531648	0.01288373
197	0x3cb0c760	0.021579444
198	0x3b50ae36	0.003184212
199	0xbf09575f	-0.5364894
200	0xbc7038a0	-0.014661938
201	0x3d5795ea	0.052633204
202	0xbd21f5e1	-0.03954113
203	0x3e1a3234	0.15058213
204	0xbc1f2f4b	-0.009715865
205	0x3d2eeb29	0.042704735
206	0xbcfcf945	-0.03088058
207	0x3e30ada5	0.1725374
208	0xbbe11de0	-0.0068700165
209	0xbf0443ca	-0.5166594
210	0x3d965ab1	0.07341517
211	0xbc06758f	-0.008206739
212	0x3d8dd3ab	0.06925138
213	0x3d92f3e3	0.07175424
214	0x3c88a565	0.016680429
215	0x3db03ef5	0.08605758
216	0xbf0b341c	-0.5437639
217	0xbd0995b2	-0.033590026
218	0xbd3200fe	-0.043457977
219	0xbe1a76f8	-0.15084445
220	0x3d2fe2ce	0.042940907
221	0xbd7a4224	-0.061098233
222	0xbd32c8c1	-0.043648485
223	0xbc6cf378	-0.014462344
224	0x3c1fbb1a	0.009749198
225	0xbcededd3	-0.029044067
226	0x3c42eeba	0.011897737
227	0xbb9a0bee	-0.004701129
228	0x3d8b9d84	0.06817153
229	0x3d51c846	0.051216386
230	0xbc0b4f19	-0.008502745
231	0xbf022a95	-0.50846225
232	0x3cdf3e6d	0.027251447
233	0x3e02a692	0.12758854
234	0xbcbe0d78	-0.023199782
235	0xbebedf2f	-0.3727965
236	0xbf6ba302	-0.92045605
237	0x3d8456b1	0.064618476
238	0x3af15035	0.0018410744
239	0xbd33fc24	-0.043941632
240	0x3cdf684e	0.027271416
241	0xbba256bf	-0.0049541886
242	0xbc12466a	-0.008927921
243	0xbc6a5b3a	-0.014303977
244	0x3d9a8fc3	0.075469516
245	0x3d91e77f	0.071242325
246	0xbd191f81	-0.03738356
247	0xbe2e9722	-0.1704984
248	0x3d8ba748	0.06819016
249	0x3dbb619f	0.09149479
250	0x3d9ccf66	0.076567456
251	0x3cca1f7b	0.024673214
252	0x3d71870e	0.05896669
253	0x3e094dbc	0.1340856
254	0xbc99112c	-0.018684946
255	0x3c8dea4b	0.017323634

net.2.bias f4 [256]
0	0xbd699972	-0.057031102
1	0x3d3fb096	0.046799265
2	0x3d6a371d	0.057181466
3	0x3d152911	0.036416117
4	0xbcedb750	-0.029018074
5	0x3d6ebeee	0.058287553
6	0xbd4990b5	-0.04921027
7	0x38cc1110	9.730656e-05
8	0xbcb5e11a	-0.022202063
9	0xbc01f4fa	-0.007931942
10	0x3b8550c3	0.0040684654
11	0x3b1bb60f	0.0023759638
12	0x3ca31950	0.01990953
13	0xbd1ca0ba	-0.03823922
14	0x3c964c50	0.018346936
15	0x3bde72e7	0.0067886
16	0xbd3598cd	-0.044335175
17	0x3c2c5bcc	0.010519933
18	0xbd3357e0	-0.043784976
19	0x3cef84f8	0.02923821
20	0x3a20f080	0.0006139353
21	0xbcd26a1f	-0.025685368
22	0xbcc2cda8	-0.023779705
23	0xbd0bcd41	-0.034131292
24	0x3d12cf73	0.03584237
25	0x3d3f0d9b	0.046643835
26	0xbcb0bd15	-0.021574536
27	0xbc498fef	-0.012302383
28	0x3b373a26	0.0027958243
29	0xbd646ed0	-0.05576974
30	0xbcec5fa3	-0.028854197
31	0xbd55f624	-0.05223669
32	0xb9ddc840	-0.00042301603
33	0x3d5ebc3b	0.05437873
34	0x3d9dd71d	0.07707045
35	0xbcf2bd26	-0.029631209
36	0xbcbfd439	-0.023416625
37	0xba768d2b	-0.0009405191
38	0xbd1a97b1	-0.03774232
39	0xbce27b93	-0.027646815
40	0x3cbc0811	0.022953065
41	0xbd828f66	-0.06375007
42	0x3d1eb325	0.038745064
43	0x3cb616e8	0.02222772
44	0xbc752488	-0.014962323
45	0x3d70ce14	0.05879028
46	0x3d740449	0.0595744
47	0x3d3f7e2c	0.046751186
48	0x3d1b608e	0.03793388
49	0x3d62641d	0.055271257
50	0x3cc9875c	0.024600677
51	0xb9bdb900	-0.00036186725
52	0x3d0ad42b	0.033893745
53	0xbc8789ef	-0.016545264
54	0x3d091a19	0.033472154
55	0xbcbbe084	-0.022934206
56	0xbbc7ac32	-0.0060935253
57	0xbd455cd1	-0.04818422
58	0xbcab5504	-0.020914562
59	0x3cd6e2f6	0.02623127
60	0xbc9b3f78	-0.018951163
61	0x3c6b8789	0.014375576
62	0xbd1dafb7	-0.038497653
63	0xbd8d21ef	-0.06891238
64	0xbd7230c4	-0.059128538
65	0x3c5eb319	0.013592505
66	0x3d00714a	0.03135804
67	0xbd32cb3c	-0.04365085
68	0xbbba20b5	-0.0056801685
69	0xbd08c55a	-0.033391334
70	0x3ca77411	0.020441087
71	0x3cc73939	0.024319278
72	0xbc63faa4	-0.013914738
73	0xbd65071a	-0.055914976
74	0xbc0a0b5c	-0.00842556
75	0x3d409c34	0.047023967
76	0xbd043444	-0.032276407
77	0x3c622852	0.013803558
78	0xbce790fe	-0.02826738
79	0x3aebd256	0.0017991762
80	0xbd3d634a	-0.046237268
81	0xbd511e26	-0.051054142
82	0xbd4a6890	-0.049416125
83	0xbd0698a1	-0.032860402
84	0x3c06b3ec	0.008221608
85	0x3c03c674	0.00804292
86	0x3d5b0e42	0.053480394
87	0x3d86516d	0.065584995
88	0x3d737995	0.05944212
89	0x3d370cfa	0.04469011
90	0x3d3c7867	0.046013262
91	0x3dad0719	0.084486194
92	0xbc460280	-0.012085557
93	0xbcca0471	-0.024660321
94	0x3c8d4a06	0.017247211
95	0xba2e6a00	-0.00066533685
96	0xbcf29293	-0.029610908
97	0x3c6327b6	0.013864448
98	0xbd3c1761	-0.045920733
99	0x3bba71d7	0.0056898403
100	0xbc57d1d4	-0.0131725855
101	0x3c4ed7e8	0.012624718
102	0x3d4c9ee2	0.04995621
103	0x3cb3d843	0.021953708
104	0x3d7bf77d	0.06151532
105	0xbd246853	-0.040138554
106	0xbd60217b	-0.05471943
107	0x3d4787eb	0.048713606
108	0xbcda1838	-0.026622877
109	0x3c5a9ae0	0.013342589
110	0x3ca389b0	0.019963115
111	0x3be04f57	0.0068453955
112	0x3d3d35a8	0.04619375
113	0xbaea8c40	-0.0017894581
114	0x3c97e56d	0.018542016
115	0x3d4a725c	0.049425468
116	0x3d4cc9eb	0.04999725
117	0xbd76da43	-0.060266744
118	0xbd366326	-0.04452815
119	0xbd3b0862	-0.04566229
120	0xbd81b278	-0.06332868
121	0x3c1ac2dc	0.009445872
122	0xbd8b6a09	-0.06807334
123	0x3d39c15c	0.045350417
124	0x3d4f4f7a	0.050612904
125	0xbbd5a890	-0.0065203384
126	0xbcb20af3	-0.021733737
127	0xbca94acd	-0.02066555
128	0x3ccd6ae0	0.025075376
129	0xbc479cd8	-0.012183391
130	0xbd131aa8	-0.035914093
131	0xbc28e082	-0.010307433
132	0x3d7ea018	0.062164396
133	0xbadb6f40	-0.0016741529
134	0x3d0b8552	0.03406269
135	0x3d229594	0.03969343
136	0x3d5b497a	0.05353687
137	0xbd2ed4a8	-0.042683274
138	0xbcd70e2d	-0.026251877
139	0x3d0d10f1	0.034439985
140	0xbda39fde	-0.079894766
141	0x3c879b55	0.01655356
142	0x3c2707d8	0.010194741
143	0xbb8dd2a8	-0.0043280907
144	0x3d610ffc	0.054946885
145	0x3b0b0796	0.0021214238
146	0xbbf07e3a	-0.007339266
147	0x3d6d8a29	0.057993088
148	0x3d2e7848	0.042595178
149	0xbd54e7a9	-0.05197874
150	0xbc14ad12	-0.009074466
151	0x3b870d71	0.0041214754
152	0xbd85da54	-0.065357834
153	0x3be24feb	0.0069064996
154	0xb8d1b400	-9.999424e-05
155	0x3d1f0a4d	0.038828183
156	0x3cecb413	0.02889446
157	0x3cbb98cc	0.022900008
158	0xbba4d500	-0.0050302744
159	0xbd3b8b45	-0.045787115
160	0x3a5cb939	0.00084199343
161	0x3d5b1099	0.053482626
162	0x3d0fb354	0.03508313
163	0xbd53a9ed	-0.051675726
164	0x3d6a951c	0.057271108
165	0xbc73ea48	-0.0148874
166	0x3d2a7703	0.041617405
167	0xbc9d50b4	-0.019203521
168	0xbb2366e0	-0.0024933144
169	0x3d6c877e	0.057746403
170	0x3c010881	0.007875563
171	0xbbb205fc	-0.0054328423
172	0x3d9890e6	0.07449512
173	0xbaa53d0d	-0.0012606696
174	0xba12bf4f	-0.0005597965
175	0xbcf54433	-0.029939746
176	0xbd13e666	-0.036108397
177	0xbd0f14db	-0.034932
178	0xbd56a173	-0.052400064
179	0xbcffe2d7	-0.031236095
180	0xbc8bac2c	-0.017049871
181	0xbcc2f4ad	-0.023798311
182	0xbd67b1dd	-0.056566108
183	0xbd6c80f8	-0.05774018
184	0xbb0779a8	-0.0020671878
185	0x3d559026	0.052139424
186	0x3d4a6f69	0.049422655
187	0xbca4aa0d	-0.020100618
188	0x3cba5844	0.022747166
189	0xbd1c24bb	-0.038120966
190	0x3af05980	0.001833722
191	0xbca50112	-0.020142112
192	0xbd30a519	-0.0431262
193	0xbd23071c	-0.039801702
194	0xbc9758ce	-0.018474963
195	0x3d08bc58	0.033382744
196	0xbce3fd90	-0.027830869
197	0xbaec2600	-0.0018016696
198	0x3d6cac1f	0.057781335
199	0xbc887b20	-0.016660273
200	0x3b8f54f5	0.0043741413
201	0xbd13f35c	-0.036120757
202	0x3d5a7c86	0.05334141
203	0xbd95680e	-0.072952375
204	0xbd1d2cdf	-0.03837287
205	0xbc4e6388	-0.012596972
206	0x3da66bcd	0.0812603
207	0xbbd391f4	-0.006456608
208	0xbcbc0c59	-0.022955107
209	0xbcd2f5ac	-0.025751911
210	0xbb1265ef	-0.002233859
211	0x3c0f0544	0.008729283
212	0x3cb94597	0.02261619
213	0x3cee36f9	0.029078947
214	0xbada2c00	-0.0016645193
215	0x3cb48ec7	0.022040738
216	0x3d78b4c4	0.060719267
217	0xbc959007	-0.018257154
218	0x3cd75eeb	0.026290378
219	0xbd02a07e	-0.03189134
220	0xbd81e1db	-0.06341907
221	0xbceb150c	-0.02869656
222	0x3d001cf8	0.031277627
223	0x3d1580a7	0.036499646
224	0x3c52118f	0.012821569
225	0xbd3fd9eb	-0.046838682
226	0x3b8796e0	0.0041378587
227	0x3cd40c68	0.025884822
228	0x3d511d92	0.05105359
229	0x3d55fe69	0.052244578
230	0xbd3bb968	-0.045831114
231	0x3d500e12	0.05079467
232	0xbd542ca4	-0.051800385
233	0xbd5b262b	-0.053503197
234	0xbce8c255	-0.028412977
235	0xbb3fa9b0	-0.0029245429
236	0xbd3fdaea	-0.046839632
237	0x3d4f1f56	0.050566994
238	0x3c5a0245	0.013306205
239	0xbc4aef68	-0.01238618
240	0xbbd93797	-0.0066289413
241	0xbc842bb6	-0.016134124
242	0xbd69b2dc	-0.05705534
243	0x3bbcc974	0.00576132
244	0xbd0d4128	-0.034485966
245	0x3d4e1e78	0.050322026
246	0xbc48366d	-0.012220007
247	0xbc2f2e7a	-0.010692233
248	0xbd362346	-0.044467233
249	0x3c8fd418	0.017557189
250	0xbd137c90	-0.036007464
251	0x3d3c369e	0.045950525
252	0x3cbfa622	0.023394648
253	0xbd097eb2	-0.03356809
254	0x3d1e7e4b	0.03869466
255	0x3d927d40	0.07152796

net.4.weight f4 [256, 256]
0	0xbd79a50a	-0.06094841
1	0x3c8e1460	0.0173437
2	0xbd8038a3	-0.062608026
3	0x3a9263dc	0.0011168676
4	0x3c880eda	0.016608644
5	0xbc04bdea	-0.00810192
6	0xbd0dfd1e	-0.03466522
7	0xbc968490	-0.018373758
8	0xbd6a75b2	-0.05724115
9	0xba872700	-0.0010311306
10	0xbc7ef110	-0.0155604035
11	0xbd594772	-0.05304665
12	0xbd5eaba4	-0.054362908
13	0xbd0af152	-0.033921547
14	0xbd77c1cd	-0.060487557
15	0xbc14aa50	-0.009073809
16	0xbd5ec6d6	-0.054388843
17	0x3d1d10c6	0.038346075
18	0xbc3dfdf0	-0.011596188
19	0xbd2915f0	-0.041280687
20	0xbcb6b3e8	-0.022302583
21	0xbc0a09b0	-0.008425161
22	0x3ceee7e0	0.029163301
23	0xbb02d620	-0.0019964054
24	0xbd06ced2	-0.032912083
25	0x3c4eb698	0.012616776
26	0x3c8e0d80	0.017340422
27	0xbcb1e820	-0.021717131
28	0x3c863e34	0.016387083
29	0x3d273e9a	0.040831186
30	0xbb101e20	-0.0021990612
31	0xbd6a5c96	-0.057217203
32	0xbd4a7a80	-0.04943323
33	0x3cfba7c0	0.030719638
34	0xbce9d967	-0.028546048
35	0xbcbfcd24	-0.023413248
36	0x3b784b00	0.00378865
37	0x3d13c606	0.03607752
38	0xbd6ef1c0	-0.05833602
39	0xbd541ae0	-0.051783442
40	0x3d162b9a	0.036662675
41	0xbd284cf8	-0.041089028
42	0xbd0aabfc	-0.033855423
43	0xbc49de30	-0.01232104
44	0xbd1ce4b2	-0.03830404
45	0x3d5d4862	0.054024108
46	0xbc6d2a22	-0.014475377
47	0xbbde7210	-0.0067884997
48	0xbd2070cc	-0.03917007
49	0x3bcadb50	0.006190695
50	0x3d300fe1	0.042983893
51	0xbc917f08	-0.017760769
52	0x3d6d350c	0.057911918
53	0xbc3728c8	-0.011179157
54	0xbd3fc948	-0.046822816
55	0x3cd213d4	0.02564422
56	0xbc9978fc	-0.018734448
57	0xbcaf18fc	-0.021374218
58	0x3c3c9428	0.011509933
59	0x3c291a14	0.010321159
60	0x3c234360	0.009964794
61	0x3bb56410	0.00553561
62	0x3b424600	0.0029643774
63	0xbc7ca978	-0.015421264
64	0xbae61100	-0.0017552674
65	0x3cca4a24	0.024693556
66	0xbcc3a790	-0.023883611
67	0x3cee31b4	0.029076435
68	0xbc70bb28	-0.014693059
69	0xbd6fd336	-0.058551036
70	0x3d31cbee	0.043407373
71	0x3bcb84d0	0.006210901
72	0xbd6fabd0	-0.058513463
73	0xbd73cff0	-0.059524477
74	0x3a9d4300	0.0011998117
75	0xb978cc00	-0.00023727119
76	0xbd7dadca	-0.061933316
77	0xbb83faa0	-0.0040276796
78	0x3ccc2984	0.02492214
79	0xbbb796f0	-0.00560271
80	0xbd497f02	-0.04919339
81	0x3d465334	0.048419192
82	0xbc9964cc	-0.018724822
83	0x3d012d5c	0.0315374
84	0xbb1e6740	-0.0024170429
85	0xbd48d4bc	-0.049031004
86	0x3d151c34	0.03640385
87	0xbd0eaa76	-0.034830533
88	0xbd10fd7a	-0.035397984
89	0xbd61ac9c	-0.055096254
90	0xbc471f48	-0.012153454
91	0xbd09d0af	-0.03364628
92	0xbd566bc8	-0.052348882
93	0xbd5f62c4	-0.05453755
94	0x3d428aae	0.047495537
95	0xbb6e2a00	-0.0036340952
96	0x3c9a0964	0.018803306
97	0xbc3fd7d4	-0.011709172
98	0x3d5973bc	0.05308889
99	0x3ccce5d0	0.025011927
100	0x3c8af2f8	0.01696156
101	0x3b43fd40	0.0029905587
102	0x3d2050f6	0.03913971
103	0xbcc730dc	-0.02431529
104	0xbd0eda37	-0.034876075
105	0xbc843038	-0.016136274
106	0xbd38019e	-0.044923417
107	0x3c172c32	0.009226846
108	0x3d01f02e	0.031723194
109	0x3d46f925	0.048577446
110	0x3cba3307	0.02272941
111	0xbc474b68	-0.012163974
112	0xbcb60d20	-0.022223055
113	0x3d612152	0.054963417
114	0xbcda1584	-0.026621588
115	0xbd2e9e08	-0.04263118
116	0xbd71e71f	-0.059058305
117	0xbcdc6159	-0.026901888
118	0xbd7feaa8	-0.062479645
119	0x3c925927	0.017864777
120	0x3c7426a0	0.014901787
121	0x3d0aa676	0.033850156
122	0xbd5e39ce	-0.054254346
123	0xbd4b29f7	-0.049600568
124	0xbc377e38	-0.0111995265
125	0xbd2f4860	-0.04279363
126	0x3c250758	0.010072552
127	0x3c9d81c4	0.019226916
128	0xbcf1a00c	-0.029495262
129	0xbce14cfc	-0.02750253
130	0xbc8c0190	-0.017090589
131	0xbd78b49c	-0.060719118
132	0x3b4190e0	0.0029535815
133	0xbc49b268	-0.012310602
134	0xbd14c4d2	-0.036320515
135	0x3d481206	0.048845313
136	0xbd549cc7	-0.051907327
137	0x3c450928	0.012026109
138	0x3d5d7122	0.05406297
139	0x3a013a00	0.0004929602
140	0xbc99a130	-0.018753618
141	0x3c064a50	0.008196428
142	0x3d6be39a	0.057590105
143	0x3ca95349	0.020669596
144	0xbb386480	-0.0028136075
145	0x3a9dee19	0.0012049108
146	0xbd4655ac	-0.048421547
147	0x3acb7b80	0.0015524477
148	0x3d799208	0.060930282
149	0x3ae04fc0	0.0017113611
150	0xbd1303a8	-0.03589216
151	0xbc9afc58	-0.018919155
152	0xbd1161fc	-0.035493836
153	0x3cafc9f8	0.02145861
154	0xbd419aea	-0.04726688
155	0xbd0cb26a	-0.034349836
156	0x3b4b4fc0	0.0031022877
157	0xbd05ba46	-0.032648347
158	0xbd1a461e	-0.037664525
159	0xbd588b52	-0.05286724
160	0xbd2b1f2a	-0.041777767
161	0x3c1b1f98	0.009467982
162	0x3c9d0c8c	0.019171022
163	0x3d09d930	0.03365439
164	0xbc154610	-0.0091109425
165	0xbb25b920	-0.0025287345
166	0x3d35088e	0.04419761
167	0xbc314ca0	-0.0108214915
168	0xbd0941b0	-0.03350991
169	0x3b732fa0	0.0037107244
170	0xbbc56f60	-0.00602524
171	0x3ca405c4	0.02002228
172	0xbcd4c6b4	-0.025973655
173	0xbd2dee22	-0.04246343
174	0xbb127820	-0.0022349432
175	0x3d46f262	0.048570998
176	0xbcdbb7dc	-0.02682107
177	0xbc23879b	-0.009981061
178	0xbd8b2ea0	-0.067960024
179	0x3d6dc304	0.05804731
180	0x3cdf26d8	0.027240202
181	0xbd3a76b8	-0.045523375
182	0x3c1a0c70	0.009402379
183	0xbd2fd4f2	-0.04292769
184	0xbcad8aa5	-0.021184275
185	0x3c8d60e8	0.017258123
186	0x3d57e4ae	0.05270832
187	0x3c1ed2d8	0.009693824
188	0x3d0e604a	0.034759797
189	0x3cb237dc	0.021755151
190	0xbcd66870	-0.026172847
191	0x3d2b9f8a	0.041900195
192	0xbcf237ac	-0.029567562
193	0x3c8b0da0	0.01697427
194	0xbd06effa	-0.032943703
195	0x3d2884b4	0.04114218
196	0x3d676482	0.056492336
197	0x3cc9edac	0.024649464
198	0xbd5b4763	-0.053534877
199	0x3d401626	0.046896122
200	0xbd68074e	-0.05664759
201	0x3cb71524	0.022348948
202	0xbd7b1256	-0.061296783
203	0xbd4c8084	-0.04992725
204	0x3d257a18	0.04039964
205	0xbc7818f0	-0.015142664
206	0x3ccb6318	0.024827525
207	0x3d081384	0.033221737
208	0x3b2e97bb	0.0026640731
209	0xbc08fbc0	-0.008360803
210	0xbd68c1b2	-0.056825347
211	0xbd553c28	-0.052059323
212	0xbc893150	-0.016747147
213	0xbcc7a67c	-0.024371378
214	0xbd01c966	-0.03168621
215	0xba94a640	-0.001134105
216	0xbc845b30	-0.016156763
217	0xbca8db78	-0.020612463
218	0x3d0053cc	0.031329915
219	0xbd2e7524	-0.042592183
220	0xbc7f9468	-0.015599348
221	0x3ced241c	0.028947882
222	0xbd107014	-0.035263136
223	0xbd5f5682	-0.05452586
224	0x3cbddc52	0.023176346
225	0xbd3cfe94	-0.046141222
226	0x3c884bd4	0.01663772
227	0xbd621d78	-0.055203885
228	0xbbda57e0	-0.0066633075
229	0x3c6be3d8	0.014397584
230	0x3bf1c2b0	0.007377945
231	0xbd663078	-0.056198567
232	0xbd09e104	-0.033661857
233	0xbd7d88ea	-0.06189815
234	0xbc9db038	-0.019249067
235	0xbcbc609c	-0.022995286
236	0x3d0d0c00	0.034435272
237	0x3d3317d6	0.043723904
238	0xbceaa9e4	-0.028645463
239	0x3d2a95c8	0.04164675
240	0x3c43c980	0.011949897
241	0xbd540961	-0.051766757
242	0xbd7d1c92	-0.061794825
243	0x3c6fbfc0	0.014633119
244	0x3bb45e60	0.0055044144
245	0xbcc84570	-0.024447173
246	0xb9507c00	-0.0001988262
247	0xbcc43d00	-0.023954868
248	0x3d24bba2	0.040218003
249	0x3d5978a9	0.053093586
250	0xbc4eda00	-0.012625217
251	0xbcde85b9	-0.027163373
252	0x3cf89268	0.03034325
253	0x3bfa5bc0	0.007640332
254	0xbc48b8c0	-0.012251079
255	0x3b8ba8a2	0.004262046

net.4.bias f4 [256]
0	0x3c31878a	0.010835538
1	0xbd06cf7c	-0.032912716
2	0x3bba73f6	0.005690093
3	0x3d50a262	0.05093611
4	0x3d0d2e40	0.034467936
5	0x3dc3c847	0.09559684
6	0x3c046cc8	0.008082576
7	0x3cb75ab8	0.022382125
8	0xbd703f20	-0.05865395
9	0xbd822e76	-0.06356518
10	0x3d03f7c2	0.032218702
11	0xbb2d018e	-0.0026398632
12	0x3dc5a654	0.09650865
13	0xbabde55e	-0.0014487912
14	0xbbdfa6eb	-0.006825318
15	0xbd94338a	-0.07236393
16	0xbcea7038	-0.028617963
17	0x3bd81d74	0.006595308
18	0x3d0b227e	0.03396844
19	0x3cb2404c	0.021759175
20	0xbafaab91	-0.0019124617
21	0xbcb1318a	-0.021630067
22	0xbc9a1efa	-0.018813599
23	0x3d5b90d0	0.0536049
24	0x3b28ad32	0.0025737998
25	0xbab0303e	-0.0013442112
26	0x3d8264a8	0.06366855
27	0xbcc18068	-0.0236208
28	0x3d8de14c	0.069277376
29	0xbc95079a	-0.018192101
30	0xbd4dbba8	-0.05022779
31	0x3d40e34b	0.047091763
32	0x3ca93015	0.02065281
33	0xbd6536c1	-0.05596042
34	0xbc1b5e51	-0.009482936
35	0x3d47dfa7	0.048797276
36	0x3c380e85	0.0112339305
37	0xbd529eab	-0.05142085
38	0xbcf679cd	-0.030087376
39	0x3d03a81d	0.032142747
40	0x3cfa7200	0.030571938
41	0xbd4f04d6	-0.05054172
42	0xbc0159ea	-0.007894972
43	0xbb646b2f	-0.0034853925
44	0xbd32c222	-0.04364217
45	0x3d7943b8	0.060855597
46	0x3d03e6a8	0.032202393
47	0x3b8fd514	0.0043894146
48	0xbcef5ff7	-0.029220564
49	0x3d1330ce	0.035935216
50	0xbd140f6d	-0.036147524
51	0x3cd9fe08	0.02661039
52	0xbd95f6ac	-0.073224396
53	0x3c39d07f	0.011341213
54	0xbca3d6b4	-0.01999984
55	0x3d90afd8	0.070647895
56	0xbd0522fc	-0.032504067
57	0x3c383d16	0.011245033
58	0xbd6cec31	-0.057842437
59	0xbd2a53fb	-0.041583996
60	0xbd125828	-0.035728604
61	0xbcd819e3	-0.026379531
62	0xbd99a5c8	-0.075023234
63	0x3ccdc85e	0.025119957
64	0x3c194565	0.009354924
65	0xbbda9211	-0.0066702445
66	0x3c2512e5	0.010075306
67	0x3ddec9bc	0.108783215
68	0xbd617dd3	-0.055051636
69	0x3d1de1eb	0.03854553
70	0xbcac469d	-0.021029765
71	0xbd398dd5	-0.045301277
72	0x3d653828	0.055961758
73	0xbd30be7a	-0.043150403
74	0x3aa41e38	0.0012521213
75	0xbc9f6238	-0.019456014
76	0x3d0bf783	0.034171592
77	0x3c92c089	0.017914074
78	0xbd0501f7	-0.032472577
79	0x3afb1833	0.0019156992
80	0x3d22ae28	0.03971687
81	0x3d3a659e	0.045507066
82	0x3cdf2e75	0.027243832
83	0x3d337ab4	0.04381819
84	0xbd6377c8	-0.055534154
85	0x3ce97f30	0.02850303
86	0x3d01a6b4	0.03165312
87	0x3d9c18cb	0.076219164
88	0xbd6036d7	-0.0547398
89	0xbd82da96	-0.06389348
90	0xbd18e58f	-0.0373283
91	0xbd1791b4	-0.037004188
92	0x3c1bd7eb	0.009511928
93	0x3c7703b2	0.015076565
94	0xbc3cab6d	-0.0115154805
95	0x3d7f2337	0.062289443
96	0x3c3a7d47	0.0113824075
97	0x3ce2e87d	0.02769875
98	0x3cd01a5c	0.025403194
99	0xbc6b4836	-0.014360478
100	0xbbec5d61	-0.00721328
101	0x3ca5acf2	0.020224068
102	0xbce1307a	-0.027488936
103	0x3d94134b	0.07230242
104	0x3cc11840	0.023571134
105	0xbc39aba0	-0.0113324225
106	0x3da036cb	0.07822951
107	0xbda6908b	-0.08133038
108	0x3ce7bfa8	0.028289631
109	0x3dae0b29	0.084982224
110	0xbcdcb2f7	-0.026940806
111	0xbd7bd5a2	-0.061483033
112	0x3cac8055	0.021057287
113	0x3d99395f	0.07481646
114	0x3c02a378	0.007973544
115	0x3d3b86e6	0.045782946
116	0x3db3ef84	0.08785918
117	0x3a171cc0	0.0005764477
118	0x3c5d5450	0.013508871
119	0xbc903c68	-0.017606929
120	0xbc11dcfa	-0.008902783
121	0xbcda0e38	-0.026618108
122	0x3d63f6ad	0.05565517
123	0xbd849e61	-0.06475521
124	0x3c966c3e	0.01836216
125	0x3bd02512	0.0063520754
126	0x3d0cd00f	0.034378108
127	0x3d0f0d44	0.03492476
128	0xbc0ea847	-0.008707113
129	0xbd69a0cf	-0.057038125
130	0x3ced28b8	0.02895008
131	0x3bac700b	0.00526238
132	0x3d29e3b9	0.04147694
133	0xbda3b003	-0.07992556
134	0xbcffb9b5	-0.031216482
135	0x3da08ea1	0.07839704
136	0x3da0e6c3	0.07856514
137	0xbd1a119c	-0.03761445
138	0x3cd3ed97	0.025870128
139	0x3ccf8fb5	0.02533708
140	0x3d4acba9	0.04951063
141	0x3d23375a	0.03984771
142	0xbb930041	-0.0044861143
143	0xbcaadffb	-0.020858755
144	0x3ca16295	0.019700328
145	0xbd903bd8	-0.07042664
146	0x3c88b101	0.016685965
147	0xbd94a9eb	-0.07258972
148	0xbc78b680	-0.01518023
149	0x3d00f898	0.031487077
150	0x3d96ba85	0.073597945
151	0xbd44cdbc	-0.048047766
152	0xbd38b42e	-0.045093708
153	0xbc712aa2	-0.014719637
154	0xbc9782b7	-0.018494947
155	0x3d31c503	0.043400776
156	0x3bd4109f	0.006471708
157	0xbda689d9	-0.08131761
158	0x3d600508	0.0546923
159	0x3d801fde	0.06256078
160	0xba0a5dec	-0.00052782777
161	0xbd97178e	-0.073775396
162	0xbaf94677	-0.0019018193
163	0x3d18def9	0.03732202
164	0xbc35986e	-0.011083705
165	0xbc60a32b	-0.013710777
166	0xbd83884e	-0.064224824
167	0xbd75191c	-0.0598384
168	0xbd049f26	-0.03237834
169	0x3d333883	0.043755066
170	0x3da98b36	0.082785055
171	0x3b9cc49e	0.004784181
172	0xbd71a242	-0.05899263
173	0xbd7d0f9c	-0.061782464
174	0xbd0f96de	-0.035055988
175	0xbd3b8de4	-0.045789614
176	0x3cd4f3b3	0.025995111
177	0x3cf24319	0.02957301
178	0xbc9a1b1e	-0.018811759
179	0x3c84083c	0.016117208
180	0x3cfb6b1a	0.030690718
181	0x3c9e9b87	0.01936127
182	0xbc44c3d8	-0.012009583
183	0xbd6685dd	-0.056280006
184	0x3d0ec4c7	0.03485563
185	0x3c585cad	0.013205689
186	0xbd342d9f	-0.04398882
187	0x3d5c41a1	0.053773526
188	0x3d909103	0.07058909
189	0x3b757b3e	0.0037457491
190	0xbb2c46d8	-0.0026287343
191	0x3d927441	0.0715108
192	0x3d859bda	0.06523867
193	0xbd4ea38a	-0.05044893
194	0xbcd0bf9b	-0.02548199
195	0x3cf6eaac	0.030141197
196	0xbd5e4711	-0.054266993
197	0xbd67ae91	-0.056562964
198	0x3bacda29	0.00527503
199	0xbc556f03	-0.013026956
200	0xbd06cd50	-0.032910645
201	0xbd6ef77e	-0.058341496
202	0x3d8a1f15	0.0674421
203	0xbb749e6a	-0.0037325867
204	0x3c9a66f3	0.018847918
205	0x3d143a8b	0.036188643
206	0x3d2dff6b	0.042479914
207	0xbc1370cf	-0.008999064
208	0xbbfc9b00	-0.007708907
209	0x3d067a12	0.03283126
210	0x3d430470	0.047611654
211	0xbb8dfcec	-0.004333129
212	0x3ccd1a0d	0.025036836
213	0xbc66e56c	-0.014092784
214	0xbd2e6206	-0.04257395
215	0xbb53c026	-0.0032310574
216	0x3d21fa55	0.039545376
217	0xbbc35fe1	-0.0059623574
218	0xbbea3413	-0.007147321
219	0xbd589346	-0.052874826
220	0x3c5ef63f	0.013608514
221	0xbd9226d4	-0.07136312
222	0xbcbc336b	-0.022973737
223	0xbbe27878	-0.0069113337
224	0x3d2341b4	0.03985758
225	0xbd50f2a0	-0.051012635
226	0x3c880736	0.016605001
227	0xbd0c0148	-0.03418091
228	0x3cadda48	0.021222249
229	0xbd205e9d	-0.03915273
230	0xbcb39423	-0.021921223
231	0xbcabe5f7	-0.02098368
232	0xbbafdea7	-0.0053671184
233	0xbcfed806	-0.031108867
234	0xbc282d75	-0.010264744
235	0x3c88547d	0.01664185
236	0xbd7873ea	-0.06065742
237	0x3da35c5b	0.079766
238	0x3d96d16b	0.07364162
239	0xbd54f53d	-0.05199169
240	0xbd2d16d3	-0.042258095
241	0x3b93d619	0.0045116064
242	0x3d4bb111	0.04972941
243	0xbd580be9	-0.052745733
244	0xbd80aae5	-0.062825955
245	0x3c9af787	0.018916858
246	0x3d756c9f	0.059918042
247	0xbcd59eef	-0.026076762
248	0x3c793e85	0.01521266
249	0x3b533366	0.003222668
250	0xbcbf9f74	-0.023391463
251	0x3d256c83	0.040386688
252	0x3a55e977	0.0008160094
253	0xbc9ace5e	-0.018897232
254	0x3d3af3d0	0.045642674
255	0xbbcef36b	-0.006315639

net.6.weight f4 [7, 256]
0	0x3d2238f4	0.039605096
1	0x3c936e79	0.017997013
2	0x3cc6783a	0.02422725
3	0xbc7f1239	-0.015568309
4	0x3d91a52a	0.07111581
5	0x3d4479ab	0.047967594
6	0x3d0ded9f	0.03465044
7	0x3c92ceca	0.01792087
8	0x3cf48d78	0.029852614
9	0xbc1d47be	-0.009599624
10	0xbc9dcff7	-0.019264204
11	0xbc8c7dcf	-0.017149834
12	0x3d31234e	0.04324656
13	0x3da127c3	0.07868912
14	0x392f2216	0.00016701999
15	0xbcb242be	-0.02176034
16	0x3d6ee038	0.0583193
17	0x3d07e299	0.033175085
18	0xbc487227	-0.012234247
19	0xbca56d65	-0.020193765
20	0xbe2eb706	-0.17062005
21	0x3c24a707	0.010049588
22	0x399bbe1b	0.00029705543
23	0x3d43ae8a	0.047773875
24	0x3cc18a62	0.023625556
25	0xbd0e48c2	-0.034737356
26	0x3c22e770	0.009942874
27	0x3d056a3a	0.03257201
28	0x3e7979c0	0.2436285
29	0x3d7826a0	0.06058371
30	0xbc9efce7	-0.019407703
31	0xbd331df7	-0.04372975
32	0x3c634e16	0.013873598
33	0xbcd0eade	-0.025502618
34	0xbc80d4ad	-0.015726412
35	0x3d9c0255	0.07617632
36	0x3d6e7b2a	0.058222927
37	0xbe56dfe0	-0.20983839
38	0xbd10befe	-0.035338394
39	0x3ce5642f	0.028001873
40	0x3b18076c	0.0023197783
41	0x3c573117	0.0131342625
42	0xbc704a7f	-0.014666199
43	0xbd91e95d	-0.07124589
44	0xbd3da598	-0.0463005
45	0x3ce29439	0.027658569
46	0xbc5f63ec	-0.013634663
47	0xbcfd551e	-0.030924376
48	0xba434aef	-0.00074498256
49	0xbb7bf6b6	-0.0038446612
50	0xbbadf80e	-0.0053091114
51	0x3c889ef0	0.01667735
52	0x3c996112	0.018723045
53	0x3d02c458	0.03192553
54	0x3cc97d78	0.024595961
55	0x3dde8180	0.10864544
56	0xbd48373e	-0.048880808
57	0x3cb09977	0.021557553
58	0xbcc659f4	-0.024212815
59	0x3cf80946	0.03027786
60	0xbb80937b	-0.003923831
61	0x3d220350	0.03955394
62	0xbb100213	-0.0021973893
63	0xbc159a89	-0.009131082
64	0x3c5f0d69	0.013614037
65	0x3cdb071e	0.026736792
66	0xbc963c41	-0.018339278
67	0x3d16cc7b	0.0368161
68	0xbd60f926	-0.054925106
69	0x3d3a9243	0.045549642
70	0x3ab6934a	0.0013929394
71	0x3c813917	0.015774293
72	0x3d41186f	0.047142442
73	0xbb06a093	-0.0020542487
74	0x3d745557	0.0596517
75	0x3d89dd6a	0.067316845
76	0xbc2ae5f3	-0.010430801
77	0xbd511e6c	-0.051054403
78	0xbd11a6b1	-0.03555936
79	0xbcafccc6	-0.021459948
80	0x3ccad128	0.024757937
81	0x3d58e203	0.052949917
82	0xbd6382d0	-0.055544674
83	0x3d77a76d	0.060462404
84	0x3c7aefc5	0.015315955
85	0x3d78d289	0.060747657
86	0xbd642a5b	-0.055704456
87	0xbd66c435	-0.05633946
88	0xbcbdcd27	-0.023169113
89	0x3c0b20fb	0.00849175
90	0x3ccdc50b	0.025118371
91	0x3d04bf5d	0.03240906
92	0x3d9cd307	0.07657438
93	0x3d8768c0	0.06611776
94	0xbca93107	-0.02065326
95	0x3c9e5f32	0.019332502
96	0xbc8f2e28	-0.017478064
97	0xbc18be5c	-0.009322729
98	0x3b4edd34	0.0031564953
99	0x3d0fbf59	0.035094593
100	0x3c7a1a7c	0.015265103
101	0xbd0fa306	-0.03506758
102	0x3aac0ddb	0.0013126688
103	0x3d22d37f	0.03975248
104	0xbc7d8d2d	-0.015475553
105	0x3c7a927b	0.015293713
106	0xbc326de6	-0.01089046
107	0x3e7d4c9c	0.24736255
108	0x3d0c0113	0.034180712
109	0x3e537d28	0.20653212
110	0x3d0dea1d	0.034647096
111	0x3d1d6aae	0.038431816
112	0xbb93e286	-0.0045130877
113	0x3d635b9a	0.05550728
114	0x3d025a55	0.03182443
115	0x3ce35378	0.027749762
116	0xb9a17a76	-0.00030799553
117	0x3cba2df3	0.022726988
118	0xbc430984	-0.011904124
119	0x3cdcde36	0.026961427
120	0x3d86440f	0.0655595
121	0xbd92c47a	-0.07166381
122	0xbd504fed	-0.050857473
123	0xbd84fdcf	-0.06493723
124	0x3d0e30e2	0.034714587
125	0x3ce49e13	0.027907407
126	0xbd0bfbe7	-0.03417578
127	0x3d3f9b94	0.04677923
128	0xbd1c7f6a	-0.03820745
129	0xbb59ee00	-0.0033253431
130	0xbe8087b1	-0.25103524
131	0x3ca6b9f8	0.020352349
132	0x3c02376e	0.007947786
133	0x3dbf9316	0.09354226
134	0xbd405c5e	-0.04696309
135	0x3cf62a22	0.030049387
136	0x3cbcc663	0.023043817
137	0x39665994	0.0002196788
138	0xbd419328	-0.04725948
139	0xbde0dd28	-0.10979682
140	0x3d2d7aea	0.042353548
141	0xba66789b	-0.00087917753
142	0xbd1bc482	-0.0380292
143	0x3ad037a0	0.0015885718
144	0x3cdb31f6	0.026757222
145	0x3d0e02d3	0.034670662
146	0xbca28cb8	-0.01984249
147	0x3d19261d	0.037389863
148	0x3d3b9bd4	0.045802906
149	0x3d9829fc	0.07429883
150	0xbb0943d3	-0.0020944967
151	0xbd2f7ab6	-0.042841636
152	0x3d0b060b	0.03394131
153	0x3d02bafd	0.031916607
154	0xbcfcbd3d	-0.030851955
155	0x3c3b78f6	0.011442414
156	0x3c86bb8b	0.01644685
157	0xbdeb8af8	-0.115011156
158	0xbbd0037f	-0.006348073
159	0x3d1b5d2d	0.037930656
160	0xbcc1f799	-0.023677634
161	0x3d139e8c	0.036039874
162	0xba8cee55	-0.0010752181
163	0xbd26af4f	-0.04069453
164	0x3cd54d00	0.026037693
165	0x3d1fd02b	0.039016884
166	0x3c8642db	0.016389301
167	0xbdc13a31	-0.09434927
168	0x3b937c8c	0.004500931
169	0x3d02cb32	0.031932063
170	0x3c1276bf	0.008939444
171	0xbcca907a	-0.024727095
172	0xbbfbd3aa	-0.0076851444
173	0xbc576114	-0.013145704
174	0x3cdf476f	0.027255742
175	0xbcee3100	-0.0290761
176	0xbd68fe05	-0.056882877
177	0x3c90b07f	0.017662285
178	0x3cd0bac8	0.02547969
179	0x3c54d31b	0.012989785
180	0x3ba147cf	0.0049218903
181	0x3d47b1c1	0.048753504
182	0x3d09df4b	0.033660214
183	0x3ba4dffb	0.0050315834
184	0x3d880957	0.066424064
185	0x3d4daa6b	0.05021135
186	0xbd11130c	-0.035418555
187	0x3d47eb2a	0.048808254
188	0xbc50e964	-0.012750957
189	0x3e08942a	0.1333777
190	0xba0cdb44	-0.00053732493
191	0x3d737192	0.05943448
192	0x3e9b5abd	0.30342665
193	0xbd1cb2d0	-0.038256466
194	0xbd2ebb96	-0.042659365
195	0xbd37cf33	-0.044875335
196	0x3d6eb25d	0.05827557
197	0xbd0dc311	-0.034609858
198	0x3dcd2469	0.1001671
199	0xbd46e471	-0.048557702
200	0x3dc2b24e	0.09506665
201	0x3d59a0ab	0.05313174
202	0x3d01ee2f	0.03172129
203	0xbd3b6027	-0.045745995
204	0xbb674672	-0.0035289791
205	0xbcdc6db0	-0.026907772
206	0xba90a5c2	-0.0011035728
207	0xbccadd9f	-0.02476388
208	0x3bde32a5	0.0067809396
209	0x3d201e55	0.039091427
210	0x3bc104da	0.005890471
211	0xbc333a25	-0.010939156
212	0x3d70b1bf	0.058763262
213	0x3c7f3234	0.015575934
214	0xbd106726	-0.03525462
215	0x3d83fa7c	0.064442605
216	0x3d5f6585	0.054540176
217	0xbd69be51	-0.057066265
218	0x3c87e83a	0.016590226
219	0xbdc3354c	-0.0953165
220	0x3ddce08d	0.10785017
221	0xbcad4ee2	-0.021155778
222	0x3caf9e09	0.021437662
223	0x3b566876	0.0032716072
224	0x3d8f385d	0.06993172
225	0xbdb3bdf3	-0.08776464
226	0x3d0f80bb	0.035034876
227	0x3d06f159	0.03294501
228	0x3d336621	0.04379857
229	0x3e69acac	0.22819775
230	0xbbd1dbf5	-0.0064043947
231	0xbcc93b75	-0.024564484
232	0xbcd45d41	-0.025923373
233	0xbd6e2ead	-0.058149982
234	0x3c709d93	0.014686006
235	0xbd500c12	-0.05079276
236	0xbc7256e7	-0.014791227
237	0x3d484a15	0.048898775
238	0x3d4e1c6d	0.050320078
239	0xbd41b663	-0.04729308
240	0xbcc09e1f	-0.023512898
241	0x3af16fac	0.0018420122
242	0xbb81b215	-0.0039579966
243	0x3d09f83b	0.033683997
244	0xbd1728a1	-0.03690398
245	0x3d223497	0.039600935
246	0x3db13918	0.08653468
247	0x3c2308e2	0.009950848
248	0x3c812d8a	0.015768785
249	0x3d4cba1c	0.049982175
250	0x3d006fec	0.031356737
251	0xbc87de14	-0.016585387
252	0x3c8ac644	0.016940244
253	0x3d61d60c	0.05513577
254	0x3cfa327b	0.03054165
255	0x3d56a539	0.052403662

net.6.bias f4 [7]
0	0x3d74f043	0.059799444
1	0x3cfefb74	0.031125762
2	0xbe92f0bc	-0.2869929
3	0x3ca8f37a	0.020623911
4	0xbc92f4d3	-0.017939007
5	0x3cb535a8	0.022120312
6	0xbcddb99f	-0.02706605
