preTrained/GAIL_pretrained_4700_actor.pth (torch, 541220 bytes, 8 tensors)

net.0.weight f4 [256, 3]
00000000: f5cd 48be fdcf 17bf d8f6 aabe 240f b33e
00000010: e3c5 483f 85bc c3be aa64 013f 7f57 283e
00000020: e707 23bf abba 09bf bc32 813e 7e03 8abc
00000030: de4d 0b3e 26f3 15be cdfc 02be a655 963e
00000040: 6062 21be 8f13 603d 6c3b 5fbe f425 0c3f
00000050: e550 09be db25 cdbe 5444 843f 8a55 05be
00000060: abbc 36bf 19ec 8d3e 757a efbe 618f 13bf
00000070: 7327 e7bd 337c 04bf ba49 08bf 7739 1cbf
00000080: 5db9 5f3e 6f85 bebe a22d 49bd e145 02bf
00000090: 8f95 40be afb4 6bbf 2f26 42be aa63 9fbe
000000a0: 6f9a 083e b76e 3a3e e5aa e43e 6570 f73e
000000b0: 01dc b6be 209c 25bf cd34 813f 22a4 37be
000000c0: 392b 30bf 39cd 9d3e e614 0cbe f179 75be
000000d0: c6fc 903e 6031 a63e 9f6a d9be 8056 143f
000000e0: f283 7cbd f359 8c3d 9e38 94be 0803 f9be
000000f0: 7b12 28be c7e0 08bf 634c 5cbe f8d3 59be
00000100: 6a8d fcbd c19f 3d3e eb8a 51be 1acc 6f3f
00000110: 5a1d 02bf 5b51 c0be b802 09bf 14b6 d13e
00000120: 9184 073e b9d6 e03e 640e 29bf f56d e33e
00000130: 4875 c23e d7f8 e3be 9874 8a3c 1128 5f3e
00000140: 3091 1ebf b353 99bd 5f63 f43d e542 76bc
00000150: a0da 88bd 5dd4 87bc 7a1b c73e 5a14 46bc
00000160: 1da5 0cbf 8e69 1bbf 72a2 d93d 89e3 d3bd
00000170: 256f c43e 3428 77be efae f7ba 6451 12bf
00000180: 5c58 143f 085a 82bf 4e71 ce3e 8233 abbe
00000190: 348f c73e 3c8a 46be 8913 2fbf c825 53be
000001a0: 958f 5ebe eac9 e1be a78d 763d e517 bfbd
000001b0: f2ff a03e f44c bc3d 299c 20be 9aaa 25bf
000001c0: df5e 6e3f 7e84 dfbe 65d7 483e d0f4 a0be
000001d0: 31d2 d8be 9e91 fabd 62e3 013f 58ae 47bf
000001e0: af00 103e 5ac2 f93e 2050 85be 7747 6fbd
000001f0: 5329 f63e 63ee 8ebe 4028 bebe 29ad 4a3f
00000200: 0b95 d2be f81f 79be 5648 c63e 3f44 5b3e
00000210: 81ac c03c 17a2 01bf e0b8 cfbe 280a 5f3d
00000220: bed8 f7be 3bf4 e7be 037d 42bf 3d9a 1b3f
00000230: 6f9b b8bd 9470 473e 8dd7 a3bf dd02 863e
00000240: d218 f5be b54f b3be fba6 28bd ae2c e1be
00000250: 3b35 01be 528c b6bc 8a23 9cbe fca6 883f
00000260: aae2 6ebe f7e0 043f e18c 163f 1019 1ebe
00000270: 03e8 07bf 027d 293e 341c 503e 520b 08bc
00000280: 418d 123f e039 fdbe 0ac4 873e 24ee 1ebf
00000290: 0c79 853d 5270 f63d ae99 43be 67e0 ebbe
000002a0: 02bc ae3e e6f7 af3c b6a6 a73e a8ba 76bd
000002b0: 3d02 1ebf 183c 37bd af8c c1be 9ba9 f73e
000002c0: 68f4 e23e bbd7 3fbf ac8d a3be 1c11 623e
000002d0: 533c 9bbe 4f56 37bf c52c 38be c888 8fbe
000002e0: ca83 eabd c5c2 3dbe 9370 55be c6e4 603f
000002f0: 8bcb e0bd d801 b7be 12cd 4fbe 508e a9be
00000300: 1d64 5d3e 89df 5c3f dc2d c13e 053b fcbe
00000310: 2702 04bf 5a8b 4dbb 0953 82bd 8148 db3d
00000320: f944 18bf 9ab9 7ebe 1893 76be d18f e6bc
00000330: 39b7 91be fb98 6bbf c8b3 04bf 5484 37bf
00000340: 8685 af3e 5ddf a83d de7e 7dbe b5ab fcbe
00000350: 49a7 0dbf f7ee 96bd 720c fb3e fe8f afbe
00000360: c3a1 1fbf 0d05 343f 40b8 c5be 5a67 ab3e
00000370: 4097 95bd 8132 afbd a6a3 47bd 0740 1ebf
00000380: d907 173e b417 9fbe cec4 d0be 7efc 49be
00000390: 7091 7dbd afcd 1a3e d150 083e 22ee 9f3d
000003a0: ca66 513e f84d b2be 3dc7 633e 8f39 a13e
000003b0: 1a67 c43e 8fba 9abe e09e 103e 6804 6a3e
000003c0: 0b05 71be 1566 88bf 546e 483e a9db f3be
000003d0: b445 a43d 724e afbe 2d46 8e3e e3a8 c13d
000003e0: 64cc 893e 6fca 903e 46ce a53e 0306 07bf
000003f0: bc3c 763e 094b 21be 8215 10bf 2694 65bd
-0.19609816 -0.5930174 -0.33391452 0.3497249 0.7842695 -0.38229766 0.50544226 0.16439627
-0.63683933 -0.5380046 0.2523402 -0.016847368 0.13603923 -0.14643535 -0.12791748 0.2936222
-0.15760183 0.054706153 -0.21800011 0.5474541 -0.13409765 -0.40067944 1.0333352 -0.13020912
-0.71381634 0.2771919 -0.46773115 -0.57640654 -0.11286821 -0.5175201 -0.532375 -0.61025184
0.21848054 -0.37211177 -0.049115784 -0.50887877 -0.18807052 -0.92072576 -0.18959878 -0.31130725
0.13340162 0.18206297 0.44661632 0.48327938 -0.35714725 -0.6469135 1.0094239 -0.17933705
-0.6881595 0.30820635 -0.13679847 -0.23972298 0.2831785 0.32459545 -0.42464158 0.5794449
-0.06164927 0.06853094 -0.28949445 -0.48635125 -0.164133 -0.53467983 -0.21513514 -0.21272266
-0.1233166 0.18517973 -0.20463149 0.9367081 -0.50826037 -0.3756207 -0.53519773 0.40959227
0.13234164 0.4391382 -0.66037583 0.44419828 0.37980103 -0.44525787 0.0169013 0.21792628
-0.6194029 -0.074866675 0.11933016 -0.015030597 -0.066823244 -0.016580755 0.3888815 -0.012089813
-0.5493944 -0.6070794 0.10626687 -0.10346133 0.38366047 -0.2413643 -0.0018896739 -0.5715544
0.57947326 -1.0183725 0.4032082 -0.33437735 0.38976443 -0.1938867 -0.68389183 -0.20619881
-0.2173446 -0.4409936 0.060193684 -0.093307294 0.3144527 0.09194365 -0.1568457 -0.6471344
0.9311351 -0.4365577 0.19613416 -0.31436777 -0.42347863 -0.122348055 0.50737584 -0.780004
0.14062761 0.4878109 -0.26037693 -0.058417764 0.48078403 -0.2791625 -0.37140083 0.7917047
-0.41129336 -0.24328601 0.38727063 0.21412753 0.023519756 -0.50637954 -0.40570736 0.054453045
-0.4840755 -0.4530352 -0.75972 0.60782224 -0.090140216 0.19476539 -1.2800156 0.2617406
-0.478705 -0.3502175 -0.04117487 -0.439794 -0.12617962 -0.022283707 -0.30495864 1.067596
-0.23328653 0.5190577 0.58808714 -0.15439248 -0.53088397 0.16551593 0.20323259 -0.00830348
0.57246786 -0.49458218 0.26516753 -0.62082124 0.065172285 0.12033142 -0.19101593 -0.46069643
0.34127814 0.021480512 0.32744378 -0.060236603 -0.61722165 -0.044735044 -0.37802646 0.48371586
0.44327092 -0.74938554 -0.31944025 0.22076839 -0.3031946 -0.7161607 -0.17985828 -0.28034043
-0.11450918 -0.1853133 -0.20843725 0.8784908 -0.10976323 -0.35743594 -0.20293072 -0.33116388
0.21620221 0.8627859 0.377303 -0.49263778 -0.51565784 -0.0031363578 -0.06363494 0.107071884
-0.59480244 -0.24875489 -0.2407955 -0.028144749 -0.284601 -0.92030305 -0.51836824 -0.7168629
0.34281558 0.08245728 -0.24755427 -0.49349752 -0.5533338 -0.07369798 0.49032933 -0.34289545
-0.62356204 0.70320207 -0.38617134 0.33477288 -0.07304239 -0.08554555 -0.04874005 -0.6181645
0.14749087 -0.31072772 -0.4077515 -0.19725224 -0.061906278 0.15117525 0.13312079 0.07809092
0.20449367 -0.3482511 0.22243972 0.31489226 0.3835991 -0.30220458 0.14123106 0.22853243
-0.2353708 -1.0656153 0.19573337 -0.47628525 0.08021107 -0.34239537 0.27787915 0.09456041
0.2691375 0.28279445 0.32383937 -0.5274355 0.24046606 -0.1575128 -0.5628282 -0.05604949

net.0.bias f4 [256]
00000000: df52 08be 9e38 07be 50c6 d93c 8da7 24be
00000010: 3016 e13d 6778 803e 13a5 18bd bf7a ef3d
00000020: a1cc e13e 82b2 e63e 7f33 33bc 348d c33e
00000030: 1fe7 b23e 84d9 59bb 0380 36be 1b49 833e
00000040: f5db 843e f1ab e0be 38cb 90be caaf 2a3e
00000050: 244e a63d 9ad2 5bbe ff85 003e 1a8d 29be
00000060: 901d 3a3e f6b3 67be 5af3 cb3d acb8 0dbf
00000070: 08a1 03bf 1bfa 5f3e 21cc fdbe 2365 913d
00000080: 3c5f 6cbe 5d12 093d 0b77 a63e 745b 453e
00000090: 8868 3ebe 00d8 d33e af3b 8e3d c565 a83e
000000a0: ba43 07bf b1af 80be dfa9 353e 6f85 74be
000000b0: 0092 acbe b880 023e ce55 4c3e 63ad 03bc
000000c0: 7089 0d3d c731 113e 3b08 ea3d 031d 12be
000000d0: f10a 8bbd 93f9 a3be aedf ac3d 9a95 04bd
000000e0: 3ad5 d1be 7853 4fbd 0f30 3bbe fa35 e63d
000000f0: dd2e b83d 1206 83bd 2895 613d c411 ccbe
00000100: 116e b1be d5a2 273e 5a4a ac3c 88d4 85be
00000110: 0d72 993e 2383 8b3e f4d8 943e 1bcd f4bc
00000120: da8f 8c3e 6a51 06be 7c9e 1abe 5fc7 633e
00000130: 95b9 9abe 94ac c53d 4f6a babe 2032 debe
00000140: 0521 763e ca02 7c3e 1755 d0be 8abd 953e
00000150: 3572 0b3e ec52 04be 0b9b e5bd 7c6d 763d
00000160: 8aa8 203e fd20 82be 41c4 ddbc 1fdc fdbe
00000170: 518a 413c f7d8 f13d 4d6f 443e 9064 bb3e
00000180: 596e 87bd b2b4 b03e 479c 743d 1845 49bd
00000190: cb47 97be 8f20 88be 8eae 8b3c 0aef d9be
000001a0: 09ae b8bd cadc d0be f62e 813d 7685 0ebd
000001b0: ffad eabd c147 cb3d 2ba9 923e e4d3 d9be
000001c0: 55be 07bf 4da8 9dbc 9a2f a0be e5e8 43be
000001d0: 3d46 3dbe 2fbf 6b3e 546c 98bc 51c3 0c3b
000001e0: c1db 95be 8e30 8fbc 528a 38be 9d56 41be
000001f0: 9bf4 9f3e d7b1 763e 47e9 78be a203 363e
00000200: f6ac 99be bb72 493e 6c94 c1bd a83a 1c3e
00000210: 2b93 1cbe 2b02 05be badd f8bd d9b2 58be
00000220: de61 ebbd 07dc 34be 2302 36be 0b40 03bf
00000230: dd45 48be 8e0b a6be a1a1 96be 1111 30be
00000240: ce7f fbbe 66a0 f9be 5e87 523d 4e74 94be
00000250: 6ed9 b1be 688e 473d ea54 efbe 29d7 a4be
00000260: b9f8 e1bd 023b 813e 0f2d 0b3e 8512 08be
00000270: d184 87be 1273 383e dac8 2ebe 19d1 ab3d
00000280: 801e c33d fe50 6ebe 4e0f 8b3e 7477 f2bc
00000290: 7b6e d23e 3d48 6cbd 4e62 b33e 4d9c 19be
000002a0: c7d9 fabd de94 acbe 918f 993d 38f1 12bd
000002b0: a68a ee3b 066f a63e 0fc5 35be 077b 533d
000002c0: a5e1 83be 0808 4fbe c9e8 913e 22a0 d7be
000002d0: 8157 96be ba2b e9be 1ae7 25be 216d 093e
000002e0: d4b9 053e 2cdf cb3e da4e e9be e645 e0bd
000002f0: 9e44 5fbe 9a63 e73d 351b c53d d54b 433d
00000300: c452 ec3a a363 ff3d 84e5 9abe 5692 3ebe
00000310: 27b6 0fbf b8be cfbe 2f67 6cbd c547 983e
00000320: 1b4b 333e 7197 83be 2d70 08bf 9376 18be
00000330: 5f91 ecbe 2a19 b23e 810a 77be a622 c3bd
00000340: 90ba 48bd d36d 603c a1d9 a5be 1233 0fbf
00000350: c542 a13d 0469 133e 100d 83be cbab d1bd
00000360: 6429 c23e b789 963d 528b 1e3e bc60 343e
00000370: 840c 5b3e 3e80 dfbd 388e 4abe ddb8 723d
00000380: 2f66 1f3e fd4b 8d3d 6956 03bf 33e2 063d
00000390: 6bbc 813e db6a 55be b9a9 643e 2f24 fe3d
000003a0: 9fc4 9cbe c64a 803e 2688 89be 5db2 a43e
000003b0: 97dc 5c3e 0b2b c33e 9271 743d 73f0 a43e
000003c0: 03ee 6d3d 49de b83c d565 5b3d 5b5b 903e
000003d0: d066 163d 3fdb e83d 3f91 02bf cafd 96be
000003e0: 6649 933e 2065 64be d4c8 303e 23ba 693e
000003f0: a7df 81be f73c 79be ff78 443e cde9 6dbb
-0.13312863 -0.13205191 0.02658382 -0.1607954 0.1099056 0.2509186 -0.037266802 0.11693334
0.44101432 0.45058066 -0.010937571 0.38193667 0.34941956 -0.0033241222 -0.1782227 0.25641713
0.25949064 -0.4388118 -0.28280044 0.1666862 0.08120373 -0.21467057 0.12551115 -0.16557732
0.1817534 -0.22627243 0.09958525 -0.5535991 -0.5141759 0.21872751 -0.495698 0.070993684
-0.23083204 0.03346478 0.32512698 0.19273168 -0.18594563 0.41375732 0.069449775 0.32890144
-0.5283772 -0.25134042 0.17740582 -0.23879026 -0.3370514 0.12744415 0.19954607 -0.008036944
0.0345549 0.14179145 0.11427351 -0.1426888 -0.06789196 -0.32026348 0.08441101 -0.032369234
-0.4098299 -0.05061671 -0.18280052 0.11240764 0.089933135 -0.06397642 0.055073887 -0.39857304
-0.34654287 0.16370709 0.021031547 -0.2613871 0.29969826 0.27248487 0.29071772 -0.029882958
0.274535 -0.13116995 -0.1509952 0.22244023 -0.30219713 0.09652057 -0.36409232 -0.43397617
0.24036033 0.24610439 -0.40689918 0.2924617 0.13617785 -0.12922257 -0.11211213 0.060163006
0.15689293 -0.25415793 -0.02707112 -0.49582002 0.011812762 0.11808961 0.19183083 0.3660016
-0.06612844 0.3451286 0.05971935 -0.04913816 -0.2954696 -0.2658734 0.017051008 -0.42565185
-0.090175696 -0.4079345 0.06307785 -0.034795247 -0.11458968 0.09925795 0.2864469 -0.42544472
-0.530248 -0.019245291 -0.31286317 -0.19131811 -0.18483825 0.2302215 -0.018606342 0.0021478722
-0.2926922 -0.017479207 -0.18021515 -0.18880697 0.31241307 0.24091278 -0.24307738 0.17774823
-0.3001477 0.19672672 -0.09452137 0.1525675 -0.15290515 -0.12989108 -0.12151666 -0.21161975
-0.11493276 -0.17662059 -0.17774253 -0.51269597 -0.195579 -0.3243069 -0.29420188 -0.1719401
-0.49120945 -0.48755187 0.051398627 -0.28994983 -0.34736198 0.048719794 -0.46744472 -0.32195404
-0.11033768 0.25240332 0.13591407 -0.13288315 -0.26468518 0.18012646 -0.17068806 0.083894916
0.09527302 -0.23273084 0.27160114 -0.029597975 0.41099915 -0.05768608 0.35035938 -0.1500103
-0.12248569 -0.33707327 0.07498086 -0.035874575 0.007279712 0.3250658 -0.17750953 0.051631
-0.2575809 -0.20217907 0.28497913 -0.4211436 -0.29363635 -0.45541173 -0.1620144 0.13420536
0.13059169 0.39818704 -0.4556797 -0.10950832 -0.21803519 0.11298294 0.0962433 0.04767974
0.0018030037 0.12470176 -0.30253232 -0.1861051 -0.5613732 -0.40575194 -0.05771559 0.29742256
0.17509119 -0.25701478 -0.53296167 -0.14888982 -0.4620466 0.34784824 -0.241251 -0.09528093
-0.049006045 0.013698059 -0.323926 -0.559373 0.078740634 0.14395529 -0.25595903 -0.10237845
0.37922204 0.07350486 0.15482834 0.17615026 0.21391493 -0.10913132 -0.19780815 0.05925833
0.15566324 0.06899259 -0.51303726 0.032930564 0.25339064 -0.20841543 0.22330369 0.12409245
-0.3061876 0.25057048 -0.26861686 0.3216733 0.21568523 0.38118777 0.05967862 0.32214698
0.058088314 0.022566931 0.05356391 0.281947 0.036719143 0.11369943 -0.5100288 -0.294905
0.28766936 -0.22304201 0.1726411 0.22824912 -0.25365946 -0.24339662 0.19186781 -0.0036302686

net.2.weight f4 [256, 256]
00000000: 4468 32bd 9481 af3a 4d09 33be a294 e23c
00000010: 5d5a f7bc d99e 48bc 611e ae3a 5e73 573b
00000020: a06c 4a3e d044 ef3d f6fe 66bd af2b 48bd
00000030: 8581 9a3c bbae a33d 96b5 2cbb 64d6 b03d
00000040: 62c3 733d f06c 7c3d a4b6 3b3d ea12 87b9
00000050: 191f b3bd 706c 3d3c 46e7 613e c8d6 c9bc
00000060: 89d8 1f3c b0ac a8bc 16e5 033d d4ba 25bd
00000070: 28f9 7dbc a65c 3c3d 72d2 773d 816a 613d
00000080: a84b 6dbc 1c9d 093d 4748 00bd 24fb 443d
00000090: b497 323d 36c5 003e e118 eebc de22 ee3c
000000a0: 84a3 803d efc8 f6bc f4b7 c43b dc72 45bd
000000b0: e489 943c 4987 8bbd 73e8 4b3d 0a3e c43c
000000c0: 2969 3e3d 3f92 1a3b 0922 253d 5e58 4ebc
000000d0: 1639 7d3d 879f d3bb 0024 f5bc b2f4 27bd
000000e0: 6444 a4bc 8fbf 0bbe 4872 3f3d f0c1 1f3d
000000f0: 8816 31be 04b7 abbb 2232 343d 906c cc3c
00000100: c0dd 7dbd 4a06 55be 81c0 d6bb 1c90 913c
00000110: 8c52 59be cb1f 3e3d 7821 10be fba7 803d
00000120: 7de8 3f3d 0216 f6bc 6bd9 adbd b02e e5bd
00000130: e097 84bb a5fc cbbc 37d5 a43c 7a0e 78bd
00000140: d659 053c 34df 45bd f60e 1d3d 37d4 b93c
00000150: d654 46bb c15f 9abd d533 de3c 25e9 e7bb
00000160: e43b bcbc 8907 1ebc 648d 673c d8e7 dbbc
00000170: 497e 333d c73d 77bd 2553 3ebd 1200 7dbd
00000180: 55a0 973c 6675 05be 7eba a73c bb9d 03be
00000190: ec60 f13c a376 493d f922 44bc e55e 293d
000001a0: 53ea 4ebd 4add 363d 393b 46bc 3812 43ba
000001b0: 97da febc a006 873b 682a af3c 48ba 863c
000001c0: 68b0 703d 8888 95be 48fd ec3c 0299 24be
000001d0: cc1b 26be 00e1 4dbd a706 4f3b 7490 1e3d
000001e0: 5b9f 05bb 0970 d5bd 7419 7cbc 1bc3 64bd
000001f0: ef33 54bd cd4d c5bd 3d2e 8ebd 0079 b9bd
00000200: fab4 7fbd 7e5a 80bd a07f 51bd 70a7 82bc
00000210: 62de 683d 84b9 ae3c b289 c03d c5ad ecbb
00000220: 6b8d 943d 3bff 9abc 3c82 cfbb ce6c aebd
00000230: 7065 f63c 9d12 21bd 1bc6 97bd d5af 0d3c
00000240: d45e 50bd 957e 29bb 17c4 3d3d 4613 43bd
00000250: d8f9 903c 6765 7bbc 2bd4 eb3b bcc7 e23c
00000260: 5a08 b7bd e77c 29bd ef31 b0bd ee4a fa3c
00000270: 8096 00bb bfca 06be 9a5b 8abd 9fdc c8bc
00000280: e4e7 f2bd a0d9 7cbd 8af8 a9bd b366 ffbc
00000290: 53c8 1cbd 7b7b 81bd c6d2 41be 4856 bbbc
000002a0: 21dc bc3c 9b2e 443d fa16 11bd 4160 1cbe
000002b0: 2e3b 3e3d ff75 e839 47df 1e3d 8f31 4dbd
000002c0: 2d6f 7dbe b930 2bbc 175a c5bb 34d3 7cbd
000002d0: 841f d73c 4515 4cbc 435f 28be 11e2 4f3c
000002e0: e025 2f3c ec14 9c3c 5c6a 40bd 20c8 0bbd
000002f0: 1961 d1bc d7bc 783d 806b 86be 74b1 ee3b
00000300: f60d 21be 857a a3bc 4656 7d3d 0a19 4abc
00000310: f0db acbb f567 23be 617f 273d a035 0f3c
00000320: 9dca eabb 48fc f1bc 10ee 8d3c 0aaf d03c
00000330: 1b6f 533d da2c f5bc 13e0 bcbd c637 423d
00000340: 26c0 98bd ce5b c0bd 1bfb 233d 0242 503d
00000350: 4dcc 4e3b b4e9 fa3c 382e 7ebd 3cd6 d6bc
00000360: 812a 8c3d d7cb debd 0fa6 37bd d2de 083d
00000370: b618 87bd ad2d 673c efb7 7b3c 446b c3bc
00000380: 7858 553c 9cd6 32bd 562f 0abd 389e 98bc
00000390: 06f3 f33b ab8a 05bd d425 993d 1aa6 adbc
000003a0: bb79 4d3c fe02 57bd 2b6c a73c fe49 79bc
000003b0: 63e9 5b3b d83a c13d 1b75 623c 1a8d 40bd
000003c0: 43ac cc3a 2367 2d3c 073c 69bd 1a8a 723c
000003d0: 0320 3bbd fd69 49bd 138b 6cbb 990f 69bd
000003e0: 273c 323d d8e3 cb3c 20e6 29bc 1126 40bd
000003f0: c464 af3c 23a6 d53c 5c90 5fbc 85a4 343c
-0.043556467 0.0013390058 -0.17484017 0.027658764 -0.030194456 -0.0122449035 0.00132842 0.003287516
0.19768 0.11683047 -0.056395493 -0.048869785 0.018860588 0.079923116 -0.002635335 0.08634642
0.059512503 0.06162733 0.045828477 -0.000257633 -0.08746166 0.011561498 0.2206088 -0.024638548
0.009756216 -0.020590156 0.032200895 -0.040461376 -0.015501298 0.045986794 0.06050343 0.05503321
-0.01448337 0.033597097 -0.03131893 0.04809107 0.043601707 0.1257523 -0.029064598 0.02906936
0.06281188 -0.03012511 0.0060033742 -0.04820524 0.018132158 -0.06812913 0.049782228 0.023955364
0.046487007 0.0023585705 0.04031566 -0.012594311 0.06182202 -0.006458226 -0.029924393 -0.041004844
-0.020052142 -0.13647293 0.046739846 0.039003313 -0.17293751 -0.005240323 0.043993123 0.02495411
-0.061979055 -0.2080318 -0.00655371 0.017768912 -0.21222895 0.04641704 -0.14075267 0.0628204
0.046852577 -0.030039791 -0.08488735 -0.111905456 -0.004046425 -0.024900744 0.0201212 -0.06056068
0.008139094 -0.048308566 0.038344346 0.0226842 -0.0030262969 -0.07537795 0.027124325 -0.0070773535
-0.022977777 -0.009645351 0.014132831 -0.02684395 0.043821607 -0.06036165 -0.04646601 -0.061767645
0.01850907 -0.13033065 0.020474669 -0.12853138 0.029465161 0.049185406 -0.011971229 0.041350264
-0.050516438 0.04464463 -0.012099081 -0.00074413745 -0.031110091 0.004120663 0.021382526 0.016446248
0.058761984 -0.29205728 0.028929368 -0.16073993 -0.16221541 -0.050263405 0.0031589658 0.03871198
-0.0020389173 -0.1042176 -0.015386928 -0.05585013 -0.05180734 -0.0963398 -0.06942413 -0.09056282
-0.062428452 -0.0626726 -0.051147103 -0.015948981 0.056852706 0.021328695 0.09401263 -0.0072228634
0.07253536 -0.018920531 -0.006332664 -0.085168466 0.030077666 -0.03932439 -0.074108325 0.008647879
-0.050871685 -0.0025862802 0.046329584 -0.047625802 0.01769726 -0.015344 0.0071969233 0.027683131
-0.0893714 -0.04137888 -0.08603274 0.030553307 -0.0019620955 -0.13163279 -0.06755753 -0.024519263
-0.11860636 -0.06173098 -0.08299358 -0.0311769 -0.03827698 -0.0632238 -0.1892806 -0.02286829
0.023054184 0.04789601 -0.035422303 -0.15271093 0.046443157 0.00044338402 0.038787153 -0.05009609
-0.24749441 -0.010448628 -0.0060227024 -0.061724856 0.026260145 -0.012456243 -0.1644259 0.012688176
0.010690182 0.019052945 -0.046976432 -0.0341264 -0.025558995 0.060726967 -0.2625389 0.0072843377
-0.15727982 -0.019955883 0.061849855 -0.012335071 -0.005275242 -0.15957625 0.040892962 0.008740813
-0.0071652667 -0.029539242 0.017325431 0.02547409 0.05161963 -0.029928613 -0.09222426 0.04741647
-0.074585244 -0.0939251 0.040034395 0.0508442 0.0031554878 0.030629016 -0.062055796 -0.026225202
0.068440445 -0.10878723 -0.0448361 0.033415623 -0.0659651 0.014110011 0.015363677 -0.02385486
0.013021581 -0.0436617 -0.03373655 -0.018630132 0.007444742 -0.032602947 0.07477918 -0.021197367
0.01254123 -0.052493088 0.02043732 -0.015215395 0.0033555857 0.09435052 0.013821865 -0.047009565
0.0015615303 0.010583672 -0.056942012 0.014803434 -0.045684826 -0.049173344 -0.0036093637 -0.05689964
0.043514397 0.024888918 -0.0103698075 -0.046911303 0.021410353 0.026080197 -0.013645258 0.011025553

net.2.bias f4 [256]
00000000: 8c89 97bc 6767 0dbd e820 72bd 3109 46bd
00000010: cd45 7d3c 2506 ce3c 55b1 a63a 9774 9fbc
00000020: 9af3 6abd ee9c af3c 67a3 483c 365f a1bc
00000030: 58b8 a6bc 3ee1 bebc eb0d 8bbd c033 813c
00000040: 2f34 fcbc a869 9f3c 65eb 91bb 30c4 c93c
00000050: 16a3 c8bc 3ed6 f9bc c206 3cbc 1308 1bbd
00000060: 7169 8fbd 508b b03c acbd 75bd 9970 84bc
00000070: 653f 88bb 6d62 153d 8474 a2bd 91a9 86bd
00000080: ae08 52bd 40d4 073d 1313 3abd 86a2 debd
00000090: 8af0 b5bd 5a9b 3c3c 8d00 4bbd 28c7 043c
000000a0: a6a1 71bd 27c7 08bd 4de4 ad3c 66d9 143c
000000b0: f3cb 093d f829 153d 57cd 70bd a2d7 f3bb
000000c0: e217 a1bc 5c89 443c eba7 c7bc a886 27bd
000000d0: 2b7d 86bd 5d55 37bc 2aed fabc 44b3 c3bc
000000e0: 8d36 81bc 2a5e a0bc d058 72bd 5fe8 80bd
000000f0: 16a3 9c3d b351 fabb 446d 31bd a4e1 90bd
00000100: 50a1 86bd d7d8 50bc 715c 95bd 5fd4 28bd
00000110: 5e92 2c3c 37eb 0aba 0130 83bd b681 503d
00000120: 360a 9abd da91 05bd 7111 8abc bd16 8e3c
00000130: 0469 86bd ffdf b33c 1635 cebc 2391 1d3b
00000140: 72f2 82bd f22c 3f3d ea9d 10bd 81a5 003e
00000150: 7345 7cbd 0573 5dbc 3eb1 563d 3353 8a3c
00000160: acd2 333c 202d 5fbd cffd 08bd 3949 bd3b
00000170: d520 cebc 3467 23bc 29bc 933c 10ec f5bb
00000180: 5098 66bd 616a c73c 99ae e2bb 0ee5 8abc
00000190: 7f4c 2ebd c8df 243d 430c 54bd c824 ed3c
000001a0: 6e0d 9dbd 003e 3dbd 31ae 3abd 1745 e8bd
000001b0: 8e38 823c e639 7cbd eff3 e03c 919d debd
000001c0: a65e eb3c b7b1 c7bc a6a2 24bd e85e 87bd
000001d0: 731b 8ebb 09af 293a 1246 64bb 63a5 91bd
000001e0: 1a7a 22bb 380c 19bd f257 5d3b 65bf e7bc
000001f0: 3d7e aa3c 807b b1bd 3476 91bd cb60 05bd
00000200: 556a f3bc a98b 9abd 18e5 8f3c 8d11 cf3c
00000210: fbe2 91bd b419 be3b 5cb5 d738 92bc d4bc
00000220: 0694 0f3d d1e1 5bbd de5e 94bd c1c4 c93c
00000230: a828 a6bd 91a0 9fbd d9d4 9ebb 6d77 80bd
00000240: b82d 84bc a8a9 ccbb 922a 263d ae06 3fbd
00000250: e47f ba3b b2e5 34bd 293c f23c 73cd c8bc
00000260: 845f e3bc 6463 3dbd 679f 69bd 4327 8fbc
00000270: 9b1c 51bb 537a b1b8 7a04 203e 827d 263c
00000280: 91b8 5a3d 9323 74bd 1496 fc3c f842 3bbc
00000290: f1aa b03c b047 a43c ce1b 40bd 7888 64bd
000002a0: 6b87 bbbd 4ee9 69bd 2bdf 83bd 02e9 82bb
000002b0: 384d 9dbc cade 823c d5b6 72bb 97e1 06be
000002c0: 19e2 1abd fb68 943c 059d 9bbd 79e4 7cbd
000002d0: f1ac 94bc 806b ae3d 4cfd 8cbc a416 f3bd
000002e0: 5d0b 09bd 37d8 9abd 0cb6 88bc ce63 88bd
000002f0: 06f0 2bbc 2926 cfbd 4ecb 593c 71c4 b1bd
00000300: a695 d1ba dd8d 8ebd a5c9 e9bc 9a07 65bc
00000310: 2a27 a739 aa35 e1bb 02f9 68bd e2c4 88bd
00000320: fbef 89bd 8c9b 78bd 3875 29bd 5398 11bc
00000330: 3b78 a3bc 3370 1f3b 2eeb 453d 8a0a 8dbd
00000340: b1d2 0b3c df9e 81bc 54e8 97bd 670a afbc
00000350: 7119 8e3d fb2c c5bc 265d 85bd d21b 4a3b
00000360: fc33 7a3c a786 123b ba5d cc3b 4ccf 65bd
00000370: 15f6 bebd fb41 50bd d835 d23c 60ae 0dbd
00000380: 9fff c1bb 631f ecbd 0037 90ba fcbf cab9
00000390: 3dcb 87bd 8af6 26bd d87a 1cbd 01c4 89bd
000003a0: 1b79 33bc 9955 b0bc ba51 f53c acd5 65bc
000003b0: 3f64 0a3d af8c 85bc 2bb6 103d ffd6 36bd
000003c0: f953 61bd bd87 133c e70d 593b 5331 413c
000003d0: c3a2 06bb 3ecc 4abd 9c31 13bd 5d90 6ebd
000003e0: e85d 15bd 4b0f 5c3c fe0a 87bd dd1e 0abd
000003f0: 7d31 c0bb 3e83 0cbc 1247 45bc 1d1f a8bc
-0.018498205 -0.03452244 -0.059113413 -0.04834861 0.015458536 0.025149414 0.0012717644 -0.019464774
-0.057361223 0.021437135 0.012245989 -0.01969872 -0.020351574 -0.023300763 -0.06789764 0.015771747
-0.030786602 0.01945956 -0.00445311 0.024629682 -0.024491828 -0.030497666 -0.011476221 -0.037849497
-0.07002533 0.021550804 -0.05999534 -0.016166972 -0.004157948 0.03647082 -0.0793238 -0.06575311
-0.05127781 0.0331614 -0.045428347 -0.10870843 -0.0888377 0.011511648 -0.049561072 0.008104123
-0.05899205 -0.03339305 0.021227026 0.009085035 0.033641767 0.036416978 -0.058789577 -0.007441477
-0.019664709 0.01199564 -0.024372062 -0.040899903 -0.06566843 -0.011189786 -0.030630667 -0.023889191
-0.015773082 -0.01957615 -0.05916673 -0.06294321 0.07648294 -0.007639134 -0.043317094 -0.070742875
-0.06573737 -0.012747011 -0.072930224 -0.041218158 0.0105329435 -0.0005299332 -0.064056404 0.050904952
-0.07521479 -0.032609798 -0.01685402 0.017344827 -0.06562999 0.021957396 -0.025171798 0.0024042807
-0.06393899 0.046673723 -0.03530685 0.12563135 -0.06158967 -0.013516192 0.052415125 0.016885376
0.010975521 -0.054486394 -0.033445176 0.005776551 -0.02516214 -0.009973336 0.018034058 -0.0075049475
-0.0562976 0.024342718 -0.0069177863 -0.016954925 -0.04255342 0.040252477 -0.051769506 0.028948203
-0.07668577 -0.046201706 -0.045576278 -0.11341303 0.015896108 -0.061578654 0.027460067 -0.10869897
0.028731655 -0.024376733 -0.040194176 -0.06609899 -0.0043367683 0.00064729206 -0.0034831804 -0.07111623
-0.0024792016 -0.03736517 0.0033774343 -0.028289506 0.020812148 -0.08666134 -0.071026236 -0.032563012
-0.029713789 -0.07546169 0.017565295 0.025276924 -0.07123371 0.005801404 0.0001028578 -0.025968824
0.035053276 -0.053682152 -0.07244657 0.024629952 -0.08113223 -0.077942975 -0.0048471508 -0.06272779
-0.016135082 -0.0062458105 0.040567942 -0.04663723 0.0056915153 -0.044164367 0.029569702 -0.024512028
-0.027755506 -0.046237364 -0.057036784 -0.017474776 -0.003190792 -8.462802e-05 0.15626708 0.010161759
0.053398672 -0.05960424 0.030833282 -0.011429541 0.021565886 0.020053715 -0.046901517 -0.05579421
-0.09156688 -0.057107262 -0.0643905 -0.003995062 -0.01920186 0.015975375 -0.0037035246 -0.13171993
-0.03781328 0.018116465 -0.075983085 -0.061741326 -0.018148871 0.08516598 -0.017210625 -0.11869553
-0.033458102 -0.07560771 -0.01668837 -0.06659661 -0.010494238 -0.101147 0.0132931005 -0.08680046
-0.0015990033 -0.06960652 -0.028538534 -0.013978863 0.00031881902 -0.0068728523 -0.056878097 -0.066781774
-0.06735226 -0.060695216 -0.041371554 -0.008886415 -0.019954791 0.002432835 0.048319988 -0.06886776
0.008534119 -0.015822826 -0.0741736 -0.021367265 0.06938446 -0.0240693 -0.06511907 0.0030839336
0.015271183 0.002235809 0.006236759 -0.056105897 -0.0932428 -0.050844174 0.02566044 -0.034590125
-0.005920365 -0.11529424 -0.0011002719 -0.00038671482 -0.066305615 -0.04076246 -0.03820309 -0.06726838
-0.010954167 -0.021525191 0.029946197 -0.014027994 0.03378701 -0.016302435 0.03532998 -0.04463863
-0.055011723 0.0090045305 0.0033119859 0.011791545 -0.002054379 -0.049511187 -0.035935983 -0.058243144
-0.03646651 0.0134313805 -0.065938935 -0.03372084 -0.0058652745 -0.008576212 -0.01204087 -0.020522648

net.4.weight f4 [256, 256]
00000000: 6fd6 13bd b70d b8bc 9089 cbbc 731d 90bd
00000010: 4e4f d0bd 004b 4bbb b208 963c 9e42 42bc
00000020: fe16 f83d f686 ee3c 7837 2bbd dc89 56bd
00000030: f065 543c 3097 cfbc 903d 40bc f428 53bc
00000040: 61d1 e8bc 35f8 c0bd 5122 263d 170c f7bc
00000050: 7570 e53c bedb 003c 2d61 8c3d b367 263e
00000060: d4e5 34bd c845 3d3e 0014 8cbd 9309 47bc
00000070: 2f32 503d 5a04 52bd b345 9d3c 7ffe 3c3d
00000080: 000a c0b9 54bf 8ebd c87f 24bd c478 283d
00000090: 9f91 c5be ae21 613c 8811 243e 5851 63bc
000000a0: 68f8 073d 0589 10bc 74b6 883c f9e2 6b3d
000000b0: be5d 1ebc 3355 1d3b ff31 8bbc e042 bfbd
000000c0: 605e 423d 10e3 ad3c ff0c 753e f6f6 5b3d
000000d0: ac31 a63e 33b8 1a3e 35ee b2bc d25e 8d3e
000000e0: 24a9 3fbd 2ad8 b8bd f75f 823e 705f 673c
000000f0: 0448 85bd bb3b ff3d 459d b73c 7a1d 063e
00000100: 243f c0bb ab39 963d e6f1 74bd a69b 183d
00000110: 5f42 02be 18fb 27ba 5d4d 203e 2092 9abe
00000120: e075 1dbe 3fd7 b33c a216 603e 2328 54bd
00000130: 7ab6 e93c 781c cdbc 1c41 9ebc 5241 bdbc
00000140: c2fc 59bc 008f f9ba 4507 22bd 4837 87bd
00000150: 4021 f43c 49f8 063d afb6 4c3d 0737 ce3c
00000160: 79aa 29bc 3411 1bbd f6d8 3b3e 1c80 713c
00000170: 7f70 d93c a8e2 673d c758 90bd b89e 4abc
00000180: 327a 383e e00e 7f3c 8ea1 523d 2884 053d
00000190: 18b4 e53d 9dc2 8abc 5ea9 883d 9d98 dabd
000001a0: 08cf 803d b320 b03d 9897 64be 6700 653d
000001b0: 76e9 093d 6808 10bc 2f3d c9be 9294 933e
000001c0: edd5 093c e4f3 d33d 00c2 31bd 0c64 81be
000001d0: 6473 ec3d 533d 93bd f642 8abd 29bf aa3d
000001e0: ebf5 443c c488 a7bc afaa a9bc 2ec6 51bd
000001f0: 0624 dbbd 8456 9d3e f51b bf3d bc1f a53c
00000200: 8934 8b3d ba51 c2bd 043c ca3d 956b f2bc
00000210: 7c21 283d 4c69 80bd e93e febc b9c1 b4bb
00000220: 1aad 043e e0bf 9dbd 0b70 c9bc 33a7 053e
00000230: 5ed5 703d f538 83bc a1d2 b43c 801f ed3c
00000240: 159f 803e 65c5 acbd 345b e8bc 4289 643d
00000250: dafb f3bd 655b 83bd 2cf7 3cbd 087d 893b
00000260: 2c73 113b a153 d63d a281 073e 0245 253d
00000270: 05ea eabc ef72 503d d305 adbc 0520 63bd
00000280: 50a5 0b3e 0c2a 303e 3ee1 6dba 60ed babc
00000290: 3678 1a3c 85d8 a9bd 12f9 febc 4b82 6cbc
000002a0: e2cd 0abd 68a1 c0bd e42e 49bd afd7 66bd
000002b0: d82b 533e 1027 363e 112b 243c e4cc 73bd
000002c0: e4e4 59bd 8a5e 5c3d 7de5 93bd c2a2 b0bb
000002d0: 1dca d63c ba35 14be ddc1 1b3e e3af 463e
000002e0: 3b1a e4bc 522e 813e 6ed7 263d 1184 713e
000002f0: 69f5 07bd b88a 25bd 179d 16bd 184b 08be
00000300: f389 57bd 30f0 033e 2df5 493e 606c 403c
00000310: 1b92 df3d b672 68bd 04f1 4b3d 74d7 d73d
00000320: 11b8 d7bc 874e 93bd 0263 453d 6024 65bb
00000330: 7745 5f3e 87ee 1a3d 7e27 233b 15cc d53c
00000340: 5de8 10bc 5485 3e3d 343c b13d 2d79 ccbc
00000350: 480c 833e 95fe ad3d 5eea debc 69c1 48bd
00000360: 7ba3 c1bd 6b1d f83c 361e bebd b855 143e
00000370: c529 0bbe 8a4e 863d c0c6 33bb 96e1 983a
00000380: 24dc 883e dd42 8e3e 40dd 14bc 73ae 4b3c
00000390: 6bef bb3e 405f d43a 1b83 403e f657 a3bd
000003a0: eee5 a1bd 384a e33d b648 fbbe a3a9 b2bd
000003b0: d461 97bd e2ac 1bbe 39aa b53b c501 c0bc
000003c0: 8d50 bebe c81d ee3c 160d 7e3c 81a0 97bc
000003d0: 4534 89bd 3b94 0c3d d0f5 093d d850 443c
000003e0: 50cc cabc f2f8 843b 4fc2 633c f06f 97bc
000003f0: dab6 713d 59a7 af3c b46a 173d bc3f 273e
-0.03609317 -0.022467477 -0.024845868 -0.07036867 -0.10171376 -0.0031020045 0.018314693 -0.011856703
0.121137604 0.029117089 -0.041800946 -0.052377567 0.012963757 -0.025340647 -0.011733428 -0.012888182
-0.028420152 -0.09422342 0.04056007 -0.030157132 0.028007725 0.007864891 0.06854472 0.16250496
-0.044164494 0.1848365 -0.06839752 -0.012148279 0.05082911 -0.05127368 0.019198274 0.046141144
-0.00036628544 -0.06970087 -0.040160924 0.041130796 -0.38587663 0.01374094 0.16022313 -0.013874374
0.033195883 -0.0088217305 0.016688563 0.057589505 -0.009665905 0.0024007082 -0.016991613 -0.09338927
0.047453284 0.021226436 0.23930739 0.053702317 0.32459772 0.15109329 -0.021842102 0.27611405
-0.046792164 -0.09025605 0.2546384 0.014121875 -0.065078765 0.124625646 0.02241386 0.13097182
-0.005866902 0.07335218 -0.059801005 0.037257813 -0.12720631 -0.00064079603 0.15654512 -0.3018961
-0.15376997 0.021953223 0.21883634 -0.05179609 0.028529394 -0.025037989 -0.019318156 -0.023102436
-0.013304891 -0.001903981 -0.039557714 -0.06602341 0.029801011 0.032951627 0.04997891 0.025172723
-0.010355585 -0.037858203 0.18344483 0.014740016 0.0265429 0.05661264 -0.07048183 -0.012366943
0.18015364 0.015567511 0.0514236 0.032596737 0.11215991 -0.016938502 0.06672929 -0.1067364
0.06289488 0.08599987 -0.22323453 0.055908587 0.03366991 -0.008791067 -0.39304492 0.28824288
0.00841282 0.10349253 -0.043397903 -0.25271642 0.115454465 -0.07189431 -0.06751053 0.08337242
0.012021522 -0.020450957 -0.020711271 -0.05121439 -0.1070023 0.3073007 0.09331504 0.020156734
0.0679713 -0.09488244 0.09874728 -0.029592315 0.04104756 -0.06270084 -0.031035857 -0.0055162576
0.12956658 -0.07702613 -0.024589559 0.13052063 0.058797233 -0.01601837 0.022073092 0.028945684
0.2512137 -0.084360875 -0.028363802 0.05579496 -0.11913271 -0.064139165 -0.04613416 0.004195813
0.0022193892 0.1046517 0.13233045 0.040349014 -0.028676042 0.05089086 -0.021120941 -0.055450458
0.1363728 0.1720354 -0.0009074396 -0.022818267 0.009428075 -0.08293251 -0.031124625 -0.014435361
-0.03388775 -0.09405786 -0.049116984 -0.056358036 0.20622194 0.17788339 0.010020033 -0.05952157
-0.053196803 0.053801097 -0.07221506 -0.005390496 0.026219422 -0.1447362 0.15210672 0.19403033
-0.027844539 0.25230652 0.040732794 0.23585536 -0.033193026 -0.040415496 -0.036770906 -0.13309896
-0.052621793 0.12884593 0.19722433 0.011744589 0.10916539 -0.056750022 0.049790397 0.10539141
-0.026332887 -0.07192712 0.048190124 -0.0034964308 0.21803842 0.037825134 0.0024895365 0.02609829
-0.008844462 0.04651387 0.08654061 -0.024960125 0.25595307 0.08495823 -0.027211364 -0.049012575
-0.094550095 0.030287465 -0.09283106 0.14485824 -0.13590153 0.06557949 -0.0027431697 0.001166391
0.26730454 0.27785388 -0.009085953 0.012431729 0.367061 0.0016202703 0.18800013 -0.079757616
-0.07905184 0.110981405 -0.49078912 -0.08723762 -0.07391706 -0.15202668 0.0055439738 -0.023438344
-0.3717083 0.029066935 0.01550605 -0.018509151 -0.06699423 0.03432105 0.03368169 0.011982165
-0.024755627 0.004057997 0.013901307 -0.018485993 0.05901227 0.021442102 0.036966994 0.16332906

net.4.bias f4 [256]
00000000: 2bbb 25bd bf1c 8abc 88b9 c0bd 2207 00bd
00000010: d4e8 453e caf5 91bd b929 d4bd 40e1 d5bd
00000020: daac e43d ee22 0d3d df05 ccbd 2445 60bd
00000030: fe61 fabd c0f9 e6bc f1c4 433e 688c 4e3e
00000040: 292d 2ebd 4fac 083e c330 9d3d ad19 b6bd
00000050: 96b5 1fbc 38e6 59bd ff03 3cbd 4872 cbbd
00000060: a079 0fbd 269e 7abd edc6 92bc 728d 903d
00000070: 49ed 18bb eac3 90bd 09c1 31be 22df 9dbc
00000080: a853 6e3d 0997 19bd 728b 7dbc ac13 bbbd
00000090: 2a07 b3bd 2435 91bd db38 97bd 7172 173d
000000a0: 0f3d bcbd 392b 81bd 9780 63bd 1bd3 6c3b
000000b0: c264 ce3d e2d7 79bd 652a 7ebd e762 4fbd
000000c0: 1a25 f9bc cdf7 d43d 3de6 d33c e1f4 4abd
000000d0: 3da2 8c3d 37a8 57bd f5c8 b4bd e28e f73a
000000e0: 8a0c 91bd 8a26 ddbd ee09 57bd 4cfd bfbd
000000f0: c770 7fbd 2516 0ebd 3545 963e ae9e 60bc
00000100: 8f6d 7f3d 08eb 25be 29fb d2bd 698e 48bd
00000110: 56fb 83bc 7f14 e6bc e322 abbd 19a9 9cbd
00000120: 1af7 343e 6f10 32bd d44a 1dbd 7c88 01bd
00000130: 61ec 04bd 2dbb 78bb 9e7b 173e ddf5 0abd
00000140: 48e4 c7bd 383d 20bd ec9d 5b3e c48a b2bd
00000150: 5cc8 2a3d 2076 f0bc 9f81 4d3e be5c b63c
00000160: f4bc f33c 7b27 c7bd c776 21bd 5862 a8bd
00000170: 229d 5bbd fadf 48bd ba4a 453e 246b 85bd
00000180: 5090 acbd 8453 28bc c3fb abbd 7831 3ebc
00000190: af73 11bd 3f84 75bd 38d9 db3d e0ed 113b
000001a0: 852d 0bbd 3d46 b6bd 053a a73d 6017 2dbe
000001b0: f27b 1a3e 62f8 07be df11 923d f352 1f3e
000001c0: e329 063e 10fb 053e f7cd 0fbc 136a 57bd
000001d0: b63d a8bd 5c27 7a3d 425c 67bd 5613 463e
000001e0: edf6 f3bd e6b1 6abd 66bd cebc 0131 82bd
000001f0: c248 68bd f31f 0fbd 6b29 87bd 11a1 253d
00000200: d127 80bd 6ca7 7abd ad2f 203d 3733 c8bc
00000210: 5d49 dcbd e526 e0bb 8780 513e c739 7b3b
00000220: 63be 46bc 0b61 983d e59d cfbd 462c 94bc
00000230: 8c61 f13d 0492 98bd e0c2 6d3d ce90 08be
00000240: a1f7 673d ed5e e7bc 0d90 c83c 7957 8cbd
00000250: cc56 193d 8fff 99bd 0b98 48bd 03ff 70bd
00000260: 2998 f6bd 549f abbd de36 453c fd5e c9bd
00000270: 6bce 65bd 8129 443e 11b2 87bd ab3c abbd
00000280: 2ad1 14bd 53ab e73d cf58 13bc d46f 533e
00000290: 287d 41bd 3b3a cbbd 4cfa 3e3e a19e 33bd
000002a0: ee96 72bd c6ed 16bc a98c 11be 6991 a23d
000002b0: ec34 9fbc bd64 d0bd ae59 85bd c573 34bd
000002c0: b950 c7bc 965e ef3c c0cb 8f3d 79bd 613e
000002d0: 2fa9 953d c0cf aabd f052 3c3d 8e6e 5f3c
000002e0: f4a9 a63c e212 55bd 5420 c1bc 806b a7bd
000002f0: d07e 2abc 3db6 853c 2bd6 93bd fce2 6ebd
00000300: 5b09 6ebc 4f4c efbd 32b6 7fbd 8940 95bd
00000310: 99d3 cf3c 8953 703d 68a7 423d fcfe 49bd
00000320: 99ca cb3b ba19 1f39 ae8e 8cbd f6be c23d
00000330: f9e7 49bd d794 18bd ab95 b3bd f40d 94bd
00000340: a731 883e 0162 6fbd 041e f0bc 1cae 3cbd
00000350: 30bd 643e 3bc4 45bd 03d8 31bd f22a 00bb
00000360: c8a6 23bd 7964 6ebd 6943 79bd ed78 8bbd
00000370: ee81 4fbd 22e5 3dbd 33db 8fbd 9805 38bd
00000380: bc0b 5fbd 0a16 96bb 13eb a1bd 027c 033d
00000390: 2c82 ddbc 07bb 0bbd 4ef9 b73d 45b7 07bc
000003a0: c93a 7bbc 0744 17be c02f 66bc f173 53bd
000003b0: 2d47 9ebd 0cb6 a63b f6da 4b3e 5867 573e
000003c0: c3d7 7b3d cf73 64bd fcda a6bd 7a0e c3bd
000003d0: 2576 f2bc 6e9b b5b8 cdd0 2cbd e893 36bc
000003e0: 85ab dbbc bbe1 e03d f657 323e f688 4a3d
000003f0: ecc5 e73c 4604 49bd e84d e5bc c58d e3bd
-0.0404617 -0.01685941 -0.09410387 -0.031256802 0.19327098 -0.07126959 -0.103595205 -0.10443354
0.11165781 0.03445714 -0.09962057 -0.054753438 -0.12225722 -0.028195262 0.19118096 0.20170748
-0.042523537 0.1334698 0.07675316 -0.08891616 -0.009747883 -0.05319807 -0.04590225 -0.09933907
-0.0350281 -0.06118598 -0.01791712 0.070582286 -0.0023334792 -0.07068618 -0.17358793 -0.019271437
0.05818525 -0.037497554 -0.015475141 -0.091346115 -0.08741601 -0.07090214 -0.07383891 0.036974374
-0.091913335 -0.06307072 -0.055542555 0.003613657 0.10077812 -0.060996898 -0.06205215 -0.05063143
-0.0304132 0.10398827 0.025866622 -0.04954994 0.06866882 -0.052650657 -0.08827392 0.0018887187
-0.0708247 -0.10798366 -0.052499704 -0.093744844 -0.062363412 -0.034689087 0.29349676 -0.013709707
0.062360343 -0.16202939 -0.10301811 -0.048963938 -0.016111057 -0.028085945 -0.083562635 -0.0764944
0.17672387 -0.043472704 -0.03840144 -0.031624302 -0.03245199 -0.0037953362 0.1479325 -0.03392588
-0.09760338 -0.039120883 0.21446961 -0.08717874 0.041694984 -0.029353201 0.20068978 0.02226102
0.029753186 -0.09724327 -0.039419916 -0.082218826 -0.05361665 -0.049041726 0.19266787 -0.06514576
-0.08425963 -0.010273818 -0.08397629 -0.011608474 -0.035510715 -0.059940573 0.107347906 0.0022267029
-0.033978958 -0.08900116 0.08165363 -0.16903448 0.15086344 -0.13278344 0.07132315 0.15558986
0.13101916 0.13084054 -0.008777133 -0.052591395 -0.082148954 0.061072692 -0.05648447 0.19343314
-0.11912332 -0.057298563 -0.025236797 -0.06357003 -0.056710012 -0.03494258 -0.06599697 0.040436808
-0.062575944 -0.061194822 0.039107967 -0.024438484 -0.107561804 -0.006840574 0.20459186 0.0038333999
-0.012130353 0.074403845 -0.10137538 -0.018087517 0.11786184 -0.07449725 0.058047175 -0.13336489
0.05663264 -0.028243506 0.024482751 -0.068526216 0.03743629 -0.07519447 -0.048973124 -0.058836948
-0.12040741 -0.08379999 0.012037007 -0.09832571 -0.05610506 0.19156457 -0.0662576 -0.08361181
-0.036332287 0.113119744 -0.008993342 0.20648128 -0.0472385 -0.09923216 0.18650168 -0.043852452
-0.05922597 -0.009211963 -0.14213814 0.07937891 -0.019434415 -0.10175464 -0.06511246 -0.04405572
-0.024330484 0.029219907 0.07021284 0.22044934 0.0730766 -0.083404064 0.045977533 0.013637198
0.020344712 -0.05201996 -0.023574986 -0.08174801 -0.010406211 0.01632225 -0.07218584 -0.058321938
-0.014528598 -0.116844766 -0.062429614 -0.072877 0.025369452 0.058673415 0.047522932 -0.049315438
0.00621922 0.00015173006 -0.068631515 0.09509079 -0.049293492 -0.03725132 -0.08768781 -0.07229224
0.26600382 -0.058443073 -0.029311188 -0.04606448 0.22337794 -0.048282843 -0.043418895 -0.0019556847
-0.039953977 -0.058201287 -0.060855303 -0.06810174 -0.05066102 -0.046361096 -0.07024231 -0.04492721
-0.05445455 -0.004580264 -0.07906165 0.032100685 -0.02703961 -0.03411391 0.08983098 -0.008283441
-0.01533384 -0.14772044 -0.01404947 -0.051624242 -0.077284195 0.0050876196 0.19907746 0.21035516
0.061485063 -0.055774506 -0.08147237 -0.095242456 -0.029597351 -8.6597036e-05 -0.042191315 -0.011143662
-0.026815185 0.10980555 0.17416367 0.049447022 0.028292619 -0.04907634 -0.02799125 -0.11111025

net.6.weight f4 [7, 256]
00000000: 9547 b13e 6eb2 c03b 5ef8 833d 60a2 d63d
00000010: 72df e53d 5c97 ee3d b8ff 51bd 612d bfbd
00000020: f287 e93d f8ac 403d fd43 1fbd 776f aebd
00000030: 67fb 6abe bcdd 0e3e 7eca 353e ac1a 213e
00000040: 3699 6d3e 7fb8 b73d 1e71 b33d 4da0 e8bc
00000050: 2a8c eebc edf7 103e 7140 973c bbcb ac3e
00000060: d02c a43d 7ae4 743d 7762 8cbe fc2d 0a3e
00000070: a816 3f3f 24d9 21be f5b1 8dbc 510d 513d
00000080: 350b a63d f9d8 b3bd 8092 d93c 23e6 97be
00000090: 42ec 9fbe e21e 4cbc a5c9 013e 04a1 063e
000000a0: 4a14 21bc c35b 02bd dd69 033c 117b bebc
000000b0: 2891 c53d 3c43 973c e5bf 563e 7862 99bc
000000c0: 7cde 0cbd 437a e03d 3eca d33d 91ab c53c
000000d0: 067a bcbc 0b33 f9bc 7813 503e 3922 9d3d
000000e0: 35fa 043e 637f 663e 9381 bb3e c163 1bbe
000000f0: 7f5c 3fbc 23f1 4cbe af5a 363e 695e 913c
00000100: 031e 0b3e 81f0 853e 4bdf 93bc 45b6 e2be
00000110: 9ae3 073e 7511 ee3b e7c2 013d 06f3 a8bd
00000120: aacd bd3d 0546 2eba b8a3 f8bd 845f 453e
00000130: 1fc2 89bd c369 e03b 4dc6 c63d c5cf 2e3e
00000140: 50c8 0bbe 08d4 35be 9f3e 173e 5847 a5bd
00000150: 7740 bf3c d36b 983e bf7b 223e cbdd e83d
00000160: 287f a83c 57b0 a9bd 4bf7 343e f030 29bd
00000170: 22c7 613d 6669 ff3b bd3d 0a3e f02b d03b
00000180: 95e8 bf3e 97dc 403e f9da 15bd 0bd9 33be
00000190: 44ef 273b b087 d5bd b8c4 25be c8cf dfbd
000001a0: c0bf a5bc af08 443b ee72 8cbd f7db 133e
000001b0: f986 d23d ba26 e03b 13da a03d 3b7a 0f3e
000001c0: 3266 793e 1b38 b23d 157c 18bc 716b 90bd
000001d0: c801 393c ca28 b83d d556 6fbc b970 293e
000001e0: 86a6 94bd 7393 0f3e b11f 9dbd 79cc f2bc
000001f0: b2fe 4dbd a483 b5be 51f3 17be 5cdb c2bd
00000200: e2cb b0bd 77ff c4bd 3d58 01bd 8bd6 34be
00000210: 9687 6d3e 44e3 cb3c 6734 043e 7506 133e
00000220: 8b78 293d 26ee ac3d 5249 5dbd d5aa 28bd
00000230: 3e86 ba3d 7016 b6bd e5ef eb3c 38e0 9aba
00000240: 43d4 2e3e 3939 563d 61e0 25be ff6c 6cbd
00000250: b830 80bd ec18 a93d 5a91 7fbe 6271 2fbd
00000260: 6c13 d2bc b2e6 08bf 4e52 4ebd f952 85bd
00000270: 59d6 473d 5178 bb3d c3fc dd3d 55b0 a4bd
00000280: 4748 0d3e 7e8d 09bf a00c 6ebc 3edc 023e
00000290: 829f 1b3d 61cd 2bbe 1594 3e3e a442 bdbe
000002a0: f42d 893d 1275 e6bb 706b 753d f54e 5c3e
000002b0: f1ba c9be 0a03 fe3d efdc 37be 2800 a5be
000002c0: 9168 5b3c 93fd 493d 2c96 cc3b e3a5 043e
000002d0: 2de2 09be 434b 21be de79 483c 4702 73be
000002e0: 63cc 99bd 2c8a 95bb 7e54 d1bc 693c 683d
000002f0: ae1b 4e3e 2fc2 033e e520 f9bc 130f c2bd
00000300: 22d6 9fbb 8310 b23d db8e 54be 5859 2fba
00000310: c801 f6bd e9e0 a13d f077 4b3e a945 94bd
00000320: cdc8 693e d584 87be 7da3 6bba cc7b 313d
00000330: 9bfe 31bd f537 43bd 14b5 53bd 57a4 4b3d
00000340: fdb0 323e 4517 c83c 5a00 afbd 2f1b c63d
00000350: 85d0 4b3e 79bb 76bc 79ec 95bc 8391 343d
00000360: 832b f8bd 656d 223d 9058 8ebc a862 0d3d
00000370: 9994 30bd 1fee 383e eb92 b8bc 7feb b4be
00000380: 355e 513d 3ea3 573e 9aa3 aabe 4c7b 56bc
00000390: 641d 9e3d e655 f0bc fc1f b03e df5c 5abd
000003a0: 47f9 99bd 29d3 c3bd 7b5c 9a3d ff3c aa3e
000003b0: d8d7 39bd 390e 6bbe 5211 2d3e e57b 1f3e
000003c0: 2447 873c 2a39 54bd 2135 1fbd e05c f93d
000003d0: 5df8 35bd 47ab 84be b7b4 183d 9a0a 5f3d
000003e0: c3e7 a3bd 5ac0 473d f9db 3f3e ced0 d3bd
000003f0: f268 8cbe 8133 d73d 4aa3 d3bd 5544 03bd
0.34624925 0.0058806455 0.06443857 0.10480189 0.112242594 0.11649963 -0.051269263 -0.09334827
0.11402883 0.047039956 -0.038883198 -0.08517354 -0.22947465 0.13951772 0.17753026 0.15732831
0.23202977 0.08970737 0.0876181 -0.02839675 -0.02911957 0.14157076 0.018463345 0.33749184
0.0801636 0.059788205 -0.27418873 0.13494104 0.74643946 -0.15805489 -0.01729677 0.05103809
0.08107606 -0.087816186 0.026559114 -0.29667768 -0.31234938 -0.012458535 0.12674578 0.1314736
-0.009831497 -0.031825792 0.008020845 -0.023252042 0.09646827 0.018464677 0.2097164 -0.018723711
-0.034391865 0.109608196 0.10341309 0.02412966 -0.023007404 -0.030419847 0.20319927 0.07672543
0.12986071 0.22509532 0.36622295 -0.15174772 -0.011679768 -0.20013861 0.1780803 0.017745214
0.13585667 0.26160052 -0.01805081 -0.44279686 0.13270417 0.0072652646 0.031680014 -0.08249478
0.09267743 -0.0006648007 -0.12140602 0.19274718 -0.06726479 0.0068485453 0.097057916 0.17071445
-0.13650632 -0.17756665 0.14769982 -0.08070248 0.023346169 0.29769763 0.15867518 0.11370429
0.020568445 -0.08285587 0.1767246 -0.041306436 0.05512155 0.007794547 0.13500114 0.006352894
0.37482134 0.18834148 -0.03658578 -0.17563264 0.002562479 -0.10426271 -0.16188323 -0.10928303
-0.020233035 0.0029912402 -0.068578586 0.14439379 0.1027965 0.006840554 0.07854094 0.14011471
0.2435539 0.087021075 -0.009306927 -0.07051743 0.011291929 0.08992155 -0.014608105 0.16546907
-0.07258324 0.14021091 -0.0767206 -0.029638516 -0.050291725 -0.35451996 -0.14838912 -0.09514496
-0.086326376 -0.096190386 -0.03157829 -0.17659967 0.23196253 0.024888642 0.12910615 0.14357932
0.041374724 0.08443861 -0.054025 -0.041178543 0.09107636 -0.08890998 0.028800914 -0.001181609
0.17073159 0.052300666 -0.16198875 -0.057721134 -0.06259292 0.082567066 -0.24957791 -0.04283274
-0.025644027 -0.53477013 -0.05037146 -0.065099664 0.048788402 0.09153808 0.10839226 -0.08041445
0.13797103 -0.53731525 -0.014529377 0.12779328 0.037993915 -0.16777565 0.18611176 -0.36964905
0.06698218 -0.007032999 0.059916914 0.21514495 -0.39400437 0.124029234 -0.17955373 -0.32226682
0.01339163 0.049314093 0.006243488 0.12953906 -0.13465185 -0.15751366 0.012236087 -0.23731337
-0.07509687 -0.0045635905 -0.025552984 0.056698237 0.20127746 0.12867044 -0.030411193 -0.094755314
-0.0048778215 0.086945556 -0.2075762 -0.00066890335 -0.120120585 0.07904226 0.19869971 -0.07239849
0.22830506 -0.2646853 -0.00089889 0.043330953 -0.0434557 -0.047660787 -0.05168636 0.049717274
0.17450328 0.024425158 -0.08544989 0.096731536 0.19903763 -0.015059345 -0.018301236 0.044084083
-0.12117674 0.039655108 -0.017376214 0.034517914 -0.043110464 0.18059586 -0.022530993 -0.3533592
0.051115233 0.21058366 -0.33327943 -0.01309092 0.077204496 -0.029337835 0.34399402 -0.053311225
-0.07518249 -0.0956176 0.075371705 0.3324966 -0.04537186 -0.22954644 0.16901138 0.15574606
0.016513415 -0.05181233 -0.038869027 0.121759176 -0.04442631 -0.25911924 0.037281718 0.05445347
-0.080031894 0.048767425 0.18736257 -0.10342561 -0.27423817 0.105078705 -0.10333879 -0.03204759

net.6.bias f4 [7]
00000000: b319 163e 90b9 373e 2331 f0bd 605a fabd
00000010: b4b3 e53d cf59 453e 6a81 51be
0.14658241 0.1794188 -0.11728122 -0.12224269 0.11215916 0.1927254 -0.20459524
