preTrained/GAIL_pretrained_6600_discriminator.pth (torch, 542340 bytes, 7 tensors)

net.0.weight f4 [256, 10]
-0.40270826 -0.07074364 0.02055205 0.24084672 -0.1865132 0.2575223 0.0021441532 -0.26102158
0.16198318 0.13571464 -0.14097455 0.22042602 -0.20875826 0.36540425 -0.15409926 -0.22005884
-0.0074281814 0.006298826 -0.3576285 0.108784065 -0.10281783 -0.45329526 -0.44324473 -0.3548014
-0.24673791 -0.10768126 -0.15159236 -0.029525898 0.116438426 0.2175069 0.15128112 0.21577877
0.2883763 -0.24253601 -0.04895322 0.30600208 -0.2168053 -0.1313806 -0.19357844 0.15270174
-0.19880238 -0.29061005 0.13426498 0.102456264 -0.20575164 0.08697673 -0.07832095 -0.340327
0.0014428138 0.29320177 -0.25568426 0.0042553954 -0.31844586 -0.29611698 0.20848799 -0.13113184
0.2989722 -0.023267953 -0.08401812 0.051180083 -0.521371 -0.387667 0.008799616 0.0018666107
0.10299469 -0.17133006 0.35195935 0.22450839 -0.036033843 -0.021589128 -0.36254227 -0.63703614
0.32739624 0.073222004 0.21441567 0.18072574 0.16006811 0.2297628 -0.15394814 0.0843137
0.13012552 -0.25006065 0.048981797 -0.10713025 0.10441871 -0.06559618 -0.015368508 -0.07774857
-0.0431141 -0.24095586 -0.04267113 -0.22548082 0.15645504 -0.15987958 0.23352994 0.40288228
0.167212 0.20926908 0.27706197 -0.11342796 0.17265426 0.7367897 0.22296707 0.0035995836
0.24299863 0.3621285 0.10552941 -0.074588574 -0.10540576 -0.20980607 0.16652538 -0.5034188
-0.17783856 -0.2812934 0.047910433 -0.37521124 0.007856304 0.117980294 0.08408148 0.06884229
0.23316753 -0.1569342 -0.21473873 -0.24094576 -0.2794071 -0.249146 -0.11309566 -0.327964
-0.08597823 0.32390136 -0.07622127 0.35345632 -0.20649922 0.22563562 -0.17383346 -0.05933842
0.18881787 0.08147753 0.16333957 0.13718341 0.17843786 0.0047131944 0.24175726 -0.30129996
-0.13444127 -0.18632783 -0.08089518 0.1877238 0.15621892 0.2788186 -0.045010313 -0.36345717
0.26530048 0.08320902 0.09229084 0.42114684 -0.15449436 0.057403814 -0.051239796 0.09380312
0.3269713 -0.34884825 0.044461902 0.36281618 -0.12572536 0.024474537 -0.29649 -0.17016459
-0.3588157 0.2037249 0.027087215 0.39348164 -0.3274088 0.09871495 0.22885913 -0.013327476
0.123602465 -0.21648173 -0.24857545 -0.24090073 0.20818976 0.0044891825 0.008191009 -0.044062644
0.03463343 0.10705617 0.17429337 0.17126805 0.13573615 0.18626015 -0.17159985 -0.685842
0.3055956 -0.12600395 -0.12193876 -0.0671058 -0.08445497 0.3343609 0.15507887 0.15801711
-0.10404288 0.065044 -0.23403196 0.13692339 -0.35795507 -0.17474927 -0.16885394 0.102170154
-0.051407486 0.111713 -0.27225345 -0.4387271 0.09382373 -0.21324314 -0.30393478 -0.05361508
-0.27944317 -0.12604071 0.19432598 -0.274222 0.13639705 0.27675974 0.07228957 -0.24075842
-0.13917325 0.26749876 -0.11694864 -0.029875634 0.1501635 0.22669847 0.20832592 -0.51400477
-0.32829028 0.170492 -0.055948462 -0.1513226 0.03981059 -0.17326863 0.05202264 0.22480501
-0.15872458 -0.2155097 -0.26946247 -0.1993709 0.13368829 0.1778896 0.04595227 0.17186975
0.06607084 -0.12954742 0.27135113 0.3324517 -0.011311926 -0.15324363 0.07391317 -0.06613189
00000000: c72f cebe 0be2 90bd c65c a83c 86a0 763e
00000010: 51fd 3ebe f7d9 833e ec84 0c3b 9fa4 85be
00000020: ebde 253e c7f8 0a3e a25b 10be 5cb7 613e
00000030: bac4 55be 4416 bb3e 32cc 1dbe 1b57 61be
00000040: 1a68 f3bb 6266 ce3b 151b b7be 2eca de3d
00000050: 2892 d2bd 5116 e8be f9f0 e2be 87a8 b5be
00000060: dda8 7cbe fe87 dcbd 073b 1bbe 4ce0 f1bc
00000070: 4577 ee3d 21ba 5e3e 70e9 1a3e 1cf5 5c3e
00000080: 0fa6 933e 5c5b 78be 2c83 48bd 4eac 9c3e
00000090: 3502 5ebe a388 06be 6d39 46be d85d 1c3e
000000a0: da92 4bbe d7ca 94be c27c 093e 97d4 d13d
000000b0: 8fb0 52be db20 b23d bc66 a0bd 573f aebe
000000c0: cc1c bd3a 8b1e 963e 0ce9 82be d870 8b3b
000000d0: 560b a3be a59c 97be e07d 553e 6d47 06be
000000e0: e212 993e 6f9c bebc b111 acbd 35a2 513d
000000f0: 9278 05bf 4a7c c6be 442c 103c 10a9 f43a
00000100: e1ee d23d 2671 2fbe 0434 b43e 87e5 653e
00000110: 3998 13bd afdb b0bc 249f b9be cd14 23bf
00000120: 7ba0 a73e 6bf5 953d c88f 5b3e 2b10 393e
00000130: e5e8 233e f046 6b3e 95a4 1dbe a9ac ac3d
00000140: a03f 053e f307 80be 23a1 483d 1b67 dbbd
00000150: 7ad9 d53d 4a57 86bd 32cc 7bbc a43a 9fbd
00000160: 6998 30bd 22bd 76be ecc7 2ebd 72e4 66be
00000170: c035 203e 79b7 23be 7922 6f3e 9646 ce3e
00000180: 9f39 2b3e a24a 563e 11db 8d3e eb4c e8bd
00000190: 47cc 303e 409e 3c3f 7b51 643e fee6 6b3b
000001a0: a2d4 783e e868 b93e ce1f d83d e5c1 98bd
000001b0: fade d7bd 67d7 56be a185 2a3e 0ee0 00bf
000001c0: 501b 36be b005 90be bb3d 443d b01b c0be
000001d0: bab7 003c a79f f13d e932 ac3d 30fd 8c3d
000001e0: 78c3 6e3e 5cb3 20be 78e4 5bbe 7cba 76be
000001f0: 730e 8fbe 2120 7fbe b39e e7bd e6ea a7be
00000200: 5b15 b0bd 66d6 a53e e619 9cbd 3af8 b43e
00000210: 8874 53be 060d 673e 6601 32be d80c 73bd
00000220: 7959 413e b1dd a63d 7d42 273e cf79 0c3e
00000230: 6ab8 363e 2471 9a3b 378f 773e fd43 9abe
00000240: f9aa 09be b9cc 3ebe 5fac a5bd ab3a 403e
00000250: daf7 1f3e 50c1 8e3e bc5c 38bd 0f17 babe
00000260: 77d5 873e 7e69 aa3d fb02 bd3d 8fa0 d73e
00000270: c533 1ebe 4320 6b3d d2e0 51bd da1b c03d
00000280: c868 a73e 3d9c b2be af1d 363d 0bc3 b93e
00000290: 26be 00be d37e c83c 8acd 97be a03f 2ebe
000002a0: b1b6 b7be 439d 503e 02e6 dd3c 6d76 c93e
000002b0: 20a2 a7be 102b ca3d 0c5a 6a3e 7c5b 5abc
000002c0: 4a23 fd3d 63ad 5dbe 908a 7ebe aeae 76be
000002d0: b22f 553e fe19 933b 9533 063c 087b 34bd
000002e0: c9db 0d3d 4440 db3d f679 323e e460 2f3e
000002f0: 6bfe 0a3e fbba 3e3e dfb7 2fbe 5793 2fbf
00000300: 0777 9c3e 2e07 01be 07bb f9bd c46e 89bd
00000310: baf6 acbd 5a31 ab3e ffcc 1e3e 3dcf 213e
00000320: 6f14 d5bd ca35 853d 13a6 6fbe a535 0c3e
00000330: e345 b7be 79f1 32be 0ce8 2cbe 963e d13d
00000340: a890 52bd c9c9 e43d ce64 8bbe d7a0 e0be
00000350: a826 c03d 695c 5abe 579d 9bbe 7c9b 5bbd
00000360: 2d13 8fbe d110 01be 64fd 463e d366 8cbe
00000370: abab 0b3e 74b3 8d3e 8e0c 943d 6089 76be
00000380: 6f83 0ebe 99f5 883e c582 efbd bfbd f4bc
00000390: 76c4 193e a523 683e 6453 553e d195 03bf
000003a0: aa15 a8be 7495 2e3e 372a 65bd 50f4 1abe
000003b0: 6e10 233d 556d 31be b115 553d 4933 663e
000003c0: b288 22be 93ae 5cbe fcf6 89be e327 4cbe
000003d0: 95e5 083e b128 363e 7338 3c3d a0fe 2f3e
000003e0: 2650 873d 14a8 04be 89ee 8a3e 1c37 aa3e
000003f0: a855 39bc e6eb 1cbe ca5f 973d 2870 87bd

net.0.bias f4 [256]
0.21878937 -0.18589155 0.01751326 0.15685022 -0.121880226 -0.31139785 0.17902869 0.43318385
-0.3953738 0.2564899 0.27308953 -0.41788232 -0.08314083 -0.026297092 -0.23826194 0.38072446
-0.18451805 -0.4186877 0.28976464 -0.26160744 -0.20245244 -0.2357533 0.17080142 0.044462252
-0.14153336 -0.29719704 -0.20350687 0.2330019 0.27715507 0.15065064 -0.25814587 0.29278973
-0.29394025 0.22801787 0.22275558 0.12861046 -0.09513129 0.15103276 -0.02792234 0.22007217
-0.08601298 0.257761 -0.08189334 -0.4537756 -0.25589672 0.24466035 -0.45778456 0.21850216
-0.05598992 -0.06815792 0.13355963 -0.17621952 0.15659072 0.16794865 -0.46185565 0.30207226
0.055088755 -0.057443544 0.022102114 -0.30305886 0.14439967 0.3086876 -0.2172072 0.08257462
0.13785899 0.38743904 0.19053154 0.04201061 -0.25078535 -0.36357024 -0.5022332 -0.29698136
0.051721875 0.1936428 0.03128622 0.20713578 0.14302692 0.51476866 0.38986894 -0.09509742
-0.0030342015 0.33237666 -0.18799764 0.20307495 -0.26731083 -0.23096119 0.19960448 0.23789123
0.04907253 -0.14970934 0.14397551 -0.41808876 -0.08207476 -0.3590019 -0.115783356 0.46550316
0.44798994 -0.23287179 0.24338213 0.2740653 -0.33418405 -0.23089805 0.093845524 0.37581575
0.28879046 0.32548764 -0.16447501 0.0059896065 0.17922507 0.103795804 0.02936817 -0.24864838
-0.06792911 -0.28513607 -0.29119033 -0.13545565 0.3613584 0.4730233 0.0010842477 -0.5212436
-0.24219124 -0.4221019 -0.11580669 0.023995396 0.010447426 -0.047024276 0.009337653 0.13119029
0.06587103 -0.09964615 -0.041282505 -0.29800165 -0.002983482 0.12400899 -0.20701402 -0.12054797
0.09883355 0.032160304 -0.101430416 0.17482689 -0.14223623 -0.36547697 -0.13891774 -0.2000154
-0.39171743 0.45876586 0.29133758 -0.012197694 0.20762959 0.2804613 0.1662773 0.33899766
0.06913022 0.07350973 -0.4940766 0.099182434 -0.33061904 -0.12956576 0.18680486 0.005848498
-0.12847257 -0.06993501 0.046139155 0.09703755 -0.15835541 0.39401633 -0.20138298 0.056848288
-0.1253324 -0.26910606 0.31762683 -0.19356702 -0.35469845 0.28445357 0.26808682 -0.55723023
0.0075120493 -0.10749501 0.042310987 0.03729163 -0.14321648 0.41859716 -0.24641475 0.35961536
0.15244699 0.2502796 -0.013235692 -0.25570685 0.26822352 0.1831727 -0.1422516 0.17296402
-0.17405286 -0.47211227 -0.18520348 0.13711227 0.20123523 -0.25043947 -0.019475924 -0.123368286
0.083674684 0.1686418 -0.4160663 -0.114796914 -0.07946273 0.148041 0.46707675 -0.17096725
-0.20952149 -0.18383804 -0.14798388 0.2529334 0.06481018 0.13993582 0.1523343 -0.3600599
0.041921485 -0.080738924 0.30039972 -0.07205034 -0.13593222 -0.18315634 0.28830296 0.22991677
0.086873785 -0.36888778 0.023607366 -0.21673389 0.43016136 -0.287028 0.089382194 -0.24628104
0.35797998 0.2907566 0.10831316 0.10875236 0.043939117 0.09949862 0.14931199 0.05959168
0.3079302 -0.11755413 -0.24786234 -0.08020658 -0.28052682 0.16823389 -0.13838036 -0.12956606
0.12827273 -0.13354473 -0.31057546 -0.6092276 0.05214005 -0.19848122 -0.27062216 -0.15679352
00000000: 520a 603e 5b5a 3ebe f877 8f3c 589d 203e
00000010: 579c f9bd 8a6f 9fbe 4c53 373e 46ca dd3e
00000020: 6f6e cabe a552 833e 64d2 8b3e acf4 d5be
00000030: bd45 aabd 006d d7bc f0fa 73be 51ee c23e
00000040: 4df2 3cbe 3c5e d6be 085c 943e 69f1 85be
00000050: b14f 4fbe 5069 71be 91e6 2e3e 0d1e 363d
00000060: 1fee 10be 362a 98be 1b64 50be 0d98 6e3e
00000070: 45e7 8d3e 2944 1a3e b22b 84be 89e8 953e
00000080: 567f 96be 847d 693e 0a1a 643e 76b2 033e
00000090: 32d4 c2bd 55a8 1a3e 64bd e4bc 995a 613e
000000a0: 9327 b0bd 40f9 833e b2b7 a7bd 4755 e8be
000000b0: e504 83be 3e88 7a3e bd62 eabe 08bf 5f3e
000000c0: b055 65bd 6196 8bbd dbc3 083e e472 34be
000000d0: 5159 203e bbfa 2b3e 5878 ecbe 37a9 9a3e
000000e0: bfa4 613d ec49 6bbd 7e0f b53c 882a 9bbe
000000f0: 82dd 133e 4d0c 9e3e 906b 5ebe e21c a93d
00000100: e82a 0d3e 695e c63e b31a 433e 5113 2c3d
00000110: f066 80be e125 babe 5b92 00bf f10d 98be
00000120: 51da 533d 4c4a 463e fb25 003d 671b 543e
00000130: a675 123e e1c7 033f e79c c73e 70c2 c2bd
00000140: 74d9 46bb 462d aa3e 7482 40be e1f2 4f3e
00000150: f7dc 88be 1781 6cbe 1e65 4c3e c299 733e
00000160: 4700 493d 684d 19be 516e 133e bb0f d6be
00000170: d016 a8bd 19cf b7be d31f edbd 6e56 ee3e
00000180: f05e e53e f175 6ebe 2a39 793e 4952 8c3e
00000190: 2c1a abbe 8a70 6cbe 1532 c03d ec6a c03e
000001a0: 58dc 933e 51a6 a63e 236c 28be 7644 c43b
000001b0: c786 373e e592 d43d 8495 f03c ae9d 7ebe
000001c0: 6b1e 8bbd 5bfd 91be e616 95be e3b4 0abe
000001d0: f803 b93e 1c30 f23e 511d 8e3a 3870 05bf
000001e0: fb00 78be be1d d8be 0f2c edbd fe91 c43c
000001f0: ae2b 2b3c 879c 40bd f5fc 183c bf56 063e
00000200: 64e7 863d 4813 ccbd d817 29bd ac93 98be
00000210: 8686 43bb 6df8 fd3d 7cfb 53be dbe1 f6bd
00000220: 3f69 ca3d 86ba 033d c0ba cfbd d205 333e
00000230: 60a6 11be cc1f bbbe 7440 0ebe d6d0 4cbe
00000240: 308f c8be 5ce3 ea3e 332a 953e d6d8 47bc
00000250: da9c 543e a098 8f3e 9944 2a3e 1a91 ad3e
00000260: 2594 8d3d 458c 963d 9cf7 fcbe 2920 cb3d
00000270: e646 a9be e3ac 04be c649 3f3e c2a4 bf3b
00000280: 508e 03be 163a 8fbd 69fc 3c3d 9fbb c63d
00000290: ec27 22be 82bc c93e 5737 4ebe c0d9 683d
000002a0: 2357 00be 45c8 89be fc9f a23e 6f36 46be
000002b0: 099b b5be e6a3 913e ad42 893e a4a6 0ebf
000002c0: a327 f63b 5826 dcbd 494e 2d3d 1cbf 183d
000002d0: 57a7 12be 5e52 d63e 2654 7cbe 811f b83e
000002e0: 101b 1c3e a624 803e 84da 58bc 02ec 82be
000002f0: 9854 893e a091 3b3e 67aa 11be 7b1d 313e
00000300: ea3a 32be b3b8 f1be fba5 3dbe 2967 0c3e
00000310: 9c10 4e3e 9a39 80be f98b 9fbc 83a8 fcbd
00000320: a25d ab3d 70b0 2c3e a406 d5be a51a ebbd
00000330: 5bbd a2bd 0f98 173e af24 ef3e 0a12 2fbe
00000340: cd8c 56be 0a40 3cbe 1689 17be 7d80 813e
00000350: 33bb 843d 564b 0f3e 86fd 1b3e c559 b8be
00000360: ddb5 2b3d 735a a5bd fecd 993e 218f 93bd
00000370: d131 0bbe 568d 3bbe 729c 933e 4d6f 6b3e
00000380: e2ea b13d dcde bcbe 3c64 c13c 7def 5dbe
00000390: 1c3e dc3e 56f5 92be 030e b73d 1931 7cbe
000003a0: 2749 b73e 0dde 943e 4ad3 dd3d 8fb9 de3d
000003b0: 81f9 333d efc5 cb3d 3ee5 183e 6816 743d
000003c0: 07a9 9d3e 38c0 f0bd a0cf 7dbe 5943 a4bd
000003d0: 36a1 8fbe 8145 2c3e 95b3 0dbe f7ac 04be
000003e0: ed59 033e f3bf 08be bf03 9fbe 57f6 1bbf
000003f0: ce90 553d a93e 4bbe fd8e 8abe 7b8e 20be

net.2.weight f4 [256, 256]
-0.06852417 0.0145874545 -0.066306196 -0.011556535 -0.057091303 0.04601948 -0.09195422 0.008147226
-0.040330514 -0.08391522 -0.099704824 0.041535825 0.060901098 -0.028429395 0.004191491 -0.009743016
-0.035026774 0.056500874 -0.0023798684 0.05286448 -0.05333321 -0.15034774 -0.063585296 0.048105713
-0.024392009 0.010882398 0.06351772 -0.026499586 -0.046673495 -0.22114651 0.0154376775 -0.015480659
-0.0132268 -0.021720868 -0.07386386 0.09390245 0.03569098 0.07394504 -0.16598687 -0.0033499014
0.010207608 0.032169096 0.041996866 0.03873451 -0.0037344508 -0.13558409 0.053582206 0.001586391
-0.053910267 0.03314607 -0.04533817 0.0039567575 -0.04811262 0.11880903 -0.007172148 -0.057050146
0.05263821 7.9273836e-05 -0.16232324 0.011303124 0.06028449 -0.16657323 -0.048128635 0.03536089
-0.062051196 -0.0059747766 -0.03969806 0.07666389 -0.025326647 0.03715416 0.045705117 -0.16129354
0.017678848 0.0017041193 -0.014739378 0.035377678 0.008797355 -0.099903665 0.018396188 -0.05888622
-0.0067116246 -0.074455075 -0.06838389 -0.080879524 0.053530835 -0.023109617 0.21896097 0.016330104
0.02041973 -0.01759198 -0.060157098 0.07496167 -0.066713326 0.046177577 -0.04190279 -0.082071595
-0.026087804 -0.060694836 -0.009331929 0.04302168 0.030164078 0.0045981184 -0.0012793588 -0.055381447
-0.12543742 0.060629845 0.034928452 0.041488204 -0.028296566 0.075830534 -0.027126245 0.030654822
-0.0080737 0.0441328 -0.0027714334 -0.1371712 0.022116447 -0.06067339 -0.009018137 0.14775257
0.031888366 -0.114259034 0.08578746 -0.02252905 -0.0004992932 0.06568611 -0.052454747 -0.048555925
-0.014616295 0.05118086 -0.021143345 -0.114675 -0.073821105 -0.06251603 0.07611466 -0.0017683059
0.096448414 -0.05658127 0.07393363 -0.0058593107 -0.021374293 0.05248998 -0.04400427 -0.05694928
-0.009351669 -0.0899626 -0.0434732 -0.118420064 -0.1691339 -0.0616659 -0.043365996 -0.013928551
-0.055387467 -0.024225213 0.14635007 -0.052715324 -0.0150496485 0.044261187 0.052378926 -0.07875253
-0.02787276 0.053519804 -0.040718313 0.0618704 0.019676026 0.0026978247 -0.015203409 0.07801569
0.035539098 -0.05319491 -0.10529755 -0.10778669 0.036671493 0.03545009 -0.13130444 -0.036378533
-0.032589745 0.055794932 -0.2129262 0.058956813 -0.01991263 -0.06450675 0.0309478 -0.08239246
-0.18160273 -0.0045186603 -0.05375719 -0.020501336 0.03364218 -0.12460408 -0.021720968 0.048711535
0.046441726 -0.047158726 0.032929257 -0.030632967 0.01017217 -0.0008290857 0.032229874 -0.064823024
-0.09093532 -0.0036828863 -0.068871826 -0.018374054 0.013850978 -0.06960857 -0.035105817 0.025959909
-0.011817507 0.05152187 -0.017961558 -0.06475315 -0.008826301 0.087723576 0.044047087 -0.04847526
-0.005077404 -0.099001355 -0.09846342 -0.03688316 -0.013685361 -0.101479985 0.048414633 0.004215795
0.02076377 -0.0042551486 0.03970046 0.028766185 -0.075240254 0.018627267 -0.012351912 -0.0023531811
0.0074782833 0.0056096935 0.0584845 0.02487485 -0.027370347 -0.032057196 0.008722163 -0.022638254
0.15170813 0.014781095 -0.051933408 -0.11919147 -0.16178873 -0.0049643293 0.05623879 -0.023154285
-0.055028614 0.012027835 0.058390755 -0.07185407 -0.031094134 0.04426807 -0.05610921 0.05627327
00000000: 6656 8cbd 3800 6f3c 8bcb 87bd 9f57 3dbc
00000010: 92d8 69bd ec7e 3c3d 7e52 bcbd f17b 053c
00000020: 9c31 25bd bedb abbd 0b32 ccbd 7821 2a3d
00000030: 6e73 793d c3e4 e8bc c658 893b 2ca1 1fbc
00000040: 3c78 0fbd 766d 673d 91f7 1bbb 6d88 583d
00000050: ed73 5abd c2f4 19be 0239 82bd 7f0a 453d
00000060: c0d1 c7bc 164c 323c 9415 823d a915 d9bc
00000070: b52c 3fbd 3b74 62be 50ee 7c3c 97a2 7dbc
00000080: 38b5 58bc f6ef b1bc ef45 97bd ed4f c03d
00000090: b430 123d 7f70 973d 76f8 29be 058a 5bbb
000000a0: d03d 273c bec3 033d e804 2c3d 14a8 1e3d
000000b0: b0bd 74bb 8ed6 0abe 0479 5b3d 73ee cf3a
000000c0: 03d1 5cbd 2cc4 073d 84b4 39bd b0a7 813b
000000d0: bd11 45bd 2652 f33d 5704 ebbb 6aad 69bd
000000e0: 2a9b 573d d13f a638 1038 26be bd30 393c
000000f0: dfec 763d 2c92 2abe 8822 45bd 95d6 103d
00000100: 6529 7ebd 0fc8 c3bb 6f9a 22bd f501 9d3d
00000110: d479 cfbc f62e 183d 4a35 3b3d 222a 25be
00000120: 3bd3 903c c15c df3a 6f7d 71bc 2fe8 103d
00000130: c822 103c 4b9a ccbd 9ab3 963c ad32 71bd
00000140: 30ed dbbb e77b 98bd da0c 8cbd 2aa4 a5bd
00000150: 2643 5b3d 6150 bdbc 4e37 603e b6c6 853c
00000160: 4747 a73c 0e1d 90bc 4a67 76bd 8185 993d
00000170: ffa0 88bd b324 3d3d 43a2 2bbd 2715 a8bd
00000180: 17b6 d5bc 269b 78bd f2e4 18bc 8037 303d
00000190: a81a f73c d0ab 963b 28b0 a7ba a8d7 62bd
000001a0: ab72 00be 0057 783d 2311 0f3d 89ef 293d
000001b0: 33ce e7bc 0a4d 9b3d dc37 debc d21f fb3c
000001c0: 8d47 04bc 98c4 343d f0a0 35bb 9b76 0cbe
000001d0: 8d2d b53c a984 78bd cfc0 13bc 734c 173e
000001e0: 609d 023d a400 eabd 56b1 af3d d88e b8bc
000001f0: 00e3 02ba 7086 863d cada 56bd 94e2 46bd
00000200: 2f79 6fbc 05a3 513d cf34 adbc bada eabd
00000210: 852f 97bd 6808 80bd 01e2 9b3d 80c6 e7ba
00000220: bf86 c53d c3c1 67bd 846a 973d 76ff bfbb
00000230: 2419 afbc bcff 563d d23d 34bd a643 69bd
00000240: be37 19bc 503e b8bd f410 32bd 3886 f2bd
00000250: 7031 2dbe 6295 7cbd 8ba0 31bd 9434 64bc
00000260: f8dd 62bd f473 c6bc cbdc 153e 06ec 57bd
00000270: cd92 76bc 384b 353d 498b 563d 0249 a1bd
00000280: 6a55 e4bc 9537 5b3d 3fc8 26bd d16b 7d3d
00000290: 9e2f a13c fdcd 303b b817 79bc b1c6 9f3d
000002a0: 7291 113d e8e2 59bd 3ea6 d7bd 45bf dcbd
000002b0: d934 163d 1d34 113d ac74 06be a801 15bd
000002c0: d37c 05bd 3a89 643d 5309 5abe b37c 713d
000002d0: d01f a3bc 1d1c 84bd 3e86 fd3c 61bd a8bd
000002e0: 11f6 39be 4511 94bb 8030 5cbd 6bf2 a7bc
000002f0: 62cc 093d 6d30 ffbd 2cf0 b1bc bf85 473d
00000300: ae39 3e3d 8229 41bd d4e0 063d fdf1 fabc
00000310: 2ca9 263c 0057 59ba 7903 043d efc1 84bd
00000320: 4c3c babd 945c 71bb ac0c 8dbd 2f85 96bc
00000330: 36ef 623c f08e 8ebd 1ecb 0fbd e0a9 d43c
00000340: 389e 41bc 9908 533d 1e24 93bc 4d9d 84bd
00000350: 319c 10bc 6ba8 b33d b86a 343d ff8d 46bd
00000360: 5a60 a6bb 39c1 cabd 31a7 c9bd cc12 17bd
00000370: 9038 60bc bdd4 cfbd 6c4e 463d a724 8a3b
00000380: c818 aa3c c66e 8bbb f39c 223d 10a7 eb3c
00000390: 9017 9abd 3698 983c ad5f 4abc d437 1abb
000003a0: 630c f53b 85d1 b73b 718d 6f3d 57c6 cb3c
000003b0: c737 e0bc 684e 03bd 67e7 0e3c dc73 b9bc
000003c0: 6059 1b3e 682c 723c 20b8 54bd a81a f4bd
000003d0: f2ab 25be d0ab a2bb a55a 663d 0eae bdbc
000003e0: af65 61bd 6510 453c 252b 6f3d 3a28 93bd
000003f0: 20b9 febc 7052 353d c5d2 65bd cd7e 663d

net.2.bias f4 [256]
-0.049114943 0.04022636 -0.028733063 -0.15162066 -0.018881723 0.043068606 -0.01866537 -0.012634565
-0.10827331 -0.010544825 -0.03509172 0.007797728 0.010598314 -0.021785818 0.005396575 0.021117933
-0.0013442056 -0.06065162 0.25316682 0.20207386 -0.06478095 -0.061215438 0.010169789 0.15852351
-0.001260969 -0.11964256 0.014622818 -0.095470704 0.00012105132 0.14272149 -0.044174355 -0.00046106742
0.073066935 -0.03381858 0.06548787 0.22243918 0.04470424 0.16920957 -0.018226651 -0.021817291
-0.006295523 -0.10069864 -0.049749646 -0.11753414 -0.07685314 -0.010500413 -0.06530101 -0.12059098
-0.09536539 -0.15725766 -0.08332456 -0.09976924 -0.041869827 -0.051290434 -0.061981168 0.07049697
-0.12308791 -0.11636011 -0.09128652 -0.010291637 -0.063417055 -0.04267697 -0.056941673 -0.03890828
-0.058072623 0.011880006 0.15011258 -0.16243346 -0.004091389 0.17063016 0.002313779 -0.074813455
-0.04166521 0.032765176 -0.035785038 -0.102862276 -0.08646835 -0.0048302254 -0.12369031 0.07531361
0.011663589 0.061351433 -0.048584245 0.011467795 -0.062698625 -0.0038279502 -0.03244002 -0.009405985
-0.035797864 -0.09694078 -0.08771508 -0.060731098 -0.089837864 -0.08498217 -0.09417452 -0.111989945
-0.11071837 -0.0078306 0.019915642 0.060576495 -0.098677136 -0.064159386 0.004412332 -0.041510142
-0.088524684 -0.107300125 0.038092226 0.027059628 0.011938748 -0.10694494 -0.037317798 0.21243869
-0.042015404 -0.023923809 -0.022130083 0.13103983 -0.10166425 0.17014733 0.0064316965 -0.083193496
0.015888304 -0.056923803 -0.025021873 -0.00059493666 0.30954993 0.13345152 -0.024276685 -0.14444582
-0.04532168 -0.081321135 0.15870054 0.19991826 0.029100785 -0.026511606 0.056375645 -0.039295644
0.052543588 0.00016694776 -0.032101702 -0.041569423 0.041462358 -0.052389532 -0.051249385 -0.037040196
-0.052848075 -0.025199015 -0.079727 -0.043202393 -0.10263759 -0.049054228 -0.045583043 -0.0716142
-0.036294315 0.026128417 -0.055186637 -0.033796303 -0.023284694 0.03935707 -0.033000603 0.09466555
-0.03139439 0.018027572 -0.12694576 -0.033145774 0.22877431 -0.006082434 0.16759081 0.0160271
-0.06542752 -0.016504105 -0.014326835 -0.11325727 -0.008032496 -0.010217939 -0.022010785 0.114661075
-0.016925424 0.04924839 0.013179126 0.018733675 -0.03880495 0.024920115 -0.08328434 0.06252235
-0.08660535 0.14663325 -0.036365107 -0.009996744 0.044604488 -0.06500268 -0.11509934 -0.06946691
-0.06594799 0.044659372 -0.06347272 -0.07670604 0.17331207 -0.09015764 0.12082993 -0.046655156
0.19744733 -0.10722892 0.0024856143 0.10329945 0.040778764 -0.050854463 0.025889743 0.0068145865
-0.053274132 -0.014414535 0.0089521725 -0.013147288 0.00015994055 -0.035834767 0.23774387 -0.10451828
-0.016329188 -0.057276312 -0.061476965 0.012189283 -0.10869123 -0.047352187 -0.09225068 -0.05724902
0.018623527 0.15409604 -0.029575659 -0.064910606 -0.06466891 -0.025059147 -0.05983957 -0.034886587
-0.04256711 0.0093977265 -0.10661179 -0.05364077 0.053152867 -0.04063191 0.08137678 -0.06167429
0.13636316 -0.027026601 0.027974479 -0.093107544 0.012966763 0.114020824 0.006358485 0.006033395
-0.09575584 0.06931809 -0.08177605 0.023926504 0.15435837 -0.04730521 -0.05135155 0.17850545
00000000: c02c 49bd 65c4 243d 9a61 ebbc 7242 1bbe
00000010: d8ad 9abc b568 303d 1ee8 98bc 3501 4fbc
00000020: 66be ddbd 34c4 2cbc 56bc 0fbd 1584 ff3b
00000030: 8da4 2d3c 2c78 b2bc c1d5 b03b 84ff ac3c
00000040: 0e30 b0ba d56d 78bd 159f 813e 73ec 4e3e
00000050: e0ab 84bd 0abd 7abd 309f 263c fd53 223e
00000060: 1947 a5ba 2907 f5bd 8b94 6f3c 2586 c3bd
00000070: efdc fd38 9525 123e 2bf0 34bd 6cbb f1b9
00000080: 1ea4 953d 5a85 0abd 811e 863d 19c7 633e
00000090: cb1b 373d 4645 2d3e 0f50 95bc 2dba b2bc
000000a0: ad4a cebb 173b cebd 49c6 4bbd bdb5 f0bd
000000b0: 2e65 9dbd ed09 2cbc 89bc 85bd 67f8 f6bd
000000c0: ee4e c3bd 2708 21be 11a6 aabd d153 ccbd
000000d0: b27f 2bbd eb15 52bd f7df 7dbd b760 903d
000000e0: 8415 fcbd 364e eebd 6df4 babd 419e 28bc
000000f0: cde0 81bd 0cce 2ebd ac3b 69bd 4a5e 1fbd
00000100: 8fdd 6dbd 5ba4 423c 1db7 193e f554 26be
00000110: 0f11 86bb acb9 2e3e c5a2 173b cc37 99bd
00000120: 24a9 2abd c734 063d 5593 12bd 75a9 d2bd
00000130: 5116 b1bd de46 9ebb 5851 fdbd 063e 9a3d
00000140: a318 3f3c a44b 7b3d 4600 47bd 6be3 3b3c
00000150: 2368 80bd 59de 7abb d4df 04bd 8f1b 1abc
00000160: c8a0 12bd e388 c6bd f7a3 b3bd 2cc1 78bd
00000170: eafc b7bd 220b aebd 92de c0bd fc5a e5bd
00000180: 50c0 e2bd eb4b 00bc 2126 a33c 0f1f 783d
00000190: 3d17 cabd ff65 83bd 5395 903b 8a06 2abd
000001a0: 6e4c b5bd 2bc0 dbbd 9806 1c3d 27ac dd3c
000001b0: bd9a 433c f305 dbbd 8cda 18bd 8789 593e
000001c0: 5818 2cbd ddfb c3bc 264a b5bc 4e2f 063e
000001d0: 5935 d0bd 1a3b 2e3e fbc0 d23b 5a61 aabd
000001e0: 3028 823c ef28 69bd acfa ccbc 86f5 1bba
000001f0: 547d 9e3e 84a7 083e e6df c6bc 9be9 13be
00000200: 3aa3 39bd b28b a6bd 6582 223e 5fb7 4c3e
00000210: c564 ee3c de2e d9bc 26ea 663d 78f4 20bd
00000220: f237 573d b30e 2f39 137d 03bd b344 2abd
00000230: 6fd4 293d 6896 56bd e0ea 51bd 76b7 17bd
00000240: 3977 58bd 2a6e cebc e947 a3bd fef4 30bd
00000250: a833 d2bd 16ed 48bd 49b5 3abd 77aa 92bd
00000260: 59a9 14bd 430b d63c 620b 62bd fe6d 0abd
00000270: 8bbf bebc e134 213d a42b 07bd 03e0 c13d
00000280: 6797 00bd 8fae 933c 12fe 01be ddc3 07bd
00000290: d043 6a3e 284f c7bb ed9c 2b3e 444b 833c
000002a0: ddfe 85bd 9e33 87bc 1abb 6abc 6df3 e7bd
000002b0: bb9a 03bc 2469 27bc f64f b4bc 6dd3 ea3d
000002c0: 30a7 8abc aeb8 493d 43ed 573c 5d77 993c
000002d0: f0f1 1ebd 4525 cc3c fb90 aabd b80b 803d
000002e0: 255e b1bd 0727 163e 94f3 14bd 62c9 23bc
000002f0: 32b3 363d 2020 85bd 34b9 ebbd ab44 8ebd
00000300: bd0f 87bd bfec 363d fcfd 81bd 0e18 9dbd
00000310: b878 313e 92a4 b8bd af75 f73d 7a19 3fbd
00000320: a22f 4a3e d69a dbbd b0e5 223b a98e d33d
00000330: a207 273d c54c 50bd ba16 d43c e54c df3b
00000340: fa35 5abd f12a 6cbc 22ac 123c b967 57bc
00000350: b7b5 2739 7ac7 12bd 2173 733e ae0d d6bd
00000360: cac4 85bc 919a 6abd 45cf 7bbd 8fb5 473c
00000370: 8299 debd 5ef4 41bd eded bcbd f37d 6abd
00000380: 5e90 983c 5acb 1d3e a748 f2bc daef 84bd
00000390: 2271 84bd d748 cdbc 561a 75bd 3de5 0ebd
000003a0: da5a 2ebd ecf8 193c 4857 dabd 6db6 5bbd
000003b0: d2b6 593d a56d 26bd dfa8 a63d 2e9e 7cbd
000003c0: c9a2 0b3e e466 ddbc bc2a e53c 2baf bebd
000003d0: 8c72 543c c083 e93d d75a d03b c9b3 c53b
000003e0: a31b c4bd a5f6 8d3d 347a a7bd 8401 c43c
000003f0: 1f10 1e3e 1cc3 41bd 0156 52bd 22ca 363e

net.4.weight f4 [256, 256]
0.011287454 0.24102695 0.11260869 0.56589174 0.21019429 -0.039073795 0.012962924 0.008598268
0.23110223 0.09751558 0.010618064 -0.04819237 0.043596428 0.038153585 -0.046093713 0.25066343
0.021044487 -0.044612844 -0.5133782 -0.08491899 0.11608579 0.015347451 -0.023648294 0.17989826
0.008731163 0.55200124 0.106450476 0.38700584 -0.018432029 0.030569982 -0.0031826273 0.021433055
0.42079774 0.05853624 -0.42192394 -0.37532416 0.06383051 0.06269194 0.055289757 0.035903316
0.04903886 0.095510714 0.058761127 0.16570623 0.039140712 0.0015635173 0.05915544 0.1631907
0.16228196 0.22944039 0.13845485 0.12786093 -0.03390163 0.043027252 -0.036912158 0.21771303
0.33120412 0.4636633 0.003237719 -0.0071969833 -0.058979094 -0.023096627 0.002920131 0.14361644
-0.014670947 0.027326403 0.008374305 0.2898078 -0.027870554 -0.188322 0.20017302 -0.028064385
-0.046221685 0.3945146 -0.05831284 0.21004732 0.041550625 -0.054799 0.48209518 0.0877436
0.009660988 -0.10897343 -0.007566359 -0.023661843 0.038009718 0.017048998 0.1246842 0.049190328
0.005872771 0.19123161 -0.040806696 -0.060164794 0.2657768 -0.028902762 -0.062472023 0.033668257
0.007036919 0.22397353 -0.04076789 0.2640577 0.060463045 -0.048069544 0.025664993 -0.035819445
0.088915445 0.029559957 0.21645923 -0.08495608 0.02199628 0.54293954 0.033612557 -0.04915263
0.02029283 0.10096161 -0.035360415 0.17545712 -0.026274886 -0.03531826 -0.0056902696 0.031207778
0.17806351 -0.037865993 0.024937805 0.041514166 -0.14635436 0.014320983 -0.041674208 1.0613422
-0.013864487 -0.02710235 0.26284835 -0.10388169 -0.03435213 -0.04123058 -0.090866186 -0.0040734303
0.1660844 -0.0013028326 0.09365443 -0.064748965 0.058342744 -0.06590222 -0.22466809 0.02352565
0.017242067 0.011445879 0.46379343 0.053558607 -0.0016017488 -0.0032552837 0.1881645 -0.04178746
0.010331571 0.015447722 0.016859043 -0.023595802 -0.010389902 -0.01063115 -0.002619433 0.0031392763
0.049157497 0.07847025 0.51075554 0.24469821 -0.15862551 -0.024199484 0.047291923 0.025643699
-0.055903144 0.078745134 0.038948342 0.328576 0.033235025 0.019528313 -0.034985904 0.25192893
-0.07811109 0.060512118 0.030953113 0.28594014 0.04632602 0.03701586 0.478789 0.20084791
-0.06709278 -0.011456164 0.047326725 0.07625199 0.01786416 -0.045975596 0.40337643 0.060587727
-0.04062764 -0.18432584 0.02458012 -0.027603917 -0.35351443 0.42873004 -0.18552263 0.02060169
-0.2018492 0.09816738 -0.0017668146 0.13327967 -0.051051743 0.32015792 -0.20568267 0.0067787888
0.15626796 -0.036993667 0.0661268 -0.05435204 0.078419715 0.05431753 -0.20432073 0.038012084
0.022905258 0.044183202 -0.0220871 -0.056398503 0.106450595 0.18174715 0.003576238 0.02284491
0.26488918 -0.056267753 0.03278768 0.060180113 0.066458434 0.0568667 0.012783311 -0.020157227
-0.062359296 0.09041003 0.49525258 -0.044819318 0.06427832 0.064532585 0.17104618 0.0607149
0.09048514 0.40364563 0.07514345 -0.043354087 -0.041288976 0.07475806 0.052867454 -0.07785557
0.13512124 -0.03993205 0.047910687 -0.30599472 0.0174807 0.025489986 -0.0017322428 -0.1382946
00000000: 03ef 383c c5cf 763e 639f e63d 48de 103f
00000010: 2c3d 573e d80b 20bd 7262 543c c0df 0c3c
00000020: 10a6 6c3e 40b6 c73d 63f7 2d3c 5d65 45bd
00000030: 2b92 323d ef46 1c3d c3cc 3cbd f556 803e
00000040: 7d65 ac3c f5bb 36bd c16c 03bf 02ea adbd
00000050: 63be ed3d e073 7b3c 11ba c1bc 4037 383e
00000060: 270d 0f3c f44f 0d3f b502 da3d a125 c63e
00000070: c4fe 96bc e66d fa3c a093 50bb 6094 af3c
00000080: cd72 d73e b2c3 6f3d 6a06 d8be 7d2a c0be
00000090: 92b9 823d a264 803d 8377 623d 5b0f 133d
000000a0: f9dc 483d 1f9b c33d 82af 703d e5ae 293e
000000b0: 0352 203d efee cc3a fa4c 723d 761b 273e
000000c0: 3e2d 263e 6cf2 6a3e 1cc7 0d3e faed 023e
000000d0: 70dc 0abd 583d 303d 3431 17bd 2af0 5e3e
000000e0: 9693 a93e 4765 ed3e e92f 543b acd4 ebbb
000000f0: 1094 71bd 2335 bdbc ab5f 3f3b 3010 133e
00000100: 695e 70bc 9fdb df3c 6234 093c b061 943e
00000110: ca50 e4bc 7bd7 40be 28fa 4c3e 48e7 e5bc
00000120: f352 3dbd d1fd c93e 72d9 6ebd a516 573e
00000130: fd30 2a3d eb74 60bd 2ed5 f63e ebb2 b33d
00000140: 1f49 1e3c 762d dfbd 38ef f7bb 7bd6 c1bc
00000150: 14b0 1b3d 57aa 8b3c 6e5a ff3d cc7b 493d
00000160: 6070 c03b 38d2 433e ec24 27bd 5c6f 76bd
00000170: e613 883e 7cc5 ecbc aae2 7fbd bae7 093d
00000180: f495 e63b 5159 653e 3bfc 26bd 9232 873e
00000190: 19a8 773d 92e4 44bd 643f d23c 69b7 12bd
000001a0: 4d19 b63d b927 f23c 7da7 5d3e 74fd adbd
000001b0: 8b31 b43c 16fe 0a3f 52ad 093d 4554 49bd
000001c0: 263d a63c f6c4 ce3d 15d6 10bd 08ab 333e
000001d0: 6e3e d7bc e1a9 10bd 7175 babb 74a7 ff3c
000001e0: 4856 363e 5f19 1bbd 5e4a cc3c c20a 2a3d
000001f0: ebdd 15be 8ea2 6a3c 93b2 2abd 10da 873f
00000200: e027 63bc bf05 debc 0f94 863e ecbf d4bd
00000210: d2b4 0cbd 66e1 28bd 0d18 babd 697a 85bb
00000220: 0712 2a3e cfc3 aaba e5cd bf3d 1b9b 84bd
00000230: cdf8 6e3d bef7 86bd 640f 66be ddb8 c03c
00000240: 3c3f 8d3c 7f87 3b3c 5576 ed3e 4560 5b3d
00000250: c5f1 d1ba 9956 55bb 32ae 403e 5429 2bbd
00000260: c045 293c 7118 7d3c fa1b 8a3c fc4b c1bc
00000270: 683a 2abc 462e 2ebc cbaa 2bbb 51bc 4d3b
00000280: 5f59 493d 03b5 a03d e0c0 023f 2b92 7a3e
00000290: ba6e 22be ff3d c6bc 2db5 413d bc12 d23c
000002a0: b2fa 64bd 2145 a13d 4c88 1f3d 1d3b a83e
000002b0: 7321 083d d7f9 9f3c 614d 0fbd d4fc 803e
000002c0: b5f8 9fbd 8edb 773d 6291 fd3c bf66 923e
000002d0: 5ac0 3d3d f19d 173d d523 f53e 13ab 4d3e
000002e0: f067 89bd a2b2 3bbc abd9 413d 012a 9c3d
000002f0: dc57 923c e850 3cbd 5b87 ce3e d62a 783d
00000300: 2b69 26bd eabf 3cbe 3f5c c93c 9c21 e2bc
00000310: d8ff b4be 8182 db3e a5f9 3dbe e0c4 a83c
00000320: 8fb1 4ebe fb0b c93d 7694 e7ba 777a 083e
00000330: a21b 51bd bdeb a33e 7a9e 52be 9a20 de3b
00000340: b504 203e ac86 17bd 7d6d 873d 3fa0 5ebd
00000350: 849a a03d 0f7c 5e3d 7439 51be 8fb2 1b3d
00000360: cfa3 bb3c 72f9 343d 02f0 b4bc 1e02 67bd
00000370: c502 da3d ed1b 3a3e 515f 6a3b 4025 bb3c
00000380: 8e9f 873e 0479 66bd 604c 063d 6c7f 763d
00000390: 5c1b 883d 0fed 683d 1871 513c c520 a5bc
000003a0: 766c 7fbd e528 b93d bf91 fd3e 7694 37bd
000003b0: 5aa4 833d a929 843d bb26 2f3e 30b0 783d
000003c0: 4650 b93d a4aa ce3e cfe4 993d 0e94 31bd
000003d0: a11e 29bd c11a 993d 8b8b 583d be72 9fbd
000003e0: 395d 0a3e ca8f 23bd ff3d 443d 57ab 9cbe
000003f0: af33 8f3c 60d0 d03c 6c0c e3ba 1a9d 0dbe

net.4.bias f4 [256]
0.026104394 -0.04741566 -0.05464386 -0.07684819 -0.00080332084 -0.01452569 0.018619683 -0.0042811646
0.026813084 0.081295885 -0.05996004 0.009978811 0.009709663 -0.011007069 -0.00198113 -0.03682364
0.10654364 0.19561411 -0.020246033 0.08868248 0.12596576 -0.013870985 0.0627409 -0.042372216
-0.012162054 0.018037153 -0.035261724 0.015094172 -0.040914103 0.09909593 -0.044055905 -0.014603105
-0.026864393 -0.008931857 -0.061088115 -0.013704562 -0.0142948385 0.13145658 -0.033531077 0.0811331
-0.039682236 -0.07780832 -0.04982096 0.090713285 -0.050127428 0.03208197 -0.013391339 0.05778972
-0.0017947779 -0.009587356 0.102348775 -0.016664734 -0.030636823 -0.0055210865 -0.053057823 0.05762483
-0.060178284 -0.037831016 -0.085719325 -0.057451356 -0.04937174 -0.027203262 -0.028045183 0.17559187
0.104266 0.049301893 0.064620286 0.08104866 -0.029133806 0.021007048 -0.035365563 0.15960218
-0.02148108 0.09165371 -0.011815428 -0.003036793 -0.054084595 0.235379 -0.028881593 0.031476375
-0.03935376 0.14695472 0.1569641 -0.069740124 0.041384626 0.023959408 -0.024371829 -0.012092551
-0.04150362 0.047449116 0.07374928 -0.015999831 -0.0579667 0.0014700786 -0.0069174063 0.050202545
0.11407282 0.16484389 -0.061383046 -0.009826668 0.0016877041 0.2520583 -0.022270374 0.08443377
0.17847228 -0.038376566 0.0030344138 0.010777617 0.21816333 -0.06345763 -0.052542545 0.060233925
0.11089467 -0.019761385 -0.014781678 -0.051695913 -0.0057053757 -0.009678702 0.20297152 -0.03552266
-0.06150451 0.03132291 -0.0365363 0.09989659 -0.048994444 -0.006463244 0.100251764 -0.037421506
-0.0082503725 -0.059188593 -0.0045460016 0.2141715 0.18779814 -0.07098577 -0.028923761 0.21538422
0.018477347 -0.077263944 0.18066166 0.055007484 -0.003934253 -0.0055888547 -0.01569664 0.016310474
-0.047006883 -0.008741885 -0.028899483 -0.061618205 -0.02501964 -0.0012907083 -0.07639285 0.02021669
0.20264742 0.011282988 0.014611217 -0.057862792 0.064522415 0.04275375 0.05244838 0.0049679657
-0.05213612 -0.007246107 0.16232054 -0.011534731 -0.025151107 -0.057977512 0.112136774 0.14283651
-0.024773188 -0.023212926 -0.028720938 -0.029951427 0.10280453 0.22490546 -0.056461778 -0.048158664
-0.022254597 0.06271517 0.04714358 -0.005629115 0.093113035 0.0809807 -0.054344967 -0.009710064
0.0017229152 -0.051531814 -0.052281927 0.008848021 -0.017893467 -0.015491471 0.15388297 -0.067069784
-0.056891907 0.10960749 -0.03814658 0.11190136 -0.0027892597 0.0959493 -0.06316101 -0.0037527282
-0.021541975 -0.015010175 0.096247055 -0.017409423 0.0605162 0.0071167373 0.015525201 -0.028121643
0.00813179 0.003906858 -0.052549344 0.12580557 0.0013031983 0.0036691064 0.025706438 0.097708754
0.21331765 0.058937248 -0.02638111 -0.012008218 -0.017459992 -0.028637696 -0.058544427 0.009130002
-0.0027098842 0.0010202298 -0.00022955732 0.080067314 -0.033403605 0.053057864 -0.037032634 0.15459332
0.16115592 0.026678191 0.0451005 -0.017979836 -0.032314636 0.022041488 -0.0051294337 0.027246485
0.13789211 -0.014484428 0.04548768 0.036996845 -0.012038667 0.0005675725 0.03793462 -0.017543381
-0.054818895 -0.06630866 -0.11673579 0.1253975 -0.0054239244 -0.061659254 -0.07936264 0.09725242
00000000: e2d8 d53c ec36 42bd 3dd2 5fbd 9562 9dbd
00000010: f395 52ba 29fd 6dbc 4e88 983c 0349 8cbb
00000020: 1da7 db3c 757e a63d a998 75bd 2b7e 233c
00000030: 4715 1f3c fe56 34bc d9d5 01bb 63d4 16bd
00000040: 8d33 da3d 114f 483e 02db a5bc 299f b53d
00000050: 2bfd 003e 2143 63bc 4d7e 803d 7d8e 2dbd
00000060: 5a43 47bc a7c2 933c 996e 10bd 8c4d 773c
00000070: 8c95 27bd cff2 ca3d f773 34bd dd41 6fbc
00000080: b712 dcbc ec56 12bc 8837 7abd 1989 60bc
00000090: e634 6abc 8e9c 063e e257 09bd 1c29 a63d
000000a0: d789 22bd f859 9fbd 1011 4cbd e3c7 b93d
000000b0: 6b52 4dbd 6268 033d 5967 5bbc eab4 6c3d
000000c0: c13e ebba 4914 1dbc 3c9c d13d 7b84 88bc
000000d0: 13fa fabc 3bea b4bb 2953 59bd 0408 6c3d
000000e0: 817d 76bd b2f4 1abd 9d8d afbd 1d52 6bbd
000000f0: 063a 4abd 60d9 debc 03bf e5bc 5bce 333e
00000100: 6a89 d53d c8f0 493d a457 843d d7fc a53d
00000110: 05aa eebc f916 ac3c 7bdb 10bd c16e 233e
00000120: 17f9 afbc f1b4 bb3d 7f95 41bc ef04 47bb
00000130: cf87 5dbd 3107 713e 1799 ecbc 5fed 003d
00000140: 6931 21bd 4c7b 163e 32bb 203e e9d3 8ebd
00000150: ed82 293d 8546 c43c 6ea7 c7bc d61f 46bc
00000160: b3ff 29bd 015a 423d dd09 973d 1412 83bc
00000170: 7e6e 6dbd a7af c03a 69ab e2bb 2fa1 4d3d
00000180: 039f e93d d6cc 283e ca6c 7bbd 0800 21bc
00000190: f435 dd3a c90d 813e 5c70 b6bc 9deb ac3d
000001a0: 70c1 363e bf30 1dbd 04dd 463b 9a94 303c
000001b0: 3566 5f3e 13f6 81bd da36 57bd d9b7 763d
000001c0: bf1c e33d a1e2 a1bc da2e 72bc 18bf 53bd
000001d0: 29f4 babb 6b93 1ebc c4d7 4f3e 3580 11bd
000001e0: 27ec 7bbd 744c 003d 16a7 15bd 9596 cc3d
000001f0: 66ae 48bd 9fc9 d3bb cc50 cd3d 4b47 19bd
00000200: 922c 07bc bd6f 72bd a0f6 94bb c64f 5b3e
00000210: 284e 403e fd60 91bd 86f1 ecbc ae8d 5c3e
00000220: ce5d 973c 8f3c 9ebd 5fff 383e 874f 613d
00000230: e8ea 80bb b622 b7bb 3d96 80bc 8b9d 853c
00000240: 4a8a 40bd 203a 0fbc 9cbe ecbc 5f63 7cbd
00000250: fdf5 ccbc fc2c a9ba db73 9cbd 799d a53c
00000260: ce82 4f3e 48dc 383c e363 6f3c 8901 6dbd
00000270: 5424 843d 8e1e 2f3d 1dd4 563d 51ca a23b
00000280: af8c 55bd c070 edbb 5b37 263e 2bfc 3cbc
00000290: b209 cebc d479 6dbd f7a7 e53d bc43 123e
000002a0: 24f1 cabc 0929 bebc 2c48 ebbc b25c f5bc
000002b0: 2e8b d23d 9e4d 663e 7744 67bd 0542 45bd
000002c0: 464f b6bc d070 803d a019 413d 7074 b8bb
000002d0: 0cb2 be3d 36d9 a53d d498 5ebd f616 1fbc
000002e0: 71d3 e13a 0613 53bd 9325 56bd 4af7 103c
000002f0: 5295 92bc f0cf 7dbc 7f93 1d3e e25b 89bd
00000300: 7d07 69bd e479 e03d 973f 1cbd 8a2c e53d
00000310: 03cc 36bb 1181 c43d 8f5a 81bd 55f0 75bb
00000320: cc78 b0bc 3ded 75bc 2d1d c53d 359e 8ebc
00000330: d6df 773d 8533 e93b 6a5d 7e3c 5c5f e6bc
00000340: 333b 053c 1a05 803b fb3d 57bd 2dd3 003e
00000350: 14d0 aa3a 6475 703b 4f96 d23c 871b c83d
00000360: f16f 5a3e 2f68 713d 331d d8bc 1ebe 44bc
00000370: 4208 8fbc 9a99 eabc 48cc 6fbd 0196 153c
00000380: 5098 31bb 3bb9 853a 53b5 70b9 55fa a33d
00000390: 38d2 08bd 3453 593d 88af 17bd b64d 1e3e
000003a0: 0f06 253e 398c da3c 4dbb 383d 734a 93bc
000003b0: 5a5c 04bd 5a90 b43c cf14 a8bb 0534 df3c
000003c0: 9733 0d3e 1850 6dbc 4a51 3a3d 018a 173d
000003d0: d43d 45bc 25c9 143a 5561 1b3d 23b7 8fbc
000003e0: c789 60bd d6cc 87bd 2d13 efbd 3468 003e
000003f0: 2dbb b1bb 6a8e 7cbd e188 a2bd 472c c73d

net.6.weight f4 [1, 256]
1.5509706 0.479593 0.045364104 0.47321433 0.75766754 -0.026017435 0.22422308 -0.035791922
-0.4416081 1.0048913 0.6513859 0.38557914 0.18934645 0.0033855184 0.0072800135 0.019524906
-0.88820857 1.6839374 0.084097005 1.1990056 -0.95158046 0.002818482 -0.05941093 -0.055186316
-0.1162534 0.08613366 0.02637426 0.0053516165 -0.015029244 1.4008853 0.0026197762 0.25174075
0.011222864 0.5406559 0.63869315 0.024173329 -0.061742224 1.5777512 0.14029756 0.9760678
0.3093215 -0.03057669 0.009562902 1.3389174 -0.0177994 0.8001218 0.37999475 1.1914241
-0.012309451 1.1797119 1.0338761 1.3922036 -0.007472391 0.17989223 -0.0005597612 -1.0480578
0.049062494 -0.044129957 0.3747841 -0.009007676 0.83983874 -0.041827455 0.420654 1.5684285
0.925204 0.2368462 -1.7136973 0.9463263 0.6493056 0.060502 0.5052834 -1.2479985
-0.3414426 1.2760669 0.12857702 0.09563152 0.0066912374 0.8708089 -0.036021583 1.1735005
0.4019058 -1.1567805 -1.1319926 0.015677858 0.3245398 1.4574542 -0.009571826 0.036846705
0.0022238942 1.3277545 1.3633869 0.11700215 0.19726218 -0.053857397 0.085528165 0.59056205
1.8489155 0.96955043 -0.06096417 0.0012256312 -0.1854277 -1.6995085 -0.001073738 0.90339977
1.3990269 -0.04029102 -0.008969622 -0.0026884386 0.31686297 0.40299633 -0.028443908 0.22381884
1.0157676 -0.10603936 1.1939801 0.4058373 -0.014693216 0.16324922 1.1618905 0.0008206889
-0.050575823 1.4512769 0.50637287 1.2918962 0.8210563 0.36979514 1.4931347 0.7759138
-0.046355024 0.5880271 -0.4983752 0.27568427 1.2020891 0.5827079 0.00078618625 -1.295642
-0.30598772 1.1741507 2.1065688 0.8846705 0.0020270133 0.9768127 0.15153433 0.92011195
-0.045466766 0.15354118 -0.011329868 -0.0034731703 0.30123872 -0.060167138 0.7314488 0.2771756
1.8042153 -0.043274306 1.03539 -0.036354627 0.2857356 -1.5202405 -0.38359752 -0.063353226
-0.011348795 -0.28308862 1.569521 -0.052204113 0.2225693 0.56326133 0.95691645 -0.5656587
0.94893944 0.006458872 -0.05042831 -0.006994696 1.5030125 1.8255728 0.024326209 -0.036159277
0.019214913 0.4489031 -0.36011264 0.06944655 1.487195 0.76171577 -0.014451628 -0.9535669
1.8532729 -0.022227462 0.0024555698 0.1219083 0.2325376 -0.025602289 1.7299554 -0.25383425
0.0252138 1.6705748 0.055965867 1.6854898 1.3158357 1.243037 -0.009333845 -0.04194961
0.6778277 -0.014136277 0.8538592 0.095358595 1.4843847 -0.0011803143 0.4413254 0.060797576
1.3371023 0.34810644 -0.29107824 -0.8731425 -0.09548085 -0.40513566 1.2264646 -0.67223346
1.2427319 1.4543732 0.027523119 -0.11723851 0.009918573 -0.00030591196 -0.036677577 1.5735829
-0.066749774 -0.02197491 -0.009103035 -0.65016335 -0.15288477 1.6751246 0.042053107 2.0174673
0.9706603 0.51614493 -0.39879912 0.79805845 0.8630812 0.05166301 0.149737 0.9213599
1.2497782 -0.02470923 0.15330502 0.475796 1.2610028 0.11871191 1.2535212 -0.28557804
0.025114449 0.5823301 -0.744222 1.8753164 -0.04073201 0.030430527 -0.28686234 1.8003389
00000000: 3486 c63f 378d f53e b6cf 393d 2649 f23e
00000010: 80f6 413f 8422 d5bc bc9a 653e 8d9a 12bd
00000020: 751a e2be 47a0 803f 3ac1 263f a16a c53e
00000030: 09e4 413e 93df 5d3b 2e8d ee3b b2f2 9f3c
00000040: a361 63bf 438b d73f 0d3b ac3d 0479 993f
00000050: c79a 73bf 48b6 383b e058 73bd 0c0b 62bd
00000060: 4316 eebd d866 b03d d50e d83c 9d5c af3b
00000070: 383d 76bc 3650 b33f 8db0 2b3b 2ae4 803e
00000080: 1ae0 373c 6d68 0a3f 6581 233f 2507 c63c
00000090: 6ae5 7cbd c0f3 c93f 2aaa 0f3e 94df 793f
000000a0: 635f 9e3e f77b fabc b8ad 1c3c a561 ab3f
000000b0: 0cd0 91bc c8d4 4c3f ac8e c23e 9680 983f
000000c0: 94ad 49bc cd00 973f 0d56 843f ba33 b23f
000000d0: f5da f4bb ab35 383e f0bc 12ba c226 86bf
000000e0: c1f5 483d 9dc1 34bd b4e3 bf3e ee94 13bc
000000f0: acff 563f 4453 2bbd f65f d73e 44c2 c83f
00000100: 2bda 6c3f cf87 723e 6f5a dbbf 7142 723f
00000110: e438 263f f2d0 773d 415a 013f 6abe 9fbf
00000120: 91d1 aebe 2956 a33f b2a9 033e 75da c33d
00000130: 2b42 db3b 55ed 5e3f 5e8b 13bd 4435 963f
00000140: 99c6 cd3e 6211 94bf 22e5 90bf da6e 803c
00000150: 152a a63e dc8d ba3f 26d3 1cbc 92ec 163d
00000160: c1be 113b dcf3 a93f 7683 ae3f d39e ef3d
00000170: 19ff 493e 9399 5cbd 6429 af3d 132f 173f
00000180: 43a9 ec3f 7534 783f 91b5 79bd 5ca5 a03a
00000190: c2e0 3dbe 7f89 d9bf abbc 8cba 3545 673f
000001a0: 5013 b33f 3208 25bd 52f5 12bc 8430 30bb
000001b0: dd3b a23e 8955 ce3e 3303 e9bc c430 653e
000001c0: ac04 823f 2a2b d9bd 57d4 983f e8c9 cf3e
000001d0: d1bb 70bc ce2a 273e d4b8 943f 8023 573a
000001e0: 9828 4fbd 71c3 b93f a7a1 013f db5c a53f
000001f0: bf30 523f ca55 bd3e 0a1f bf3f 49a2 463f
00000200: c4de 3dbd f288 163f 092b ffbe 7d26 8d3e
00000210: 0ede 993f 582c 153f 1118 4e3a 99d7 a5bf
00000220: 6caa 9cbe 924a 963f 06d2 0640 c479 623f
00000230: a4d7 043b 6610 7a3f d12b 1b3e 758c 6b3f
00000240: 5c3b 3abd e639 1d3e e9a0 39bc 219e 63bb
00000250: f63b 9a3e d171 76bd 3b40 3b3f f6e9 8d3e
00000260: 87f0 e63f 6640 31bd a987 843f 97e8 14bd
00000270: f04b 923e 3e97 c2bf e566 c4be 56bf 81bd
00000280: 4cf0 39bc fef0 90be 10e6 c83f fbd3 55bd
00000290: 35e9 633e e531 103f 7af8 743f 02cf 10bf
000002a0: b2ed 723f f2a4 d33b ea8d 4ebd c333 e5bb
000002b0: b762 c03f 5fac e93f c247 c73c c01b 14bd
000002c0: 9868 9d3c a1d6 e53e af60 b8be fe39 8e3d
000002d0: 685c be3f ceff 423f 85c6 6cbc f61c 74bf
000002e0: 0c38 ed3f 5e16 b6bc a0ed 203b 0fab f93d
000002f0: 561e 6e3e e4bb d1bc 2e6f dd3f 90f6 81be
00000300: 2c8d ce3c 65d5 d53f 773c 653d 21be d73f
00000310: 4e6d a83f d61b 9f3f fcec 18bc 5bd3 2bbd
00000320: 1e86 2d3f d89b 67bc 8496 5a3f 5e4b c33d
00000330: 5100 be3f c7b4 9aba 67f5 e13e e106 793d
00000340: 2b26 ab3f 023b b23e 3508 95be 4486 5fbf
00000350: 778b c3bd f16d cfbe cbfc 9c3f 7e17 2cbf
00000360: d711 9f3f e728 ba3f 2a78 e13c be1a f0bd
00000370: 8381 223c cf62 a0b9 3a3b 16bd 2a6b c93f
00000380: 1bb4 88bd ba04 b4bc e524 15bc 1b71 26bf
00000390: d38d 1cbe 7c6a d63f e13f 2c3d 2f1e 0140
000003a0: 327d 783f 1322 043f 662f ccbe 8f4d 4c3f
000003b0: e4f2 5c3f 989c 533d a854 193e 3ede 6b3f
000003c0: bbf8 9f3f 036b cabc fefb 1c3e 899b f33e
000003d0: 8a68 a13f 3b1f f33d 6273 a03f 4937 92be
000003e0: d1bc cd3c 9613 153f 5585 3ebf 5e0a f03f
000003f0: 9cd6 26bd 7149 f93c 9fdf 92be 8171 e63f
