preTrained/GAIL_pretrained_5800_actor.pth (torch, 541220 bytes, 8 tensors)

net.0.weight f4 [256, 3]
00000000: f5cd 48be fdcf 17bf d8f6 aabe 240f b33e
00000010: e3c5 483f 85bc c3be aa64 013f 7f57 283e
00000020: e707 23bf abba 09bf bc32 813e 7e03 8abc
00000030: 4753 c63d 87eb 56be 5d3b 2ebe c800 483e
00000040: 24db 6fbe 86b5 5abd 6c3b 5fbe f425 0c3f
00000050: e550 09be 30c1 c6be eadb 8b3f e8ba 05be
00000060: abbc 36bf 19ec 8d3e 757a efbe 618f 13bf
00000070: 7327 e7bd 337c 04bf ba49 08bf 7739 1cbf
00000080: 5db9 5f3e 6f85 bebe a22d 49bd e145 02bf
00000090: 983d 37be 1852 6dbf ef71 37be aa63 9fbe
000000a0: 6f9a 083e b76e 3a3e e5aa e43e 6570 f73e
000000b0: 01dc b6be d0eb 20bf e77f 843f b35f 35be
000000c0: 392b 30bf 39cd 9d3e e614 0cbe f179 75be
000000d0: c6fc 903e 6031 a63e 9f6a d9be 8056 143f
000000e0: f283 7cbd f359 8c3d 9e38 94be 0803 f9be
000000f0: 7b12 28be c7e0 08bf 634c 5cbe f8d3 59be
00000100: 6a8d fcbd c19f 3d3e eb8a 51be 1acc 6f3f
00000110: 5a1d 02bf 5b51 c0be b802 09bf 14b6 d13e
00000120: 9184 073e b9d6 e03e 640e 29bf f56d e33e
00000130: 4875 c23e d7f8 e3be 9874 8a3c 1128 5f3e
00000140: 3091 1ebf b353 99bd 5f63 f43d e542 76bc
00000150: a0da 88bd 5dd4 87bc 7a1b c73e 5a14 46bc
00000160: 1da5 0cbf 8e69 1bbf 72a2 d93d 89e3 d3bd
00000170: 256f c43e 3428 77be efae f7ba 6451 12bf
00000180: 9a6a 0f3f b044 8abf 3b3e c43e 8233 abbe
00000190: 348f c73e 3c8a 46be 8913 2fbf c825 53be
000001a0: 958f 5ebe eac9 e1be a78d 763d e517 bfbd
000001b0: f2ff a03e f44c bc3d 299c 20be e085 38bf
000001c0: f622 5a3f cdef 01bf 65d7 483e d0f4 a0be
000001d0: 31d2 d8be 9e91 fabd 62e3 013f 58ae 47bf
000001e0: af00 103e 5ac2 f93e 2050 85be 7747 6fbd
000001f0: 5329 f63e 63ee 8ebe 4028 bebe 29ad 4a3f
00000200: 0b95 d2be f81f 79be 5648 c63e 3f44 5b3e
00000210: 81ac c03c 17a2 01bf e0b8 cfbe 280a 5f3d
00000220: bed8 f7be 3bf4 e7be 037d 42bf 3d9a 1b3f
00000230: 6f9b b8bd 6ac9 4e3e 2b2e a8bf ffc8 8a3e
00000240: d218 f5be b54f b3be fba6 28bd ae2c e1be
00000250: 3b35 01be 528c b6bc ac7c 95be 396b 903f
00000260: e8db 6fbe 9214 ff3e bf43 183f 361c 40be
00000270: 03e8 07bf 027d 293e 341c 503e 520b 08bc
00000280: 418d 123f e039 fdbe b6ac 9a3e 9ba3 11bf
00000290: f5c8 d03d 5270 f63d ae99 43be 67e0 ebbe
000002a0: 02bc ae3e e6f7 af3c b6a6 a73e a8ba 76bd
000002b0: 3d02 1ebf 183c 37bd af8c c1be 9ba9 f73e
000002c0: 68f4 e23e bbd7 3fbf ac8d a3be 1c11 623e
000002d0: 533c 9bbe 4f56 37bf c52c 38be c888 8fbe
000002e0: ca83 eabd c5c2 3dbe 64bb 7abe e6fd 553f
000002f0: 4115 2bbe d801 b7be 12cd 4fbe 508e a9be
00000300: d159 4a3e bf2f 6b3f 460d b33e 2a3b dfbe
00000310: c895 d8be adc3 243d 0953 82bd 8148 db3d
00000320: f944 18bf 9ab9 7ebe 1893 76be d18f e6bc
00000330: a7c8 42be 022c 73bf d99a cfbe 175d 46bf
00000340: 410f 923e 10ed cf3c de7e 7dbe b5ab fcbe
00000350: 49a7 0dbf f7ee 96bd 720c fb3e fe8f afbe
00000360: c3a1 1fbf 0d05 343f 40b8 c5be 5a67 ab3e
00000370: 4097 95bd 8132 afbd a6a3 47bd 0740 1ebf
00000380: d907 173e 2223 b4be 4934 b8be 641d 6dbe
00000390: 7091 7dbd afcd 1a3e d150 083e 22ee 9f3d
000003a0: ca66 513e f84d b2be 3dc7 633e 8f39 a13e
000003b0: 1a67 c43e 8fba 9abe e09e 103e 6804 6a3e
000003c0: f2ae 6ebe 46a8 88bf 860f 543e a9db f3be
000003d0: b445 a43d 724e afbe 2d46 8e3e e3a8 c13d
000003e0: 64cc 893e a792 3c3e 104c 723e 7f88 23bf
000003f0: bc3c 763e 094b 21be 8215 10bf 2694 65bd
-0.19609816 -0.5930174 -0.33391452 0.3497249 0.7842695 -0.38229766 0.50544226 0.16439627
-0.63683933 -0.5380046 0.2523402 -0.016847368 0.09683853 -0.20988284 -0.17014833 0.19531548
-0.2342344 -0.05339577 -0.21800011 0.5474541 -0.13409765 -0.38819265 1.0926487 -0.1305958
-0.71381634 0.2771919 -0.46773115 -0.57640654 -0.11286821 -0.5175201 -0.532375 -0.61025184
0.21848054 -0.37211177 -0.049115784 -0.50887877 -0.1789459 -0.9270339 -0.17914556 -0.31130725
0.13340162 0.18206297 0.44661632 0.48327938 -0.35714725 -0.6285982 1.0351533 -0.17712288
-0.6881595 0.30820635 -0.13679847 -0.23972298 0.2831785 0.32459545 -0.42464158 0.5794449
-0.06164927 0.06853094 -0.28949445 -0.48635125 -0.164133 -0.53467983 -0.21513514 -0.21272266
-0.1233166 0.18517973 -0.20463149 0.9367081 -0.50826037 -0.3756207 -0.53519773 0.40959227
0.13234164 0.4391382 -0.66037583 0.44419828 0.37980103 -0.44525787 0.0169013 0.21792628
-0.6194029 -0.074866675 0.11933016 -0.015030597 -0.066823244 -0.016580755 0.3888815 -0.012089813
-0.5493944 -0.6070794 0.10626687 -0.10346133 0.38366047 -0.2413643 -0.0018896739 -0.5715544
0.56022036 -1.0802212 0.38328728 -0.33437735 0.38976443 -0.1938867 -0.68389183 -0.20619881
-0.2173446 -0.4409936 0.060193684 -0.093307294 0.3144527 0.09194365 -0.1568457 -0.7207928
0.85209596 -0.5075653 0.19613416 -0.31436777 -0.42347863 -0.122348055 0.50737584 -0.780004
0.14062761 0.4878109 -0.26037693 -0.058417764 0.48078403 -0.2791625 -0.37140083 0.7917047
-0.41129336 -0.24328601 0.38727063 0.21412753 0.023519756 -0.50637954 -0.40570736 0.054453045
-0.4840755 -0.4530352 -0.75972 0.60782224 -0.090140216 0.20194021 -1.3139089 0.27106473
-0.478705 -0.3502175 -0.04117487 -0.439794 -0.12617962 -0.022283707 -0.2919668 1.1282722
-0.23423731 0.4982038 0.5947837 -0.18760762 -0.53088397 0.16551593 0.20323259 -0.00830348
0.57246786 -0.49458218 0.30209893 -0.5689027 0.101945795 0.12033142 -0.19101593 -0.46069643
0.34127814 0.021480512 0.32744378 -0.060236603 -0.61722165 -0.044735044 -0.37802646 0.48371586
0.44327092 -0.74938554 -0.31944025 0.22076839 -0.3031946 -0.7161607 -0.17985828 -0.28034043
-0.11450918 -0.1853133 -0.24485546 0.83590543 -0.16707326 -0.35743594 -0.20293072 -0.33116388
0.19760825 0.9186973 0.34971064 -0.43599826 -0.42301774 0.040225673 -0.06363494 0.107071884
-0.59480244 -0.24875489 -0.2407955 -0.028144749 -0.19021855 -0.94989026 -0.40547827 -0.77485794
0.28527263 0.025381595 -0.24755427 -0.49349752 -0.5533338 -0.07369798 0.49032933 -0.34289545
-0.62356204 0.70320207 -0.38617134 0.33477288 -0.07304239 -0.08554555 -0.04874005 -0.6181645
0.14749087 -0.35183054 -0.3597739 -0.23155743 -0.061906278 0.15117525 0.13312079 0.07809092
0.20449367 -0.3482511 0.22243972 0.31489226 0.3835991 -0.30220458 0.14123106 0.22853243
-0.23308924 -1.0676353 0.20709047 -0.47628525 0.08021107 -0.34239537 0.27787915 0.09456041
0.2691375 0.18415318 0.23661828 -0.6388015 0.24046606 -0.1575128 -0.5628282 -0.05604949

net.0.bias f4 [256]
00000000: df52 08be 9e38 07be 50c6 d93c 8da7 24be
00000010: 5c99 8a3d 583e 123e 13a5 18bd daae ee3d
00000020: a1cc e13e 82b2 e63e 7f33 33bc 348d c33e
00000030: 1d41 b83e 84d9 59bb 0380 36be e76a 843e
00000040: f5db 843e f1ab e0be 38cb 90be caaf 2a3e
00000050: 244e a63d 9ad2 5bbe ff85 003e 1a8d 29be
00000060: 901d 3a3e f6b3 67be 5af3 cb3d acb8 0dbf
00000070: 08a1 03bf 1bfa 5f3e 21cc fdbe 2365 913d
00000080: ce61 80be 5d12 093d 0b77 a63e 745b 453e
00000090: 8868 3ebe d87c af3e af3b 8e3d c565 a83e
000000a0: ba43 07bf b1af 80be dfa9 353e 6f85 74be
000000b0: 0092 acbe b880 023e ce55 4c3e 46ff a83a
000000c0: 7089 0d3d c731 113e 2116 e83d 1820 34be
000000d0: f10a 8bbd 93f9 a3be 3f30 f83d 9a95 04bd
000000e0: 3ad5 d1be 7853 4fbd 0f30 3bbe fa35 e63d
000000f0: dd2e b83d 1206 83bd 92a7 12bb c411 ccbe
00000100: 9a8e bfbe b00a 543e 5a4a ac3c 88d4 85be
00000110: 863e d33e 6394 5c3e f4d8 943e 1bcd f4bc
00000120: da8f 8c3e 6a51 06be 7c9e 1abe 4ba6 403e
00000130: 95b9 9abe 94ac c53d 4f6a babe 2032 debe
00000140: 04e1 803e ca02 7c3e 1755 d0be 5c71 393e
00000150: 3572 0b3e ec52 04be 0b9b e5bd 7c6d 763d
00000160: 59c7 3a3e fd20 82be 41c4 ddbc 1fdc fdbe
00000170: 518a 413c 04ca 583d 4d6f 443e 9064 bb3e
00000180: 596e 87bd b2b4 b03e 479c 743d 1845 49bd
00000190: cb47 97be 8f20 88be 8eae 8b3c 0aef d9be
000001a0: 09ae b8bd cadc d0be f62e 813d 381e 26bd
000001b0: ffad eabd 64cd a83d 2ba9 923e e4d3 d9be
000001c0: 55be 07bf 7536 3ebc 9a2f a0be 8c08 82bd
000001d0: 3d46 3dbe 2f1d 393e af31 d4bc 51c3 0c3b
000001e0: c1db 95be 8e30 8fbc 8e50 10be 9d56 41be
000001f0: 39fd 8e3e 2113 6d3e 47e9 78be bd69 673d
00000200: f6ac 99be fe36 533e 6c94 c1bd a83a 1c3e
00000210: 2b93 1cbe 2b02 05be badd f8bd d9b2 58be
00000220: 5b79 fabd 07dc 34be 2302 36be 0b40 03bf
00000230: dd45 48be 8e0b a6be a1a1 96be 1111 30be
00000240: ce7f fbbe 66a0 f9be 5e87 523d 4e74 94be
00000250: 6ed9 b1be ca25 643d ea54 efbe 29d7 a4be
00000260: b9f8 e1bd 023b 813e 0f2d 0b3e 8512 08be
00000270: d184 87be 03a3 793e dac8 2ebe 7951 b33d
00000280: 801e c33d fe50 6ebe 6c8f 703e 7477 f2bc
00000290: 9848 d83e 18f8 91bd e93e b03e 4d9c 19be
000002a0: c7d9 fabd de94 acbe 64a7 1c3d 8437 033c
000002b0: a68a ee3b 066f a63e 0fc5 35be a18d 513d
000002c0: a5e1 83be 0808 4fbe c9e8 913e 22a0 d7be
000002d0: 8157 96be ba2b e9be f797 0ebe 216d 093e
000002e0: d4b9 053e 481d d93e da4e e9be e645 e0bd
000002f0: 9e44 5fbe 9a63 e73d 0259 1d3e d54b 433d
00000300: 3205 f1bb 3308 ad3d 84e5 9abe 5692 3ebe
00000310: 27b6 0fbf b8be cfbe 2f67 6cbd c547 983e
00000320: 1b4b 333e 7197 83be 2d70 08bf 9376 18be
00000330: 5f91 ecbe a796 a13e 810a 77be a622 c3bd
00000340: 390a a0bd d36d 603c a1d9 a5be 1233 0fbf
00000350: c542 a13d 0469 133e 100d 83be cbab d1bd
00000360: 6429 c23e 8d64 803d 528b 1e3e bc60 343e
00000370: 41be 453e 3e80 dfbd 388e 4abe ddb8 723d
00000380: 2f66 1f3e 64dd 28bd 6956 03bf 33e2 063d
00000390: 074a 8f3e db6a 55be b9a9 643e 2f24 fe3d
000003a0: 9fc4 9cbe b7f3 8a3e 2688 89be 1c69 9e3e
000003b0: 97dc 5c3e 8360 a53e 7905 203d bd6c 6e3e
000003c0: 03ee 6d3d 49de b83c 1a6b 13bc 5b5b 903e
000003d0: d066 163d 3fdb e83d 3f91 02bf cafd 96be
000003e0: 6afb 813e 2065 64be d4c8 303e d236 6b3e
000003f0: a7df 81be f73c 79be d5f0 103e cde9 6dbb
-0.13312863 -0.13205191 0.02658382 -0.1607954 0.06767532 0.14281595 -0.037266802 0.11654444
0.44101432 0.45058066 -0.010937571 0.38193667 0.35987177 -0.0033241222 -0.1782227 0.2586281
0.25949064 -0.4388118 -0.28280044 0.1666862 0.08120373 -0.21467057 0.12551115 -0.16557732
0.1817534 -0.22627243 0.09958525 -0.5535991 -0.5141759 0.21872751 -0.495698 0.070993684
-0.2507462 0.03346478 0.32512698 0.19273168 -0.18594563 0.34274936 0.069449775 0.32890144
-0.5283772 -0.25134042 0.17740582 -0.23879026 -0.3370514 0.12744415 0.19954607 0.001289346
0.0345549 0.14179145 0.11332346 -0.17590368 -0.06789196 -0.32026348 0.12118577 -0.032369234
-0.4098299 -0.05061671 -0.18280052 0.11240764 0.089933135 -0.06397642 -0.0022377712 -0.39857304
-0.37413484 0.20707202 0.021031547 -0.2613871 0.4125864 0.2154098 0.29071772 -0.029882958
0.274535 -0.13116995 -0.1509952 0.18813436 -0.30219713 0.09652057 -0.36409232 -0.43397617
0.25171673 0.24610439 -0.40689918 0.1810965 0.13617785 -0.12922257 -0.11211213 0.060163006
0.18240108 -0.25415793 -0.02707112 -0.49582002 0.011812762 0.052927032 0.19183083 0.3660016
-0.06612844 0.3451286 0.05971935 -0.04913816 -0.2954696 -0.2658734 0.017051008 -0.42565185
-0.090175696 -0.4079345 0.06307785 -0.040556163 -0.11458968 0.082423 0.2864469 -0.42544472
-0.530248 -0.011609663 -0.31286317 -0.063492864 -0.18483825 0.18077539 -0.025902597 0.0021478722
-0.2926922 -0.017479207 -0.14093229 -0.18880697 0.2792757 0.23151828 -0.24307738 0.056497324
-0.3001477 0.20626447 -0.09452137 0.1525675 -0.15290515 -0.12989108 -0.12151666 -0.21161975
-0.12230178 -0.17662059 -0.17774253 -0.51269597 -0.195579 -0.3243069 -0.29420188 -0.1719401
-0.49120945 -0.48755187 0.051398627 -0.28994983 -0.34736198 0.0557001 -0.46744472 -0.32195404
-0.11033768 0.25240332 0.13591407 -0.13288315 -0.26468518 0.2437859 -0.17068806 0.08755774
0.09527302 -0.23273084 0.23492211 -0.029597975 0.42242885 -0.07127398 0.34422997 -0.1500103
-0.12248569 -0.33707327 0.038245574 0.008008841 0.007279712 0.3250658 -0.17750953 0.05116046
-0.2575809 -0.20217907 0.28497913 -0.4211436 -0.29363635 -0.45541173 -0.13925157 0.13420536
0.13059169 0.42405152 -0.4556797 -0.10950832 -0.21803519 0.11298294 0.15365985 0.04767974
-0.0073553557 0.084488295 -0.30253232 -0.1861051 -0.5613732 -0.40575194 -0.05771559 0.29742256
0.17509119 -0.25701478 -0.53296167 -0.14888982 -0.4620466 0.3156025 -0.241251 -0.09528093
-0.0781445 0.013698059 -0.323926 -0.559373 0.078740634 0.14395529 -0.25595903 -0.10237845
0.37922204 0.062691785 0.15482834 0.17615026 0.19310857 -0.10913132 -0.19780815 0.05925833
0.15566324 -0.04122676 -0.51303726 0.032930564 0.27986166 -0.20841543 0.22330369 0.12409245
-0.3061876 0.27139065 -0.26861686 0.30939567 0.21568523 0.32300195 0.03906772 0.23283668
0.058088314 0.022566931 -0.008997703 0.281947 0.036719143 0.11369943 -0.5100288 -0.294905
0.25387126 -0.22304201 0.1726411 0.22970131 -0.25365946 -0.24339662 0.1415437 -0.0036302686

net.2.weight f4 [256, 256]
00000000: 4468 32bd 9481 af3a 4d09 33be a294 e23c
00000010: 5d5a f7bc d99e 48bc 611e ae3a 5e73 573b
00000020: a06c 4a3e d044 ef3d f6fe 66bd af2b 48bd
00000030: 8581 9a3c bbae a33d 96b5 2cbb 64d6 b03d
00000040: 62c3 733d f06c 7c3d a4b6 3b3d ea12 87b9
00000050: 191f b3bd 706c 3d3c 46e7 613e c8d6 c9bc
00000060: 89d8 1f3c b0ac a8bc 16e5 033d d4ba 25bd
00000070: 28f9 7dbc a65c 3c3d 72d2 773d 816a 613d
00000080: a84b 6dbc 1c9d 093d 4748 00bd 24fb 443d
00000090: b497 323d 36c5 003e e118 eebc de22 ee3c
000000a0: 84a3 803d efc8 f6bc f4b7 c43b dc72 45bd
000000b0: e489 943c 4987 8bbd 73e8 4b3d 0a3e c43c
000000c0: 2969 3e3d 3f92 1a3b 0922 253d 5e58 4ebc
000000d0: 1639 7d3d 879f d3bb 0024 f5bc b2f4 27bd
000000e0: 6444 a4bc 8fbf 0bbe 4872 3f3d f0c1 1f3d
000000f0: 8816 31be 04b7 abbb 2232 343d 906c cc3c
00000100: c0dd 7dbd 4a06 55be 81c0 d6bb 1c90 913c
00000110: 8c52 59be cb1f 3e3d 7821 10be fba7 803d
00000120: 7de8 3f3d 0216 f6bc 6bd9 adbd b02e e5bd
00000130: e097 84bb a5fc cbbc 37d5 a43c 7a0e 78bd
00000140: d659 053c 34df 45bd f60e 1d3d 37d4 b93c
00000150: d654 46bb c15f 9abd d533 de3c 25e9 e7bb
00000160: e43b bcbc 8907 1ebc 648d 673c d8e7 dbbc
00000170: 497e 333d c73d 77bd 2553 3ebd 1200 7dbd
00000180: 55a0 973c 6675 05be 7eba a73c bb9d 03be
00000190: ec60 f13c a376 493d f922 44bc e55e 293d
000001a0: 53ea 4ebd 4add 363d 393b 46bc 3812 43ba
000001b0: 97da febc a006 873b 682a af3c 48ba 863c
000001c0: 68b0 703d 8888 95be 48fd ec3c 0299 24be
000001d0: cc1b 26be 00e1 4dbd a706 4f3b 7490 1e3d
000001e0: 5b9f 05bb 0970 d5bd 7419 7cbc 1bc3 64bd
000001f0: ef33 54bd cd4d c5bd 3d2e 8ebd 0079 b9bd
00000200: fab4 7fbd 7e5a 80bd a07f 51bd 70a7 82bc
00000210: 62de 683d 84b9 ae3c b289 c03d c5ad ecbb
00000220: 6b8d 943d 3bff 9abc 3c82 cfbb ce6c aebd
00000230: 7065 f63c 9d12 21bd 1bc6 97bd d5af 0d3c
00000240: d45e 50bd 957e 29bb 17c4 3d3d 4613 43bd
00000250: d8f9 903c 6765 7bbc 2bd4 eb3b bcc7 e23c
00000260: 5a08 b7bd e77c 29bd ef31 b0bd ee4a fa3c
00000270: 8096 00bb bfca 06be 9a5b 8abd 9fdc c8bc
00000280: e4e7 f2bd a0d9 7cbd 8af8 a9bd b366 ffbc
00000290: 53c8 1cbd 7b7b 81bd c6d2 41be 4856 bbbc
000002a0: 21dc bc3c 9b2e 443d fa16 11bd 4160 1cbe
000002b0: 2e3b 3e3d ff75 e839 47df 1e3d 8f31 4dbd
000002c0: 2d6f 7dbe b930 2bbc 175a c5bb 34d3 7cbd
000002d0: 841f d73c 4515 4cbc 435f 28be 11e2 4f3c
000002e0: e025 2f3c ec14 9c3c 5c6a 40bd 20c8 0bbd
000002f0: 1961 d1bc d7bc 783d 806b 86be 74b1 ee3b
00000300: f60d 21be 857a a3bc 4656 7d3d 0a19 4abc
00000310: f0db acbb f567 23be 617f 273d a035 0f3c
00000320: 9dca eabb 48fc f1bc 10ee 8d3c 0aaf d03c
00000330: 1b6f 533d da2c f5bc 13e0 bcbd c637 423d
00000340: 26c0 98bd ce5b c0bd 1bfb 233d 0242 503d
00000350: 4dcc 4e3b b4e9 fa3c 382e 7ebd 3cd6 d6bc
00000360: 812a 8c3d d7cb debd 0fa6 37bd d2de 083d
00000370: b618 87bd ad2d 673c efb7 7b3c 446b c3bc
00000380: 7858 553c 9cd6 32bd 562f 0abd 389e 98bc
00000390: 06f3 f33b ab8a 05bd d425 993d 1aa6 adbc
000003a0: bb79 4d3c fe02 57bd 2b6c a73c fe49 79bc
000003b0: 63e9 5b3b d83a c13d 1b75 623c 1a8d 40bd
000003c0: 43ac cc3a 2367 2d3c 073c 69bd 1a8a 723c
000003d0: 0320 3bbd fd69 49bd 138b 6cbb 990f 69bd
000003e0: 273c 323d d8e3 cb3c 20e6 29bc 1126 40bd
000003f0: c464 af3c 23a6 d53c 5c90 5fbc 85a4 343c
-0.043556467 0.0013390058 -0.17484017 0.027658764 -0.030194456 -0.0122449035 0.00132842 0.003287516
0.19768 0.11683047 -0.056395493 -0.048869785 0.018860588 0.079923116 -0.002635335 0.08634642
0.059512503 0.06162733 0.045828477 -0.000257633 -0.08746166 0.011561498 0.2206088 -0.024638548
0.009756216 -0.020590156 0.032200895 -0.040461376 -0.015501298 0.045986794 0.06050343 0.05503321
-0.01448337 0.033597097 -0.03131893 0.04809107 0.043601707 0.1257523 -0.029064598 0.02906936
0.06281188 -0.03012511 0.0060033742 -0.04820524 0.018132158 -0.06812913 0.049782228 0.023955364
0.046487007 0.0023585705 0.04031566 -0.012594311 0.06182202 -0.006458226 -0.029924393 -0.041004844
-0.020052142 -0.13647293 0.046739846 0.039003313 -0.17293751 -0.005240323 0.043993123 0.02495411
-0.061979055 -0.2080318 -0.00655371 0.017768912 -0.21222895 0.04641704 -0.14075267 0.0628204
0.046852577 -0.030039791 -0.08488735 -0.111905456 -0.004046425 -0.024900744 0.0201212 -0.06056068
0.008139094 -0.048308566 0.038344346 0.0226842 -0.0030262969 -0.07537795 0.027124325 -0.0070773535
-0.022977777 -0.009645351 0.014132831 -0.02684395 0.043821607 -0.06036165 -0.04646601 -0.061767645
0.01850907 -0.13033065 0.020474669 -0.12853138 0.029465161 0.049185406 -0.011971229 0.041350264
-0.050516438 0.04464463 -0.012099081 -0.00074413745 -0.031110091 0.004120663 0.021382526 0.016446248
0.058761984 -0.29205728 0.028929368 -0.16073993 -0.16221541 -0.050263405 0.0031589658 0.03871198
-0.0020389173 -0.1042176 -0.015386928 -0.05585013 -0.05180734 -0.0963398 -0.06942413 -0.09056282
-0.062428452 -0.0626726 -0.051147103 -0.015948981 0.056852706 0.021328695 0.09401263 -0.0072228634
0.07253536 -0.018920531 -0.006332664 -0.085168466 0.030077666 -0.03932439 -0.074108325 0.008647879
-0.050871685 -0.0025862802 0.046329584 -0.047625802 0.01769726 -0.015344 0.0071969233 0.027683131
-0.0893714 -0.04137888 -0.08603274 0.030553307 -0.0019620955 -0.13163279 -0.06755753 -0.024519263
-0.11860636 -0.06173098 -0.08299358 -0.0311769 -0.03827698 -0.0632238 -0.1892806 -0.02286829
0.023054184 0.04789601 -0.035422303 -0.15271093 0.046443157 0.00044338402 0.038787153 -0.05009609
-0.24749441 -0.010448628 -0.0060227024 -0.061724856 0.026260145 -0.012456243 -0.1644259 0.012688176
0.010690182 0.019052945 -0.046976432 -0.0341264 -0.025558995 0.060726967 -0.2625389 0.0072843377
-0.15727982 -0.019955883 0.061849855 -0.012335071 -0.005275242 -0.15957625 0.040892962 0.008740813
-0.0071652667 -0.029539242 0.017325431 0.02547409 0.05161963 -0.029928613 -0.09222426 0.04741647
-0.074585244 -0.0939251 0.040034395 0.0508442 0.0031554878 0.030629016 -0.062055796 -0.026225202
0.068440445 -0.10878723 -0.0448361 0.033415623 -0.0659651 0.014110011 0.015363677 -0.02385486
0.013021581 -0.0436617 -0.03373655 -0.018630132 0.007444742 -0.032602947 0.07477918 -0.021197367
0.01254123 -0.052493088 0.02043732 -0.015215395 0.0033555857 0.09435052 0.013821865 -0.047009565
0.0015615303 0.010583672 -0.056942012 0.014803434 -0.045684826 -0.049173344 -0.0036093637 -0.05689964
0.043514397 0.024888918 -0.0103698075 -0.046911303 0.021410353 0.026080197 -0.013645258 0.011025553

net.2.bias f4 [256]
00000000: 8c89 97bc 6767 0dbd e820 72bd 3109 46bd
00000010: cd45 7d3c cf83 3a3d 0470 a5bb 9774 9fbc
00000020: 9af3 6abd ee9c af3c 6325 c33b 365f a1bc
00000030: 58b8 a6bc 3ee1 bebc eb0d 8bbd c033 813c
00000040: a06a 3b3b 8dbd 573c fd3a f0bc 30c4 c93c
00000050: 16a3 c8bc 3ed6 f9bc c206 3cbc 1308 1bbd
00000060: 7169 8fbd cdcf d53c acbd 75bd 9970 84bc
00000070: 653f 88bb 1176 ea3c 4875 e0bd 91a9 86bd
00000080: ae08 52bd da05 dc3c 1313 3abd 7ebe f3bd
00000090: 8af0 b5bd 0216 113c 8d00 4bbd 83fd b13a
000000a0: a6a1 71bd 27c7 08bd cbc7 763c a872 373b
000000b0: d95b 1a3c 0458 c33c 57cd 70bd 3b1e afba
000000c0: e217 a1bc 5c89 443c eba7 c7bc a886 27bd
000000d0: 2b7d 86bd 9fdb 39bb 5f5e 17bd 44b3 c3bc
000000e0: 8d36 81bc 7be7 7fbd ddc9 65bd 5fe8 80bd
000000f0: d91c ba3d b351 fabb e0cc 4abd a4e1 90bd
00000100: 0589 93bd d7d8 50bc 715c 95bd 90c8 40bd
00000110: 5e92 2c3c 37eb 0aba 0130 83bd e615 9a3d
00000120: 360a 9abd da91 05bd ceaa d8bc 5af1 613c
00000130: 0469 86bd ffdf b33c 1635 cebc ae92 88b9
00000140: 72f2 82bd f22c 3f3d ea9d 10bd 320f 133e
00000150: a20b 94bd 0573 5dbc c1d2 823d f6b7 2e3c
00000160: 2ea8 1bbd 202d 5fbd e975 21bd 2c5b 3fbc
00000170: d520 cebc 3467 23bc 9b93 893c 10ec f5bb
00000180: 5098 66bd d653 bb3b 99ae e2bb 0ee5 8abc
00000190: 7f4c 2ebd c8df 243d 8554 83bd 68cf 5d3b
000001a0: 6e0d 9dbd 003e 3dbd 2f95 54bd 0ebb f4bd
000001b0: 52ca 253c e639 7cbd eff3 e03c 48a0 2dbd
000001c0: 663f 1e3c f0d2 fabc a6a2 24bd 2149 94bd
000001d0: 731b 8ebb 09af 293a 1246 64bb 63a5 91bd
000001e0: 3abd b4bb 380c 19bd 41ba 14bc 65bf e7bc
000001f0: 6b61 6f3c 807b b1bd 3476 91bd cb60 05bd
00000200: 556a f3bc a98b 9abd e515 343c e1c8 c13c
00000210: 4d85 0abd 233c 053a 5cb5 d738 b629 04bd
00000220: 7a8d b73c d1e1 5bbd de5e 94bd 6e35 133d
00000230: a874 bfbd ca7c abbd d9d4 9ebb aaf9 77bd
00000240: b82d 84bc 7c10 9a3c 5177 f93c ae06 3fbd
00000250: e47f ba3b b2e5 34bd a1b8 633c 73cd c8bc
00000260: b386 1dbd cec0 56bd 6af8 68bd 4327 8fbc
00000270: 9b1c 51bb 537a b1b8 c6a3 523e 827d 263c
00000280: c06f 253d 9323 74bd e1c6 9f3c 9154 c23b
00000290: e51b 933b 2729 5e3c ce1b 40bd 7888 64bd
000002a0: c685 26bd 7987 62bd 2bdf 83bd 02e9 82bb
000002b0: 46f6 0abd 4232 1e3c c06e 63bc 2c3e 08be
000002c0: 19e2 1abd 92ba 763c 059d 9bbd 79e4 7cbd
000002d0: dd37 bcbc 342f b23d 4cfd 8cbc 6455 06be
000002e0: 5d0b 09bd 37d8 9abd 0cb6 88bc e900 8a3d
000002f0: 06f0 2bbc 1b12 93bd d700 e93b b297 f4bd
00000300: 10dd 01bc dd8d 8ebd a5c9 e9bc e15a a5bc
00000310: 2a27 a739 f135 58bc 02f9 68bd 51b4 95bd
00000320: fbef 89bd 8c9b 78bd 3875 29bd 5398 11bc
00000330: 3b78 a3bc c1b7 1dbb 5e1d 0d3d 8a0a 8dbd
00000340: 1cb4 813b f26d b5bc 54e8 97bd 40e2 23bb
00000350: 8048 3bbc fb2c c5bc 265d 85bd 62da e0bc
00000360: b545 2a3c 4387 ab3c ba5d cc3b 4ccf 65bd
00000370: 15f6 bebd 6d3b 69bd d46d 9e3c 52b6 53bd
00000380: 9fff c1bb 799e f8bd 4827 edbb fcbf cab9
00000390: 3dcb 87bd 8af6 26bd d87a 1cbd 623a 96bd
000003a0: 1b79 33bc 1642 c8bc 1452 9cbc ee33 a4bc
000003b0: 65ef 973c b5d7 a0bc f1bf ed3c ffd6 36bd
000003c0: 74e1 c4bd bd87 133c 3746 0a3a 5331 413c
000003d0: c3a2 06bb 3ecc 4abd 9c31 13bd 5d90 6ebd
000003e0: e85d 15bd 4b0f 5c3c fe0a 87bd dd1e 0abd
000003f0: 9c4c 1cbc 3e83 0cbc 1247 45bc 8e6a 573c
-0.018498205 -0.03452244 -0.059113413 -0.04834861 0.015458536 0.04553586 -0.0050487537 -0.019464774
-0.057361223 0.021437135 0.0059553846 -0.01969872 -0.020351574 -0.023300763 -0.06789764 0.015771747
0.002859749 0.013167751 -0.029325003 0.024629682 -0.024491828 -0.030497666 -0.011476221 -0.037849497
-0.07002533 0.026100064 -0.05999534 -0.016166972 -0.004157948 0.028620752 -0.109598696 -0.06575311
-0.05127781 0.026858259 -0.045428347 -0.11901568 -0.0888377 0.008855345 -0.049561072 0.0013579581
-0.05899205 -0.03339305 0.015062283 0.0027991924 0.009421312 0.02384568 -0.058789577 -0.001336045
-0.019664709 0.01199564 -0.024372062 -0.040899903 -0.06566843 -0.0028359664 -0.036955234 -0.023889191
-0.015773082 -0.062476616 -0.056100715 -0.06294321 0.090875335 -0.007639134 -0.04951179 -0.070742875
-0.07203869 -0.012747011 -0.072930224 -0.04706627 0.0105329435 -0.0005299332 -0.064056404 0.07523708
-0.07521479 -0.032609798 -0.026448634 0.013790453 -0.06562999 0.021957396 -0.025171798 -0.00026049226
-0.06393899 0.046673723 -0.03530685 0.14361265 -0.07228781 -0.013516192 0.06387854 0.010663977
-0.038002186 -0.054486394 -0.03941909 -0.011679452 -0.02516214 -0.009973336 0.016794017 -0.0075049475
-0.0562976 0.005716781 -0.0069177863 -0.016954925 -0.04255342 0.040252477 -0.06412605 0.0033845548
-0.07668577 -0.046201706 -0.051900085 -0.1194974 0.010119038 -0.061578654 0.027460067 -0.042389184
0.00965867 -0.030618161 -0.040194176 -0.07240511 -0.0043367683 0.00064729206 -0.0034831804 -0.07111623
-0.0055157216 -0.03736517 -0.0090776095 -0.028289506 0.014610629 -0.08666134 -0.071026236 -0.032563012
-0.029713789 -0.07546169 0.010991548 0.023655357 -0.03381853 0.00050825084 0.0001028578 -0.03226634
0.022406328 -0.053682152 -0.07244657 0.035939626 -0.09348422 -0.08373411 -0.0048471508 -0.060540833
-0.016135082 0.018806688 0.030452402 -0.04663723 0.0056915153 -0.044164367 0.013898999 -0.024512028
-0.038458537 -0.052429967 -0.05687753 -0.017474776 -0.003190792 -8.462802e-05 0.20570287 0.010161759
0.040389776 -0.05960424 0.019504013 0.0059304913 0.0044894093 0.013559616 -0.046901517 -0.05579421
-0.04065492 -0.055304978 -0.0643905 -0.003995062 -0.03392627 0.009655537 -0.013881385 -0.13304967
-0.03781328 0.01505913 -0.075983085 -0.061741326 -0.022975856 0.087004095 -0.017210625 -0.13118511
-0.033458102 -0.07560771 -0.01668837 0.06738455 -0.010494238 -0.07181188 0.007110696 -0.11942996
-0.007926241 -0.06960652 -0.028538534 -0.020184936 0.00031881902 -0.013196454 -0.056878097 -0.07309783
-0.06735226 -0.060695216 -0.041371554 -0.008886415 -0.019954791 -0.0024065825 0.034451835 -0.06886776
0.0039582383 -0.022147153 -0.0741736 -0.0025006682 -0.01143086 -0.0240693 -0.06511907 -0.027447883
0.010392596 0.020938521 0.006236759 -0.056105897 -0.0932428 -0.05694144 0.01933948 -0.051687546
-0.005920365 -0.12139601 -0.0072373487 -0.00038671482 -0.066305615 -0.04076246 -0.03820309 -0.073353544
-0.010954167 -0.024445575 -0.019082107 -0.020044293 0.01854677 -0.019634107 0.029022189 -0.04463863
-0.09613314 0.0090045305 0.0005274745 0.011791545 -0.002054379 -0.049511187 -0.035935983 -0.058243144
-0.03646651 0.0134313805 -0.065938935 -0.03372084 -0.0095397495 -0.008576212 -0.01204087 0.013147963

net.4.weight f4 [256, 256]
00000000: 6fd6 13bd b70d b8bc 9089 cbbc 731d 90bd
00000010: 4e4f d0bd 6cca adbd b208 963c 9e42 42bc
00000020: fe16 f83d f686 ee3c 7d33 2ebd dc89 56bd
00000030: f065 543c 3097 cfbc 903d 40bc f428 53bc
00000040: 05ee 953d 35f8 c0bd adda b4bc 170c f7bc
00000050: 7570 e53c bedb 003c 2d61 8c3d b367 263e
00000060: d4e5 34bd d972 9f3e 0014 8cbd 9309 47bc
00000070: 2f32 503d f22d 60bd 9bc8 7ebe 7ffe 3c3d
00000080: 000a c0b9 54bf 8ebd c87f 24bd 0f04 b6be
00000090: 9f91 c5be ae21 613c 8811 243e 9185 cfbc
000000a0: 68f8 073d 0589 10bc 74b6 883c f9e2 6b3d
000000b0: be5d 1ebc 9bdc 503b ff31 8bbc 66a0 d8bd
000000c0: 605e 423d 10e3 ad3c ff0c 753e f6f6 5b3d
000000d0: ac31 a63e 7cdb 323e 35ee b2bc d25e 8d3e
000000e0: 24a9 3fbd 6ef9 c8bd 4233 6e3e 705f 673c
000000f0: f11a 233d bb3b ff3d 459d b73c 7a1d 063e
00000100: 243f c0bb ab39 963d e6f1 74bd a69b 183d
00000110: 5f42 02be 18fb 27ba 5d4d 203e 405d a4be
00000120: e075 1dbe 3fd7 b33c a216 603e 2328 54bd
00000130: 7ab6 e93c 781c cdbc 1c41 9ebc 44be 3b3e
00000140: c2fc 59bc 008f f9ba 4507 22bd 126f 233d
00000150: 14bc 643d 49f8 063d 332e 993c fa37 ce3c
00000160: 1d4d 06bd 3411 1bbd f6d8 3b3e b7d8 6e3d
00000170: 7f70 d93c a8e2 673d 936a 31bd b89e 4abc
00000180: 327a 383e f00a 28bd 8ea1 523d 2884 053d
00000190: 18b4 e53d 9dc2 8abc 5ea9 883d bf11 b5bd
000001a0: 08cf 803d b320 b03d 9897 64be 6700 653d
000001b0: 76e9 093d 6808 10bc 2f3d c9be 4905 06be
000001c0: 550c 48bd e4f3 d33d 00c2 31bd 0c64 81be
000001d0: 6473 ec3d 533d 93bd f642 8abd 29bf aa3d
000001e0: ebf5 443c c488 a7bc dd4c 3d3d 2ec6 51bd
000001f0: 0624 dbbd 8456 9d3e f51b bf3d bc1f a53c
00000200: 8934 8b3d ba51 c2bd 01da ad3d 02c8 ed3d
00000210: 6c18 093e 4c69 80bd e93e febc b9c1 b4bb
00000220: 1aad 043e e0bf 9dbd 0b70 c9bc 9edd 123e
00000230: 5ed5 703d 4332 83bc a1d2 b43c 801f ed3c
00000240: 159f 803e 4fc2 8cbc 7a85 32bd 4289 643d
00000250: dafb f3bd 655b 83bd 2cf7 3cbd 087d 893b
00000260: 248d b13b a153 d63d 54f5 103e 0245 253d
00000270: 05ea eabc ef72 503d f642 2b3d 0520 63bd
00000280: 50a5 0b3e 0c2a 303e dd92 e2bd a755 6abd
00000290: 441a ac3e ef24 aabd 12f9 febc 4b82 6cbc
000002a0: ed34 40be 68a1 c0bd e42e 49bd afd7 66bd
000002b0: 6423 533e 1027 363e 112b 243c e4cc 73bd
000002c0: e4e4 59bd 8a5e 5c3d 7de5 93bd c2a2 b0bb
000002d0: 02a9 d63c 8ac1 06be ddc1 1b3e e3af 463e
000002e0: 3b1a e4bc 522e 813e 6ed7 263d d5e8 b23e
000002f0: 69f5 07bd 662e 52be 179d 16bd 184b 08be
00000300: 6c05 54bd 30f0 033e 2df5 493e 606c 403c
00000310: 1b92 df3d b672 68bd 04f1 4b3d 74d7 d73d
00000320: 11b8 d7bc 874e 93bd 0263 453d 6024 65bb
00000330: 7745 5f3e e221 dd3d c337 073d 15cc d53c
00000340: 5de8 10bc ad94 3e3d 343c b13d 59e3 073d
00000350: 2ac0 963e 95fe ad3d 5eea debc b477 4abd
00000360: 1663 48bd 0220 aa3d 361e bebd b855 143e
00000370: c529 0bbe 8a4e 863d c0c6 33bb 96e1 983a
00000380: 24dc 883e dd42 8e3e 40dd 14bc 73ae 4b3c
00000390: 6bef bb3e 405f d43a 1b83 403e f657 a3bd
000003a0: eee5 a1bd 384a e33d 01aa fabe a3a9 b2bd
000003b0: 4c68 10bd f727 1bbe 39aa b53b c501 c0bc
000003c0: fed7 8abe c81d ee3c 88a3 9f3c 81a0 97bc
000003d0: 4534 89bd 3b94 0c3d d0f5 093d d850 443c
000003e0: 50cc cabc f2f8 843b 4fc2 633c f06f 97bc
000003f0: 107c a93d 59a7 af3c b46a 173d adaa 883e
-0.03609317 -0.022467477 -0.024845868 -0.07036867 -0.10171376 -0.084858745 0.018314693 -0.011856703
0.121137604 0.029117089 -0.04252957 -0.052377567 0.012963757 -0.025340647 -0.011733428 -0.012888182
0.07320789 -0.09422342 -0.022076929 -0.030157132 0.028007725 0.007864891 0.06854472 0.16250496
-0.044164494 0.3114231 -0.06839752 -0.012148279 0.05082911 -0.054731317 -0.24881212 0.046141144
-0.00036628544 -0.06970087 -0.040160924 -0.3554997 -0.38587663 0.01374094 0.16022313 -0.025332244
0.033195883 -0.0088217305 0.016688563 0.057589505 -0.009665905 0.0031869772 -0.016991613 -0.105774686
0.047453284 0.021226436 0.23930739 0.053702317 0.32459772 0.17466539 -0.021842102 0.27611405
-0.046792164 -0.098132 0.23261741 0.014121875 0.039820615 0.124625646 0.02241386 0.13097182
-0.005866902 0.07335218 -0.059801005 0.037257813 -0.12720631 -0.00064079603 0.15654512 -0.32102394
-0.15376997 0.021953223 0.21883634 -0.05179609 0.028529394 -0.025037989 -0.019318156 0.183343
-0.013304891 -0.001903981 -0.039557714 0.039900847 0.055843428 0.032951627 0.018698787 0.025173176
-0.032788385 -0.037858203 0.18344483 0.058312144 0.0265429 0.05661264 -0.043314528 -0.012366943
0.18015364 -0.041026056 0.0514236 0.032596737 0.11215991 -0.016938502 0.06672929 -0.088412754
0.06289488 0.08599987 -0.22323453 0.055908587 0.03366991 -0.008791067 -0.39304492 -0.13087954
-0.048839886 0.10349253 -0.043397903 -0.25271642 0.115454465 -0.07189431 -0.06751053 0.08337242
0.012021522 -0.020450957 0.04621588 -0.05121439 -0.1070023 0.3073007 0.09331504 0.020156734
0.0679713 -0.09488244 0.084888466 0.11610414 0.13388222 -0.06270084 -0.031035857 -0.0055162576
0.12956658 -0.07702613 -0.024589559 0.14342353 0.058797233 -0.016015178 0.022073092 0.028945684
0.2512137 -0.017182497 -0.043584324 0.05579496 -0.11913271 -0.064139165 -0.04613416 0.004195813
0.0054184366 0.1046517 0.14156085 0.040349014 -0.028676042 0.05089086 0.041811906 -0.055450458
0.1363728 0.1720354 -0.11063168 -0.05721059 0.3361379 -0.08307826 -0.031124625 -0.014435361
-0.1877019 -0.09405786 -0.049116984 -0.056358036 0.20618969 0.17788339 0.010020033 -0.05952157
-0.053196803 0.053801097 -0.07221506 -0.005390496 0.026203636 -0.13159767 0.15210672 0.19403033
-0.027844539 0.25230652 0.040732794 0.34943262 -0.033193026 -0.20525512 -0.036770906 -0.13309896
-0.051762983 0.12884593 0.19722433 0.011744589 0.10916539 -0.056750022 0.049790397 0.10539141
-0.026332887 -0.07192712 0.048190124 -0.0034964308 0.21803842 0.10797478 0.033012163 0.02609829
-0.008844462 0.046528507 0.08654061 0.0331758 0.29443485 0.08495823 -0.027211364 -0.049430564
-0.04892262 0.08306886 -0.09283106 0.14485824 -0.13590153 0.06557949 -0.0027431697 0.001166391
0.26730454 0.27785388 -0.009085953 0.012431729 0.367061 0.0016202703 0.18800013 -0.079757616
-0.07905184 0.110981405 -0.48957828 -0.08723762 -0.035255715 -0.15151964 0.0055439738 -0.023438344
-0.27117914 0.029066935 0.019487157 -0.018509151 -0.06699423 0.03432105 0.03368169 0.011982165
-0.024755627 0.004057997 0.013901307 -0.018485993 0.08275616 0.021442102 0.036966994 0.26692715

net.4.bias f4 [256]
00000000: 2eac a9bc cae4 e1bc 14ea 10be f936 27bd
00000010: a807 413e d3ac 9ebd b929 d4bd 171a f6bd
00000020: adb9 8c3d ab62 993c df05 ccbd 0483 57bd
00000030: f38f 6bbc ed8b 1b3c 92d9 403e 54b1 4e3e
00000040: a113 48bd 32c6 e83d 4949 253d ad19 b6bd
00000050: 96b5 1fbc d6ec c0bc 1944 5cbd 4872 cbbd
00000060: 2c5c 0abd ec75 e4bd 043f b13c e403 343d
00000070: 24c2 a9bc 4dc7 d3bd a337 0bbe 8498 2d3c
00000080: 738a fc3c 51e2 85bd 1b4a 35bd 3f16 cbbd
00000090: 2a07 b3bd c197 14bd 79d2 8ebc 2544 263c
000000a0: 0f3d bcbd 392b 81bd 9780 63bd ae56 29ba
000000b0: 3d70 aa3d 7d0a 5bbd eead 0fbe e762 4fbd
000000c0: 1a25 f9bc e80a c03d d993 15bd e0cd b9bb
000000d0: 120a 863d 66b5 acbd 8248 aebd eaab a6bc
000000e0: 8a0c 91bd 8a26 ddbd 2e02 89bd 753a 09bc
000000f0: c770 7fbd 8013 53bd 02f2 983e 7293 e2bc
00000100: 96ec 003d 1970 75bd 1116 03be 698e 48bd
00000110: 2f03 68bd 7f14 e6bc 42c1 0ebe 19a9 9cbd
00000120: fea1 303e 6f10 32bd 6e7b a5bd 2733 e6bc
00000130: 8cac 93bd 56ae 1b3d 0b10 0a3e fe37 24bd
00000140: b61b 88bd 8234 74bd f082 5e3e 8285 d3bd
00000150: 81f4 b5bb b430 72bd 8d42 4c3e f0ee 663b
00000160: 6555 5dbd 7b27 c7bd fde9 fcbd 5862 a8bd
00000170: 609c 98bd fadf 48bd bb5f 403e 246b 85bd
00000180: dffd 04bd d568 1bbd c3fb abbd 0363 ecbc
00000190: 9ae6 98bc 365f f9bd 5610 a13d cdcf 96bc
000001a0: c315 59bb 3d46 b6bd a1b6 293c 09d2 d7bd
000001b0: 80e1 053e b5da f8bb e7fb 083d 733f 143e
000001c0: e088 f33d 6e47 c73d f7cd 0fbc 136a 57bd
000001d0: b63d a8bd 53fa 1f3d 6d26 80bd 5922 443e
000001e0: c1ee febd e6b1 6abd bb12 d1bc ec30 a9bd
000001f0: c248 68bd 75c4 d5bd 88f4 5fbd 69cb 213d
00000200: 7cf1 66bd 019a 8ebd 945b d93c 0aa6 92bc
00000210: c169 17be 7e4b bdbb 0cd2 513e 746c 02bd
00000220: 0983 7cbc ab45 643d e59d cfbd fdd7 29bd
00000230: 3c8e aa3d 0fb4 e9bd 3470 6c3c d08c 30be
00000240: efc3 b93d 8d2d 77ba df63 083c 7957 8cbd
00000250: 144a 67bc 8fff 99bd 3c74 aabd 03ff 70bd
00000260: 2998 f6bd 259a 2bbd 7c6d ab3c fd5e c9bd
00000270: 6bce 65bd 932d 413e d588 93bd ab3c abbd
00000280: 0337 65bd 0796 003e cf58 13bc 98cc 503e
00000290: 287d 41bd aac0 22bb 6c4b 3f3e 251a 86ba
000002a0: e282 44bd a8d9 99bd 2f04 18be cf36 8c3d
000002b0: 37a1 25bd a01b 4cbd ae59 85bd c573 34bd
000002c0: 8242 bf3b 7a32 fa3c ff1d d63c f8c2 603e
000002d0: 5e00 193d 45d5 b5bd 8cfe 213d accc 51bb
000002e0: 98f8 7fbc e212 55bd dbe5 6fbc 806b a7bd
000002f0: 8dfb 2ebd 5313 d13b 2bd6 93bd 0524 a0bc
00000300: 5b09 6ebc 18b0 0abe bf29 a2bd 8940 95bd
00000310: 3810 023c ef13 ba3d bd83 53bc de35 98bd
00000320: fdd4 893d 02c8 e9bc ae8e 8cbd ff58 803d
00000330: e05c 7cbd d794 18bd 7551 95bd f40d 94bd
00000340: 1311 8a3e 92f8 a5bd 041e f0bc cc6c bfbd
00000350: e331 6a3e 3bc4 45bd 03d8 31bd 7833 8cbc
00000360: 9c24 44bd 7964 6ebd 96ef babb ed78 8bbd
00000370: ee81 4fbd 4bf4 46bd bf80 95bd 102c 64bd
00000380: bc0b 5fbd f7bb 39bd ab68 81bd a607 dd3c
00000390: 9e7c fd3c 07bb 0bbd bb1c d23d dd74 c3bc
000003a0: 28f5 22bd 2c70 1dbe 13a6 eebc 0f27 b9bd
000003b0: eaaf 31bd 86ae 03bd 7f71 493e a082 583e
000003c0: 2f33 393d cf73 64bd fcda a6bd 3f99 afbd
000003d0: e01a 87bd a3ac ecbc cdd0 2cbd e893 36bc
000003e0: 85ab dbbc ac8d b83d e20f 2f3e 9120 da3d
000003f0: 922d ee3c a270 91bb e84d e5bc 2013 f0bd
-0.020711984 -0.027574915 -0.14151794 -0.04082391 0.18850577 -0.07747807 -0.103595205 -0.12016695
0.06871352 0.018723806 -0.09962057 -0.05261518 -0.014377582 0.00949381 0.18832996 0.20184833
-0.048846845 0.11365928 0.040353093 -0.08891616 -0.009747883 -0.023550432 -0.05377588 -0.09933907
-0.03377931 -0.11155304 0.021636494 0.043949023 -0.020722456 -0.10340748 -0.13595442 0.010595445
0.030827736 -0.06537307 -0.044260126 -0.099163525 -0.08741601 -0.036277536 -0.017434346 0.010148083
-0.091913335 -0.06307072 -0.055542555 -0.00064597547 0.08322189 -0.0534768 -0.14031193 -0.05063143
-0.0304132 0.0937708 -0.03651795 -0.005670294 0.065448895 -0.084330365 -0.085099235 -0.020345647
-0.0708247 -0.10798366 -0.06689869 -0.008375754 -0.062363412 -0.05153227 0.29872137 -0.027658198
0.031475626 -0.059921358 -0.12801386 -0.048963938 -0.05664366 -0.028085945 -0.1394091 -0.0764944
0.17249295 -0.043472704 -0.08080183 -0.028100563 -0.07210645 0.038008057 0.13482682 -0.04009246
-0.066459104 -0.059620388 0.21729636 -0.10328199 -0.005552829 -0.05912848 0.19947262 0.0035237633
-0.054036517 -0.09724327 -0.12349317 -0.082218826 -0.07451701 -0.049041726 0.18786518 -0.06514576
-0.032468673 -0.037941772 -0.08397629 -0.028855806 -0.018664647 -0.12176363 0.07864444 -0.018409634
-0.0033124543 -0.08900116 0.0103584835 -0.10538108 0.13074303 -0.0075944313 0.033443358 0.14477329
0.11891341 0.09730421 -0.008777133 -0.052591395 -0.082148954 0.039057087 -0.06257329 0.19153728
-0.124478824 -0.057298563 -0.025521627 -0.08261284 -0.056710012 -0.10437862 -0.054676563 0.039500628
-0.05638264 -0.06962968 0.026532926 -0.01790144 -0.14786436 -0.0057768216 0.20490283 -0.03184171
-0.015412101 0.055730503 -0.10137538 -0.041465748 0.0832791 -0.114112966 0.014431048 -0.17241216
0.090705745 -0.000942909 0.008324592 -0.068526216 -0.014116783 -0.07519447 -0.08322951 -0.058836948
-0.12040741 -0.04189505 0.02092623 -0.09832571 -0.05610506 0.18865041 -0.07203833 -0.08361181
-0.055960666 0.12557231 -0.008993342 0.20390546 -0.0472385 -0.0024834075 0.18681115 -0.001023118
-0.047976382 -0.07512218 -0.14845346 0.068463914 -0.04043695 -0.049831033 -0.06511246 -0.04405572
0.005836786 0.030541647 0.02613735 0.21949375 0.037353866 -0.088785686 0.039549395 -0.0032012863
-0.015623234 -0.05201996 -0.014642204 -0.08174801 -0.042720366 0.0063804775 -0.07218584 -0.019548425
-0.014528598 -0.13543737 -0.07918119 -0.072877 0.007938437 0.09085833 -0.012909827 -0.07432149
0.067300774 -0.028537754 -0.068631515 0.06266975 -0.06161201 -0.03725132 -0.07290927 -0.07229224
0.26966152 -0.08104052 -0.029311188 -0.09346923 0.22870593 -0.048282843 -0.043418895 -0.017114386
-0.047886476 -0.058201287 -0.0057048304 -0.06810174 -0.05066102 -0.04857282 -0.07299947 -0.055706084
-0.05445455 -0.045345273 -0.06318792 0.026981186 0.030943211 -0.03411391 0.10259386 -0.023859436
-0.03978458 -0.15374821 -0.029131925 -0.09040653 -0.043380655 -0.03214886 0.19672202 0.2114358
0.045214828 -0.055774506 -0.08147237 -0.08574151 -0.06596923 -0.028890913 -0.042191315 -0.011143662
-0.026815185 0.09011397 0.17095903 0.10650743 0.029074464 -0.0044384757 -0.02799125 -0.11722398

net.6.weight f4 [7, 256]
00000000: b5a8 d53e 1185 443d b6e2 073e 6368 e43d
00000010: ebec 033e 791e e33d b8ff 51bd 04e6 0abe
00000020: 1b4d df3d aab4 19bc fd43 1fbd 200c 37be
00000030: d459 afbe 375f 5e3e fd71 413e c8b8 2d3e
00000040: 89be 673e d0ce b43d 6c41 103d 4da0 e8bc
00000050: 2a8c eebc 9d44 d13d 2cb7 823c bbcb ac3e
00000060: d4d2 503d 2c22 be3d d204 9abe 477e 233e
00000070: 2584 3d3f 7ee3 7fbe 363e 8abd 6eea 873d
00000080: b6a4 c2bc eaba e8bd b993 893e d42d 96be
00000090: 42ec 9fbe 2ae8 8f3c 9411 0b3e 8eab 6a3e
000000a0: 4a14 21bc c35b 02bd dd69 033c 7134 28bc
000000b0: d547 e03d 98ce dbbc 35f8 833e 7862 99bc
000000c0: 7cde 0cbd 4f6d 113e ae72 f73d 3545 313d
000000d0: 221d 40bc d1b2 11bd 854f de3d de01 86bc
000000e0: 35fa 043e 637f 663e 0c36 d83e 6d45 64be
000000f0: 7f5c 3fbc 326a 95be 15f4 453e 09e3 563c
00000100: 9452 ec3d a85b 853e cc92 eb3b 45b6 e2be
00000110: 9ef5 2c3e 7511 ee3b 3ca8 74bc 06f3 a8bd
00000120: 7e61 cb3d 0546 2eba c4c9 9abd c464 b13d
00000130: eb9b adbd 7aea 6e3e 4e8d af3d 12b5 2e3e
00000140: e5c3 48be 3b7e 44be 64d9 243e f225 83bd
00000150: 6e5a 8dbc d58b 723e 4c54 303e 880d 9b3d
00000160: 44cc 953d 57b0 a9bd 421e 503e f030 29bd
00000170: cbad b03d 6669 ff3b 7f55 153e f02b d03b
00000180: 7c19 b53e 5c36 293e f9da 15bd 2582 2bbe
00000190: 12d4 6bbe 4ebd 47be f6f0 1fbe f004 0bbe
000001a0: 15b3 c93c af08 443b ac6e 53bd bdc2 923e
000001b0: 4731 d23d 6d2c 0abe 840a f23d a873 1b3e
000001c0: bd40 7c3e 8fe9 a23d 157c 18bc 716b 90bd
000001d0: c801 393c 11a4 4c3e 7e5e 6abc 6da1 353e
000001e0: 1fa8 6bbd 7393 0f3e a8c4 85bd 9261 c8ba
000001f0: b2fe 4dbd 0493 b4be 29a1 16be 0b0d f3bd
00000200: 82f1 8ebd acba b7bd aecf 26bb 1ba7 36be
00000210: d7b0 5c3e 9b67 713e 0d47 0d3e 78df ee3d
00000220: 1a2c 1a3e 716c 1a3e 5249 5dbd 5623 d1bd
00000230: 72cd c13d 8c58 b0bc 84fe 18bd 9434 4f3d
00000240: c1e4 093e a3f3 083c b390 1bbe ff6c 6cbd
00000250: 724b dfbd ec18 a93d c44c 77be 6271 2fbd
00000260: 6c13 d2bc 54a8 f3be 90ad b73c f952 85bd
00000270: 59d6 473d f218 d23d 6abf dd3d 55b0 a4bd
00000280: 6dcc 1b3e f5eb fcbe a00c 6ebc 244d 0f3e
00000290: 829f 1b3d 3080 1abe 1d19 503e 3dbf e2be
000002a0: d80f ca3d fea5 c1bc 4126 743d b91c 483e
000002b0: a7b9 e1be 4b24 a73c efdc 37be 2800 a5be
000002c0: 2420 0cbb 4100 bc3d 37f3 3abd 4c79 113e
000002d0: 32af f3bd 3858 f6bd 5da9 6f3d 4069 84be
000002e0: 4ed2 97bd 2c8a 95bb 8ea6 ccbc 693c 683d
000002f0: a750 b13d e315 6a3e e520 f9bc bc5f a0bb
00000300: 22d6 9fbb dd2c 57bc adf3 6cbe 5859 2fba
00000310: 785f 07be 5bfd 8a3d 32c3 813e 57f3 babd
00000320: 9c36 543e 5a0e f2bd 7da3 6bba edb6 043d
00000330: 7ad6 d5bc f537 43bd 7f2b 883e 57a4 4b3d
00000340: 406b 423e 3bdd 353d 5a00 afbd 9cfe 1e3e
00000350: 1460 503e 79bb 76bc 79ec 95bc 508d 903e
00000360: 1622 e3bd 656d 223d 7255 10bd a862 0d3d
00000370: 9994 30bd 3b36 203e 767d a9bc 412e 8ebe
00000380: 355e 513d d731 f33c cff9 99be a4c6 f0bb
00000390: 935c d93d e655 f0bc 71f7 c63e 7e84 58bd
000003a0: 3bde ffbd 26dc c3bd 1219 693d 3265 d03e
000003b0: 6020 033e 524b 7ebe 4605 3a3e 16e5 2b3e
000003c0: 22a1 dabc 2a39 54bd 2135 1fbd 01ad a33c
000003d0: 9000 a2bd 28c9 cbbe b7b4 183d 9a0a 5f3d
000003e0: c3e7 a3bd 0133 7a3d ebcd 473e 3df2 d2bd
000003f0: e6b9 54be 544d 2d3e 4aa3 d3bd ad31 02bd
0.41730276 0.047978465 0.13270077 0.11152723 0.12883346 0.110897966 -0.051269263 -0.13564306
0.109033786 -0.009381453 -0.038883198 -0.17875719 -0.3424822 0.21716009 0.1889114 0.1696502
0.22631277 0.08828509 0.03521864 -0.02839675 -0.02911957 0.10218165 0.015956484 0.33749184
0.05098231 0.092838615 -0.30081803 0.1596614 0.7402976 -0.24989125 -0.06750147 0.06636511
-0.02376018 -0.11363776 0.26870516 -0.2933184 -0.31234938 0.01756676 0.13580924 0.22917005
-0.009831497 -0.031825792 0.008020845 -0.010266409 0.10951201 -0.02683191 0.25775304 -0.018723711
-0.034391865 0.14201854 0.1208242 0.04327889 -0.011725696 -0.035570923 0.10855011 -0.016358312
0.12986071 0.22509532 0.42228734 -0.22292109 -0.011679768 -0.29182583 0.19331391 0.013115653
0.11539188 0.2604649 0.0071891304 -0.44279686 0.1689057 0.0072652646 -0.014932688 -0.08249478
0.099307045 -0.0006648007 -0.07558015 0.08661798 -0.084770046 0.23331633 0.085718736 0.1706126
-0.19605978 -0.19188778 0.16098553 -0.06403722 -0.017255034 0.23686154 0.17219657 0.0757094
0.07314351 -0.08285587 0.20324042 -0.041306436 0.086268984 0.007794547 0.14583395 0.006352894
0.35371006 0.16524643 -0.03658578 -0.16748865 -0.23030117 -0.19505808 -0.15619263 -0.13576102
0.024621526 0.0029912402 -0.051619217 0.286642 0.10263305 -0.1349351 0.11818412 0.15180838
0.2463407 0.07954704 -0.009306927 -0.07051743 0.011291929 0.19984461 -0.014304755 0.1773736
-0.05753338 0.14021091 -0.0653165 -0.0015287867 -0.050291725 -0.35268414 -0.14709915 -0.11867722
-0.06979658 -0.08971152 -0.0025453377 -0.17837183 0.21551834 0.23574679 0.13796635 0.11663717
0.15055886 0.1508043 -0.054025 -0.10211818 0.09463014 -0.021526597 -0.0373521 0.05058725
0.13466169 0.008358869 -0.15191917 -0.057721134 -0.10903062 0.082567066 -0.24150378 -0.04283274
-0.025644027 -0.47589362 0.022421628 -0.065099664 0.048788402 0.10258664 0.10827525 -0.08041445
0.15214701 -0.4939877 -0.014529377 0.1399427 0.037993915 -0.15087962 0.2032208 -0.44286528
0.09866303 -0.023638722 0.059606794 0.19542207 -0.44086954 0.020403048 -0.17955373 -0.32226682
-0.0021381462 0.09179736 -0.045642104 0.14206427 -0.1189865 -0.12028545 0.058511127 -0.2586155
-0.07413159 -0.0045635905 -0.024981763 0.056698237 0.08657961 0.22859912 -0.030411193 -0.004894225
-0.0048778215 -0.013133255 -0.2313983 -0.00066890335 -0.13220012 0.06786605 0.25344235 -0.09128445
0.20723957 -0.118191436 -0.00089889 0.032401014 -0.026103247 -0.047660787 0.26595685 0.049717274
0.18986225 0.044400435 -0.08544989 0.15526813 0.20349151 -0.015059345 -0.018301236 0.28232813
-0.11090486 0.039655108 -0.035237737 0.034517914 -0.043110464 0.15645687 -0.020689707 -0.27769664
0.051115233 0.029686851 -0.300734 -0.0073478986 0.1061336 -0.029337835 0.38860658 -0.05286073
-0.12493559 -0.09563474 0.056908675 0.40702206 0.12805319 -0.2483342 0.18166074 0.16786608
-0.026688162 -0.05181233 -0.038869027 0.019979956 -0.079102635 -0.39801908 0.037281718 0.05445347
-0.080031894 0.061083797 0.19512145 -0.103001095 -0.2077404 0.1692403 -0.10333879 -0.031785656

net.6.bias f4 [7]
00000000: 56f5 2f3e 9f45 4c3e 30f5 d9bd 7de1 09be
00000010: 0e3c 003e 7ebd 5c3e 243b 65be
0.17183432 0.19948433 -0.10642469 -0.13464923 0.12522909 0.2155666 -0.22385842
