preTrained/GAIL_pretrained_6400_discriminator.pth (torch, 542340 bytes, 7 tensors)

net.0.weight f4 [256, 10]
-0.40270826 -0.07074364 0.02055205 0.24084672 -0.1865132 0.2575223 0.0021441532 -0.26102158
0.16198318 0.13571464 -0.18705373 0.27725354 -0.25209653 0.3221452 -0.20023939 -0.17487366
0.04418784 -0.039352633 -0.338268 0.14344345 -0.10281783 -0.45329526 -0.44324473 -0.3548014
-0.24673791 -0.10768126 -0.15159236 -0.029525898 0.116438426 0.2175069 0.15128112 0.21577877
0.2883763 -0.24253601 -0.04895322 0.30600208 -0.2168053 -0.1313806 -0.19357844 0.15270174
-0.19880238 -0.29061005 0.13426498 0.102456264 -0.20575164 0.08697673 -0.07832095 -0.340327
0.0014428138 0.29320177 -0.25568426 0.0042553954 -0.31844586 -0.29611698 0.20848799 -0.13113184
0.2989722 -0.023267953 -0.08401812 0.051180083 -0.52435327 -0.39228916 0.006751239 -0.0006878815
0.10016253 -0.16903001 0.3542432 0.22164086 -0.03788432 -0.017947897 -0.36285204 -0.6200155
0.3269404 0.07463734 0.2153775 0.1771494 0.15776815 0.23130788 -0.1513396 0.08173095
0.1343339 -0.22119892 0.05323578 -0.10552546 0.10737629 -0.06871647 -0.018612094 -0.07443181
-0.039596498 -0.24473417 -0.042312525 -0.22182901 0.15718098 -0.16038445 0.23574701 0.40123138
0.1660644 0.21071248 0.27627993 -0.11663218 0.17026228 0.7283284 0.22055194 0.0038821301
0.24194466 0.35939652 0.1058338 -0.07499088 -0.10388879 -0.20932311 0.16977118 -0.49727437
-0.17450775 -0.28044116 0.048476767 -0.37296984 0.007088499 0.11808173 0.08427175 0.068822905
0.23316753 -0.1569342 -0.21473873 -0.24094576 -0.2794071 -0.249146 -0.11309566 -0.327964
-0.08597823 0.32390136 -0.07000757 0.35436162 -0.20524585 0.22546908 -0.17357989 -0.060163338
0.18766987 0.08325759 0.16327892 0.13398486 0.18221527 0.017818 0.24479203 -0.29593098
-0.13081966 -0.18994394 -0.08412382 0.19158061 0.15928411 0.2764648 -0.04822069 -0.35909066
0.2620217 0.08206889 0.09211666 0.4184701 -0.15423636 0.05757152 -0.05123554 0.09277302
0.29936805 -0.30795684 0.016110897 0.336108 -0.15787432 0.053518496 -0.2574845 -0.19608274
-0.35456404 0.26416463 0.027087215 0.39348164 -0.3274088 0.09871495 0.22885913 -0.013327476
0.123602465 -0.21648173 -0.24857545 -0.24090073 0.20593356 -0.0044991807 0.006559449 -0.04527071
0.031818885 0.10780872 0.17691867 0.16852072 0.13634415 0.18741712 -0.18236436 -0.66766834
0.29454404 -0.13701198 -0.13162011 -0.056492362 -0.07325268 0.3244992 0.14298399 0.1687045
-0.10279242 0.06619212 -0.23389098 0.13625345 -0.35875446 -0.17251548 -0.16741407 0.10125954
-0.052955437 0.11373819 -0.26490107 -0.44540796 0.10116669 -0.20860633 -0.29749593 -0.05781726
-0.28436723 -0.120728336 0.19888142 -0.27988642 0.13639705 0.27675974 0.07228957 -0.24075842
-0.13917325 0.26749876 -0.11694864 -0.029875634 0.1501635 0.22669847 0.21407984 -0.5075182
-0.32290277 0.17574209 -0.051296707 -0.15690683 0.033916395 -0.16713323 0.057855103 0.21807258
-0.15872458 -0.2155097 -0.26946247 -0.1993709 0.13368829 0.1778896 0.04595227 0.17186975
0.06607084 -0.12954742 0.26495448 0.32231498 -0.017535381 -0.16068949 0.06546203 -0.05927096
00000000: c72f cebe 0be2 90bd c65c a83c 86a0 763e
00000010: 51fd 3ebe f7d9 833e ec84 0c3b 9fa4 85be
00000020: ebde 253e c7f8 0a3e 038b 3fbe 2df4 8d3e
00000030: cc12 81be 37f0 a43e 8e0b 4dbe 1512 33be
00000040: 4ffe 343d 3a30 21bd 7731 adbe d7e2 123e
00000050: 2892 d2bd 5116 e8be f9f0 e2be 87a8 b5be
00000060: dda8 7cbe fe87 dcbd 073b 1bbe 4ce0 f1bc
00000070: 4577 ee3d 21ba 5e3e 70e9 1a3e 1cf5 5c3e
00000080: 0fa6 933e 5c5b 78be 2c83 48bd 4eac 9c3e
00000090: 3502 5ebe a388 06be 6d39 46be d85d 1c3e
000000a0: da92 4bbe d7ca 94be c27c 093e 97d4 d13d
000000b0: 8fb0 52be db20 b23d bc66 a0bd 573f aebe
000000c0: cc1c bd3a 8b1e 963e 0ce9 82be d870 8b3b
000000d0: 560b a3be a59c 97be e07d 553e 6d47 06be
000000e0: e212 993e 6f9c bebc b111 acbd 35a2 513d
000000f0: 043c 06bf 20da c8be 7f39 dd3b f252 34ba
00000100: 0322 cd3d 3416 2dbe 5d5f b53e d2f5 623e
00000110: 972c 1bbd 7807 93bc bec7 b9be 56b9 1ebf
00000120: bb64 a73e 76db 983d eb8b 5c3e a766 353e
00000130: f98d 213e f9db 6c3e c5f8 1abe 8e62 a73d
00000140: d38e 093e f881 62be c30d 5a3d bb1d d8bd
00000150: 1ae8 db3d 38bb 8cbd 6478 98bc b46f 98bd
00000160: f02f 22bd 989b 7abe e64f 2dbd 2527 63be
00000170: 0df4 203e d23b 24be aa67 713e 336e cd3e
00000180: c90c 2a3e 03c5 573e 9074 8d3e dadc eebd
00000190: 3c59 2e3e bb73 3a3f 5ed8 613e 566b 7e3b
000001a0: 57c0 773e d202 b83e 64bf d83d d294 99bd
000001b0: a5c3 d4bd cc58 56be 7fd8 2d3e bf9a febe
000001c0: 29b2 32be fc95 8fbe 938f 463d e7f5 bebe
000001d0: a446 e83b d6d4 f13d ab96 ac3d 06f3 8c3d
000001e0: 78c3 6e3e 5cb3 20be 78e4 5bbe 7cba 76be
000001f0: 730e 8fbe 2120 7fbe b39e e7bd e6ea a7be
00000200: 5b15 b0bd 66d6 a53e 2160 8fbd e36e b53e
00000210: f82b 52be 5ee1 663e edbe 31be d56d 76bd
00000220: 882c 403e f582 aa3d 9732 273e 5433 093e
00000230: a496 3a3e 0ef7 913c c3aa 7a3e 4484 97be
00000240: 97f5 05be aa80 42be 1c49 acbd b52d 443e
00000250: 601b 233e cb8c 8d3e 0f83 45bd bbda b7be
00000260: b527 863e bc13 a83d a9a7 bc3d b741 d63e
00000270: 23f0 1dbe 1dd0 6b3d 5cdc 51bd c8ff bd3d
00000280: c546 993e 85ac 9dbe 00fb 833c 5916 ac3e
00000290: cea9 21be 3636 5b3d 02d5 83be eac9 48be
000002a0: 6b89 b5be 9640 873e 02e6 dd3c 6d76 c93e
000002b0: 20a2 a7be 102b ca3d 0c5a 6a3e 7c5b 5abc
000002c0: 4a23 fd3d 63ad 5dbe 908a 7ebe aeae 76be
000002d0: 3fe0 523e dd6d 93bb a5f0 d63b c86d 39bd
000002e0: 8554 023d d1ca dc3d 2b2a 353e b290 2c3e
000002f0: cd9d 0b3e 46ea 3f3e b9bd 3abe 50ec 2abf
00000300: 7ace 963e de4c 0cbe 6cc7 06be 8964 67bd
00000310: 8005 96bd c224 a63e 656a 123e dfc0 2c3e
00000320: d584 d2bd bc8f 873d 1e81 6fbe 0686 0b3e
00000330: aaae b7be e6a7 30be 986e 2bbe 2961 cf3d
00000340: cde7 58bd 91ef e83d 1da1 87be 830c e4be
00000350: 7b30 cf3d e69c 55be 6351 98be cbd1 6cbd
00000360: 9598 91be 6b40 f7bd 92a7 4b3e 464d 8fbe
00000370: abab 0b3e 74b3 8d3e 8e0c 943d 6089 76be
00000380: 6f83 0ebe 99f5 883e c582 efbd bfbd f4bc
00000390: 76c4 193e a523 683e bf37 5b3e b6ec 01bf
000003a0: 8353 a5be bcf5 333e 7f1c 52bd 2fac 20be
000003b0: ebeb 0a3d f924 2bbe 79f9 6c3d 6b4e 5f3e
000003c0: b288 22be 93ae 5cbe fcf6 89be e327 4cbe
000003d0: 95e5 083e b128 363e 7338 3c3d a0fe 2f3e
000003e0: 2650 873d 14a8 04be 1da8 873e 7806 a53e
000003f0: 5ca6 8fbc c98b 24be f510 863d 1bc6 72bd

net.0.bias f4 [256]
0.21878937 -0.23048292 0.01751326 0.15685022 -0.121880226 -0.31139785 0.17698033 0.4327281
-0.39112133 0.25721487 0.27067584 -0.41455022 -0.08314083 -0.02525785 -0.23522724 0.37744558
-0.2133505 -0.4186877 0.288133 -0.2726602 -0.20232032 -0.22841126 0.17080142 0.049849678
-0.14153336 -0.3034281 -0.20350687 0.22657545 0.2776259 0.15065064 -0.25814587 0.29278973
-0.29394025 0.22801787 0.22607252 0.12861046 -0.09513129 0.15103276 -0.02792234 0.21779993
-0.09238721 0.25711223 -0.08189334 -0.4472405 -0.25589672 0.24553852 -0.45419595 0.21850216
-0.056013223 -0.06815792 0.13510624 -0.17349103 0.15659072 0.16855021 -0.45392722 0.30207226
0.053611465 -0.057443544 0.02267843 -0.3023579 0.14439967 0.30817088 -0.2172072 0.08257462
0.13785899 0.3814408 0.19053154 0.037689816 -0.24948223 -0.36357024 -0.49883553 -0.29698136
0.05477677 0.18799926 0.044572487 0.19363742 0.14302692 0.5113738 0.37976858 -0.09509742
-0.0030342015 0.3287425 -0.17212619 0.20300046 -0.27617878 -0.2183423 0.20453456 0.23789123
0.06864163 -0.14790921 0.1449757 -0.41808876 -0.0819809 -0.3590019 -0.10312326 0.46280766
0.44579494 -0.23287179 0.24536435 0.2740653 -0.34649068 -0.23089805 0.093845524 0.3760138
0.29122344 0.32969263 -0.17029041 0.0059896065 0.17898136 0.085904166 0.02936817 -0.25096595
-0.07096527 -0.28376722 -0.27577087 -0.13545565 0.3589197 0.4697232 0.0010842477 -0.51344395
-0.24219124 -0.4193478 -0.11580669 0.023995396 0.010447426 -0.047740255 0.009337653 0.13528517
0.065191895 -0.082481615 -0.041991007 -0.292681 -0.0072024064 0.12400899 -0.21165457 -0.1618821
0.101142354 0.032435104 -0.101430416 0.16115175 -0.14243916 -0.36228594 -0.13891774 -0.2000154
-0.38895598 0.45644656 0.3115208 -0.0070722806 0.20896135 0.29182947 0.16486442 0.33653867
0.06913022 0.07350973 -0.49916264 0.099182434 -0.32808864 -0.12757021 0.18680486 0.005848498
-0.12847257 -0.06993501 0.046139155 0.093607605 -0.15387361 0.39141265 -0.20329887 0.059108093
-0.11832244 -0.26910606 0.31350428 -0.19356702 -0.35946038 0.28186762 0.27189675 -0.55475736
0.011826801 -0.10749501 0.057493597 0.03729163 -0.14321648 0.42076865 -0.24641475 0.36163116
0.15244699 0.2502796 -0.023089748 -0.25357965 0.26822352 0.18223947 -0.14079584 0.17296402
-0.17405286 -0.47069696 -0.19974741 0.13322316 0.19928731 -0.25043947 -0.019475924 -0.123368286
0.08426692 0.16913193 -0.41325003 -0.114796914 -0.08108086 0.14927983 0.46586394 -0.17096725
-0.20952149 -0.18383804 -0.1513243 0.25485864 0.06481018 0.12491477 0.1531957 -0.35734487
0.041921485 -0.06585052 0.29973394 -0.07312173 -0.13593222 -0.18048596 0.2903739 0.22780621
0.091656856 -0.3645396 0.023480069 -0.21673389 0.42783678 -0.287028 0.089382194 -0.24295416
0.35918134 0.2907566 0.11147399 0.111878835 0.043584228 0.10080301 0.15268637 0.061440047
0.30547577 -0.115332484 -0.24786234 -0.09291537 -0.27564967 0.16823389 -0.13838036 -0.1306721
0.12827273 -0.13354473 -0.31057546 -0.6079926 0.052786384 -0.19848122 -0.2657665 -0.15105176
00000000: 520a 603e b703 6cbe f877 8f3c 589d 203e
00000010: 579c f9bd 8a6f 9fbe 553a 353e 8a8e dd3e
00000020: 0e41 c8be abb1 833e 0696 8a3e ed3f d4be
00000030: bd45 aabd 8de9 cebc 69df 70be 8c40 c13e
00000040: 8e78 5abe 3c5e d6be 2b86 933e 1e9a 8bbe
00000050: 0f2d 4fbe a4e4 69be 91e6 2e3e 2d2f 4c3d
00000060: 1fee 10be ee5a 9bbe 1b64 50be 6503 683e
00000070: fb24 8e3e 2944 1a3e b22b 84be 89e8 953e
00000080: 567f 96be 847d 693e 8e7f 673e 76b2 033e
00000090: 32d4 c2bd 55a8 1a3e 64bd e4bc f206 5f3e
000000a0: 8135 bdbd 37a4 833e b2b7 a7bd b5fc e4be
000000b0: e504 83be 736e 7b3e 5f8c e8be 08bf 5f3e
000000c0: 1f6e 65bd 6196 8bbd 4a59 0a3e a2a7 31be
000000d0: 5159 203e 6d98 2c3e 2669 e8be 37a9 9a3e
000000e0: b297 5b3d ec49 6bbd 1dc8 b93c a8ce 9abe
000000f0: 82dd 133e 93c8 9d3e 906b 5ebe e21c a93d
00000100: e82a 0d3e 354c c33e b31a 433e a360 1a3d
00000110: 4578 7fbe e125 babe 5f67 ffbe f10d 98be
00000120: 9b5d 603d e182 403e a491 363d e348 463e
00000130: a675 123e 65e9 023f 0771 c23e 70c2 c2bd
00000140: 74d9 46bb f050 a83e d941 30be 5adf 4f3e
00000150: 4e67 8dbe 2095 5fbe 8271 513e c299 733e
00000160: fc93 8c3d 8375 17be 8374 143e bb0f d6be
00000170: 9ae5 a7bd 19cf b7be 4a32 d3bd 20f5 ec3e
00000180: 3c3f e43e f175 6ebe cb40 7b3e 4952 8c3e
00000190: 3a67 b1be 8a70 6cbe 1532 c03d e184 c03e
000001a0: 3d1b 953e 79cd a83e 9c60 2ebe 7644 c43b
000001b0: e446 373e 86ee af3d 8495 f03c 9c7e 80be
000001c0: 3d56 91bd f049 91be d731 8dbe e3b4 0abe
000001d0: 53c4 b73e 8f7f f03e 511d 8e3a 1071 03bf
000001e0: fb00 78be c1b4 d6be 0f2c edbd fe91 c43c
000001f0: ae2b 2b3c 498b 43bd f5fc 183c 3288 0a3e
00000200: 5483 853d 1fec a8bd c3fe 2bbd 49da 95be
00000210: 2a02 ecbb 6df8 fd3d fabb 58be 6cc4 25be
00000220: b923 cf3d acda 043d c0ba cfbd f704 253e
00000230: 92db 11be 8b7d b9be 7440 0ebe d6d0 4cbe
00000240: 3d25 c7be 5db3 e93e a87f 9f3e 97be e7bb
00000250: f7f9 553e ac6a 953e 38d2 283e cc4e ac3e
00000260: 2594 8d3d 458c 963d 3f92 ffbe 2920 cb3d
00000270: 3cfb a7be c4a1 02be c649 3f3e c2a4 bf3b
00000280: 508e 03be 163a 8fbd 69fc 3c3d 58b5 bf3d
00000290: 0b91 1dbe 3d67 c83e 942d 50be 541b 723d
000002a0: 0953 f2bd 45c8 89be a283 a03e 6f36 46be
000002b0: 310b b8be f450 903e 0d36 8b3e 9404 0ebf
000002c0: 33c5 413c 5826 dcbd 687e 6b3d 1cbf 183d
000002d0: 57a7 12be fd6e d73e 2654 7cbe b827 b93e
000002e0: 101b 1c3e a624 803e b626 bdbc 31d5 81be
000002f0: 9854 893e fc9c 3a3e c92c 10be 7b1d 313e
00000300: ea3a 32be 31ff f0be 968a 4cbe a76b 083e
00000310: f911 4c3e 9a39 80be f98b 9fbc 83a8 fcbd
00000320: 2394 ac3d ec30 2d3e 8295 d3be a51a ebbd
00000330: b90d a6bd d0dc 183e b885 ee3e 0a12 2fbe
00000340: cd8c 56be 0a40 3cbe c2f4 1abe d57c 823e
00000350: 33bb 843d 51d3 ff3d 55df 1c3e e8f5 b6be
00000360: ddb5 2b3d a3dc 86bd ba76 993e d8c0 95bd
00000370: d131 0bbe 50d1 38be e3ab 943e 0846 693e
00000380: 97b6 bb3d efa4 babe 4659 c03c 7def 5dbe
00000390: 6c0d db3e 56f5 92be 030e b73d fac8 78be
000003a0: 9ee6 b73e 0dde 943e 7a4c e43d bb20 e53d
000003b0: 6085 323d cf71 ce3d d159 1c3e 8fa8 7b3d
000003c0: 5267 9c3e 7033 ecbd a0cf 7dbe 6a4a bebd
000003d0: f421 8dbe 8145 2c3e 95b3 0dbe e8ce 05be
000003e0: ed59 033e f3bf 08be bf03 9fbe 67a5 1bbf
000003f0: 8936 583d a93e 4bbe 8c12 88be 50ad 1abe

net.2.weight f4 [256, 256]
-0.06852417 0.0145874545 -0.066306196 -0.011556535 -0.057091303 0.04601948 -0.09195422 0.008147226
-0.040330514 -0.08391522 -0.099704824 0.041535825 0.060901098 -0.028429395 0.004191491 -0.009743016
-0.035026774 0.056500874 -0.0023798684 0.05286448 -0.05333321 -0.15034774 -0.063585296 0.048105713
-0.024392009 0.010882398 0.06351772 -0.026499586 -0.046673495 -0.22114651 0.0154376775 -0.015480659
-0.0132268 -0.021720868 -0.07386386 0.09390245 0.03569098 0.07394504 -0.16598687 -0.0033499014
0.010207608 0.032169096 0.041996866 0.03873451 -0.0037344508 -0.13558409 0.053582206 0.001586391
-0.053910267 0.03314607 -0.04533817 0.0039567575 -0.04811262 0.11880903 -0.007172148 -0.057050146
0.05263821 7.9273836e-05 -0.16232324 0.011303124 0.06028449 -0.16657323 -0.048128635 0.03536089
-0.062051196 -0.0059747766 -0.03969806 0.07666389 -0.025326647 0.03715416 0.045705117 -0.16129354
0.017678848 0.0017041193 -0.014739378 0.035377678 0.008797355 -0.099903665 0.018396188 -0.05888622
-0.0067116246 -0.074455075 -0.06838389 -0.080879524 0.053530835 -0.023109617 0.21896097 0.016330104
0.02041973 -0.01759198 -0.060157098 0.07496167 -0.066713326 0.046177577 -0.04190279 -0.082071595
-0.026087804 -0.060694836 -0.009331929 0.04302168 0.030164078 0.0045981184 -0.0012793588 -0.055381447
-0.12543742 0.060629845 0.034928452 0.041488204 -0.028296566 0.075830534 -0.027126245 0.030654822
-0.0080737 0.0441328 -0.0027714334 -0.1371712 0.022116447 -0.06067339 -0.009018137 0.14775257
0.031888366 -0.114259034 0.08578746 -0.02252905 -0.0004992932 0.06568611 -0.052454747 -0.048555925
-0.014616295 0.05118086 -0.021143345 -0.114675 -0.073821105 -0.06251603 0.07611466 -0.0017683059
0.096448414 -0.05658127 0.07393363 -0.0058593107 -0.021374293 0.05248998 -0.04400427 -0.05694928
-0.009351669 -0.0899626 -0.0434732 -0.118420064 -0.1691339 -0.0616659 -0.043365996 -0.013928551
-0.055387467 -0.024225213 0.14635007 -0.052715324 -0.0150496485 0.044261187 0.052378926 -0.07875253
-0.02787276 0.053519804 -0.040718313 0.0618704 0.019676026 0.0026978247 -0.015203409 0.07801569
0.035539098 -0.05319491 -0.10529755 -0.10778669 0.036671493 0.03545009 -0.13130444 -0.036378533
-0.032589745 0.055794932 -0.2129262 0.058956813 -0.01991263 -0.06450675 0.0309478 -0.08239246
-0.18160273 -0.0045186603 -0.05375719 -0.020501336 0.03364218 -0.12460408 -0.021720968 0.048711535
0.046441726 -0.047158726 0.032929257 -0.030632967 0.01017217 -0.0008290857 0.032229874 -0.064823024
-0.09093532 -0.0036828863 -0.068871826 -0.018374054 0.013850978 -0.06960857 -0.035105817 0.025959909
-0.011817507 0.05152187 -0.017961558 -0.06475315 -0.008826301 0.087723576 0.044047087 -0.04847526
-0.005077404 -0.099001355 -0.09846342 -0.03688316 -0.013685361 -0.101479985 0.048414633 0.004215795
0.02076377 -0.0042551486 0.03970046 0.028766185 -0.075240254 0.018627267 -0.012351912 -0.0023531811
0.0074782833 0.0056096935 0.0584845 0.02487485 -0.027370347 -0.032057196 0.008722163 -0.022638254
0.15170813 0.014781095 -0.051933408 -0.11919147 -0.16178873 -0.0049643293 0.05623879 -0.023154285
-0.055028614 0.012027835 0.058390755 -0.07185407 -0.031094134 0.04426807 -0.05610921 0.05627327
00000000: 6656 8cbd 3800 6f3c 8bcb 87bd 9f57 3dbc
00000010: 92d8 69bd ec7e 3c3d 7e52 bcbd f17b 053c
00000020: 9c31 25bd bedb abbd 0b32 ccbd 7821 2a3d
00000030: 6e73 793d c3e4 e8bc c658 893b 2ca1 1fbc
00000040: 3c78 0fbd 766d 673d 91f7 1bbb 6d88 583d
00000050: ed73 5abd c2f4 19be 0239 82bd 7f0a 453d
00000060: c0d1 c7bc 164c 323c 9415 823d a915 d9bc
00000070: b52c 3fbd 3b74 62be 50ee 7c3c 97a2 7dbc
00000080: 38b5 58bc f6ef b1bc ef45 97bd ed4f c03d
00000090: b430 123d 7f70 973d 76f8 29be 058a 5bbb
000000a0: d03d 273c bec3 033d e804 2c3d 14a8 1e3d
000000b0: b0bd 74bb 8ed6 0abe 0479 5b3d 73ee cf3a
000000c0: 03d1 5cbd 2cc4 073d 84b4 39bd b0a7 813b
000000d0: bd11 45bd 2652 f33d 5704 ebbb 6aad 69bd
000000e0: 2a9b 573d d13f a638 1038 26be bd30 393c
000000f0: dfec 763d 2c92 2abe 8822 45bd 95d6 103d
00000100: 6529 7ebd 0fc8 c3bb 6f9a 22bd f501 9d3d
00000110: d479 cfbc f62e 183d 4a35 3b3d 222a 25be
00000120: 3bd3 903c c15c df3a 6f7d 71bc 2fe8 103d
00000130: c822 103c 4b9a ccbd 9ab3 963c ad32 71bd
00000140: 30ed dbbb e77b 98bd da0c 8cbd 2aa4 a5bd
00000150: 2643 5b3d 6150 bdbc 4e37 603e b6c6 853c
00000160: 4747 a73c 0e1d 90bc 4a67 76bd 8185 993d
00000170: ffa0 88bd b324 3d3d 43a2 2bbd 2715 a8bd
00000180: 17b6 d5bc 269b 78bd f2e4 18bc 8037 303d
00000190: a81a f73c d0ab 963b 28b0 a7ba a8d7 62bd
000001a0: ab72 00be 0057 783d 2311 0f3d 89ef 293d
000001b0: 33ce e7bc 0a4d 9b3d dc37 debc d21f fb3c
000001c0: 8d47 04bc 98c4 343d f0a0 35bb 9b76 0cbe
000001d0: 8d2d b53c a984 78bd cfc0 13bc 734c 173e
000001e0: 609d 023d a400 eabd 56b1 af3d d88e b8bc
000001f0: 00e3 02ba 7086 863d cada 56bd 94e2 46bd
00000200: 2f79 6fbc 05a3 513d cf34 adbc bada eabd
00000210: 852f 97bd 6808 80bd 01e2 9b3d 80c6 e7ba
00000220: bf86 c53d c3c1 67bd 846a 973d 76ff bfbb
00000230: 2419 afbc bcff 563d d23d 34bd a643 69bd
00000240: be37 19bc 503e b8bd f410 32bd 3886 f2bd
00000250: 7031 2dbe 6295 7cbd 8ba0 31bd 9434 64bc
00000260: f8dd 62bd f473 c6bc cbdc 153e 06ec 57bd
00000270: cd92 76bc 384b 353d 498b 563d 0249 a1bd
00000280: 6a55 e4bc 9537 5b3d 3fc8 26bd d16b 7d3d
00000290: 9e2f a13c fdcd 303b b817 79bc b1c6 9f3d
000002a0: 7291 113d e8e2 59bd 3ea6 d7bd 45bf dcbd
000002b0: d934 163d 1d34 113d ac74 06be a801 15bd
000002c0: d37c 05bd 3a89 643d 5309 5abe b37c 713d
000002d0: d01f a3bc 1d1c 84bd 3e86 fd3c 61bd a8bd
000002e0: 11f6 39be 4511 94bb 8030 5cbd 6bf2 a7bc
000002f0: 62cc 093d 6d30 ffbd 2cf0 b1bc bf85 473d
00000300: ae39 3e3d 8229 41bd d4e0 063d fdf1 fabc
00000310: 2ca9 263c 0057 59ba 7903 043d efc1 84bd
00000320: 4c3c babd 945c 71bb ac0c 8dbd 2f85 96bc
00000330: 36ef 623c f08e 8ebd 1ecb 0fbd e0a9 d43c
00000340: 389e 41bc 9908 533d 1e24 93bc 4d9d 84bd
00000350: 319c 10bc 6ba8 b33d b86a 343d ff8d 46bd
00000360: 5a60 a6bb 39c1 cabd 31a7 c9bd cc12 17bd
00000370: 9038 60bc bdd4 cfbd 6c4e 463d a724 8a3b
00000380: c818 aa3c c66e 8bbb f39c 223d 10a7 eb3c
00000390: 9017 9abd 3698 983c ad5f 4abc d437 1abb
000003a0: 630c f53b 85d1 b73b 718d 6f3d 57c6 cb3c
000003b0: c737 e0bc 684e 03bd 67e7 0e3c dc73 b9bc
000003c0: 6059 1b3e 682c 723c 20b8 54bd a81a f4bd
000003d0: f2ab 25be d0ab a2bb a55a 663d 0eae bdbc
000003e0: af65 61bd 6510 453c 252b 6f3d 3a28 93bd
000003f0: 20b9 febc 7052 353d c5d2 65bd cd7e 663d

net.2.bias f4 [256]
-0.049114943 0.04022636 -0.028733063 -0.12881856 -0.021511788 0.03448479 -0.01866537 -0.012634565
-0.10827331 -0.025124818 -0.03509172 0.0069808946 0.010598314 -0.021785818 0.011714307 0.03566707
-0.0013442056 -0.06065162 0.24882972 0.20758839 -0.0657176 -0.061215438 0.010408609 0.17210507
-0.001260969 -0.111535296 0.014622818 -0.09378127 0.00012105132 0.14845324 -0.044174355 0.02347647
0.059538323 -0.03381858 0.06415871 0.21264443 0.041098587 0.16835944 -0.011980789 -0.021817291
-0.006295523 -0.10069864 -0.049749646 -0.11753414 -0.07685314 -0.010500413 -0.06530101 -0.11418598
-0.08749704 -0.15725766 -0.08332456 -0.09976924 -0.041869827 -0.051290434 -0.061981168 0.0908297
-0.12011833 -0.12067249 -0.09128652 -0.010291637 -0.0617502 -0.04267697 -0.056941673 -0.055359013
-0.03841061 -0.010909399 0.13848576 -0.15036154 -0.004091389 0.15558548 -0.030152563 -0.074813455
-0.04166521 0.01958775 -0.035785038 -0.09010384 -0.08646835 -0.0048302254 -0.12362441 0.08874964
0.011663589 0.05633626 -0.048584245 0.011467795 -0.062698625 -0.0038279502 -0.04299488 -0.009405985
-0.035797864 -0.09404161 -0.08771508 -0.060731098 -0.06140802 -0.08498217 -0.09417452 -0.111989945
-0.11071837 -0.0078306 0.027850019 0.04980022 -0.098677136 -0.064159386 0.004412332 -0.041650806
-0.088524684 -0.107300125 0.038092226 0.028402768 0.011938748 -0.10265056 -0.037317798 0.20601459
-0.042015404 -0.022911841 -0.022130083 0.1330206 -0.10166425 0.16657719 0.019277606 -0.0782292
0.015888304 -0.056923803 -0.025021873 -0.00059493666 0.3090902 0.12894537 -0.024276685 -0.14767374
-0.04532168 -0.081321135 0.16134614 0.20130986 0.029100785 -0.026511606 0.05947131 -0.0148872435
0.052543588 0.00016694776 -0.032101702 -0.041569423 0.03660572 -0.052389532 -0.04788796 -0.037040196
-0.052848075 -0.025199015 -0.109786 -0.043202393 -0.10263759 -0.049054228 -0.045583043 -0.0716142
-0.036294315 0.018031789 -0.055186637 -0.033796303 -0.023284694 0.030390067 -0.033000603 0.08978776
-0.01953567 0.018646473 -0.12492825 -0.033145774 0.21328458 0.007601715 0.15835336 0.0160271
-0.06542752 -0.009462483 -0.014326835 -0.1107533 -0.008032496 -0.010217939 -0.022010785 0.12151441
-0.016925424 0.052172057 0.013179126 0.036299687 -0.03880495 0.022340087 -0.079741545 0.058277275
-0.08660535 0.14014903 -0.036365107 -0.038358863 0.03554001 -0.06500268 -0.11678952 -0.06946691
-0.06594799 0.034730956 -0.06347272 -0.06311807 0.16599512 -0.09059204 0.116481215 -0.046655156
0.19502428 -0.10722892 0.0024856143 0.12279705 0.040778764 -0.05051059 0.023477783 0.021284588
-0.053274132 -0.014414535 0.0089521725 -0.013147288 0.00015994055 -0.035834767 0.22975129 -0.10451828
-0.016329188 -0.057276312 -0.061476965 0.012189283 -0.10869123 -0.04921558 -0.09225068 -0.05724902
0.014949377 0.16595316 -0.029575659 -0.064910606 -0.07243182 -0.025059147 -0.05983957 -0.034886587
-0.04256711 0.022508636 -0.10825794 -0.05364077 0.044280265 -0.042333294 0.0749339 -0.06167429
0.12957075 -0.027165627 0.027974479 -0.093107544 0.012966763 0.11186929 0.006358485 0.0071833343
-0.092782885 0.066056654 -0.078575775 -0.0099057015 0.16306968 -0.04730521 -0.05135155 0.17531087
00000000: c02c 49bd 65c4 243d 9a61 ebbc 03e9 03be
00000010: 7d39 b0bc ec3f 0d3d 1ee8 98bc 3501 4fbc
00000020: 66be ddbd 90d2 cdbc 56bc 0fbd fdbf e43b
00000030: 8da4 2d3c 2c78 b2bc 5ded 3f3c a217 123d
00000040: 0e30 b0ba d56d 78bd 38cd 7e3e 0d92 543e
00000050: f396 86bd 0abd 7abd df88 2a3c 503c 303e
00000060: 1947 a5ba 9e6c e4bd 8b94 6f3c 6510 c0bd
00000070: efdc fd38 2004 183e 2bf0 34bd ba51 c03c
00000080: 75de 733d 5a85 0abd a465 833d 76bf 593e
00000090: fe56 283d 6b66 2c3e 124b 44bc 2dba b2bc
000000a0: ad4a cebb 173b cebd 49c6 4bbd bdb5 f0bd
000000b0: 2e65 9dbd ed09 2cbc 89bc 85bd 57da e9bd
000000c0: a631 b3bd 2708 21be 11a6 aabd d153 ccbd
000000d0: b27f 2bbd eb15 52bd f7df 7dbd ec04 ba3d
000000e0: 9900 f6bd 2323 f7bd 6df4 babd 419e 28bc
000000f0: c7ed 7cbd 0cce 2ebd ac3b 69bd 22c0 62bd
00000100: 7254 1dbd 56bd 32bc 36cf 0d3e 60f8 19be
00000110: 0f11 86bb cd51 1f3e 8202 f7bc cc37 99bd
00000120: 24a9 2abd 7d76 a03c 5593 12bd 5d88 b8bd
00000130: 5116 b1bd de46 9ebb cb2e fdbd 5fc2 b53d
00000140: a318 3f3c dac0 663d 4600 47bd 6be3 3b3c
00000150: 2368 80bd 59de 7abb 661b 30bd 8f1b 1abc
00000160: c8a0 12bd e398 c0bd f7a3 b3bd 2cc1 78bd
00000170: fa86 7bbd 220b aebd 92de c0bd fc5a e5bd
00000180: 50c0 e2bd eb4b 00bc b925 e43c 51fb 4b3d
00000190: 3d17 cabd ff65 83bd 5395 903b 099a 2abd
000001a0: 6e4c b5bd 2bc0 dbbd 9806 1c3d ecac e83c
000001b0: bd9a 433c 753a d2bd 8cda 18bd 7df5 523e
000001c0: 5818 2cbd 9db1 bbbc 264a b5bc 8d36 083e
000001d0: 5935 d0bd 3693 2a3e 12ec 9d3c a136 a0bd
000001e0: 3028 823c ef28 69bd acfa ccbc 86f5 1bba
000001f0: 1241 9e3e 410a 043e e6df c6bc c937 17be
00000200: 3aa3 39bd b28b a6bd ec37 253e 2c24 4e3e
00000210: c564 ee3c de2e d9bc 3098 733d a0e9 73bc
00000220: f237 573d b30e 2f39 137d 03bd b344 2abd
00000230: e1ef 153d 6896 56bd 2a26 44bd 76b7 17bd
00000240: 3977 58bd 2a6e cebc 7bd7 e0bd fef4 30bd
00000250: a833 d2bd 16ed 48bd 49b5 3abd 77aa 92bd
00000260: 59a9 14bd 67b7 933c 620b 62bd fe6d 0abd
00000270: 8bbf bebc 97f4 f83c a42b 07bd a5e2 b73d
00000280: 4509 a0bc 7dc0 983c 62da ffbd ddc3 07bd
00000290: 4667 5a3e cf17 f93b 6227 223e 444b 833c
000002a0: ddfe 85bd 8808 1bbc 1abb 6abc a0d2 e2bd
000002b0: bb9a 03bc 2469 27bc f64f b4bc 8cdc f83d
000002c0: 30a7 8abc 5eb2 553d 43ed 573c fbae 143d
000002d0: f0f1 1ebd 8f02 b73c 894f a3bd 27b4 6e3d
000002e0: 255e b1bd 3a83 0f3e 94f3 14bd 2f1e 1dbd
000002f0: 6792 113d 2020 85bd 582f efbd ab44 8ebd
00000300: bd0f 87bd 0c42 0e3d fcfd 81bd 0c44 81bd
00000310: a0fa 293e 5288 b9bd b48d ee3d 7a19 3fbd
00000320: 72b4 473e d69a dbbd b0e5 223b 057d fb3d
00000330: a207 273d 31e4 4ebd 7b54 c03c 045d ae3c
00000340: fa35 5abd f12a 6cbc 22ac 123c b967 57bc
00000350: b7b5 2739 7ac7 12bd ec43 6b3e ae0d d6bd
00000360: cac4 85bc 919a 6abd 45cf 7bbd 8fb5 473c
00000370: 8299 debd 4796 49bd eded bcbd f37d 6abd
00000380: 3bee 743c a0ef 293e a748 f2bc daef 84bd
00000390: 2257 94bd d748 cdbc 561a 75bd 3de5 0ebd
000003a0: da5a 2ebd 0864 b83c 57b6 ddbd 6db6 5bbd
000003b0: 395f 353d ad65 2dbd f276 993d 2e9e 7cbd
000003c0: 32ae 043e 738a debc bc2a e53c 2baf bebd
000003d0: 8c72 543c ba1b e53d d75a d03b 2d62 eb3b
000003e0: f404 bebd b648 873d 56ec a0bd 864b 22bc
000003f0: bdfb 263e 1cc3 41bd 0156 52bd b184 333e

net.4.weight f4 [256, 256]
0.011287454 0.24102695 0.11260869 0.56589174 0.21019429 -0.039073814 0.012962924 0.008598268
0.23110223 0.09751558 0.010618064 -0.048192374 0.043596428 0.038153585 -0.046093713 0.25066343
0.021044487 -0.044612844 -0.5133782 -0.084919274 0.11608579 0.015347451 -0.023648294 0.17989826
0.008731163 0.55200124 0.106450476 0.38700584 -0.018432029 0.03056997 -0.0031826273 0.021433026
0.42079774 0.05853624 -0.42192394 -0.37532416 0.06383051 0.06269194 0.055289757 0.035903316
0.04903886 0.095510714 0.058761127 0.16570623 0.039140712 0.0015635173 0.05915544 0.1631907
0.16228196 0.22944039 0.13845485 0.12786093 -0.03390163 0.043027252 -0.036912158 0.21771303
0.33120412 0.4636633 0.003237719 -0.0071969833 -0.058979094 -0.023096627 0.002920131 0.14361644
-0.014670947 0.027326401 0.00837424 0.2898078 -0.027870554 -0.188322 0.20017302 -0.028064385
-0.046221685 0.3945146 -0.05831284 0.21004732 0.041550625 -0.054799 0.48209518 0.08774359
0.009660988 -0.10897343 -0.007566359 -0.023661843 0.038009718 0.017048998 0.12468419 0.049190328
0.005872771 0.19123161 -0.040806696 -0.060164794 0.2657768 -0.028902762 -0.062472023 0.033668257
0.007036919 0.22397353 -0.040767904 0.2640577 0.060463045 -0.048069544 0.025664993 -0.035819445
0.088915445 0.029559957 0.21645923 -0.08495608 0.02199628 0.54293954 0.033612557 -0.049152665
0.02029283 0.10096161 -0.035360415 0.1754571 -0.026274886 -0.035318278 -0.0056902696 0.031207778
0.17806351 -0.037865993 0.024937805 0.041514166 -0.14635554 0.014320908 -0.041674208 1.0613422
-0.013864487 -0.02710235 0.26284835 -0.1038818 -0.03435213 -0.04123058 -0.090866186 -0.0040734303
0.1660844 -0.0013028326 0.09365443 -0.064748965 0.058342744 -0.06590222 -0.2246681 0.02352565
0.017242067 0.011445879 0.46379343 0.053558607 -0.0016017488 -0.0032552837 0.1881645 -0.04178746
0.010331571 0.015447721 0.016859043 -0.023595802 -0.010389902 -0.010631168 -0.002619433 0.0031392048
0.049157497 0.07847025 0.51075554 0.24469821 -0.15862554 -0.024199484 0.04729188 0.025643699
-0.055903144 0.078745134 0.038948342 0.328576 0.033235025 0.019528313 -0.034985904 0.25192893
-0.07811109 0.060512118 0.030953113 0.28594014 0.04632602 0.03701586 0.478789 0.20084786
-0.06709278 -0.011456481 0.047326725 0.07625199 0.017864157 -0.045975596 0.40337643 0.060587727
-0.04062764 -0.18432584 0.02458012 -0.027603917 -0.35351443 0.42873004 -0.18552263 0.02060169
-0.20184962 0.09816738 -0.0017668146 0.13327967 -0.051051743 0.32015792 -0.20568267 0.0067787888
0.15626796 -0.036993667 0.0661268 -0.05435204 0.078419715 0.05431753 -0.20432074 0.038012084
0.022905258 0.044183202 -0.0220871 -0.056398503 0.106450595 0.1817471 0.003576238 0.02284491
0.26488918 -0.056268305 0.03278768 0.060180113 0.066458434 0.0568667 0.012783311 -0.020157227
-0.062359296 0.09041003 0.49525258 -0.044819318 0.06427832 0.064532585 0.17104618 0.0607149
0.09048453 0.40364563 0.07514345 -0.043354087 -0.041288976 0.07475804 0.052867454 -0.07785557
0.13512124 -0.039932057 0.047910687 -0.30599472 0.017480692 0.025489986 -0.0017322428 -0.1382946
00000000: 03ef 383c c5cf 763e 639f e63d 48de 103f
00000010: 2c3d 573e dd0b 20bd 7262 543c c0df 0c3c
00000020: 10a6 6c3e 40b6 c73d 63f7 2d3c 5e65 45bd
00000030: 2b92 323d ef46 1c3d c3cc 3cbd f556 803e
00000040: 7d65 ac3c f5bb 36bd c16c 03bf 28ea adbd
00000050: 63be ed3d e073 7b3c 11ba c1bc 4037 383e
00000060: 270d 0f3c f44f 0d3f b502 da3d a125 c63e
00000070: c4fe 96bc e06d fa3c a093 50bb 5094 af3c
00000080: cd72 d73e b2c3 6f3d 6a06 d8be 7d2a c0be
00000090: 92b9 823d a264 803d 8377 623d 5b0f 133d
000000a0: f9dc 483d 1f9b c33d 82af 703d e5ae 293e
000000b0: 0352 203d efee cc3a fa4c 723d 761b 273e
000000c0: 3e2d 263e 6cf2 6a3e 1cc7 0d3e faed 023e
000000d0: 70dc 0abd 583d 303d 3431 17bd 2af0 5e3e
000000e0: 9693 a93e 4765 ed3e e92f 543b acd4 ebbb
000000f0: 1094 71bd 2335 bdbc ab5f 3f3b 3010 133e
00000100: 695e 70bc 9edb df3c 1c34 093c b061 943e
00000110: ca50 e4bc 7bd7 40be 28fa 4c3e 48e7 e5bc
00000120: f352 3dbd d1fd c93e 72d9 6ebd a516 573e
00000130: fd30 2a3d eb74 60bd 2ed5 f63e e9b2 b33d
00000140: 1f49 1e3c 762d dfbd 38ef f7bb 7bd6 c1bc
00000150: 14b0 1b3d 57aa 8b3c 6d5a ff3d cc7b 493d
00000160: 6070 c03b 38d2 433e ec24 27bd 5c6f 76bd
00000170: e613 883e 7cc5 ecbc aae2 7fbd bae7 093d
00000180: f495 e63b 5159 653e 3ffc 26bd 9232 873e
00000190: 19a8 773d 92e4 44bd 643f d23c 69b7 12bd
000001a0: 4d19 b63d b927 f23c 7da7 5d3e 74fd adbd
000001b0: 8b31 b43c 16fe 0a3f 52ad 093d 4e54 49bd
000001c0: 263d a63c f6c4 ce3d 15d6 10bd 07ab 333e
000001d0: 6e3e d7bc e6a9 10bd 7175 babb 74a7 ff3c
000001e0: 4856 363e 5f19 1bbd 5e4a cc3c c20a 2a3d
000001f0: 3ade 15be 3ea2 6a3c 93b2 2abd 10da 873f
00000200: e027 63bc bf05 debc 0f94 863e fbbf d4bd
00000210: d2b4 0cbd 66e1 28bd 0d18 babd 697a 85bb
00000220: 0712 2a3e cfc3 aaba e5cd bf3d 1b9b 84bd
00000230: cdf8 6e3d bef7 86bd 650f 66be ddb8 c03c
00000240: 3c3f 8d3c 7f87 3b3c 5576 ed3e 4560 5b3d
00000250: c5f1 d1ba 9956 55bb 32ae 403e 5429 2bbd
00000260: c045 293c 7018 7d3c fa1b 8a3c fc4b c1bc
00000270: 683a 2abc 5a2e 2ebc cbaa 2bbb 1ebb 4d3b
00000280: 5f59 493d 03b5 a03d e0c0 023f 2b92 7a3e
00000290: bc6e 22be ff3d c6bc 21b5 413d bc12 d23c
000002a0: b2fa 64bd 2145 a13d 4c88 1f3d 1d3b a83e
000002b0: 7321 083d d7f9 9f3c 614d 0fbd d4fc 803e
000002c0: b5f8 9fbd 8edb 773d 6291 fd3c bf66 923e
000002d0: 5ac0 3d3d f19d 173d d523 f53e 10ab 4d3e
000002e0: f067 89bd f7b3 3bbc abd9 413d 012a 9c3d
000002f0: da57 923c e850 3cbd 5b87 ce3e d62a 783d
00000300: 2b69 26bd eabf 3cbe 3f5c c93c 9c21 e2bc
00000310: d8ff b4be 8182 db3e a5f9 3dbe e0c4 a83c
00000320: abb1 4ebe fb0b c93d 7694 e7ba 777a 083e
00000330: a21b 51bd bdeb a33e 7a9e 52be 9a20 de3b
00000340: b504 203e ac86 17bd 7d6d 873d 3fa0 5ebd
00000350: 849a a03d 0f7c 5e3d 7539 51be 8fb2 1b3d
00000360: cfa3 bb3c 72f9 343d 02f0 b4bc 1e02 67bd
00000370: c502 da3d e91b 3a3e 515f 6a3b 4025 bb3c
00000380: 8e9f 873e 9879 66bd 604c 063d 6c7f 763d
00000390: 5c1b 883d 0fed 683d 1871 513c c520 a5bc
000003a0: 766c 7fbd e528 b93d bf91 fd3e 7694 37bd
000003b0: 5aa4 833d a929 843d bb26 2f3e 30b0 783d
000003c0: f44f b93d a4aa ce3e cfe4 993d 0e94 31bd
000003d0: a11e 29bd be1a 993d 8b8b 583d be72 9fbd
000003e0: 395d 0a3e cc8f 23bd ff3d 443d 57ab 9cbe
000003f0: ab33 8f3c 60d0 d03c 6c0c e3ba 1a9d 0dbe

net.4.bias f4 [256]
0.026102033 -0.04741566 -0.05464386 -0.07684819 -0.00080332084 -0.01452569 0.018619683 -0.0042811646
0.026813084 0.081291035 -0.05996004 0.009978811 0.009709663 -0.011007069 -0.00198113 -0.03682364
0.10304664 0.1905935 -0.020246033 0.08736429 0.12686549 -0.012805715 0.0673928 -0.042372216
-0.012162054 0.018037153 -0.035261724 0.015094172 -0.040914103 0.09286836 -0.044055905 -0.014603105
-0.026864393 -0.008935545 -0.061088115 -0.013704562 -0.0142948385 0.12074194 -0.033531077 0.07083334
-0.032239232 -0.07780832 -0.04982096 0.08323107 -0.050127428 0.03208197 -0.013391339 0.06358593
-0.0017947779 -0.009587356 0.102348775 -0.01903393 -0.030636823 -0.0055210865 -0.053057823 0.06718464
-0.060178284 -0.037831016 -0.085719325 -0.057451356 -0.04937174 -0.027203262 -0.028045183 0.16237997
0.11132185 0.049301893 0.064620286 0.081047624 -0.029133806 0.027315881 -0.035365563 0.15960218
-0.02713624 0.0867981 -0.011815428 -0.003036793 -0.054084595 0.21959786 -0.028881593 0.027749015
-0.03935376 0.14306352 0.1569641 -0.069740124 0.041384626 0.023953771 -0.024371829 -0.012092551
-0.04150362 0.047449116 0.07455689 -0.015999831 -0.051642817 0.0014700786 -0.0069174063 0.050202545
0.11460284 0.17171285 -0.061383046 -0.009826668 0.0016877041 0.2520583 -0.022270374 0.08443248
0.1801849 -0.038376566 0.0030344138 0.010777617 0.20017913 -0.06345763 -0.052542545 0.043191977
0.11699059 -0.019761385 -0.014781678 -0.051695913 -0.0057053757 -0.009678702 0.18672055 -0.03552266
-0.06150451 0.051402926 -0.0365363 0.07916414 -0.034979492 -0.006463244 0.100251764 -0.037421506
-0.0082503725 -0.059188593 -0.0045460016 0.20224428 0.20928876 -0.07098577 -0.028923761 0.20633914
0.018477347 -0.077263944 0.18134953 0.0443582 -0.003934253 -0.0055888547 -0.01569664 0.016310474
-0.047006883 -0.022049563 -0.028899483 -0.061618205 -0.02501964 -0.0012907083 -0.07639285 0.02021669
0.19479816 0.011282988 0.014611217 -0.057862792 0.064522415 0.04275375 0.068200484 0.0049679657
-0.05213612 -0.007246107 0.13977693 -0.011534731 -0.025151107 -0.057977512 0.102393836 0.155009
-0.024773188 -0.023212926 -0.028720938 -0.029951427 0.10255375 0.21863258 -0.056461778 -0.048158664
-0.022254597 0.06271517 0.06377631 -0.005629115 0.09311301 0.080962375 -0.054344967 -0.00526932
0.0016008131 -0.051531814 -0.052281927 0.008848021 -0.017893467 -0.015491471 0.1517991 -0.067069784
-0.056891907 0.10701239 -0.03814658 0.11190136 -0.001965402 0.11021569 -0.06316101 -0.0037527282
-0.021541975 -0.015010175 0.096247055 -0.017409423 0.060485482 0.0071167373 0.015525201 -0.028121643
-0.0021529202 0.003906858 -0.052549344 0.11894309 0.0013031983 0.0036691064 0.02457637 0.09734974
0.19636984 0.058820922 -0.02638111 -0.012008218 -0.017459992 -0.028637696 -0.058544427 0.009130002
-0.01929093 0.0010202298 -0.00022955732 0.08641739 -0.033403605 0.03705153 -0.037032634 0.15281086
0.15585624 0.03295359 0.0451005 -0.017979836 -0.032314636 0.022041488 -0.0051294337 0.030573526
0.13768578 -0.014484428 0.04548768 0.036996845 -0.012038667 0.0005675725 0.03793462 -0.017543381
-0.054818895 -0.06630866 -0.11673579 0.09322884 -0.0054239244 -0.061659254 -0.07102976 0.09925463
00000000: eed3 d53c ec36 42bd 3dd2 5fbd 9562 9dbd
00000010: f395 52ba 29fd 6dbc 4e88 983c 0349 8cbb
00000020: 1da7 db3c ea7b a63d a998 75bd 2b7e 233c
00000030: 4715 1f3c fe56 34bc d9d5 01bb 63d4 16bd
00000040: 1e0a d33d f12a 433e 02db a5bc 0dec b23d
00000050: 07e9 013e 10cf 51bc 3c05 8a3d 7d8e 2dbd
00000060: 5a43 47bc a7c2 933c 996e 10bd 8c4d 773c
00000070: 8c95 27bd c431 be3d f773 34bd dd41 6fbc
00000080: b712 dcbc 6466 12bc 8837 7abd 1989 60bc
00000090: e634 6abc 8d47 f73d e257 09bd 1211 913d
000000a0: 490d 04bd f859 9fbd 1011 4cbd 0d75 aa3d
000000b0: 6b52 4dbd 6268 033d 5967 5bbc 5739 823d
000000c0: c13e ebba 4914 1dbc 3c9c d13d 0bed 9bbc
000000d0: 13fa fabc 3bea b4bb 2953 59bd 1a98 893d
000000e0: 817d 76bd b2f4 1abd 9d8d afbd 1d52 6bbd
000000f0: 063a 4abd 60d9 debc 03bf e5bc ef46 263e
00000100: b6fc e33d c8f0 493d a457 843d 4cfc a53d
00000110: 05aa eebc 8ec5 df3c 7bdb 10bd c16e 233e
00000120: d24c debc 34c3 b13d 7f95 41bc ef04 47bb
00000130: cf87 5dbd 43de 603e 1799 ecbc e751 e33c
00000140: 6931 21bd 3e7f 123e 32bb 203e e9d3 8ebd
00000150: ed82 293d b33a c43c 6ea7 c7bc d61f 46bc
00000160: b3ff 29bd 015a 423d 48b1 983d 1412 83bc
00000170: 6b87 53bd a7af c03a 69ab e2bb 2fa1 4d3d
00000180: e5b4 ea3d 7ed5 2f3e ca6c 7bbd 0800 21bc
00000190: f435 dd3a c90d 813e 5c70 b6bc f0ea ac3d
000001a0: 6482 383e bf30 1dbd 04dd 463b 9a94 303c
000001b0: c2fb 4c3e 13f6 81bd da36 57bd 12ea 303d
000001c0: c398 ef3d a1e2 a1bc da2e 72bc 18bf 53bd
000001d0: 29f4 babb 6b93 1ebc ac33 3f3e 3580 11bd
000001e0: 27ec 7bbd e08b 523d 16a7 15bd cf20 a23d
000001f0: a846 0fbd 9fc9 d3bb cc50 cd3d 4b47 19bd
00000200: 922c 07bc bd6f 72bd a0f6 94bb 2019 4f3e
00000210: cb4f 563e fd60 91bd 86f1 ecbc 914a 533e
00000220: ce5d 973c 8f3c 9ebd b1b3 393e f2b0 353d
00000230: e8ea 80bb b622 b7bb 3d96 80bc 8b9d 853c
00000240: 4a8a 40bd 49a1 b4bc 9cbe ecbc 5f63 7cbd
00000250: fdf5 ccbc fc2c a9ba db73 9cbd 799d a53c
00000260: 2b79 473e 48dc 383c e363 6f3c 8901 6dbd
00000270: 5424 843d 8e1e 2f3d b2ac 8b3d 51ca a23b
00000280: af8c 55bd c070 edbb af21 0f3e 2bfc 3cbc
00000290: b209 cebc d479 6dbd dcb3 d13d aeba 1e3e
000002a0: 24f1 cabc 0929 bebc 2c48 ebbc b25c f5bc
000002b0: b307 d23d 38e1 5f3e 7744 67bd 0542 45bd
000002c0: 464f b6bc d070 803d 279d 823d 7074 b8bb
000002d0: 09b2 be3d 9acf a53d d498 5ebd 43aa acbb
000002e0: 60d2 d13a 0613 53bd 9325 56bd 4af7 103c
000002f0: 5295 92bc f0cf 7dbc 3971 1b3e e25b 89bd
00000300: 7d07 69bd 5029 db3d 973f 1cbd 8a2c e53d
00000310: f9cd 00bb c4b8 e13d 8f5a 81bd 55f0 75bb
00000320: cc78 b0bc 3ded 75bc 2d1d c53d 359e 8ebc
00000330: a0bf 773d 8533 e93b 6a5d 7e3c 5c5f e6bc
00000340: 0218 0dbb 1a05 803b fb3d 57bd 6f98 f33d
00000350: 14d0 aa3a 6475 703b 6254 c93c 4d5f c73d
00000360: 2d15 493e 35ee 703d 331d d8bc 1ebe 44bc
00000370: 4208 8fbc 9a99 eabc 48cc 6fbd 0196 153c
00000380: 0308 9ebc 3bb9 853a 53b5 70b9 9afb b03d
00000390: 38d2 08bd 58c3 173d 88af 17bd 737a 1c3e
000003a0: c798 1f3e 58fa 063d 4dbb 383d 734a 93bc
000003b0: 5a5c 04bd 5a90 b43c cf14 a8bb 5575 fa3c
000003c0: 80fd 0c3e 1850 6dbc 4a51 3a3d 018a 173d
000003d0: d43d 45bc 25c9 143a 5561 1b3d 23b7 8fbc
000003e0: c789 60bd d6cc 87bd 2d13 efbd c3ee be3d
000003f0: 2dbb b1bb 6a8e 7cbd 0d78 91bd 0346 cb3d

net.6.weight f4 [1, 256]
1.5509706 0.479593 0.045364104 0.47321433 0.75766754 -0.026017435 0.22422308 -0.035791922
-0.4416081 1.0048913 0.6513859 0.38557914 0.18934645 0.0033855184 0.0072800135 0.019524906
-0.99700665 1.6333677 0.084097005 1.206456 -0.8946759 0.0028735027 -0.07419805 -0.055186316
-0.1162534 0.08613366 0.02637426 0.0053516165 -0.015029244 1.3725284 0.0026197762 0.25174075
0.011222864 0.5406559 0.63869315 0.024173329 -0.061742224 1.5626681 0.14029756 0.9770157
0.31854787 -0.03057669 0.009562902 1.3432536 -0.0177994 0.8001218 0.37999475 1.1970544
-0.012309451 1.1797119 1.0338761 1.3813889 -0.007472391 0.17989223 -0.0005597612 -1.0483347
0.049062494 -0.044129957 0.3747841 -0.009007676 0.83983874 -0.041827455 0.420654 1.5402138
0.90405077 0.2368462 -1.7136973 0.9463263 0.6493056 0.06505505 0.5052834 -1.2479985
-0.3117968 1.2875025 0.12857702 0.09563152 0.0066912374 0.8651106 -0.036021583 1.173466
0.4019058 -1.137766 -1.1319926 0.015677858 0.3245398 1.4574542 -0.009571826 0.036846705
0.0022238942 1.3277545 1.3785512 0.11700215 0.20345402 -0.053857397 0.085528165 0.59056205
1.8408731 0.9827431 -0.06096417 0.0012256312 -0.1854277 -1.6995085 -0.001073738 0.90339977
1.4268436 -0.04029102 -0.008969622 -0.0026884386 0.31315765 0.40299633 -0.028443908 0.21942756
1.0428218 -0.10603936 1.1939801 0.4058373 -0.014693216 0.16324922 1.1452538 0.0008206889
-0.050575823 1.4621217 0.50637287 1.2740456 0.8372531 0.36979514 1.4931347 0.7759138
-0.046355024 0.5880271 -0.4983752 0.2737707 1.2286234 0.5827079 0.00078618625 -1.2379503
-0.30598772 1.1741507 2.0688286 0.849298 0.0020270133 0.9768127 0.15153433 0.92011195
-0.045466766 0.123273164 -0.011329868 -0.0034731703 0.30123872 -0.060167138 0.7314488 0.2771756
1.842678 -0.043274306 1.03539 -0.036354627 0.2857356 -1.5202405 -0.34033674 -0.063353226
-0.011348795 -0.28308862 1.5512922 -0.052204113 0.2225693 0.56326133 0.9747437 -0.5757582
0.94893944 0.006458872 -0.05042831 -0.006994696 1.5147051 1.8587567 0.024326209 -0.036159277
0.019214913 0.4489031 -0.28426886 0.06944655 1.487195 0.76171577 -0.014451628 -0.9793595
1.853261 -0.022227462 0.0024555698 0.1219083 0.2325376 -0.025602289 1.699842 -0.25383425
0.0252138 1.6761724 0.055965867 1.6854898 1.3260499 1.2478544 -0.009333845 -0.04194961
0.6778277 -0.014136277 0.8538592 0.095358595 1.4843847 -0.0011803143 0.4413254 0.060797576
1.3256668 0.34810644 -0.29107824 -0.91896284 -0.09548085 -0.40513566 1.2433261 -0.66110533
1.2491884 1.454373 0.027523119 -0.11723851 0.009918573 -0.00030591196 -0.036677577 1.5735829
-0.05296601 -0.02197491 -0.009103035 -0.6604873 -0.15288477 1.6569141 0.042053107 1.9984796
1.0192726 0.52223194 -0.39879912 0.79805845 0.8630812 0.05166301 0.149737 0.8478777
1.2497782 -0.02470923 0.15330502 0.475796 1.2610028 0.11871191 1.2535212 -0.28557804
0.025114449 0.5823301 -0.744222 1.874734 -0.04073201 0.030430527 -0.31373274 1.802594
00000000: 3486 c63f 378d f53e b6cf 393d 2649 f23e
00000010: 80f6 413f 8422 d5bc bc9a 653e 8d9a 12bd
00000020: 751a e2be 47a0 803f 3ac1 263f a16a c53e
00000030: 09e4 413e 93df 5d3b 2e8d ee3b b2f2 9f3c
00000040: d43b 7fbf 3112 d13f 0d3b ac3d 266d 9a3f
00000050: 7b09 65bf 6051 3c3b 26f5 97bd 0c0b 62bd
00000060: 4316 eebd d866 b03d d50e d83c 9d5c af3b
00000070: 383d 76bc 03af af3f 8db0 2b3b 2ae4 803e
00000080: 1ae0 373c 6d68 0a3f 6581 233f 2507 c63c
00000090: 6ae5 7cbd 8205 c83f 2aaa 0f3e b31d 7a3f
000000a0: b518 a33e f77b fabc b8ad 1c3c bcef ab3f
000000b0: 0cd0 91bc c8d4 4c3f ac8e c23e 1439 993f
000000c0: 94ad 49bc cd00 973f 0d56 843f 5ad1 b03f
000000d0: f5da f4bb ab35 383e f0bc 12ba d52f 86bf
000000e0: c1f5 483d 9dc1 34bd b4e3 bf3e ee94 13bc
000000f0: acff 563f 4453 2bbd f65f d73e ba25 c53f
00000100: df6f 673f cf87 723e 6f5a dbbf 7142 723f
00000110: e438 263f 953b 853d 415a 013f 6abe 9fbf
00000120: d5a3 9fbe e2cc a43f b2a9 033e 75da c33d
00000130: 2b42 db3b e377 5d3f 5e8b 13bd 2234 963f
00000140: 99c6 cd3e 51a2 91bf 22e5 90bf da6e 803c
00000150: 152a a63e dc8d ba3f 26d3 1cbc 92ec 163d
00000160: c1be 113b dcf3 a93f 5e74 b03f d39e ef3d
00000170: 4056 503e 9399 5cbd 6429 af3d 132f 173f
00000180: bba1 eb3f 0d95 7b3f 91b5 79bd 5ca5 a03a
00000190: c2e0 3dbe 7f89 d9bf abbc 8cba 3545 673f
000001a0: d0a2 b63f 3208 25bd 52f5 12bc 8430 30bb
000001b0: 3356 a03e 8955 ce3e 3303 e9bc 9eb1 603e
000001c0: 2f7b 853f 2a2b d9bd 57d4 983f e8c9 cf3e
000001d0: d1bb 70bc ce2a 273e ad97 923f 8023 573a
000001e0: 9828 4fbd ce26 bb3f a7a1 013f ed13 a33f
000001f0: 3856 563f ca55 bd3e 0a1f bf3f 49a2 463f
00000200: c4de 3dbd f288 163f 092b ffbe ac2b 8c3e
00000210: 8843 9d3f 582c 153f 1118 4e3a 2875 9ebf
00000220: 6caa 9cbe 924a 963f b067 0440 986b 593f
00000230: a4d7 043b 6610 7a3f d12b 1b3e 758c 6b3f
00000240: 5c3b 3abd a476 fc3d e9a0 39bc 219e 63bb
00000250: f63b 9a3e d171 76bd 3b40 3b3f f6e9 8d3e
00000260: dfdc eb3f 6640 31bd a987 843f 97e8 14bd
00000270: f04b 923e 3e97 c2bf 9e40 aebe 56bf 81bd
00000280: 4cf0 39bc fef0 90be be90 c63f fbd3 55bd
00000290: 35e9 633e e531 103f ce88 793f e464 13bf
000002a0: b2ed 723f f2a4 d33b ea8d 4ebd c333 e5bb
000002b0: dbe1 c13f bdeb ed3f c247 c73c c01b 14bd
000002c0: 9868 9d3c a1d6 e53e b08b 91be fe39 8e3d
000002d0: 685c be3f ceff 423f 85c6 6cbc 4eb7 7abf
000002e0: a837 ed3f 5e16 b6bc a0ed 203b 0fab f93d
000002f0: 561e 6e3e e4bb d1bc 6c94 d93f 90f6 81be
00000300: 2c8d ce3c d18c d63f 773c 653d 21be d73f
00000310: 01bc a93f b1b9 9f3f fcec 18bc 5bd3 2bbd
00000320: 1e86 2d3f d89b 67bc 8496 5a3f 5e4b c33d
00000330: 5100 be3f c7b4 9aba 67f5 e13e e106 793d
00000340: 73af a93f 023b b23e 3508 95be 2641 6bbf
00000350: 778b c3bd f16d cfbe 4f25 9f3f 333e 29bf
00000360: 68e5 9f3f e528 ba3f 2a78 e13c be1a f0bd
00000370: 8381 223c cf62 a0b9 3a3b 16bd 2a6b c93f
00000380: e3f2 58bd ba04 b4bc e524 15bc b215 29bf
00000390: d38d 1cbe c315 d43f e13f 2c3d 2ece ff3f
000003a0: 8677 823f feb0 053f 662f ccbe 8f4d 4c3f
000003b0: e4f2 5c3f 989c 533d a854 193e 830e 593f
000003c0: bbf8 9f3f 036b cabc fefb 1c3e 899b f33e
000003d0: 8a68 a13f 3b1f f33d 6273 a03f 4937 92be
000003e0: d1bc cd3c 9613 153f 5585 3ebf 49f7 ef3f
000003f0: 9cd6 26bd 7149 f93c 94a1 a0be 66bb e63f
