preTrained/GAIL_pretrained_5900_discriminator.pth (torch, 542340 bytes, 7 tensors)

net.0.weight f4 [256, 10]
000000 19 f0 c6 be cc 6d a0 bd fc 37 1a 3d f5 39 8b 3e
       -0.38855055 -0.07833442 0.037651047 0.27192655
000010 69 f2 23 be cf e1 67 3e 69 00 ed bc 02 f7 6d be
       -0.16010441 0.22644733 -0.02893086 -0.23238757
000020 ec e0 44 3e 4d 9f 22 3e ba 6d 5e be 5a b1 93 3e
       0.19226426 0.15881081 -0.21721545 0.28846246
000030 6f 90 89 be 64 8a 9b 3e 00 7b 61 be 1c 9a 1e be
       -0.26868007 0.3037902 -0.22019577 -0.15488476
000040 79 0a bf 3d 7e c1 66 bd 8c 9b 9a be e2 76 2e 3e
       0.093281694 -0.056336872 -0.30196798 0.17037538
000050 28 86 b8 bd a7 b4 eb be e4 2a db be 8e d5 a7 be
       -0.09009963 -0.46036264 -0.4280616 -0.32780117
000060 9c df 65 be 56 f3 09 be 5c ea 36 be f1 d1 90 bb
       -0.22448581 -0.13471732 -0.17862839 -0.004419558
000070 fd 6f 12 3e 90 b2 77 3e 70 e9 1a 3e 1c f5 5c 3e
       0.14300533 0.2418921 0.15128112 0.21577877
000080 0f a6 93 3e 5c 5b 78 be 2c 83 48 bd 4e ac 9c 3e
       0.2883763 -0.24253601 -0.04895322 0.30600208
000090 35 02 5e be a3 88 06 be 6d 39 46 be d8 5d 1c 3e
       -0.2168053 -0.1313806 -0.19357844 0.15270174
0000a0 da 92 4b be d7 ca 94 be c2 7c 09 3e 97 d4 d1 3d
       -0.19880238 -0.29061005 0.13426498 0.102456264
0000b0 8f b0 52 be db 20 b2 3d bc 66 a0 bd 57 3f ae be
       -0.20575164 0.08697673 -0.07832095 -0.340327
0000c0 cc 1c bd 3a 8b 1e 96 3e ab a6 82 be 1b 4d 84 3b
       0.0014428138 0.29320177 -0.25517783 0.004037512
0000d0 6c b1 a2 be 6d 61 96 be be fc 57 3e 4b c6 08 be
       -0.31775987 -0.29371205 0.21092507 -0.13356893
0000e0 e0 8f 99 3e 6b b1 b8 bc b6 06 b1 bd 50 e2 5a 3d
       0.2999258 -0.022545537 -0.08643858 0.053438485
0000f0 3d c5 00 bf 93 ba ae be 7a 67 9a 3c 1d 5a 5d 3c
       -0.5030096 -0.3412672 0.01884817 0.013510254
000100 c0 b4 df 3d a5 07 37 be 24 c9 ae 3e 55 c9 6b 3e
       0.10923147 -0.1787401 0.34137833 0.23026021
000110 9c fb c6 bc 7c 27 d7 bc b5 f9 b8 be a2 95 0f bf
       -0.024289899 -0.026263945 -0.3612801 -0.56087697
000120 74 3f a4 3e 33 10 9f 3d e3 01 5d 3e cf 36 2f 3e
       0.3207966 0.07766762 0.21582751 0.17110752
000130 e4 a0 1e 3e dd 34 6d 3e d9 c9 17 be 7e a7 9d 3d
       0.15491062 0.23164697 -0.14823093 0.07697962
000140 94 7f 06 3e da c7 34 be 92 52 50 3d c8 80 e0 bd
       0.13134605 -0.17654362 0.050859995 -0.10962063
000150 ad b5 cd 3d fd 75 7b bd 51 8a 2f bc 91 27 a2 bd
       0.100444175 -0.06139182 -0.01071413 -0.07917703
000160 91 a0 39 bd 42 3a 6f be 11 ac 22 bd 33 87 73 be
       -0.045319144 -0.23362067 -0.039714877 -0.23782043
000170 06 55 1f 3e 58 f1 2a be 85 1b 6f 3e 70 1c ce 3e
       0.15559778 -0.16693628 0.23350342 0.4025607
000180 6a 47 29 3e 94 0f 51 3e 53 42 8b 3e e4 fa fc bd
       0.16531149 0.20416099 0.2719904 -0.12352541
000190 08 00 2a 3e bb 2b 35 3f ea d8 5c 3e ea 61 ed 3b
       0.16601574 0.7076985 0.21567121 0.0072443383
0001a0 e1 36 78 3e b2 01 b4 3e 3e 42 d8 3d 4e 5a 95 bd
       0.24239685 0.35157543 0.1055951 -0.07292615
0001b0 91 ab cd bd be 0f 56 be b4 d2 32 3e ba 1b fa be
       -0.10042489 -0.20904443 0.1746319 -0.4884928
0001c0 13 2a 2b be 4a f0 8f be e1 b1 41 3d a6 70 bb be
       -0.16715269 -0.28113014 0.04728878 -0.3660938
0001d0 1b 0a d9 3b 33 7c ee 3d 84 9f aa 3d 56 84 90 3d
       0.006623519 0.11644783 0.083312064 0.07056491
0001e0 25 03 74 3e b4 5a 24 be 6c 9c 56 be f7 7d 72 be
       0.23829325 -0.16050225 -0.20958108 -0.23680864
0001f0 cb ef 8c be bb ae 81 be bf 3d f0 bd 2d 57 a5 be
       -0.27526698 -0.2532862 -0.11730527 -0.32293072
000200 e7 57 ba bd f7 f3 a7 3e 48 02 be bd 2d a9 af 3e
       -0.09098797 0.32803318 -0.09277779 0.34308758
000210 f6 8e 71 be 24 02 3f 3e ae 27 59 be 8f 5b bd bc
       -0.23589692 0.1865316 -0.21206543 -0.023114948
000220 e8 07 5f 3e 8c 7f 39 3d fb 17 0a 3e 23 65 d7 3d
       0.2178036 0.045287654 0.1348571 0.10517337
000230 ec 27 2d 3e 1d 4a df 3c d1 a0 6b 3e 8f bc a0 be
       0.1690976 0.02725702 0.23010565 -0.3139386
000240 b3 33 1b be 7e cc 2c be f2 7f 7c bd 27 f8 2d 3e
       -0.1515644 -0.16874883 -0.061645456 0.16989194
000250 47 ef 0c 3e 5b 42 92 3e af 2a 58 bd 40 63 ac be
       0.13763152 0.2856625 -0.05277508 -0.33669472
000260 16 99 82 3e 5c ec a9 3d 26 7d c1 3d 36 d5 d1 3e
       0.2550742 0.08297035 0.09447698 0.4098298
000270 21 58 1f be 87 42 76 3d 38 38 49 bd cf df b2 3d
       -0.15560962 0.06012204 -0.04912588 0.08734094
000280 f4 3c 70 3e 93 1e 8b be 71 60 36 bd e0 e2 8a 3e
       0.23460752 -0.27171764 -0.044525567 0.27126217
000290 2c 58 67 be 8d fe f8 3d cf 35 1a be 0e 2b 85 be
       -0.22592229 0.12157927 -0.15059589 -0.2600941
0002a0 2d b0 9e be fc 2f 80 3e d3 ef 13 3d 58 27 c9 3e
       -0.30993786 0.2503661 0.036117386 0.3928783
0002b0 90 db 9a be b0 1b 04 3e b7 f9 84 3e 9b fb 34 bd
       -0.30245638 0.12901187 0.25971767 -0.044185262
0002c0 3a eb ce 3d f4 ef 3e be 17 03 90 be 9f 73 62 be
       0.1010346 -0.18646222 -0.28127357 -0.22114418
0002d0 85 4f 29 3e f5 b5 84 3c c1 ea e0 bc 61 6f 96 bd
       0.1653424 0.016200045 -0.02745569 -0.073454626
0002e0 6f aa 49 bb ec 0f 0b 3e c0 60 57 3e 55 3f 0e 3e
       -0.0030771752 0.13580292 0.21033001 0.13891347
0002f0 52 e7 e4 3d dc f2 22 3e 36 1b 2c be dc c4 1b bf
       0.11176933 0.15912956 -0.16807255 -0.6084726
000300 12 c8 9b 3e 30 5e 02 be 0e bf 02 be 76 57 82 bd
       0.3042608 -0.12731242 -0.12768194 -0.06364338
000310 26 fb 9f bd 5c 1d a7 3e 5d e5 1a 3e 54 5b 2a 3e
       -0.07811575 0.32639587 0.15126558 0.16636401
000320 07 af 02 be 2b 17 8f 3d 63 0c 85 be 8e 26 d8 3d
       -0.1276208 0.06986841 -0.25986013 0.10554229
000330 68 e3 c8 be 7c 41 0d be f0 03 0a be 91 55 90 3d
       -0.39235997 -0.13794512 -0.13478065 0.070475705
000340 2b f4 a8 bd 49 04 d0 3d f5 4d 88 be f6 39 e8 be
       -0.08249696 0.10157067 -0.26621976 -0.4535672
000350 6c 04 ce 3d 70 5b 5e be 1c 6c 9b be 77 c5 44 bd
       0.10059437 -0.21714568 -0.30355918 -0.04803988
000360 41 c4 8b be b2 37 02 be 7f 0d 41 3e 14 47 89 be
       -0.27298167 -0.12716559 0.18852805 -0.2681204
000370 96 42 11 3e b8 91 8d 3e 69 ed 9e 3d 25 99 6f be
       0.14185557 0.27650237 0.07760126 -0.23398264
000380 1c 17 07 be 12 79 85 3e f0 74 fd bd fc 73 c8 bc
       -0.1319241 0.26068932 -0.1237582 -0.024469368
000390 59 77 20 3e 1c d8 6c 3e d3 80 42 3e 53 a5 08 bf
       0.15670528 0.23129314 0.18994455 -0.53377265
0003a0 9e 11 b0 be c6 62 1e 3e 51 db 95 bd 59 1c 0e be
       -0.3438844 0.15467367 -0.07317222 -0.13878001
0003b0 29 e0 49 3d 9d 66 3b be 5c 37 47 3d e7 27 5a 3e
       0.04928604 -0.18300863 0.04863678 0.21304284
0003c0 b2 88 22 be 93 ae 5c be fc f6 89 be e3 27 4c be
       -0.15872458 -0.2155097 -0.26946247 -0.1993709
0003d0 95 e5 08 3e b1 28 36 3e 73 38 3c 3d a0 fe 2f 3e
       0.13368829 0.1778896 0.04595227 0.17186975
0003e0 26 50 87 3d 14 a8 04 be 2b ed 93 3e 08 2b a3 3e
       0.06607084 -0.12954742 0.28891882 0.31868768
0003f0 67 db 23 3c 38 05 0b be 31 b1 b6 3d 71 e6 a5 bd
       0.01000104 -0.1357621 0.08920515 -0.08100594

net.0.bias f4 [256]
000000 4b c7 78 3e 3c 67 7f be b8 e1 1d 3d 58 9d 20 3e
       0.24294774 -0.24941725 0.03854534 0.15685022
000010 57 9c f9 bd 0d c3 9e be 7c 9d 41 3e 43 69 da 3e
       -0.121880226 -0.31008187 0.18907732 0.42658433
000020 65 78 c9 be 67 20 82 3e ea 15 88 3e cc 7b d0 be
       -0.39349666 0.25415346 0.2657922 -0.4071945
000030 77 06 a0 bd e7 ab 72 bd 9a 35 82 be e9 b1 bd 3e
       -0.07813733 -0.05924597 -0.2543152 0.37049797
000040 44 68 8e be 92 f7 c7 be f8 35 83 3e 91 a0 86 be
       -0.27813923 -0.3905607 0.25627112 -0.26294377
000050 83 b0 6c be 61 7a 6a be eb 45 35 3e f9 92 f0 3c
       -0.23114209 -0.22898246 0.17702453 0.029366957
000060 1f ee 10 be 68 55 8d be 1b 64 50 be b9 71 68 3e
       -0.14153336 -0.27604222 -0.20350687 0.22699632
000070 05 15 8d 3e 10 7e 2d 3e b2 2b 84 be 89 e8 95 3e
       0.275551 0.1694262 -0.25814587 0.29278973
000080 2c c4 97 be 84 7d 69 3e b3 0b 44 3e ca bd 1a 3e
       -0.29641855 0.22801787 0.19145088 0.15111461
000090 32 d4 c2 bd 55 a8 1a 3e 73 55 b5 bc 48 db 43 3e
       -0.09513129 0.15103276 -0.022135472 0.19126618
0000a0 b7 bd b7 bd 7b 45 82 3e b2 b7 a7 bd 1a 59 e0 be
       -0.08971732 0.25443634 -0.08189334 -0.4381798
0000b0 2a 60 7a be ab 60 78 3e 49 12 e4 be 04 a0 6f 3e
       -0.24450746 0.24255626 -0.445452 0.23400885
0000c0 cb 21 0d bd 61 96 8b bd 99 9e f0 3d 62 37 51 be
       -0.034456056 -0.06815792 0.11749 -0.20431283
0000d0 51 59 20 3e 0c b8 34 3e 00 de e6 be ef f1 a4 3e
       0.15659072 0.17648333 -0.45091248 0.3221583
0000e0 b2 3a 46 3d 31 bf 3e bd 16 c1 76 3b a0 38 9a be
       0.04839582 -0.046569053 0.003765171 -0.30121326
0000f0 82 dd 13 3e b0 da 9a 3e 2e e5 4a be fc 5f 03 3e
       0.14439967 0.3024497 -0.19813988 0.12829584
000100 1d e1 03 3e a5 be c4 3e 27 1c 51 3e 1a 56 3a 3d
       0.12878843 0.384267 0.20420896 0.04549227
000110 62 f2 7d be e1 25 ba be 3e d6 fb be f1 0d 98 be
       -0.24799493 -0.36357024 -0.4918689 -0.29698136
000120 e0 8a 63 3d 60 0e 3c 3e b2 d8 17 3d 17 9e 8d 3d
       0.055552363 0.18364859 0.03707189 0.06914919
000130 b2 e4 12 3e 6a 04 01 3f 8f 11 c5 3e 70 c2 c2 bd
       0.14345053 0.5039736 0.3848996 -0.09509742
000140 74 d9 46 bb 14 9f a4 3e 63 e8 31 be 5d 3d 32 3e
       -0.0030342015 0.32152617 -0.17373805 0.1740622
000150 b6 89 85 be c7 36 5f be 86 a4 50 3e c2 99 73 3e
       -0.26081628 -0.2179824 0.2037526 0.23789123
000160 a7 57 b4 3d fd ea 12 be 1f 28 de 3d 85 d7 b9 be
       0.08805781 -0.14347453 0.10847496 -0.3629724
000170 1b 47 a2 bd 19 cf b7 be a1 4e ec bd 94 98 e9 3e
       -0.079237185 -0.3590019 -0.11538435 0.4562422
000180 69 fe e0 3e f1 75 6e be 9b e5 7c 3e 91 e2 8b 3e
       0.439441 -0.23287179 0.24696963 0.27321294
000190 2e f4 b0 be 8a 70 6c be 15 32 c0 3d 75 6d c0 3e
       -0.34561294 -0.23089805 0.093845524 0.3758351
0001a0 98 71 91 3e 6f 8f aa 3e dd 52 34 be 76 44 c4 3b
       0.28406978 0.33312556 -0.17609735 0.0059896065
0001b0 2a 91 34 3e c5 0b b4 3d 84 95 f0 3c cc fa 77 be
       0.176335 0.08791307 0.02936817 -0.24216765
0001c0 ff a1 e2 bd fd a1 90 be b0 a3 8e be e2 6e 07 be
       -0.110660546 -0.28248587 -0.2785926 -0.13225892
0001d0 cf 74 b5 3e 0a ec ec 3e 51 1d 8e 3a 5c 9b 02 bf
       0.3544068 0.46273834 0.0010842477 -0.5101831
0001e0 fb 00 78 be 98 e9 d2 be 27 f0 dc bd fe 91 c4 3c
       -0.24219124 -0.41193843 -0.10787993 0.023995396
0001f0 ae 2b 2b 3c ed 8d 87 bc f5 fc 18 3c da 4c 17 3e
       0.010447426 -0.016547168 0.009337653 0.1477541
000200 49 09 91 3d a8 d6 5c bd d1 62 c9 bc 01 91 93 be
       0.07081849 -0.05391565 -0.024583252 -0.28821567
000210 14 3e 4c ba 17 d9 22 3e 2e 3c 7f be 9a 26 78 be
       -0.0007791233 0.15903126 -0.249253 -0.24233475
000220 75 b0 c6 3d 97 73 ab 3c c0 ba cf bd 91 8c 1f 3e
       0.09701625 0.020929141 -0.101430416 0.15580966
000230 e7 be 46 be c5 51 be be 74 40 0e be 03 fc 34 be
       -0.19408761 -0.3717176 -0.13891774 -0.1767426
000240 11 e8 c3 be bf a0 e7 3e 89 d2 a2 3e 0d 4c 1c bb
       -0.3826299 0.45239827 0.3180125 -0.002384904
000250 a9 2b 3b 3e bd 41 94 3e a0 20 f3 3d 06 30 a3 3e
       0.18278374 0.28956404 0.11871457 0.31872576
000260 12 ea a2 3d 6a 03 c9 3d 7c 46 02 bf 29 20 cb 3d
       0.079548016 0.09815104 -0.508888 0.099182434
000270 0a 63 a3 be e9 73 5c be c6 49 3f 3e d2 b8 54 3c
       -0.31911498 -0.21528591 0.18680486 0.012983518
000280 0e 77 ef bd 16 3a 8f bd 92 66 85 3d 49 96 ca 3d
       -0.1169263 -0.06993501 0.06513704 0.09891946
000290 42 8f 36 be b5 04 c5 3e d1 d2 91 be 40 23 50 3d
       -0.17828086 0.38480154 -0.28481153 0.050814867
0002a0 3f 95 e2 bd d2 28 83 be d9 d6 a5 3e 6f 36 46 be
       -0.11063623 -0.2561708 0.32390478 -0.19356702
0002b0 cb 51 b6 be 97 e1 8c 3e c0 7a 86 3e ee ec 0a bf
       -0.35609278 0.2751586 0.26265526 -0.54267776
0002c0 f0 39 83 3c 58 26 dc bd 70 54 74 3d 16 cc 00 3d
       0.016018838 -0.10749501 0.05965084 0.03144463
0002d0 04 73 01 be ae 9e dd 3e 26 54 7c be 55 a2 b9 3e
       -0.12641531 0.43285125 -0.24641475 0.36256662
0002e0 eb 86 52 3e 55 a4 74 3e 79 81 e4 bb bc 90 81 be
       0.2055928 0.23890813 -0.006973442 -0.25305736
0002f0 98 54 89 3e de 15 32 3e 2c f3 0b be d9 15 3f 3e
       0.26822352 0.17391154 -0.13666981 0.18660678
000300 ea 3a 32 be 45 1e ee be c5 e5 56 be e2 18 90 3d
       -0.17405286 -0.4650747 -0.20986088 0.07035996
000310 93 10 46 3e 9a 39 80 be f9 8b 9f bc 83 a8 fc bd
       0.1934226 -0.25043947 -0.019475924 -0.123368286
000320 f9 7a 5b 3d d0 8c 2a 3e 6b 33 d2 be a5 1a eb bd
       0.053584073 0.16655278 -0.41054854 -0.114796914
000330 6f 39 90 bd 01 ad 1a 3e a3 3b eb 3e 0a 12 2f be
       -0.070422046 0.15105058 0.45943937 -0.17096725
000340 22 95 3b be 0a 40 3c be 4b 9b 28 be 9e 82 82 3e
       -0.18318608 -0.18383804 -0.1646549 0.25490278
000350 16 4d a1 3d 22 00 fa 3d 29 a1 11 3e 5c e3 b3 be
       0.07876031 0.122070566 0.14221634 -0.351344
000360 dd b5 2b 3d 6f 01 75 bd fc ed 97 3e 81 4f 96 bd
       0.041921485 -0.05981582 0.29673755 -0.07339383
000370 d1 31 0b be d6 09 38 be 4f be 64 3e 24 0f 65 3e
       -0.13593222 -0.17972502 0.22338222 0.22369057
000380 83 49 bc 3d 6c 56 b7 be e9 cd d4 3c 7d ef 5d be
       0.09193709 -0.35808122 0.025977092 -0.21673389
000390 e7 f9 d6 3e e8 68 90 be 7a 45 ea 3d 66 0c 7e be
       0.41987535 -0.28205037 0.11439033 -0.24809417
0003a0 fc 8a b4 3e 19 b5 99 3e 73 dc f2 3d 8c 23 e3 3d
       0.35262287 0.3002098 0.118584536 0.110907644
0003b0 3b db 14 3d 36 1f be 3d d0 9f 0d 3e 56 70 85 3d
       0.036341887 0.09283297 0.13830495 0.06515567
0003c0 53 7c 99 3e 45 3b 3c be dc 64 7d be 91 82 b0 bd
       0.29977664 -0.18381985 -0.24745506 -0.086186536
0003d0 48 f8 98 be 51 f2 30 3e d5 e5 5f bd bf 25 bd bd
       -0.29876924 0.17279936 -0.054662544 -0.09235715
0003e0 ed 59 03 3e b3 be 06 be d7 67 8a be 79 8c 19 bf
       0.12827273 -0.13158683 -0.2703235 -0.5997997
0003f0 74 fb 55 3d a9 3e 4b be 92 b7 86 be 00 55 4c be
       0.052241758 -0.19848122 -0.26311928 -0.199543

net.2.weight f4 [256, 256]
000000 66 56 8c bd 38 00 6f 3c 8b cb 87 bd 9f 57 3d bc
       -0.06852417 0.0145874545 -0.066306196 -0.011556535
000010 92 d8 69 bd ec 7e 3c 3d 7e 52 bc bd f1 7b 05 3c
       -0.057091303 0.04601948 -0.09195422 0.008147226
000020 9c 31 25 bd be db ab bd 0b 32 cc bd 78 21 2a 3d
       -0.040330514 -0.08391522 -0.099704824 0.041535825
000030 6e 73 79 3d c3 e4 e8 bc c6 58 89 3b 2c a1 1f bc
       0.060901098 -0.028429395 0.004191491 -0.009743016
000040 3c 78 0f bd 76 6d 67 3d 91 f7 1b bb 6d 88 58 3d
       -0.035026774 0.056500874 -0.0023798684 0.05286448
000050 ed 73 5a bd c2 f4 19 be 02 39 82 bd 7f 0a 45 3d
       -0.05333321 -0.15034774 -0.063585296 0.048105713
000060 c0 d1 c7 bc 16 4c 32 3c 94 15 82 3d a9 15 d9 bc
       -0.024392009 0.010882398 0.06351772 -0.026499586
000070 b5 2c 3f bd 3b 74 62 be 50 ee 7c 3c 97 a2 7d bc
       -0.046673495 -0.22114651 0.0154376775 -0.015480659
000080 38 b5 58 bc f6 ef b1 bc ef 45 97 bd ed 4f c0 3d
       -0.0132268 -0.021720868 -0.07386386 0.09390245
000090 b4 30 12 3d 7f 70 97 3d 76 f8 29 be 05 8a 5b bb
       0.03569098 0.07394504 -0.16598687 -0.0033499014
0000a0 d0 3d 27 3c be c3 03 3d e8 04 2c 3d 14 a8 1e 3d
       0.010207608 0.032169096 0.041996866 0.03873451
0000b0 b0 bd 74 bb 8e d6 0a be 04 79 5b 3d 73 ee cf 3a
       -0.0037344508 -0.13558409 0.053582206 0.001586391
0000c0 03 d1 5c bd 2c c4 07 3d 84 b4 39 bd b0 a7 81 3b
       -0.053910267 0.03314607 -0.04533817 0.0039567575
0000d0 bd 11 45 bd 26 52 f3 3d 57 04 eb bb 6a ad 69 bd
       -0.04811262 0.11880903 -0.007172148 -0.057050146
0000e0 2a 9b 57 3d d1 3f a6 38 10 38 26 be bd 30 39 3c
       0.05263821 7.9273836e-05 -0.16232324 0.011303124
0000f0 df ec 76 3d 2c 92 2a be 88 22 45 bd 95 d6 10 3d
       0.06028449 -0.16657323 -0.048128635 0.03536089
000100 65 29 7e bd 0f c8 c3 bb 6f 9a 22 bd f5 01 9d 3d
       -0.062051196 -0.0059747766 -0.03969806 0.07666389
000110 d4 79 cf bc f6 2e 18 3d 4a 35 3b 3d 22 2a 25 be
       -0.025326647 0.03715416 0.045705117 -0.16129354
000120 3b d3 90 3c c1 5c df 3a 6f 7d 71 bc 2f e8 10 3d
       0.017678848 0.0017041193 -0.014739378 0.035377678
000130 c8 22 10 3c 4b 9a cc bd 9a b3 96 3c ad 32 71 bd
       0.008797355 -0.099903665 0.018396188 -0.05888622
000140 30 ed db bb e7 7b 98 bd da 0c 8c bd 2a a4 a5 bd
       -0.0067116246 -0.074455075 -0.06838389 -0.080879524
000150 26 43 5b 3d 61 50 bd bc 4e 37 60 3e b6 c6 85 3c
       0.053530835 -0.023109617 0.21896097 0.016330104
000160 47 47 a7 3c 0e 1d 90 bc 4a 67 76 bd 81 85 99 3d
       0.02041973 -0.01759198 -0.060157098 0.07496167
000170 ff a0 88 bd b3 24 3d 3d 43 a2 2b bd 27 15 a8 bd
       -0.066713326 0.046177577 -0.04190279 -0.082071595
000180 17 b6 d5 bc 26 9b 78 bd f2 e4 18 bc 80 37 30 3d
       -0.026087804 -0.060694836 -0.009331929 0.04302168
000190 a8 1a f7 3c d0 ab 96 3b 28 b0 a7 ba a8 d7 62 bd
       0.030164078 0.0045981184 -0.0012793588 -0.055381447
0001a0 ab 72 00 be 00 57 78 3d 23 11 0f 3d 89 ef 29 3d
       -0.12543742 0.060629845 0.034928452 0.041488204
0001b0 33 ce e7 bc 0a 4d 9b 3d dc 37 de bc d2 1f fb 3c
       -0.028296566 0.075830534 -0.027126245 0.030654822
0001c0 8d 47 04 bc 98 c4 34 3d f0 a0 35 bb 9b 76 0c be
       -0.0080737 0.0441328 -0.0027714334 -0.1371712
0001d0 8d 2d b5 3c a9 84 78 bd cf c0 13 bc 73 4c 17 3e
       0.022116447 -0.06067339 -0.009018137 0.14775257
0001e0 60 9d 02 3d a4 00 ea bd 56 b1 af 3d d8 8e b8 bc
       0.031888366 -0.114259034 0.08578746 -0.02252905
0001f0 00 e3 02 ba 70 86 86 3d ca da 56 bd 94 e2 46 bd
       -0.0004992932 0.06568611 -0.052454747 -0.048555925
000200 2f 79 6f bc 05 a3 51 3d cf 34 ad bc ba da ea bd
       -0.014616295 0.05118086 -0.021143345 -0.114675
000210 85 2f 97 bd 68 08 80 bd 01 e2 9b 3d 80 c6 e7 ba
       -0.073821105 -0.06251603 0.07611466 -0.0017683059
000220 bf 86 c5 3d c3 c1 67 bd 84 6a 97 3d 76 ff bf bb
       0.096448414 -0.05658127 0.07393363 -0.0058593107
000230 24 19 af bc bc ff 56 3d d2 3d 34 bd a6 43 69 bd
       -0.021374293 0.05248998 -0.04400427 -0.05694928
000240 be 37 19 bc 50 3e b8 bd f4 10 32 bd 38 86 f2 bd
       -0.009351669 -0.0899626 -0.0434732 -0.118420064
000250 70 31 2d be 62 95 7c bd 8b a0 31 bd 94 34 64 bc
       -0.1691339 -0.0616659 -0.043365996 -0.013928551
000260 f8 dd 62 bd f4 73 c6 bc cb dc 15 3e 06 ec 57 bd
       -0.055387467 -0.024225213 0.14635007 -0.052715324
000270 cd 92 76 bc 38 4b 35 3d 49 8b 56 3d 02 49 a1 bd
       -0.0150496485 0.044261187 0.052378926 -0.07875253
000280 6a 55 e4 bc 95 37 5b 3d 3f c8 26 bd d1 6b 7d 3d
       -0.02787276 0.053519804 -0.040718313 0.0618704
000290 9e 2f a1 3c fd cd 30 3b b8 17 79 bc b1 c6 9f 3d
       0.019676026 0.0026978247 -0.015203409 0.07801569
0002a0 72 91 11 3d e8 e2 59 bd 3e a6 d7 bd 45 bf dc bd
       0.035539098 -0.05319491 -0.10529755 -0.10778669
0002b0 d9 34 16 3d 1d 34 11 3d ac 74 06 be a8 01 15 bd
       0.036671493 0.03545009 -0.13130444 -0.036378533
0002c0 d3 7c 05 bd 3a 89 64 3d 53 09 5a be b3 7c 71 3d
       -0.032589745 0.055794932 -0.2129262 0.058956813
0002d0 d0 1f a3 bc 1d 1c 84 bd 3e 86 fd 3c 61 bd a8 bd
       -0.01991263 -0.06450675 0.0309478 -0.08239246
0002e0 11 f6 39 be 45 11 94 bb 80 30 5c bd 6b f2 a7 bc
       -0.18160273 -0.0045186603 -0.05375719 -0.020501336
0002f0 62 cc 09 3d 6d 30 ff bd 2c f0 b1 bc bf 85 47 3d
       0.03364218 -0.12460408 -0.021720968 0.048711535
000300 ae 39 3e 3d 82 29 41 bd d4 e0 06 3d fd f1 fa bc
       0.046441726 -0.047158726 0.032929257 -0.030632967
000310 2c a9 26 3c 00 57 59 ba 79 03 04 3d ef c1 84 bd
       0.01017217 -0.0008290857 0.032229874 -0.064823024
000320 4c 3c ba bd 94 5c 71 bb ac 0c 8d bd 2f 85 96 bc
       -0.09093532 -0.0036828863 -0.068871826 -0.018374054
000330 36 ef 62 3c f0 8e 8e bd 1e cb 0f bd e0 a9 d4 3c
       0.013850978 -0.06960857 -0.035105817 0.025959909
000340 38 9e 41 bc 99 08 53 3d 1e 24 93 bc 4d 9d 84 bd
       -0.011817507 0.05152187 -0.017961558 -0.06475315
000350 31 9c 10 bc 6b a8 b3 3d b8 6a 34 3d ff 8d 46 bd
       -0.008826301 0.087723576 0.044047087 -0.04847526
000360 5a 60 a6 bb 39 c1 ca bd 31 a7 c9 bd cc 12 17 bd
       -0.005077404 -0.099001355 -0.09846342 -0.03688316
000370 90 38 60 bc bd d4 cf bd 6c 4e 46 3d a7 24 8a 3b
       -0.013685361 -0.101479985 0.048414633 0.004215795
000380 c8 18 aa 3c c6 6e 8b bb f3 9c 22 3d 10 a7 eb 3c
       0.02076377 -0.0042551486 0.03970046 0.028766185
000390 90 17 9a bd 36 98 98 3c ad 5f 4a bc d4 37 1a bb
       -0.075240254 0.018627267 -0.012351912 -0.0023531811
0003a0 63 0c f5 3b 85 d1 b7 3b 71 8d 6f 3d 57 c6 cb 3c
       0.0074782833 0.0056096935 0.0584845 0.02487485
0003b0 c7 37 e0 bc 68 4e 03 bd 67 e7 0e 3c dc 73 b9 bc
       -0.027370347 -0.032057196 0.008722163 -0.022638254
0003c0 60 59 1b 3e 68 2c 72 3c 20 b8 54 bd a8 1a f4 bd
       0.15170813 0.014781095 -0.051933408 -0.11919147
0003d0 f2 ab 25 be d0 ab a2 bb a5 5a 66 3d 0e ae bd bc
       -0.16178873 -0.0049643293 0.05623879 -0.023154285
0003e0 af 65 61 bd 65 10 45 3c 25 2b 6f 3d 3a 28 93 bd
       -0.055028614 0.012027835 0.058390755 -0.07185407
0003f0 20 b9 fe bc 70 52 35 3d c5 d2 65 bd cd 7e 66 3d
       -0.031094134 0.04426807 -0.05610921 0.05627327

net.2.bias f4 [256]
000000 c0 2c 49 bd 65 c4 24 3d 9a 61 eb bc 0b 15 13 be
       -0.049114943 0.04022636 -0.028733063 -0.14363496
000010 19 fb c1 ba bf 47 26 3d 1e e8 98 bc 35 01 4f bc
       -0.0014799564 0.040595766 -0.01866537 -0.012634565
000020 88 3f d3 bd 93 77 1e bc 56 bc 0f bd fd 4a 74 3c
       -0.10314852 -0.009672063 -0.03509172 0.014910457
000030 8d a4 2d 3c 2c 78 b2 bc 5d ed 3f 3c aa 14 58 3d
       0.010598314 -0.021785818 0.011714307 0.05275408
000040 0e 30 b0 ba d5 6d 78 bd 01 ad 77 3e c8 43 49 3e
       -0.0013442056 -0.06065162 0.2418709 0.19654763
000050 79 eb 98 bd 0a bd 7a bd fa 53 52 bc a6 7d 1e 3e
       -0.07466788 -0.061215438 -0.012837404 0.15477619
000060 19 47 a5 ba 99 14 e8 bd 8b 94 6f 3c 16 cf b6 bd
       -0.001260969 -0.11332054 0.014622818 -0.08926217
000070 ef dc fd 38 5d fb 20 3e 2b f0 34 bd 9d 82 30 3c
       0.00012105132 0.15720887 -0.044174355 0.010773328
000080 cf 21 92 3d 5a 85 0a bd dc 0e 85 3d ec c1 66 3e
       0.07135355 -0.03381858 0.06496975 0.22534913
000090 2f fe a7 3c f3 c6 1a 3e 30 0f 82 3b e3 64 a6 bc
       0.020506946 0.15114956 0.0039690956 -0.020311778
0000a0 ad 4a ce bb 17 3b ce bd 49 c6 4b bd bd b5 f0 bd
       -0.006295523 -0.10069864 -0.049749646 -0.11753414
0000b0 2e 65 9d bd ad de 89 bb 89 bc 85 bd 57 da e9 bd
       -0.07685314 -0.004207453 -0.06530101 -0.11418598
0000c0 a6 81 a4 bd 27 08 21 be 7a 77 38 bd d1 53 cc bd
       -0.08032541 -0.15725766 -0.045035817 -0.09976924
0000d0 6d dc 27 bd eb 15 52 bd f7 df 7d bd 11 a5 8b 3d
       -0.0409817 -0.051290434 -0.061981168 0.06818593
0000e0 c4 fe 06 be d1 79 e0 bd 6d f4 ba bd 41 9e 28 bc
       -0.13183123 -0.10960735 -0.09128652 -0.010291637
0000f0 24 d0 7a bd 0c ce 2e bd ac 3b 69 bd 06 e7 50 bc
       -0.061233655 -0.04267697 -0.056941673 -0.012750393
000100 43 89 68 bd f2 c8 31 bd 5a 8b f5 3d 62 27 08 be
       -0.056771528 -0.043404527 0.1198947 -0.13296273
000110 0f 11 86 bb 37 85 58 3e 37 74 a5 bc cc 37 99 bd
       -0.004091389 0.21144567 -0.020197017 -0.074813455
000120 24 a9 2a bd 1b 77 88 3c 55 93 12 bd 33 84 be bd
       -0.04166521 0.016658356 -0.035785038 -0.09302559
000130 51 16 b1 bd de 46 9e bb 14 dd 08 be 48 24 c3 3d
       -0.08646835 -0.0048302254 -0.13365585 0.095284045
000140 a3 18 3f 3c 2f 7d 54 3d 46 00 47 bd 6b e3 3b 3c
       0.011663589 0.051877197 -0.048584245 0.011467795
000150 23 68 80 bd 59 de 7a bb bd 19 f5 bc 8f 1b 1a bc
       -0.062698625 -0.0038279502 -0.0299195 -0.009405985
000160 c8 a0 12 bd a0 97 7a bd f7 a3 b3 bd 2c c1 78 bd
       -0.035797864 -0.061179757 -0.08771508 -0.060731098
000170 7a 68 76 bd 22 0b ae bd 92 de c0 bd fc 5a e5 bd
       -0.06015823 -0.08498217 -0.09417452 -0.111989945
000180 50 c0 e2 bd eb 4b 00 bc 7f 0c bf 3c 9d c7 3f 3d
       -0.11071837 -0.0078306 0.023321388 0.046821225
000190 3d 17 ca bd ff 65 83 bd 53 95 90 3b 21 77 4c bd
       -0.098677136 -0.064159386 0.004412332 -0.049918298
0001a0 5d 98 a6 bd 2b c0 db bd aa 6e b6 3d 93 fd d1 3c
       -0.0813453 -0.107300125 0.08907826 0.025633609
0001b0 f1 df 97 3c 17 49 ef bd 8c da 18 bd 43 71 26 3e
       0.0185394 -0.11683863 -0.037317798 0.16254143
0001c0 58 18 2c bd 52 e6 5b bd 26 4a b5 bc 67 73 12 3e
       -0.042015404 -0.053686447 -0.022130083 0.14301835
0001d0 59 35 d0 bd e8 93 1e 3e 2c 56 fe 3c 97 a9 46 bd
       -0.10166425 0.1548611 0.03104695 -0.048501577
0001e0 36 87 27 3d 1c a1 49 bd ac fa cc bc 86 f5 1b ba
       0.04090043 -0.04922591 -0.025021873 -0.00059493666
0001f0 e1 13 93 3e 0b 56 01 3e e6 df c6 bc 58 c0 1b be
       0.28726104 0.12630479 -0.024276685 -0.15210092
000200 3a a3 39 bd 10 04 9c bd 0f e4 07 3e 5e e6 51 3e
       -0.04532168 -0.07617962 0.13270591 0.20498034
000210 c5 64 ee 3c de 2e d9 bc d7 dd 3f 3d 0f f6 ec bb
       0.029100785 -0.026511606 0.046842422 -0.007231481
000220 f2 37 57 3d b3 0e 2f 39 13 7d 03 bd ec ea 26 bd
       0.052543588 0.00016694776 -0.032101702 -0.040751383
000230 da c7 58 3d 68 96 56 bd 35 83 8d bd b4 ee 15 bd
       0.05292497 -0.052389532 -0.069097914 -0.0366046
000240 39 77 58 bd 2a 6e ce bc 20 46 d5 bd fe f4 30 bd
       -0.052848075 -0.025199015 -0.10413766 -0.043202393
000250 a8 33 d2 bd 16 ed 48 bd 49 b5 3a bd 77 aa 92 bd
       -0.10263759 -0.049054228 -0.045583043 -0.0716142
000260 59 a9 14 bd 67 b7 93 3c 62 0b 62 bd fe 6d 0a bd
       -0.036294315 0.018031789 -0.055186637 -0.033796303
000270 8b bf be bc e1 c4 cf bb 19 ca 05 bd ee 75 da 3d
       -0.023284694 -0.0063406085 -0.03266344 0.106670246
000280 15 bd 9b bc 34 c1 58 bd bf 15 07 be dd c3 07 bd
       -0.01901106 -0.052918628 -0.13191889 -0.033145774
000290 c8 4e 2c 3e d1 b5 15 3d d1 58 0b 3e 44 4b 83 3c
       0.16826928 0.036550347 0.136081 0.0160271
0002a0 1d 84 82 bd 0f 13 13 3c 37 7e e8 bc 45 03 ff bd
       -0.06372855 0.008976712 -0.028380496 -0.124517955
0002b0 bb 9a 03 bc e3 a3 8b bb f6 4f b4 bc db ef f9 3d
       -0.008032496 -0.00426148 -0.022010785 0.12203952
0002c0 30 a7 8a bc 83 97 75 3d 43 ed 57 3c 6c c3 1f 3d
       -0.016925424 0.059958946 0.013179126 0.03900473
0002d0 f0 f1 1e bd b7 41 42 3c 80 d2 9b bd ed ee 24 3d
       -0.03880495 0.011856488 -0.07608509 0.04026692
0002e0 25 5e b1 bd 54 08 c4 3d 94 f3 14 bd 2f 1e 1d bd
       -0.08660535 0.09571901 -0.036365107 -0.038358863
0002f0 df e2 76 3d 20 20 85 bd ab 24 fb bd ab 44 8e bd
       0.060274955 -0.06500268 -0.12262853 -0.06946691
000300 bd 0f 87 bd 7f d6 a4 3c fc fd 81 bd 92 b1 61 bd
       -0.06594799 0.020121811 -0.06347272 -0.055100985
000310 7d 85 27 3e de 1a b4 bd e6 52 f7 3d 7a 19 3f bd
       0.16359515 -0.08794187 0.120763585 -0.046655156
000320 2f 19 42 3e d6 9a db bd ed 55 6f 3b 21 c9 da 3d
       0.1895492 -0.10722892 0.0036519722 0.106828935
000330 a2 07 27 3d 02 9d 58 bd 7d b6 a5 3c 20 60 17 3c
       0.040778764 -0.05288411 0.020228619 0.009239227
000340 fa 35 5a bd f1 2a 6c bc 22 ac 12 3c b9 67 57 bc
       -0.053274132 -0.014414535 0.0089521725 -0.013147288
000350 b7 b5 27 39 7a c7 12 bd 1e f1 5c 3e 18 20 ce bd
       0.00015994055 -0.035834767 0.21576354 -0.10064715
000360 ca c4 85 bc 91 9a 6a bd 45 cf 7b bd 8f b5 47 3c
       -0.016329188 -0.057276312 -0.061476965 0.012189283
000370 82 99 de bd 8e fa 75 bd ed ed bc bd f3 7d 6a bd
       -0.10869123 -0.0600534 -0.09225068 -0.05724902
000380 3c 56 db bc a2 48 4f 3e a7 48 f2 bc 9e 87 7f bd
       -0.026774518 0.20242551 -0.029575659 -0.062385194
000390 06 f6 a1 bd 00 f8 b7 bc 56 1a 75 bd 3d e5 0e bd
       -0.07908253 -0.022457123 -0.05983957 -0.034886587
0003a0 da 5a 2e bd 38 7f e3 3c a6 73 eb bd 6d b6 5b bd
       -0.04256711 0.027770624 -0.114966676 -0.05364077
0003b0 25 16 66 3c 9e 16 45 bd 39 08 90 3d 2e 9e 7c bd
       0.014043366 -0.048117273 0.07032818 -0.06167429
0003c0 58 fb b6 3d d2 d8 33 bd bc 2a e5 3c 2b af be bd
       0.08934659 -0.043907948 0.027974479 -0.093107544
0003d0 8c 72 54 3c de fd de 3d d7 5a d0 3b f2 5b 07 3c
       0.012966763 0.10888265 0.006358485 0.008261668
0003e0 db ed 97 bd f0 e1 65 3d 86 cb 47 bd 4d 57 e1 3a
       -0.07418414 0.056123674 -0.04877808 0.0017192155
0003f0 b2 cf 16 3e 1c c3 41 bd 01 56 52 bd e8 3e 37 3e
       0.14727667 -0.04730521 -0.05135155 0.1789509

net.4.weight f4 [256, 256]
000000 03 ef 38 3c c5 cf 76 3e 63 9f e6 3d 5e dd 10 3f
       0.011287454 0.24102695 0.11260869 0.5658778
000010 22 30 57 3e e9 15 20 bd 72 62 54 3c c0 df 0c 3c
       0.21014455 -0.039083395 0.012962924 0.008598268
000020 10 a6 6c 3e 5d a9 c7 3d 63 f7 2d 3c 51 c0 45 bd
       0.23110223 0.097491 0.010618064 -0.04827911
000030 2b 92 32 3d ef 46 1c 3d c3 cc 3c bd 4d 44 80 3e
       0.043596428 0.038153585 -0.046093713 0.2505211
000040 7d 65 ac 3c f5 bb 36 bd 36 81 03 bf 29 00 ae bd
       0.021044487 -0.044612844 -0.51369035 -0.08496124
000050 63 be ed 3d e0 73 7b 3c 11 ba c1 bc 42 15 38 3e
       0.11608579 0.015347451 -0.023648294 0.17976859
000060 27 0d 0f 3c a4 4f 0d 3f b5 02 da 3d 7c 25 c6 3e
       0.008731163 0.55199647 0.106450476 0.38700473
000070 c4 fe 96 bc af 21 f9 3c a0 93 50 bb 0b 94 af 3c
       -0.018432029 0.03041157 -0.0031826273 0.021432897
000080 cc 72 d7 3e b2 c3 6f 3d 6a 06 d8 be 7d 2a c0 be
       0.4207977 0.05853624 -0.42192394 -0.37532416
000090 92 b9 82 3d d2 3e 80 3d 82 77 62 3d 5b 0f 13 3d
       0.06383051 0.06261982 0.055289753 0.035903316
0000a0 f9 dc 48 3d 1f 9b c3 3d 82 af 70 3d e5 ae 29 3e
       0.04903886 0.095510714 0.058761127 0.16570623
0000b0 03 52 20 3d ef ee cc 3a fa 4c 72 3d 76 1b 27 3e
       0.039140712 0.0015635173 0.05915544 0.1631907
0000c0 9d 21 26 3e 6c f2 6a 3e 07 c5 0d 3e fa ed 02 3e
       0.1622376 0.22944039 0.13844691 0.12786093
0000d0 70 dc 0a bd 58 3d 30 3d 34 31 17 bd 23 f0 5e 3e
       -0.03390163 0.043027252 -0.036912158 0.21771292
0000e0 9d 92 a9 3e 3c 65 ed 3e e9 2f 54 3b ac d4 eb bb
       0.3311967 0.46366298 0.003237719 -0.0071969833
0000f0 10 94 71 bd 23 35 bd bc ab 5f 3f 3b 57 f5 12 3e
       -0.058979094 -0.023096627 0.002920131 0.14351402
000100 69 5e 70 bc 9e db df 3c cf 80 07 3c 9f 61 94 3e
       -0.014670947 0.027326401 0.008270456 0.2898073
000110 ca 50 e4 bc e7 dc 40 be 15 fa 4c 3e 48 e7 e5 bc
       -0.027870554 -0.18834268 0.20017274 -0.028064385
000120 f3 52 3d bd d1 fd c9 3e 72 d9 6e bd 9e 16 57 3e
       -0.046221685 0.3945146 -0.05831284 0.21004722
000130 fd 30 2a 3d eb 74 60 bd 2c d0 f6 3e 74 71 b3 3d
       0.041550625 -0.054799 0.48205698 0.08761874
000140 1f 49 1e 3c 76 2d df bd 38 ef f7 bb 7b d6 c1 bc
       0.009660988 -0.10897343 -0.007566359 -0.023661843
000150 14 b0 1b 3d 57 aa 8b 3c af 59 ff 3d cc 7b 49 3d
       0.038009718 0.017048998 0.12468278 0.049190328
000160 60 70 c0 3b 37 d2 43 3e ec 24 27 bd 5c 6f 76 bd
       0.005872771 0.1912316 -0.040806696 -0.060164794
000170 7b 13 88 3e 7c c5 ec bc aa e2 7f bd ba e7 09 3d
       0.26577362 -0.028902762 -0.062472023 0.033668257
000180 f4 95 e6 3b 51 59 65 3e 43 33 27 bd 92 32 87 3e
       0.007036919 0.22397353 -0.04082037 0.2640577
000190 19 a8 77 3d 92 e4 44 bd 64 3f d2 3c 69 b7 12 bd
       0.060463045 -0.048069544 0.025664993 -0.035819445
0001a0 4d 19 b6 3d b9 27 f2 3c 7d a7 5d 3e e9 fe ad bd
       0.088915445 0.029559957 0.21645923 -0.08495886
0001b0 8b 31 b4 3c f5 fd 0a 3f 52 ad 09 3d 57 88 49 bd
       0.02199628 0.5429376 0.033612557 -0.04920229
0001c0 26 3d a6 3c f6 c4 ce 3d 15 d6 10 bd 8e 93 33 3e
       0.02029283 0.10096161 -0.035360415 0.17536756
0001d0 6e 3e d7 bc 1a 2a 11 bd d1 75 ba bb 85 e8 fe 3c
       -0.026274886 -0.03544054 -0.0056903143 0.031116733
0001e0 48 56 36 3e 5f 19 1b bd 5e 4a cc 3c c2 0a 2a 3d
       0.17806351 -0.037865993 0.024937805 0.041514166
0001f0 85 ea 15 be d4 ae 66 3c 93 b2 2a bd a4 d9 87 3f
       -0.14640243 0.014079768 -0.041674208 1.0613294
000200 e0 27 63 bc bf 05 de bc b2 7e 86 3e 08 45 d5 bd
       -0.013864487 -0.02710235 0.26268536 -0.10413557
000210 d2 b4 0c bd 66 e1 28 bd 7e 18 ba bd 6b 7a 85 bb
       -0.03435213 -0.04123058 -0.09086703 -0.0040734312
000220 07 12 2a 3e cf c3 aa ba e5 cd bf 3d 1b 9b 84 bd
       0.1660844 -0.0013028326 0.09365443 -0.064748965
000230 c0 f8 6e 3d be f7 86 bd 6d 0f 66 be dd b8 c0 3c
       0.058342695 -0.06590222 -0.22466822 0.02352565
000240 3c 3f 8d 3c 7f 87 3b 3c 4e 76 ed 3e 45 60 5b 3d
       0.017242067 0.011445879 0.46379322 0.053558607
000250 c5 f1 d1 ba 99 56 55 bb 32 ae 40 3e 54 29 2b bd
       -0.0016017488 -0.0032552837 0.1881645 -0.04178746
000260 c0 45 29 3c 70 18 7d 3c fa 1b 8a 3c fc 4b c1 bc
       0.010331571 0.015447721 0.016859043 -0.023595802
000270 68 3a 2a bc e2 c0 2e bc cb aa 2b bb 74 de 3e 3b
       -0.010389902 -0.010666104 -0.002619433 0.0029124292
000280 5f 59 49 3d 03 b5 a0 3d ac bf 02 3f 2b 92 7a 3e
       0.049157497 0.07847025 0.5107372 0.24469821
000290 d7 a5 22 be ff 3d c6 bc 95 4e 41 3d bc 12 d2 3c
       -0.15883575 -0.024199484 0.047194082 0.025643699
0002a0 b2 fa 64 bd 0f 45 a1 3d 4c 88 1f 3d 1c 3a a8 3e
       -0.055903144 0.078745 0.038948342 0.32856834
0002b0 73 21 08 3d d7 f9 9f 3c 61 4d 0f bd 23 ed 80 3e
       0.033235025 0.019528313 -0.034985904 0.2518092
0002c0 b5 f8 9f bd b2 95 77 3d 62 91 fd 3c 6c 59 92 3e
       -0.07811109 0.060445495 0.030953113 0.28583848
0002d0 5a c0 3d 3d f1 9d 17 3d d4 15 f5 3e d3 87 4d 3e
       0.04632602 0.03701586 0.47868216 0.20071344
0002e0 f0 67 89 bd eb 32 3c bc ab d9 41 3d 01 2a 9c 3d
       -0.06709278 -0.011486749 0.047326725 0.07625199
0002f0 55 ae 91 3c e8 50 3c bd c0 84 ce 3e d6 2a 78 3d
       0.017783323 -0.045975596 0.40335655 0.060587727
000300 2b 69 26 bd da c2 3c be 3f 5c c9 3c f4 22 e2 bc
       -0.04062764 -0.18433705 0.02458012 -0.027604558
000310 9d 14 b5 be 44 82 db 3e 40 1b 3e be e0 c4 a8 3c
       -0.3536729 0.42872822 -0.18565083 0.02060169
000320 db b9 4e be fb 0b c9 3d 76 94 e7 ba 77 7a 08 3e
       -0.20188086 0.09816738 -0.0017668146 0.13327967
000330 a2 1b 51 bd a6 e6 a3 3e 7a 9e 52 be a6 ed dc 3b
       -0.051051743 0.32011908 -0.20568267 0.006742197
000340 b5 04 20 3e ac 86 17 bd 7d 6d 87 3d 3f a0 5e bd
       0.15626796 -0.036993667 0.0661268 -0.05435204
000350 84 9a a0 3d 0f 7c 5e 3d 2e 5a 51 be 8f b2 1b 3d
       0.078419715 0.05431753 -0.20444557 0.038012084
000360 cf a3 bb 3c 72 f9 34 3d 02 f0 b4 bc 1e 02 67 bd
       0.022905258 0.044183202 -0.0220871 -0.056398503
000370 c5 02 da 3d ba e3 39 3e 51 5f 6a 3b 40 25 bb 3c
       0.106450595 0.18153277 0.003576238 0.02284491
000380 0d 9f 87 3e bc a4 66 bd 60 4c 06 3d 6c 7f 76 3d
       0.26488534 -0.056309447 0.03278768 0.060180113
000390 32 1b 88 3d 0f ed 68 3d 18 71 51 3c c5 20 a5 bc
       0.06645812 0.0568667 0.012783311 -0.020157227
0003a0 76 6c 7f bd 64 28 b9 3d 17 90 fd 3e 76 94 37 bd
       -0.062359296 0.09040907 0.49523994 -0.044819318
0003b0 5a a4 83 3d 5b 20 84 3d bb 26 2f 3e 30 b0 78 3d
       0.06427832 0.06451484 0.17104618 0.0607149
0003c0 cd 5a b8 3d ac 9c ce 3e cf e4 99 3d 0e 94 31 bd
       0.09001694 0.40353906 0.07514345 -0.043354087
0003d0 a1 1e 29 bd 93 f8 98 3d 8b 8b 58 3d be 72 9f bd
       -0.041288976 0.07469287 0.052867454 -0.07785557
0003e0 39 5d 0a 3e a0 bf 23 bd 69 2b 44 3d 57 ab 9c be
       0.13512124 -0.03997767 0.04789296 -0.30599472
0003f0 29 0f 8f 3c 60 d0 d0 3c 6c 0c e3 ba 66 c1 0d be
       0.017463284 0.025489986 -0.0017322428 -0.13843307

net.4.bias f4 [256]
000000 4a 8f d5 3c ec 36 42 bd 3d d2 5f bd 95 62 9d bd
       0.026069302 -0.04741566 -0.05464386 -0.07684819
000010 f3 95 52 ba 29 fd 6d bc 4e 88 98 3c 03 49 8c bb
       -0.00080332084 -0.01452569 0.018619683 -0.0042811646
000020 1d a7 db 3c 79 1a c0 3d a9 98 75 bd 2b 7e 23 3c
       0.026813084 0.09380049 -0.05996004 0.009978811
000030 47 15 1f 3c fe 56 34 bc d9 d5 01 bb 63 d4 16 bd
       0.009709663 -0.011007069 -0.00198113 -0.03682364
000040 58 5e 7e 3d 5a 07 1a 3e 02 db a5 bc f5 55 a0 3d
       0.062101692 0.15041867 -0.020246033 0.07828895
000050 35 61 b9 3d 8c 04 3b bc 75 36 2f 3d 7d 8e 2d bd
       0.09051744 -0.011414658 0.042776544 -0.042372216
000060 5a 43 47 bc a7 c2 93 3c 99 6e 10 bd 8c 4d 77 3c
       -0.012162054 0.018037153 -0.035261724 0.015094172
000070 8c 95 27 bd ae a8 a3 3d f7 73 34 bd dd 41 6f bc
       -0.040914103 0.079911575 -0.044055905 -0.014603105
000080 b7 12 dc bc f0 84 4f 3b 88 37 7a bd 19 89 60 bc
       -0.026864393 0.003166493 -0.061088115 -0.013704562
000090 e6 34 6a bc 8d 5d ec 3d e2 57 09 bd ba f3 a5 3d
       -0.0142948385 0.11541281 -0.033531077 0.08103128
0000a0 49 0d 04 bd f8 59 9f bd 10 11 4c bd 56 bd c7 3d
       -0.032239232 -0.07780832 -0.04982096 0.0975291
0000b0 df 67 45 bd 62 68 03 3d 59 67 5b bc 02 f0 79 3d
       -0.048194762 0.03208197 -0.013391339 0.061019905
0000c0 c1 3e eb ba 49 14 1d bc 3c 9c d1 3d ff 06 4d bc
       -0.0017947779 -0.009587356 0.102348775 -0.012513875
0000d0 9d 89 e6 bc 3b ea b4 bb 29 53 59 bd 89 a4 a9 3d
       -0.028141791 -0.0055210865 -0.053057823 0.08283336
0000e0 81 7d 76 bd b2 f4 1a bd 9d 8d af bd 1d 52 6b bd
       -0.060178284 -0.037831016 -0.085719325 -0.057451356
0000f0 06 3a 4a bd 60 d9 de bc 03 bf e5 bc fc 43 07 3e
       -0.04937174 -0.027203262 -0.028045183 0.13209528
000100 31 4c cf 3d c8 f0 49 3d a4 57 84 3d 2a fc a5 3d
       0.10121954 0.049301893 0.064620286 0.08104737
000110 05 aa ee bc 8e c5 df 3c 7b db 10 bd c1 6e 23 3e
       -0.029133806 0.027315881 -0.035365563 0.15960218
000120 85 54 b7 bc e8 26 cb 3d 7f 95 41 bc ef 04 47 bb
       -0.02237917 0.0991953 -0.011815428 -0.003036793
000130 cf 87 5d bd 58 e1 23 3e 17 99 ec bc 77 4c e3 3c
       -0.054084595 0.1600393 -0.028881593 0.027746422
000140 69 31 21 bd fb f4 ed 3d 32 bb 20 3e e9 d3 8e bd
       -0.03935376 0.11618992 0.1569641 -0.069740124
000150 ed 82 29 3d 26 10 f8 3c 6e a7 c7 bc d6 1f 46 bc
       0.041384626 0.030281138 -0.024371829 -0.012092551
000160 b3 ff 29 bd 01 5a 42 3d be dd a7 3d 14 12 83 bc
       -0.04150362 0.047449116 0.08196591 -0.015999831
000170 b8 09 1f bd a7 af c0 3a 69 ab e2 bb 2f a1 4d 3d
       -0.038827628 0.0014700786 -0.0069174063 0.050202545
000180 3c 80 94 3d 36 bf 3a 3e ca 6c 7b bd 08 00 21 bc
       0.07251021 0.18237004 -0.061383046 -0.009826668
000190 f4 35 dd 3a c9 0d 81 3e 5c 70 b6 bc 98 2a cc 3d
       0.0016877041 0.2520583 -0.022270374 0.099690616
0001a0 b3 95 2e 3e b0 df 10 bd 04 dd 46 3b 9a 94 30 3c
       0.17049293 -0.035369575 0.0030344138 0.010777617
0001b0 2e 44 14 3e 13 f6 81 bd da 36 57 bd f3 3e a7 3b
       0.14479133 -0.06345763 -0.052542545 0.0051039397
0001c0 d2 f0 a9 3d a1 e2 a1 bc da 2e 72 bc 18 bf 53 bd
       0.08297886 -0.019761385 -0.014781678 -0.051695913
0001d0 29 f4 ba bb 6b 93 1e bc b3 1e 08 3e 35 80 11 bd
       -0.0057053757 -0.009678702 0.13292961 -0.03552266
0001e0 27 ec 7b bd c4 21 dd 3c 16 a7 15 bd 23 80 ab 3d
       -0.06150451 0.02699364 -0.0365363 0.083740495
0001f0 93 bd 21 bd 9f c9 d3 bb cc 50 cd 3d 4b 47 19 bd
       -0.039487433 -0.006463244 0.100251764 -0.037421506
000200 92 2c 07 bc bd 6f 72 bd a0 f6 94 bb 18 07 20 3e
       -0.0082503725 -0.059188593 -0.0045460016 0.15627706
000210 17 7c 46 3e fd 60 91 bd 86 f1 ec bc 03 bc 35 3e
       0.19383274 -0.07098577 -0.028923761 0.17747502
000220 ce 5d 97 3c 8f 3c 9e bd 12 1d 10 3e 33 06 23 3d
       0.018477347 -0.077263944 0.1407359 0.039800834
000230 e8 ea 80 bb b6 22 b7 bb 3d 96 80 bc 8b 9d 85 3c
       -0.003934253 -0.0055888547 -0.01569664 0.016310474
000240 4a 8a 40 bd 1b 13 7b bd 9c be ec bc 5f 63 7c bd
       -0.047006883 -0.061297517 -0.028899483 -0.061618205
000250 fd f5 cc bc fc 2c a9 ba db 73 9c bd 79 9d a5 3c
       -0.02501964 -0.0012907083 -0.07639285 0.02021669
000260 db 78 28 3e 48 dc 38 3c e3 63 6f 3c de c7 41 bd
       0.16452353 0.011282988 0.014611217 -0.04730975
000270 54 24 84 3d 8e 1e 2f 3d 14 34 3b 3d 51 ca a2 3b
       0.064522415 0.04275375 0.045703962 0.0049679657
000280 af 8c 55 bd c0 70 ed bb 1a 85 ea 3d 2b fc 3c bc
       -0.05213612 -0.007246107 0.11451168 -0.011534731
000290 b2 09 ce bc d4 79 6d bd 6e fd 99 3d 43 3c 16 3e
       -0.025151107 -0.057977512 0.07519041 0.14671426
0002a0 24 f1 ca bc 09 29 be bc 2c 48 eb bc b2 5c f5 bc
       -0.024773188 -0.023212926 -0.028720938 -0.029951427
0002b0 1c 40 f5 3d 57 9c 37 3e 77 44 67 bd 05 42 45 bd
       0.119751185 0.17930733 -0.056461778 -0.048158664
0002c0 46 4f b6 bc d0 70 80 3d fb be c8 3d 70 74 b8 bb
       -0.022254597 0.06271517 0.09802052 -0.005629115
0002d0 5d a7 cb 3d f6 e8 b1 3d d4 98 5e bd 85 e5 91 3b
       0.099440314 0.08687012 -0.054344967 0.0044524097
0002e0 e4 22 ff 3b 06 13 53 bd 93 25 56 bd 4a f7 10 3c
       0.0077861417 -0.051531814 -0.052281927 0.008848021
0002f0 52 95 92 bc f0 cf 7d bc 86 72 0b 3e e2 5b 89 bd
       -0.017893467 -0.015491471 0.13617906 -0.067069784
000300 7d 07 69 bd 85 84 f8 3d 97 3f 1c bd ea 49 f1 3d
       -0.056891907 0.12134651 -0.03814658 0.11781676
000310 fc 37 2d bc 78 eb f5 3d 8f 5a 81 bd 55 f0 75 bb
       -0.01057243 0.12007803 -0.06316101 -0.0037527282
000320 cc 78 b0 bc 3d ed 75 bc 2d 1d c5 3d 35 9e 8e bc
       -0.021541975 -0.015010175 0.096247055 -0.017409423
000330 14 be 77 3d 85 33 e9 3b 6a 5d 7e 3c 5c 5f e6 bc
       0.060484007 0.0071167373 0.015525201 -0.028121643
000340 bd 84 18 bc 1a 05 80 3b fb 3d 57 bd 61 0b 16 3e
       -0.009308991 0.003906858 -0.052549344 0.14652778
000350 14 d0 aa 3a 64 75 70 3b 0a c6 ca 3c 7a f3 92 3d
       0.0013031983 0.0036691064 0.024752636 0.07175346
000360 5a c4 34 3e e9 1d 5e 3d 33 1d d8 bc 1e be 44 bc
       0.17653027 0.054227743 -0.02638111 -0.012008218
000370 42 08 8f bc 9a 99 ea bc 48 cc 6f bd 01 96 15 3c
       -0.017459992 -0.028637696 -0.058544427 0.009130002
000380 03 08 9e bc 3b b9 85 3a 53 b5 70 b9 45 f6 7e 3d
       -0.01929093 0.0010202298 -0.00022955732 0.06224658
000390 38 d2 08 bd 4a e6 17 3d 88 af 17 bd cd e1 f9 3d
       -0.033403605 0.037084855 -0.037032634 0.12201271
0003a0 95 62 13 3e 34 8f 1f 3d 4d bb 38 3d 73 4a 93 bc
       0.14393075 0.03895493 0.0451005 -0.017979836
0003b0 5a 5c 04 bd 5a 90 b4 3c cf 14 a8 bb 22 79 3d bc
       -0.032314636 0.022041488 -0.0051294337 -0.011564525
0003c0 9b 2b 2e 3e 18 50 6d bc 4a 51 3a 3d 01 8a 17 3d
       0.17008822 -0.014484428 0.04548768 0.036996845
0003d0 d4 3d 45 bc 25 c9 14 3a 7d a9 4d 3d 23 b7 8f bc
       -0.012038667 0.0005675725 0.050210465 -0.017543381
0003e0 c7 89 60 bd d6 cc 87 bd e5 35 e2 bd 04 88 c9 3d
       -0.054818895 -0.06630866 -0.11045436 0.09840396
0003f0 2d bb b1 bb 6a 8e 7c bd 46 95 8e bd 53 b7 d3 3d
       -0.0054239244 -0.061659254 -0.069620654 0.10337701

net.6.weight f4 [1, 256]
000000 ea 85 c6 3f 37 8d f5 3e b6 cf 39 3d 26 49 f2 3e
       1.5509617 0.479593 0.045364104 0.47321433
000010 80 f6 41 3f 84 22 d5 bc bc 9a 65 3e 8d 9a 12 bd
       0.75766754 -0.026017435 0.22422308 -0.035791922
000020 75 1a e2 be 82 09 82 3f 3a c1 26 3f a1 6a c5 3e
       -0.4416081 1.0159152 0.6513859 0.38557914
000030 09 e4 41 3e 93 df 5d 3b 2e 8d ee 3b b2 f2 9f 3c
       0.18934645 0.0033855184 0.0072800135 0.019524906
000040 34 42 76 bf fe 47 b8 3f 0d 3b ac 3d b3 ab 9d 3f
       -0.9619477 1.439697 0.084097005 1.2318023
000050 d5 d7 28 bf 20 ed a1 39 2e 62 6c bd 0c 0b 62 bd
       -0.65954334 0.00030884985 -0.05771082 -0.055186316
000060 43 16 ee bd d8 66 b0 3d d5 0e d8 3c 9d 5c af 3b
       -0.1162534 0.08613366 0.02637426 0.0053516165
000070 38 3d 76 bc 46 0c ae 3f 8d b0 2b 3b 2a e4 80 3e
       -0.015029244 1.3597496 0.0026197762 0.25174075
000080 1a e0 37 3c 3e 04 1a 3f 65 81 23 3f 25 07 c6 3c
       0.011222864 0.60162723 0.63869315 0.024173329
000090 6a e5 7c bd 2a 15 c5 3f 2a aa 0f 3e 07 91 7b 3f
       -0.061742224 1.5397084 0.14029756 0.9826817
0000a0 b5 18 a3 3e f7 7b fa bc b8 ad 1c 3c 43 97 ac 3f
       0.31854787 -0.03057669 0.009562902 1.3483661
0000b0 d0 93 92 bc c8 d4 4c 3f ac 8e c2 3e f6 f0 9b 3f
       -0.017892748 0.8001218 0.37999475 1.218291
0000c0 94 ad 49 bc cd 00 97 3f 0d 56 84 3f 9a e3 b0 3f
       -0.012309451 1.1797119 1.0338761 1.3819458
0000d0 bf 4a 07 bc ab 35 38 3e f0 bc 12 ba d9 05 88 bf
       -0.008257567 0.17989223 -0.0005597612 -1.0626785
0000e0 c1 f5 48 3d 9d c1 34 bd b4 e3 bf 3e ee 94 13 bc
       0.049062494 -0.044129957 0.3747841 -0.009007676
0000f0 ac ff 56 3f 44 53 2b bd f6 5f d7 3e ea 3a ac 3f
       0.83983874 -0.041827455 0.420654 1.3455479
000100 97 b6 54 3f cf 87 72 3e 6f 5a db bf 71 42 72 3f
       0.8309111 0.2368462 -1.7136973 0.9463263
000110 e4 38 26 3f 95 3b 85 3d 41 5a 01 3f 6a be 9f bf
       0.6493056 0.06505505 0.5052834 -1.2479985
000120 52 6f 74 be 70 ea a2 3f b2 a9 03 3e 75 da c3 3d
       -0.2387059 1.2727795 0.12857702 0.09563152
000130 2b 42 db 3b c2 64 53 3f 5e 8b 13 bd 1f 34 96 3f
       0.0066912374 0.8257562 -0.036021583 1.1734656
000140 99 c6 cd 3e 98 50 81 bf 22 e5 90 bf da 6e 80 3c
       0.4019058 -1.010272 -1.1319926 0.015677858
000150 15 2a a6 3e b3 5b bb 3f 26 d3 1c bc 92 ec 16 3d
       0.3245398 1.4637359 -0.009571826 0.036846705
000160 c1 be 11 3b dc f3 a9 3f 62 32 ad 3f d3 9e ef 3d
       0.0022238942 1.3277545 1.3531001 0.11700215
000170 27 48 5c 3e 93 99 5c bd 64 29 af 3d 13 2f 17 3f
       0.21511899 -0.053857397 0.085528165 0.59056205
000180 4f 82 e9 3f 7a de 80 3f 91 b5 79 bd 5c a5 a0 3a
       1.8242892 1.0067894 -0.06096417 0.0012256312
000190 c2 e0 3d be 7f 89 d9 bf ab bc 8c ba 90 b3 67 3f
       -0.1854277 -1.6995085 -0.001073738 0.90508366
0001a0 66 ce b1 3f c4 f0 2f bd 52 f5 12 bc 84 30 30 bb
       1.3891113 -0.04295422 -0.008969622 -0.0026884386
0001b0 fb 32 7b 3e 89 55 ce 3e 33 03 e9 bc d3 77 23 3e
       0.24531166 0.40299633 -0.028443908 0.15963678
0001c0 64 23 8a 3f 2a 2b d9 bd 57 d4 98 3f e8 c9 cf 3e
       1.079205 -0.10603936 1.1939801 0.4058373
0001d0 d1 bb 70 bc ce 2a 27 3e b7 7a 89 3f 80 23 57 3a
       -0.014693216 0.16324922 1.0740575 0.0008206889
0001e0 98 28 4f bd 0c 55 b1 3f a7 a1 01 3f b2 53 a3 3f
       -0.050575823 1.3854079 0.50637287 1.2759917
0001f0 ff a4 4d 3f ca 55 bd 3e 0a 1f bf 3f 49 a2 46 3f
       0.8032989 0.36979514 1.4931347 0.7759138
000200 c4 de 3d bd f2 88 16 3f 09 2b ff be 68 f1 56 3e
       -0.046355024 0.5880271 -0.4983752 0.20990527
000210 f2 86 a1 3f 58 2c 15 3f 11 18 4e 3a 97 4a 90 bf
       1.2619307 0.5827079 0.00078618625 -1.1272763
000220 6c aa 9c be 92 4a 96 3f bd bd f5 3f c6 24 48 3f
       -0.30598772 1.1741507 1.9198529 0.7818111
000230 a4 d7 04 3b 66 10 7a 3f d1 2b 1b 3e 75 8c 6b 3f
       0.0020270133 0.9768127 0.15153433 0.92011195
000240 5c 3b 3a bd 13 91 cf 3c e9 a0 39 bc 21 9e 63 bb
       -0.045466766 0.025337731 -0.011329868 -0.0034731703
000250 f6 3b 9a 3e d1 71 76 bd 3b 40 3b 3f f6 e9 8d 3e
       0.30123872 -0.060167138 0.7314488 0.2771756
000260 24 55 ea 3f 66 40 31 bd a9 87 84 3f 03 02 22 bd
       1.8307233 -0.043274306 1.03539 -0.0395527
000270 f0 4b 92 3e 3e 97 c2 bf ac 67 67 be 56 bf 81 bd
       0.2857356 -1.5202405 -0.22598141 -0.063353226
000280 4c f0 39 bc fe f0 90 be b1 e1 c3 3f fb d3 55 bd
       -0.011348795 -0.28308862 1.530325 -0.052204113
000290 35 e9 63 3e e5 31 10 3f 1d d8 6b 3f dd b9 0f bf
       0.2225693 0.56326133 0.9212664 -0.5614298
0002a0 b2 ed 72 3f f2 a4 d3 3b ea 8d 4e bd c3 33 e5 bb
       0.94893944 0.006458872 -0.05042831 -0.006994696
0002b0 a4 db c2 3f 77 1d f1 3f c2 47 c7 3c c0 1b 14 bd
       1.5223279 1.8837117 0.024326209 -0.036159277
0002c0 98 68 9d 3c a1 d6 e5 3e 49 d5 72 be fe 39 8e 3d
       0.019214913 0.4489031 -0.23714174 0.06944655
0002d0 46 28 bf 3f 34 1e 46 3f 85 c6 6c bc 38 04 51 bf
       1.4934165 0.77389836 -0.014451628 -0.8164706
0002e0 b4 06 ee 3f 5e 16 b6 bc a0 ed 20 3b 0f ab f9 3d
       1.8595796 -0.022227462 0.0024555698 0.1219083
0002f0 56 1e 6e 3e e4 bb d1 bc a6 a0 c9 3f 90 f6 81 be
       0.2325376 -0.025602289 1.5752151 -0.25383425
000300 2c 8d ce 3c 83 82 d6 3f 77 3c 65 3d d8 a2 d8 3f
       0.0252138 1.6758579 0.055965867 1.6924696
000310 d7 d0 ac 3f 2c 26 a3 3f fc ec 18 bc 5b d3 2b bd
       1.3501233 1.2746024 -0.009333845 -0.04194961
000320 1e 86 2d 3f d8 9b 67 bc 84 96 5a 3f 5e 4b c3 3d
       0.6778277 -0.014136277 0.8538592 0.095358595
000330 51 00 be 3f c7 b4 9a ba 67 f5 e1 3e e1 06 79 3d
       1.4843847 -0.0011803143 0.4413254 0.060797576
000340 55 ae a2 3f 02 3b b2 3e 35 08 95 be 78 a1 61 bf
       1.2709452 0.34810644 -0.29107824 -0.88137007
000350 77 8b c3 bd f1 6d cf be 8f ac 99 3f af 86 06 bf
       -0.09548085 -0.40513566 1.2005786 -0.5254926
000360 0b 55 9e 3f 6d 27 ba 3f 2a 78 e1 3c be 1a f0 bd
       1.2369703 1.4543282 0.027523119 -0.11723851
000370 83 81 22 3c cf 62 a0 b9 3a 3b 16 bd 2a 6b c9 3f
       0.009918573 -0.00030591196 -0.036677577 1.5735829
000380 e3 f2 58 bd ba 04 b4 bc e5 24 15 bc bf f0 0d bf
       -0.05296601 -0.02197491 -0.009103035 -0.55445474
000390 d3 8d 1c be 31 3a d6 3f e1 3f 2c 3d 21 f1 e9 3f
       -0.15288477 1.6736509 0.042053107 1.8276712
0003a0 a8 45 81 3f 28 46 07 3f 66 2f cc be 8f 4d 4c 3f
       1.0099382 0.52841425 -0.39879912 0.79805845
0003b0 e4 f2 5c 3f 98 9c 53 3d a8 54 19 3e 97 0d 46 3f
       0.8630812 0.05166301 0.149737 0.77364486
0003c0 04 e0 a1 3f 03 6b ca bc fe fb 1c 3e 89 9b f3 3e
       1.2646489 -0.02470923 0.15330502 0.475796
0003d0 8a 68 a1 3f 3b 1f f3 3d a8 44 a1 3f 49 37 92 be
       1.2610028 0.11871191 1.2599077 -0.28557804
0003e0 d1 bc cd 3c 96 13 15 3f 6e e1 3f bf 3a c2 f0 3f
       0.025114449 0.5823301 -0.74953353 1.8809273
0003f0 9c d6 26 bd 71 49 f9 3c 08 5c 6c be c3 cb e8 3f
       -0.04073201 0.030430527 -0.23081982 1.8187183
