preTrained/GAIL_pretrained_300_actor.pth (torch, 541208 bytes, 8 tensors)

net.0.weight f4 [256, 3]
-0.5040545 0.46391648 -0.58639175 0.3771233 -0.264729 -0.40199056 0.043037765 0.49212888
-0.4475999 0.18873551 -0.6497742 0.35838675 -0.25051323 0.29937366 -0.3531911 0.34663513
-0.45938265 0.49368897 -0.4110481 -0.03533403 -0.34875098 -0.2705772 -0.5340144 0.11101735
0.07950951 0.57008576 -0.34148717 0.19020523 0.5350763 0.19769175 0.09358729 0.6834388
-0.35293233 0.45222133 -0.58075184 -0.36381847 0.3163661 -0.21151197 -0.30676302 -0.37729025
-0.52846384 -0.22253986 -0.29892194 0.3153762 -0.024698144 0.04988921 -0.8294514 0.098665595
-0.16748549 -0.7066896 -0.2759645 0.38550878 0.35259926 0.24438246 0.636493 -0.06159225
0.32450324 0.30740702 -0.55205166 -0.3388656 -0.43700027 0.22140796 -0.49537674 -0.2870605
-0.40243533 -0.37226298 0.36125505 -0.6543438 -0.6104058 -0.5632638 0.5876975 0.08592194
0.66553396 -0.50900376 0.28163797 0.22401541 0.853509 0.3575591 -0.52557594 -0.08944622
0.35990793 0.25541618 -0.5537291 0.15741579 0.38837177 0.04192981 0.29402396 -0.5266448
0.21891353 0.016962392 0.3648826 -0.38140112 -0.407145 0.23920688 -0.6127304 0.14635362
-0.534315 0.319531 -0.5646497 0.23944059 0.63693583 0.27467415 0.2312053 -0.5181358
-0.5467645 0.007967959 0.7381706 0.44883758 0.23789257 -0.6207439 0.18267053 0.03177937
0.87273765 0.034873277 -0.29342735 0.069310665 -0.5849358 -0.0102940295 0.47382498 -0.3959988
-0.5093343 -0.47229692 -0.23621611 -0.16279326 -0.45136157 0.049184777 -0.485991 0.17547168
0.1838931 -0.38237676 0.066722415 -0.43388444 -0.12589815 -0.16938068 -0.5588815 -0.26984555
0.6628898 -0.09510173 0.43242395 -0.4527875 -0.54845583 -0.26822245 -0.51777977 0.2826394
-0.34503832 -0.3921097 -0.04649425 0.030047584 0.5682496 -0.03301823 -0.24394254 0.5720374
0.0018171642 -0.07348445 0.4253079 -0.3505409 -0.1831897 -0.564366 -0.45877594 -0.3856824
0.70221585 0.026692959 -0.47023973 0.26651374 0.44110072 0.21217881 0.189608 -0.52552634
-0.46372524 -0.3762814 0.42983145 0.09452942 0.5834178 0.48072726 0.48268393 0.5077512
-0.2945326 0.6362439 0.042451456 0.30604827 -0.03911926 0.10961639 -0.51903516 0.1620027
-0.54789823 0.578266 -0.17406864 -0.051042248 0.09345446 0.43742043 -0.13511963 -0.5787465
-0.071135685 0.41378012 0.36964747 -0.15735474 -0.09264713 -0.14847729 0.29143664 -0.32167822
0.1618949 -0.08642669 0.11659712 0.49633047 -0.2894488 0.1815306 0.43202272 0.5333171
-0.22132309 -0.17072184 -0.5091255 -0.18889354 -0.4121929 -0.5251273 0.5821425 -0.4215744
-0.24895158 -0.13191158 -0.49253228 -0.3707697 -0.2573532 0.4458881 0.5971432 -0.39456183
0.32909805 -0.12817362 0.048296034 0.5168098 -0.1610899 0.18357581 0.34905872 -0.5075378
0.5608957 0.5233338 -0.197989 -0.20477138 -0.4638937 -0.027111555 -0.21715808 -0.07602273
-0.29071698 -0.2988493 -0.20913202 -0.19014232 -0.25094286 0.082761854 0.29683995 0.21939726
0.13720684 0.08464211 -0.21956667 0.51089114 0.30602223 -0.03139632 -0.39397693 0.36935762
00000000: b709 01bf 7686 ed3e c51d 16bf 4e16 c13e
00000010: 8f8a 87be b5d1 cdbe 5e48 303d 51f8 fb3e
00000020: d02b e5be e243 413e 9a57 26bf 787e b73e
00000030: 4543 80be 8147 993e 77d5 b4be 297a b13e
00000040: 3434 ebbe cdc4 fc3e e674 d2be 6aba 10bd
00000050: 7d8f b2be 1889 8abe 2bb5 08bf 105d e33d
00000060: e2d5 a23d 24f1 113f 68d7 aebe 29c5 423e
00000070: c3fa 083f b56f 4a3e b1aa bf3d d8f5 2e3f
00000080: 8cb3 b4be 8e89 e73e 27ac 14bf 6a46 babe
00000090: bdfa a13e 9896 58be 0b10 9dbe 302c c1be
000000a0: 6849 07bf 7de1 63be 4c0c 99be fd78 a13e
000000b0: c353 cabc a158 4c3d ed56 54bf 3011 ca3d
000000c0: 5181 2bbe 9ce9 34bf 384b 8dbe 6861 c53e
000000d0: e487 b43e 653f 7a3e 35f1 223f 2848 7cbd
000000e0: 4a25 a63e 7464 9d3e 4253 0dbf cb7f adbe
000000f0: 80be dfbe c5b8 623e 05a2 fdbe 98f9 92be
00000100: 010c cebe 4199 bebe 6cf6 b83e 1383 27bf
00000110: 8e43 1cbf 0e32 10bf 5873 163f d8f7 af3d
00000120: 6f60 2a3f 124e 02bf da32 903e 4c64 653e
00000130: 917f 5a3f fd11 b73e 258c 06bf 942f b7bd
00000140: da45 b83e e9c5 823e 31c1 0dbf 9b31 213e
00000150: aad8 c63e 98be 2b3d 4f8a 963e 32d2 06bf
00000160: de2a 603e b7f4 8a3c e4d1 ba3e 0247 c3be
00000170: 4f75 d0be a6f2 743e e6db 1cbf b9dd 153e
00000180: dec8 08bf 9199 a33e e28c 10bf ea2f 753e
00000190: 3a0e 233f 17a2 8c3e 15c1 6c3e 8ca4 04bf
000001a0: c2f8 0bbf 0b8c 023c c0f8 3c3f 0ace e53e
000001b0: 1c9a 733e 12e9 1ebf fc0d 3b3e 162b 023d
000001c0: bc6b 5f3f 48d7 0e3d 1c3c 96be c0f2 8d3d
000001d0: 5abe 15bf 4aa8 28bc 3099 f23e 5bc0 cabe
000001e0: bc63 02bf e7d0 f1be a3e2 71be 47b3 26be
000001f0: dd18 e7be fa75 493d d0d3 f8be d9ae 333e
00000200: 794e 3c3e e3c6 c3be c3a5 883d 1a26 debe
00000210: 72eb 00be 2172 2dbe dc12 0fbf 3229 8abe
00000220: 25b3 293f b2c4 c2bd ac66 dd3e c3d3 e7be
00000230: 9a67 0cbf 7454 89be 378d 04bf 1db6 903e
00000240: dda8 b0be 9ac2 c8be c170 3ebd 5a26 f63c
00000250: ce78 113f 203e 07bd 13cc 79be 0b71 123f
00000260: ea2d ee3a 047f 96bd f5c1 d93e 197a b3be
00000270: 1596 3bbe 4a7a 10bf aee4 eabe 2a78 c5be
00000280: 6bc4 333f 31ab da3c 43c3 f0be 7d74 883e
00000290: f4d7 e13e 6745 593e 9928 423e e588 06bf
000002a0: 656d edbe f5a7 c0be de12 dc3e a498 c13d
000002b0: de5a 153f e221 f63e 5922 f73e fcfb 013f
000002c0: facc 96be e1e0 223f 94e1 2d3d 5cb2 9c3e
000002d0: 843b 20bd 8f7e e03d 7ddf 04bf 09e4 253e
000002e0: 0f43 0cbf 3e09 143f 0d3f 32be ad11 51bd
000002f0: 0d65 bf3d 92f5 df3e cd5c 0abe bb28 14bf
00000300: 96af 91bd fdda d33e 6f42 bd3e 9a21 21be
00000310: c7bd bdbd 6e0a 18be 2f37 953e 02b3 a4be
00000320: c7c7 253e 7a00 b1bd 79ca ee3d 071f fe3e
00000330: a232 94be 28e3 393e 1532 dd3e 7887 083f
00000340: 85a2 62be b5d1 2ebe 0c56 02bf 4f6d 41be
00000350: f30a d3be be6e 06bf 4a07 153f 9ad8 d7be
00000360: 2aed 7ebe d413 07be 312d fcbe 87d5 bdbe
00000370: ccc3 83be 724b e43e 60de 183f 0204 cabe
00000380: 8a7f a83e f23f 03be 10d2 453d a64d 043f
00000390: c0f4 24be 4cfb 3b3e d3b7 b23e ffed 01bf
000003a0: dc96 0f3f 34f9 053f a1bd 4abe 97af 51be
000003b0: 7a83 edbe 0d19 debc b05e 5ebe ceb1 9bbd
000003c0: dbd8 94be c702 99be b426 56be abb4 42be
000003d0: 957b 80be 0c7f a93d 68fb 973e ada9 603e
000003e0: f37f 0c3e d858 ad3d 16d6 60be c3c9 023f
000003f0: f2ae 9c3e 6d99 00bd 58b7 c9be 711c bd3e

net.0.bias f4 [256]
-0.2064376 -0.03086124 -0.47712874 -0.18740338 0.21039991 0.23366092 -0.35813606 -0.13523704
0.24739979 0.28748307 0.31413305 0.4747007 0.04766573 0.30460984 -0.36679706 0.0819796
0.41367966 -0.21303399 -0.3327765 0.120175585 -0.32200557 0.20166068 0.19017519 0.2564994
-0.27820617 -0.19130981 0.18353495 0.4339636 -0.4875435 -0.2393726 -0.15533483 0.37397996
0.26320636 -0.17847694 -0.2515705 0.48410234 0.1625994 0.051524445 -0.45440415 -0.055077218
-0.47553578 -0.51165086 -0.15649986 -0.28766412 0.082005754 0.4867755 0.10316073 -0.19807969
-0.20587638 0.52943933 -0.2523435 -0.21725975 -0.416582 0.43000004 -0.554575 0.14341979
-0.3694767 -0.14998387 0.04642259 -0.31440735 -0.14637709 -0.29629418 -0.0043057557 -0.17286077
0.029586947 -0.42738634 0.21018054 0.2945612 -0.47262913 -0.5327663 0.48620415 0.015433816
0.26414785 -0.16595882 -0.30510744 -0.42825335 -0.4018671 -0.08586065 0.5308765 0.2766388
0.280025 -0.19883423 -0.031921957 0.45497215 0.0361463 0.4111107 0.05157137 -0.05049457
0.37769362 -0.5442953 0.50706625 0.376541 -0.54412323 0.14026707 -0.050218917 -0.44337404
-0.45668036 0.4698282 0.46856874 -0.22235252 -0.0018909122 -0.053568248 -0.35032302 0.26077953
-0.36958057 0.05615891 0.23381747 -0.21932152 -0.5116166 -0.26943135 -0.16359997 -0.22688703
0.4249195 0.173521 -0.5350793 0.17955615 -0.28801152 0.025446188 -0.007903248 0.13429771
-0.039070133 -0.2979939 0.14975305 0.22175132 0.07707884 0.19725327 -0.4156032 0.4142697
-0.016604165 0.36203322 -0.10212273 0.45374689 0.06542105 -0.54827726 0.13176158 0.44425145
0.1470159 -0.22422948 0.30809838 -0.009782014 -0.25790906 0.001239591 -0.034731474 0.542158
0.53141636 0.3257848 -0.026751317 0.08886817 -0.5726303 0.1703406 0.4768386 0.30071294
0.0758772 -0.20600371 -0.36585996 0.34483674 0.19835499 -0.16580766 0.035675 0.25162306
0.28484645 -0.1896251 0.3577179 -0.43828654 -0.5516484 -0.061042797 -0.53172857 -0.5601877
-0.15066078 0.44772 -0.5310001 -0.31751978 -0.5608327 -0.20225431 -0.23642713 -0.29685065
0.4686616 -0.33893833 -0.094855376 0.5077125 -0.10186252 -0.1893379 0.5399667 -0.51140064
0.028111767 0.17767327 0.48739383 0.14017327 -0.18501484 0.23926415 0.5132503 -0.33696398
0.26123428 0.08041493 0.075257406 0.37761533 -0.17968415 -0.08788949 0.54648703 0.14338106
-0.54755247 -0.29926834 -0.50194275 0.36081323 -0.17177977 -0.3242727 0.08695676 0.27042437
-0.28457162 -0.036067814 -0.03759469 -0.013988728 0.46715304 -0.293133 0.45196944 0.50684303
0.30123094 -0.34697357 0.23818362 0.12138334 0.025472617 0.39624998 0.19553265 -0.39491522
0.3036464 0.5083769 0.20537207 -0.4955021 -0.10344808 -0.06901412 0.3029403 -0.20511907
0.50792205 0.06718479 -0.39041477 -0.24886239 0.3468782 -0.5092321 0.3275078 0.112020224
-0.49902973 0.14179586 0.43809125 0.34979683 -0.5310026 0.2445789 0.33509186 0.33785394
0.00737765 0.3014787 -0.15712012 0.5065698 0.32432762 -0.118235655 -0.1353685 -0.10084035
00000000: 6164 53be b6d0 fcbc 384a f4be ace6 3fbe
00000010: 1373 573e cf44 6f3e 9c5d b7be 947b 0abe
00000020: 5f56 7d3e fb30 933e 0cd6 a03e f80b f33e
00000030: 243d 433d d2f5 9b3e d3cc bbbe ece4 a73d
00000040: d2cd d33e 9525 5abe ae61 aabe 9e1e f63d
00000050: eadd a4be 2380 4e3e 49bd 423e e453 833e
00000060: 0a71 8ebe b8e6 43be 96f0 3b3e 7a30 de3e
00000070: 4d9f f9be 171e 75be 1810 1fbe 4d7a bf3e
00000080: fcc2 863e a9c2 36be d9cd 80be 43dc f73e
00000090: 7580 263e 4c0b 533d a9a7 e8be a698 61bd
000000a0: 6d79 f3be 8dfb 02bf 8041 20be b648 93be
000000b0: a2f2 a73d a33a f93e ef45 d33d 67d5 4abe
000000c0: 42d1 52be 5689 073f 2b33 81be 5779 5ebe
000000d0: 3c4a d5be f728 dc3e a1f8 0dbf a3dc 123e
000000e0: 0d2c bdbe 5f95 19be 9d25 3e3d 00fa a0be
000000f0: e0e3 15be dfb3 97be 4c17 8dbb 6a02 31be
00000100: 5360 f23c 62d2 dabe 9139 573e bad0 963e
00000110: 72fc f1be 5f63 08bf c0ef f83e 1ede 7c3c
00000120: 633e 873e 1cf1 29be 0b37 9cbe 0644 dbbe
00000130: 86c1 cdbe b5d7 afbd 86e7 073f 9aa3 8d3e
00000140: 705f 8f3e 339b 4bbe 99c0 02bd 1cf2 e83e
00000150: 250e 143d 1a7d d23e 803c 533d 65d3 4ebd
00000160: 0f61 c13e f056 0bbf 18cf 013f fbc9 c03e
00000170: a94b 0bbf 2ca2 0f3e 5ab2 4dbd ec01 e3be
00000180: 02d2 e9be 528d f03e 3ee8 ef3e 61b0 63be
00000190: 7cd8 f7ba 616a 5bbd 8a5d b3be e584 853e
000001a0: aa39 bdbe e306 663d d96d 6f3e d295 60be
000001b0: 4ef9 02bf e8f2 89be c086 27be 1355 68be
000001c0: 0c8f d93e 7daf 313e f5fa 08bf 91dd 373e
000001d0: 3f76 93be 8674 d03c a07c 01bc 5785 093e
000001e0: 0108 20bd a892 98be dd58 193e c712 633e
000001f0: 83db 9d3d c3fc 493e f1c9 d4be 281b d43e
00000200: 7505 88bc 6b5c b93e b925 d1bd 8351 e83e
00000210: 79fb 853d e65b 0cbf 82ec 063e ed74 e33e
00000220: 568b 163e 6a9c 65be 12bf 9d3e be44 20bc
00000230: a80c 84be c679 a23a 9742 0ebd deca 0a3f
00000240: e70a 083f 44cd a63e 9425 dbbc 8400 b63d
00000250: e697 12bf c46d 2e3e 3024 f43e 0cf7 993e
00000260: 8165 9b3d a3f2 52be ff51 bbbe 718e b03e
00000270: 921d 4b3e 7cc9 29be f31f 123d bdd4 803e
00000280: 65d7 913e 152d 42be cd26 b73e 1867 e0be
00000290: d438 0dbf 0308 7abd 5d1f 08bf 7668 0fbf
000002a0: d246 1abe 8e3b e53e 9fef 07bf f491 a2be
000002b0: bb92 0fbf c11b 4fbe f419 72be cffc 97be
000002c0: 6af4 ef3e 5389 adbe 8943 c2bd 72f9 013f
000002d0: 4c9d d0bd cbe1 41be 423b 0a3f 27eb 02bf
000002e0: a64a e63c fbef 353e af8b f93e 9589 0f3e
000002f0: 8874 3dbe a901 753e 5f64 033f 8b86 acbe
00000300: 80c0 853e 95b0 a43d 8e20 9a3d cc56 c13e
00000310: 1fff 37be 68ff b3bd 93e6 0b3f 7cd2 123e
00000320: 662c 0cbf b339 99be 527f 00bf 83bc b83e
00000330: 09e7 2fbe 1207 a6be 6316 b23d 1075 8a3e
00000340: 5fb3 91be d8bb 13bd e4fc 19bd fa30 65bc
00000350: af2e ef3e 8715 96be 8a68 e73e 77c0 013f
00000360: f13a 9a3e 85a6 b1be 68e6 733e d497 f83d
00000370: f3ab d03c 47e1 ca3e b639 483e 5432 cabe
00000380: 8a77 9b3e fd24 023f 0e4d 523e 74b2 fdbe
00000390: 96dc d3bd 4657 8dbd fe1a 9b3e bc0a 52be
000003a0: 2e07 023f 2e98 893d 72e4 c7be c8d5 7ebe
000003b0: 059a b13e 095d 02bf 1aaf a73e dc6a e53d
000003c0: d380 ffbe ef32 113e 7f4d e03e 9218 b33e
000003d0: c9ef 07bf e472 7a3e 2991 ab3e 31fb ac3e
000003e0: 37c0 f13b 6b5b 9a3e 19e4 20be 8fae 013f
000003f0: 450e a63e 8925 f2bd 0a9e 0abe 6385 cebd

net.2.weight f4 [256, 256]
0.014815594 -0.035727624 0.0011778021 -0.22324516 -0.017270682 -0.03145704 0.018748933 -0.016931035
0.109422386 0.010043292 0.07883907 -0.057734087 -0.10729024 -0.3854251 -0.030511558 -0.06355044
-0.09176618 0.07355856 -0.071451284 -0.13291796 -0.032905377 -0.11236804 -0.1039503 0.07944146
-0.09672489 0.15733555 -0.037691925 -0.06674122 0.024373218 -0.04509849 -0.025269408 -0.0658837
0.022231916 0.082521774 0.065475024 0.07420065 -0.054119095 0.119356595 -0.029321484 0.031184671
-0.046153754 0.019858904 0.026208237 0.05802119 0.051685005 -0.016173106 -0.049715273 0.04711982
0.0586631 -0.020624224 -0.029431649 0.043130703 0.03167978 0.050766185 -0.051295325 -0.009323621
0.0021412969 0.105422646 0.033307444 0.03690354 0.044742007 -0.24021068 -0.05831589 -0.015559995
0.06933149 -0.054722704 -0.0494983 -0.04267504 -0.017364964 -0.032750085 -0.08964628 0.010428561
0.041304477 -0.013811059 -0.12200298 -0.024502754 0.005315259 0.10532427 -0.06391715 -0.013251628
-0.06383108 -0.047265656 -0.022412853 0.045907177 0.051227152 0.011810468 0.011278267 -0.009311138
0.025721839 0.0088600665 -0.024683151 0.06517425 -0.0009096265 0.078420974 0.086922236 -0.0073103933
0.06161415 -0.034028094 0.07565031 0.018145896 0.016896583 0.15601449 0.042046547 -0.06253692
0.010968434 0.035616387 -0.034722574 0.033541836 -0.010649607 0.046425343 -0.017012171 0.0006631202
0.044497345 -0.31665266 0.052949272 -0.03764145 0.033606134 -0.009542917 -0.017999215 0.1088165
-0.035110466 0.053089008 0.15363646 -0.04647203 -0.046862524 0.10895711 0.023592077 0.011244083
0.056959033 0.06872347 -0.01403259 0.014674426 -0.22492611 -0.040531464 -0.04722983 -0.042762116
-0.044208687 0.06877319 -0.40507206 0.008335041 0.1768393 0.08516796 0.072680175 0.017987305
-0.013090652 0.057574324 -0.026499668 0.13731804 0.057894036 0.013735163 0.056452975 -0.015507281
0.06075423 0.026506571 -0.030922085 0.060583476 -0.0011742894 0.033409208 0.09042093 -0.047249116
-0.04450174 0.060233414 -0.02674584 0.06650131 -0.043857906 0.049963076 -0.012959048 -0.0035742947
0.14997919 0.030567974 -0.02174627 -0.014407563 0.07860497 0.02028092 -0.019009009 0.05898891
0.046600573 -0.014678247 -0.02411175 -0.022180187 0.014391549 0.13472657 0.021498125 -0.003244956
-0.016827555 0.035773676 -0.18470858 -0.031961676 0.06327741 -0.021710493 0.06536213 0.022756202
-0.016815038 0.089739844 -0.057613026 -0.08033915 0.01288373 0.021579444 0.0035064064 -0.24831149
-0.014661938 0.052633204 -0.03954113 0.15536262 -0.0152281355 0.042704735 -0.030970216 0.15943263
-0.0068700165 -0.12857261 0.07341517 0.0035427394 0.072902694 0.07175424 0.020302923 0.09640758
-0.20171843 -0.033590026 -0.025276463 -0.14514577 0.047269505 -0.04221348 -0.03887609 -0.014462344
0.003457147 -0.024496885 0.0105340425 -0.004701129 0.051027626 0.051216386 -0.012698812 -0.39637458
0.030001935 0.12489944 -0.023199782 -0.25478807 -0.6051961 0.064618476 0.0014530001 -0.043941632
0.027271416 -0.017853398 0.0021774755 -0.011632645 0.075469516 0.07328632 -0.03311347 -0.044273514
0.04102075 0.089929804 0.059221666 0.025087737 0.056298442 0.12417584 -0.018684946 0.0074191084
00000000: 1bbd 723c 2157 12bd 7b60 9a3a 619a 64be
00000010: 3f7b 8dbc 19d9 00bd 5d97 993c f4b2 8abc
00000020: d818 e03d 9f8c 243c 6176 a13d 947a 6cbd
00000030: fcba dbbd 7056 c5be 60f3 f9bc bc26 82bd
00000040: e8ef bbbd dfa5 963d 0d55 92bd a51b 08be
00000050: cac7 06bd 3721 e6bd e5e3 d4bd 34b2 a23d
00000060: b317 c6bd 921c 213e d962 1abd 9faf 88bd
00000070: 58aa c73c 32b9 38bd ca01 cfbc 09ee 86bd
00000080: b51f b63c 2d01 a93d c517 863d 83f6 973d
00000090: fcab 5dbd 3b71 f43d 9c33 f0bc ff76 ff3c
000000a0: b80b 3dbd 24af a23c a8b2 d63c a1a7 6d3d
000000b0: a8b3 533d 767d 84bc 3ea2 4bbd b600 413d
000000c0: b848 703d 22f4 a8bc a41a f1bc d2a9 303d
000000d0: a8c2 013d 34f0 4f3d 0c1b 52bd 1ac2 18bc
000000e0: 0055 0c3b d4e7 d73d 636d 083d 2b28 173d
000000f0: 6543 373d caf9 75be a5dc 6ebd 59ef 7ebc
00000100: abfd 8d3d ea24 60bd bbbe 4abd 06cc 2ebd
00000110: f840 8ebc f424 06bd 7898 b7bd 8edc 2a3c
00000120: e22e 293d c847 62bc b3dc f9bd 00ba c8bc
00000130: a02b ae3b 40b4 d73d ffe6 82bd 5b1d 59bc
00000140: dfb9 82bd a299 41bd 299b b7bc 2a09 3c3d
00000150: 90d3 513d b180 413c 7bc8 383c be8d 18bc
00000160: 9bb6 d23c d029 113c 5234 cabc 147a 853d
00000170: 0074 6eba 2d9b a03d 4904 b23d 068c efbb
00000180: 1e5f 7c3d 0b61 0bbd 8dee 9a3d b4a6 943c
00000190: b46a 8a3c 43c2 1f3e 0039 2c3d 5b13 80bd
000001a0: f2b4 333c 7de2 113d 4239 0ebd 2a63 093d
000001b0: b07b 2ebc 8028 3e3d 1c5d 8bbc 3ed5 2d3a
000001c0: d942 363d 4c20 a2be 56e1 583d ec2d 1abd
000001d0: 96a6 093d e559 1cbc 1773 93bc 2fdb de3d
000001e0: fecf 0fbd dc73 593d e052 1d3e 7559 3ebd
000001f0: ebf2 3fbd e824 df3d 2c44 c13c 1a39 383c
00000200: e04d 693d e4be 8c3d f3e8 65bc 016d 703c
00000210: 0853 66be 5204 26bd 1174 41bd 5427 2fbd
00000220: 2b14 35bd f5d8 8c3d 9b65 cfbe b28f 083c
00000230: 5d15 353e 8a6c ae3d 58d9 943d 1d5a 933c
00000240: 2d7a 56bc 0ed3 6b3d d515 d9bc 1a9d 0c3e
00000250: 4c22 6d3d 7309 613c 3c3b 673d 4012 7ebc
00000260: 6dd9 783d 4f24 d93c 5050 fdbc 6126 783d
00000270: 9dea 99ba 18d8 083d 9c2e b93d 4a88 41bd
00000280: 7547 36bd 50b7 763d 181a dbbc d731 883d
00000290: 59a4 33bd 15a6 4c3d 3052 54bc b73e 6abb
000002a0: 2594 193e b069 fa3c 3c25 b2bc b30d 6cbc
000002b0: a4fb a03d 2c24 a63c c8b8 9bbc 5b9e 713d
000002c0: 3ee0 3e3d 087d 70bc 0186 c5bc 39b3 b5bc
000002d0: 88ca 6b3c c3f5 093e d61c b03c 54a9 54bb
000002e0: f1d9 89bc 6b87 123d 3f24 3dbe 3fea 02bd
000002f0: 9697 813d 34da b1bc 95dc 853d 376b ba3c
00000300: b1bf 89bc 86c9 b73d a3fb 6bbd da88 a4bd
00000310: 4816 533c 60c7 b03c bdcb 653b 5e45 7ebe
00000320: a038 70bc ea95 573d e1f5 21bd 6117 1f3e
00000330: 6e7f 79bc 29eb 2e3d 40b5 fdbc 4f42 233e
00000340: e01d e1bb 8aa8 03be b15a 963d 4e2d 683b
00000350: 024e 953d e3f3 923d 5152 a63c 5671 c53d
00000360: 478f 4ebe b295 09bd 9610 cfbc 18a1 14be
00000370: ab9d 413d 0be8 2cbd 893c 1fbd 78f3 6cbc
00000380: 4d91 623b b1ad c8bc fa96 2c3c ee0b 9abb
00000390: 5802 513d 46c8 513d ae0e 50bc 9cf1 cabe
000003a0: 9ec6 f53c 47cb ff3d 780d bebc 9573 82be
000003b0: 22ee 1abf b156 843d 9872 be3a 24fc 33bd
000003c0: 4e68 df3c 4a41 92bc fab3 0e3b d996 3ebc
000003d0: c38f 9a3d 2317 963d fda1 07bd 2558 35bd
000003e0: 6005 283d 1e2d b83d 6b92 723d cc84 cd3c
000003f0: 3299 663d e74f fe3d 2c11 99bc fe1b f33b

net.2.bias f4 [256]
-0.053069558 0.046799265 0.046586998 0.034655612 -0.04380992 0.06312865 -0.04921027 0.0054280893
-0.022202063 0.00088195066 0.0040684654 0.0023759638 0.01990953 -0.03823922 0.018234393 0.015031374
-0.044335175 0.010519933 -0.041842237 0.02923821 0.0006139353 -0.017559461 -0.023779705 -0.034131292
0.03584237 0.046643835 -0.021574536 -0.010020221 0.0027958243 -0.05576974 -0.028854197 -0.05223669
-0.00042301603 0.055725355 0.06556752 -0.029631209 -0.023416625 -0.0009405191 -0.053211052 -0.027646815
0.022953065 -0.06375007 0.041945208 0.02222772 -0.014962323 0.05879028 0.06460786 0.046751186
0.044240147 0.056753624 0.025594518 -0.00036186725 0.033893745 -0.016545264 0.033472154 -0.022934206
-0.002780361 -0.04818422 -0.025147181 0.02605213 -0.018951163 0.014375576 -0.038497653 -0.019045401
-0.059128538 0.021128085 0.0347175 -0.04365085 -0.0056801685 -0.033391334 0.031490672 0.029792273
-0.013914738 -0.04957761 -0.00842556 0.047023967 -0.032276407 0.013803558 -0.024964971 0.0017991762
-0.046237268 -0.051054142 -0.049416125 -0.032860402 0.03076454 0.004937979 0.053480394 0.06591364
0.05944212 0.038052987 0.046013262 0.08081288 -0.012085557 -0.024660321 0.014297406 -0.00066533685
-0.027460765 0.034918103 -0.045920733 0.009741773 -0.0131725855 0.012624718 0.04995621 0.021953708
0.03603057 -0.040138554 -0.05471943 0.047164176 -0.026622877 -0.010846257 0.013364666 0.007694637
0.04619375 -0.0017894581 0.01045441 0.055691212 0.05731288 -0.050142627 -0.039139837 -0.04496299
-0.06332868 0.009445872 -0.06411781 0.05127175 0.033103842 -0.0065203384 -0.018017704 -0.021489916
0.025075376 -0.012183391 -0.035914093 -0.010307433 0.062164396 -0.0016741529 0.04038108 0.04271569
0.06410806 -0.042683274 -0.027770406 0.057817396 -0.07374413 0.01655356 0.010194741 -0.0069189104
0.054946885 -0.00029931558 -0.0066530434 0.0446287 0.042595178 -0.05197874 -0.009074466 0.007757447
-0.060446534 0.0069064996 -9.999424e-05 0.038828183 0.02889446 0.022900008 -0.0050302744 -0.045787115
0.00084199343 0.053479653 0.037066482 -0.045971047 0.057271108 -0.007287884 0.041617405 -0.019203521
-0.0024933144 0.057746403 0.009567004 -0.0054328423 0.06598459 0.010612485 -0.0005597965 -0.029939746
-0.036108397 -0.03907448 -0.040098827 -0.031236095 -0.017049871 -0.023798311 -0.056566108 -0.05774018
0.014828266 0.04665006 0.049422655 -0.014755379 0.038920958 -0.038120966 0.001833722 -0.009104362
-0.034674615 -0.03350192 -0.027142888 0.033382744 -0.027830869 -0.0018016696 0.060460012 -0.016660273
0.017463874 -0.027594142 0.05334141 -0.07152831 -0.03837287 -0.012596972 0.05546766 -0.006456608
-0.019747807 -0.025751911 0.0014847382 0.027419163 0.027465373 0.03649214 -0.0016645193 0.022040738
0.06741767 -0.018257154 0.031005936 -0.03189134 -0.06341907 -0.02869656 0.0341614 0.036499646
0.015175543 -0.045512132 0.0091124475 0.029694365 0.05105359 0.052244578 -0.045831114 0.033495985
-0.049209576 -0.053503197 -0.028412977 -0.0029245429 -0.046839632 0.050566994 0.013306205 -0.01238618
-0.005349089 -0.015557467 -0.05705534 0.00576132 -0.028484836 0.050322026 -0.012220007 -0.010692233
-0.050984606 0.020389235 -0.036007464 0.01375425 0.023394648 -0.025720138 0.03869466 0.07649021
00000000: 775f 59bd 96b0 3f3d 02d2 3e3d 0bf3 0d3d
00000010: 0872 33bd 9849 813d b590 49bd 1dde b13b
00000020: 1ae1 b5bc b532 673a c350 853b 0fb6 1b3b
00000030: 5019 a33c baa0 1cbd 4b60 953c 2746 763c
00000040: cd98 35bd cc5b 2c3c c462 2bbd f884 ef3c
00000050: 80f0 203a dcd8 8fbc a8cd c2bc 41cd 0bbd
00000060: 73cf 123d 9b0d 3f3d 15bd b0bc da2b 24bc
00000070: 263a 373b d06e 64bd a35f ecbc 24f6 55bd
00000080: 40c8 ddb9 4540 643d 4448 863d 26bd f2bc
00000090: 39d4 bfbc 2b8d 76ba d5f3 59bd 937b e2bc
000000a0: 1108 bc3c 668f 82bd bdce 2b3d e816 b63c
000000b0: 8824 75bc 14ce 703d 2051 843d 2c7e 3f3d
000000c0: 2835 353d 7d76 683d 98ab d13c 00b9 bdb9
000000d0: 2bd4 0a3d ef89 87bc 191a 093d 84e0 bbbc
000000e0: b836 36bb d15c 45bd 7601 cebc 476b d53c
000000f0: 783f 9bbc 8987 6b3c b7af 1dbd 1a05 9cbc
00000100: c430 72bd ce14 ad3c f033 0e3d 3ccb 32bd
00000110: b520 babb 5ac5 08bd 5dfc 003d ed0e f43c
00000120: a4fa 63bc e411 4bbd 5c0b 0abc 349c 403d
00000130: 4434 04bd 5228 623c 5783 ccbc 56d2 eb3a
00000140: 4a63 3dbd 261e 51bd 9068 4abd a198 06bd
00000150: eb05 fc3c c5ce a13b 420e 5b3d bbfd 863d
00000160: 9579 733d 73dd 1b3d 6778 3c3d 3981 a53d
00000170: 8002 46bc 7104 cabc ab3f 6a3c 006a 2eba
00000180: 66f5 e0bc 4906 0f3d 6117 3cbd f59b 1f3c
00000190: d4d1 57bc e8d7 4e3c e29e 4c3d 43d8 b33c
000001a0: ca94 133d 5368 24bd 7b21 60bd 392f 413d
000001b0: 3818 dabc 80b4 31bc 79f7 5a3c 4b23 fc3b
000001c0: a835 3d3d 408c eaba f948 2b3c 781c 643d
000001d0: e9c0 6a3d 5b62 4dbd 1851 20bd 1d2b 38bd
000001e0: 78b2 81bd dcc2 1a3c 3350 83bd 5402 523d
000001f0: e597 073d 90a8 d5bb dd99 93bc 9f0b b0bc
00000200: e06a cd3c d89c 47bc a81a 13bd 82e0 28bc
00000210: 18a0 7e3d 406f dbba a266 253d a6f6 2e3d
00000220: 164b 833d a8d4 2ebd c37e e3bc efd1 6c3d
00000230: 2a07 97bd 559b 873c d807 273c 07b8 e2bb
00000240: fc0f 613d 75ed 9cb9 c601 dabb 95cc 363d
00000250: 4878 2e3d a9e7 54bd 12ad 14bc 2f32 fe3b
00000260: c996 77bd eb4f e23b 00b4 d1b8 4d0a 1f3d
00000270: 13b4 ec3c cc98 bb3c 00d5 a4bb 458b 3bbd
00000280: 39b9 5c3a 7b0d 5b3d 06d3 173d 234c 3cbd
00000290: 1c95 6a3d 34cf eebb 0377 2a3d b450 9dbc
000002a0: e066 23bb 7e87 6c3d ecbe 1c3c fc05 b2bb
000002b0: ee22 873d fddf 2d3c 4fbf 12ba 3344 f5bc
000002c0: 66e6 13bd 900c 20bd ab3e 24bd d7e2 ffbc
000002d0: 2cac 8bbc adf4 c2bc ddb1 67bd f880 6cbd
000002e0: 41f2 723c 2214 3f3d 696f 4a3d 8cc0 71bc
000002f0: 956b 1f3d bb24 1cbd 8059 f03a 762a 15bc
00000300: f806 0ebd 4f39 09bd c35a debc 58bc 083d
00000310: 90fd e3bc 0026 ecba eba4 773d 207b 88bc
00000320: 6610 8f3c 1c0d e2bc 867c 5a3d 6f7d 92bd
00000330: df2c 1dbd 8863 4ebc 0f32 633d f491 d3bb
00000340: 27c6 a1bc acf5 d2bc 8c9b c23a 279e e03c
00000350: 10ff e03c c878 153d 002c daba c78e b43c
00000360: 4612 8a3d 0790 95bc 2900 fe3c 7ea0 02bd
00000370: dbe1 81bd 0c15 ebbc d3ec 0b3d a780 153d
00000380: d7a2 783c ee6a 3abd 604c 153c 9941 f33c
00000390: 921d 513d 69fe 553d 68b9 3bbd 1633 093d
000003a0: fb8f 49bd 2b26 5bbd 55c2 e8bc b0a9 3fbb
000003b0: eada 3fbd 561f 4f3d 4502 5a3c 68ef 4abc
000003c0: 6947 afbb bfe4 7ebc dcb2 69bd 74c9 bc3b
000003d0: 0859 e9bc 781e 4e3d 6d36 48bc 7a2e 2fbc
000003e0: 3cd5 50bd 5307 a73c 907c 13bd 8159 613c
000003f0: 22a6 bf3c 0ab3 d2bc 4b7e 1e3d e6a6 9c3d

net.4.weight f4 [256, 256]
-0.06094841 0.0173437 -0.056342043 0.007440649 0.02293051 -0.0017793924 -0.03466522 -0.018373758
-0.05724115 -0.0010311306 -0.0155604035 -0.05304665 -0.054362908 -0.033921547 -0.054164134 -0.002753377
-0.054388843 0.038346075 -0.011596188 -0.041280687 -0.022302583 -0.008425161 0.029163301 -0.0019964054
-0.032912083 0.012616776 0.017340422 -0.021717131 0.016387083 0.040831186 -0.0021990612 -0.057217203
-0.04943323 0.030719638 -0.022235043 -0.023413248 0.00378865 0.03607752 -0.05833602 -0.051783442
0.036662675 -0.041089028 -0.033855423 -0.01232104 -0.03830404 0.054024108 -0.008151688 -0.0067884997
-0.03917007 0.006190695 0.04930585 -0.017760769 0.057911918 -0.011179157 -0.046822816 0.02564422
-0.018734448 -0.021374218 0.011509933 0.016645215 0.009964794 0.00553561 0.0029643774 -0.015421264
-0.0017552674 0.031000406 -0.023883611 0.029076435 -0.014693059 -0.058551036 0.043407373 0.006210901
-0.058513463 -0.059524477 0.0011998117 -0.00023727119 -0.061933316 -0.0040276796 0.02492214 -0.00560271
-0.04919339 0.048419192 -0.018724822 0.0315374 -0.0024170429 -0.042731516 0.03640385 -0.028507195
-0.035397984 -0.04877261 -0.012153454 -0.027321212 -0.052348882 -0.05453755 0.053817578 -0.0036340952
0.018803306 -0.0053996667 0.05308889 0.025011927 0.01696156 0.0029905587 0.03913971 -0.02431529
-0.028573789 -0.016136274 -0.044923417 0.015551142 0.031723194 0.054901935 0.02902732 -0.012163974
-0.022223055 0.054963417 -0.026621588 -0.04263118 -0.052738406 -0.020582467 -0.062479645 0.024185687
0.014901787 0.033850156 -0.054254346 -0.043279365 -0.0048784018 -0.04279363 0.010072552 0.019226916
-0.029495262 -0.02750253 -0.017090589 -0.060719118 0.0029535815 -0.012310602 -0.036320515 0.048845313
-0.045589834 0.012026109 0.060386196 0.0004929602 -0.018753618 0.008196428 0.057590105 0.02699364
-0.0028136075 0.0075296685 -0.048421547 0.0015524477 0.060930282 0.0017113611 -0.03589216 -0.018919155
-0.035493836 0.02145861 -0.04726688 -0.034349836 0.0031022877 -0.032648347 -0.037664525 -0.05286724
-0.041777767 0.015792765 0.019171022 0.03365439 -0.0091109425 -0.0025287345 0.04419761 -0.0108214915
-0.03350991 0.0037107244 -0.00602524 0.02002228 -0.019648716 -0.04246343 -0.0022349432 0.048570998
-0.02682107 -0.0036560968 -0.061749578 0.05804731 0.027240202 -0.045523375 0.009402379 -0.04292769
-0.014861718 0.023580968 0.05270832 0.009693824 0.034759797 0.021755151 -0.026172847 0.048220485
-0.029567562 0.01697427 -0.026622303 0.04114218 0.056492336 0.024649464 -0.047215216 0.046896122
-0.050684094 0.022348948 -0.061296783 -0.04992725 0.04039964 -0.015142664 0.024827525 0.033221737
0.008984767 -0.008360803 -0.050801955 -0.052059323 -0.016747147 -0.024371378 -0.03168621 -0.001134105
-0.016156763 -0.020612463 0.031329915 -0.042592183 -0.015599348 0.028947882 -0.035263136 -0.05452586
0.029493526 -0.046141222 0.01663772 -0.055203885 -0.0066633075 0.014397584 0.007377945 -0.056198567
-0.033661857 -0.06189815 -0.019249067 -0.022995286 0.034435272 0.043723904 -0.028645463 0.04164675
0.011949897 -0.0454477 -0.061794825 0.014633119 0.0055044144 -0.024447173 -0.0001988262 -0.023954868
0.040218003 0.055158168 -0.012625217 -0.020837784 0.03034325 0.007640332 -0.012251079 0.010540523
00000000: 0aa5 79bd 6014 8e3c eac6 66bd b0d0 f33b
00000010: c4d8 bb3c 803a e9ba 1efd 0dbd 9084 96bc
00000020: b275 6abd 0027 87ba 10f1 7ebc 7247 59bd
00000030: a4ab 5ebd 52f1 0abd 36db 5dbd 0072 34bb
00000040: d6c6 5ebd c610 1d3d f0fd 3dbc f015 29bd
00000050: e8b3 b6bc b009 0abc e0e7 ee3c 20d6 02bb
00000060: d2ce 06bd 98b6 4e3c 800d 8e3c 20e8 b1bc
00000070: 343e 863c 9a3e 273d 201e 10bb 965c 6abd
00000080: 807a 4abd c0a7 fb3c 4426 b6bc 24cd bfbc
00000090: 004b 783b 06c6 133d c0f1 6ebd e01a 54bd
000000a0: 9a2b 163d f84c 28bd fcab 0abd 30de 49bc
000000b0: b2e4 1cbd 6248 5d3d a88e 05bc 1072 debb
000000c0: cc70 20bd 50db ca3b eef4 493d 087f 91bc
000000d0: 0c35 6d3d c828 37bc 48c9 3fbd d413 d23c
000000e0: fc78 99bc fc18 afbc 2894 3c3c 8c5b 883c
000000f0: 6043 233c 1064 b53b 0046 423b 78a9 7cbc
00000100: 0011 e6ba 90f4 fd3c 90a7 c3bc b431 ee3c
00000110: 28bb 70bc 36d3 6fbd eecb 313d d084 cb3b
00000120: d0ab 6fbd f0cf 73bd 0043 9d3a 00cc 78b9
00000130: caad 7dbd a0fa 83bb 8429 cc3c f096 b7bb
00000140: 027f 49bd 3453 463d cc64 99bc 5c2d 013d
00000150: 4067 1ebb 3e07 2fbd 341c 153d ec87 e9bc
00000160: 7afd 10bd cac5 47bd 481f 47bc bcd0 dfbc
00000170: c86b 56bd c462 5fbd d26f 5c3d 002a 6ebb
00000180: 6409 9a3c b0ef b0bb bc73 593d d0e5 cc3c
00000190: f8f2 8a3c 40fd 433b f650 203d dc30 c7bc
000001a0: 9413 eabc 3830 84bc 9e01 38bd 38ca 7e3c
000001b0: 2ef0 013d dae0 603d b4ca ed3c 684b 47bc
000001c0: 200d b6bc 5221 613d 8415 dabc 089e 2ebd
000001d0: 3a04 58bd 909c a8bc a8ea 7fbd 1021 c63c
000001e0: a026 743c 76a6 0a3d ce39 5ebd b445 31bd
000001f0: 00db 9fbb 6048 2fbd 5807 253c c481 9d3c
00000200: 0ca0 f1bc fc4c e1bc 9001 8cbc 9cb4 78bd
00000210: e090 413b 68b2 49bc d2c4 14bd 0612 483d
00000220: 68bc 3abd 2809 453c 8457 773d 003a 013a
00000230: 30a1 99bc 504a 063c 9ae3 6b3d c421 dd3c
00000240: 8064 38bb 70bb f63b ac55 46bd 807b cb3a
00000250: 0892 793d c04f e03a a803 13bd 58fc 9abc
00000260: fc61 11bd f8c9 af3c ea9a 41bd 6ab2 0cbd
00000270: c04f 4b3b 46ba 05bd 1e46 1abd 528b 58bd
00000280: 2a1f 2bbd d45f 813c 8c0c 9d3c 30d9 093d
00000290: 1046 15bc 20b9 25bb 8e08 353d a04c 31bc
000002a0: b041 09bd a02f 733b 606f c5bb c405 a43c
000002b0: 58f6 a0bc 22ee 2dbd 2078 12bb 62f2 463d
000002c0: dcb7 dbbc 209b 6fbb 20ed 7cbd 04c3 6d3d
000002d0: d826 df3c b876 3abd 700c 1a3c f2d4 2fbd
000002e0: 907e 73bc e02c c13c aee4 573d d8d2 1e3c
000002f0: 4a60 0e3d dc37 b23c 7068 d6bc d882 453d
00000300: ac37 f2bc a00d 8b3c 0417 dabc b484 283d
00000310: 8264 673d aced c93c be64 41bd 2616 403d
00000320: 209a 4fbd 2415 b73c 5612 7bbd 8480 4cbd
00000330: 187a 253d f018 78bc 1863 cb3c 8413 083d
00000340: d834 133c c0fb 08bc b615 50bd 283c 55bd
00000350: 5031 89bc 7ca6 c7bc 66c9 01bd 40a6 94ba
00000360: 305b 84bc 78db a8bc cc53 003d 2475 2ebd
00000370: 6894 7fbc 1c24 ed3c 1470 10bd 8256 5fbd
00000380: 689c f13c 94fe 3cbd d44b 883c 781d 62bd
00000390: e057 dabb d8e3 6b3c b0c2 f13b 7830 66bd
000003a0: 04e1 09bd ea88 7dbd 38b0 9dbc 9c60 bcbc
000003b0: 000c 0d3d d617 333d e4a9 eabc c895 2a3d
000003c0: 80c9 433c 5e27 3abd 921c 7dbd c0bf 6f3c
000003d0: 605e b43b 7045 c8bc 007c 50b9 003d c4bc
000003e0: a2bb 243d 88ed 613d 00da 4ebc 00b4 aabc
000003f0: 6892 f83c c05b fa3b c0b8 48bc 28b2 2c3c

net.4.bias f4 [256]
0.017161109 -0.032912716 -0.0038042618 0.05093611 0.017977124 0.08299391 -0.0039255586 0.029635135
-0.05865395 -0.049320634 0.038541596 -0.008668249 0.084523864 -0.0014487912 -0.0042205337 -0.07236393
-0.028617963 0.011634918 0.035463694 0.021759175 -0.020214824 -0.015320555 -0.018813599 0.03858829
-0.0069473074 0.0019275632 0.07113901 -0.0236208 0.05518265 -0.01207999 -0.05022779 0.038550448
0.04040629 -0.049050584 -0.009482936 0.050458845 -0.0035939638 -0.043700013 -0.037645675 0.030859848
0.03977829 -0.05054172 -0.0015860099 0.00856623 -0.04364217 0.055232022 0.028380333 0.018046265
-0.029220564 0.0475373 -0.035810173 0.02661039 -0.073224396 0.007257804 -0.01999984 0.048874643
-0.032504067 0.011245033 -0.051333256 -0.041583996 -0.027437162 -0.01965296 -0.075023234 0.04021518
0.009354924 -0.016423522 0.009064437 0.093126506 -0.055051636 0.026262501 -0.021631073 -0.045301277
0.052761864 -0.043150403 -0.013550066 -0.013805719 0.034171592 0.017914074 -0.027683057 0.0019156992
0.03971687 0.032809306 0.0604249 0.026523262 -0.048654947 0.036415562 0.03165312 0.055467825
-0.0547398 -0.06389348 -0.0373283 -0.037004188 0.011696995 -0.0020361203 -0.0115154805 0.051471125
0.014033273 0.042287946 0.033046965 -0.014360478 -0.00721328 0.023535788 -0.018910294 0.06362162
0.021071577 -0.017705698 0.07459501 -0.08133038 0.028289631 0.061777942 -0.018493157 -0.055164628
0.03720926 0.07382323 0.011006228 0.045782946 0.083593145 0.031261235 0.012857494 -0.017606929
-0.0032144936 -0.04336603 0.062697165 -0.05999292 0.004772804 0.00725695 0.013470345 0.041044127
-0.008707113 -0.050511103 0.045730736 -0.0013317888 0.036646508 -0.07873936 -0.020430531 0.06921691
0.07675075 -0.03101168 0.0068781856 0.037989296 0.04951063 0.035401087 -0.008318746 -0.014948453
0.019700328 -0.052576944 0.016685965 -0.07258972 -0.02715732 0.024838608 0.07013398 -0.04739923
-0.045093708 -0.03037007 -0.018494947 0.051212437 0.019687703 -0.08131761 0.053444255 0.041016527
-0.0037323153 -0.073775396 -0.0019018193 0.03732202 -0.011083705 -0.013710777 -0.064224824 -0.05140641
-0.021372782 0.03606706 0.071628846 0.008089346 -0.040718567 -0.061782464 -0.035055988 -0.045789614
0.025995111 0.03160481 -0.0356281 0.016117208 0.030619945 0.008201589 -0.00577198 -0.056280006
0.041170627 0.0031371333 -0.04398882 0.063510045 0.06637549 0.0014636732 -0.0026287343 0.058605436
0.06830822 -0.05044893 -0.019162588 0.030141197 -0.047092617 -0.05023737 -0.007370327 -0.013026956
-0.032910645 -0.058341496 0.054227795 -0.0046498496 0.018847918 0.035401646 0.03861278 -0.008999064
-0.0026026557 0.020928478 0.042482153 -0.004333129 0.020617383 -0.011594257 -0.04257395 -0.0094989585
0.026270058 -0.0059623574 -0.007147321 -0.034952518 0.009205088 -0.054247044 -0.020610746 -0.0069113337
0.03985758 -0.056268852 0.016596831 -0.026171042 0.008424835 -0.021629538 -0.0068334346 -0.02098368
-0.0058808275 -0.031108867 -0.010264744 0.01664185 -0.06065742 0.066250816 0.07303317 -0.052799124
-0.04855508 0.0045116064 0.04972941 -0.040820766 -0.05650065 0.018916858 0.050865848 -0.026076762
0.008861368 -0.010992003 -0.028630069 0.040424254 -0.008123636 -0.01604715 0.045642674 -0.018529821
00000000: 7495 8c3c 7ccf 06bd ec50 79bb 62a2 503d
00000010: c344 933c b6f8 a93d f9a1 80bb 62c5 f23c
00000020: 203f 70bd 6f04 4abd cbdd 1d3d 4505 0ebc
00000030: d91a ad3d 5ee5 bdba 674c 8abb 8a33 94bd
00000040: 3870 eabc 62a0 3e3c 6142 113d 4c40 b23c
00000050: 8f99 a5bc 1103 7bbc fa1e 9abc c10e 1e3d
00000060: 3da6 e3bb 4aa6 fc3a 54b1 913d 6880 c1bc
00000070: 3407 623d 26eb 45bc a8bb 4dbd 13e7 1d3d
00000080: 1181 253d 44e9 48bd 515e 1bbc efad 4e3d
00000090: b588 6bbb c9fe 32bd 5a32 1abd cbcd fc3c
000000a0: 8fee 223d d604 4fbd a9e1 cfba 5f59 0c3c
000000b0: 22c2 32bd f93a 623d df7d e83c c3d5 933c
000000c0: f75f efbc 79b6 423d b0ad 12bd 08fe d93c
000000d0: acf6 95bd dfd2 ed3b b4d6 a3bc c730 483d
000000e0: fc22 05bd 163d 383c d242 52bd fb53 2abd
000000f0: e6c3 e0bc 3fff a0bc c8a5 99bd acb8 243d
00000100: 6545 193c 9f8a 86bc 0183 143c 1cb9 be3d
00000110: d37d 61bd 7524 d73c a633 b1bc d58d 39bd
00000120: d31c 583d 7abe 30bd 1901 5ebc 6231 62bc
00000130: 83f7 0b3d 89c0 923c 94c7 e2bc 3318 fb3a
00000140: 28ae 223d 0d63 063d 1a80 773d 5047 d93c
00000150: 694a 47bd 7c28 153d b4a6 013d 3b32 633d
00000160: d736 60bd 96da 82bd 8fe5 18bd b491 17bd
00000170: c1a4 3f3c 6e70 05bb 6dab 3cbc 63d3 523d
00000180: d0eb 653c 2036 2d3d 415c 073d 3648 6bbc
00000190: 615d ecbb 20ce c03c c3e9 9abc 0d4c 823d
000001a0: 4d9e ac3c 8a0b 91bc 45c5 983d 8b90 a6bd
000001b0: a8bf e73c de0a 7d3d f67e 97bc 4ef4 61bd
000001c0: bd68 183d a230 973d 7753 343c e686 3b3d
000001d0: e232 ab3d c80b 003d 3da8 523c 683c 90bc
000001e0: 41aa 52bb 94a0 31bd 5f67 803d 23bb 75bd
000001f0: 2f65 9c3b b5cb ed3b b9b2 5c3c e31d 283d
00000200: 47a8 0ebc bbe4 4ebd 2750 3b3d 6b8f aeba
00000210: a61a 163d 1a42 a1bd ee5d a7bc 98c1 8d3d
00000220: 7f2f 9d3d 350c febc 6762 e13b aa9a 1b3d
00000230: a9cb 4a3d bb00 113d 5a4b 08bc 5bea 74bc
00000240: 9562 a13c ec5a 57bd 01b1 883c eba9 94bd
00000250: 0779 debc 567a cb3c 67a2 8f3d b225 42bd
00000260: 2eb4 38bd a7ca f8bc b782 97bc 22c4 513d
00000270: 1b48 a13c d989 a6bd 5de8 5a3d f200 283d
00000280: dc99 74bb 8e17 97bd 7746 f9ba f9de 183d
00000290: 6e98 35bc 2ba3 60bc 4e88 83bd 878f 52bd
000002a0: f915 afbc 0ebb 133d 25b2 923d 2d89 043c
000002b0: 83c8 26bd 9c0f 7dbd de96 0fbd e48d 3bbd
000002c0: b3f3 d43c 0c74 013d c5ee 11bd 3c08 843c
000002d0: aed6 fa3c f55f 063c e122 bdbb dd85 66bd
000002e0: 88a2 283d 5d98 4d3b 9f2d 34bd 8e11 823d
000002f0: dfef 873d b9d8 bf3a d846 2cbb 410c 703d
00000300: 2ee5 8b3d 8aa3 4ebd dcfa 9cbc acea f63c
00000310: 30e4 40bd b3c5 4dbd c982 f1bb 036f 55bc
00000320: 50cd 06bd 7ef7 6ebd f71d 5e3d c45d 98bb
00000330: f366 9a3c 5101 113d 6f28 1e3d cf70 13bc
00000340: 5191 2abb 3372 ab3c c401 2e3d ecfc 8dbb
00000350: c9e5 a83c d7f5 3dbc 0662 2ebd 85a1 1bbc
00000360: 4e34 d73c e15f c3bb 1334 eabb 5f2a 0fbd
00000370: f0d0 163c 2632 5ebd ded7 a8bc 7878 e2bb
00000380: b441 233d 2b7a 66bd 14f6 873c a764 d6bc
00000390: 5208 0a3c 6e30 b1bc 01eb dfbb f7e5 abbc
000003a0: f5b3 c0bb 06d8 febc 752d 28bc 7d54 883c
000003b0: ea73 78bd 82ae 873d 6a92 953d e543 58bd
000003c0: b1e1 46bd 19d6 933b 11b1 4b3d ad33 27bd
000003d0: 3a6d 67bd 87f7 9a3c b558 503d ef9e d5bc
000003e0: 452f 113c cd17 34bc 9b89 eabc e793 253d
000003f0: 0019 05bc 5075 83bc d0f3 3a3d dacb 97bc

net.6.weight f4 [7, 256]
0.03343235 0.017997013 0.022314738 -0.015568309 0.06662049 0.046204105 0.031191792 0.020541364
0.029852614 -0.025459457 -0.024982039 -0.023127109 0.038552467 0.07868912 -0.0071388166 -0.02176034
0.0583193 0.020818414 -0.013295741 -0.020193765 -0.15222384 0.015737835 0.00029705543 0.047960177
0.019329794 -0.033878766 0.004342927 0.03257201 0.19606921 0.058508594 -0.019407703 -0.0476045
0.015081762 -0.008102606 -0.015726412 0.06386679 0.05782573 -0.21358076 -0.04693398 0.018941838
-0.0038021014 0.0131342625 -0.008531352 -0.07174632 -0.0463005 0.022959283 -0.022559233 -0.03946132
-0.00074498256 -0.008821448 -0.0044224528 0.01667735 0.018723045 0.03344581 0.024595961 0.122519866
-0.048880808 0.021557553 -0.031747077 0.03027786 -0.011158537 0.04316677 -0.0021973893 -0.037481803
0.013614037 0.019832077 -0.003707855 0.030614296 -0.054925106 0.042084903 -0.008841729 0.015774293
0.019958222 -0.0020542487 0.059047528 0.053265 -0.010430801 -0.051054403 -0.034386504 -0.021459948
0.024757937 0.05208447 -0.0566213 0.056827668 0.039148558 0.061453674 -0.055704456 -0.04909125
-0.023169113 0.00849175 0.025118371 0.03240906 0.06213461 0.06082054 -0.02065326 0.0111656375
-0.016726963 -0.013385211 -0.009099383 0.035094593 0.015265103 -0.04126927 -0.0036925268 0.03849216
-0.02348317 0.0096246 -0.017552458 0.24736255 0.034180712 0.1822887 0.0026536046 0.038798317
-0.0036751258 0.0370575 0.043116666 0.027749762 -0.0018201235 0.032646857 0.0054902663 0.026961427
0.06613439 -0.049150553 -0.03875452 -0.015973603 0.0047545424 0.009148688 -0.02270983 0.050679967
-0.03820745 0.01928935 -0.21097307 0.023845334 0.0028024851 0.09557637 -0.044596136 0.023246024
0.025210837 0.003029614 -0.027966753 -0.12830342 0.042353548 -0.0053144326 -0.039278943 -0.017098378
0.026757222 0.04033121 -0.01984249 0.037389863 0.042354546 0.06613674 -0.008643905 -0.061067395
0.03394131 0.04500153 -0.030851955 0.002953236 -0.006642963 -0.115011156 -0.006611983 0.04269134
-0.030221485 0.036039874 -0.0010752181 -0.04069453 0.026037693 0.039016884 0.016389301 -0.07798416
0.0011807226 0.026341664 0.0002360276 -0.034875356 -0.025727624 -0.013145704 0.027255742 -0.0290761
-0.056882877 0.0176041 0.031076053 0.012989785 0.0104131205 0.044810724 0.033594634 0.0050315834
0.060497213 0.048746575 -0.035418555 0.03555851 -0.01853096 0.11574435 -0.00053732493 0.053541284
0.2332784 -0.038256466 -0.04533736 -0.044875335 0.06282153 -0.040382583 0.08857546 -0.048557702
0.09506665 0.05313174 0.028361209 -0.03448729 -0.0035289791 -0.025116015 -0.0047420394 -0.02476388
0.006102951 0.03479389 -0.0070073674 -0.010939156 0.036389466 0.024819205 -0.03525462 0.059649862
0.050441995 -0.057066265 0.016590226 -0.10239702 0.099234834 -0.00042102108 0.025889067 0.0032716072
0.06993172 0.0005290638 0.015512823 0.031684328 0.049320307 0.21765557 -0.011801597 -0.024564484
-0.030313272 -0.058149982 0.014686006 -0.05079276 -0.014791227 0.045585766 0.038462605 -0.032734465
-0.023044297 0.0018420122 -0.0039579966 0.05393305 -0.042602673 0.039600935 0.08001734 0.009950848
0.015775036 0.046452183 0.026941422 -0.016582282 0.012034402 0.05857081 0.03054165 0.04532806
00000000: 5cf0 083d 796e 933c 66cd b63c 3912 7fbc
00000010: 5370 883d 8440 3d3d ee85 ff3c 5d46 a83c
00000020: 788d f43c 5a90 d0bc 22a7 ccbc 1075 bdbc
00000030: 31e9 1d3d c327 a13d bcec e9bb be42 b2bc
00000040: 38e0 6e3d 618b aa3c 61d6 59bc 656d a5bc
00000050: 91e0 1bbe a2ec 803c 1bbe 9b39 e471 443d
00000060: 8459 9e3c 76c4 0abd 1d4f 8e3b 3a6a 053d
00000070: 5ec6 483e b5a6 6f3d e7fc 9ebc f0fc 42bd
00000080: 7f19 773c cbc0 04bc add4 80bc 97cc 823d
00000090: acda 6c3d eab4 5abe d83d 40bd ea2b 9b3c
000000a0: ad2c 79bb 1731 573c 15c7 0bbc bcef 92bd
000000b0: 98a5 3dbd 1b15 bc3c 24ce b8bc 31a2 21bd
000000c0: ef4a 43ba d687 10bc 39ea 90bb f09e 883c
000000d0: 1261 993c 79fe 083d 787d c93c b2eb fa3d
000000e0: 3e37 48bd 7799 b03c 3909 02bd 4609 f83c
000000f0: 4cd2 36bc a4cf 303d 1302 10bb 8586 19bd
00000100: 690d 5f3c e176 a23c 7cff 72bb d5ca fa3c
00000110: 26f9 60bd 3861 2c3d e6dc 10bc 1739 813c
00000120: 6d7f a33c 93a0 06bb d2db 713d 672c 5a3d
00000130: f3e5 2abc 6c1e 51bd ddd8 0cbd c6cc afbc
00000140: 28d1 ca3c 8656 553d bceb 67bd 21c4 683d
00000150: 3d5a 203d d9b6 7b3d 5b2a 64bd e813 49bd
00000160: 27cd bdbc fb20 0b3c 0bc5 cd3c 5dbf 043d
00000170: dc80 7e3d f51e 793d 0731 a9bc 14f0 363c
00000180: fc06 89bc a54d 5bbc 9415 15bc 59bf 0f3d
00000190: 7c1a 7a3c f709 29bd 52fe 71bb f5a9 1d3d
000001a0: c75f c0bc 80b0 1d3c 2cca 8fbc 9c4c 7d3e
000001b0: 1301 0c3d e4a9 3a3e 19e8 2d3b fcea 1e3d
000001c0: 61da 70bb 9bc9 173d 1a9b 303d 7853 e33c
000001d0: 3691 eeba b6b8 053d b1e7 b33b 36de dc3c
000001e0: 7871 873d 1752 49bd 0fbd 1ebd 13db 82bc
000001f0: fecb 9b3b 61e4 153c f709 babc cc95 4f3d
00000200: 6a7f 1cbd b304 9e3c 5309 58be 4a57 c33c
00000210: e6a9 373b 8bbd c33d 70aa 36bd 726e be3c
00000220: f586 ce3c 7d8c 463b 881a e5bc f961 03be
00000230: ea7a 2d3d b124 aebb f5e2 20bd e611 8cbc
00000240: f631 db3c 5732 253d b88c a2bc 1d26 193d
00000250: f67b 2d3d b372 873d 2a9f 0dbc ce21 7abd
00000260: 0b06 0b3d 8653 383d 3dbd fcbc 148b 413b
00000270: 36ad d9bb f88a ebbd 55a9 d8bb 1ddd 2e3d
00000280: 0c93 f7bc 8c9e 133d 55ee 8cba 4faf 26bd
00000290: 004d d53c 2bd0 1f3d db42 863c 29b6 9fbd
000002a0: 7ac2 9a3a 79ca d73c 2d7e 7739 76d9 0ebd
000002b0: bdc2 d2bc 1461 57bc 6f47 df3c 0031 eebc
000002c0: 05fe 68bd 7936 903c 3593 fe3c 1bd3 543c
000002d0: cb9b 2a3c 738b 373d 879a 093d fbdf a43b
000002e0: edcb 773d 7daa 473d 0c13 11bd cda5 113d
000002f0: 3dce 97bc 600b ed3d 44db 0cba 1b4e 5b3d
00000300: 88e0 6e3e d0b2 1cbd abb3 39bd 33cf 37bd
00000310: 93a8 803d 3568 25bd 0d67 b53d 71e4 46bd
00000320: 4eb2 c23d aba0 593d c455 e83c 8b42 0dbd
00000330: 7246 67bb 1ac0 cdbc 1c63 9bbb 9fdd cabc
00000340: 43fb c73b 0a84 0e3d 0f9e e5bb 253a 33bc
00000350: 1f0d 153d a551 cb3c 2667 10bd 6a53 743d
00000360: 449c 4e3d 51be 69bd 3ae8 873c 87b5 d1bd
00000370: a23b cb3d 7ebc dcb9 4f15 d43c 7668 563b
00000380: 5d38 8f3d dfb0 0a3a 7f29 7e3c 6dc7 013d
00000390: 1704 4a3d 1ae1 5e3e 7c5b 41bc 753b c9bc
000003a0: 8a53 f8bc ad2e 6ebd 939d 703c 120c 50bd
000003b0: e756 72bc 24b8 3a3d f78a 1d3d 9314 06bd
000003c0: 65c7 bcbc ac6f f13a 15b2 81bb e7e8 5c3d
000003d0: 2480 2ebd 9734 223d 22e0 a33d e208 233c
000003e0: a63a 813c a544 3e3d 42b4 dc3c 91d7 87bc
000003f0: f12b 453c f2e7 6f3d 7b32 fa3c eaa9 393d

net.6.bias f4 [7]
0.04099092 0.02631308 -0.1689357 0.02847778 -0.020708963 0.01871884 -0.013972466
00000000: 18e6 273d 878e d73c 7bfd 2cbe 3c4a e93c
00000010: d8a5 a9bc 4158 993c c5ec 64bc
