preTrained/GAIL_pretrained_6200_discriminator.pth (torch, 542340 bytes, 7 tensors)

net.0.weight f4 [256, 10]
000000 c7 2f ce be 0b e2 90 bd c6 5c a8 3c 86 a0 76 3e
       -0.40270826 -0.07074364 0.02055205 0.24084672
000010 51 fd 3e be f7 d9 83 3e ec 84 0c 3b 9f a4 85 be
       -0.1865132 0.2575223 0.0021441532 -0.26102158
000020 eb de 25 3e c7 f8 0a 3e fd a8 67 be 37 26 9c 3e
       0.16198318 0.13571464 -0.22623058 0.30497906
000030 f6 ba 8e be ee 84 96 3e 99 8a 6b be d3 90 14 be
       -0.27877015 0.29398292 -0.2300209 -0.14508371
000040 54 f3 d3 3d 0a 99 87 bd 7f fd 9f be 80 18 24 3e
       0.103491455 -0.06620987 -0.3124809 0.16024971
000050 28 92 d2 bd 51 16 e8 be f9 f0 e2 be 87 a8 b5 be
       -0.10281783 -0.45329526 -0.44324473 -0.3548014
000060 dd a8 7c be fe 87 dc bd 07 3b 1b be 4c e0 f1 bc
       -0.24673791 -0.10768126 -0.15159236 -0.029525898
000070 45 77 ee 3d 21 ba 5e 3e 70 e9 1a 3e 1c f5 5c 3e
       0.116438426 0.2175069 0.15128112 0.21577877
000080 0f a6 93 3e 5c 5b 78 be 2c 83 48 bd 4e ac 9c 3e
       0.2883763 -0.24253601 -0.04895322 0.30600208
000090 35 02 5e be a3 88 06 be 6d 39 46 be d8 5d 1c 3e
       -0.2168053 -0.1313806 -0.19357844 0.15270174
0000a0 da 92 4b be d7 ca 94 be c2 7c 09 3e 97 d4 d1 3d
       -0.19880238 -0.29061005 0.13426498 0.102456264
0000b0 8f b0 52 be db 20 b2 3d bc 66 a0 bd 57 3f ae be
       -0.20575164 0.08697673 -0.07832095 -0.340327
0000c0 cc 1c bd 3a 8b 1e 96 3e ab a6 82 be 1b 4d 84 3b
       0.0014428138 0.29320177 -0.25517783 0.004037512
0000d0 6c b1 a2 be 6d 61 96 be be fc 57 3e 4b c6 08 be
       -0.31775987 -0.29371205 0.21092507 -0.13356893
0000e0 e0 8f 99 3e 6b b1 b8 bc b6 06 b1 bd 50 e2 5a 3d
       0.2999258 -0.022545537 -0.08643858 0.053438485
0000f0 79 96 03 bf 12 e7 c1 be 2c e1 7f 3c d1 47 ec 3b
       -0.5140148 -0.37871605 0.01561765 0.0072107096
000100 93 80 de 3d bd e6 35 be 66 73 b0 3e 68 ab 6b 3e
       0.10864367 -0.17763801 0.34463042 0.23014605
000110 5c a7 f0 bc 05 88 e6 bc f6 e1 b9 be 61 90 18 bf
       -0.029376678 -0.028141031 -0.36305207 -0.59595305
000120 d6 71 a6 3e db c4 99 3d db 9f 5b 3e 79 4c 32 3e
       0.32508725 0.0750825 0.21447699 0.17411985
000130 36 0b 21 3e 28 ef 6d 3e ae ec 19 be c0 a3 a4 3d
       0.15726933 0.23235762 -0.15031692 0.08039045
000140 b8 d7 04 3e 51 68 46 be 93 0b 46 3d 9e f6 df bd
       0.12972915 -0.19375731 0.04835088 -0.1093571
000150 01 7e cf 3d 48 66 80 bd cd 82 56 bc 4e f9 a3 bd
       0.10131455 -0.062695086 -0.013092709 -0.080065355
000160 ed b8 33 bd fa 35 73 be d6 70 4f bd db eb 5a be
       -0.04387753 -0.23751059 -0.050644718 -0.21379034
000170 5a bf 17 3e c8 ff 2e be f7 da 65 3e 41 46 d3 3e
       0.14819089 -0.1708976 0.2244681 0.41264537
000180 03 c6 35 3e e5 0a 4d 3e d1 24 88 3e f0 58 d8 bd
       0.17751317 0.20023687 0.2659059 -0.105638385
000190 2f 73 2c 3e cb e4 38 3f 26 b0 5f 3e 7d b6 9c 3b
       0.16840814 0.7222411 0.21844539 0.0047824965
0001a0 ec 84 76 3e 8e 8e b6 3e e7 53 da 3d 11 18 99 bd
       0.24074143 0.35655636 0.10660534 -0.074752934
0001b0 97 27 d3 bd 95 d0 55 be f7 10 30 3e 06 57 fc be
       -0.103102855 -0.20880349 0.17193972 -0.49285144
0001c0 43 04 30 be 0c 7b 8f be 2a c3 48 3d d5 8a bd be
       -0.17189126 -0.28023565 0.049014248 -0.37019983
0001d0 73 fb cd 3b 76 5a f0 3d 13 3d ad 3d 41 1f 8e 3d
       0.0062860786 0.11736004 0.084589146 0.06939555
0001e0 25 03 74 3e b4 5a 24 be 6c 9c 56 be f7 7d 72 be
       0.23829325 -0.16050225 -0.20958108 -0.23680864
0001f0 cb ef 8c be bb ae 81 be bf 3d f0 bd 2d 57 a5 be
       -0.27526698 -0.2532862 -0.11730527 -0.32293072
000200 e7 57 ba bd f7 f3 a7 3e a8 0c 7c bd a8 e8 b6 3e
       -0.09098797 0.32803318 -0.061535507 0.35724378
000210 f3 ff 4e be 4c 1e 68 3e 06 15 31 be d7 f1 80 bd
       -0.20214824 0.22667807 -0.17293176 -0.06296127
000220 b2 06 3a 3e 59 dd ac 3d 5a 53 2d 3e f3 36 fd 3d
       0.18166617 0.08440656 0.16926327 0.12363996
000230 db 39 3c 3e 55 88 8d 3c 7d 50 7b 3e 6a ab 97 be
       0.18381445 0.017276922 0.24542423 -0.29622966
000240 40 16 06 be f3 54 43 be 6a 4d aa bd 4b bb 44 3e
       -0.13094425 -0.19075374 -0.08315547 0.19212072
000250 b9 d3 1f 3e 45 99 8c 3e 27 95 51 bd 4c f9 b3 be
       0.1560811 0.27460685 -0.051167633 -0.35151136
000260 8e 5d 84 3e 96 9e a5 3d 2e 66 b9 3d 2f 17 d5 3e
       0.25852627 0.080868885 0.09052692 0.4161925
000270 b9 a8 1c be a6 00 6b 3d 6b 52 54 bd 6a 6b bd 3d
       -0.15298738 0.057373665 -0.051836412 0.09249003
000280 f4 3c 70 3e 93 1e 8b be 71 60 36 bd e0 e2 8a 3e
       0.23460752 -0.27171764 -0.044525567 0.27126217
000290 2c 58 67 be 8d fe f8 3d cf 35 1a be 0e 2b 85 be
       -0.22592229 0.12157927 -0.15059589 -0.2600941
0002a0 2d b0 9e be fc 2f 80 3e d3 ef 13 3d 58 27 c9 3e
       -0.30993786 0.2503661 0.036117386 0.3928783
0002b0 90 db 9a be b0 1b 04 3e b7 f9 84 3e 9b fb 34 bd
       -0.30245638 0.12901187 0.25971767 -0.044185262
0002c0 3a eb ce 3d f4 ef 3e be 17 03 90 be 9f 73 62 be
       0.1010346 -0.18646222 -0.28127357 -0.22114418
0002d0 df e1 33 3e c0 bb 6b 3c 7e 4b b3 bc 29 d2 95 bd
       0.17566632 0.014388025 -0.021886583 -0.073154755
0002e0 df 8f 10 3b 59 d2 0b 3e 2a b8 5c 3e 83 0c 12 3e
       0.002205841 0.1365446 0.21554628 0.14262585
0002f0 4a 4e ec 3d b5 31 2c 3e dd 5f 32 be 07 a7 26 bf
       0.1153837 0.16815837 -0.17419381 -0.65098614
000300 e1 5b 9a 3e 04 bb 04 be 82 7e 00 be b2 ac 81 bd
       0.30148223 -0.12961966 -0.12548259 -0.06331767
000310 51 ca a3 bd ac a3 a9 3e 70 6d 19 3e 34 09 26 3e
       -0.07997573 0.33132684 0.14983153 0.16214448
000320 bb 01 c3 bd 12 85 9c 3d d3 10 68 be dd 85 12 3e
       -0.095218144 0.07642569 -0.22662668 0.14308877
000330 be 5e b4 be b1 dc 35 be 27 8b 31 be db 1a dc 3d
       -0.35228533 -0.17759968 -0.17338239 0.1074731
000340 d9 eb 40 bd d3 39 df 3d 05 60 89 be 35 47 ef be
       -0.04709992 0.10899701 -0.2683107 -0.46734014
000350 65 64 c8 3d 68 8a 5c be 64 48 9a be 4c 8a 51 bd
       0.09784774 -0.21537173 -0.30133355 -0.05115728
000360 17 72 8e be 37 00 01 be b0 7f 44 3e 94 e2 8c be
       -0.2782142 -0.12597738 0.19189334 -0.27516615
000370 ab ab 0b 3e 74 b3 8d 3e 8e 0c 94 3d 60 89 76 be
       0.13639705 0.27675974 0.07228957 -0.24075842
000380 6f 83 0e be 99 f5 88 3e c5 82 ef bd bf bd f4 bc
       -0.13917325 0.26749876 -0.11694864 -0.029875634
000390 76 c4 19 3e a5 23 68 3e ef 9f 5e 3e 86 71 02 bf
       0.1501635 0.22669847 0.21740697 -0.50954473
0003a0 0a b0 a4 be 5e 05 33 3e 0b cc 46 bd d4 5d 23 be
       -0.32165557 0.17482516 -0.048534434 -0.15953761
0003b0 4d 76 f2 3c c7 ef 27 be 91 6b 8b 3d 81 c0 56 3e
       0.029597426 -0.16400062 0.06807626 0.20971872
0003c0 b2 88 22 be 93 ae 5c be fc f6 89 be e3 27 4c be
       -0.15872458 -0.2155097 -0.26946247 -0.1993709
0003d0 95 e5 08 3e b1 28 36 3e 73 38 3c 3d a0 fe 2f 3e
       0.13368829 0.1778896 0.04595227 0.17186975
0003e0 26 50 87 3d 14 a8 04 be bf 75 8a 3e 49 19 a7 3e
       0.06607084 -0.12954742 0.27042958 0.3263648
0003f0 44 97 40 bc 34 35 1f be dd 57 90 3d 1e 6e 84 bd
       -0.011754815 -0.15547639 0.070480086 -0.06466316

net.0.bias f4 [256]
000000 52 0a 60 3e e0 93 84 be f8 77 8f 3c 58 9d 20 3e
       0.21878937 -0.2589407 0.01751326 0.15685022
000010 57 9c f9 bd 0d c3 9e be b0 4e 3e 3e a9 9b dc 3e
       -0.121880226 -0.31008187 0.18584704 0.4308751
000020 79 c1 ca be b1 ab 7c 3e f2 81 89 3e d7 e8 d2 be
       -0.39600733 0.2467487 0.26856953 -0.41193268
000030 77 06 a0 bd 5e 89 b5 bc 7d 47 70 be 65 76 bf 3e
       -0.07813733 -0.022160228 -0.2346477 0.37395015
000040 44 68 8e be 92 f7 c7 be 38 d3 84 3e b0 0c 88 be
       -0.27813923 -0.3905607 0.25942397 -0.2657218
000050 b4 bc 47 be 91 4a 6d be 91 e6 2e 3e 34 48 51 3d
       -0.19505578 -0.23172976 0.17080142 0.05109425
000060 1f ee 10 be f3 78 98 be 1b 64 50 be 12 78 6b 3e
       -0.14153336 -0.29779777 -0.20350687 0.22995022
000070 2a aa 8d 3e 10 7e 2d 3e b2 2b 84 be 89 e8 95 3e
       0.27668887 0.1694262 -0.25814587 0.29278973
000080 2c c4 97 be 84 7d 69 3e bf 76 45 3e ad 01 06 3e
       -0.29641855 0.22801787 0.1928358 0.13086577
000090 32 d4 c2 bd 55 a8 1a 3e 64 bd e4 bc 09 b8 5f 3e
       -0.09513129 0.15103276 -0.02792234 0.21847548
0000a0 e3 be d0 bd fb b0 87 3e b2 b7 a7 bd 27 a5 e2 be
       -0.10192659 0.26502213 -0.08189334 -0.44266626
0000b0 5c b7 80 be d4 b5 79 3e 2c 43 e7 be 3c 02 67 3e
       -0.25139892 0.24385768 -0.45168436 0.22559446
0000c0 74 54 3a bd 61 96 8b bd 5c 48 07 3e 57 15 33 be
       -0.045490697 -0.06815792 0.13211197 -0.17488609
0000d0 51 59 20 3e 98 44 35 3e 03 c7 e9 be 88 a5 a0 3e
       0.15659072 0.17701948 -0.45659646 0.3137629
0000e0 61 b2 41 3d 31 bf 3e bd 7e ab aa 3c cb b5 99 be
       0.047289256 -0.046569053 0.020833727 -0.3002151
0000f0 82 dd 13 3e c5 7c 9b 3e 2e e5 4a be 09 9a d4 3d
       0.14439967 0.3036863 -0.19813988 0.103809424
000100 1d e1 03 3e 0f 75 c5 3e 27 1c 51 3e c7 04 25 3d
       0.12878843 0.3856587 0.20420896 0.04028776
000110 48 76 83 be e1 25 ba be 23 5f fe be f1 0d 98 be
       -0.2567618 -0.36357024 -0.4968196 -0.29698136
000120 68 38 65 3d e2 64 43 3e 91 7d 46 3d 18 78 6b 3d
       0.055961996 0.19081452 0.048459593 0.057487577
000130 a6 75 12 3e 21 22 02 3f c7 c0 c6 3e 70 c2 c2 bd
       0.14302692 0.50833327 0.38818952 -0.09509742
000140 74 d9 46 bb a2 7e a9 3e db 87 36 be 45 9e 40 3e
       -0.0030342015 0.33104426 -0.17825262 0.18810375
000150 71 b0 88 be f1 44 6e be 1d ef 43 3e c2 99 73 3e
       -0.26697114 -0.23268487 0.19134183 0.23789123
000160 15 13 b0 3d f8 ff 13 be 8b a2 14 3e 2b 33 c0 be
       0.085973896 -0.14453113 0.1451513 -0.37539038
000170 60 a0 9e bd 19 cf b7 be 5a e4 ef bd d0 be eb 3e
       -0.07745433 -0.3590019 -0.117134765 0.46044016
000180 44 cb e2 3e f1 75 6e be 6e 62 7c 3e 91 e2 8b 3e
       0.44295704 -0.23287179 0.24646923 0.27321294
000190 07 91 ae be 8a 70 6c be 15 32 c0 3d ff e8 c0 3e
       -0.34095022 -0.23089805 0.093845524 0.37677762
0001a0 1c ba 8d 3e 25 1b a8 3e 02 5f 2d be 76 44 c4 3b
       0.27681053 0.3283321 -0.16930774 0.0059896065
0001b0 c0 c9 35 3e c5 0b b4 3d 84 95 f0 3c b0 56 7f be
       0.17752743 0.08791307 0.02936817 -0.24935412
0001c0 ac a4 9f bd 3d 1e 8f be d0 c2 8d be e3 b4 0a be
       -0.077950805 -0.27952757 -0.27687693 -0.13545565
0001d0 ba c2 b6 3e df 29 ef 3e 51 1d 8e 3a 4b d8 02 bf
       0.3569544 0.46711633 0.0010842477 -0.51111287
0001e0 fb 00 78 be f8 c2 d5 be 0f 2c ed bd fe 91 c4 3c
       -0.24219124 -0.41750312 -0.11580669 0.023995396
0001f0 ae 2b 2b 3c 12 e4 02 bd f5 fc 18 3c 95 65 0b 3e
       0.010447426 -0.031955786 0.009337653 0.13612969
000200 a4 c1 85 3d 4c 0e 93 bd 29 21 21 bd 09 9b 95 be
       0.06531075 -0.07180461 -0.039338265 -0.29219845
000210 b7 53 30 b9 6d f8 fd 3d 2e 3c 7f be 59 3f 75 be
       -0.00016815854 0.12400899 -0.249253 -0.23949946
000220 7c 3a d1 3d c8 df ee 3c c0 ba cf bd 8c e3 23 3e
       0.10216233 0.029159442 -0.101430416 0.16004771
000230 7a 02 14 be a8 bd bd be 74 40 0e be 6f 7f 4c be
       -0.1445407 -0.3705876 -0.13891774 -0.19970487
000240 f7 24 c6 be 23 93 e8 3e 27 c3 97 3e f5 c3 a3 bb
       -0.38700077 0.45424756 0.29641077 -0.004997725
000250 95 c5 49 3e b5 9e 95 3e ae ae 29 3e 86 40 ac 3e
       0.19704278 0.29222646 0.16570541 0.33642977
000260 64 c1 8f 3d 6a 03 c9 3d 7c 46 02 bf 29 20 cb 3d
       0.07019308 0.09815104 -0.508888 0.099182434
000270 76 e4 a6 be d1 c6 5d be c6 49 3f 3e c2 a4 bf 3b
       -0.32596177 -0.21657874 0.18680486 0.005848498
000280 0e 77 ef bd 16 3a 8f bd f3 0c 35 3d 6d e4 ca 3d
       -0.1169263 -0.06993501 0.044201802 0.0990685
000290 42 8f 36 be 8c 44 c7 3e 08 dc 92 be 45 ed 6b 3d
       -0.17828086 0.38919485 -0.28683496 0.057599325
0002a0 2f 0b ff bd d2 28 83 be c1 cd a5 3e 6f 36 46 be
       -0.12453305 -0.2561708 0.3238354 -0.19356702
0002b0 c5 9a b0 be 34 7d 8f 3e 80 71 88 3e a5 c3 0c bf
       -0.3449308 0.2802521 0.26649094 -0.5498603
0002c0 85 95 08 3c 58 26 dc bd 36 90 56 3d 16 cc 00 3d
       0.0083364295 -0.10749501 0.052383624 0.03144463
0002d0 57 a7 12 be 6e f8 dd 3e 26 54 7c be 4d fa b7 3e
       -0.14321648 0.433536 -0.24641475 0.35933152
0002e0 af 18 37 3e 55 a4 74 3e 5f 66 d2 bc 31 f2 81 be
       0.1788051 0.23890813 -0.02568358 -0.2538009
0002f0 98 54 89 3e f7 68 35 3e db e8 0f be e0 b6 33 3e
       0.26822352 0.17715822 -0.14053671 0.1755023
000300 ea 3a 32 be 21 0a f0 be 58 8c 5e be 7e d9 6a 3d
       -0.17405286 -0.46882728 -0.21733224 0.057336323
000310 f9 60 4a 3e 9a 39 80 be f9 8b 9f bc 83 a8 fc bd
       0.19763555 -0.25043947 -0.019475924 -0.123368286
000320 95 86 b9 3d 3b 6d 2d 3e 9d 68 d2 be a5 1a eb bd
       0.090588726 0.169362 -0.4109544 -0.114796914
000330 1c 20 a8 bd b1 5d 19 3e e4 0a ee 3e 0a 12 2f be
       -0.082092494 0.14977147 0.46492684 -0.17096725
000340 e1 ac 41 be 0a 40 3c be 95 0a 1d be 1f eb 82 3e
       -0.18913604 -0.18383804 -0.15336068 0.25570008
000350 64 93 95 3d bb 36 dd 3d 4f 35 1b 3e 73 3c b6 be
       0.07303503 0.10801455 0.15157054 -0.35592994
000360 dd b5 2b 3d 4d cb 88 bd e4 e7 99 3e 90 e6 94 bd
       0.041921485 -0.066794015 0.3005973 -0.07270539
000370 d1 31 0b be 40 1c 3c be ae 8d 89 3e cb 5d 6c 3e
       -0.13593222 -0.18370152 0.26865906 0.23082654
000380 54 88 b0 3d ac e2 b9 be c2 80 95 3c 7d ef 5d be
       0.086197525 -0.3630575 0.018249873 -0.21673389
000390 ba 74 d9 3e b1 21 93 be 3d a0 e9 3d c2 c9 7b be
       0.42471868 -0.28736642 0.11407516 -0.24588683
0003a0 ed 12 b9 3e 19 b5 99 3e f3 7b f5 3d 7b 7c e9 3d
       0.36147252 0.3002098 0.11986532 0.11400696
0003b0 18 1a 39 3d 59 90 cf 3d 0c 4c 1c 3e 83 b6 77 3d
       0.0451909 0.10134954 0.15263385 0.06047679
0003c0 a8 6e 9d 3e 27 4b f3 bd dc 64 7d be 13 ed b5 bd
       0.30748487 -0.118795685 -0.24745506 -0.08883109
0003d0 f6 28 8d be 81 45 2c 3e 77 46 bd bd 22 3b e5 bd
       -0.27570313 0.16823389 -0.09241956 -0.11192919
0003e0 ed 59 03 3e b3 be 06 be 6f 07 8d be e9 90 1a bf
       0.12827273 -0.13158683 -0.27544734 -0.60377365
0003f0 be df 4a 3d a9 3e 4b be ad 5b 8b be 95 3c 6b be
       0.049529783 -0.19848122 -0.2721838 -0.22972329

net.2.weight f4 [256, 256]
000000 66 56 8c bd 38 00 6f 3c 8b cb 87 bd 9f 57 3d bc
       -0.06852417 0.0145874545 -0.066306196 -0.011556535
000010 92 d8 69 bd ec 7e 3c 3d 7e 52 bc bd f1 7b 05 3c
       -0.057091303 0.04601948 -0.09195422 0.008147226
000020 9c 31 25 bd be db ab bd 0b 32 cc bd 78 21 2a 3d
       -0.040330514 -0.08391522 -0.099704824 0.041535825
000030 6e 73 79 3d c3 e4 e8 bc c6 58 89 3b 2c a1 1f bc
       0.060901098 -0.028429395 0.004191491 -0.009743016
000040 3c 78 0f bd 76 6d 67 3d 91 f7 1b bb 6d 88 58 3d
       -0.035026774 0.056500874 -0.0023798684 0.05286448
000050 ed 73 5a bd c2 f4 19 be 02 39 82 bd 7f 0a 45 3d
       -0.05333321 -0.15034774 -0.063585296 0.048105713
000060 c0 d1 c7 bc 16 4c 32 3c 94 15 82 3d a9 15 d9 bc
       -0.024392009 0.010882398 0.06351772 -0.026499586
000070 b5 2c 3f bd 3b 74 62 be 50 ee 7c 3c 97 a2 7d bc
       -0.046673495 -0.22114651 0.0154376775 -0.015480659
000080 38 b5 58 bc f6 ef b1 bc ef 45 97 bd ed 4f c0 3d
       -0.0132268 -0.021720868 -0.07386386 0.09390245
000090 b4 30 12 3d 7f 70 97 3d 76 f8 29 be 05 8a 5b bb
       0.03569098 0.07394504 -0.16598687 -0.0033499014
0000a0 d0 3d 27 3c be c3 03 3d e8 04 2c 3d 14 a8 1e 3d
       0.010207608 0.032169096 0.041996866 0.03873451
0000b0 b0 bd 74 bb 8e d6 0a be 04 79 5b 3d 73 ee cf 3a
       -0.0037344508 -0.13558409 0.053582206 0.001586391
0000c0 03 d1 5c bd 2c c4 07 3d 84 b4 39 bd b0 a7 81 3b
       -0.053910267 0.03314607 -0.04533817 0.0039567575
0000d0 bd 11 45 bd 26 52 f3 3d 57 04 eb bb 6a ad 69 bd
       -0.04811262 0.11880903 -0.007172148 -0.057050146
0000e0 2a 9b 57 3d d1 3f a6 38 10 38 26 be bd 30 39 3c
       0.05263821 7.9273836e-05 -0.16232324 0.011303124
0000f0 df ec 76 3d 2c 92 2a be 88 22 45 bd 95 d6 10 3d
       0.06028449 -0.16657323 -0.048128635 0.03536089
000100 65 29 7e bd 0f c8 c3 bb 6f 9a 22 bd f5 01 9d 3d
       -0.062051196 -0.0059747766 -0.03969806 0.07666389
000110 d4 79 cf bc f6 2e 18 3d 4a 35 3b 3d 22 2a 25 be
       -0.025326647 0.03715416 0.045705117 -0.16129354
000120 3b d3 90 3c c1 5c df 3a 6f 7d 71 bc 2f e8 10 3d
       0.017678848 0.0017041193 -0.014739378 0.035377678
000130 c8 22 10 3c 4b 9a cc bd 9a b3 96 3c ad 32 71 bd
       0.008797355 -0.099903665 0.018396188 -0.05888622
000140 30 ed db bb e7 7b 98 bd da 0c 8c bd 2a a4 a5 bd
       -0.0067116246 -0.074455075 -0.06838389 -0.080879524
000150 26 43 5b 3d 61 50 bd bc 4e 37 60 3e b6 c6 85 3c
       0.053530835 -0.023109617 0.21896097 0.016330104
000160 47 47 a7 3c 0e 1d 90 bc 4a 67 76 bd 81 85 99 3d
       0.02041973 -0.01759198 -0.060157098 0.07496167
000170 ff a0 88 bd b3 24 3d 3d 43 a2 2b bd 27 15 a8 bd
       -0.066713326 0.046177577 -0.04190279 -0.082071595
000180 17 b6 d5 bc 26 9b 78 bd f2 e4 18 bc 80 37 30 3d
       -0.026087804 -0.060694836 -0.009331929 0.04302168
000190 a8 1a f7 3c d0 ab 96 3b 28 b0 a7 ba a8 d7 62 bd
       0.030164078 0.0045981184 -0.0012793588 -0.055381447
0001a0 ab 72 00 be 00 57 78 3d 23 11 0f 3d 89 ef 29 3d
       -0.12543742 0.060629845 0.034928452 0.041488204
0001b0 33 ce e7 bc 0a 4d 9b 3d dc 37 de bc d2 1f fb 3c
       -0.028296566 0.075830534 -0.027126245 0.030654822
0001c0 8d 47 04 bc 98 c4 34 3d f0 a0 35 bb 9b 76 0c be
       -0.0080737 0.0441328 -0.0027714334 -0.1371712
0001d0 8d 2d b5 3c a9 84 78 bd cf c0 13 bc 73 4c 17 3e
       0.022116447 -0.06067339 -0.009018137 0.14775257
0001e0 60 9d 02 3d a4 00 ea bd 56 b1 af 3d d8 8e b8 bc
       0.031888366 -0.114259034 0.08578746 -0.02252905
0001f0 00 e3 02 ba 70 86 86 3d ca da 56 bd 94 e2 46 bd
       -0.0004992932 0.06568611 -0.052454747 -0.048555925
000200 2f 79 6f bc 05 a3 51 3d cf 34 ad bc ba da ea bd
       -0.014616295 0.05118086 -0.021143345 -0.114675
000210 85 2f 97 bd 68 08 80 bd 01 e2 9b 3d 80 c6 e7 ba
       -0.073821105 -0.06251603 0.07611466 -0.0017683059
000220 bf 86 c5 3d c3 c1 67 bd 84 6a 97 3d 76 ff bf bb
       0.096448414 -0.05658127 0.07393363 -0.0058593107
000230 24 19 af bc bc ff 56 3d d2 3d 34 bd a6 43 69 bd
       -0.021374293 0.05248998 -0.04400427 -0.05694928
000240 be 37 19 bc 50 3e b8 bd f4 10 32 bd 38 86 f2 bd
       -0.009351669 -0.0899626 -0.0434732 -0.118420064
000250 70 31 2d be 62 95 7c bd 8b a0 31 bd 94 34 64 bc
       -0.1691339 -0.0616659 -0.043365996 -0.013928551
000260 f8 dd 62 bd f4 73 c6 bc cb dc 15 3e 06 ec 57 bd
       -0.055387467 -0.024225213 0.14635007 -0.052715324
000270 cd 92 76 bc 38 4b 35 3d 49 8b 56 3d 02 49 a1 bd
       -0.0150496485 0.044261187 0.052378926 -0.07875253
000280 6a 55 e4 bc 95 37 5b 3d 3f c8 26 bd d1 6b 7d 3d
       -0.02787276 0.053519804 -0.040718313 0.0618704
000290 9e 2f a1 3c fd cd 30 3b b8 17 79 bc b1 c6 9f 3d
       0.019676026 0.0026978247 -0.015203409 0.07801569
0002a0 72 91 11 3d e8 e2 59 bd 3e a6 d7 bd 45 bf dc bd
       0.035539098 -0.05319491 -0.10529755 -0.10778669
0002b0 d9 34 16 3d 1d 34 11 3d ac 74 06 be a8 01 15 bd
       0.036671493 0.03545009 -0.13130444 -0.036378533
0002c0 d3 7c 05 bd 3a 89 64 3d 53 09 5a be b3 7c 71 3d
       -0.032589745 0.055794932 -0.2129262 0.058956813
0002d0 d0 1f a3 bc 1d 1c 84 bd 3e 86 fd 3c 61 bd a8 bd
       -0.01991263 -0.06450675 0.0309478 -0.08239246
0002e0 11 f6 39 be 45 11 94 bb 80 30 5c bd 6b f2 a7 bc
       -0.18160273 -0.0045186603 -0.05375719 -0.020501336
0002f0 62 cc 09 3d 6d 30 ff bd 2c f0 b1 bc bf 85 47 3d
       0.03364218 -0.12460408 -0.021720968 0.048711535
000300 ae 39 3e 3d 82 29 41 bd d4 e0 06 3d fd f1 fa bc
       0.046441726 -0.047158726 0.032929257 -0.030632967
000310 2c a9 26 3c 00 57 59 ba 79 03 04 3d ef c1 84 bd
       0.01017217 -0.0008290857 0.032229874 -0.064823024
000320 4c 3c ba bd 94 5c 71 bb ac 0c 8d bd 2f 85 96 bc
       -0.09093532 -0.0036828863 -0.068871826 -0.018374054
000330 36 ef 62 3c f0 8e 8e bd 1e cb 0f bd e0 a9 d4 3c
       0.013850978 -0.06960857 -0.035105817 0.025959909
000340 38 9e 41 bc 99 08 53 3d 1e 24 93 bc 4d 9d 84 bd
       -0.011817507 0.05152187 -0.017961558 -0.06475315
000350 31 9c 10 bc 6b a8 b3 3d b8 6a 34 3d ff 8d 46 bd
       -0.008826301 0.087723576 0.044047087 -0.04847526
000360 5a 60 a6 bb 39 c1 ca bd 31 a7 c9 bd cc 12 17 bd
       -0.005077404 -0.099001355 -0.09846342 -0.03688316
000370 90 38 60 bc bd d4 cf bd 6c 4e 46 3d a7 24 8a 3b
       -0.013685361 -0.101479985 0.048414633 0.004215795
000380 c8 18 aa 3c c6 6e 8b bb f3 9c 22 3d 10 a7 eb 3c
       0.02076377 -0.0042551486 0.03970046 0.028766185
000390 90 17 9a bd 36 98 98 3c ad 5f 4a bc d4 37 1a bb
       -0.075240254 0.018627267 -0.012351912 -0.0023531811
0003a0 63 0c f5 3b 85 d1 b7 3b 71 8d 6f 3d 57 c6 cb 3c
       0.0074782833 0.0056096935 0.0584845 0.02487485
0003b0 c7 37 e0 bc 68 4e 03 bd 67 e7 0e 3c dc 73 b9 bc
       -0.027370347 -0.032057196 0.008722163 -0.022638254
0003c0 60 59 1b 3e 68 2c 72 3c 20 b8 54 bd a8 1a f4 bd
       0.15170813 0.014781095 -0.051933408 -0.11919147
0003d0 f2 ab 25 be d0 ab a2 bb a5 5a 66 3d 0e ae bd bc
       -0.16178873 -0.0049643293 0.05623879 -0.023154285
0003e0 af 65 61 bd 65 10 45 3c 25 2b 6f 3d 3a 28 93 bd
       -0.055028614 0.012027835 0.058390755 -0.07185407
0003f0 20 b9 fe bc 70 52 35 3d c5 d2 65 bd cd 7e 66 3d
       -0.031094134 0.04426807 -0.05610921 0.05627327

net.2.bias f4 [256]
000000 c0 2c 49 bd 65 c4 24 3d 9a 61 eb bc dc 69 07 be
       -0.049114943 0.04022636 -0.028733063 -0.13223976
000010 76 3a b0 bc 2e ed 24 3d 1e e8 98 bc 35 01 4f bc
       -0.021512251 0.040265255 -0.01866537 -0.012634565
000020 88 3f d3 bd 67 89 a5 bc 56 bc 0f bd a6 00 30 3c
       -0.10314852 -0.02020712 -0.03509172 0.010742342
000030 8d a4 2d 3c 2c 78 b2 bc 5d ed 3f 3c cf 13 50 3d
       0.010598314 -0.021785818 0.011714307 0.05080014
000040 0e 30 b0 ba d5 6d 78 bd 42 84 7b 3e 32 d3 52 3e
       -0.0013442056 -0.06065162 0.24562171 0.20588377
000050 4c f2 97 bd 0a bd 7a bd 11 e2 55 3c 7b cc 3c 3e
       -0.07419261 -0.061215438 0.013054387 0.18437378
000060 19 47 a5 ba 50 43 dd bd 8b 94 6f 3c 9f f0 ba bd
       -0.001260969 -0.108038545 0.014622818 -0.09127926
000070 ef dc fd 38 fc d1 20 3e 2b f0 34 bd dc f2 93 3c
       0.00012105132 0.15705103 -0.044174355 0.01806014
000080 6a 1a 9e 3d 5a 85 0a bd 32 57 81 3d 3f f3 4d 3e
       0.07719882 -0.03381858 0.06315459 0.20112322
000090 62 8c dc 3c c3 7e 33 3e 98 80 95 ba e3 64 a6 bc
       0.026922408 0.17528825 -0.0011406122 -0.020311778
0000a0 ad 4a ce bb 17 3b ce bd 49 c6 4b bd bd b5 f0 bd
       -0.006295523 -0.10069864 -0.049749646 -0.11753414
0000b0 2e 65 9d bd ed 09 2c bc 89 bc 85 bd 57 da e9 bd
       -0.07685314 -0.010500413 -0.06530101 -0.11418598
0000c0 e7 3f 97 bd 27 08 21 be 4f 4a 92 bd d1 53 cc bd
       -0.07385235 -0.15725766 -0.071430795 -0.09976924
0000d0 b2 7f 2b bd eb 15 52 bd f7 df 7d bd 2d 4e b5 3d
       -0.041869827 -0.051290434 -0.061981168 0.088528015
0000e0 df 71 fc bd 8d 86 ea bd 6d f4 ba bd 41 9e 28 bc
       -0.12326407 -0.11451445 -0.09128652 -0.010291637
0000f0 24 d0 7a bd 0c ce 2e bd ac 3b 69 bd 02 84 aa bc
       -0.061233655 -0.04267697 -0.056941673 -0.0208149
000100 b9 c8 60 bd 17 2a 63 bb d8 e3 08 3e 73 75 15 be
       -0.054878924 -0.0034662539 0.13368165 -0.14595585
000110 0f 11 86 bb 2d 15 46 3e 45 56 91 bc cc 37 99 bd
       -0.004091389 0.19344015 -0.017741332 -0.074813455
000120 24 a9 2a bd 3e 81 19 3c 55 93 12 bd 8e 11 b4 bd
       -0.04166521 0.009369193 -0.035785038 -0.08792411
000130 51 16 b1 bd de 46 9e bb 08 1b 02 be eb df c6 3d
       -0.08646835 -0.0048302254 -0.12705624 0.09710678
000140 a3 18 3f 3c 11 39 6a 3d 46 00 47 bd 6b e3 3b 3c
       0.011663589 0.05718333 -0.048584245 0.011467795
000150 23 68 80 bd 59 de 7a bb 97 50 dc bc 8f 1b 1a bc
       -0.062698625 -0.0038279502 -0.026893897 -0.009405985
000160 c8 a0 12 bd a5 19 9c bd f7 a3 b3 bd 2c c1 78 bd
       -0.035797864 -0.07622079 -0.08771508 -0.060731098
000170 4e 53 73 bd 22 0b ae bd 92 de c0 bd fc 5a e5 bd
       -0.059405617 -0.08498217 -0.09417452 -0.111989945
000180 50 c0 e2 bd eb 4b 00 bc 99 40 c1 3c 16 e2 51 3d
       -0.11071837 -0.0078306 0.023590373 0.051241003
000190 3d 17 ca bd ff 65 83 bd 53 95 90 3b ce 23 2d bd
       -0.098677136 -0.064159386 0.004412332 -0.042270474
0001a0 5d 98 a6 bd 2b c0 db bd 78 ff 40 3d cf a9 f7 3c
       -0.0813453 -0.107300125 0.047118634 0.030232338
0001b0 bd 9a 43 3c 9e cb c0 bd 8c da 18 bd e9 c0 3e 3e
       0.011938748 -0.09413837 -0.037317798 0.18628277
0001c0 58 18 2c bd 72 a6 00 bd 26 4a b5 bc bd 66 0b 3e
       -0.042015404 -0.031408735 -0.022130083 0.1361341
0001d0 59 35 d0 bd dc f4 29 3e f1 ea ae 3c 4f 81 56 bd
       -0.10166425 0.16597313 0.021352263 -0.052369412
0001e0 30 28 82 3c ef 28 69 bd ac fa cc bc 86 f5 1b ba
       0.015888304 -0.056923803 -0.025021873 -0.00059493666
0001f0 e9 6f 9c 3e 25 ad 05 3e e6 df c6 bc cf 87 15 be
       0.3055413 0.1305433 -0.024276685 -0.14602588
000200 3a a3 39 bd 10 04 9c bd 7d a8 21 3e d7 a4 4f 3e
       -0.04532168 -0.07617962 0.1578693 0.20277725
000210 c5 64 ee 3c de 2e d9 bc e0 75 61 3d 63 ce 2c 3b
       0.029100785 -0.026511606 0.055044055 0.0026368133
000220 f2 37 57 3d b3 0e 2f 39 13 7d 03 bd b3 44 2a bd
       0.052543588 0.00016694776 -0.032101702 -0.041569423
000230 fd c8 40 3d 68 96 56 bd ab 49 6b bd b4 ee 15 bd
       0.047066677 -0.052389532 -0.057443302 -0.0366046
000240 39 77 58 bd 2a 6e ce bc c3 da e1 bd fe f4 30 bd
       -0.052848075 -0.025199015 -0.110280536 -0.043202393
000250 a8 33 d2 bd 16 ed 48 bd 49 b5 3a bd 77 aa 92 bd
       -0.10263759 -0.049054228 -0.045583043 -0.0716142
000260 59 a9 14 bd 67 b7 93 3c 62 0b 62 bd fe 6d 0a bd
       -0.036294315 0.018031789 -0.055186637 -0.033796303
000270 8b bf be bc 12 8c 81 3c a4 2b 07 bd 35 c8 d3 3d
       -0.023284694 0.015813861 -0.033000603 0.10340921
000280 e6 06 01 bd 34 c1 58 bd c9 e8 03 be dd c3 07 bd
       -0.03150072 -0.052918628 -0.12881769 -0.033145774
000290 e4 2b 55 3e 4b 3e a6 3c 15 bf 1b 3e 44 4b 83 3c
       0.20817524 0.020293375 0.15209611 0.0160271
0002a0 dd fe 85 bd 5f be 98 bb 37 7e e8 bc 4c 98 e9 bd
       -0.06542752 -0.004661366 -0.028380496 -0.114060014
0002b0 bb 9a 03 bc 24 69 27 bc f6 4f b4 bc 50 b5 05 3e
       -0.008032496 -0.010217939 -0.022010785 0.13057446
0002c0 30 a7 8a bc 1a d6 2f 3d 43 ed 57 3c 5c 15 3a 3d
       -0.016925424 0.042928793 0.013179126 0.045430526
0002d0 f0 f1 1e bd 4b b8 a9 3c f7 63 a3 bd 19 66 42 3d
       -0.03880495 0.02071776 -0.07978051 0.04746065
0002e0 25 5e b1 bd c1 b0 05 3e 94 f3 14 bd 2f 1e 1d bd
       -0.08660535 0.13055708 -0.036365107 -0.038358863
0002f0 db 20 3b 3d 20 20 85 bd 5e 29 fb bd ab 44 8e bd
       0.04568563 -0.06500268 -0.122637495 -0.06946691
000300 bd 0f 87 bd 2b c4 a9 3c fc fd 81 bd 51 4a 81 bd
       -0.06594799 0.020723423 -0.06347272 -0.06313003
000310 5a d4 26 3e 08 2b b2 bd c2 3f fb 3d 7a 19 3f bd
       0.16291943 -0.08699614 0.1226802 -0.046655156
000320 23 c8 42 3e d6 9a db bd ed 55 6f 3b fc 96 fe 3d
       0.19021659 -0.10722892 0.0036519722 0.12431142
000330 a2 07 27 3d d3 44 4f bd da 63 01 3d 61 e7 91 3c
       0.040778764 -0.050602745 0.031589366 0.017810525
000340 fa 35 5a bd f1 2a 6c bc 22 ac 12 3c b9 67 57 bc
       -0.053274132 -0.014414535 0.0089521725 -0.013147288
000350 b7 b5 27 39 7a c7 12 bd 8a eb 64 3e 18 20 ce bd
       0.00015994055 -0.035834767 0.22355476 -0.10064715
000360 ca c4 85 bc 91 9a 6a bd 45 cf 7b bd 8f b5 47 3c
       -0.016329188 -0.057276312 -0.061476965 0.012189283
000370 82 99 de bd 86 bf 57 bd ed ed bc bd f3 7d 6a bd
       -0.10869123 -0.052672885 -0.09225068 -0.05724902
000380 81 8d aa bb 7d 92 37 3e a7 48 f2 bc 47 ce 82 bd
       -0.005204857 0.17926975 -0.029575659 -0.063870005
000390 3d f5 5d bd 00 f8 b7 bc 56 1a 75 bd 3d e5 0e bd
       -0.054188956 -0.022457123 -0.05983957 -0.034886587
0003a0 da 5a 2e bd 19 2a d7 3c ed 3b de bd 6d b6 5b bd
       -0.04256711 0.02626519 -0.10851274 -0.05364077
0003b0 ca 73 c5 3c d5 dc 61 bd e8 07 86 3d 2e 9e 7c bd
       0.024103064 -0.055142242 0.06544477 -0.06167429
0003c0 40 e6 dc 3d 80 ff a4 bc bc 2a e5 3c 2b af be bd
       0.10786104 -0.020141363 0.027974479 -0.093107544
0003d0 8c 72 54 3c 48 0b f1 3d d7 5a d0 3b f2 5b 07 3c
       0.012966763 0.1176973 0.006358485 0.008261668
0003e0 38 68 61 bd dc 13 8f 3d 94 45 82 bd 2f cc de bb
       -0.05503103 0.0698621 -0.06360927 -0.006799243
0003f0 9b 11 29 3e 1c c3 41 bd 01 56 52 bd 0d 34 31 3e
       0.16510622 -0.04730521 -0.05135155 0.17305012

net.4.weight f4 [256, 256]
000000 03 ef 38 3c c5 cf 76 3e 63 9f e6 3d 48 de 10 3f
       0.011287454 0.24102695 0.11260869 0.56589174
000010 2c 3d 57 3e dd 0b 20 bd 72 62 54 3c c0 df 0c 3c
       0.21019429 -0.039073814 0.012962924 0.008598268
000020 10 a6 6c 3e 40 b6 c7 3d 63 f7 2d 3c 5f 65 45 bd
       0.23110223 0.09751558 0.010618064 -0.048192378
000030 2b 92 32 3d ef 46 1c 3d c3 cc 3c bd f5 56 80 3e
       0.043596428 0.038153585 -0.046093713 0.25066343
000040 7d 65 ac 3c f5 bb 36 bd c3 6c 03 bf 6b ea ad bd
       0.021044487 -0.044612844 -0.5133783 -0.08491977
000050 63 be ed 3d e0 73 7b 3c 11 ba c1 bc 40 37 38 3e
       0.11608579 0.015347451 -0.023648294 0.17989826
000060 27 0d 0f 3c f4 4f 0d 3f b5 02 da 3d a1 25 c6 3e
       0.008731163 0.55200124 0.106450476 0.38700584
000070 c4 fe 96 bc da 6d fa 3c a0 93 50 bb 40 94 af 3c
       -0.018432029 0.03056996 -0.0031826273 0.021432996
000080 cd 72 d7 3e b2 c3 6f 3d 6a 06 d8 be 7d 2a c0 be
       0.42079774 0.05853624 -0.42192394 -0.37532416
000090 92 b9 82 3d a1 64 80 3d 83 77 62 3d 5b 0f 13 3d
       0.06383051 0.062691934 0.055289757 0.035903316
0000a0 f9 dc 48 3d 1f 9b c3 3d 82 af 70 3d e5 ae 29 3e
       0.04903886 0.095510714 0.058761127 0.16570623
0000b0 03 52 20 3d ef ee cc 3a fa 4c 72 3d 76 1b 27 3e
       0.039140712 0.0015635173 0.05915544 0.1631907
0000c0 3e 2d 26 3e 6c f2 6a 3e 1c c7 0d 3e fa ed 02 3e
       0.16228196 0.22944039 0.13845485 0.12786093
0000d0 70 dc 0a bd 58 3d 30 3d 34 31 17 bd 2a f0 5e 3e
       -0.03390163 0.043027252 -0.036912158 0.21771303
0000e0 96 93 a9 3e 47 65 ed 3e e9 2f 54 3b ac d4 eb bb
       0.33120412 0.4636633 0.003237719 -0.0071969833
0000f0 10 94 71 bd 23 35 bd bc ab 5f 3f 3b 30 10 13 3e
       -0.058979094 -0.023096627 0.002920131 0.14361644
000100 69 5e 70 bc 9e db df 3c 7b 33 09 3c b0 61 94 3e
       -0.014670947 0.027326401 0.00837409 0.2898078
000110 ca 50 e4 bc 7b d7 40 be 28 fa 4c 3e 48 e7 e5 bc
       -0.027870554 -0.188322 0.20017302 -0.028064385
000120 f3 52 3d bd d1 fd c9 3e 72 d9 6e bd a5 16 57 3e
       -0.046221685 0.3945146 -0.05831284 0.21004732
000130 fd 30 2a 3d eb 74 60 bd 2e d5 f6 3e e9 b2 b3 3d
       0.041550625 -0.054799 0.48209518 0.08774359
000140 1f 49 1e 3c 76 2d df bd 38 ef f7 bb 7b d6 c1 bc
       0.009660988 -0.10897343 -0.007566359 -0.023661843
000150 14 b0 1b 3d 57 aa 8b 3c 6a 5a ff 3d cc 7b 49 3d
       0.038009718 0.017048998 0.12468417 0.049190328
000160 60 70 c0 3b 38 d2 43 3e ec 24 27 bd 5c 6f 76 bd
       0.005872771 0.19123161 -0.040806696 -0.060164794
000170 e6 13 88 3e 7c c5 ec bc aa e2 7f bd ba e7 09 3d
       0.2657768 -0.028902762 -0.062472023 0.033668257
000180 f4 95 e6 3b 51 59 65 3e 41 fc 26 bd 92 32 87 3e
       0.007036919 0.22397353 -0.04076791 0.2640577
000190 19 a8 77 3d 92 e4 44 bd 64 3f d2 3c 69 b7 12 bd
       0.060463045 -0.048069544 0.025664993 -0.035819445
0001a0 4d 19 b6 3d b9 27 f2 3c 7d a7 5d 3e 74 fd ad bd
       0.088915445 0.029559957 0.21645923 -0.08495608
0001b0 8b 31 b4 3c 16 fe 0a 3f 52 ad 09 3d 72 54 49 bd
       0.02199628 0.54293954 0.033612557 -0.0491528
0001c0 26 3d a6 3c f6 c4 ce 3d 15 d6 10 bd 07 ab 33 3e
       0.02029283 0.10096161 -0.035360415 0.1754571
0001d0 6e 3e d7 bc fa a9 10 bd 71 75 ba bb 60 a7 ff 3c
       -0.026274886 -0.035318352 -0.0056902696 0.03120774
0001e0 48 56 36 3e 5f 19 1b bd 5e 4a cc 3c c2 0a 2a 3d
       0.17806351 -0.037865993 0.024937805 0.041514166
0001f0 a7 de 15 be 14 a2 6a 3c 93 b2 2a bd 10 da 87 3f
       -0.14635716 0.014320869 -0.041674208 1.0613422
000200 e0 27 63 bc bf 05 de bc 0f 94 86 3e 16 c0 d4 bd
       -0.013864487 -0.02710235 0.26284835 -0.103882
000210 d2 b4 0c bd 66 e1 28 bd 0d 18 ba bd 69 7a 85 bb
       -0.03435213 -0.04123058 -0.090866186 -0.0040734303
000220 07 12 2a 3e cf c3 aa ba e5 cd bf 3d 1b 9b 84 bd
       0.1660844 -0.0013028326 0.09365443 -0.064748965
000230 cd f8 6e 3d be f7 86 bd 65 0f 66 be dd b8 c0 3c
       0.058342744 -0.06590222 -0.2246681 0.02352565
000240 3c 3f 8d 3c 7f 87 3b 3c 55 76 ed 3e 45 60 5b 3d
       0.017242067 0.011445879 0.46379343 0.053558607
000250 c5 f1 d1 ba 99 56 55 bb 32 ae 40 3e 54 29 2b bd
       -0.0016017488 -0.0032552837 0.1881645 -0.04178746
000260 c0 45 29 3c 70 18 7d 3c fa 1b 8a 3c fc 4b c1 bc
       0.010331571 0.015447721 0.016859043 -0.023595802
000270 68 3a 2a bc 62 2e 2e bc cb aa 2b bb be b8 4d 3b
       -0.010389902 -0.010631176 -0.002619433 0.0031390633
000280 5f 59 49 3d 03 b5 a0 3d e0 c0 02 3f 2b 92 7a 3e
       0.049157497 0.07847025 0.51075554 0.24469821
000290 c3 6e 22 be ff 3d c6 bc 06 b5 41 3d bc 12 d2 3c
       -0.15862565 -0.024199484 0.047291778 0.025643699
0002a0 b2 fa 64 bd 21 45 a1 3d 4c 88 1f 3d 1d 3b a8 3e
       -0.055903144 0.078745134 0.038948342 0.328576
0002b0 73 21 08 3d d7 f9 9f 3c 61 4d 0f bd d4 fc 80 3e
       0.033235025 0.019528313 -0.034985904 0.25192893
0002c0 b5 f8 9f bd 8e db 77 3d 62 91 fd 3c bf 66 92 3e
       -0.07811109 0.060512118 0.030953113 0.28594014
0002d0 5a c0 3d 3d f1 9d 17 3d d5 23 f5 3e 0b ab 4d 3e
       0.04632602 0.03701586 0.478789 0.20084779
0002e0 f0 67 89 bd e3 b5 3b bc ab d9 41 3d 01 2a 9c 3d
       -0.06709278 -0.011456939 0.047326725 0.07625199
0002f0 d5 57 92 3c e8 50 3c bd 5b 87 ce 3e d6 2a 78 3d
       0.017864147 -0.045975596 0.40337643 0.060587727
000300 2b 69 26 bd ea bf 3c be 3f 5c c9 3c 9c 21 e2 bc
       -0.04062764 -0.18432584 0.02458012 -0.027603917
000310 da ff b4 be 81 82 db 3e a7 f9 3d be e0 c4 a8 3c
       -0.3535145 0.42873004 -0.18552266 0.02060169
000320 cd b1 4e be fb 0b c9 3d 76 94 e7 ba 77 7a 08 3e
       -0.20185013 0.09816738 -0.0017668146 0.13327967
000330 a2 1b 51 bd bd eb a3 3e 7a 9e 52 be 9a 20 de 3b
       -0.051051743 0.32015792 -0.20568267 0.0067787888
000340 b5 04 20 3e ac 86 17 bd 7d 6d 87 3d 3f a0 5e bd
       0.15626796 -0.036993667 0.0661268 -0.05435204
000350 84 9a a0 3d 0f 7c 5e 3d 7c 39 51 be 8f b2 1b 3d
       0.078419715 0.05431753 -0.20432085 0.038012084
000360 cf a3 bb 3c 72 f9 34 3d 02 f0 b4 bc 1e 02 67 bd
       0.022905258 0.044183202 -0.0220871 -0.056398503
000370 c5 02 da 3d de 1b 3a 3e 51 5f 6a 3b 40 25 bb 3c
       0.106450595 0.18174693 0.003576238 0.02284491
000380 8e 9f 87 3e 69 7a 66 bd 60 4c 06 3d 6c 7f 76 3d
       0.26488918 -0.056269083 0.03278768 0.060180113
000390 5c 1b 88 3d 0f ed 68 3d 18 71 51 3c c5 20 a5 bc
       0.066458434 0.0568667 0.012783311 -0.020157227
0003a0 76 6c 7f bd de 28 b9 3d bf 91 fd 3e 76 94 37 bd
       -0.062359296 0.09040998 0.49525258 -0.044819318
0003b0 5a a4 83 3d a9 29 84 3d bb 26 2f 3e 30 b0 78 3d
       0.06427832 0.064532585 0.17104618 0.0607149
0003c0 84 4f b9 3d a4 aa ce 3e cf e4 99 3d 0e 94 31 bd
       0.090483695 0.40364563 0.07514345 -0.043354087
0003d0 a1 1e 29 bd be 1a 99 3d 8b 8b 58 3d be 72 9f bd
       -0.041288976 0.07475804 0.052867454 -0.07785557
0003e0 39 5d 0a 3e d2 8f 23 bd ff 3d 44 3d 57 ab 9c be
       0.13512124 -0.03993208 0.047910687 -0.30599472
0003f0 a3 33 8f 3c 60 d0 d0 3c 6c 0c e3 ba 1c 9d 0d be
       0.017480677 0.025489986 -0.0017322428 -0.13829464

net.4.bias f4 [256]
000000 88 cd d5 3c ec 36 42 bd 3d d2 5f bd 95 62 9d bd
       0.026098981 -0.04741566 -0.05464386 -0.07684819
000010 f3 95 52 ba 29 fd 6d bc 4e 88 98 3c 03 49 8c bb
       -0.00080332084 -0.01452569 0.018619683 -0.0042811646
000020 1d a7 db 3c ab 6f b3 3d a9 98 75 bd 2b 7e 23 3c
       0.026813084 0.08761533 -0.05996004 0.009978811
000030 47 15 1f 3c fe 56 34 bc d9 d5 01 bb 63 d4 16 bd
       0.009709663 -0.011007069 -0.00198113 -0.03682364
000040 ed 12 4d 3d 57 5f 38 3e 02 db a5 bc 58 10 b8 3d
       0.050066877 0.1800512 -0.020246033 0.08987492
000050 b4 85 ec 3d 10 cf 51 bc cc f8 75 3d 7d 8e 2d bd
       0.11548939 -0.012805715 0.060051724 -0.042372216
000060 5a 43 47 bc a7 c2 93 3c 99 6e 10 bd 8c 4d 77 3c
       -0.012162054 0.018037153 -0.035261724 0.015094172
000070 8c 95 27 bd f0 87 a4 3d f7 73 34 bd dd 41 6f bc
       -0.040914103 0.080337405 -0.044055905 -0.014603105
000080 b7 12 dc bc c8 70 12 bc 88 37 7a bd 19 89 60 bc
       -0.026864393 -0.008938022 -0.061088115 -0.013704562
000090 e6 34 6a bc 86 d3 ef 3d e2 57 09 bd fd 03 91 3d
       -0.0142948385 0.11710267 -0.033531077 0.07080839
0000a0 49 0d 04 bd f8 59 9f bd 10 11 4c bd c0 a4 b6 3d
       -0.032239232 -0.07780832 -0.04982096 0.08918142
0000b0 df 67 45 bd 62 68 03 3d 59 67 5b bc 9e 42 ac 3d
       -0.048194762 0.03208197 -0.013391339 0.08411144
0000c0 c1 3e eb ba 49 14 1d bc 3c 9c d1 3d 02 8a 43 bc
       -0.0017947779 -0.009587356 0.102348775 -0.011934759
0000d0 13 fa fa bc 3b ea b4 bb 29 53 59 bd 5c ba 9d 3d
       -0.030636823 -0.0055210865 -0.053057823 0.07701561
0000e0 81 7d 76 bd b2 f4 1a bd 9d 8d af bd 1d 52 6b bd
       -0.060178284 -0.037831016 -0.085719325 -0.057451356
0000f0 06 3a 4a bd 60 d9 de bc 03 bf e5 bc 46 7d 1c 3e
       -0.04937174 -0.027203262 -0.028045183 0.15282163
000100 8a 6a d6 3d c8 f0 49 3d a4 57 84 3d 2a fc a5 3d
       0.104695395 0.049301893 0.064620286 0.08104737
000110 05 aa ee bc 8e c5 df 3c 7b db 10 bd c1 6e 23 3e
       -0.029133806 0.027315881 -0.035365563 0.15960218
000120 11 ea 7e bc 04 fd b3 3d 7f 95 41 bc ef 04 47 bb
       -0.0155587355 0.08788493 -0.011815428 -0.003036793
000130 cf 87 5d bd d8 95 4f 3e 17 99 ec bc dc 4d e3 3c
       -0.054084595 0.20272005 -0.028881593 0.027747087
000140 69 31 21 bd 69 ab ff 3d 32 bb 20 3e e9 d3 8e bd
       -0.03935376 0.12483866 0.1569641 -0.069740124
000150 ed 82 29 3d 26 10 f8 3c 6e a7 c7 bc d6 1f 46 bc
       0.041384626 0.030281138 -0.024371829 -0.012092551
000160 b3 ff 29 bd 01 5a 42 3d be 47 8d 3d 14 12 83 bc
       -0.04150362 0.047449116 0.06898449 -0.015999831
000170 bb e5 38 bd a7 af c0 3a 69 ab e2 bb 2f a1 4d 3d
       -0.045140963 0.0014700786 -0.0069174063 0.050202545
000180 79 12 ed 3d 04 7c 2b 3e ca 6c 7b bd 08 00 21 bc
       0.11575789 0.16746527 -0.061383046 -0.009826668
000190 f4 35 dd 3a c9 0d 81 3e 5c 70 b6 bc aa 87 ac 3d
       0.0016877041 0.2520583 -0.022270374 0.08424313
0001a0 d5 c8 2d 3e bf 30 1d bd 04 dd 46 3b 9a 94 30 3c
       0.16971143 -0.038376566 0.0030344138 0.010777617
0001b0 c5 f3 3b 3e 13 f6 81 bd da 36 57 bd 10 64 19 3d
       0.1835471 -0.06345763 -0.052542545 0.037448943
0001c0 56 b7 d6 3d a1 e2 a1 bc da 2e 72 bc 18 bf 53 bd
       0.10484187 -0.019761385 -0.014781678 -0.051695913
0001d0 29 f4 ba bb 6b 93 1e bc 5c c2 2c 3e 35 80 11 bd
       -0.0057053757 -0.009678702 0.16871017 -0.03552266
0001e0 27 ec 7b bd fb 00 2e 3d 16 a7 15 bd 87 15 a0 3d
       -0.06150451 0.042481404 -0.0365363 0.07816606
0001f0 ef f3 21 bd 9f c9 d3 bb cc 50 cd 3d 4b 47 19 bd
       -0.039539274 -0.006463244 0.100251764 -0.037421506
000200 92 2c 07 bc bd 6f 72 bd a0 f6 94 bb 8a 96 3e 3e
       -0.0082503725 -0.059188593 -0.0045460016 0.18612114
000210 ea 62 60 3e fd 60 91 bd 86 f1 ec bc 74 8f 47 3e
       0.21912733 -0.07098577 -0.028923761 0.19488317
000220 ce 5d 97 3c 8f 3c 9e bd e8 75 30 3e a6 ff 20 3d
       0.018477347 -0.077263944 0.17232478 0.039306305
000230 e8 ea 80 bb b6 22 b7 bb 3d 96 80 bc 8b 9d 85 3c
       -0.003934253 -0.0055888547 -0.01569664 0.016310474
000240 4a 8a 40 bd 5e 03 14 bd 9c be ec bc 5f 63 7c bd
       -0.047006883 -0.036136024 -0.028899483 -0.061618205
000250 fd f5 cc bc fc 2c a9 ba db 73 9c bd 79 9d a5 3c
       -0.02501964 -0.0012907083 -0.07639285 0.02021669
000260 9e 44 41 3e 48 dc 38 3c e3 63 6f 3c 89 01 6d bd
       0.18873832 0.011282988 0.014611217 -0.057862792
000270 54 24 84 3d 8e 1e 2f 3d 28 60 7e 3d 51 ca a2 3b
       0.064522415 0.04275375 0.06210342 0.0049679657
000280 af 8c 55 bd c0 70 ed bb d0 81 07 3e 2b fc 3c bc
       -0.05213612 -0.007246107 0.13233113 -0.011534731
000290 b2 09 ce bc d4 79 6d bd 81 4b d5 3d a5 c3 12 3e
       -0.025151107 -0.057977512 0.10414792 0.14332445
0002a0 24 f1 ca bc 09 29 be bc 2c 48 eb bc b2 5c f5 bc
       -0.024773188 -0.023212926 -0.028720938 -0.029951427
0002b0 e7 d3 ee 3d 60 eb 5b 3e 77 44 67 bd 05 42 45 bd
       0.11661511 0.21476507 -0.056461778 -0.048158664
0002c0 46 4f b6 bc d0 70 80 3d 95 a8 b0 3d 70 74 b8 bb
       -0.022254597 0.06271517 0.086259045 -0.005629115
0002d0 5d a7 cb 3d e0 3c bf 3d d4 98 5e bd 06 54 ce bb
       0.099440314 0.09337783 -0.054344967 -0.0062966375
0002e0 e4 22 ff 3b 06 13 53 bd 93 25 56 bd 4a f7 10 3c
       0.0077861417 -0.051531814 -0.052281927 0.008848021
0002f0 52 95 92 bc f0 cf 7d bc ed 1b 1c 3e e2 5b 89 bd
       -0.017893467 -0.015491471 0.15245028 -0.067069784
000300 7d 07 69 bd 3d 34 ef 3d 97 3f 1c bd a6 54 e4 3d
       -0.056891907 0.116798855 -0.03814658 0.11148958
000310 d7 1e 99 39 2d dd f8 3d 8f 5a 81 bd 55 f0 75 bb
       0.00029205412 0.12151561 -0.06316101 -0.0037527282
000320 cc 78 b0 bc 3d ed 75 bc 2d 1d c5 3d 35 9e 8e bc
       -0.021541975 -0.015010175 0.096247055 -0.017409423
000330 c1 be 77 3d 85 33 e9 3b 6a 5d 7e 3c 5c 5f e6 bc
       0.06048465 0.0071167373 0.015525201 -0.028121643
000340 e2 6c 28 bc 1a 05 80 3b fb 3d 57 bd 48 e1 08 3e
       -0.010279866 0.003906858 -0.052549344 0.13367188
000350 14 d0 aa 3a 64 75 70 3b 54 36 d3 3c a4 70 c5 3d
       0.0013031983 0.0036691064 0.025782742 0.09640625
000360 3e 39 43 3e af 76 68 3d 33 1d d8 bc 1e be 44 bc
       0.19064805 0.05675381 -0.02638111 -0.012008218
000370 42 08 8f bc 9a 99 ea bc 48 cc 6f bd 01 96 15 3c
       -0.017459992 -0.028637696 -0.058544427 0.009130002
000380 03 08 9e bc 3b b9 85 3a 53 b5 70 b9 81 4f a3 3d
       -0.01929093 0.0010202298 -0.00022955732 0.079741485
000390 38 d2 08 bd 69 15 13 3d 88 af 17 bd c4 44 1c 3e
       -0.033403605 0.03590909 -0.037032634 0.15260607
0003a0 d7 54 19 3e 8f 97 1f 3d 4d bb 38 3d 73 4a 93 bc
       0.1497377 0.038962897 0.0451005 -0.017979836
0003b0 5a 5c 04 bd 5a 90 b4 3c cf 14 a8 bb d0 2b 0a 3d
       -0.032314636 0.022041488 -0.0051294337 0.03373319
0003c0 86 86 12 3e 18 50 6d bc 4a 51 3a 3d 01 8a 17 3d
       0.14309129 -0.014484428 0.04548768 0.036996845
0003d0 d4 3d 45 bc 25 c9 14 3a 86 d8 4e 3d 23 b7 8f bc
       -0.012038667 0.0005675725 0.05049946 -0.017543381
0003e0 c7 89 60 bd d6 cc 87 bd e5 35 e2 bd 93 90 c9 3d
       -0.054818895 -0.06630866 -0.11045436 0.098420285
0003f0 2d bb b1 bb 6a 8e 7c bd c6 7d 93 bd 9c d0 d6 3d
       -0.0054239244 -0.061659254 -0.07201724 0.10489008

net.6.weight f4 [1, 256]
000000 34 86 c6 3f 37 8d f5 3e b6 cf 39 3d 26 49 f2 3e
       1.5509706 0.479593 0.045364104 0.47321433
000010 80 f6 41 3f 84 22 d5 bc bc 9a 65 3e 8d 9a 12 bd
       0.75766754 -0.026017435 0.22422308 -0.035791922
000020 75 1a e2 be 42 3d 81 3f 3a c1 26 3f a1 6a c5 3e
       -0.4416081 1.0096819 0.6513859 0.38557914
000030 09 e4 41 3e 93 df 5d 3b 2e 8d ee 3b b2 f2 9f 3c
       0.18934645 0.0033855184 0.0072800135 0.019524906
000040 ce 07 74 bf ee 2e ca 3f 0d 3b ac 3d a1 06 9b 3f
       -0.9532441 1.5795572 0.084097005 1.2111398
000050 b6 a5 56 bf 60 51 3c 3b 6e 41 ad bd 0c 0b 62 bd
       -0.83846605 0.0028735027 -0.08459745 -0.055186316
000060 43 16 ee bd d8 66 b0 3d d5 0e d8 3c 9d 5c af 3b
       -0.1162534 0.08613366 0.02637426 0.0053516165
000070 38 3d 76 bc db 2b ad 3f 8d b0 2b 3b 2a e4 80 3e
       -0.015029244 1.3529009 0.0026197762 0.25174075
000080 1a e0 37 3c 6d 68 0a 3f 65 81 23 3f 25 07 c6 3c
       0.011222864 0.5406559 0.63869315 0.024173329
000090 6a e5 7c bd 1b c9 c6 3f 2a aa 0f 3e b3 1d 7a 3f
       -0.061742224 1.5530123 0.14029756 0.9770157
0000a0 b5 18 a3 3e f7 7b fa bc b8 ad 1c 3c e9 6f ac 3f
       0.31854787 -0.03057669 0.009562902 1.3471652
0000b0 d0 93 92 bc c8 d4 4c 3f ac 8e c2 3e 55 bf 9b 3f
       -0.017892748 0.8001218 0.37999475 1.2167765
0000c0 94 ad 49 bc cd 00 97 3f 0d 56 84 3f b4 52 b1 3f
       -0.012309451 1.1797119 1.0338761 1.3853364
0000d0 f5 da f4 bb ab 35 38 3e f0 bc 12 ba d3 c2 87 bf
       -0.007472391 0.17989223 -0.0005597612 -1.0606331
0000e0 c1 f5 48 3d 9d c1 34 bd b4 e3 bf 3e ee 94 13 bc
       0.049062494 -0.044129957 0.3747841 -0.009007676
0000f0 ac ff 56 3f 44 53 2b bd f6 5f d7 3e 08 a9 be 3f
       0.83983874 -0.041827455 0.420654 1.4895334
000100 25 c2 5b 3f cf 87 72 3e 6f 5a db bf 71 42 72 3f
       0.85843116 0.2368462 -1.7136973 0.9463263
000110 e4 38 26 3f 95 3b 85 3d 41 5a 01 3f 6a be 9f bf
       0.6493056 0.06505505 0.5052834 -1.2479985
000120 26 33 8d be 9f bd a3 3f b2 a9 03 3e 75 da c3 3d
       -0.27578086 1.2792243 0.12857702 0.09563152
000130 2b 42 db 3b e3 39 5e 3f 5e 8b 13 bd 22 34 96 3f
       0.0066912374 0.8680708 -0.036021583 1.173466
000140 99 c6 cd 3e 27 cb 8c bf 22 e5 90 bf da 6e 80 3c
       0.4019058 -1.0999497 -1.1319926 0.015677858
000150 15 2a a6 3e b3 5b bb 3f 26 d3 1c bc 92 ec 16 3d
       0.3245398 1.4637359 -0.009571826 0.036846705
000160 c1 be 11 3b dc f3 a9 3f 8a 28 ad 3f d3 9e ef 3d
       0.0022238942 1.3277545 1.3527997 0.11700215
000170 1d 4f 56 3e 93 99 5c bd 64 29 af 3d 13 2f 17 3f
       0.20928617 -0.053857397 0.085528165 0.59056205
000180 84 7d ec 3f 66 7e 7c 3f 91 b5 79 bd 5c a5 a0 3a
       1.8475804 0.9863037 -0.06096417 0.0012256312
000190 c2 e0 3d be 7f 89 d9 bf ab bc 8c ba 25 45 67 3f
       -0.1854277 -1.6995085 -0.001073738 0.9033988
0001a0 39 6c b6 3f 32 08 25 bd 52 f5 12 bc 84 30 30 bb
       1.4251777 -0.04029102 -0.008969622 -0.0026884386
0001b0 a8 f7 9d 3e 89 55 ce 3e 33 03 e9 bc 19 0a 60 3e
       0.3085301 0.40299633 -0.028443908 0.21878852
0001c0 b8 d1 8a 3f 2a 2b d9 bd 57 d4 98 3f e8 c9 cf 3e
       1.0845251 -0.10603936 1.1939801 0.4058373
0001d0 d1 bb 70 bc ce 2a 27 3e 79 d1 8e 3f 80 23 57 3a
       -0.014693216 0.16324922 1.1157676 0.0008206889
0001e0 98 28 4f bd 2d ba b6 3f a7 a1 01 3f 0a f4 a0 3f
       -0.050575823 1.4275566 0.50637287 1.2574475
0001f0 21 3c 4d 3f ca 55 bd 3e 0a 1f bf 3f 49 a2 46 3f
       0.80169874 0.36979514 1.4931347 0.7759138
000200 c4 de 3d bd f2 88 16 3f 09 2b ff be f5 8a 8a 3e
       -0.046355024 0.5880271 -0.4983752 0.2705914
000210 44 a9 a3 3f 58 2c 15 3f 11 18 4e 3a 0b a1 9a bf
       1.2786031 0.5827079 0.00078618625 -1.2080396
000220 6c aa 9c be 92 4a 96 3f a4 e6 01 40 12 ed 4d 3f
       -0.30598772 1.1741507 2.0297022 0.80439866
000230 a4 d7 04 3b 66 10 7a 3f d1 2b 1b 3e 75 8c 6b 3f
       0.0020270133 0.9768127 0.15153433 0.92011195
000240 5c 3b 3a bd cf 6d 05 3e e9 a0 39 bc 21 9e 63 bb
       -0.045466766 0.1303017 -0.011329868 -0.0034731703
000250 f6 3b 9a 3e d1 71 76 bd 3b 40 3b 3f f6 e9 8d 3e
       0.30123872 -0.060167138 0.7314488 0.2771756
000260 eb f7 ec 3f 66 40 31 bd a9 87 84 3f 97 e8 14 bd
       1.8513159 -0.043274306 1.03539 -0.036354627
000270 f0 4b 92 3e 3e 97 c2 bf 5e 46 99 be 56 bf 81 bd
       0.2857356 -1.5202405 -0.29936498 -0.063353226
000280 4c f0 39 bc fe f0 90 be 55 ef c2 3f fb d3 55 bd
       -0.011348795 -0.28308862 1.5229288 -0.052204113
000290 35 e9 63 3e e5 31 10 3f d4 18 6f 3f 2c 9f 0f bf
       0.2225693 0.56326133 0.9339726 -0.5610225
0002a0 b2 ed 72 3f f2 a4 d3 3b ea 8d 4e bd c3 33 e5 bb
       0.94893944 0.006458872 -0.05042831 -0.006994696
0002b0 89 b2 c3 3f 6a 5a f0 3f c2 47 c7 3c c0 1b 14 bd
       1.528886 1.8777592 0.024326209 -0.036159277
0002c0 98 68 9d 3c a1 d6 e5 3e 3d 4c 8c be fe 39 8e 3d
       0.019214913 0.4489031 -0.27401915 0.06944655
0002d0 46 28 bf 3f 77 2e 46 3f 85 c6 6c bc 73 78 78 bf
       1.4934165 0.7741465 -0.014451628 -0.9705879
0002e0 b4 06 ee 3f 5e 16 b6 bc a0 ed 20 3b 0f ab f9 3d
       1.8595796 -0.022227462 0.0024555698 0.1219083
0002f0 56 1e 6e 3e e4 bb d1 bc f8 91 d6 3f 90 f6 81 be
       0.2325376 -0.025602289 1.6763296 -0.25383425
000300 2c 8d ce 3c 20 b9 d8 3f 77 3c 65 3d 86 d4 d7 3f
       0.0252138 1.6931496 0.055965867 1.6861732
000310 25 9f ab 3f 90 c5 9e 3f fc ec 18 bc 5b d3 2b bd
       1.3407942 1.2404041 -0.009333845 -0.04194961
000320 1e 86 2d 3f d8 9b 67 bc 84 96 5a 3f 5e 4b c3 3d
       0.6778277 -0.014136277 0.8538592 0.095358595
000330 51 00 be 3f c7 b4 9a ba 67 f5 e1 3e e1 06 79 3d
       1.4843847 -0.0011803143 0.4413254 0.060797576
000340 09 8a a5 3f 02 3b b2 3e 35 08 95 be 25 8e 6a bf
       1.293275 0.34810644 -0.29107824 -0.91623145
000350 77 8b c3 bd f1 6d cf be 76 5d 9c 3f 5f ce 1e bf
       -0.09548085 -0.40513566 1.2216022 -0.6203365
000360 b3 3c 9e 3f b0 28 ba 3f 2a 78 e1 3c be 1a f0 bd
       1.2362274 1.4543667 0.027523119 -0.11723851
000370 83 81 22 3c cf 62 a0 b9 3a 3b 16 bd 2a 6b c9 3f
       0.009918573 -0.00030591196 -0.036677577 1.5735829
000380 e3 f2 58 bd ba 04 b4 bc e5 24 15 bc be ad 24 bf
       -0.05296601 -0.02197491 -0.009103035 -0.6432761
000390 d3 8d 1c be 10 40 d7 3f e1 3f 2c 3d 2c e1 fc 3f
       -0.15288477 1.6816425 0.042053107 1.9756217
0003a0 d9 b4 83 3f 38 46 07 3f 66 2f cc be 8f 4d 4c 3f
       1.0289565 0.5284152 -0.39879912 0.79805845
0003b0 e4 f2 5c 3f 98 9c 53 3d a8 54 19 3e 74 86 4b 3f
       0.8630812 0.05166301 0.149737 0.79502034
0003c0 29 08 a0 3f 03 6b ca bc fe fb 1c 3e 89 9b f3 3e
       1.250249 -0.02470923 0.15330502 0.475796
0003d0 8a 68 a1 3f 3b 1f f3 3d 2f 45 a1 3f 49 37 92 be
       1.2610028 0.11871191 1.2599238 -0.28557804
0003e0 d1 bc cd 3c 96 13 15 3f 6e e1 3f bf 3a c2 f0 3f
       0.025114449 0.5823301 -0.74953353 1.8809273
0003f0 9c d6 26 bd 71 49 f9 3c 72 2f 96 be 12 d8 e7 3f
       -0.04073201 0.030430527 -0.29333073 1.8112814
