preTrained/GAIL_pretrained_4300_discriminator.pth (torch, 542340 bytes, 7 tensors)

net.0.weight f4 [256, 10]
0	0xbeb7e66c	-0.35917985
1	0xbd55e1bd	-0.052217234
2	0x3d8a63a8	0.06757289
3	0x3e96facf	0.29488227
4	0xbe28838a	-0.16456428
5	0x3e43eb08	0.19132626
6	0xbd7ce6c7	-0.061743524
7	0xbe6c5ee4	-0.23083073
8	0x3e654c39	0.22392358
9	0x3e078c3e	0.13237092
10	0xbe63f5f0	-0.22261786
11	0x3e931a25	0.28730884
12	0xbe8cee98	-0.27525783
13	0x3e93a451	0.288363
14	0xbe63ab0f	-0.22233222
15	0xbe0da96d	-0.13834162
16	0x3dd613d0	0.10452998
17	0xbd840d57	-0.06447857
18	0xbe9b6e4d	-0.3035759
19	0x3e3f1465	0.18660124
20	0xbd6780b6	-0.056519233
21	0xbef15fb1	-0.4714332
22	0xbec7f4ee	-0.39054054
23	0xbe9fe3c5	-0.31228462
24	0xbe41a873	-0.18911915
25	0xbe31926b	-0.1734101
26	0xbe5e733f	-0.2172365
27	0x3d8f3e00	0.069942474
28	0x3e55bf40	0.20873737
29	0x3e51b37b	0.20478623
30	0x3e12a77d	0.14321704
31	0x3e53d647	0.20687209
32	0x3e8f849f	0.2803087
33	0xbe6535a0	-0.22383738
34	0xbd555642	-0.052084215
35	0x3ea022a1	0.3127642
36	0xbe559552	-0.20857742
37	0xbe0519ff	-0.12998198
38	0xbe333ab8	-0.17502868
39	0x3e1eb6ed	0.15499468
40	0xbe4e9543	-0.20174126
41	0xbe95fe12	-0.29295403
42	0x3e06c30e	0.13160345
43	0x3dc37773	0.095442675
44	0xbe51cd12	-0.20488384
45	0x3db8ad60	0.09017444
46	0xbd99e5a6	-0.07514505
47	0xbead3db1	-0.3383613
48	0xbb29001f	-0.0025787426
49	0x3e98b306	0.29824084
50	0xbe84c109	-0.25928524
51	0x3add50c3	0.0016885031
52	0xbea4e9d2	-0.3220964
53	0xbe93e0cc	-0.28882444
54	0x3e4f004f	0.20214961
55	0xbdff28bc	-0.12458941
56	0x3e9bce4a	0.30430824
57	0xbcab96a0	-0.020945847
58	0xbdae72db	-0.08518001
59	0x3d6bb735	0.057547767
60	0xbedf3564	-0.4359542
61	0xbea377a7	-0.31927225
62	0xbb1fc3fc	-0.002437829
63	0x3baecc96	0.005334447
64	0x3dc57bdb	0.09642764
65	0xbe2af8e3	-0.16696505
66	0x3eb15430	0.34634542
67	0x3e61c7b7	0.22048841
68	0xbccc196a	-0.024914462
69	0xbcc0b25d	-0.02352255
70	0xbeadd7ca	-0.33953696
71	0xbeea0d23	-0.45713148
72	0x3e952eea	0.29137355
73	0x3da51748	0.08061081
74	0x3e51fbea	0.20506254
75	0x3e295537	0.16536413
76	0x3e22721c	0.15863842
77	0x3e65b072	0.2243059
78	0xbe181533	-0.14851837
79	0x3d9bf00d	0.076141454
80	0x3de24e7f	0.11050128
81	0xbe2c45a5	-0.16823442
82	0x3d27e076	0.040985547
83	0xbdf89518	-0.121378124
84	0x3da9b8cb	0.082871996
85	0xbd179278	-0.037004918
86	0x3b80c5d8	0.003929835
87	0xbdbf3889	-0.09336955
88	0xbd569277	-0.052385774
89	0xbe5feb32	-0.21867064
90	0xbd3d0872	-0.046150632
91	0xbe452670	-0.19252944
92	0x3e11ae5d	0.1422667
93	0xbe2e3121	-0.17010929
94	0x3e653dc2	0.2238684
95	0x3ecec5cf	0.4038529
96	0x3e2e6bed	0.17033358
97	0x3e4930c0	0.19647503
98	0x3e85bc73	0.26120338
99	0xbdfaf2d0	-0.12253344
100	0x3e21be1d	0.15795179
101	0x3f1e516b	0.61842984
102	0x3e4a0eca	0.19732204
103	0x3c348ca2	0.011019858
104	0x3e755fd7	0.23962341
105	0x3ea93375	0.3304707
106	0x3dddaf8c	0.108244985
107	0xbd932e9a	-0.07186623
108	0xbdbfc0be	-0.093629345
109	0xbe523955	-0.20529683
110	0x3e398219	0.18116035
111	0xbee243ac	-0.44192255
112	0xbe1299d8	-0.14316499
113	0xbe90f413	-0.28311214
114	0x3d380c6c	0.04493372
115	0xbeb0b17c	-0.3451041
116	0x3b203242	0.0024444018
117	0x3de5cb06	0.11220364
118	0x3dac8544	0.08423856
119	0x3d8f2cd5	0.06990973
120	0x3e7953dd	0.24348398
121	0xbe217281	-0.15766336
122	0xbe50236e	-0.20326015
123	0xbe860535	-0.26175848
124	0xbe800457	-0.2500331
125	0xbe87f037	-0.26550457
126	0xbe04a739	-0.12954415
127	0xbe9cdcb3	-0.3063713
128	0xbdb46cf9	-0.088098474
129	0x3eb1350a	0.34610778
130	0xbd9df56c	-0.07712826
131	0x3eb68f6c	0.35656297
132	0xbe60d2a8	-0.21955359
133	0x3e4bc585	0.19899566
134	0xbe69943a	-0.2281045
135	0xbd330ea3	-0.04371513
136	0x3e4b0254	0.19825107
137	0x3d0505aa	0.032476105
138	0x3e1d0547	0.15334044
139	0x3dbf0dd8	0.09328812
140	0x3e40424e	0.18775293
141	0x3ce57e3c	0.028014295
142	0x3e7906da	0.2431902
143	0xbe96bb0c	-0.2943958
144	0xbe087d5a	-0.13329068
145	0xbe37b046	-0.17938337
146	0xbd9c2ae3	-0.076253675
147	0x3e3ed7b1	0.18636967
148	0x3e1ebf68	0.15502703
149	0x3e8be9b7	0.27326748
150	0xbd80a127	-0.06280737
151	0xbe8f8f75	-0.28039137
152	0x3e67109c	0.2256493
153	0x3da3d7df	0.080001585
154	0x3dbb1986	0.091357276
155	0x3ec8494f	0.3911843
156	0xbe191345	-0.14948757
157	0x3d73cac2	0.059519537
158	0xbd578883	-0.052620422
159	0x3db0182d	0.08598361
160	0x3e6c2d90	0.23064256
161	0xbe8d6ba3	-0.27621183
162	0xbd44f6ea	-0.048087038
163	0x3e88cd48	0.26719117
164	0xbe67a8a2	-0.22622922
165	0x3df7b6c6	0.12095408
166	0xbe1aebb4	-0.15128976
167	0xbe8511f0	-0.25990248
168	0xbea02bc1	-0.31283382
169	0x3e8498c6	0.25897807
170	0x3d6d2d91	0.057904784
171	0x3ed63275	0.4183537
172	0xbe8c32cb	-0.27382502
173	0x3e1c8572	0.1528528
174	0x3e918bea	0.28427058
175	0xbd8854ee	-0.06656824
176	0x3da177f8	0.0788421
177	0xbe24a9fb	-0.16080467
178	0xbe856b01	-0.260582
179	0xbe761971	-0.24033143
180	0x3e294f85	0.1653424
181	0x3c84b5f5	0.016200045
182	0xbce0eac1	-0.02745569
183	0xbd966f61	-0.073454626
184	0xbb49aa6f	-0.0030771752
185	0x3e0b0fec	0.13580292
186	0x3e5760c0	0.21033001
187	0x3e0e3f55	0.13891347
188	0x3de4e752	0.11176933
189	0x3e22f2dc	0.15912956
190	0xbe23c85f	-0.15994404
191	0xbef0a606	-0.47001666
192	0x3e9353d7	0.28774902
193	0xbe07d9c8	-0.1326667
194	0xbe0b43a7	-0.13600026
195	0xbd520fb1	-0.051284496
196	0xbd84a559	-0.0647685
197	0x3e9c5a61	0.30537704
198	0x3e12e007	0.14343272
199	0x3e355644	0.17708689
200	0xbe01bb09	-0.12669004
201	0x3d9b3bbd	0.075797535
202	0xbe850dcf	-0.25987098
203	0x3dd2e370	0.102972865
204	0xbebc1d4a	-0.36741096
205	0xbe094079	-0.134035
206	0xbe066df3	-0.1312788
207	0x3d8231b2	0.06357135
208	0xbd94d5ca	-0.072673395
209	0x3df1175d	0.11772034
210	0xbe89a392	-0.26882607
211	0xbeab1816	-0.33416814
212	0x3ddbef50	0.107390046
213	0xbe717dc5	-0.23583134
214	0xbe9f0e38	-0.31065536
215	0xbd09be4e	-0.033628754
216	0xbe86c87a	-0.26324826
217	0xbe0da819	-0.13833655
218	0x3e3dd4e2	0.1853824
219	0xbe84eb31	-0.25960687
220	0x3e1422f4	0.14466459
221	0x3e8f5f9b	0.2800263
222	0x3da56bba	0.08077188
223	0xbe7a238b	-0.24427621
224	0xbde26678	-0.110547006
225	0x3e836253	0.25660953
226	0xbe044fcd	-0.12921067
227	0xbcc68790	-0.024234563
228	0x3e0bb0cb	0.1364166
229	0x3e7ce3dc	0.24696296
230	0x3e449bd4	0.19200069
231	0xbf0defdf	-0.5544414
232	0xbeaf5053	-0.3424097
233	0x3e24067d	0.160181
234	0xbd440fb8	-0.047866553
235	0xbe08d80c	-0.13363665
236	0x3d52f13b	0.051499587
237	0xbe2066b9	-0.15664186
238	0x3d45a840	0.04825616
239	0x3e4ee52a	0.20204607
240	0xbe2288b2	-0.15872458
241	0xbe5cae93	-0.2155097
242	0xbe89f6fc	-0.26946247
243	0xbe4c27e3	-0.1993709
244	0x3e08e595	0.13368829
245	0x3e3628b1	0.1778896
246	0x3d3c3873	0.04595227
247	0x3e2ffea0	0.17186975
248	0x3d875026	0.06607084
249	0xbe04a814	-0.12954742
250	0x3e86e352	0.26345307
251	0x3e9e5795	0.30926195
252	0xbc798d16	-0.015231391
253	0xbe1a92c9	-0.15095057
254	0x3d628ee6	0.05531206
255	0xbd42b2f1	-0.047533933

net.0.bias f4 [256]
0	0x3e8d15f9	0.27555826
1	0xbe859013	-0.26086482
2	0x3d9e96e0	0.07743621
3	0x3e18ec40	0.14933872
4	0xbdff681e	-0.12471031
5	0xbea21f2c	-0.31664407
6	0x3e2bd165	0.16779096
7	0x3ecb58b0	0.397161
8	0xbeced16c	-0.4039415
9	0x3e769950	0.24081922
10	0x3e7d6294	0.24744636
11	0xbec43454	-0.38321173
12	0xbd8d08fd	-0.0688648
13	0xbd265390	-0.040607035
14	0xbe7870cf	-0.24261783
15	0x3eaea178	0.34107566
16	0xbe8f5ec0	-0.28001976
17	0xbeb94a15	-0.36189333
18	0x3e8335f8	0.25627112
19	0xbe8f3ad4	-0.2797457
20	0xbe6eadd3	-0.23308496
21	0xbe6385a2	-0.22218946
22	0x3e393138	0.18085182
23	0x3ce36cb8	0.027761802
24	0xbe10ee1f	-0.14153336
25	0xbe9c4d70	-0.3052783
26	0xbe3e39cb	-0.18576734
27	0x3e652b83	0.2237988
28	0x3e8c1d31	0.2736602
29	0x3e67ae9e	0.22625205
30	0xbe88abe5	-0.26693645
31	0x3e95e889	0.29278973
32	0xbe97c42c	-0.29641855
33	0x3e72e6fa	0.23720923
34	0x3e431699	0.19051589
35	0x3e146c46	0.14494428
36	0xbdc2d432	-0.09513129
37	0x3e322c13	0.17399625
38	0x3c3e3191	0.011608497
39	0x3e3c623e	0.18396851
40	0xbdc60b0f	-0.09670078
41	0x3e5bb4da	0.21455708
42	0xbdae04d8	-0.084970176
43	0xbed5ac58	-0.4173305
44	0xbe7a602a	-0.24450746
45	0x3e61de4a	0.22057453
46	0xbed46fd6	-0.41491574
47	0x3e6fa004	0.23400885
48	0xbd41aedc	-0.0472859
49	0xbd4eca2b	-0.05048577
50	0x3e0035cf	0.12520526
51	0xbe4be53c	-0.19911665
52	0x3e1b8ccb	0.15190427
53	0x3e3118bc	0.17294592
54	0xbedc959f	-0.43082902
55	0x3e96583e	0.29364198
56	0x3d2e10ea	0.0424966
57	0xbd469c6b	-0.048489016
58	0xb99fb8ba	-0.00030464475
59	0xbea04938	-0.3130586
60	0x3e0fe84b	0.14053456
61	0x3e9340b6	0.28760308
62	0xbe4ae52e	-0.19813988
63	0x3e036fe3	0.1283565
64	0x3df10feb	0.11770614
65	0x3ebbf6e6	0.36711806
66	0x3e511c27	0.20420896
67	0xbba37011	-0.0049877246
68	0xbe72535b	-0.2366461
69	0xbeb3b90d	-0.3510212
70	0xbeec4e5e	-0.4615354
71	0xbe829bb9	-0.25509432
72	0x3d391e8e	0.045195155
73	0x3e2b082d	0.16702338
74	0x3d441114	0.04786785
75	0x3d93d601	0.072185524
76	0x3e0abfa7	0.13549672
77	0x3ef223e9	0.47293022
78	0x3eb89c1f	0.3605661
79	0xbdbf8972	-0.093523875
80	0xbc65f21d	-0.014034775
81	0x3e9fc45a	0.31204492
82	0xbe40ffa0	-0.18847513
83	0x3e4a6cb5	0.19768031
84	0xbe902613	-0.28154048
85	0xbe5263a5	-0.20545824
86	0x3e784682	0.24245647
87	0x3e7028d4	0.23453075
88	0x3dbab70a	0.09116943
89	0xbdf00911	-0.11720479
90	0x3dff7fd3	0.124755524
91	0xbea806ff	-0.32817838
92	0xbdae5cc5	-0.08513788
93	0xbeb6424f	-0.35597464
94	0xbe0049b2	-0.12528113
95	0x3edd0ae7	0.4317238
96	0x3ed5b9a4	0.41743195
97	0xbe6e75f1	-0.23287179
98	0x3e688245	0.22705944
99	0x3e84984a	0.25897437
100	0xbeb3b72f	-0.35100695
101	0xbe72007d	-0.23632999
102	0x3dc9980c	0.09843454
103	0x3eae5d9c	0.34055793
104	0x3e87269c	0.26396644
105	0x3ea1fb0b	0.31636843
106	0xbe55ef61	-0.20892097
107	0x3c0fbf5e	0.008773653
108	0x3e2bec99	0.16789474
109	0x3dc63a98	0.096791446
110	0x3ce6cbcb	0.028173348
111	0xbe7e8f8a	-0.24859443
112	0xbdf76793	-0.12080302
113	0xbe977f97	-0.2958953
114	0xbe83970a	-0.2570117
115	0xbde6127c	-0.11233994
116	0x3eb299e3	0.3488303
117	0x3ede6394	0.43435347
118	0x3a9d3be9	0.0011996004
119	0xbefdc3c6	-0.49563426
120	0xbe7800fb	-0.24219124
121	0xbed31ea8	-0.41234326
122	0xbda7f0d8	-0.08200234
123	0x3cc491fe	0.023995396
124	0x3c2b2bae	0.010447426
125	0xbd31be88	-0.043394595
126	0x3bd51854	0.0065031443
127	0x3e0e9435	0.13923724
128	0x3d3849c1	0.044992212
129	0xbdb6ef9f	-0.08932423
130	0xbd421b5e	-0.04738938
131	0xbe868189	-0.26270702
132	0x3c4d7825	0.012540852
133	0x3e22d917	0.15903126
134	0xbe6977a2	-0.22799543
135	0xbe78269a	-0.24233475
136	0x3d9fc381	0.07800961
137	0x3ce49418	0.027902648
138	0xbdbdb408	-0.09262854
139	0x3e1b7950	0.15182996
140	0xbe3dc1cc	-0.18530959
141	0xbebca93e	-0.36847872
142	0xbe0ee8ea	-0.13956037
143	0xbe16a8c2	-0.14712813
144	0xbeb9ae65	-0.36265865
145	0x3edad5fa	0.42741376
146	0x3e9456bf	0.28972432
147	0xba4c51ec	-0.000779419
148	0x3e3b2ba9	0.18278374
149	0x3e884510	0.2661519
150	0x3e1af176	0.15131173
151	0x3e9b2b96	0.3030669
152	0x3dbf5a10	0.0934335
153	0x3e081d30	0.13292384
154	0xbefb962d	-0.49138013
155	0x3db8ac7a	0.09017272
156	0xbe986c51	-0.2977014
157	0xbe5cb359	-0.2155279
158	0x3e604d4c	0.21904486
159	0xb9fe4f9a	-0.00048505963
160	0xbded9210	-0.11600125
161	0xbd84a594	-0.06476894
162	0x3d8f2f05	0.0699139
163	0x3ddf49ee	0.10902773
164	0xbe45e94a	-0.19327274
165	0x3eb92f68	0.3616898
166	0xbe9218e5	-0.28534618
167	0x3d181258	0.03712687
168	0xbe0ad219	-0.13556708
169	0xbe82f966	-0.255809
170	0x3e9c1c71	0.3049045
171	0xbe0e476d	-0.13894434
172	0xbeb4385d	-0.35199252
173	0x3e82e20b	0.25563082
174	0x3e791dc4	0.24327761
175	0xbf021817	-0.5081801
176	0x3b11d84c	0.0022254167
177	0xbddc2658	-0.10749501
178	0x3d334404	0.043766037
179	0x3d0c598f	0.034265097
180	0xbe0e20b8	-0.13879669
181	0x3ece7b1e	0.40328306
182	0xbe744bbc	-0.23857015
183	0x3eaf24e0	0.3420782
184	0x3e5a5103	0.21319966
185	0x3e7a14fe	0.2442207
186	0xbcdec4e2	-0.02719349
187	0xbe7a336f	-0.24433683
188	0x3e8a1745	0.26970878
189	0x3e25e104	0.16199118
190	0xbe05e69e	-0.13076255
191	0x3e3f15d9	0.18660678
192	0xbe0f3edb	-0.13988821
193	0xbee384e9	-0.4443734
194	0xbe56e5c5	-0.20986088
195	0x3dd06be0	0.101768255
196	0x3e345693	0.1761115
197	0xbe80399a	-0.25043947
198	0xbc6627c0	-0.014047563
199	0xbe1741bd	-0.14771171
200	0x3d716e06	0.058942817
201	0x3e2ce569	0.16884388
202	0xbec18cd6	-0.37802762
203	0xbddda1b2	-0.108218566
204	0xbdbd3238	-0.09238094
205	0x3e0c6ce5	0.13713415
206	0x3edf3922	0.43598276
207	0xbe24aaf3	-0.16080837
208	0xbe3918d8	-0.18075883
209	0xbe1569bf	-0.1459112
210	0xbe20bb95	-0.15696557
211	0x3e8089e3	0.251052
212	0x3da9cad9	0.08290643
213	0x3dfb07f2	0.12257375
214	0x3e051a53	0.12998323
215	0xbea70b3f	-0.32625768
216	0x3d70ea99	0.05881748
217	0xbda8c310	-0.0824033
218	0x3e90118e	0.28138393
219	0xbd94b0ab	-0.07260259
220	0xbe0b31d1	-0.13593222
221	0xbe453795	-0.19259484
222	0x3e5a2ac6	0.2130538
223	0x3e58f274	0.21186239
224	0x3dbc4983	0.09193709
225	0xbea8c37a	-0.32961637
226	0x3cd4cde9	0.025977092
227	0xbe4bf8ae	-0.19919083
228	0x3ec84cbc	0.39121044
229	0xbe912ce4	-0.2835456
230	0x3dd1fa1a	0.10252781
231	0xbe7b3c6a	-0.24534765
232	0x3eb16745	0.346491
233	0x3e959bc0	0.2922039
234	0x3dfd376e	0.12364088
235	0x3dd9d3bc	0.10636088
236	0x3cb72ac8	0.022359267
237	0x3dacdf35	0.08441011
238	0x3e0e5f55	0.13903554
239	0x3d27e1ed	0.040986944
240	0x3e8d7b69	0.27633217
241	0xbe44ddf0	-0.19225287
242	0xbe7d64dc	-0.24745506
243	0xbdc5e757	-0.09663265
244	0xbe94b496	-0.29044026
245	0x3e3154c8	0.17317498
246	0xbd689837	-0.05678579
247	0xbe08d979	-0.13364209
248	0x3e08ca99	0.13358535
249	0xbe13a31e	-0.14417693
250	0xbe87da38	-0.26533675
251	0xbf11a087	-0.5688557
252	0x3d05cf06	0.032668136
253	0xbe4b3ea9	-0.19848122
254	0xbe782d34	-0.24235994
255	0xbe397684	-0.18111616

net.2.weight f4 [256, 256]
0	0xbd8c5666	-0.06852417
1	0x3c6f0038	0.0145874545
2	0xbd87cb8b	-0.066306196
3	0xbc3d579f	-0.011556535
4	0xbd69d892	-0.057091303
5	0x3d3c7eec	0.04601948
6	0xbdbbe5d9	-0.09174699
7	0x3c106d12	0.008815067
8	0xbd25319c	-0.040330514
9	0xbdabdbbe	-0.08391522
10	0xbdcb2e12	-0.099208966
11	0x3d2a2178	0.041535825
12	0x3d79736e	0.060901098
13	0xbce8e4c3	-0.028429395
14	0x3b8958c6	0.004191491
15	0xbc1d0590	-0.009583846
16	0xbd0f783c	-0.035026774
17	0x3d6b82e0	0.05749786
18	0xbb1bf791	-0.0023798684
19	0x3d58886d	0.05286448
20	0xbd5a73ed	-0.05333321
21	0xbe19f4c2	-0.15034774
22	0xbd823902	-0.063585296
23	0x3d450a7f	0.048105713
24	0xbcc7d1c0	-0.024392009
25	0x3c324c16	0.010882398
26	0x3d821594	0.06351772
27	0xbcd43582	-0.02590442
28	0xbd3c48ed	-0.045967985
29	0xbe626e12	-0.22112301
30	0x3c7cee50	0.0154376775
31	0xbc7da297	-0.015480659
32	0xbc58b538	-0.0132268
33	0xbcb1eff6	-0.021720868
34	0xbd96e5cb	-0.07368048
35	0x3dc04fed	0.09390245
36	0x3d1230b4	0.03569098
37	0x3d97707f	0.07394504
38	0xbe29f876	-0.16598687
39	0xbb3d059b	-0.0028842452
40	0x3c29593e	0.010336218
41	0x3d089b30	0.033351123
42	0x3d2c04e8	0.041996866
43	0x3d1ea814	0.03873451
44	0xbb74bdb0	-0.0037344508
45	0xbe0ad68e	-0.13558409
46	0x3d60f06a	0.054916777
47	0x3acfee73	0.001586391
48	0xbd5ccbcf	-0.053905305
49	0x3d07c42c	0.03314607
50	0xbd39b484	-0.04533817
51	0x3b81a7b0	0.0039567575
52	0xbd4511bd	-0.04811262
53	0x3df35226	0.11880903
54	0xbbeb0457	-0.007172148
55	0xbd69ad6a	-0.057050146
56	0x3d5acffc	0.053421006
57	0x38a63fd1	7.9273836e-05
58	0xbe263810	-0.16232324
59	0x3c3b98ef	0.011450036
60	0x3d76ecdf	0.06028449
61	0xbe2a922c	-0.16657323
62	0xbd452288	-0.048128635
63	0x3d10e940	0.035378695
64	0xbd7e12dc	-0.062029704
65	0xbbb944c5	-0.00565395
66	0xbd229a6f	-0.03969806
67	0x3d9d01f5	0.07666389
68	0xbccf79d4	-0.025326647
69	0x3d183392	0.037158556
70	0x3d3e83d0	0.046512425
71	0xbe252a22	-0.16129354
72	0x3c95b6ec	0.0182757
73	0x3b2d0e86	0.0026406362
74	0xbc717d6f	-0.014739378
75	0x3d10e82f	0.035377678
76	0x3c1022c8	0.008797355
77	0xbdcb4ffb	-0.099273644
78	0x3c96b3af	0.018396227
79	0xbd7122b2	-0.05887098
80	0xbbdbed30	-0.0067116246
81	0xbd987561	-0.07444263
82	0xbd8c0cda	-0.06838389
83	0xbda5a42a	-0.080879524
84	0x3d5eca7c	0.054392323
85	0xbcb84ec2	-0.022498492
86	0x3e60374e	0.21896097
87	0x3c85c6b6	0.016330104
88	0x3ca74747	0.02041973
89	0xbc8cb0d7	-0.017174168
90	0xbd758424	-0.059940472
91	0x3d998581	0.07496167
92	0xbd88a0ff	-0.066713326
93	0x3d3d24b3	0.046177577
94	0xbd2ba243	-0.04190279
95	0xbda699f1	-0.08134831
96	0xbcce455d	-0.02517956
97	0xbd789b26	-0.060694836
98	0xbc10d7c8	-0.008840509
99	0x3d34eafd	0.044169415
100	0x3cf71aa8	0.030164078
101	0x3b96abd0	0.0045981184
102	0xbaa7b028	-0.0012793588
103	0xbd60632f	-0.05478209
104	0xbe0070ea	-0.12543073
105	0x3d7b93b0	0.061420143
106	0x3d1224a8	0.03567949
107	0x3d29ef89	0.041488204
108	0xbce7ce33	-0.028296566
109	0x3d9b4d0a	0.075830534
110	0xbcde37dc	-0.027126245
111	0x3cfb1fd2	0.030654822
112	0xbc0127aa	-0.007882992
113	0x3d385d30	0.045010746
114	0xbb08a3f3	-0.0020849674
115	0xbe0c769b	-0.1371712
116	0x3cbf797e	0.023373362
117	0xbd7884a9	-0.06067339
118	0xbc13c0cf	-0.009018137
119	0x3e174c73	0.14775257
120	0x3d029d60	0.031888366
121	0xbdea00a4	-0.114259034
122	0x3dafb670	0.08579719
123	0xbcb88ed8	-0.02252905
124	0xba02e300	-0.0004992932
125	0x3d881918	0.06645411
126	0xbd56daca	-0.052454747
127	0xbd46e294	-0.048555925
128	0xbc6f792f	-0.014616295
129	0x3d51a305	0.05118086
130	0xbcad34cf	-0.021143345
131	0xbdeadaba	-0.114675
132	0xbd967b58	-0.07347745
133	0xbd800868	-0.06251603
134	0x3d9da95e	0.0769832
135	0xbae7c680	-0.0017683059
136	0x3dc586bf	0.096448414
137	0xbd67c1c3	-0.05658127
138	0x3d976a84	0.07393363
139	0xbbbfff76	-0.0058593107
140	0xbcaf1924	-0.021374293
141	0x3d56ffbc	0.05248998
142	0xbd343dd2	-0.04400427
143	0xbd6943a6	-0.05694928
144	0xbc1937be	-0.009351669
145	0xbdb7e4d4	-0.089791924
146	0xbd2f41ab	-0.042787235
147	0xbdf1f69c	-0.11814615
148	0xbe2d3170	-0.1691339
149	0xbd78808a	-0.06066946
150	0xbd31a08b	-0.043365996
151	0xbc5bac51	-0.013407783
152	0xbd62ddf8	-0.055387467
153	0xbcc673f4	-0.024225213
154	0x3e16633f	0.14686297
155	0xbd57ebc9	-0.052715097
156	0xbc7692cd	-0.0150496485
157	0x3d354b38	0.044261187
158	0x3d568b49	0.052378926
159	0xbd9f3b59	-0.077749915
160	0xbce4556a	-0.02787276
161	0x3d5b3795	0.053519804
162	0xbd26c83f	-0.040718313
163	0x3d7e5306	0.062090896
164	0x3ca34465	0.019930074
165	0x3b5786e6	0.0032886802
166	0xbc7917b8	-0.015203409
167	0x3d9fcd6b	0.07802852
168	0x3d174ecf	0.036940392
169	0xbd59e2e8	-0.05319491
170	0xbdd741af	-0.10510575
171	0xbddcbf45	-0.10778669
172	0x3d1634d9	0.036671493
173	0x3d124b40	0.035716295
174	0xbe0674ac	-0.13130444
175	0xbd137dae	-0.03600853
176	0xbd057cd3	-0.032589745
177	0x3d64893a	0.055794932
178	0xbe5a0953	-0.2129262
179	0x3d717cb3	0.058956813
180	0xbca31fd0	-0.01991263
181	0xbd841c1d	-0.06450675
182	0x3cfd863e	0.0309478
183	0xbda8bd61	-0.08239246
184	0xbe39f07a	-0.18158141
185	0xbb941145	-0.0045186603
186	0xbd5af28a	-0.05345396
187	0xbca7f26b	-0.020501336
188	0x3d09cc62	0.03364218
189	0xbdff306d	-0.12460408
190	0xbca81c0e	-0.02052119
191	0x3d4785bf	0.048711535
192	0x3d3e39ae	0.046441726
193	0xbd41296f	-0.047158655
194	0x3d06e0d4	0.032929257
195	0xbcf9c7df	-0.030490814
196	0x3c26a92c	0.01017217
197	0xba595700	-0.0008290857
198	0x3d040379	0.032229874
199	0xbd84c1ef	-0.064823024
200	0xbdba3c4c	-0.09093532
201	0xbb715c94	-0.0036828863
202	0xbd8d0cac	-0.068871826
203	0xbc96852f	-0.018374054
204	0x3c75c516	0.015000602
205	0xbd8e8ef0	-0.06960857
206	0xbd0b0153	-0.03393681
207	0x3cd4a9e0	0.025959909
208	0xbc419e38	-0.011817507
209	0x3d530899	0.05152187
210	0xbc93241e	-0.017961558
211	0xbd849d4d	-0.06475315
212	0xbc109c31	-0.008826301
213	0x3db57480	0.08860111
214	0x3d346ab8	0.044047087
215	0xbd4622e4	-0.048373118
216	0xbba6605a	-0.005077404
217	0xbdcac139	-0.099001355
218	0xbdc955c3	-0.09830811
219	0xbd1671ea	-0.03672973
220	0xbc603890	-0.013685361
221	0xbdcfd4bd	-0.101479985
222	0x3d464e6c	0.048414633
223	0x3b8a24a7	0.004215795
224	0x3caa18c8	0.02076377
225	0xbb8b6ec6	-0.0042551486
226	0x3d229cf3	0.03970046
227	0x3cee9dfd	0.029128069
228	0xbd97777d	-0.073958375
229	0x3c989836	0.018627267
230	0xbc4a5fad	-0.012351912
231	0xbb1a37d4	-0.0023531811
232	0x3c093104	0.008373503
233	0x3bb7d185	0.0056096935
234	0x3d6f8d71	0.0584845
235	0x3ccbc657	0.02487485
236	0xbce037c7	-0.027370347
237	0xbd034e68	-0.032057196
238	0x3c0ee767	0.008722163
239	0xbcb15951	-0.021649035
240	0x3e1c3032	0.1525276
241	0x3c722c68	0.014781095
242	0xbd54b820	-0.051933408
243	0xbdf41aa8	-0.11919147
244	0xbe25abf2	-0.16178873
245	0xbba2abd0	-0.0049643293
246	0x3d668a89	0.05628446
247	0xbcbb2e08	-0.022849098
248	0xbd613010	-0.054977477
249	0x3c451065	0.012027835
250	0x3d6f2b25	0.058390755
251	0xbd91c8d7	-0.07118385
252	0xbcfeb920	-0.031094134
253	0x3d355270	0.04426807
254	0xbd65d2c5	-0.05610921
255	0x3d667ecd	0.05627327

net.2.bias f4 [256]
0	0xbd429758	-0.047507614
1	0x3d24c465	0.04022636
2	0xbd973199	-0.07382507
3	0xbe0b4c1a	-0.13603249
4	0xbcb4a2f9	-0.022050368
5	0x3d26f41c	0.040760145
6	0xbc98e81e	-0.01866537
7	0xbc4f0135	-0.012634565
8	0xbd726d52	-0.059186287
9	0xbd861dad	-0.06548629
10	0xbcf72d7e	-0.03017306
11	0x3c8a3541	0.016871097
12	0x3c2da48d	0.010598314
13	0xbcb2782c	-0.021785818
14	0x3c3fed5d	0.011714307
15	0x3d773865	0.060356516
16	0xbab0300e	-0.0013442056
17	0xbd786dd5	-0.06065162
18	0x3e4005ee	0.18752262
19	0x3e44f383	0.19233517
20	0xbd93e40e	-0.07221232
21	0xbd7abd0a	-0.061215438
22	0xbbe27769	-0.0069112075
23	0x3e24226c	0.16028756
24	0xbaa54719	-0.001260969
25	0xbdcd66e6	-0.10029392
26	0x3c6f948b	0.014622818
27	0xbdc1c052	-0.0946051
28	0x38fddcef	0.00012105132
29	0x3e103d7e	0.14085957
30	0xbd34f02b	-0.044174355
31	0x3d0f63f8	0.035007447
32	0x3d6692c4	0.05629231
33	0xbd0a855a	-0.03381858
34	0x3d9dcf07	0.07705503
35	0x3e4031db	0.18769018
36	0x3c72507a	0.014789695
37	0x3e0ae544	0.1356402
38	0xbc4994f4	-0.01230358
39	0xbc9f1985	-0.019421348
40	0xbbce4aad	-0.006295523
41	0xbdce3b17	-0.10069864
42	0xbd4bc649	-0.049749646
43	0xbdf0b5bd	-0.11753414
44	0xbd9d652e	-0.07685314
45	0xbaaad293	-0.0013032727
46	0xbd85bc89	-0.06530101
47	0xbde638cc	-0.11241302
48	0xbdc10885	-0.09425453
49	0xbe210827	-0.15725766
50	0xbda4ae0b	-0.080410086
51	0xbdcc53d1	-0.09976924
52	0xbd19906e	-0.037491255
53	0xbd5215eb	-0.051290434
54	0xbd7ddff7	-0.061981168
55	0x3d821600	0.063518524
56	0xbdfe38f6	-0.12413208
57	0xbe067c31	-0.13133313
58	0xbdbaf46d	-0.09128652
59	0xbc289e41	-0.010291637
60	0xbd7ad024	-0.061233655
61	0xbca9623d	-0.020676726
62	0xbd47424d	-0.048647214
63	0x3d881ad8	0.06645745
64	0xbd9be3e7	-0.07611828
65	0xbcd9c382	-0.026582483
66	0x3dec71a2	0.11545111
67	0xbdf3c0cf	-0.1190201
68	0xbb86110f	-0.004091389
69	0x3e3463e9	0.17616238
70	0xbc634f56	-0.013873896
71	0xbd9307e8	-0.07179242
72	0xbd2aa924	-0.04166521
73	0x3cca6d40	0.024710298
74	0xbd129355	-0.035785038
75	0xbdd910d5	-0.105989136
76	0xbdb11651	-0.08646835
77	0xbb9e46de	-0.0048302254
78	0xbde2aa01	-0.11067582
79	0x3e0125c0	0.12612057
80	0x3c931ec2	0.017959002
81	0x3c951510	0.01819852
82	0xbd470046	-0.048584245
83	0x3c8eedd3	0.017447388
84	0xbd806823	-0.062698625
85	0xbb7ade59	-0.0038279502
86	0x3b05a8e1	0.002039485
87	0xba32b5e0	-0.00068172626
88	0xbd12a0c8	-0.035797864
89	0xbd943a09	-0.07237632
90	0xbdb3a3f7	-0.08771508
91	0xbd78c12c	-0.060731098
92	0xbd1da66e	-0.038488798
93	0xbd41996c	-0.047265455
94	0xbdc0de92	-0.09417452
95	0xbde55afc	-0.111989945
96	0xbde2c050	-0.11071837
97	0xbc1e6691	-0.009668008
98	0x3cfafeb6	0.030639034
99	0x3cc937e0	0.024562776
100	0xbdca173d	-0.098677136
101	0xbd8365ff	-0.064159386
102	0x3b909553	0.004412332
103	0xbd881db4	-0.066462904
104	0xbdbe185f	-0.09281992
105	0xbddbc02b	-0.107300125
106	0x3d7e4c91	0.06208474
107	0x3d026f46	0.0318444
108	0x3c81669e	0.015796002
109	0xbdd6bd7a	-0.104853585
110	0xbd18da8c	-0.037317798
111	0x3e1ebc30	0.15501475
112	0xbd2c1858	-0.042015404
113	0xbd85b5fd	-0.06528852
114	0xbcb54a26	-0.022130083
115	0x3e075490	0.13215852
116	0xbdc9e010	-0.0985719
117	0x3e18c9ac	0.14920682
118	0x3d4362c5	0.047701616
119	0xbd99ecda	-0.07515879
120	0x3d300314	0.042971686
121	0xbd49a11c	-0.04922591
122	0xbcccfaac	-0.025021873
123	0xbc70a4a3	-0.01468769
124	0x3e82b523	0.2552882
125	0x3e049618	0.12947881
126	0xbcd25954	-0.02567736
127	0xbe1869b4	-0.14884073
128	0xbd370fa4	-0.04469265
129	0xbda1cc32	-0.07900275
130	0x3dcc2dd1	0.09969676
131	0x3e30bb2c	0.172589
132	0x3d1455c3	0.0362146
133	0xbcc73fc4	-0.024322398
134	0x3d1c2ca0	0.038128495
135	0xbc9a775a	-0.01885574
136	0x3d5737f2	0.052543588
137	0x392f0eb3	0.00016694776
138	0xbd037d13	-0.032101702
139	0xbd26eaec	-0.040751383
140	0x3d3990b5	0.04530402
141	0xbd569668	-0.052389532
142	0xbd698a77	-0.057016816
143	0xbd15eeb4	-0.0366046
144	0xbd13a5f0	-0.036046922
145	0xbc8382f9	-0.016053664
146	0xbdb3ddb4	-0.08782521
147	0xbd170d9b	-0.03687821
148	0xbdd233a8	-0.10263759
149	0xbd48ed16	-0.049054228
150	0xbd3ab549	-0.045583043
151	0xbd8c88a0	-0.06861997
152	0xbd14a959	-0.036294315
153	0x3c93b767	0.018031789
154	0xbd620b62	-0.055186637
155	0xbce1d692	-0.027568135
156	0xbc8af3b8	-0.016961917
157	0x3c42b79b	0.011884595
158	0xbc0c7ea9	-0.00857512
159	0x3e4a4b00	0.19755173
160	0xbcb69d73	-0.022291875
161	0xbad959f1	-0.0016582591
162	0xbe02af89	-0.12762274
163	0xbcc041f2	-0.023468945
164	0x3e0cb73a	0.1374177
165	0x3bf76e01	0.0075509553
166	0x3e10c24d	0.1413662
167	0x3c907281	0.017632725
168	0xbd82841d	-0.06372855
169	0xbc38e62f	-0.011285349
170	0xbce87e37	-0.028380496
171	0xbdf5d15e	-0.12002824
172	0xbc039abb	-0.008032496
173	0xbc3ec622	-0.011643918
174	0xbbf58842	-0.00749305
175	0x3e0f28dd	0.13980432
176	0xbc2dab8e	-0.010599984
177	0x3dad169a	0.084515765
178	0x3c9f81b3	0.019471025
179	0x3ca2f2e3	0.019891208
180	0xbd1ef1f0	-0.03880495
181	0xbc43eeff	-0.011958837
182	0xbda7b2c5	-0.081883945
183	0x3c901f77	0.017593129
184	0xbdb15e25	-0.08660535
185	0x3da1f0d4	0.079072624
186	0xbd14f394	-0.036365107
187	0xbd1d1e2f	-0.038358863
188	0x3cbf689c	0.023365311
189	0xbd8210e7	-0.0635088
190	0xbdec404b	-0.115357004
191	0xbd8e44ab	-0.06946691
192	0xbd7a9bff	-0.061183926
193	0x3c0eef65	0.008724068
194	0xbd81fdfc	-0.06347272
195	0xbdc5b91d	-0.09654448
196	0x3e0fa79e	0.14028785
197	0xbd9bf740	-0.076155186
198	0x3e02348f	0.12715362
199	0xbd3f197a	-0.046655156
200	0x3deb1a77	0.11479657
201	0xbdabb1d1	-0.08383525
202	0x3bfb3d99	0.007667255
203	0x3d46d4cc	0.048542783
204	0x3d2707a2	0.040778764
205	0xbd498195	-0.049195845
206	0x39acf638	0.00032989844
207	0x3c176020	0.009239227
208	0xbcf6ee47	-0.030142916
209	0xbc425d54	-0.0118630715
210	0x3c12ac22	0.0089521725
211	0xbc5ec573	-0.01359688
212	0x3c61ff4d	0.013793779
213	0xbd12c77a	-0.035834767
214	0x3e48df6d	0.1961648
215	0xbdce2018	-0.10064715
216	0xbc24cc14	-0.010058422
217	0xbd6a9a91	-0.057276312
218	0xbd6686d1	-0.056280915
219	0x3c47b58f	0.012189283
220	0xbdde9982	-0.10869123
221	0xbd18e3e9	-0.037326727
222	0xbdbceded	-0.09225068
223	0xbd5090ce	-0.050919347
224	0x3cbc177f	0.022960423
225	0x3e5d5146	0.21613035
226	0xbcd4bf70	-0.02597019
227	0xbd7f879e	-0.062385194
228	0xbd840738	-0.06446689
229	0xbcb7f800	-0.022457123
230	0xbd751a56	-0.05983957
231	0xbce61794	-0.028087415
232	0xbd2e5ada	-0.04256711
233	0xbc683d60	-0.014174789
234	0xbddef4f7	-0.10886567
235	0xbd5bb66d	-0.05364077
236	0x3c661625	0.014043366
237	0xbc6f4a1d	-0.014605072
238	0x3d82b627	0.06382399
239	0xbd7c9e2e	-0.06167429
240	0x3d9410f0	0.07229793
241	0xbd26a992	-0.04068906
242	0x3d098936	0.03357812
243	0xbdbeaf2b	-0.093107544
244	0x3c54728c	0.012966763
245	0x3dd7401f	0.10510277
246	0x3bd05ad7	0.006358485
247	0x3c6ebc59	0.014571273
248	0xbd0a8eb7	-0.03382751
249	0x3d97d730	0.07414091
250	0xbcee4b66	-0.029088687
251	0xbbb2c4f9	-0.00545561
252	0x3e1bdb23	0.15220313
253	0xbd41c31c	-0.04730521
254	0xbd404ac9	-0.04694632
255	0x3e21290d	0.15738316

net.4.weight f4 [256, 256]
0	0x3c38ef03	0.011287454
1	0x3e76cfc5	0.24102695
2	0xbcd588af	-0.026066152
3	0x3ee1c627	0.4409649
4	0x3dfd14e5	0.12357501
5	0xbc5e4d4d	-0.013568235
6	0x3c546272	0.012962924
7	0x3c0cdfc0	0.008598268
8	0x3e6ca610	0.23110223
9	0x3d67c3d2	0.056583233
10	0x3c2df763	0.010618064
11	0xbd9a841c	-0.07544729
12	0x3d32922b	0.043596428
13	0x3d1c46ef	0.038153585
14	0xbd3cccc3	-0.046093713
15	0x3e1bd1e7	0.1521679
16	0x3cac657d	0.021044487
17	0xbd36bbf5	-0.044612844
18	0xbf12e14f	-0.57375044
19	0xbd970416	-0.07373826
20	0x3e209314	0.15681106
21	0x3c7b73e0	0.015347451
22	0xbd81e2f2	-0.063421145
23	0x3b9f868f	0.0048683356
24	0x3c0f0d27	0.008731163
25	0x3ecc744e	0.39932483
26	0x3dda02b5	0.106450476
27	0x3e5a1ac8	0.21299279
28	0xbc96fec4	-0.018432029
29	0xbd92c527	-0.0716651
30	0xbb5093a0	-0.0031826273
31	0x3d176fe1	0.03697193
32	0x3eb6a6a9	0.35674027
33	0x3d6fc3b2	0.05853624
34	0xbee10801	-0.4395142
35	0xbede8419	-0.43460158
36	0x3d809812	0.06279005
37	0x3d36dbb9	0.044643138
38	0xbced19ac	-0.028942905
39	0x3d130f5b	0.035903316
40	0x3d48dcf9	0.04903886
41	0x3dc39b1f	0.095510714
42	0x3d70af82	0.058761127
43	0x3e29aee5	0.16570623
44	0x3d205203	0.039140712
45	0x3acceeef	0.0015635173
46	0x3d724cfa	0.05915544
47	0x3e271b76	0.1631907
48	0x3dfd2db8	0.12362236
49	0x3e6af26c	0.22944039
50	0x3d758773	0.059943628
51	0x3e02edfa	0.12786093
52	0xbd0adc70	-0.03390163
53	0x3d303d58	0.043027252
54	0xbd173134	-0.036912158
55	0x3e2548c4	0.16141039
56	0x3e9e8c00	0.30966187
57	0x3ec28ce2	0.3799811
58	0x3b542fe9	0.003237719
59	0xbbebd4ac	-0.0071969833
60	0xbd719410	-0.058979094
61	0xbcbd3523	-0.023096627
62	0x3b3f5fab	0.002920131
63	0x3d9fe79c	0.07807848
64	0x3d1d47ea	0.03839866
65	0x3cdfdb9e	0.027326401
66	0xbd440883	-0.04785968
67	0x3e395003	0.18096928
68	0xbce450ca	-0.027870554
69	0xbebe4613	-0.37162837
70	0x3e4cfa15	0.20017274
71	0xbce5e748	-0.028064385
72	0xbd3d52f3	-0.046221685
73	0x3eacf12c	0.3377775
74	0xbd6ed972	-0.05831284
75	0x3de3b31e	0.11118148
76	0x3d2a30fd	0.041550625
77	0xbd6074eb	-0.054799
78	0x3ecdc5ba	0.40189916
79	0x3d13864a	0.03601674
80	0x3c1e491f	0.009660988
81	0xbd7a4280	-0.061098576
82	0xbbf7ef38	-0.007566359
83	0xbd0b71b4	-0.034043983
84	0x3d1bb014	0.038009718
85	0x3c8baa57	0.017048998
86	0xbc50cdac	-0.0127443485
87	0x3d497bcc	0.049190328
88	0x3bc07060	0.005872771
89	0x3e10809a	0.14111558
90	0xbd2724ec	-0.040806696
91	0xbd766f5c	-0.060164794
92	0x3e6b81eb	0.22998779
93	0xbcecc57c	-0.028902762
94	0xbd7fe2aa	-0.062472023
95	0x3d09e7ba	0.033668257
96	0x3be695f4	0.007036919
97	0x3e655951	0.22397353
98	0xbd50010d	-0.050782252
99	0x3e4f30f8	0.20233524
100	0x3d77a819	0.060463045
101	0xbd44e492	-0.048069544
102	0x3cd23f64	0.025664993
103	0x3b61aba0	0.0034434572
104	0x3db6194d	0.088915445
105	0x3cf227b9	0.029559957
106	0x3e2f1c90	0.1710074
107	0xbe510005	-0.20410164
108	0x3cb4089e	0.021976765
109	0x3ed7fda6	0.42185706
110	0x3d09ad52	0.033612557
111	0xbe041e73	-0.1290224
112	0x3ca63d26	0.02029283
113	0x3da5710d	0.08078203
114	0xbd10d615	-0.035360415
115	0xbaea4cac	-0.0017875633
116	0xbcd73e6e	-0.026274886
117	0xbe3d8cb8	-0.18510711
118	0x3ce988fb	0.0285077
119	0x3cfee885	0.031116733
120	0x3e1e945e	0.15486285
121	0xbd1b195f	-0.037865993
122	0x3ccc4a5e	0.024937805
123	0x3c926d69	0.017874436
124	0xbe0e4ef5	-0.13897307
125	0xbe1fde30	-0.15612102
126	0xbd2ab293	-0.041674208
127	0x3f7c4e2c	0.9855678
128	0xbc6327e0	-0.013864487
129	0xbd50fcc6	-0.051022314
130	0x3e0406c1	0.12893201
131	0xbe30b95d	-0.1725821
132	0xbd844b7b	-0.06459709
133	0xbd28e166	-0.04123058
134	0xbe36791a	-0.17819634
135	0xbb857a6b	-0.0040734312
136	0x3e2a1207	0.1660844
137	0xbaaac3cf	-0.0013028326
138	0x3dbfcde5	0.09365443
139	0xbd849b1b	-0.064748965
140	0x3bd01d4a	0.006351148
141	0xbd86f7be	-0.06590222
142	0xbe1046d5	-0.1408952
143	0x3cc0b8dd	0.02352565
144	0x3c8d3f3c	0.017242067
145	0x3b1e0642	0.0024112617
146	0x3ecbe63b	0.3982409
147	0x3d5b6045	0.053558607
148	0xbad1f1c5	-0.0016017488
149	0xbb555699	-0.0032552837
150	0x3e40ae32	0.1881645
151	0xbd2b2954	-0.04178746
152	0x3c2945c0	0.010331571
153	0x3c7d1870	0.015447721
154	0x3c8a1bfa	0.016859043
155	0xbd5fd8f1	-0.05465025
156	0xbc2a3a68	-0.010389902
157	0x3dbfa59e	0.09357761
158	0xbc003f34	-0.007827569
159	0x3b6a9fbc	0.0035800776
160	0x3d1b1b13	0.037867617
161	0x3c80f236	0.015740495
162	0x3eed70ef	0.46375224
163	0x3e7a922b	0.24469821
164	0xbe904e52	-0.28184754
165	0x3b86c30e	0.004112608
166	0x3cd99f8e	0.02656534
167	0x3cd212bc	0.025643699
168	0xbd64fab2	-0.055903144
169	0x3da63802	0.081161514
170	0x3d1f884c	0.038948342
171	0x3e8bfe24	0.2734233
172	0x3d082173	0.033235025
173	0x3c9ff9d5	0.019528309
174	0xbd0f4d61	-0.034985904
175	0x3dfdc865	0.12391738
176	0xbd9ff8b5	-0.07811109
177	0xbcd0d93a	-0.025494207
178	0x3cfd9162	0.030953113
179	0x3e1c0fd9	0.1524042
180	0x3d3dc05a	0.04632602
181	0x3ce8760d	0.028376603
182	0x3ec3dedc	0.38255966
183	0x3dc11881	0.09428502
184	0xbd8967f0	-0.06709278
185	0xbac3ba7a	-0.0014932894
186	0x3d41d9ab	0.047326725
187	0x3d9c2a01	0.07625199
188	0x3c91ae55	0.017783323
189	0xbd3c50e8	-0.045975596
190	0x3ea4c400	0.32180786
191	0x3d782ad6	0.060587727
192	0xbd26692b	-0.04062764
193	0xbe27413f	-0.16333483
194	0x3cc95c3f	0.02458012
195	0xbce222f4	-0.027604558
196	0xbeee7ced	-0.46579686
197	0x3eb8865f	0.36040017
198	0xbe841a93	-0.25801525
199	0x3ca8c4e0	0.02060169
200	0xbe4b0aab	-0.19828288
201	0x3dbc88d9	0.09205789
202	0xbae98f55	-0.0017819206
203	0x3d6ac6f6	0.05731865
204	0xbd511ba2	-0.051051743
205	0x3e9f1a1b	0.31074604
206	0xbe58514e	-0.21124765
207	0x3bdceda6	0.006742197
208	0x3e0d8757	0.1382116
209	0xbd1786ac	-0.036993667
210	0x3d876d7d	0.0661268
211	0xbd4e543a	-0.050373293
212	0x3da09a84	0.078419715
213	0x3d5e7c0f	0.05431753
214	0xbea2871d	-0.31743708
215	0x3d1bb28f	0.038012084
216	0x3cbba3cf	0.022905258
217	0x3d34f972	0.044183202
218	0xbcb4f002	-0.0220871
219	0xbd67021e	-0.056398503
220	0x3dda02c5	0.106450595
221	0x3dd55eb8	0.10418457
222	0x3b6a5f51	0.003576238
223	0x3cbb2540	0.02284491
224	0x3e74d5ab	0.23909633
225	0xbd5563ac	-0.052097008
226	0x3d064c60	0.03278768
227	0x3d767f6c	0.060180113
228	0x3d881b32	0.06645812
229	0x3d68ed0f	0.0568667
230	0x3c517118	0.012783311
231	0xbca520c5	-0.020157227
232	0xbd7f6c76	-0.062359296
233	0x3d2877bf	0.041129824
234	0x3eecdb52	0.46261078
235	0xbd379476	-0.044819318
236	0x3d83a45a	0.06427832
237	0xbd412189	-0.047151122
238	0x3e0b257b	0.13588516
239	0x3d78b030	0.0607149
240	0xbb5a7e0a	-0.0033339285
241	0x3e6c7b96	0.2309402
242	0x3d99e4cf	0.07514345
243	0xbd31940e	-0.043354087
244	0xbd291ea1	-0.041288976
245	0xbc490f11	-0.0122716585
246	0x3d588b8b	0.052867454
247	0xbd9f72be	-0.07785557
248	0x3dd44379	0.10364432
249	0xbd36171e	-0.04445564
250	0xbd06fe20	-0.032957196
251	0xbe7db744	-0.24776942
252	0xbdd69699	-0.10477943
253	0x3cd0d060	0.025489986
254	0xbae30c6c	-0.0017322428
255	0xbe7996fc	-0.24374002

net.4.bias f4 [256]
0	0x3cec9ae8	0.028882459
1	0xbd4236ec	-0.04741566
2	0xbd5fd23d	-0.05464386
3	0xbd9d6295	-0.07684819
4	0xba5295f3	-0.00080332084
5	0xbc6ac3eb	-0.014328937
6	0x3c98884e	0.018619683
7	0xbb8c4903	-0.0042811646
8	0x3cdba71d	0.026813084
9	0x3d8d5dab	0.06902631
10	0xbd7598a9	-0.05996004
11	0x3c237e2b	0.009978811
12	0x3c1f1547	0.009709663
13	0xbc02c205	-0.007980828
14	0xbb01d5d9	-0.00198113
15	0xbd16d463	-0.03682364
16	0x3d810ada	0.06300898
17	0x3db554c2	0.08854057
18	0xbca5db02	-0.020246033
19	0x3d5b4c39	0.05353949
20	0x3d8abbd5	0.06774107
21	0xbc3b048c	-0.011414658
22	0xbb3a172a	-0.0028395155
23	0xbd2d8e7d	-0.042372216
24	0xbc47435a	-0.012162054
25	0x3c93c2a7	0.018037153
26	0xbcddec60	-0.027090251
27	0x3c774d8c	0.015094172
28	0xbd27958c	-0.040914103
29	0x3d4844cc	0.048893735
30	0xbd3473f7	-0.044055905
31	0xbc6f41dd	-0.014603105
32	0xbcdc12b7	-0.026864393
33	0xbcf4ed6f	-0.029898373
34	0xbd7a3788	-0.061088115
35	0xbc608919	-0.013704562
36	0xbc6a34e6	-0.0142948385
37	0x3d97cbd6	0.074119255
38	0xbd0957e2	-0.033531077
39	0x3d75f6e2	0.0600499
40	0xbd040d49	-0.032239232
41	0xbd9f59f8	-0.07780832
42	0xbd4c1110	-0.04982096
43	0x3d9674ed	0.073465206
44	0xbd4567df	-0.048194762
45	0x3d5fa035	0.054596145
46	0xbc5b6759	-0.013391339
47	0x3d1313d2	0.035907574
48	0xbaeb3ec1	-0.0017947779
49	0xbac56a99	-0.0015061676
50	0x3dd19b5c	0.102347106
51	0xbbc0404b	-0.0058670393
52	0xbce6899d	-0.028141791
53	0xbbb4ea3b	-0.0055210865
54	0xbd595329	-0.053057823
55	0x3cc71bc5	0.024305234
56	0xbd767d81	-0.060178284
57	0xbd1af4b2	-0.037831016
58	0xbdaf8d9d	-0.085719325
59	0xbd6b521d	-0.057451356
60	0xbd4a3a06	-0.04937174
61	0xbcded960	-0.027203262
62	0xbce5bf03	-0.028045183
63	0x3db1ffbd	0.08691356
64	0x3d28b6c7	0.041189935
65	0x3dacf426	0.08445005
66	0x3d8457a4	0.064620286
67	0x3d74613a	0.059663035
68	0xbceeaa05	-0.029133806
69	0x3dadff12	0.084959164
70	0xbd10db7b	-0.035365563
71	0x3df92f39	0.1216721
72	0xbd0d0885	-0.034431953
73	0x3d9492e4	0.0725458
74	0xbc41957f	-0.011815428
75	0xbb4704ef	-0.003036793
76	0xbd597911	-0.053093974
77	0x3dce4633	0.10071983
78	0xbcec9917	-0.028881593
79	0x3cc0d39a	0.0235384
80	0xbd213169	-0.03935376
81	0x3d82803c	0.06372115
82	0x3de77d3f	0.11303186
83	0xbd71e830	-0.059059322
84	0x3d2982ed	0.041384626
85	0x3c5720ce	0.01313038
86	0xbcc7a76e	-0.024371829
87	0xbc461fd6	-0.012092551
88	0xbd29ffb3	-0.04150362
89	0x3d51ce63	0.051222216
90	0x3d864b4a	0.06557329
91	0xbc831214	-0.015999831
92	0xbbc91c7e	-0.0061374297
93	0x3ac0afa7	0.0014700786
94	0xbbe2ab69	-0.0069174063
95	0x3d4da12f	0.050202545
96	0x3d4ff75d	0.050773013
97	0x3de8e8cf	0.1137253
98	0xbd7b6cca	-0.061383046
99	0xbd57f910	-0.05272776
100	0x3ba8c880	0.0051508546
101	0x3e7e9402	0.24861148
102	0xbd53551a	-0.05159483
103	0x3d940dad	0.07229171
104	0x3ddf9ba8	0.10918361
105	0xbd10dfb0	-0.035369575
106	0x3b46dd04	0.0030344138
107	0x3c30949a	0.010777617
108	0x3d8ffd62	0.07030751
109	0xbd81f613	-0.06345763
110	0xbd5736da	-0.052542545
111	0xbd498b0c	-0.04920487
112	0x3c1e1e20	0.009650737
113	0xbca1e2a1	-0.019761385
114	0xbc722ee0	-0.014781684
115	0xbd53bf18	-0.051695913
116	0xbbbaf429	-0.0057053757
117	0xbc1e936b	-0.009678702
118	0x3dc59c9a	0.0964901
119	0xbd118035	-0.03552266
120	0xbd7bec27	-0.06150451
121	0x3cf3e28b	0.02977111
122	0xbd15a716	-0.0365363
123	0x3d51db22	0.051234372
124	0xbc03f713	-0.008054513
125	0xbbd3c99f	-0.006463244
126	0x3dcd2023	0.10015895
127	0xbd19474b	-0.037421506
128	0xbc01e76f	-0.007928713
129	0xbd5411f3	-0.05177493
130	0xbb94f6a0	-0.0045460016
131	0x3d6cec3a	0.05784247
132	0x3e2db247	0.16962539
133	0xbd9160fd	-0.07098577
134	0xbcd1fa1f	-0.025631962
135	0x3e01eb4b	0.12687413
136	0x3c975dce	0.018477347
137	0xbd9e3c8f	-0.077263944
138	0x3d9c1c16	0.076225445
139	0x3d1a2d25	0.03764071
140	0xbb80eae8	-0.003934253
141	0xbbb722b6	-0.0055888547
142	0xbc80963d	-0.01569664
143	0x3c859d8b	0.016310474
144	0xbd408a4a	-0.047006883
145	0xbd8422e3	-0.064519666
146	0xbcecbc94	-0.028898515
147	0xbd7c635f	-0.061618205
148	0xbcccf5fd	-0.02501964
149	0x3c8550ac	0.016273819
150	0xbd9c73db	-0.07639285
151	0x3ca59d79	0.02021669
152	0x3de28059	0.110596366
153	0x3c38dc48	0.011282988
154	0x3d60b5d3	0.0548609
155	0xbd2843dc	-0.04108034
156	0x3d842454	0.064522415
157	0x3d2f1e8e	0.04275375
158	0x3c8df3eb	0.017328223
159	0x3c3904e6	0.011292672
160	0xbd558caf	-0.05213612
161	0xbbed70c0	-0.007246107
162	0x3d96579f	0.07340931
163	0xbc3cfc2b	-0.011534731
164	0xbcce09b2	-0.025151107
165	0xbd6d79d4	-0.057977512
166	0x3d96f42b	0.0737079
167	0x3de2a0e5	0.110658444
168	0xbccaf124	-0.024773188
169	0xbcbe2909	-0.023212926
170	0xbceb482c	-0.028720938
171	0xbcf55cb2	-0.029951427
172	0x3d197ff5	0.037475545
173	0x3ddef923	0.10887363
174	0xbd674477	-0.056461778
175	0xbd454205	-0.048158664
176	0xbcb64f46	-0.022254597
177	0x3d8070d0	0.06271517
178	0x3d8cdffa	0.06878658
179	0xbbb87470	-0.005629115
180	0x3d96a63f	0.07355928
181	0x3d00f86c	0.031486914
182	0xbd5e98d4	-0.054344967
183	0xbc0e0e04	-0.008670334
184	0xbc421b52	-0.011847334
185	0xbd531306	-0.051531814
186	0xbd562593	-0.052281927
187	0x3c10f74a	0.008848021
188	0xbc929552	-0.017893467
189	0xbc7dcff0	-0.015491471
190	0x3dae2d26	0.08504705
191	0xbd72ca8e	-0.059275202
192	0xbd69077d	-0.056891907
193	0x3da46ec9	0.08028943
194	0xbd1c3f97	-0.03814658
195	0x3dd53cc0	0.10411978
196	0x3a0a276a	0.00052701554
197	0x3d829e6d	0.063778736
198	0xbd815a8f	-0.06316101
199	0xbb75f055	-0.0037527282
200	0xbcb078cc	-0.021541975
201	0xbc75ed3d	-0.015010175
202	0x3dc51d2d	0.096247055
203	0xbc8e9e35	-0.017409423
204	0x3c92c846	0.017917763
205	0x3be93385	0.0071167373
206	0x3c7e5d6a	0.015525201
207	0xbce65f5c	-0.028121643
208	0x3c2fc2eb	0.010727624
209	0x3b80051a	0.003906858
210	0xbd573dfb	-0.052549344
211	0x3d8fc5bd	0.070201375
212	0x3aaad014	0.0013031983
213	0x3b707564	0.0036691064
214	0x3cc1f7aa	0.023677666
215	0x3dbaf7f9	0.09129328
216	0x3de8d2fc	0.11368367
217	0x3d07aa7f	0.033121582
218	0xbcd81d33	-0.02638111
219	0xbc44be1e	-0.012008218
220	0xbc8f0842	-0.017459992
221	0xbcea999a	-0.028637696
222	0xbd6fcc48	-0.058544427
223	0x3c159601	0.009130002
224	0xbc8f946c	-0.017526828
225	0x3a85b93b	0.0010202298
226	0xbd6e1127	-0.058121826
227	0x3d456f93	0.04820211
228	0xbd08d238	-0.033403605
229	0x3d2adcc9	0.041714463
230	0xbcffd067	-0.031227304
231	0x3d834adf	0.06410765
232	0x3e029580	0.12752342
233	0x3c9a460c	0.01883223
234	0x3d38bb4d	0.0451005
235	0xbc934a73	-0.017979836
236	0xbd045c5a	-0.032314636
237	0x3cb4905a	0.022041488
238	0xbba814cf	-0.0051294337
239	0xbd181d45	-0.03713729
240	0x3dfee7ee	0.12446581
241	0xbc6d5018	-0.014484428
242	0x3d3a514a	0.04548768
243	0x3d178a01	0.036996845
244	0xbc8bc19c	-0.017060094
245	0x3a14c925	0.0005675725
246	0x3cc6aa03	0.02425099
247	0xbc8fb723	-0.017543381
248	0xbd6089c7	-0.054818895
249	0xbd87ccd6	-0.06630866
250	0xbdbec1ad	-0.093142845
251	0x3d7e1b58	0.062037796
252	0xbbb1bb2d	-0.0054239244
253	0xbd7c8e6a	-0.061659254
254	0xbd847313	-0.06467261
255	0x3db0e9e1	0.08638359

net.6.weight f4 [1, 256]
0	0x3fc57747	1.5427026
1	0x3ef58d37	0.479593
2	0x3d39cfb6	0.045364104
3	0x3ef24926	0.47321433
4	0x3f41f680	0.75766754
5	0xbcd54ffb	-0.026039114
6	0x3e659abc	0.22422308
7	0xbd129a8d	-0.035791922
8	0xbee21a75	-0.4416081
9	0x3f316e94	0.69309354
10	0x3f26c13a	0.6513859
11	0x3ec56aa1	0.38557914
12	0x3e41e409	0.18934645
13	0x3b5d4429	0.003376255
14	0x3bee8d2e	0.0072800135
15	0x3c9ff2b2	0.019524906
16	0xbf77e155	-0.96828204
17	0x3f929281	1.145096
18	0x3dac3b0d	0.084097005
19	0x3f907e04	1.1288457
20	0xbeec490c	-0.4614948
21	0x39a1ed20	0.00030884985
22	0xbc4ced33	-0.012507725
23	0xbd620b0c	-0.055186316
24	0xbdee1643	-0.1162534
25	0x3db066d8	0.08613366
26	0x3d1bf961	0.038079623
27	0x3baf5c9d	0.0053516165
28	0xbc763d38	-0.015029244
29	0x3f9ba494	1.21596
30	0x3b2bb08d	0.0026197762
31	0x3e80e42a	0.25174075
32	0x3c37e01a	0.011222864
33	0x3f072e2a	0.52804816
34	0x3f238165	0.63869315
35	0x3cc60725	0.024173329
36	0xbd7ce56a	-0.061742224
37	0x3fb9da06	1.451966
38	0x3e0faa2a	0.14029756
39	0x3f58ee81	0.8473893
40	0x3ea318b5	0.31854787
41	0xbcfa7bf7	-0.03057669
42	0x3c1cadb8	0.009562902
43	0x3f9c9c7b	1.2235254
44	0xbc9293d0	-0.017892748
45	0x3f5ecea5	0.87034065
46	0x3ec28eac	0.37999475
47	0x3f97d115	1.1860682
48	0xbc49ad94	-0.012309451
49	0x3f97220f	1.1807269
50	0x3f84560d	1.0338761
51	0x3fa60205	1.2969366
52	0xbc074abf	-0.008257567
53	0x3e3835ab	0.17989223
54	0xba12bcf0	-0.0005597612
55	0xbf7c0ce3	-0.98457164
56	0x3d48f5c1	0.049062494
57	0xbd34c19d	-0.044129957
58	0x3ebfe3b4	0.3747841
59	0xbc1394ee	-0.009007676
60	0x3f56ffac	0.83983874
61	0xbd2b5344	-0.041827455
62	0x3ed75ff6	0.420654
63	0x3f97b043	1.1850666
64	0x3f608b79	0.8771282
65	0x3e720815	0.23635896
66	0xbfdb5a6f	-1.7136973
67	0x3f26919a	0.6506592
68	0x3f2638e4	0.6493056
69	0x3d950155	0.07275645
70	0x3f015a41	0.5052834
71	0xbf94f98d	-1.1638657
72	0xbe42596c	-0.18979424
73	0x3f9ec9e3	1.2405361
74	0x3e03a9b2	0.12857702
75	0x3dc3da75	0.09563152
76	0xbb3b60c9	-0.0028591624
77	0x3f554d11	0.8332072
78	0xbd138b5e	-0.036021583
79	0x3f957fbb	1.1679605
80	0x3ecdc699	0.4019058
81	0xbf394327	-0.7236809
82	0xbf922d89	-1.1420146
83	0x3c8c7fb1	0.017150732
84	0x3ea62a15	0.3245398
85	0x3f8bc325	1.0918928
86	0xbc1cd326	-0.009571826
87	0x3d16ec92	0.036846705
88	0x3b11bec1	0.0022238942
89	0x3faa07ed	1.3283669
90	0x3faaf7d3	1.335688
91	0x3def9ed3	0.11700215
92	0x3d806ce9	0.06270773
93	0xbd5c9993	-0.053857397
94	0x3daf2964	0.085528165
95	0x3f172f13	0.59056205
96	0x3fd96ac2	1.6985705
97	0x3f6dbea2	0.9286901
98	0xbd79b591	-0.06096417
99	0x3bed0cd8	0.007234197
100	0xbe3e38b9	-0.18576325
101	0xbfd8647a	-1.6905663
102	0xbd49327c	-0.04912041
103	0x3f721a17	0.9457106
104	0x3f9e9ded	1.2391945
105	0xbd2ff0c4	-0.04295422
106	0xbc12f552	-0.008969622
107	0xbb303084	-0.0026884386
108	0x3ddfe460	0.10932231
109	0x3ece5589	0.40299633
110	0xbce90333	-0.028443908
111	0xbd68c15d	-0.05682503
112	0x3f822629	1.0167896
113	0xbdd92b2a	-0.10603936
114	0x3f98d457	1.1939801
115	0x3ecfc9e8	0.4058373
116	0xbc70bbd1	-0.014693216
117	0x3e272ace	0.16324922
118	0x3f876eb9	1.0580665
119	0x3a572380	0.0008206889
120	0xbd4f2898	-0.050575823
121	0x3fab4212	1.3379538
122	0x3f01a1a7	0.50637287
123	0x3f92fc31	1.1483213
124	0x3f308f80	0.68968964
125	0x3ebd55ca	0.36979514
126	0x3fbf1f01	1.4931337
127	0x3f46a249	0.7759138
128	0xbd3de6d2	-0.046362706
129	0x3f17df7b	0.5932538
130	0xbeff2b09	-0.4983752
131	0x3d8b75df	0.068095915
132	0x3f882145	1.0635153
133	0x3f152c58	0.5827079
134	0x3bc67b89	0.006057207
135	0xbf59569b	-0.84897774
136	0xbe9caa6c	-0.30598772
137	0x3f964a92	1.1741507
138	0x3fd757e8	1.6823702
139	0x3f26f734	0.6522095
140	0x3b04d7a4	0.0020270133
141	0x3f7a1066	0.9768127
142	0x3e1b2bd1	0.15153433
143	0x3f6b8c75	0.92011195
144	0xbd3a3b5c	-0.045466766
145	0x3d254404	0.040348068
146	0xbc39a11f	-0.011329918
147	0xbb639e21	-0.0034731703
148	0x3e9a3bf6	0.30123872
149	0xbd93eb92	-0.07222666
150	0x3f3b403b	0.7314488
151	0x3e8de9f6	0.2771756
152	0x3fc77703	1.5583194
153	0xbd314066	-0.043274306
154	0x3f884a43	1.0647663
155	0xbd5208e2	-0.051278003
156	0x3e924bf0	0.2857356
157	0xbfc2973e	-1.5202405
158	0xbe105acf	-0.1409714
159	0xbd8e9e2b	-0.06963762
160	0xbc39f04c	-0.011348795
161	0xbe90f0fe	-0.28308862
162	0x3fb7d378	1.436141
163	0xbd55d3fb	-0.052204113
164	0x3e63e935	0.2225693
165	0x3f1031e5	0.56326133
166	0x3f750d50	0.9572344
167	0xbf223813	-0.6336681
168	0x3f72edb2	0.94893944
169	0x3bd3a4f2	0.006458872
170	0xbd4e8dea	-0.05042831
171	0xbbe533c3	-0.006994696
172	0x3fb99d91	1.450121
173	0x3fd17362	1.6363337
174	0x3cc747c2	0.024326209
175	0xbd141bc0	-0.036159277
176	0x3c9d6898	0.019214913
177	0x3ee5d6a1	0.4489031
178	0xbe81dc64	-0.25363457
179	0x3d8e39fe	0.06944655
180	0x3f8d2449	1.1026698
181	0x3f352a6f	0.70767874
182	0xbc6cc685	-0.014451628
183	0xbf0fa3ed	-0.56109506
184	0x3fad1721	1.3522683
185	0xbcb6165e	-0.022227462
186	0x3b20eda0	0.0024555698
187	0x3df9ab0f	0.1219083
188	0x3e6e1e56	0.2325376
189	0xbcd1bbe4	-0.025602289
190	0x3fb40675	1.406447
191	0xbe8428a5	-0.2581226
192	0x3cce8d2c	0.0252138
193	0x3fc11cac	1.5086875
194	0x3d653c77	0.055965867
195	0x3fdba88c	1.7160811
196	0x3fa00c14	1.2503686
197	0x3fa09e33	1.2548279
198	0xbc18ecfc	-0.009333845
199	0xbd2bd35b	-0.04194961
200	0x3f2d861e	0.6778277
201	0xbc679bd8	-0.014136277
202	0x3f5a9684	0.8538592
203	0x3dc34b5e	0.095358595
204	0x3fba5455	1.4556986
205	0xba9ab4c7	-0.0011803143
206	0x3ee1f567	0.4413254
207	0x3d7906e1	0.060797576
208	0x3f8e82e4	1.1133695
209	0x3eb23b02	0.34810644
210	0xbe950835	-0.29107824
211	0xbf37a742	-0.7173959
212	0xbdc38b77	-0.09548085
213	0xbecf6df1	-0.40513566
214	0x3f906b8d	1.1282822
215	0xbf1d65ca	-0.6148344
216	0x3f91e338	1.1397467
217	0x3fad6c99	1.3548766
218	0x3ce1782a	0.027523119
219	0xbdf01abe	-0.11723851
220	0x3c228183	0.009918573
221	0xb9a062cf	-0.00030591196
222	0xbd163b3a	-0.036677577
223	0x3fc96b2a	1.5735829
224	0xbea943f6	-0.33059663
225	0xbcb404ba	-0.02197491
226	0xbc1d83be	-0.009613929
227	0xbebdeedf	-0.37096307
228	0xbe1c8dd3	-0.15288477
229	0x3fd2329a	1.6421692
230	0x3cbabe0c	0.0227957
231	0x3fcbfeb1	1.5937101
232	0x3f6f434f	0.9346208
233	0x3e3007b2	0.17190436
234	0xbecc2f66	-0.39879912
235	0x3f4c4d8f	0.79805845
236	0x3f5cf2e4	0.8630812
237	0x3d539c98	0.05166301
238	0x3e1954a8	0.149737
239	0x3ed35c72	0.41281468
240	0x3fa0448e	1.2520921
241	0xbcca6b03	-0.02470923
242	0x3e1cfbfe	0.15330502
243	0x3ef39b89	0.475796
244	0x3fa167c6	1.2609794
245	0x3df31f3b	0.11871191
246	0x3f9c1ea7	1.2196854
247	0xbe923749	-0.28557804
248	0x3ccdbcd1	0.025114449
249	0x3f151396	0.5823301
250	0xbf71cea2	-0.9445592
251	0x3fb8bde0	1.4432945
252	0xbd26d69c	-0.04073201
253	0x3cf94971	0.030430527
254	0xbe302c93	-0.17204504
255	0x3fdb7244	1.7144246
