preTrained/GAIL_pretrained_5400_actor.pth (torch, 541220 bytes, 8 tensors)

net.0.weight f4 [256, 3]
-0.19609816 -0.5930174 -0.33391452 0.3497249 0.7842695 -0.38229766 0.50544226 0.16439627
-0.63683933 -0.5380046 0.2523402 -0.016847368 0.08740947 -0.19771992 -0.17703554 0.22976355
-0.20230891 -0.011799702 -0.21800011 0.5474541 -0.13409765 -0.38830987 1.0718971 -0.12948129
-0.71381634 0.2771919 -0.46773115 -0.57640654 -0.11286821 -0.5175201 -0.532375 -0.61025184
0.21848054 -0.37211177 -0.049115784 -0.50887877 -0.17765471 -0.91910857 -0.17874561 -0.31130725
0.13340162 0.18206297 0.44661632 0.48327938 -0.35714725 -0.6313184 1.019746 -0.17606154
-0.6881595 0.30820635 -0.13679847 -0.23972298 0.2831785 0.32459545 -0.42464158 0.5794449
-0.06164927 0.06853094 -0.28949445 -0.48635125 -0.164133 -0.53467983 -0.21513514 -0.21272266
-0.1233166 0.18517973 -0.20463149 0.9367081 -0.50826037 -0.3756207 -0.53519773 0.40959227
0.13234164 0.4391382 -0.66037583 0.44419828 0.37980103 -0.44525787 0.0169013 0.21792628
-0.6194029 -0.074866675 0.11933016 -0.015030597 -0.066823244 -0.016580755 0.3888815 -0.012089813
-0.5493944 -0.6070794 0.10626687 -0.10346133 0.38366047 -0.2413643 -0.0018896739 -0.5715544
0.57992905 -1.0400698 0.4059524 -0.33437735 0.38976443 -0.1938867 -0.68389183 -0.20619881
-0.2173446 -0.4409936 0.060193684 -0.093307294 0.3144527 0.09194365 -0.1568457 -0.7207928
0.85209596 -0.5075653 0.19613416 -0.31436777 -0.42347863 -0.122348055 0.50737584 -0.780004
0.14062761 0.4878109 -0.26037693 -0.058417764 0.48078403 -0.2791625 -0.37140083 0.7917047
-0.41129336 -0.24328601 0.38727063 0.21412753 0.023519756 -0.50637954 -0.40570736 0.054453045
-0.4840755 -0.4530352 -0.75972 0.60782224 -0.090140216 0.19943942 -1.2969345 0.26604617
-0.478705 -0.3502175 -0.04117487 -0.439794 -0.12617962 -0.022283707 -0.29269883 1.1084135
-0.23261191 0.51837176 0.6136123 -0.16319501 -0.53088397 0.16551593 0.20323259 -0.00830348
0.57246786 -0.49458218 0.3070885 -0.57172465 0.11101709 0.12033142 -0.19101593 -0.46069643
0.34127814 0.021480512 0.32744378 -0.060236603 -0.61722165 -0.044735044 -0.37802646 0.48371586
0.44327092 -0.74938554 -0.31944025 0.22076839 -0.3031946 -0.7161607 -0.17985828 -0.28034043
-0.11450918 -0.1853133 -0.2357906 0.84505415 -0.15774246 -0.35743594 -0.20293072 -0.33116388
0.20550631 0.905661 0.36096156 -0.47619906 -0.46450657 0.008348612 -0.06363494 0.107071884
-0.59480244 -0.24875489 -0.2407955 -0.028144749 -0.20874016 -0.96412855 -0.42735833 -0.77485794
0.28527263 0.025381595 -0.24755427 -0.49349752 -0.5533338 -0.07369798 0.49032933 -0.34289545
-0.62356204 0.70320207 -0.38617134 0.33477288 -0.07304239 -0.08554555 -0.04874005 -0.6181645
0.14749087 -0.35183054 -0.3597739 -0.23155743 -0.061906278 0.15117525 0.13312079 0.07809092
0.20449367 -0.3482511 0.22243972 0.31489226 0.3835991 -0.30220458 0.14123106 0.22853243
-0.23553236 -1.067392 0.20163946 -0.47628525 0.08021107 -0.34239537 0.27787915 0.09456041
0.2691375 0.22465137 0.2751928 -0.58947897 0.24046606 -0.1575128 -0.5628282 -0.05604949
00000000: f5cd 48be fdcf 17bf d8f6 aabe 240f b33e
00000010: e3c5 483f 85bc c3be aa64 013f 7f57 283e
00000020: e707 23bf abba 09bf bc32 813e 7e03 8abc
00000030: bc03 b33d 1777 4abe ce48 35be 2347 6b3e
00000040: 112a 4fbe 8a53 41bc 6c3b 5fbe f425 0c3f
00000050: e550 09be 8dd0 c6be ed33 893f be96 04be
00000060: abbc 36bf 19ec 8d3e 757a efbe 618f 13bf
00000070: 7327 e7bd 337c 04bf ba49 08bf 7739 1cbf
00000080: 5db9 5f3e 6f85 bebe a22d 49bd e145 02bf
00000090: 1eeb 35be b34a 6bbf 1709 37be aa63 9fbe
000000a0: 6f9a 083e b76e 3a3e e5aa e43e 6570 f73e
000000b0: 01dc b6be 159e 21bf 0987 823f 7a49 34be
000000c0: 392b 30bf 39cd 9d3e e614 0cbe f179 75be
000000d0: c6fc 903e 6031 a63e 9f6a d9be 8056 143f
000000e0: f283 7cbd f359 8c3d 9e38 94be 0803 f9be
000000f0: 7b12 28be c7e0 08bf 634c 5cbe f8d3 59be
00000100: 6a8d fcbd c19f 3d3e eb8a 51be 1acc 6f3f
00000110: 5a1d 02bf 5b51 c0be b802 09bf 14b6 d13e
00000120: 9184 073e b9d6 e03e 640e 29bf f56d e33e
00000130: 4875 c23e d7f8 e3be 9874 8a3c 1128 5f3e
00000140: 3091 1ebf b353 99bd 5f63 f43d e542 76bc
00000150: a0da 88bd 5dd4 87bc 7a1b c73e 5a14 46bc
00000160: 1da5 0cbf 8e69 1bbf 72a2 d93d 89e3 d3bd
00000170: 256f c43e 3428 77be efae f7ba 6451 12bf
00000180: 3b76 143f 0221 85bf fed8 cf3e 8233 abbe
00000190: 348f c73e 3c8a 46be 8913 2fbf c825 53be
000001a0: 958f 5ebe eac9 e1be a78d 763d e517 bfbd
000001b0: f2ff a03e f44c bc3d 299c 20be e085 38bf
000001c0: f622 5a3f cdef 01bf 65d7 483e d0f4 a0be
000001d0: 31d2 d8be 9e91 fabd 62e3 013f 58ae 47bf
000001e0: af00 103e 5ac2 f93e 2050 85be 7747 6fbd
000001f0: 5329 f63e 63ee 8ebe 4028 bebe 29ad 4a3f
00000200: 0b95 d2be f81f 79be 5648 c63e 3f44 5b3e
00000210: 81ac c03c 17a2 01bf e0b8 cfbe 280a 5f3d
00000220: bed8 f7be 3bf4 e7be 037d 42bf 3d9a 1b3f
00000230: 6f9b b8bd d939 4c3e f301 a6bf 3437 883e
00000240: d218 f5be b54f b3be fba6 28bd ae2c e1be
00000250: 3b35 01be 528c b6bc 9fdc 95be 7ee0 8d3f
00000260: d131 6ebe 03b4 043f b215 1d3f 981c 27be
00000270: 03e8 07bf 027d 293e 341c 503e 520b 08bc
00000280: 418d 123f e039 fdbe b43a 9d3e 8c5c 12bf
00000290: ee5c e33d 5270 f63d ae99 43be 67e0 ebbe
000002a0: 02bc ae3e e6f7 af3c b6a6 a73e a8ba 76bd
000002b0: 3d02 1ebf 183c 37bd af8c c1be 9ba9 f73e
000002c0: 68f4 e23e bbd7 3fbf ac8d a3be 1c11 623e
000002d0: 533c 9bbe 4f56 37bf c52c 38be c888 8fbe
000002e0: ca83 eabd c5c2 3dbe 1773 71be 7855 583f
000002f0: 3d87 21be d801 b7be 12cd 4fbe 508e a9be
00000300: 3f70 523e 66d9 673f f4cf b83e 5dd0 f3be
00000310: ced3 edbe 9ec8 083c 0953 82bd 8148 db3d
00000320: f944 18bf 9ab9 7ebe 1893 76be d18f e6bc
00000330: fbbf 55be 21d1 76bf b6ce dabe 175d 46bf
00000340: 410f 923e 10ed cf3c de7e 7dbe b5ab fcbe
00000350: 49a7 0dbf f7ee 96bd 720c fb3e fe8f afbe
00000360: c3a1 1fbf 0d05 343f 40b8 c5be 5a67 ab3e
00000370: 4097 95bd 8132 afbd a6a3 47bd 0740 1ebf
00000380: d907 173e 2223 b4be 4934 b8be 641d 6dbe
00000390: 7091 7dbd afcd 1a3e d150 083e 22ee 9f3d
000003a0: ca66 513e f84d b2be 3dc7 633e 8f39 a13e
000003b0: 1a67 c43e 8fba 9abe e09e 103e 6804 6a3e
000003c0: 652f 71be 4da0 88bf 937a 4e3e a9db f3be
000003d0: b445 a43d 724e afbe 2d46 8e3e e3a8 c13d
000003e0: 64cc 893e 020b 663e 12e6 8c3e 18e8 16bf
000003f0: bc3c 763e 094b 21be 8215 10bf 2694 65bd

net.0.bias f4 [256]
-0.13312863 -0.13205191 0.02658382 -0.1607954 0.060788207 0.18441199 -0.037266802 0.11765908
0.44101432 0.45058066 -0.010937571 0.38193667 0.3602711 -0.0033241222 -0.1782227 0.2596922
0.25949064 -0.4388118 -0.28280044 0.1666862 0.08120373 -0.21467057 0.12551115 -0.16557732
0.1817534 -0.22627243 0.09958525 -0.5535991 -0.5141759 0.21872751 -0.495698 0.070993684
-0.2280819 0.03346478 0.32512698 0.19273168 -0.18594563 0.34274936 0.069449775 0.32890144
-0.5283772 -0.25134042 0.17740582 -0.23879026 -0.3370514 0.12744415 0.19954607 -0.0037320708
0.0345549 0.14179145 0.11494906 -0.15149114 -0.06789196 -0.32026348 0.1302566 -0.032369234
-0.4098299 -0.05061671 -0.18280052 0.11240764 0.089933135 -0.06397642 0.0070929686 -0.39857304
-0.36288422 0.17519581 0.021031547 -0.2613871 0.39070618 0.2154098 0.29071772 -0.029882958
0.274535 -0.13116995 -0.1509952 0.18813436 -0.30219713 0.09652057 -0.36409232 -0.43397617
0.24626707 0.24610439 -0.40689918 0.23041812 0.13617785 -0.12922257 -0.11211213 0.060163006
0.17327708 -0.25415793 -0.02707112 -0.49582002 0.011812762 0.08587537 0.19183083 0.3660016
-0.06612844 0.3451286 0.05971935 -0.04913816 -0.2954696 -0.2658734 0.017051008 -0.42565185
-0.090175696 -0.4079345 0.06307785 -0.03662245 -0.11458968 0.08763504 0.2864469 -0.42544472
-0.530248 -0.011416824 -0.31286317 -0.06329162 -0.18483825 0.18077539 -0.024701111 0.0021478722
-0.2926922 -0.017479207 -0.1747753 -0.18880697 0.28038427 0.24284942 -0.24307738 0.110181585
-0.3001477 0.19705418 -0.09452137 0.1525675 -0.15290515 -0.12989108 -0.12151666 -0.21161975
-0.120362915 -0.17662059 -0.17774253 -0.51269597 -0.195579 -0.3243069 -0.29420188 -0.1719401
-0.49120945 -0.48755187 0.051398627 -0.28994983 -0.34736198 0.06603222 -0.46744472 -0.32195404
-0.11033768 0.25240332 0.13591407 -0.13288315 -0.26468518 0.24054232 -0.17068806 0.08158227
0.09527302 -0.23273084 0.25779718 -0.029597975 0.43157408 -0.06738328 0.37722012 -0.1500103
-0.12248569 -0.33707327 0.04790344 0.003651538 0.007279712 0.3250658 -0.17750953 0.058398377
-0.2575809 -0.20217907 0.28497913 -0.4211436 -0.29363635 -0.45541173 -0.1353338 0.13420536
0.13059169 0.39894432 -0.4556797 -0.10950832 -0.21803519 0.11298294 0.14979379 0.04767974
-0.004200268 0.084488295 -0.30253232 -0.1861051 -0.5613732 -0.40575194 -0.05771559 0.29742256
0.17509119 -0.25701478 -0.53296167 -0.14888982 -0.4620466 0.33325478 -0.241251 -0.09528093
-0.06252584 0.013698059 -0.323926 -0.559373 0.078740634 0.14395529 -0.25595903 -0.10237845
0.37922204 0.0677747 0.15482834 0.17615026 0.19310857 -0.10913132 -0.19780815 0.05925833
0.15566324 -0.04122676 -0.51303726 0.032930564 0.28245834 -0.20841543 0.22330369 0.12409245
-0.3061876 0.20820716 -0.26861686 0.30939567 0.21568523 0.32300195 0.04091007 0.23608197
0.058088314 0.022566931 -0.008997703 0.281947 0.036719143 0.11369943 -0.5100288 -0.294905
0.25387126 -0.22304201 0.1726411 0.2301852 -0.25365946 -0.24339662 0.1415437 -0.0036302686
00000000: df52 08be 9e38 07be 50c6 d93c 8da7 24be
00000010: 0efd 783d 7fd6 3c3e 13a5 18bd 3ef7 f03d
00000020: a1cc e13e 82b2 e63e 7f33 33bc 348d c33e
00000030: 7475 b83e 84d9 59bb 0380 36be 60f6 843e
00000040: f5db 843e f1ab e0be 38cb 90be caaf 2a3e
00000050: 244e a63d 9ad2 5bbe ff85 003e 1a8d 29be
00000060: 901d 3a3e f6b3 67be 5af3 cb3d acb8 0dbf
00000070: 08a1 03bf 1bfa 5f3e 21cc fdbe 2365 913d
00000080: 4d8e 69be 5d12 093d 0b77 a63e 745b 453e
00000090: 8868 3ebe d87c af3e af3b 8e3d c565 a83e
000000a0: ba43 07bf b1af 80be dfa9 353e 6f85 74be
000000b0: 0092 acbe b880 023e ce55 4c3e c295 74bb
000000c0: 7089 0d3d c731 113e 6a6a eb3d 7e20 1bbe
000000d0: f10a 8bbd 93f9 a3be fc61 053e 9a95 04bd
000000e0: 3ad5 d1be 7853 4fbd 0f30 3bbe fa35 e63d
000000f0: dd2e b83d 1206 83bd 226c e83b c411 ccbe
00000100: f6cb b9be 8866 333e 5a4a ac3c 88d4 85be
00000110: a40a c83e 6394 5c3e f4d8 943e 1bcd f4bc
00000120: da8f 8c3e 6a51 06be 7c9e 1abe 4ba6 403e
00000130: 95b9 9abe 94ac c53d 4f6a babe 2032 debe
00000140: 6f2d 7c3e ca02 7c3e 1755 d0be baf2 6b3e
00000150: 3572 0b3e ec52 04be 0b9b e5bd 7c6d 763d
00000160: 8c6f 313e fd20 82be 41c4 ddbc 1fdc fdbe
00000170: 518a 413c 6ddf af3d 4d6f 443e 9064 bb3e
00000180: 596e 87bd b2b4 b03e 479c 743d 1845 49bd
00000190: cb47 97be 8f20 88be 8eae 8b3c 0aef d9be
000001a0: 09ae b8bd cadc d0be f62e 813d 6c01 16bd
000001b0: ffad eabd 007a b33d 2ba9 923e e4d3 d9be
000001c0: 55be 07bf a10d 3bbc 9a2f a0be 099f 81bd
000001d0: 3d46 3dbe 2f1d 393e fc59 cabc 51c3 0c3b
000001e0: c1db 95be 8e30 8fbc 4cf8 32be 9d56 41be
000001f0: 878e 8f3e 85ad 783e 47e9 78be e2a6 e13d
00000200: f6ac 99be 92c8 493e 6c94 c1bd a83a 1c3e
00000210: 2b93 1cbe 2b02 05be badd f8bd d9b2 58be
00000220: d580 f6bd 07dc 34be 2302 36be 0b40 03bf
00000230: dd45 48be 8e0b a6be a1a1 96be 1111 30be
00000240: ce7f fbbe 66a0 f9be 5e87 523d 4e74 94be
00000250: 6ed9 b1be e73b 873d ea54 efbe 29d7 a4be
00000260: b9f8 e1bd 023b 813e 0f2d 0b3e 8512 08be
00000270: d184 87be ba50 763e dac8 2ebe 9b14 a73d
00000280: 801e c33d fe50 6ebe fefd 833e 7477 f2bc
00000290: 47f7 dc3e 3f00 8abd ff22 c13e 4d9c 19be
000002a0: c7d9 fabd de94 acbe 6636 443d a44e 6f3b
000002b0: a68a ee3b 066f a63e 0fc5 35be 2333 6f3d
000002c0: a5e1 83be 0808 4fbe c9e8 913e 22a0 d7be
000002d0: 8157 96be ba2b e9be f294 0abe 216d 093e
000002e0: d4b9 053e 6e42 cc3e da4e e9be e645 e0bd
000002f0: 9e44 5fbe 9a63 e73d 8b63 193e d54b 433d
00000300: 67a2 89bb 3308 ad3d 84e5 9abe 5692 3ebe
00000310: 27b6 0fbf b8be cfbe 2f67 6cbd c547 983e
00000320: 1b4b 333e 7197 83be 2d70 08bf 9376 18be
00000330: 5f91 ecbe 5fa0 aa3e 810a 77be a622 c3bd
00000340: 8c0d 80bd d36d 603c a1d9 a5be 1233 0fbf
00000350: c542 a13d 0469 133e 100d 83be cbab d1bd
00000360: 6429 c23e 76cd 8a3d 528b 1e3e bc60 343e
00000370: 41be 453e 3e80 dfbd 388e 4abe ddb8 723d
00000380: 2f66 1f3e 64dd 28bd 6956 03bf 33e2 063d
00000390: 619e 903e db6a 55be b9a9 643e 2f24 fe3d
000003a0: 9fc4 9cbe 4234 553e 2688 89be 1c69 9e3e
000003b0: 97dc 5c3e 8360 a53e 5191 273d 79bf 713e
000003c0: 03ee 6d3d 49de b83c 1a6b 13bc 5b5b 903e
000003d0: d066 163d 3fdb e83d 3f91 02bf cafd 96be
000003e0: 6afb 813e 2065 64be d4c8 303e abb5 6b3e
000003f0: a7df 81be f73c 79be d5f0 103e cde9 6dbb

net.2.weight f4 [256, 256]
-0.043556467 0.0013390058 -0.17484017 0.027658764 -0.030194456 -0.0122449035 0.00132842 0.003287516
0.19768 0.11683047 -0.056395493 -0.048869785 0.018860588 0.079923116 -0.002635335 0.08634642
0.059512503 0.06162733 0.045828477 -0.000257633 -0.08746166 0.011561498 0.2206088 -0.024638548
0.009756216 -0.020590156 0.032200895 -0.040461376 -0.015501298 0.045986794 0.06050343 0.05503321
-0.01448337 0.033597097 -0.03131893 0.04809107 0.043601707 0.1257523 -0.029064598 0.02906936
0.06281188 -0.03012511 0.0060033742 -0.04820524 0.018132158 -0.06812913 0.049782228 0.023955364
0.046487007 0.0023585705 0.04031566 -0.012594311 0.06182202 -0.006458226 -0.029924393 -0.041004844
-0.020052142 -0.13647293 0.046739846 0.039003313 -0.17293751 -0.005240323 0.043993123 0.02495411
-0.061979055 -0.2080318 -0.00655371 0.017768912 -0.21222895 0.04641704 -0.14075267 0.0628204
0.046852577 -0.030039791 -0.08488735 -0.111905456 -0.004046425 -0.024900744 0.0201212 -0.06056068
0.008139094 -0.048308566 0.038344346 0.0226842 -0.0030262969 -0.07537795 0.027124325 -0.0070773535
-0.022977777 -0.009645351 0.014132831 -0.02684395 0.043821607 -0.06036165 -0.04646601 -0.061767645
0.01850907 -0.13033065 0.020474669 -0.12853138 0.029465161 0.049185406 -0.011971229 0.041350264
-0.050516438 0.04464463 -0.012099081 -0.00074413745 -0.031110091 0.004120663 0.021382526 0.016446248
0.058761984 -0.29205728 0.028929368 -0.16073993 -0.16221541 -0.050263405 0.0031589658 0.03871198
-0.0020389173 -0.1042176 -0.015386928 -0.05585013 -0.05180734 -0.0963398 -0.06942413 -0.09056282
-0.062428452 -0.0626726 -0.051147103 -0.015948981 0.056852706 0.021328695 0.09401263 -0.0072228634
0.07253536 -0.018920531 -0.006332664 -0.085168466 0.030077666 -0.03932439 -0.074108325 0.008647879
-0.050871685 -0.0025862802 0.046329584 -0.047625802 0.01769726 -0.015344 0.0071969233 0.027683131
-0.0893714 -0.04137888 -0.08603274 0.030553307 -0.0019620955 -0.13163279 -0.06755753 -0.024519263
-0.11860636 -0.06173098 -0.08299358 -0.0311769 -0.03827698 -0.0632238 -0.1892806 -0.02286829
0.023054184 0.04789601 -0.035422303 -0.15271093 0.046443157 0.00044338402 0.038787153 -0.05009609
-0.24749441 -0.010448628 -0.0060227024 -0.061724856 0.026260145 -0.012456243 -0.1644259 0.012688176
0.010690182 0.019052945 -0.046976432 -0.0341264 -0.025558995 0.060726967 -0.2625389 0.0072843377
-0.15727982 -0.019955883 0.061849855 -0.012335071 -0.005275242 -0.15957625 0.040892962 0.008740813
-0.0071652667 -0.029539242 0.017325431 0.02547409 0.05161963 -0.029928613 -0.09222426 0.04741647
-0.074585244 -0.0939251 0.040034395 0.0508442 0.0031554878 0.030629016 -0.062055796 -0.026225202
0.068440445 -0.10878723 -0.0448361 0.033415623 -0.0659651 0.014110011 0.015363677 -0.02385486
0.013021581 -0.0436617 -0.03373655 -0.018630132 0.007444742 -0.032602947 0.07477918 -0.021197367
0.01254123 -0.052493088 0.02043732 -0.015215395 0.0033555857 0.09435052 0.013821865 -0.047009565
0.0015615303 0.010583672 -0.056942012 0.014803434 -0.045684826 -0.049173344 -0.0036093637 -0.05689964
0.043514397 0.024888918 -0.0103698075 -0.046911303 0.021410353 0.026080197 -0.013645258 0.011025553
00000000: 4468 32bd 9481 af3a 4d09 33be a294 e23c
00000010: 5d5a f7bc d99e 48bc 611e ae3a 5e73 573b
00000020: a06c 4a3e d044 ef3d f6fe 66bd af2b 48bd
00000030: 8581 9a3c bbae a33d 96b5 2cbb 64d6 b03d
00000040: 62c3 733d f06c 7c3d a4b6 3b3d ea12 87b9
00000050: 191f b3bd 706c 3d3c 46e7 613e c8d6 c9bc
00000060: 89d8 1f3c b0ac a8bc 16e5 033d d4ba 25bd
00000070: 28f9 7dbc a65c 3c3d 72d2 773d 816a 613d
00000080: a84b 6dbc 1c9d 093d 4748 00bd 24fb 443d
00000090: b497 323d 36c5 003e e118 eebc de22 ee3c
000000a0: 84a3 803d efc8 f6bc f4b7 c43b dc72 45bd
000000b0: e489 943c 4987 8bbd 73e8 4b3d 0a3e c43c
000000c0: 2969 3e3d 3f92 1a3b 0922 253d 5e58 4ebc
000000d0: 1639 7d3d 879f d3bb 0024 f5bc b2f4 27bd
000000e0: 6444 a4bc 8fbf 0bbe 4872 3f3d f0c1 1f3d
000000f0: 8816 31be 04b7 abbb 2232 343d 906c cc3c
00000100: c0dd 7dbd 4a06 55be 81c0 d6bb 1c90 913c
00000110: 8c52 59be cb1f 3e3d 7821 10be fba7 803d
00000120: 7de8 3f3d 0216 f6bc 6bd9 adbd b02e e5bd
00000130: e097 84bb a5fc cbbc 37d5 a43c 7a0e 78bd
00000140: d659 053c 34df 45bd f60e 1d3d 37d4 b93c
00000150: d654 46bb c15f 9abd d533 de3c 25e9 e7bb
00000160: e43b bcbc 8907 1ebc 648d 673c d8e7 dbbc
00000170: 497e 333d c73d 77bd 2553 3ebd 1200 7dbd
00000180: 55a0 973c 6675 05be 7eba a73c bb9d 03be
00000190: ec60 f13c a376 493d f922 44bc e55e 293d
000001a0: 53ea 4ebd 4add 363d 393b 46bc 3812 43ba
000001b0: 97da febc a006 873b 682a af3c 48ba 863c
000001c0: 68b0 703d 8888 95be 48fd ec3c 0299 24be
000001d0: cc1b 26be 00e1 4dbd a706 4f3b 7490 1e3d
000001e0: 5b9f 05bb 0970 d5bd 7419 7cbc 1bc3 64bd
000001f0: ef33 54bd cd4d c5bd 3d2e 8ebd 0079 b9bd
00000200: fab4 7fbd 7e5a 80bd a07f 51bd 70a7 82bc
00000210: 62de 683d 84b9 ae3c b289 c03d c5ad ecbb
00000220: 6b8d 943d 3bff 9abc 3c82 cfbb ce6c aebd
00000230: 7065 f63c 9d12 21bd 1bc6 97bd d5af 0d3c
00000240: d45e 50bd 957e 29bb 17c4 3d3d 4613 43bd
00000250: d8f9 903c 6765 7bbc 2bd4 eb3b bcc7 e23c
00000260: 5a08 b7bd e77c 29bd ef31 b0bd ee4a fa3c
00000270: 8096 00bb bfca 06be 9a5b 8abd 9fdc c8bc
00000280: e4e7 f2bd a0d9 7cbd 8af8 a9bd b366 ffbc
00000290: 53c8 1cbd 7b7b 81bd c6d2 41be 4856 bbbc
000002a0: 21dc bc3c 9b2e 443d fa16 11bd 4160 1cbe
000002b0: 2e3b 3e3d ff75 e839 47df 1e3d 8f31 4dbd
000002c0: 2d6f 7dbe b930 2bbc 175a c5bb 34d3 7cbd
000002d0: 841f d73c 4515 4cbc 435f 28be 11e2 4f3c
000002e0: e025 2f3c ec14 9c3c 5c6a 40bd 20c8 0bbd
000002f0: 1961 d1bc d7bc 783d 806b 86be 74b1 ee3b
00000300: f60d 21be 857a a3bc 4656 7d3d 0a19 4abc
00000310: f0db acbb f567 23be 617f 273d a035 0f3c
00000320: 9dca eabb 48fc f1bc 10ee 8d3c 0aaf d03c
00000330: 1b6f 533d da2c f5bc 13e0 bcbd c637 423d
00000340: 26c0 98bd ce5b c0bd 1bfb 233d 0242 503d
00000350: 4dcc 4e3b b4e9 fa3c 382e 7ebd 3cd6 d6bc
00000360: 812a 8c3d d7cb debd 0fa6 37bd d2de 083d
00000370: b618 87bd ad2d 673c efb7 7b3c 446b c3bc
00000380: 7858 553c 9cd6 32bd 562f 0abd 389e 98bc
00000390: 06f3 f33b ab8a 05bd d425 993d 1aa6 adbc
000003a0: bb79 4d3c fe02 57bd 2b6c a73c fe49 79bc
000003b0: 63e9 5b3b d83a c13d 1b75 623c 1a8d 40bd
000003c0: 43ac cc3a 2367 2d3c 073c 69bd 1a8a 723c
000003d0: 0320 3bbd fd69 49bd 138b 6cbb 990f 69bd
000003e0: 273c 323d d8e3 cb3c 20e6 29bc 1126 40bd
000003f0: c464 af3c 23a6 d53c 5c90 5fbc 85a4 343c

net.2.bias f4 [256]
-0.018498205 -0.03452244 -0.059113413 -0.04834861 0.015458536 0.04750318 -0.0050487537 -0.019464774
-0.057361223 0.021437135 0.0059553846 -0.01969872 -0.020351574 -0.023300763 -0.06789764 0.015771747
-0.030786602 0.013167751 -0.018264173 0.024629682 -0.024491828 -0.030497666 -0.011476221 -0.037849497
-0.07002533 0.018498944 -0.05999534 -0.016166972 -0.004157948 0.03647082 -0.09433366 -0.06575311
-0.05127781 0.0331614 -0.045428347 -0.105139226 -0.0888377 0.011511648 -0.049561072 0.0049803187
-0.05899205 -0.03339305 0.021227026 0.0027991924 0.009421312 0.036416978 -0.058789577 0.024042476
-0.019664709 0.01199564 -0.024372062 -0.040899903 -0.06566843 -0.0018517929 -0.036955234 -0.023889191
-0.015773082 -0.056162044 -0.040886104 -0.06294321 0.07462433 -0.007639134 -0.04951179 -0.070742875
-0.07203869 -0.012747011 -0.072930224 -0.041218158 0.0105329435 -0.0005299332 -0.064056404 0.07501655
-0.07521479 -0.032609798 -0.026448634 0.017344827 -0.06562999 0.021957396 -0.025171798 -0.008392635
-0.06393899 0.046673723 -0.03530685 0.1461436 -0.05131981 -0.013516192 0.052842088 0.010663977
-0.039643947 -0.054486394 -0.033445176 8.2839884e-05 -0.02516214 -0.009973336 0.018034058 -0.0075049475
-0.0562976 0.015836574 -0.0069177863 -0.016954925 -0.04255342 0.040252477 -0.06412605 -0.014120868
-0.07668577 -0.046201706 -0.051900085 -0.11341303 0.010119038 -0.061578654 0.027460067 -0.08744666
0.035025142 -0.030618161 -0.040194176 -0.06609899 -0.0043367683 0.00064729206 -0.0034831804 -0.07111623
-0.0055157216 -0.03736517 -0.031068524 -0.028289506 0.020812148 -0.08666134 -0.071026236 -0.032563012
-0.029713789 -0.07546169 0.017565295 0.021448467 -0.06530613 0.00050825084 0.0001028578 -0.03226634
0.022406328 -0.053682152 -0.07244657 0.03499418 -0.09348422 -0.08373411 -0.0048471508 -0.060540833
-0.016135082 -0.0062458105 0.041819002 -0.04663723 0.0056915153 -0.044164367 0.02022491 -0.024512028
-0.02533791 -0.052429967 -0.05687753 -0.017474776 -0.003190792 -8.462802e-05 0.19297536 0.010161759
0.040389776 -0.05960424 0.025627904 -0.013018454 0.017844738 0.01679688 -0.046901517 -0.05579421
-0.046128828 -0.052112862 -0.0643905 -0.003995062 -0.021811776 0.009655537 -0.013881385 -0.13304967
-0.03781328 0.018116465 -0.075983085 -0.061741326 -0.018148871 0.08616463 -0.017210625 -0.1249637
-0.033458102 -0.07560771 -0.01668837 0.05270929 -0.010494238 -0.1019135 0.007110696 -0.11942996
-0.007926241 -0.06960652 -0.028538534 -0.020184936 0.00031881902 -0.013196454 -0.056878097 -0.07309783
-0.06735226 -0.060695216 -0.041371554 -0.008886415 -0.019954791 -0.003860793 0.043473788 -0.06886776
0.0073581003 -0.022147153 -0.0741736 0.0005812042 0.012075099 -0.0240693 -0.06511907 -0.0149692325
0.01668312 0.02514887 0.006236759 -0.056105897 -0.0932428 -0.05694144 0.02566044 -0.051687546
-0.005920365 -0.11529424 -0.0011002719 -0.00038671482 -0.066305615 -0.04076246 -0.03820309 -0.073353544
-0.010954167 -0.021525191 -0.006519159 -0.020044293 0.01854677 -0.016302435 0.03532998 -0.04463863
-0.08341091 0.0090045305 0.0033119859 0.011791545 -0.002054379 -0.049511187 -0.035935983 -0.058243144
-0.03646651 0.0134313805 -0.065938935 -0.03372084 -0.0095397495 -0.008576212 -0.01204087 -0.03538393
00000000: 8c89 97bc 6767 0dbd e820 72bd 3109 46bd
00000010: cd45 7d3c b292 423d 0470 a5bb 9774 9fbc
00000020: 9af3 6abd ee9c af3c 6325 c33b 365f a1bc
00000030: 58b8 a6bc 3ee1 bebc eb0d 8bbd c033 813c
00000040: 2f34 fcbc 8dbd 573c bf9e 95bc 30c4 c93c
00000050: 16a3 c8bc 3ed6 f9bc c206 3cbc 1308 1bbd
00000060: 7169 8fbd 198b 973c acbd 75bd 9970 84bc
00000070: 653f 88bb 6d62 153d 0232 c1bd 91a9 86bd
00000080: ae08 52bd 40d4 073d 1313 3abd 3c53 d7bd
00000090: 8af0 b5bd 5a9b 3c3c 8d00 4bbd f131 a33b
000000a0: a6a1 71bd 27c7 08bd 4de4 ad3c a872 373b
000000b0: d95b 1a3c f829 153d 57cd 70bd baf4 c43c
000000c0: e217 a1bc 5c89 443c eba7 c7bc a886 27bd
000000d0: 2b7d 86bd dcb7 f2ba 5f5e 17bd 44b3 c3bc
000000e0: 8d36 81bc 2c0a 66bd 3078 27bd 5fe8 80bd
000000f0: a4d4 983d b351 fabb e0cc 4abd a4e1 90bd
00000100: 0589 93bd d7d8 50bc 715c 95bd 5fd4 28bd
00000110: 5e92 2c3c 37eb 0aba 0130 83bd 47a2 993d
00000120: 360a 9abd da91 05bd ceaa d8bc bd16 8e3c
00000130: 0469 86bd ffdf b33c 1635 cebc 4381 09bc
00000140: 72f2 82bd f22c 3f3d ea9d 10bd aba6 153e
00000150: b934 52bd 0573 5dbc f270 583d f6b7 2e3c
00000160: b161 22bd 202d 5fbd cffd 08bd 53ba ad38
00000170: d520 cebc 3467 23bc 29bc 933c 10ec f5bb
00000180: 5098 66bd b4bb 813c 99ae e2bb 0ee5 8abc
00000190: 7f4c 2ebd c8df 243d 8554 83bd 375b 67bc
000001a0: 6e0d 9dbd 003e 3dbd 2f95 54bd 1745 e8bd
000001b0: 52ca 253c e639 7cbd eff3 e03c 3c17 b3bd
000001c0: 8676 0f3d f0d2 fabc a6a2 24bd e85e 87bd
000001d0: 731b 8ebb 09af 293a 1246 64bb 63a5 91bd
000001e0: 3abd b4bb 380c 19bd 6b83 febc 65bf e7bc
000001f0: 3d7e aa3c 807b b1bd 3476 91bd cb60 05bd
00000200: 556a f3bc a98b 9abd 18e5 8f3c b2b4 af3c
00000210: 38bf 85bd 233c 053a 5cb5 d738 b629 04bd
00000220: 7a8d b73c d1e1 5bbd de5e 94bd 0f56 0f3d
00000230: a874 bfbd ca7c abbd d9d4 9ebb aaf9 77bd
00000240: b82d 84bc a8a9 ccbb 674a 2b3d ae06 3fbd
00000250: e47f ba3b b2e5 34bd b6ae a53c 73cd c8bc
00000260: 7391 cfbc cec0 56bd 6af8 68bd 4327 8fbc
00000270: 9b1c 51bb 537a b1b8 559b 453e 827d 263c
00000280: c06f 253d 9323 74bd 9cf1 d13c 5b4b 55bc
00000290: 212f 923c 9c99 893c ce1b 40bd 7888 64bd
000002a0: 95f1 3cbd 4c74 55bd 2bdf 83bd 02e9 82bb
000002b0: 9cae b2bc 4232 1e3c c06e 63bc 2c3e 08be
000002c0: 19e2 1abd fb68 943c 059d 9bbd 79e4 7cbd
000002d0: f1ac 94bc 1577 b03d 4cfd 8cbc f8ec ffbd
000002e0: 5d0b 09bd 37d8 9abd 0cb6 88bc b2e5 573d
000002f0: 06f0 2bbc 06b8 d0bd d700 e93b b297 f4bd
00000300: 10dd 01bc dd8d 8ebd a5c9 e9bc e15a a5bc
00000310: 2a27 a739 f135 58bc 02f9 68bd 51b4 95bd
00000320: fbef 89bd 8c9b 78bd 3875 29bd 5398 11bc
00000330: 3b78 a3bc 5c05 7dbb 9211 323d 8a0a 8dbd
00000340: 381c f13b f26d b5bc 54e8 97bd f45b 183a
00000350: a3d6 453c fb2c c5bc 265d 85bd 8341 75bc
00000360: 0aab 883c 0105 ce3c ba5d cc3b 4ccf 65bd
00000370: 15f6 bebd 6d3b 69bd d835 d23c 52b6 53bd
00000380: 9fff c1bb 631f ecbd 0037 90ba fcbf cab9
00000390: 3dcb 87bd 8af6 26bd d87a 1cbd 623a 96bd
000003a0: 1b79 33bc 9955 b0bc ab9e d5bb ee33 a4bc
000003b0: 65ef 973c af8c 85bc 2bb6 103d ffd6 36bd
000003c0: 57d3 aabd bd87 133c e70d 593b 5331 413c
000003d0: c3a2 06bb 3ecc 4abd 9c31 13bd 5d90 6ebd
000003e0: e85d 15bd 4b0f 5c3c fe0a 87bd dd1e 0abd
000003f0: 9c4c 1cbc 3e83 0cbc 1247 45bc bdee 10bd

net.4.weight f4 [256, 256]
-0.03609317 -0.022467477 -0.024845868 -0.07036867 -0.10171376 -0.020841435 0.018314693 -0.011856703
0.121137604 0.029117089 -0.04252957 -0.052377567 0.012963757 -0.025340647 -0.011733428 -0.012888182
-0.028420152 -0.09422342 0.0061411615 -0.030157132 0.028007725 0.007864891 0.06854472 0.16250496
-0.044164494 0.1681737 -0.06839752 -0.012148279 0.05082911 -0.05127368 -0.2774953 0.046141144
-0.00036628544 -0.06970087 -0.040160924 -0.22414292 -0.38587663 0.01374094 0.16022313 -0.013874374
0.033195883 -0.0088217305 0.016688563 0.057589505 -0.009665905 0.0024007082 -0.016991613 -0.09139652
0.047453284 0.021226436 0.23930739 0.053702317 0.32459772 0.18097574 -0.021842102 0.27611405
-0.046792164 -0.098132 0.2832123 0.014121875 -0.06716409 0.124625646 0.02241386 0.13097182
-0.005866902 0.07335218 -0.059801005 0.037257813 -0.12720631 -0.00064079603 0.15654512 -0.29019699
-0.15376997 0.021953223 0.21883634 -0.05179609 0.028529394 -0.025037989 -0.019318156 0.14035007
-0.013304891 -0.001903981 -0.039557714 -0.11194736 0.0878986 0.032951627 0.04002616 0.025173176
0.016221564 -0.037858203 0.18344483 0.039324295 0.0265429 0.05661264 -0.07048183 -0.012366943
0.18015364 -0.041025188 0.0514236 0.032596737 0.11215991 -0.016938502 0.06672929 -0.13782896
0.06289488 0.08599987 -0.22323453 0.055908587 0.03366991 -0.008791067 -0.39304492 0.14786804
-0.10184137 0.10349253 -0.043397903 -0.25271642 0.115454465 -0.07189431 -0.06751053 0.08337242
0.012021522 -0.020450957 -0.055057347 -0.05121439 -0.1070023 0.3073007 0.09331504 0.020156734
0.0679713 -0.09488244 0.09874728 -0.029592315 0.13256414 -0.06270084 -0.031035857 -0.0055162576
0.12956658 -0.07702613 -0.024589559 0.08422174 0.058797233 -0.016015178 0.022073092 0.028945684
0.2512137 -0.084360875 0.005295708 0.05579496 -0.11913271 -0.064139165 -0.04613416 0.004195813
-0.005173086 0.1046517 0.14156085 0.040349014 -0.028676042 0.05089086 -0.033095673 -0.055450458
0.1363728 0.1720354 -0.10462122 -0.10843134 0.34811035 -0.08307826 -0.031124625 -0.014435361
-0.10505677 -0.09405786 -0.049116984 -0.056358036 0.20622194 0.17788339 0.010020033 -0.05952157
-0.053196803 0.053801097 -0.07221506 -0.005390496 0.026219422 -0.1614653 0.15210672 0.19403033
-0.027844539 0.25230652 0.040732794 0.24415983 -0.033193026 -0.03801651 -0.036770906 -0.13309896
-0.051762983 0.12884593 0.19722433 0.011744589 0.10916539 -0.056750022 0.049790397 0.10539141
-0.026332887 -0.07192712 0.048190124 -0.0034964308 0.21803842 0.0664135 0.03299793 0.02609829
-0.008844462 0.046528507 0.08654061 -0.04578375 0.24413474 0.08495823 -0.027211364 -0.049949076
-0.048964623 0.012132335 -0.09283106 0.14485824 -0.13590153 0.06557949 -0.0027431697 0.001166391
0.26730454 0.27785388 -0.009085953 0.012431729 0.367061 0.0016202703 0.18800013 -0.079757616
-0.07905184 0.110981405 -0.49087122 -0.08723762 -0.035255715 -0.15202668 0.0055439738 -0.023438344
-0.2701329 0.029066935 0.01550605 -0.018509151 -0.06699423 0.03432105 0.03368169 0.011982165
-0.024755627 0.004057997 0.013901307 -0.018485993 0.08275616 0.021442102 0.036966994 0.18258417
00000000: 6fd6 13bd b70d b8bc 9089 cbbc 731d 90bd
00000010: 4e4f d0bd a8bb aabc b208 963c 9e42 42bc
00000020: fe16 f83d f686 ee3c 7d33 2ebd dc89 56bd
00000030: f065 543c 3097 cfbc 903d 40bc f428 53bc
00000040: 61d1 e8bc 35f8 c0bd cc3b c93b 170c f7bc
00000050: 7570 e53c bedb 003c 2d61 8c3d b367 263e
00000060: d4e5 34bd ba35 2c3e 0014 8cbd 9309 47bc
00000070: 2f32 503d 5a04 52bd dd13 8ebe 7ffe 3c3d
00000080: 000a c0b9 54bf 8ebd c87f 24bd b985 65be
00000090: 9f91 c5be ae21 613c 8811 243e 5851 63bc
000000a0: 68f8 073d 0589 10bc 74b6 883c f9e2 6b3d
000000b0: be5d 1ebc 3355 1d3b ff31 8bbc 192e bbbd
000000c0: 605e 423d 10e3 ad3c ff0c 753e f6f6 5b3d
000000d0: ac31 a63e b451 393e 35ee b2bc d25e 8d3e
000000e0: 24a9 3fbd 6ef9 c8bd 3401 913e 705f 673c
000000f0: 548d 89bd bb3b ff3d 459d b73c 7a1d 063e
00000100: 243f c0bb ab39 963d e6f1 74bd a69b 183d
00000110: 5f42 02be 18fb 27ba 5d4d 203e b394 94be
00000120: e075 1dbe 3fd7 b33c a216 603e 2328 54bd
00000130: 7ab6 e93c 781c cdbc 1c41 9ebc eeb7 0f3e
00000140: c2fc 59bc 008f f9ba 4507 22bd a844 e5bd
00000150: 2e04 b43d 49f8 063d 79f2 233d fa37 ce3c
00000160: 16e3 843c 3411 1bbd f6d8 3b3e 8312 213d
00000170: 7f70 d93c a8e2 673d c758 90bd b89e 4abc
00000180: 327a 383e 070a 28bd 8ea1 523d 2884 053d
00000190: 18b4 e53d 9dc2 8abc 5ea9 883d 0923 0dbe
000001a0: 08cf 803d b320 b03d 9897 64be 6700 653d
000001b0: 76e9 093d 6808 10bc 2f3d c9be b86a 173e
000001c0: 3592 d0bd e4f3 d33d 00c2 31bd 0c64 81be
000001d0: 6473 ec3d 533d 93bd f642 8abd 29bf aa3d
000001e0: ebf5 443c c488 a7bc d083 61bd 2ec6 51bd
000001f0: 0624 dbbd 8456 9d3e f51b bf3d bc1f a53c
00000200: 8934 8b3d ba51 c2bd 043c ca3d 956b f2bc
00000210: e5be 073e 4c69 80bd e93e febc b9c1 b4bb
00000220: 1aad 043e e0bf 9dbd 0b70 c9bc 737c ac3d
00000230: 5ed5 703d 4332 83bc a1d2 b43c 801f ed3c
00000240: 159f 803e 65c5 acbd 9e87 ad3b 4289 643d
00000250: dafb f3bd 655b 83bd 2cf7 3cbd 087d 893b
00000260: fe82 a9bb a153 d63d 54f5 103e 0245 253d
00000270: 05ea eabc ef72 503d 548f 07bd 0520 63bd
00000280: 50a5 0b3e 0c2a 303e a643 d6bd 4011 debd
00000290: 853b b23e ef24 aabd 12f9 febc 4b82 6cbc
000002a0: 0128 d7bd 68a1 c0bd e42e 49bd afd7 66bd
000002b0: d82b 533e 1027 363e 112b 243c e4cc 73bd
000002c0: e4e4 59bd 8a5e 5c3d 7de5 93bd c2a2 b0bb
000002d0: 1dca d63c 2957 25be ddc1 1b3e e3af 463e
000002e0: 3b1a e4bc 522e 813e 6ed7 263d 0905 7a3e
000002f0: 69f5 07bd 33b7 1bbd 179d 16bd 184b 08be
00000300: 6c05 54bd 30f0 033e 2df5 493e 606c 403c
00000310: 1b92 df3d b672 68bd 04f1 4b3d 74d7 d73d
00000320: 11b8 d7bc 874e 93bd 0263 453d 6024 65bb
00000330: 7745 5f3e cd03 883d d628 073d 15cc d53c
00000340: 5de8 10bc ad94 3e3d 343c b13d be87 3bbd
00000350: 75fe 793e 95fe ad3d 5eea debc 6797 4cbd
00000360: 218f 48bd b4c6 463c 361e bebd b855 143e
00000370: c529 0bbe 8a4e 863d c0c6 33bb 96e1 983a
00000380: 24dc 883e dd42 8e3e 40dd 14bc 73ae 4b3c
00000390: 6bef bb3e 405f d43a 1b83 403e f657 a3bd
000003a0: eee5 a1bd 384a e33d 7953 fbbe a3a9 b2bd
000003b0: 4c68 10bd e2ac 1bbe 39aa b53b c501 c0bc
000003c0: dc4e 8abe c81d ee3c 160d 7e3c 81a0 97bc
000003d0: 4534 89bd 3b94 0c3d d0f5 093d d850 443c
000003e0: 50cc cabc f2f8 843b 4fc2 633c f06f 97bc
000003f0: 107c a93d 59a7 af3c b46a 173d 58f7 3a3e

net.4.bias f4 [256]
0.008204038 0.0020252462 -0.14151794 -0.04082391 0.1905865 -0.07747807 -0.103595205 -0.12016695
0.098295115 -0.023741975 -0.09962057 -0.03285138 -0.00022623835 -0.028195262 0.19096719 0.20262253
-0.048846845 0.12362775 0.037046276 -0.08891616 -0.009747883 -0.012224266 -0.05377588 -0.09933907
-0.027475443 -0.07504113 0.015097892 0.04986543 -0.020722456 -0.07485462 -0.14661348 -0.04391804
0.05296495 -0.056181535 -0.020245714 -0.099163525 -0.08741601 -0.042296965 -0.02955659 0.025743812
-0.091913335 -0.06307072 -0.055542555 0.0068812883 0.09260202 -0.025593588 -0.13131028 -0.05063143
-0.0304132 0.10079287 -0.023936456 -0.006611037 0.07941926 -0.07918368 -0.101533435 -0.0011669308
-0.0708247 -0.10798366 -0.07624217 -0.041873135 -0.062363412 -0.02964892 0.29793382 -0.020094017
0.056994304 -0.1008419 -0.13287447 -0.048963938 -0.051942598 -0.028085945 -0.09220314 -0.0764944
0.17825644 -0.043472704 -0.09226694 -0.033294994 -0.07210645 -0.025188096 0.1426346 -0.03392588
-0.071611375 -0.016763385 0.21743058 -0.10328199 0.0030538428 -0.09741646 0.20111968 0.019336926
0.01844974 -0.09724327 -0.12349317 -0.082218826 -0.06827891 -0.049041726 0.19168106 -0.06514576
-0.00579386 -0.044761237 -0.08397629 -0.028855806 -0.035594128 -0.104083516 0.0909609 -0.009402367
-0.017629093 -0.08900116 0.05598907 -0.1575655 0.14332771 -0.030599248 0.06393804 0.15143058
0.12347952 0.116333775 -0.008777133 -0.052591395 -0.082148954 0.03296509 -0.06257329 0.19398072
-0.124478824 -0.057298563 -0.025521627 -0.03931692 -0.056710012 -0.044146445 -0.047854707 0.032875594
-0.05846793 -0.06962968 0.02771752 -0.012246663 -0.14714973 -0.006481057 0.20641455 -0.023309095
-0.01739171 0.039593536 -0.10137538 -0.03520969 0.10240774 -0.114112966 0.023028815 -0.16355677
0.06611317 -0.0004774647 0.013729935 -0.068526216 -0.014116783 -0.07519447 -0.08322951 -0.058836948
-0.12040741 -0.018375251 0.027978724 -0.09832571 -0.05610506 0.19176878 -0.07203833 -0.08361181
-0.018534614 0.1187697 -0.008993342 0.20708764 -0.0472385 -0.059110075 0.1848507 -0.044162896
-0.037179228 -0.06646695 -0.14845346 0.06779899 -0.03415215 -0.108078755 -0.06511246 -0.04405572
-0.024330484 0.042507723 0.03733061 0.22136228 0.046656024 -0.08826396 0.055924978 -0.0043017734
-0.011356136 -0.05201996 -0.0422033 -0.08174801 -0.07702645 0.012048793 -0.07218584 -0.057633538
-0.014528598 -0.14921953 -0.07918119 -0.072877 0.011979946 0.07728865 -0.010741492 -0.062237687
0.050562885 -0.036424533 -0.068631515 0.08157233 -0.06161201 -0.03725132 -0.06388757 -0.07229224
0.26886195 -0.065700024 -0.029311188 -0.06767289 0.2283302 -0.048282843 -0.043418895 -0.03451995
-0.039953977 -0.058201287 0.004870728 -0.06810174 -0.05066102 -0.07219413 -0.07299947 -0.03514512
-0.05445455 -0.024500214 -0.05372887 0.056461383 0.038176425 -0.03411391 0.1117952 -0.023859436
-0.01019123 -0.15374821 -0.033679146 -0.11547876 -0.048981756 0.0047359304 0.19889441 0.21285124
-0.015376524 -0.055774506 -0.08147237 -0.074195236 -0.03780436 0.013491775 -0.042191315 -0.011143662
-0.026815185 0.101139106 0.1725608 0.05526765 0.03282629 -0.0017054566 -0.02799125 -0.11111025
00000000: 3b6a 063c feb9 043b 14ea 10be f936 27bd
00000010: 1c29 433e d3ac 9ebd b929 d4bd 171a f6bd
00000020: f34e c93d 887e c2bc df05 ccbd 2b8f 06bd
00000030: 653a 6db9 c0f9 e6bc e78c 433e 487c 4f3e
00000040: a113 48bd 8c30 fd3d d6bd 173d ad19 b6bd
00000050: 96b5 1fbc 4a48 48bc 1944 5cbd 4872 cbbd
00000060: 2e14 e1bc 2aaf 99bd 265d 773c b13f 4c3d
00000070: 24c2 a9bc 614d 99bd d821 16be 67e3 33bd
00000080: c7f1 583d 9c1e 66bd 57da a5bc 3f16 cbbd
00000090: 2a07 b3bd 953f 2dbd a920 f2bc b0e4 d23c
000000a0: 0f3d bcbd 392b 81bd 9780 63bd 6e7c e13b
000000b0: 21a6 bd3d a5a9 d1bc 3476 06be e762 4fbd
000000c0: 1a25 f9bc 7e6c ce3d 6316 c4bc 66a1 d8bb
000000d0: 91a6 a23d 0e2b a2bd c3f0 cfbd b3f3 98ba
000000e0: 8a0c 91bd 8a26 ddbd db24 9cbd 2a83 2bbd
000000f0: c770 7fbd 4be2 f2bc c88a 983e 359c a4bc
00000100: dc72 693d 3386 cebd 3f10 08be 698e 48bd
00000110: c3c1 54bd 7f14 e6bc 00d5 bcbd 19a9 9cbd
00000120: db88 363e 6f10 32bd 73f6 bcbd 5560 08bd
00000130: 8cac 93bd 4457 cebc ce0e 123e ddf5 0abd
00000140: fca8 92bd 5e53 89bc 1fa6 5e3e 8285 d3bd
00000150: fb22 483b 4882 c7bd 51f2 4d3e 7968 9e3c
00000160: e923 973c 7b27 c7bd fde9 fcbd 5862 a8bd
00000170: d0d5 8bbd fadf 48bd 0a48 443e 246b 85bd
00000180: 6cda bdbb 8f57 37bd c3fb abbd 0363 ecbc
00000190: 26cb 11bd bd29 d5bd b549 ba3d 630c 1abc
000001a0: e36a 90bc 3d46 b6bd cc54 653d da58 21be
000001b0: 80c4 123e 46ab fabc f2f1 823d 9e10 1b3e
000001c0: d5e2 fc3d 6740 ee3d f7cd 0fbc 136a 57bd
000001d0: b63d a8bd 6706 073d 6d26 80bd e2a2 463e
000001e0: c1ee febd e6b1 6abd bb12 d1bc c70a 21bd
000001f0: c248 68bd e7d2 34bd 4c03 44bd 8fa8 063d
00000200: 117c 6fbd 019a 8ebd da0f e33c 3aa6 48bc
00000210: 6bae 16be 0c5f d4bb 565e 533e b7f2 bebc
00000220: 0f79 8ebc d52c 223d e59d cfbd 0938 10bd
00000230: 26bb d13d 0fb4 e9bd eda6 bc3c 6d7b 27be
00000240: 5766 873d 3a54 fab9 85f3 603c 7957 8cbd
00000250: 144a 67bc 8fff 99bd 3c74 aabd 03ff 70bd
00000260: 2998 f6bd b287 96bc a333 e53c fd5e c9bd
00000270: 6bce 65bd 095f 443e d588 93bd ab3c abbd
00000280: e7d5 97bc 873d f33d cf58 13bc c80e 543e
00000290: 287d 41bd 681d 72bd 8049 3d3e 27e4 34bd
000002a0: 3f49 18bd d31f 88bd 2f04 18be 32da 8a3d
000002b0: 20e3 0bbd 6558 ddbd ae59 85bd c573 34bd
000002c0: b950 c7bc 941c 2e3d fbe7 183d cbac 623e
000002d0: 631a 3f3d bcc3 b4bd 9711 653d e4f5 8cbb
000002e0: 160f 3abc e212 55bd 5edd 2cbd 806b a7bd
000002f0: 0bc0 9dbd 4d68 453c 2bd6 93bd 2511 6cbd
00000300: 5b09 6ebc 01cd 18be bf29 a2bd 8940 95bd
00000310: 8947 443c 8349 9e3d 15fd 2fbc f2ec 7ebd
00000320: 071b 4f3d e431 15bd ae8e 8cbd 650f a73d
00000330: e05c 7cbd d794 18bd 7cd7 82bd f40d 94bd
00000340: 46a8 893e bc8d 86bd 041e f0bc 1698 8abd
00000350: 64cf 693e 3bc4 45bd 03d8 31bd cb64 0dbd
00000360: c8a6 23bd 7964 6ebd a19a 9f3b ed78 8bbd
00000370: ee81 4fbd 84da 93bd bf80 95bd 54f4 0fbd
00000380: bc0b 5fbd acb4 c8bc ce12 5cbd 0d44 673d
00000390: e25e 1c3d 07bb 0bbd e2f4 e43d dd74 c3bc
000003a0: 1ef9 26bc 2c70 1dbe 25f3 09bd 2180 ecbd
000003b0: 18a1 48bd dd2f 9b3b faaa 4b3e adf5 593e
000003c0: d1ed 7bbc cf73 64bd fcda a6bd acf3 97bd
000003d0: bfd8 1abd 9b0c 5d3c cdd0 2cbd e893 36bc
000003e0: 85ab dbbc 0522 cf3d c7b3 303e 5560 623d
000003f0: dc74 063d a189 dfba e84d e5bc c58d e3bd

net.6.weight f4 [7, 256]
0.39493892 0.051792618 0.13270077 0.11152723 0.1251481 0.110897966 -0.051269263 -0.13564306
0.10337489 0.027089708 -0.038883198 -0.11493802 -0.3298633 0.13951772 0.18226632 0.1629178
0.22631277 0.08198079 0.07109769 -0.02839675 -0.02911957 0.16509664 0.015956484 0.33749184
0.045537427 0.11197069 -0.30593228 0.13054428 0.7402976 -0.19469476 -0.02707057 0.091413714
0.05690548 -0.1515807 0.17958602 -0.2933184 -0.31234938 0.010344578 0.15110154 0.12840864
-0.009831497 -0.031825792 0.008020845 -0.0033554605 0.11301439 -0.024878535 0.2305281 -0.018723711
-0.034391865 0.13218343 0.11744486 0.05238668 0.0138554135 -0.035575178 0.18650141 -0.009508923
0.12986071 0.22509532 0.44056472 -0.23177588 -0.011679768 -0.24984823 0.18695986 0.02198278
0.11227293 0.28326303 -0.023784837 -0.44279686 0.13412492 0.0072652646 0.024481101 -0.08249478
0.08919853 -0.0006648007 -0.12909001 0.11874127 -0.084770046 0.15597011 0.08610085 0.17071445
-0.12295832 -0.23882909 0.15433475 -0.06403722 -0.058092967 0.30831206 0.16385958 0.11591154
0.07346277 -0.08285587 0.20324042 -0.041306436 0.08321912 0.007794547 0.14092416 0.006352894
0.37401906 0.1594951 -0.03658578 -0.16748865 -0.23956099 -0.11925861 -0.17173392 -0.1329887
0.050138358 0.0029912402 -0.045844387 0.19502425 0.10041753 -0.12595913 0.08104298 0.15079767
0.23856139 0.07664147 -0.009306927 -0.07051743 0.011291929 0.12232884 -0.014304755 0.17278247
-0.05753338 0.14021091 -0.0653165 -0.060450863 -0.050291725 -0.29608822 -0.1781038 -0.11514685
-0.07370405 -0.08971152 -0.002712326 -0.16198726 0.22085118 0.09880733 0.13190946 0.11696029
0.1627542 0.17605935 -0.054025 -0.10282988 0.10258417 -0.021526597 0.0046362495 0.04956782
0.1056439 -0.0073372037 -0.18690883 -0.057721134 -0.10903062 0.082567066 -0.24150378 -0.04283274
-0.025644027 -0.5213153 0.0021174916 -0.065099664 0.048788402 0.09405225 0.10827525 -0.08041445
0.12370189 -0.36557484 -0.014529377 0.13242668 0.037993915 -0.14286755 0.20022002 -0.37611496
0.10524296 -0.053228583 0.059606794 0.2048297 -0.44088662 0.04828282 -0.17955373 -0.32226682
0.01339163 0.06619927 0.0052455105 0.13440816 -0.13775115 -0.078658365 0.032129873 -0.26846156
-0.07618317 -0.0045635905 0.0019154323 0.056698237 0.15730177 0.19193786 -0.030411193 -0.02968533
-0.0048778215 0.041946158 -0.2313983 -0.00066890335 -0.14784117 0.06451718 0.10946854 -0.043655496
0.18117967 -0.16295543 -0.00089889 0.025205553 -0.026103247 -0.047660787 0.018843375 0.049717274
0.18245657 0.06202776 -0.08544989 0.1578899 0.19179632 -0.015059345 -0.018301236 0.10950129
-0.12117674 0.039655108 -0.045619693 0.034517914 -0.043110464 0.23817623 -0.020689707 -0.26759702
0.051115233 0.11581507 -0.32572463 -0.0077264905 0.10807556 -0.029337835 0.32631254 -0.05286073
-0.056079272 -0.09563474 0.07452347 0.3862075 0.0690879 -0.23360547 0.17430395 0.16173917
-0.017360466 -0.05181233 -0.038869027 0.037859928 -0.059263352 -0.36205864 0.037281718 0.05445347
-0.080031894 0.06521466 0.19045563 -0.08000882 -0.24383757 0.17432378 -0.10333879 -0.03204759
00000000: 6f35 ca3e 7f24 543d b6e2 073e 6368 e43d
00000010: d326 003e 791e e33d b8ff 51bd 04e6 0abe
00000020: 37b6 d33d 3ceb dd3c fd43 1fbd a064 ebbd
00000030: d8e3 a8be bcdd 0e3e 06a4 3a3e ecd3 263e
00000040: 89be 673e 8be5 a73d aa9b 913d 4da0 e8bc
00000050: 2a8c eebc 180f 293e 2cb7 823c bbcb ac3e
00000060: 7485 3a3d e450 e53d 28a3 9cbe 66ad 053e
00000070: 2584 3d3f 105e 47be 1ac3 ddbc 1d37 bb3d
00000080: b815 693d f937 1bbe 66e5 373e d42d 96be
00000090: 42ec 9fbe 4e7c 293c 5dba 1a3e 8e7d 033e
000000a0: 4a14 21bc c35b 02bd dd69 033c 49e7 5bbb
000000b0: 1774 e73d 12ce cbbc 8f0f 6c3e 7862 99bc
000000c0: 7cde 0cbd 185b 073e ee86 f03d 6a93 563d
000000d0: d101 633c 47b7 11bd 3afa 3e3e 50cb 1bbc
000000e0: 35fa 043e 637f 663e b391 e13e a856 6dbe
000000f0: 7f5c 3fbc 37d8 7fbe 6872 3f3e 3b15 b43c
00000100: 5aef e53d da07 913e 6bd8 c2bc 45b6 e2be
00000110: 0b58 093e 7511 ee3b 978c c83c 06f3 a8bd
00000120: b8ad b63d 0546 2eba 2c30 04be 9f2e f33d
00000130: eb9b adbd a1b6 1f3e a455 b03d c5cf 2e3e
00000140: 92d1 fbbd 9d8f 74be ee09 1e3e f225 83bd
00000150: e4f2 6dbd 14db 9d3e ceca 273e 0863 ed3d
00000160: a673 963d 57b0 a9bd 421e 503e f030 29bd
00000170: c96e aa3d 6669 ff3b 6c4e 103e f02b d03b
00000180: 6d7f bf3e af52 233e f9da 15bd 2582 2bbe
00000190: 7a4f 75be dc3d f4bd 04db 2fbe 312e 08be
000001a0: e15d 4d3d af08 443b 53c7 3bbd 70b4 473e
000001b0: b5a7 cd3d 6efb 00be ddf9 a53d b46a 1a3e
000001c0: 7049 743e 34f6 9c3d 157c 18bc 716b 90bd
000001d0: c801 393c 8b87 fa3d 7e5e 6abc e3ed 303e
000001e0: 1fa8 6bbd 7393 0f3e a8c4 85bd 539b 77bd
000001f0: b2fe 4dbd e098 97be d860 36be 1dd2 ebbd
00000200: 26f2 96bd acba b7bd 47c1 31bb fddf 25be
00000210: d026 623e 7f5b ca3d 4613 073e e088 ef3d
00000220: 09a9 263e e748 343e 5249 5dbd 7998 d2bd
00000230: a617 d23d 8c58 b0bc aeeb 973b a007 4b3d
00000240: d45b d83d ed6c f0bb 0765 3fbe ff6c 6cbd
00000250: 724b dfbd ec18 a93d c44c 77be 6271 2fbd
00000260: 6c13 d2bc eb74 05bf 9dc5 0a3b f952 85bd
00000270: 59d6 473d 779e c03d 6abf dd3d 55b0 a4bd
00000280: 6b57 fd3d a02c bbbe a00c 6ebc dc9a 073e
00000290: 829f 1b3d df4b 12be 7a06 4d3e 2492 c0be
000002a0: 9f89 d73d 3706 5abd 4126 743d e0be 513e
000002b0: e4bb e1be 35c4 453d efdc 37be 2800 a5be
000002c0: 9168 5b3c 7c93 873d 88e2 ab3b 4ba2 093e
000002d0: a30e 0dbe a317 a1bd 9d9a 033d cb73 89be
000002e0: ec05 9cbd 2c8a 95bb 3e0f fb3a 693c 683d
000002f0: b713 213e 5c8b 443e e520 f9bc a62e f3bc
00000300: 22d6 9fbb bccf 2b3d adf3 6cbe 5859 2fba
00000310: ad63 17be 9521 843d 0b31 e03d 1bd0 32bd
00000320: 2a87 393e cadd 26be 7da3 6bba e07b ce3c
00000330: 7ad6 d5bc f537 43bd 6c5d 9a3c 57a4 4b3d
00000340: e5d5 3a3e d210 7e3d 5a00 afbd e4ad 213e
00000350: 4166 443e 79bb 76bc 79ec 95bc 3642 e03d
00000360: 832b f8bd 656d 223d b7db 3abd a862 0d3d
00000370: 9994 30bd 78e4 733e 767d a9bc 7a02 89be
00000380: 355e 513d 7430 ed3d 61c5 a6be 802e fdbb
00000390: b856 dd3d e655 f0bc 7012 a73e 7e84 58bd
000003a0: 61b3 65bd 26dc c3bd c39f 983d fdbc c53e
000003b0: f57d 8d3d 4636 6fbe bc7c 323e f49e 253e
000003c0: 8937 8ebc 2a39 54bd 2135 1fbd 0313 1b3d
000003d0: 21be 72bd c05f b9be b7b4 183d 9a0a 5f3d
000003e0: c3e7 a3bd 438f 853d cd06 433e aadb a3bd
000003f0: 8eb0 79be ef81 323e 4aa3 d3bd 5544 03bd

net.6.bias f4 [7]
0.16163374 0.19673802 -0.10977725 -0.13470605 0.120900735 0.20410798 -0.21805553
00000000: 5183 253e b175 493e e5d2 e0bd 62f0 09be
00000010: ce9a f73d af01 513e f349 5fbe
