preTrained/GAIL_pretrained_1600_discriminator.pth (torch, 542340 bytes, 7 tensors)

net.0.weight f4 [256, 10]
0	0x3b7b0259	0.003830096
1	0x3eb78358	0.35842395
2	0xbeab41f1	-0.33448747
3	0x3c2895b1	0.010289595
4	0xbe49d450	-0.19709897
5	0xbde2d4de	-0.110757574
6	0xbe8d505e	-0.27600378
7	0x3d56dbb8	0.052455634
8	0xbe07dc32	-0.13267592
9	0xbe2c865d	-0.1684813
10	0xbe1cf772	-0.15328768
11	0xbd2b3a4b	-0.04180364
12	0x3e7399c3	0.23789124
13	0xbd145c01	-0.036220554
14	0xbe550e8c	-0.2080633
15	0x3c8eea88	0.017445818
16	0xbddb7257	-0.10715168
17	0x3e96f64b	0.29484782
18	0xbde5807f	-0.11206149
19	0xbe4a191d	-0.19736142
20	0x3d75881a	0.05994425
21	0x3e9100c2	0.2832089
22	0xbc98e187	-0.018662227
23	0xbe4712d7	-0.1944078
24	0x3e16ac13	0.14714079
25	0x3e3505dc	0.17678016
26	0x3dc2fccc	0.095208734
27	0xbdced720	-0.100996256
28	0x3e33b98d	0.17551251
29	0xbe6ed9a5	-0.23325212
30	0x3cab5e98	0.02091913
31	0x3e6457e1	0.22299148
32	0xbdac7a63	-0.08421781
33	0x3c9df499	0.019281672
34	0x3e94b5bd	0.29044905
35	0x3e902c9c	0.28159034
36	0x3e618c50	0.22026181
37	0xbce9ea3c	-0.028554074
38	0x3e840906	0.25788134
39	0x3d74478b	0.05963854
40	0x3cd9ecca	0.026602168
41	0x3e7c4181	0.24634363
42	0xbe930670	-0.2871585
43	0x3cf1ffff	0.029541014
44	0xbe8a7a4f	-0.2704644
45	0xbc89a710	-0.016803294
46	0xbe32e28c	-0.17469233
47	0xbe9ac176	-0.30225724
48	0x3d875f70	0.0661
49	0xbd88e172	-0.06683625
50	0xbe9c389b	-0.30511937
51	0x3dc28c27	0.09499388
52	0xbdcb3b37	-0.09923404
53	0x3e1c491e	0.15262267
54	0x3be35916	0.00693811
55	0x3deca986	0.115557715
56	0x3d585f2b	0.052825134
57	0xbe1cadd3	-0.15300684
58	0xbc86c61c	-0.016451888
59	0xbd2b019f	-0.041749593
60	0xbe2b367f	-0.16720007
61	0xbe9a7372	-0.30166203
62	0xbd9b2a82	-0.07576467
63	0xbe90ad9d	-0.28257456
64	0x3de3211f	0.11090302
65	0xbc91a63c	-0.017779462
66	0xbded45e1	-0.11585594
67	0x3e99019a	0.29884034
68	0xbdf63d9d	-0.120234706
69	0x3e7f9340	0.24958515
70	0xbe848b85	-0.25887695
71	0x3d8d7ccb	0.06908568
72	0x3e15f6c7	0.1464492
73	0x3d989116	0.07449548
74	0xbe2e88ee	-0.17044422
75	0xb9170e05	-0.00014405705
76	0xbcbd36bc	-0.023097388
77	0xbe792cc9	-0.2433349
78	0xbe637664	-0.22213131
79	0xbe9d6c48	-0.30746675
80	0x3e862b17	0.2620475
81	0x3e042df8	0.1290816
82	0xbe67f398	-0.22651517
83	0xbe2681eb	-0.16260497
84	0xbdb797a5	-0.08964471
85	0xbc86111f	-0.016365586
86	0xbe521847	-0.20517074
87	0xbe9cbfd2	-0.30615097
88	0x3d9ca2db	0.0764825
89	0x3ea119fc	0.31465137
90	0xbe4cea2a	-0.20011202
91	0x3e1f7adc	0.15574211
92	0xbe7d3a95	-0.24729379
93	0x3e84c465	0.25931087
94	0xbc58530d	-0.013203395
95	0x3dba2ab8	0.09090179
96	0xbdbd2648	-0.09235817
97	0xbe7aa526	-0.24477062
98	0x3d9b0d77	0.075709276
99	0xbdd1d854	-0.102463394
100	0xbd0b69b0	-0.03403634
101	0xbac0da5f	-0.0014713517
102	0x3e384f8e	0.17999098
103	0xbe993a18	-0.29927135
104	0xbe934955	-0.28766885
105	0xbe595a78	-0.21225917
106	0xbda99a60	-0.08281398
107	0x3e01a58c	0.12660807
108	0x3c346c0e	0.01101209
109	0x3da4afcb	0.08041342
110	0x3e61e7b9	0.22061051
111	0x3c86b962	0.01644582
112	0xbe33226c	-0.174936
113	0xbd1a93fe	-0.037738793
114	0xbea02503	-0.31278238
115	0xbcd9e32e	-0.026597586
116	0xbe3ccb83	-0.18437009
117	0x3dce1067	0.10061722
118	0xbde4256e	-0.11139952
119	0x3dadb046	0.08480887
120	0x3e8f04f8	0.27933478
121	0x3e59aa4e	0.21256372
122	0xbdeccfb6	-0.11563055
123	0xbe961140	-0.29310036
124	0x3dd0508c	0.10171613
125	0xbe854438	-0.2602861
126	0xbe0168a6	-0.12637576
127	0xbea3efb5	-0.3201882
128	0x3e59e3bc	0.2127828
129	0x3dd9bc98	0.106316745
130	0xbdef872e	-0.11695705
131	0x3d0334d0	0.032032788
132	0xbe76849a	-0.24074021
133	0x3e06faf1	0.13181664
134	0x3daec0e5	0.085328855
135	0xbe047555	-0.12935384
136	0x3e60d131	0.219548
137	0xbe866694	-0.26250136
138	0x3d5e01df	0.054201003
139	0xbe06fdb0	-0.13182712
140	0x3c9fe449	0.019518035
141	0xbe4cdae5	-0.20005377
142	0x3d52b321	0.051440362
143	0x3e306f1e	0.17229888
144	0xbe88df94	-0.26733077
145	0xbdfd2197	-0.123599224
146	0x3e2d11e4	0.16901356
147	0xbe94e4cf	-0.29080817
148	0x3e57c7f1	0.21072365
149	0x3e0566ff	0.13027571
150	0xbe81f301	-0.2538071
151	0x3ddb8462	0.107186094
152	0xbe74ce8c	-0.23906916
153	0xbd992175	-0.074770845
154	0xbe55fe2a	-0.20897737
155	0xbea6bad9	-0.32564428
156	0xbc59b00a	-0.0132866
157	0x3e73bbe1	0.23802139
158	0x3d9ba545	0.07599882
159	0x3e8f0a3e	0.27937502
160	0xbe9c1eb3	-0.30492172
161	0x3e695e2c	0.2278983
162	0xbc8ee42d	-0.017442787
163	0x3e0ff506	0.14058313
164	0xbe685eed	-0.22692461
165	0xbdf70e4f	-0.12063276
166	0xbe2e8dc2	-0.17046264
167	0x3e13d932	0.14438322
168	0xbdc60682	-0.0966921
169	0x3bf92ea4	0.007604437
170	0x3d15c109	0.036561046
171	0x3e67c40a	0.22633377
172	0x3e6e1553	0.23250322
173	0x3e8f7dbf	0.28025624
174	0xbc792070	-0.015205488
175	0x3da83b5b	0.08214446
176	0x3ddbda41	0.10734988
177	0x3ddbe9c7	0.10737949
178	0xbe0fb542	-0.14033988
179	0x3d96d255	0.073643364
180	0xba85ff09	-0.0010223101
181	0x3c18680e	0.009302152
182	0xbeb69df9	-0.356674
183	0x3e9227ff	0.2854614
184	0xbdd46876	-0.10371487
185	0xbe4a5d54	-0.19762164
186	0x3e5d2438	0.21595848
187	0x3e524dfa	0.20537558
188	0xbd760b14	-0.06006916
189	0xbde6992c	-0.11259684
190	0xbe978c87	-0.295994
191	0x3dc3e06a	0.09564288
192	0xbe9a1ef1	-0.3010173
193	0xbea1bd2f	-0.31589648
194	0xbe5d96d0	-0.21639562
195	0x3e592050	0.21203732
196	0xbd1d2166	-0.03836193
197	0x3d624f93	0.05525167
198	0xbe530df7	-0.20610796
199	0x3d473fa8	0.04864469
200	0x3e8344c2	0.25638396
201	0xbe59ae03	-0.21257786
202	0xbe94fe23	-0.2910014
203	0xbe7260ac	-0.2366969
204	0x3d9a9092	0.07547106
205	0xbe8364e6	-0.25662917
206	0x3ea1a592	0.31571633
207	0xbe1e3324	-0.15449196
208	0x3dc74faa	0.097319916
209	0x3de2f9c4	0.11082795
210	0x3d317b88	0.0433307
211	0xbe4e8316	-0.20167193
212	0xbeb143d3	-0.34622058
213	0x3c4517fb	0.012029643
214	0xbdec8dca	-0.115504816
215	0x3dbeb074	0.093109995
216	0x3d06fd4a	0.0329564
217	0xbcf4850e	-0.029848602
218	0x3e97b8b8	0.29633117
219	0xbe0da2d3	-0.13831644
220	0xbec3da2a	-0.38252383
221	0x3e70e861	0.23526146
222	0xbe9e6201	-0.30934146
223	0xbea281c1	-0.3173962
224	0xbd9c44c8	-0.076303065
225	0xbe4d03af	-0.20020936
226	0xbe734d5a	-0.23759976
227	0x3de01a4c	0.10942516
228	0x3e131780	0.14364433
229	0x3e9e3f28	0.3090756
230	0xbd0bfe25	-0.034177918
231	0xbe748b1a	-0.23881188
232	0xbe4b17ae	-0.19833252
233	0x3bf42ce2	0.0074516395
234	0x3df67854	0.120346695
235	0xbdc674e1	-0.09690262
236	0xbe546102	-0.2074013
237	0xbe21f1f0	-0.15814948
238	0x3e891f23	0.26781568
239	0xbe0e99a0	-0.13925791
240	0x3e2cab3c	0.16862196
241	0x3c3d8f2a	0.0115697775
242	0x3eabd416	0.33560246
243	0xbe459944	-0.19296747
244	0x3e6a4964	0.22879559
245	0x3e342c21	0.17594959
246	0xbbf6d193	-0.0075323074
247	0xbdb77008	-0.08956915
248	0x3e679ec0	0.22619152
249	0xbdb5fa0b	-0.088855825
250	0x3e5cd14d	0.21564217
251	0x3e96f6ed	0.29485264
252	0xbe6d5407	-0.23176585
253	0x3c547563	0.01296744
254	0xbdf97486	-0.12180428
255	0x3ea131b1	0.31483224

net.0.bias f4 [256]
0	0xbec2776d	-0.3798174
1	0x3e71f15e	0.2362723
2	0x3e66cc3a	0.22538844
3	0xbe1db423	-0.15400748
4	0x3e0f7b63	0.14011912
5	0xbca1db3f	-0.019757865
6	0x3e883624	0.26603806
7	0x3e4f2702	0.20229724
8	0x3d68cd3a	0.056836344
9	0x3d94014c	0.0722681
10	0xbe285106	-0.16437158
11	0xbe0e431f	-0.13892792
12	0xbdbe3fde	-0.092895254
13	0xbe0dcc4a	-0.13847461
14	0xbe9705e6	-0.29496688
15	0x3e0875e0	0.13326216
16	0xbe27aee2	-0.16375306
17	0x3e0ef6b2	0.13961294
18	0xbd5f4642	-0.054510362
19	0x3da9f46f	0.08298575
20	0xbe921674	-0.28532755
21	0xbe2f4bfe	-0.17118832
22	0x3ddfae46	0.10921912
23	0xbe2ce55e	-0.16884372
24	0x3e5a0d69	0.21294178
25	0x3db3fb0e	0.08788119
26	0xbe546192	-0.20740345
27	0x3e83402b	0.25634894
28	0x3e6d9e6f	0.23204969
29	0xbe05e0a7	-0.1307398
30	0x3e22da57	0.15903603
31	0x3dc06861	0.09394909
32	0x3e6939e2	0.22775987
33	0x3e821070	0.25403166
34	0xbd0a95c2	-0.033834226
35	0x3d6d8a2c	0.0579931
36	0x3cb1c365	0.021699617
37	0xbc316f97	-0.010829828
38	0x3e1989a8	0.14993918
39	0x3eac16da	0.33611184
40	0xbd80c6d3	-0.06287923
41	0x3ea2350c	0.31681097
42	0xbe8ca46f	-0.27469203
43	0xbe78d76c	-0.24300927
44	0x3ea03bec	0.31295717
45	0xbe580c43	-0.21098427
46	0x3e3e5194	0.18585807
47	0xbe4ff3bf	-0.20307826
48	0xbd8d18e6	-0.068895146
49	0xbe445dc1	-0.1917639
50	0x3eb393c0	0.35073662
51	0x3e0f0a39	0.13968743
52	0x3e96efa2	0.294797
53	0xbda403d3	-0.08008542
54	0x3e4c2047	0.19934188
55	0xbe886f63	-0.2664748
56	0x3dae8611	0.08521665
57	0xbe8df604	-0.27726758
58	0xbddd5956	-0.10808055
59	0x3cf167a7	0.02946837
60	0xbcb9426a	-0.022614677
61	0xbd6aa446	-0.05728557
62	0xbe0fb70e	-0.14034674
63	0xbde70c59	-0.11281652
64	0x3e08abba	0.13346758
65	0x3db55e33	0.08855858
66	0x3ea16808	0.31524682
67	0xbdbd41d3	-0.092410706
68	0xbe18e28d	-0.14930172
69	0xbcf66fa2	-0.030082528
70	0xbe3e6132	-0.18591765
71	0x3e9593e2	0.29214388
72	0xbc8b5b3c	-0.017011277
73	0x3e4759a0	0.19467783
74	0x3e9057b8	0.28191924
75	0x3bca7ac3	0.006179185
76	0xbdb86bdf	-0.0900495
77	0x3ca91095	0.02063779
78	0x3e5f90ae	0.21832535
79	0x3d068a9f	0.032847043
80	0xbe7b32ef	-0.24531148
81	0xbe2954ff	-0.1653633
82	0x3e874b8f	0.26424834
83	0xbe0721e8	-0.13196528
84	0x3d7a9d79	0.061185334
85	0x3dc0dc4f	0.094170205
86	0xbe14a3af	-0.14515565
87	0x3e80c2be	0.25148576
88	0xbe909e08	-0.28245568
89	0xbbd6a191	-0.006550022
90	0x3e6eff16	0.23339495
91	0xbe4b9f8f	-0.19885086
92	0xbe21d11e	-0.15802428
93	0xbeb358c3	-0.35028657
94	0x3e7989f1	0.24369027
95	0x3c108724	0.008821283
96	0xbe4435c1	-0.1916113
97	0x3dcc47fb	0.09974667
98	0x3cbbdcde	0.022932466
99	0xbe9b5860	-0.30340862
100	0xbd8f57eb	-0.06999191
101	0x3dffd3fc	0.12491605
102	0x3e8b39bf	0.27192494
103	0x3c740d57	0.014895759
104	0x3d8c6c46	0.06856589
105	0x3dccbaba	0.09996553
106	0x3ddeacf0	0.10872829
107	0xbe6986a4	-0.22805268
108	0x3e95247b	0.29129395
109	0xbea0a1bd	-0.31373397
110	0x3e861314	0.2618643
111	0x3e6370a6	0.2221094
112	0xbe7bfbdb	-0.24607794
113	0x3c4567f5	0.012048711
114	0x3dc5f743	0.09666302
115	0xbcc4de91	-0.02403191
116	0x3e1a8ace	0.15092012
117	0xbe946993	-0.28986797
118	0xbe473ca7	-0.19456731
119	0x3e480950	0.19534802
120	0x3e029075	0.12750418
121	0x3e49721f	0.1967244
122	0xbe5f72e5	-0.21821173
123	0x3e5ab9f0	0.21359992
124	0x3cc010ad	0.023445452
125	0xbe495006	-0.19659433
126	0xbd8c49f3	-0.06850042
127	0x3d98ea76	0.07466595
128	0xbe17462f	-0.14772867
129	0x3e1c61c4	0.1527167
130	0xbdfa55d9	-0.122234054
131	0xbe16d910	-0.1473124
132	0x3d109bf4	0.03530498
133	0x3e113262	0.14179376
134	0xbe7a2d50	-0.24431348
135	0xbdea3820	-0.11436486
136	0x3de88db5	0.113551535
137	0x3e2b8192	0.16748646
138	0x3e384bc3	0.17997651
139	0xbe233d82	-0.15941432
140	0x3e3d82cf	0.18506931
141	0xbd9db507	-0.07700544
142	0xbea78f89	-0.32726696
143	0xbd31c665	-0.043402094
144	0xbd15c8c9	-0.036568437
145	0xbd4dd41c	-0.05025111
146	0x3e35d4f5	0.17757018
147	0xbe07df38	-0.13268745
148	0x3d78c0b1	0.06073064
149	0xbe88db81	-0.26729968
150	0x3d96ab3e	0.073568806
151	0x3d2025a3	0.039098393
152	0x3e1ba9c7	0.15201484
153	0xbd94d1ac	-0.07266554
154	0xbe00be2e	-0.12572548
155	0xbe516bc9	-0.20451273
156	0x3e5bbbf2	0.21458414
157	0xbe9c2c89	-0.30502728
158	0x3e379ed6	0.17931685
159	0xbdc02fd3	-0.09384122
160	0xbe2f6feb	-0.17132537
161	0x3e11dc88	0.14244282
162	0x3e971118	0.2950523
163	0xbd00d16c	-0.03144972
164	0xbeb1be44	-0.34715474
165	0x3eaa873f	0.3330631
166	0xbe8d483d	-0.27594176
167	0xbe0ccec4	-0.1375075
168	0xbe435856	-0.19076666
169	0xbeb88a63	-0.3604308
170	0x3dca3689	0.09873683
171	0xbe8b225a	-0.27174646
172	0xbe98c977	-0.29841205
173	0xbd9c9934	-0.07646409
174	0x3e890316	0.26760167
175	0x3e5e8997	0.21732174
176	0xbe9fa493	-0.31180248
177	0x3d4a6b56	0.04941877
178	0xbec28ac2	-0.3799649
179	0x3e21c4e5	0.15797766
180	0xbe3c349a	-0.18379441
181	0xbe280f88	-0.16412175
182	0x3e29202a	0.16516176
183	0xbe8c0312	-0.27346092
184	0xbe974800	-0.2954712
185	0x3e658849	0.2241527
186	0x3e8b4159	0.27198294
187	0xbdf1a319	-0.117986865
188	0x3e04a5a3	0.1295381
189	0xbec62dd6	-0.38706845
190	0x3eb5397f	0.3539543
191	0xbcbfa573	-0.023394322
192	0xbe801cc1	-0.25021937
193	0xbd6db4ad	-0.058033634
194	0xbe9327e9	-0.28741387
195	0x3d5389e8	0.05164519
196	0xbe39de1d	-0.18151136
197	0x3e821c38	0.25412154
198	0xbda5ffcb	-0.08105429
199	0x3e75ceda	0.24004689
200	0xbe589782	-0.21151546
201	0xbdd6f3b9	-0.10495705
202	0xbe3cb2b2	-0.18427542
203	0xbe7935c6	-0.24336919
204	0x3c92284e	0.017841484
205	0xbe22a209	-0.15882124
206	0xbe8891c4	-0.2667371
207	0x3e92c024	0.28662217
208	0x3eab7c95	0.33493486
209	0xbeaf20ed	-0.34204808
210	0x3e91ad36	0.28452462
211	0x3e2ad191	0.16681506
212	0xbd4842e2	-0.04889191
213	0xbe9a2420	-0.30105686
214	0x3d34e008	0.044158965
215	0x3e0de1c1	0.1385565
216	0x3d16c794	0.036811426
217	0xbeb81f30	-0.35961294
218	0x3d8dc3d9	0.069221206
219	0xbca6f62c	-0.020381056
220	0xbdc117a8	-0.0942834
221	0xbeac7c84	-0.33688748
222	0x3dde0fc9	0.108428545
223	0x3e19c306	0.15015802
224	0x3eaeac57	0.3411586
225	0xbe8bf4a6	-0.2733509
226	0x3e836a8a	0.2566722
227	0x3e871f8a	0.2639125
228	0x3eb76683	0.35820398
229	0x3e416a2a	0.18888155
230	0xbe932478	-0.2873876
231	0xbe7f8d24	-0.24956185
232	0xbdb91ae3	-0.09038331
233	0xbd99aab5	-0.07503263
234	0xbe915fb6	-0.28393334
235	0x3e490cca	0.19633785
236	0x3c0a2b26	0.008433139
237	0x3e46877b	0.19387619
238	0xbe98e49f	-0.29861924
239	0x3e703466	0.23457488
240	0xbe4e77e4	-0.20162922
241	0xbccf2158	-0.025284454
242	0x3acd3c83	0.0015658293
243	0xbe9c6285	-0.30543914
244	0xbe8d805a	-0.27636987
245	0xbe0ad692	-0.13558415
246	0xbe9220b7	-0.28540584
247	0x3dad9795	0.084761776
248	0x3dfea9ae	0.124347076
249	0x3e24c19c	0.16089481
250	0xbe22df22	-0.15905431
251	0xbe38308b	-0.17987268
252	0x3e2da9b8	0.16959274
253	0xbe7388e3	-0.23782687
254	0x3e87e310	0.26540422
255	0xbe88d692	-0.26726204

net.2.weight f4 [256, 256]
0	0xbaa16774	-0.0012314157
1	0xbc06cd2b	-0.008227627
2	0x3dd0d3fb	0.10196682
3	0x3c972e00	0.018454552
4	0x3c352213	0.011055487
5	0x3d02ccb6	0.03193351
6	0x3d9e3636	0.07725184
7	0xbd3ba3dd	-0.04581057
8	0xbd3345bb	-0.043767672
9	0xbc403c57	-0.011733136
10	0x3c7c1c65	0.015387629
11	0xbcc65b44	-0.02421344
12	0xbd7c5f2a	-0.061614193
13	0x3d05228b	0.032503646
14	0xbd4df158	-0.05027899
15	0xbcbca352	-0.023027096
16	0x3c91497d	0.017735237
17	0xbc3b10fa	-0.011417622
18	0x3cf8156b	0.03028365
19	0x3d31e774	0.04343362
20	0x3a406100	0.0007338673
21	0xbd6fbf62	-0.058532126
22	0xbd7fbb0c	-0.06243424
23	0x3ced502a	0.02896889
24	0xbd263cf3	-0.04058547
25	0x3d83dd59	0.06438703
26	0xbd6c517f	-0.05769491
27	0xbcf38fb5	-0.02973161
28	0xbb1468ed	-0.0022645548
29	0xbdaeb9b0	-0.08531511
30	0xbcde7d65	-0.027159402
31	0x3d6d8c39	0.057995055
32	0x3d5bbab0	0.053644836
33	0x3dffac5f	0.12484049
34	0x3d94f82e	0.07273899
35	0x3d040f22	0.032240994
36	0x3cf23638	0.02956687
37	0x3cca55ec	0.024699174
38	0xbcdf2fb7	-0.027244432
39	0xbdf1b071	-0.11801232
40	0x3c4c15fa	0.0124564115
41	0x3b950d8f	0.0045487355
42	0xbd262175	-0.04055925
43	0xbcb375bc	-0.021906726
44	0x3cf3afe6	0.02974696
45	0xbbca7876	-0.006178911
46	0xbd7f948b	-0.06239752
47	0xbc6ad7a6	-0.014333641
48	0xbdce6c76	-0.10079281
49	0xbd58f6ce	-0.052969746
50	0x3da6be6e	0.0814179
51	0x3da112a9	0.07864887
52	0x3d79485d	0.060860027
53	0x3c0f49aa	0.00874559
54	0x3cbc0cbe	0.022955295
55	0x3cc27390	0.023736745
56	0x3cfaabee	0.03059956
57	0x3cebafd0	0.028770357
58	0x3af974a7	0.0019031957
59	0xbd178bce	-0.036998563
60	0x3b974017	0.0046157944
61	0xbd213611	-0.039358202
62	0x3d54bba2	0.051936753
63	0x3d271d6a	0.040799536
64	0xbd3492de	-0.044085376
65	0xbc3e86ba	-0.011628801
66	0xbc613a19	-0.013746762
67	0x3c041391	0.008061306
68	0xbd1a04ba	-0.037602164
69	0xbd845ea7	-0.06463366
70	0x3b6a5a05	0.0035759222
71	0x3caf891c	0.021427684
72	0xbd54bd80	-0.051938534
73	0xbc79a933	-0.015238094
74	0xbd5cc1c7	-0.053895738
75	0x3d140865	0.03614082
76	0x3c85980b	0.016307851
77	0x3c9e839f	0.019349871
78	0xbd109539	-0.03529856
79	0xbde02af9	-0.109456964
80	0x3c7a96b0	0.015294716
81	0xbd49dc2e	-0.049282245
82	0x3d7d37c3	0.061820757
83	0xbc28d334	-0.010304261
84	0xbded35d0	-0.115825295
85	0x3c93c220	0.018036902
86	0xbdd2c118	-0.10290736
87	0x3d5f90e4	0.054581538
88	0xbbed7dc0	-0.0072476566
89	0xbcf5d054	-0.030006565
90	0xbd15beed	-0.036559034
91	0xbc9276b7	-0.017878873
92	0xbc734b28	-0.014849462
93	0x3c8d3d8b	0.01724126
94	0x3cdf58fa	0.027264107
95	0x3ba06ae6	0.004895556
96	0xbddba40a	-0.10724647
97	0xbcb3798e	-0.021908548
98	0xbd60990a	-0.05483345
99	0x3ba5c58d	0.0050589503
100	0x3d3162f6	0.043307267
101	0x3d0d8a27	0.03455558
102	0x3da0f147	0.0785852
103	0xbd77f2b7	-0.060534205
104	0x3de43df3	0.111446284
105	0xba0792f8	-0.00051717414
106	0xbcac7c37	-0.021055324
107	0xbd74daf2	-0.059779115
108	0x3d6e664d	0.05820303
109	0xbdd03187	-0.101656966
110	0x3e17ad0d	0.14812107
111	0xbcb4b4f4	-0.022058941
112	0xbd690609	-0.05689052
113	0x3ce50c9c	0.027960114
114	0x3c55c566	0.013047552
115	0x3ce0963b	0.027415385
116	0xbcdabfb3	-0.026702737
117	0xbd9b8a92	-0.075947896
118	0xbd3a532c	-0.045489475
119	0x3bf85363	0.0075783
120	0x3e02f4de	0.12788722
121	0xbd231edc	-0.03982435
122	0x3d7e778a	0.06212572
123	0xbd4139a5	-0.047174115
124	0x3d745dea	0.059659876
125	0xbd1a1cb9	-0.03762505
126	0x3d0d9e69	0.0345749
127	0xbd42cb44	-0.04755713
128	0x3cf8f9fd	0.030392641
129	0x3d12598d	0.035729934
130	0xbcd888f0	-0.026432484
131	0xbcf3d62f	-0.029765217
132	0x3ccffdd4	0.02538959
133	0x3d22ee70	0.039778173
134	0xbd697d38	-0.057004184
135	0x3d7f31c6	0.062303327
136	0x3d96c2dc	0.07361385
137	0x3cebc9ca	0.028782744
138	0xbcfaa2d8	-0.030595228
139	0xbd0d42bc	-0.03448747
140	0xbd5f3c04	-0.054500595
141	0xbd47728b	-0.04869322
142	0xbd34ed55	-0.04417165
143	0xb98f6647	-0.00027351288
144	0xbd1e1140	-0.03859067
145	0xbd185859	-0.03719363
146	0x3d4c447c	0.04987
147	0xbcb0e46a	-0.021593291
148	0x3cac46cd	0.021029854
149	0xbd93621f	-0.071964495
150	0x3d84581b	0.06462117
151	0xbbadea78	-0.005307492
152	0xbae120f5	-0.001717596
153	0x3a3e2661	0.00072536437
154	0xbd759ade	-0.059962146
155	0xbd8aee5d	-0.067837454
156	0xbcbabb10	-0.022794276
157	0xbc00eed0	-0.007869437
158	0xbc03b221	-0.008038075
159	0xbdb1c20a	-0.08679588
160	0xbbd3ed7b	-0.006467519
161	0xbd504c3a	-0.050853945
162	0xbc3bc6de	-0.011460988
163	0xbd83296c	-0.06404385
164	0xbdc5cbf7	-0.09658044
165	0x3d091402	0.033466347
166	0xbe09eb8d	-0.13468762
167	0xbda2d728	-0.07951194
168	0x3d342124	0.043976918
169	0x3bac9446	0.005266699
170	0x3c8b82fd	0.017030234
171	0xbda36faf	-0.07980286
172	0xbc8472aa	-0.016167957
173	0xbd13bc28	-0.03606811
174	0x3d55e2f9	0.05221841
175	0x3d70d601	0.05879784
176	0x3c8256cf	0.015910534
177	0xbd755a74	-0.059900716
178	0xbd565fd9	-0.0523375
179	0x3dbd0395	0.09229199
180	0x3c33f558	0.0109837875
181	0x3d9064d8	0.070504844
182	0x3d81dc55	0.06340853
183	0xbc00409c	-0.007827904
184	0x3d5b1cf2	0.0534944
185	0x3cbd7853	0.023128664
186	0xbe01d457	-0.12678657
187	0x3c26decb	0.010184954
188	0x3d43e179	0.04782245
189	0xbd2e0768	-0.042487532
190	0xbb317e0c	-0.0027083186
191	0x3e3b7b50	0.18308759
192	0xbcef0800	-0.02917862
193	0x3d47fff6	0.048828088
194	0x3d38ea62	0.0451454
195	0x3d26453d	0.040593375
196	0x3cddd471	0.027078839
197	0x3d5e477b	0.054267388
198	0xbc418410	-0.011811271
199	0x3d0f9d4a	0.035062112
200	0xbd8dace6	-0.069177434
201	0x3d341bc0	0.043971777
202	0xbcede6cc	-0.029040717
203	0xbd156c30	-0.03648013
204	0x3c792834	0.015207339
205	0x3d1c275c	0.038123474
206	0x3c82dda4	0.015974827
207	0xbd1288ca	-0.035774983
208	0x3dc58dfc	0.09646222
209	0x3ce66ed9	0.028129028
210	0x3c2132bf	0.009838759
211	0xbd0c616f	-0.034272607
212	0x3bbeb170	0.005819492
213	0x3d4e1705	0.050314922
214	0xbbd0ff49	-0.0063780886
215	0x3cce3c83	0.025175339
216	0xbd36b79f	-0.04460871
217	0xbdb85abf	-0.090016834
218	0xbd88e68c	-0.06684598
219	0x3d2aed93	0.041730475
220	0xbc221d98	-0.009894751
221	0xbd65866a	-0.05603639
222	0x3d140aa5	0.036142964
223	0xbbf3b4c4	-0.0074373204
224	0x3e33a5db	0.17543738
225	0xbcd5dac6	-0.026105296
226	0x3c00bfa5	0.007858192
227	0xbd253662	-0.040335067
228	0x3d677d7b	0.056516152
229	0x3d1da2a9	0.038485203
230	0xbdb3a376	-0.08771412
231	0xbd3165e8	-0.043310076
232	0x3cc90dd0	0.02454272
233	0x3d64ded6	0.055876575
234	0x3d2741df	0.040834304
235	0x3d7953f6	0.060871087
236	0xbbfdd076	-0.0077457977
237	0xbce063ac	-0.027391277
238	0x3b9f9fb1	0.0048713316
239	0xbc31145a	-0.010808075
240	0xbd6f0596	-0.058354937
241	0x3c37f4b9	0.01122778
242	0xbd2f2441	-0.042759184
243	0xbd190bf6	-0.037364922
244	0xbc14b9a0	-0.00907746
245	0x3b4e4798	0.0031475779
246	0xbdc0acae	-0.09407936
247	0x3cd2b697	0.025721831
248	0xbd991fcc	-0.07476768
249	0x3bf26bec	0.007398119
250	0x3cae1240	0.021248937
251	0x3c8bc034	0.017059423
252	0x3d5e41c2	0.05426193
253	0xbd0a69d9	-0.03379235
254	0x3c9c93ab	0.019113382
255	0xbc96d74c	-0.018413208

net.2.bias f4 [256]
0	0x3d4fe56f	0.050755914
1	0x3c9fadda	0.019492079
2	0xbcbda314	-0.02314905
3	0xbcdd6d88	-0.027029768
4	0x3d0534a3	0.0325209
5	0xbd70dd3d	-0.05880474
6	0x3d06871b	0.03284369
7	0x3d5ac1cc	0.053407475
8	0x3cd97f88	0.02655007
9	0xbb8dc700	-0.004326701
10	0x3b99787d	0.004683553
11	0xbdc613e1	-0.0967176
12	0x3d88964c	0.06669292
13	0x3d18da41	0.03731752
14	0x3a65f4d5	0.00087721396
15	0xbd2469e8	-0.040140063
16	0x3c451310	0.012028471
17	0xbca68368	-0.020326331
18	0xbd8b34cf	-0.06797182
19	0xbd4d8d62	-0.05018366
20	0xbd8b4c92	-0.06801714
21	0x3a577215	0.00082185987
22	0x3dbc8943	0.09205868
23	0xba273205	-0.0006377998
24	0xbd655dea	-0.055997767
25	0xbd38d46e	-0.045124464
26	0xbceeb0df	-0.029137073
27	0x3b822a58	0.003972333
28	0xbd7e75d0	-0.062124074
29	0xbc5afd10	-0.013365999
30	0xb95b05a4	-0.00020887569
31	0xbc6d21d4	-0.014473397
32	0xbd1e3b88	-0.038630992
33	0x3d168202	0.03674508
34	0xbdcbc65f	-0.09949946
35	0x3c615c2b	0.013754885
36	0xbd4d7c0f	-0.05016714
37	0xba91a4e9	-0.0011111769
38	0xbdaf1ea2	-0.085507646
39	0x3d0464f0	0.032322824
40	0x3d743a12	0.059625693
41	0xbd2b146e	-0.04176753
42	0x3d8a4ca3	0.067528985
43	0x3dc10a45	0.09425787
44	0xbd2a8218	-0.041627973
45	0x3d156fb8	0.036483496
46	0xbb444434	-0.0029947879
47	0x3d62345f	0.055225726
48	0xbd97b8c5	-0.07408289
49	0x3d953202	0.07284929
50	0xbdc93f78	-0.09826559
51	0x3c008210	0.007843509
52	0x3dbf7869	0.09349138
53	0xbc399f18	-0.011329435
54	0x3dd21340	0.10257578
55	0x3d2fd32c	0.042926
56	0xbdaac64c	-0.083386034
57	0xbd3e743e	-0.046497576
58	0xbcae37d6	-0.021266859
59	0x3d9857f5	0.074386515
60	0x3b906da0	0.0044075996
61	0x3cb8407a	0.022491682
62	0xbd7952be	-0.060869925
63	0xbd73b955	-0.05950292
64	0xbc2b67c0	-0.010461748
65	0x3d333624	0.043752804
66	0xbd8945e2	-0.06702782
67	0x3c60d7e0	0.013723344
68	0xbc32ade4	-0.010905717
69	0x3d12f5a2	0.035878785
70	0x3d5cd24c	0.053911492
71	0x3d82cf55	0.06387202
72	0x3c1241ad	0.008926791
73	0xbd70656c	-0.058690473
74	0x3c8e895a	0.017399479
75	0xbd3fad90	-0.04679638
76	0x3c22a922	0.00992802
77	0xbd168b3a	-0.03675387
78	0x3cf5413e	0.029938336
79	0xbd8a6d42	-0.067591205
80	0xbd194599	-0.03741989
81	0xbdc408ee	-0.09572016
82	0xbda78269	-0.08179171
83	0xbcedf434	-0.02904711
84	0xbcf1917a	-0.029488314
85	0x3c2d5238	0.0105786845
86	0xbd96fd12	-0.07372488
87	0xbd0e5174	-0.03474565
88	0xbbac06eb	-0.005249848
89	0x3a04a4fb	0.00050599844
90	0xbaab9880	-0.0013091713
91	0xbb244f07	-0.0025071518
92	0x3dd611ce	0.10452615
93	0xbba78b46	-0.0051130382
94	0xbd988ea0	-0.074490786
95	0xbd5baf68	-0.053634077
96	0xbd9cb5a1	-0.076518305
97	0x3d64d43e	0.055866472
98	0x3cd5b4f8	0.02608727
99	0x3dd45dd1	0.103694566
100	0xbc6384d7	-0.013886652
101	0xbd66bf9b	-0.056335073
102	0x3cfbf034	0.030754186
103	0x3bbef176	0.005827124
104	0x3dcadca6	0.099053666
105	0x3ce16432	0.027513597
106	0x3d8a483a	0.067520574
107	0xbdb1dafd	-0.08684347
108	0xbbce4f85	-0.0062961006
109	0x3d0f3933	0.03496666
110	0xbc3669a5	-0.011133586
111	0xbd2f8f92	-0.04286153
112	0xbdb7fc8f	-0.089837186
113	0x3d011f47	0.03152397
114	0xbce4934e	-0.027902272
115	0xbd726e3c	-0.05918716
116	0x3b8dd40f	0.004328258
117	0xbcac27a9	-0.021015005
118	0x3d643e2e	0.05572336
119	0xbd9b1254	-0.07571855
120	0xbba3aa3c	-0.0049946588
121	0x3d89c201	0.067264564
122	0xbba8ea40	-0.005154878
123	0x3ce754d2	0.028238688
124	0x3de39a5e	0.111134276
125	0xbd074760	-0.033027053
126	0xbcdbcc07	-0.026830686
127	0x3d16bb09	0.036799464
128	0xbd39eb50	-0.045390427
129	0xbd0ffc1e	-0.035152547
130	0x3b036e40	0.0020054728
131	0xbdca9284	-0.09891227
132	0x3e0014ef	0.12507986
133	0xbd4b2e12	-0.049604483
134	0x3ca46b13	0.020070588
135	0x3d4b548a	0.04964117
136	0x3dad0a01	0.08449174
137	0x3cc20da8	0.023688152
138	0x3d498573	0.049199533
139	0x3dd71e24	0.10503796
140	0xbdc11a9d	-0.09428904
141	0x3df94a64	0.12172392
142	0xbd549a42	-0.051904924
143	0xbcd4de29	-0.02598484
144	0xbcc72c0d	-0.024312997
145	0x3d773b81	0.06035948
146	0x3c3ba94a	0.011453936
147	0xbd1ad5d5	-0.037801582
148	0x3d297bc2	0.04137779
149	0xbd8542db	-0.06506892
150	0xbc2e5f8d	-0.010642898
151	0xbce87c69	-0.028379636
152	0xbdbd72b5	-0.09250394
153	0xbca1934d	-0.019723559
154	0x3d30df04	0.043181434
155	0x3dc99070	0.098420024
156	0xbd5be5cf	-0.05368596
157	0x3bcf55ce	0.0063273674
158	0x3d389f34	0.045073703
159	0xbdf03b2f	-0.117300384
160	0x3c56b6d1	0.01310511
161	0x3c42116b	0.011844973
162	0x3db26035	0.08709756
163	0xbd830c80	-0.063988686
164	0xbc9a0c66	-0.01880474
165	0xbd54e543	-0.051976454
166	0x3dfe964e	0.12431012
167	0x3d1a1847	0.03762081
168	0xbca3db4f	-0.020002035
169	0xbb14de60	-0.0022715554
170	0x3cc96deb	0.024588546
171	0x3d65ac54	0.056072548
172	0x3c960302	0.018311981
173	0xbd42a5ad	-0.047521282
174	0xbde7ea25	-0.113239564
175	0xbc10fd67	-0.008849478
176	0x3c3e7187	0.011623747
177	0xbcd5162c	-0.026011549
178	0xbd9c9486	-0.07645516
179	0xbcad78cc	-0.021175765
180	0xbd87b7a8	-0.066268265
181	0x3d78da50	0.060755074
182	0xbd3d2faa	-0.046188034
183	0xbdb0a778	-0.08625692
184	0xbcfea828	-0.031086043
185	0xbd64d8f4	-0.055870965
186	0x3cf4e9a3	0.029896563
187	0x3c9eacdd	0.019369537
188	0xbd012eb7	-0.03153869
189	0xbd509081	-0.05091906
190	0xbd000775	-0.03125711
191	0xbce28b2c	-0.027654253
192	0xbd3161b8	-0.043306082
193	0x3ddc6649	0.10761697
194	0x3c801e9e	0.0156396
195	0x3c6bbe68	0.014388658
196	0xbc912a5e	-0.017720398
197	0xbd655cc6	-0.05599668
198	0xbd9833fc	-0.0743179
199	0xbd0013f2	-0.03126902
200	0xbd667756	-0.05626615
201	0xbdcac78f	-0.09901344
202	0x3b5c8022	0.003364571
203	0xbd9b0869	-0.075699635
204	0x3cd1110c	0.025520824
205	0xbdc8666f	-0.09785163
206	0xbd2269a2	-0.03965152
207	0xbd7a8e3c	-0.0611708
208	0x3d609412	0.05482871
209	0xbc282879	-0.010263556
210	0xbb40cb04	-0.0029417882
211	0x3dd2685b	0.102738105
212	0xbdadb2a5	-0.08481339
213	0xbd57849d	-0.052616704
214	0xbd0e5257	-0.034746494
215	0x3e020c33	0.12699966
216	0xbd8db81a	-0.0691988
217	0xbcfc8275	-0.030823926
218	0xbcf6df8c	-0.030135892
219	0xbd4f5638	-0.050619334
220	0xbd1a4f14	-0.03767307
221	0xb9666e80	-0.00021975674
222	0xbd5eff44	-0.05444266
223	0x3c31bb2e	0.01084785
224	0xbd468c08	-0.048473388
225	0xbce911c1	-0.028450849
226	0xbd8081e9	-0.062747784
227	0x3d3c0a24	0.04590811
228	0x3bcb8830	0.006211303
229	0xbd1e3864	-0.038627997
230	0xbc8dfed5	-0.017333427
231	0xbb2fb140	-0.002680853
232	0xbc951309	-0.018197553
233	0xbceb52d8	-0.028726026
234	0x3d3792b1	0.04481763
235	0xbc209060	-0.009800047
236	0x3cb60393	0.022218501
237	0xbca43890	-0.020046502
238	0xbdb24b03	-0.087057136
239	0xbd729992	-0.059228487
240	0x3d2ae962	0.041726477
241	0x3df32856	0.11872928
242	0x3c830347	0.015992774
243	0xbd1d3170	-0.038377225
244	0x3dcd7850	0.100327134
245	0x3d84b93a	0.06480642
246	0xbb39bcfe	-0.0028341408
247	0xbbf3a61a	-0.0074355723
248	0xbba81911	-0.0051299413
249	0xbd3575ee	-0.04430192
250	0x3d56aefc	0.05241297
251	0xbd89facb	-0.06737288
252	0x3d340d56	0.04395803
253	0xbd0793a6	-0.033099793
254	0xbd6d500e	-0.057937674
255	0x3c9b4fc2	0.01895893

net.4.weight f4 [256, 256]
0	0xbdd612df	-0.10452818
1	0xbd555c70	-0.05209011
2	0xbc80c9b0	-0.015721172
3	0xbcdcf258	-0.026971027
4	0x3d32309a	0.04350338
5	0x3d158029	0.036499176
6	0xbc1657e8	-0.009176232
7	0x3d08011c	0.033204183
8	0x3cd0bef7	0.025481684
9	0xbc9f0f94	-0.019416608
10	0xbbdff260	-0.0068343133
11	0x3ddaeae5	0.10689334
12	0x3d0eacbe	0.03483271
13	0xbe03ed09	-0.1288339
14	0x3c9f287d	0.019428486
15	0xbcfbd779	-0.030742394
16	0xbd2dd660	-0.042440772
17	0x3d38642c	0.045017406
18	0x3e21d2a5	0.15803011
19	0xbc90f51c	-0.017695002
20	0xbd557d26	-0.052121304
21	0x3d767ec2	0.06017948
22	0xbded3a25	-0.11583356
23	0xbb8c8701	-0.0042885547
24	0x3d17ed80	0.037091732
25	0x3e09dd27	0.13463269
26	0xbcda17e7	-0.026622726
27	0xbcde0ca8	-0.027105644
28	0xbd236166	-0.03988781
29	0xbd4271c7	-0.047471788
30	0x3d158802	0.03650666
31	0x3c659a68	0.014013864
32	0xbd5fa084	-0.05459644
33	0xbdff3d74	-0.12462893
34	0x3ddfd1a5	0.109286584
35	0x3d525c00	0.05135727
36	0x3cc1a753	0.023639357
37	0xbd55b4bb	-0.05217431
38	0x3d974323	0.07385852
39	0xbc925cd8	-0.017866537
40	0xbca9279c	-0.02064877
41	0x3da7f0a7	0.08200198
42	0xbd2bde0e	-0.041959815
43	0xbd9317ff	-0.07182311
44	0xbb1615c0	-0.0022901148
45	0x3d0a294b	0.033730786
46	0xba587f85	-0.0008258748
47	0xbd6c2ade	-0.05765807
48	0xbbdf636e	-0.006817273
49	0xbd9a80a9	-0.07544071
50	0xbcd492dc	-0.025948934
51	0x3d037546	0.032094263
52	0xbe2551fa	-0.16144553
53	0x3d0af33c	0.033923373
54	0xbd9ca987	-0.07649522
55	0xbdedd6db	-0.11613246
56	0xbcac72f8	-0.021050915
57	0xbd47791c	-0.048699483
58	0xbd5167a8	-0.051124245
59	0xbdaa0a99	-0.083028026
60	0x3d773770	0.060355604
61	0xbd29ffc8	-0.041503698
62	0xbcd3bb2c	-0.025846086
63	0xbc4a247a	-0.012337798
64	0xbcf6a10c	-0.03010609
65	0xbca289f4	-0.019841172
66	0xbd1e9e3e	-0.03872513
67	0xbd094200	-0.033510208
68	0x3d39db14	0.045374945
69	0xbcddfe74	-0.027098872
70	0xbd9d2173	-0.076723956
71	0xbccfaf80	-0.02535224
72	0x3e0107ee	0.12600681
73	0x3cdb92fc	0.026803486
74	0x3d02b35c	0.03190933
75	0xb9d59eb7	-0.00040744778
76	0xbc199ea8	-0.0093762055
77	0xbc6aed40	-0.014338791
78	0xbd640fdc	-0.055679187
79	0xbd55ee0e	-0.05222898
80	0x3d983159	0.07431287
81	0x3aa0db27	0.0012272344
82	0x3d04bbe3	0.032405745
83	0xbd84706c	-0.06466755
84	0x3c98d204	0.01865483
85	0xbb953b10	-0.00455416
86	0xbcb9b8bf	-0.022671102
87	0xbd79a16c	-0.06094496
88	0x3cb055e0	0.021525323
89	0x3e18b0a4	0.14911133
90	0x3d3d06a0	0.046148896
91	0xbb157840	-0.002280727
92	0xbdbd1308	-0.092321455
93	0xbc8ef3ec	-0.017450295
94	0xbd489159	-0.04896674
95	0x3d6361fe	0.055513375
96	0x3d484e5d	0.048902858
97	0xbc51b620	-0.01279977
98	0xbd82d7c5	-0.06388811
99	0xbdb29b14	-0.08720985
100	0xbd96228e	-0.073308095
101	0x3d720f9e	0.059096925
102	0xbd85d828	-0.06535369
103	0x3d8c5235	0.06851617
104	0xbd3f3ed2	-0.04669077
105	0x3d35cad1	0.044382874
106	0xbdb5fbd2	-0.088859215
107	0xbd0743ff	-0.03302383
108	0x3ce7a624	0.028277464
109	0xbd8d3a02	-0.0689583
110	0x3d652f84	0.055953518
111	0x3d8cca5b	0.06874534
112	0x3e27b092	0.1637595
113	0xbc5bd651	-0.013417796
114	0x3d75c273	0.059999894
115	0xbd1dd8ef	-0.038536962
116	0xbdb5411d	-0.0885031
117	0x3d49a698	0.04923114
118	0xbd1ebf19	-0.038756464
119	0x3da086f3	0.078382395
120	0xbd419908	-0.047265083
121	0xbdea7d0c	-0.11449632
122	0xbcda6250	-0.026658207
123	0x3da10f46	0.07864241
124	0xbdf4be78	-0.119503915
125	0x3d1c1e6a	0.038114943
126	0x3d45b223	0.048265588
127	0xbc029960	-0.007971138
128	0xbb684200	-0.003543973
129	0x3b8a6c80	0.00422436
130	0x3c978684	0.01849676
131	0xbbdb7480	-0.0066972375
132	0xbddbf8c0	-0.10740805
133	0x3d0c7f4b	0.034301084
134	0xbd132a63	-0.035929095
135	0xbc0b85f8	-0.008515827
136	0xbd2ad1ac	-0.041703865
137	0x3cec7324	0.028863497
138	0xbd040720	-0.032233357
139	0xbe3849bd	-0.17996879
140	0x3dc1faf4	0.09471694
141	0xbdae4b39	-0.08510441
142	0x3ca523f8	0.020158753
143	0x3bb66380	0.0055660605
144	0xbcafb72b	-0.021449646
145	0xbd4c35cf	-0.049856003
146	0xbc9a6f5c	-0.018851928
147	0xbcc57246	-0.024102341
148	0xbcf116d3	-0.029429829
149	0x3d124c49	0.035717282
150	0x3d4529c1	0.048135523
151	0xbc9f34d6	-0.019434374
152	0xbd1217ac	-0.035667107
153	0x3c7a1013	0.015262621
154	0xbd616618	-0.055029005
155	0xbddf6a26	-0.10908918
156	0xbd36aad6	-0.044596516
157	0x3ca9f22d	0.020745361
158	0xbd1e8068	-0.038696676
159	0x3e3a57d3	0.18197565
160	0xbc453850	-0.012037352
161	0xbe31c538	-0.17360389
162	0xbdf614b8	-0.120156705
163	0xbd04e56b	-0.032445353
164	0x3da7b97c	0.08189675
165	0xbbb17b90	-0.005416341
166	0xbd61b52d	-0.055104423
167	0x3bc0e940	0.0058871806
168	0xbad0bd51	-0.0015925561
169	0x3c9b4774	0.01895497
170	0x3d2d6ff8	0.04234311
171	0xbd15b033	-0.03654499
172	0x3dcb5d2f	0.09929883
173	0x3d825b90	0.063651204
174	0x3cfb571f	0.030681191
175	0x3c83c999	0.01608734
176	0xbd15841f	-0.036502954
177	0x3d08fbbe	0.033443205
178	0x3cae3f0e	0.021270301
179	0x3d459cb2	0.04824514
180	0x3cf141fd	0.029450411
181	0xbd4c3089	-0.049850974
182	0xbd5ff398	-0.05467567
183	0xbd4dae1b	-0.050214868
184	0xbc6334f0	-0.013867602
185	0xbc9e1f49	-0.019302027
186	0xbc2451b0	-0.010029241
187	0x3de3ee0f	0.111293904
188	0x3c6f0bd8	0.014590226
189	0xbce7858c	-0.028261922
190	0x3dc6402b	0.09680208
191	0x3d4a08fe	0.049324982
192	0xbca896fc	-0.020579807
193	0xbd7d6ab7	-0.06186935
194	0xbc789e60	-0.015174478
195	0x3d525136	0.05134698
196	0xbd83e832	-0.06440772
197	0x3cab8cdc	0.02094119
198	0xbc8b7685	-0.017024288
199	0x3d552fce	0.052047543
200	0x3d5391d8	0.05165276
201	0x3d47816e	0.04870742
202	0x3d699d92	0.057035036
203	0x3e23ac6c	0.15983742
204	0xbcf3ab7c	-0.029744856
205	0xbd6a20c4	-0.057160154
206	0xbd3d072a	-0.04614941
207	0xbcbe7547	-0.023249282
208	0xbd97ffc8	-0.07421833
209	0xbd0b12c2	-0.033953436
210	0x3d1a8f1c	0.037734136
211	0xbe01693e	-0.12637803
212	0xbc8d99a4	-0.017285176
213	0xbcd9f197	-0.026604457
214	0x3d4aca18	0.049509138
215	0xbe410410	-0.18849206
216	0x3c72e396	0.0148247685
217	0xbd394b79	-0.045237992
218	0xbd82ec78	-0.06392759
219	0xbd277436	-0.04088231
220	0x3cceb37c	0.02523207
221	0xbda2d4a7	-0.079507165
222	0x3d01159c	0.03151475
223	0xbd948c8c	-0.0725337
224	0x3c819470	0.01581785
225	0xbd223136	-0.039597712
226	0xbd5e829a	-0.05432377
227	0xbd65d6b4	-0.05611296
228	0x3d586ed8	0.052840084
229	0x3a329cfa	0.00068135525
230	0x3cb2b74e	0.021815922
231	0xbd2c99ae	-0.042138748
232	0x3d475efd	0.048674572
233	0x3d02079e	0.031745546
234	0x3a53e100	0.0008082539
235	0xbc659738	-0.014013104
236	0xbdb3b130	-0.0877403
237	0xbc212db2	-0.009837555
238	0x3d80464d	0.06263409
239	0xbd2a99f0	-0.041650712
240	0xbc52bba8	-0.012862124
241	0xbdd1a520	-0.10236573
242	0xbdc93bf0	-0.09825885
243	0x3c7770d0	0.01510258
244	0xbdfbe735	-0.122999586
245	0x3c17c7b8	0.009263925
246	0x3c73b420	0.014874488
247	0x3c2f36c5	0.01069421
248	0x3c8ea010	0.017410308
249	0xbba298e4	-0.0049620736
250	0x3bcf4459	0.0063252863
251	0x3ef82075	0.48462263
252	0xbe01bed3	-0.1267045
253	0xbc228ca3	-0.009921226
254	0xbcde07c0	-0.027103305
255	0xbd54d432	-0.051960178

net.4.bias f4 [256]
0	0xb9bf6e1a	-0.0003651239
1	0xbd2dd2a7	-0.04243722
2	0x3d8595f4	0.06522742
3	0xbb1958fd	-0.0023398988
4	0x3d122cfa	0.035687424
5	0xbd5b006b	-0.053467195
6	0x3d4da36f	0.05020469
7	0xbcb37c4c	-0.021909855
8	0x3c58c060	0.0132294595
9	0x3d01026a	0.031496443
10	0x3d155cd3	0.036465477
11	0xbd5cdd74	-0.05392213
12	0xbd837c27	-0.064201646
13	0x3a8f66fb	0.0010940725
14	0xbc683e80	-0.014175057
15	0xbdb96b4b	-0.09053668
16	0x3d7fd329	0.062457237
17	0x3b8aae3c	0.004232196
18	0xbca28e9d	-0.019843394
19	0xbd36b7bb	-0.044608813
20	0xbbb272ec	-0.0054458287
21	0x3bde4159	0.0067826924
22	0x3da33719	0.079694934
23	0x3da690bd	0.081330754
24	0xbd001021	-0.03126538
25	0xbd0e5087	-0.034744766
26	0xbd5b346e	-0.053516798
27	0x3d075b6c	0.03304617
28	0xbd7fbc5a	-0.062435485
29	0x3d1c0385	0.038089294
30	0xbd400bb9	-0.04688618
31	0xbc7a3de2	-0.015273543
32	0x3ca32aa6	0.019917797
33	0x3d17e787	0.037086036
34	0x3c5cb527	0.013470924
35	0xbc76a3a3	-0.0150536625
36	0xbda06547	-0.07831817
37	0xbcccc75b	-0.024997404
38	0x3c3788f6	0.011202088
39	0x3bb318c1	0.0054655974
40	0xbc087036	-0.008327534
41	0x3ad853c5	0.0016504457
42	0x3cbd555f	0.023111997
43	0xbd854483	-0.06507208
44	0xbc11faaa	-0.008909861
45	0x3d96bcad	0.07360206
46	0x3c949dc0	0.018141627
47	0xbd7c571a	-0.061606504
48	0x3c18b4c6	0.0093204435
49	0xbcbd9514	-0.023142375
50	0xbdb0157e	-0.08597849
51	0x3d013e27	0.031553414
52	0xbcf3112b	-0.029671272
53	0x3d3278af	0.043572124
54	0xbca92e9a	-0.020652104
55	0x3c2f95f0	0.0107169
56	0xbc5e8efd	-0.013583896
57	0x3d815db3	0.063167
58	0xbd275ed6	-0.040861927
59	0x3cfe8cbd	0.031072969
60	0xbd1c4230	-0.03814906
61	0xbd0572fe	-0.03258037
62	0xbd4c8505	-0.049931545
63	0x3d46ed0d	0.048565913
64	0x3b14c547	0.0022700594
65	0xbd4c37b4	-0.04985781
66	0xbd942044	-0.07232717
67	0x3d257610	0.040395796
68	0xbd6c2361	-0.057650927
69	0xbd84f8f3	-0.06492796
70	0xbd8f1a19	-0.069873996
71	0xbd87a6f1	-0.066236384
72	0xbd6e6cc2	-0.05820919
73	0xbd28233a	-0.04104922
74	0x3c040ea2	0.008060129
75	0xbcdacc99	-0.026708888
76	0xbd24304c	-0.040085122
77	0x3d4e3201	0.050340656
78	0x3ce375af	0.027766077
79	0xbd1acd23	-0.03779329
80	0x3bd597d8	0.0065183453
81	0x3cfd31e6	0.030907582
82	0x3d0b2003	0.033966076
83	0xbd737203	-0.059434902
84	0xbd320ef2	-0.043471284
85	0xbcfd8324	-0.030946322
86	0x3d202504	0.0390978
87	0xbc89d415	-0.016824761
88	0x3d94b44e	0.07260953
89	0xbb8039cc	-0.00391314
90	0xbcbc1f71	-0.022964211
91	0x3d375401	0.044757847
92	0xbd1c1fcb	-0.038116258
93	0x3b7fd374	0.0039035948
94	0xbcf795eb	-0.030222854
95	0xbd3ab443	-0.045582067
96	0xbd768e31	-0.060194198
97	0xbcffc4e5	-0.031221816
98	0xbd40ad0b	-0.047040027
99	0x3bd10de4	0.0063798297
100	0x3cebe9e2	0.028798047
101	0x3abcfc0d	0.0014418379
102	0xbd33da0c	-0.043909118
103	0x3d867905	0.065660514
104	0xbd03b787	-0.032157447
105	0x3c83aa39	0.01607238
106	0x3cfdb68e	0.030970838
107	0x3a673eab	0.0008821289
108	0xbd7dd2aa	-0.061968483
109	0xbd27c6b6	-0.04096099
110	0xbce69f6c	-0.02815219
111	0xbd03eeec	-0.032210276
112	0xbc3f9b2e	-0.011694713
113	0x3d006523	0.03134645
114	0xbd539d9f	-0.05166399
115	0xbca5b336	-0.020227056
116	0xbd3ce130	-0.046113193
117	0xbcef7eaf	-0.029235212
118	0x3d030eaa	0.031996407
119	0x3c4f0310	0.0126350075
120	0xbba3e5ba	-0.005001751
121	0x3cbb8c4a	0.022894043
122	0x3d1677e4	0.03673543
123	0x3d855f84	0.06512359
124	0x3907fe4b	0.00012969335
125	0xbc87944e	-0.01655021
126	0x3d6dd352	0.05806286
127	0xbd12542e	-0.03572481
128	0xbc6e3862	-0.01453981
129	0xbd059d53	-0.03262074
130	0xbd753e4c	-0.059873864
131	0x3c236bb1	0.009974406
132	0xbd8abe6f	-0.067746036
133	0x3c85dbef	0.016340224
134	0xbcb6c6a3	-0.022311514
135	0x3c97104d	0.01844039
136	0xbc4f163d	-0.012639579
137	0x3c10b4b3	0.008832145
138	0xbcb866d8	-0.022509977
139	0x3b3ca7e4	0.0028786594
140	0x3bf1bb54	0.0073770676
141	0xbd30d451	-0.04317123
142	0xbd7d7e99	-0.06188831
143	0x3b2c0a52	0.0026251269
144	0xbbbd7ffa	-0.0057830783
145	0xbc5db53d	-0.01353198
146	0x3d823f76	0.063597605
147	0x3d1558f4	0.036461785
148	0xbacbfc31	-0.001556283
149	0xbd335340	-0.043780565
150	0xbc94d55f	-0.01816815
151	0xbc965a1b	-0.018353513
152	0xbc4afe9e	-0.012389807
153	0xbd826905	-0.06367687
154	0xbcf415b9	-0.029795514
155	0x3ce7b2be	0.028283473
156	0x3d155402	0.03645707
157	0x3d5ead7f	0.054364678
158	0xbd049ec0	-0.03237796
159	0x3bc42b8a	0.0059866356
160	0xbc8bad73	-0.01705048
161	0x3d4514c4	0.048115507
162	0xba932556	-0.0011226337
163	0x3d121433	0.035663795
164	0xba9cd661	-0.0011965745
165	0xbd012902	-0.03153325
166	0x3cce68c1	0.025196435
167	0x3d6dd76f	0.05806678
168	0x3cf8e29a	0.03038149
169	0xbc9f30ad	-0.01943239
170	0xbcb30a60	-0.021855533
171	0x3d3f0be2	0.04664219
172	0xbce94fae	-0.028480377
173	0x3bc50313	0.0060123294
174	0x3d9b7bb5	0.075919546
175	0x3d010ed9	0.0315083
176	0xbce8bb69	-0.028409677
177	0x3d57a785	0.052649993
178	0xbae1e38c	-0.0017233952
179	0x3d831321	0.06400133
180	0x3c42255b	0.011849727
181	0x3d7cd2ce	0.061724477
182	0x3a0f51b6	0.0005467193
183	0x3c8fcfe8	0.017555192
184	0x3c7b5d68	0.015342094
185	0xbd76e803	-0.060279857
186	0xbd527bd2	-0.051387616
187	0xbd96f182	-0.07370283
188	0xbd1c1536	-0.038106166
189	0xbd7666a7	-0.06015649
190	0xbd081fd5	-0.033233482
191	0xbcdf9d7c	-0.027296774
192	0xbaaad6c2	-0.0013033974
193	0x3e3f6dfd	0.18694301
194	0xbd2dec02	-0.042461403
195	0x3cf9791b	0.030453255
196	0x3d005c5a	0.031338073
197	0xbccc5c69	-0.024946408
198	0xbd0dd29a	-0.034624673
199	0xbd57873e	-0.05261921
200	0x3d45b338	0.04826662
201	0xbcbc467c	-0.022982828
202	0x3d8424f0	0.06452358
203	0xbcb7afb1	-0.022422643
204	0xbba4f53d	-0.0050341175
205	0x3ce4fa72	0.027951453
206	0xbcc6bddf	-0.02426046
207	0xbd98624a	-0.07440622
208	0xbd4daff4	-0.05021663
209	0xba461c55	-0.00075573224
210	0xbd617676	-0.055044614
211	0x3d4949e6	0.04914274
212	0xbd2fadae	-0.042890243
213	0xbd78cf4b	-0.060744565
214	0x3c8ebc46	0.01742376
215	0x3c75ec37	0.015009931
216	0x3d215ea6	0.039396904
217	0xbcd062ae	-0.02543768
218	0xbc99fe22	-0.018797938
219	0xbd4e7acd	-0.05041008
220	0x3ba5b5f1	0.0050570895
221	0xbd004504	-0.03131582
222	0xbdabad43	-0.083826564
223	0xbda11a6c	-0.07866368
224	0xbca9a809	-0.020710008
225	0xbc90aba4	-0.01765997
226	0xbc238f69	-0.009982922
227	0x3c4b01ad	0.012390536
228	0xbd172fb7	-0.03691074
229	0xbbdda489	-0.006763999
230	0xbd0742ca	-0.03302268
231	0x3cb5b13e	0.022179242
232	0xbd7c8d07	-0.06165793
233	0xbc98ef7e	-0.018668886
234	0x3c98f903	0.018673426
235	0x3d2f46ac	0.042792007
236	0x3a90d25c	0.001104902
237	0xbcd70c24	-0.026250906
238	0xbcdaf46a	-0.026727874
239	0xbd50db9e	-0.050990693
240	0x3d82de94	0.0639011
241	0x3cfc7cab	0.030821165
242	0xbae25bfe	-0.0017269847
243	0xbc1277ea	-0.008939723
244	0xbd3e8af9	-0.046519253
245	0x3c0c9382	0.0085800905
246	0x3c4881e7	0.012238002
247	0xbbbe7cad	-0.0058132024
248	0xbc83490e	-0.016026046
249	0xbcaa721e	-0.020806368
250	0x3c7dcc0c	0.015490543
251	0xbd95a2b4	-0.07306424
252	0x3c90fe8e	0.017699506
253	0xbc2acc11	-0.01042463
254	0x3ba65195	0.0050756433
255	0x3d155b61	0.0364641

net.6.weight f4 [1, 256]
0	0x3ec887d7	0.39166138
1	0x3efb9ca4	0.49142945
2	0xbd14993d	-0.036278952
3	0x3d731efb	0.059355717
4	0x3f03b311	0.5144511
5	0x3eaa213f	0.3322849
6	0x3db0dca9	0.086358376
7	0x3eeb793a	0.45990926
8	0xbb2cfd54	-0.0026396113
9	0xbc1f7c30	-0.009734198
10	0xbd50b508	-0.050953895
11	0x3f4f2ff2	0.80932534
12	0xbc97fe7d	-0.018553967
13	0x3ec404d4	0.38284934
14	0xb995facb	-0.0002860635
15	0x3f854069	1.0410281
16	0xbd956e27	-0.072964005
17	0x3e5a5e56	0.21325049
18	0x3ee8e8f9	0.45490244
19	0xbd818963	-0.063250326
20	0xbc49405d	-0.012283412
21	0xbd0a551d	-0.033772577
22	0x3da93961	0.08262897
23	0x3dbd6e18	0.09249514
24	0x3f2c7bfb	0.6737668
25	0x3cb5982d	0.02216729
26	0xbcdd7b40	-0.02703631
27	0xbd87deab	-0.066342674
28	0xbd196995	-0.037454206
29	0x3d51a766	0.051185034
30	0xbb8f3ec7	-0.0043714973
31	0xbc9377c1	-0.018001439
32	0xbc58e37d	-0.013237831
33	0x3d8911a1	0.066928156
34	0xbd136b0b	-0.035990756
35	0xbcf74a2d	-0.030186737
36	0x3f1e1aa7	0.6175942
37	0x3f3d3ea7	0.73923725
38	0x3e8a2181	0.26978686
39	0xbd3b95dc	-0.045797214
40	0x3c7ac42c	0.01530556
41	0xbd3de7bb	-0.046363574
42	0xbc958cad	-0.018255556
43	0x3efdf56e	0.4960131
44	0xbd7a9629	-0.06117836
45	0xbdaa5440	-0.08316851
46	0x3daca1ff	0.08429336
47	0x3d35c83a	0.044380404
48	0xbbf56236	-0.0074885143
49	0xbc5fcb16	-0.013659259
50	0x3f1f6017	0.62255996
51	0xbc48fe6d	-0.012267691
52	0x3bb39187	0.0054799947
53	0xbd9bbbb1	-0.07604159
54	0xbc96cc92	-0.018408094
55	0xbd34a0ba	-0.044098593
56	0x3f00cc22	0.5031148
57	0xbd6a961a	-0.057272054
58	0xbd02931f	-0.031878587
59	0xbe023b08	-0.12717831
60	0x3f6bb5a3	0.9207403
61	0x3f2200fd	0.6328276
62	0xbc802795	-0.015643874
63	0xbc1581b8	-0.009125166
64	0x3e78d38c	0.24299449
65	0x3d52f6c6	0.051504873
66	0xbd011e5f	-0.031523105
67	0x3e0cfd73	0.13768558
68	0x3ec82a26	0.39094657
69	0x3d370933	0.044686507
70	0x3a910bb7	0.0011066113
71	0x3f2b988f	0.6702966
72	0x3d72b995	0.059259016
73	0xbca2a8d4	-0.019855894
74	0xbddbf2d7	-0.107396774
75	0x3d06d96f	0.032922205
76	0x3df537c8	0.1197353
77	0xbe0b17e0	-0.13583326
78	0xbce66d54	-0.028128304
79	0xbd5034c4	-0.05083157
80	0xbc85dedb	-0.016341617
81	0x3d97d203	0.074131034
82	0xbd60ab9d	-0.054851163
83	0x3f0b0bde	0.5431498
84	0x3f0fa81a	0.5611588
85	0xbc4db36c	-0.012554985
86	0xbc3d22ab	-0.01154391
87	0x3f0f490b	0.5597083
88	0x3d8adf6e	0.06780897
89	0x3d19b19d	0.0375229
90	0x3e3ab09f	0.18231438
91	0xbd66fda7	-0.056394245
92	0x3ddf374e	0.108992204
93	0x3ed9439b	0.4243439
94	0xbb9a583a	-0.0047102245
95	0x3d3d1155	0.046159107
96	0x3befda0b	0.007319694
97	0x3e0e694a	0.13907352
98	0x3b8a4bea	0.0042204754
99	0xb9ee4801	-0.00045448545
100	0x3d099112	0.033585615
101	0x3ef4ba6d	0.47798482
102	0x3f13ff3d	0.5781134
103	0x3da999f7	0.082813196
104	0x3ebc2299	0.36745146
105	0x3eb78db7	0.35850307
106	0x3e9342f2	0.28762013
107	0xbcc14302	-0.023591522
108	0xbd062913	-0.032754015
109	0x3da6fee8	0.08154088
110	0x3aed818b	0.0018120272
111	0x3eae9857	0.341006
112	0x3bddb1ae	0.006765566
113	0xbd1d90cc	-0.038468167
114	0x3ef0ad04	0.47007
115	0xbd16b06f	-0.036789354
116	0xbc2c057b	-0.0104993535
117	0x3ee7375f	0.45159432
118	0xbd1e0610	-0.03858
119	0x3cdb6d90	0.026785642
120	0x3d05c3ef	0.03265756
121	0xbd834682	-0.06409933
122	0x3db1fad7	0.08690422
123	0x3dc97959	0.09837598
124	0x3d93303c	0.07186934
125	0x3ec8d236	0.39222878
126	0xbd5abc7b	-0.053402405
127	0xbde20ae9	-0.11037237
128	0x3efdf684	0.4960214
129	0x3e9f9a57	0.3117244
130	0x3d3caa28	0.04606071
131	0xbd800ba8	-0.06252223
132	0x3f246ef0	0.6423178
133	0x3d902d3e	0.07039879
134	0xbd86bb06	-0.06578641
135	0xbe5cc931	-0.21561123
136	0x3dde40f9	0.10852236
137	0xbb5835cb	-0.0032991047
138	0xbd9b1cbb	-0.07573839
139	0x3d416d68	0.04722348
140	0x3e32ce58	0.17461526
141	0x3f804a08	1.0022593
142	0xbd57bc96	-0.052670084
143	0xbd4f04d7	-0.050541725
144	0x3eb8bbac	0.36080682
145	0xbcfe656c	-0.031054221
146	0x3ca133c7	0.01967801
147	0x3c1eda09	0.009695538
148	0x3cd3e4b7	0.025865896
149	0x3e9021de	0.2815084
150	0x3f3478cd	0.7049683
151	0x3da2517b	0.079256974
152	0x3ec8cd1c	0.39218986
153	0xbcb19af6	-0.021680336
154	0x3f0f5855	0.5599416
155	0x3db51954	0.088427216
156	0x3e7431a5	0.23847063
157	0xbd8bb10b	-0.06820878
158	0xbb5d65c9	-0.0033782593
159	0x3da97436	0.082741186
160	0xbd67e1b5	-0.056611735
161	0x3f005703	0.5013277
162	0xbd8c62e5	-0.068548
163	0xbcb2e1e7	-0.021836234
164	0x3d0f40a4	0.034973755
165	0xbd32f330	-0.043688953
166	0x3ea9cc57	0.3316371
167	0xbd3a7ef5	-0.045531232
168	0xbd8af127	-0.067842774
169	0x3e916607	0.28398153
170	0xbd811241	-0.0630231
171	0x3d9750c7	0.07388454
172	0x3d5a1a61	0.053247813
173	0x3e90a75d	0.28252688
174	0x3d853bd3	0.06505551
175	0xbc026027	-0.007957495
176	0x3e2edde9	0.1707684
177	0xbe11afea	-0.14227262
178	0xbccc1850	-0.024913937
179	0xbd8f20f3	-0.069887064
180	0x3fbe99ac	1.4890647
181	0xbd9f8dad	-0.077906944
182	0xbd4109d7	-0.047128525
183	0x3f021d59	0.5082603
184	0xbcbd1993	-0.023083484
185	0xbd243699	-0.04009113
186	0x3effe983	0.49982843
187	0x3def1005	0.11672977
188	0x3f161155	0.58620197
189	0x3ee508da	0.44733316
190	0x3e03510b	0.12823884
191	0xbd43e967	-0.04783001
192	0xbdc479af	-0.09593522
193	0xbe8eef1f	-0.2791681
194	0xbcc745ee	-0.024325337
195	0x3cb240e9	0.021759467
196	0xbd3246a4	-0.0435244
197	0x3d240f15	0.040053446
198	0x3e767e06	0.24071512
199	0x3b8c1920	0.004275456
200	0xbdb78280	-0.08960438
201	0x3d4238bf	0.0474174
202	0xbd0b32fa	-0.033984162
203	0x3d4fcb61	0.050731067
204	0x3952be42	0.00020098037
205	0xbc034903	-0.008013013
206	0xbd2e2def	-0.042524274
207	0x3f818bca	1.0120785
208	0xbb5c4063	-0.0033607713
209	0x3ea79267	0.32728884
210	0x3b473db6	0.0030401773
211	0xbc88f877	-0.01672004
212	0xbd081e50	-0.033232033
213	0x3ef5d455	0.4801356
214	0xbc03bfa8	-0.0080413
215	0x3b3b8a73	0.0028616458
216	0xbd721c9d	-0.05910932
217	0xbd55aefc	-0.05216883
218	0x3eabe50c	0.33573186
219	0xbd78e1a0	-0.060762048
220	0xbd2e9184	-0.042619243
221	0xbd25c6b2	-0.040472694
222	0x3f275cc0	0.653759
223	0x3f3632d2	0.71171296
224	0xbd19937a	-0.03749416
225	0x3e764b7c	0.24052233
226	0x3e9860de	0.29761404
227	0xbc1b1fdd	-0.009468046
228	0xbcfbc12a	-0.030731756
229	0xbb3034db	-0.0026886973
230	0xbd15a2f0	-0.036532342
231	0xbdd215d2	-0.10258068
232	0xbcfe9eeb	-0.031081637
233	0xbc25f627	-0.010129488
234	0xbd7640ec	-0.060120508
235	0x3ce98cfb	0.028509608
236	0x3eb9ea60	0.36311626
237	0x3ecc61d7	0.39918396
238	0x3e634ce0	0.22197294
239	0xbd0d9524	-0.03456606
240	0xbca67711	-0.020320447
241	0xbda3d328	-0.07999259
242	0xbd278d11	-0.040906016
243	0x3eb09a6f	0.34492823
244	0xbbe80fb6	-0.007081951
245	0x3eba9cad	0.3644766
246	0xbd30982a	-0.043113865
247	0x3df83095	0.12118641
248	0x3f30bbbc	0.6903646
249	0x3e05c5a7	0.1306368
250	0x3e83db84	0.25753415
251	0x3f4aa80a	0.7916266
252	0x3db9ba9e	0.090687975
253	0x3dcd762c	0.10032305
254	0xbcad2c83	-0.021139389
255	0xbd401569	-0.04689542
