preTrained/GAIL_pretrained_7300_actor.pth (torch, 541220 bytes, 8 tensors)

net.0.weight f4 [256, 3]
-0.19609816 -0.5930174 -0.33391452 0.3497249 0.7842695 -0.38229766 0.50544226 0.16439627
-0.63683933 -0.5380046 0.2523402 -0.016847368 0.1250031 -0.5606194 -0.21067788 0.10587888
-0.3326711 -0.16344357 -0.21800011 0.5474541 -0.13409765 -0.38105795 1.129377 -0.14192727
-0.71381634 0.2771919 -0.46773115 -0.57640654 -0.11286821 -0.5175201 -0.532375 -0.61025184
0.21848054 -0.37211177 -0.049115784 -0.50887877 -0.19303116 -0.9828442 -0.17975523 -0.31130725
0.13340162 0.18206297 0.44661632 0.48327938 -0.35714725 -0.6999537 0.9647453 -0.2521431
-0.6881595 0.30820635 -0.13679847 -0.23972298 0.2831785 0.32459545 -0.42464158 0.5794449
-0.06164927 0.06853094 -0.28949445 -0.48635125 -0.164133 -0.53467983 -0.21513514 -0.21272266
-0.1233166 0.18517973 -0.20463149 0.9367081 -0.50826037 -0.3756207 -0.53519773 0.40959227
0.13234164 0.4391382 -0.66037583 0.44419828 0.37980103 -0.44525787 0.0169013 0.21792628
-0.6194029 -0.074866675 0.11933016 -0.015030597 -0.066823244 -0.016580755 0.3888815 -0.012089813
-0.5493944 -0.6070794 0.10626687 -0.10346133 0.38366047 -0.2413643 -0.0018896739 -0.5715544
0.54794747 -1.1571183 0.37147674 -0.33437735 0.38976443 -0.1938867 -0.68389183 -0.20619881
-0.2173446 -0.4409936 0.060193684 -0.093307294 0.3144527 0.09194365 -0.1568457 -0.7207928
0.85209596 -0.5075653 0.19613416 -0.31436777 -0.42347863 -0.122348055 0.50737584 -0.780004
0.14062761 0.4878109 -0.26037693 -0.058417764 0.48078403 -0.2791625 -0.37140083 0.7917047
-0.41129336 -0.24328601 0.38727063 0.21412753 0.023519756 -0.50637954 -0.40570736 0.054453045
-0.4840755 -0.4530352 -0.75972 0.60782224 -0.090140216 0.18924126 -1.3876148 0.25612167
-0.478705 -0.3502175 -0.04117487 -0.439794 -0.12617962 -0.022283707 -0.27429596 1.174384
-0.23685764 0.49288052 0.66593784 -0.20398022 -0.53088397 0.16551593 0.20323259 -0.00830348
0.57246786 -0.49458218 0.2666205 -0.5434387 0.066397086 0.12033142 -0.19101593 -0.46069643
0.34127814 0.021480512 0.32744378 -0.060236603 -0.61722165 -0.044735044 -0.37802646 0.48371586
0.44327092 -0.74938554 -0.31944025 0.22076839 -0.3031946 -0.7161607 -0.17985828 -0.28034043
-0.11450918 -0.1853133 -0.24485546 0.83590543 -0.16707326 -0.35743594 -0.20293072 -0.33116388
0.23079374 0.99669933 0.36637753 -0.39665526 -0.6041058 0.07406575 -0.06363494 0.107071884
-0.59480244 -0.24875489 -0.2407955 -0.028144749 -0.16956882 -1.1311992 -0.37623972 -0.77485794
0.28527263 0.025381595 -0.24755427 -0.49349752 -0.5533338 -0.07369798 0.49032933 -0.34289545
-0.62356204 0.70320207 -0.38617134 0.33477288 -0.07304239 -0.08554555 -0.04874005 -0.6181645
0.14749087 -0.35183054 -0.3597739 -0.23155743 -0.061906278 0.15117525 0.13312079 0.07809092
0.20449367 -0.3482511 0.22243972 0.31489226 0.3835991 -0.30220458 0.14123106 0.22853243
-0.26515898 -1.1121312 0.19210719 -0.47628525 0.08021107 -0.34239537 0.27787915 0.09456041
0.2691375 0.18415318 0.23661828 -0.6388015 0.24046606 -0.1575128 -0.5628282 -0.05604949
00000000: f5cd 48be fdcf 17bf d8f6 aabe 240f b33e
00000010: e3c5 483f 85bc c3be aa64 013f 7f57 283e
00000020: e707 23bf abba 09bf bc32 813e 7e03 8abc
00000030: d000 003e c184 0fbf f1bb 57be 07d7 d83d
00000040: de53 aabe c05d 27be 6c3b 5fbe f425 0c3f
00000050: e550 09be 071a c3be 6d8f 903f 6255 11be
00000060: abbc 36bf 19ec 8d3e 757a efbe 618f 13bf
00000070: 7327 e7bd 337c 04bf ba49 08bf 7739 1cbf
00000080: 5db9 5f3e 6f85 bebe a22d 49bd e145 02bf
00000090: f6a9 45be ad9b 7bbf c111 38be aa63 9fbe
000000a0: 6f9a 083e b76e 3a3e e5aa e43e 6570 f73e
000000b0: 01dc b6be 2a30 33bf 8cf9 763f e718 81be
000000c0: 392b 30bf 39cd 9d3e e614 0cbe f179 75be
000000d0: c6fc 903e 6031 a63e 9f6a d9be 8056 143f
000000e0: f283 7cbd f359 8c3d 9e38 94be 0803 f9be
000000f0: 7b12 28be c7e0 08bf 634c 5cbe f8d3 59be
00000100: 6a8d fcbd c19f 3d3e eb8a 51be 1acc 6f3f
00000110: 5a1d 02bf 5b51 c0be b802 09bf 14b6 d13e
00000120: 9184 073e b9d6 e03e 640e 29bf f56d e33e
00000130: 4875 c23e d7f8 e3be 9874 8a3c 1128 5f3e
00000140: 3091 1ebf b353 99bd 5f63 f43d e542 76bc
00000150: a0da 88bd 5dd4 87bc 7a1b c73e 5a14 46bc
00000160: 1da5 0cbf 8e69 1bbf 72a2 d93d 89e3 d3bd
00000170: 256f c43e 3428 77be efae f7ba 6451 12bf
00000180: 4946 0c3f 741c 94bf 3332 be3e 8233 abbe
00000190: 348f c73e 3c8a 46be 8913 2fbf c825 53be
000001a0: 958f 5ebe eac9 e1be a78d 763d e517 bfbd
000001b0: f2ff a03e f44c bc3d 299c 20be e085 38bf
000001c0: f622 5a3f cdef 01bf 65d7 483e d0f4 a0be
000001d0: 31d2 d8be 9e91 fabd 62e3 013f 58ae 47bf
000001e0: af00 103e 5ac2 f93e 2050 85be 7747 6fbd
000001f0: 5329 f63e 63ee 8ebe 4028 bebe 29ad 4a3f
00000200: 0b95 d2be f81f 79be 5648 c63e 3f44 5b3e
00000210: 81ac c03c 17a2 01bf e0b8 cfbe 280a 5f3d
00000220: bed8 f7be 3bf4 e7be 037d 42bf 3d9a 1b3f
00000230: 6f9b b8bd 76c8 413e 5d9d b1bf 6122 833e
00000240: d218 f5be b54f b3be fba6 28bd ae2c e1be
00000250: 3b35 01be 528c b6bc 8570 8cbe 3752 963f
00000260: cf8a 72be d65a fc3e e77a 2a3f 31e0 50be
00000270: 03e8 07bf 027d 293e 341c 503e 520b 08bc
00000280: 418d 123f e039 fdbe 7b82 883e cc1e 0bbf
00000290: 32fb 873d 5270 f63d ae99 43be 67e0 ebbe
000002a0: 02bc ae3e e6f7 af3c b6a6 a73e a8ba 76bd
000002b0: 3d02 1ebf 183c 37bd af8c c1be 9ba9 f73e
000002c0: 68f4 e23e bbd7 3fbf ac8d a3be 1c11 623e
000002d0: 533c 9bbe 4f56 37bf c52c 38be c888 8fbe
000002e0: ca83 eabd c5c2 3dbe 64bb 7abe e6fd 553f
000002f0: 4115 2bbe d801 b7be 12cd 4fbe 508e a9be
00000300: 3255 6c3e b027 7f3f d695 bb3e 6616 cbbe
00000310: ada6 1abf c9af 973d 0953 82bd 8148 db3d
00000320: f944 18bf 9ab9 7ebe 1893 76be d18f e6bc
00000330: 73a3 2dbe 23cb 90bf 7ea2 c0be 175d 46bf
00000340: 410f 923e 10ed cf3c de7e 7dbe b5ab fcbe
00000350: 49a7 0dbf f7ee 96bd 720c fb3e fe8f afbe
00000360: c3a1 1fbf 0d05 343f 40b8 c5be 5a67 ab3e
00000370: 4097 95bd 8132 afbd a6a3 47bd 0740 1ebf
00000380: d907 173e 2223 b4be 4934 b8be 641d 6dbe
00000390: 7091 7dbd afcd 1a3e d150 083e 22ee 9f3d
000003a0: ca66 513e f84d b2be 3dc7 633e 8f39 a13e
000003b0: 1a67 c43e 8fba 9abe e09e 103e 6804 6a3e
000003c0: ebc2 87be 515a 8ebf bfb7 443e a9db f3be
000003d0: b445 a43d 724e afbe 2d46 8e3e e3a8 c13d
000003e0: 64cc 893e a792 3c3e 104c 723e 7f88 23bf
000003f0: bc3c 763e 094b 21be 8215 10bf 2694 65bd

net.0.bias f4 [256]
-0.13312863 -0.13205191 0.02658382 -0.1607954 0.02714516 0.032769047 -0.037266802 0.105212346
0.44101432 0.45058066 -0.010937571 0.38193667 0.35924858 -0.0033241222 -0.1782227 0.1836093
0.25949064 -0.4388118 -0.28280044 0.1666862 0.08120373 -0.21467057 0.12551115 -0.16557732
0.1817534 -0.22627243 0.09958525 -0.5535991 -0.5141759 0.21872751 -0.495698 0.070993684
-0.2625555 0.03346478 0.32512698 0.19273168 -0.18594563 0.34274936 0.069449775 0.32890144
-0.5283772 -0.25134042 0.17740582 -0.23879026 -0.3370514 0.12744415 0.19954607 -0.013653639
0.0345549 0.14179145 0.11070265 -0.19227631 -0.06789196 -0.32026348 0.08563661 -0.032369234
-0.4098299 -0.05061671 -0.18280052 0.11240764 0.089933135 -0.06397642 -0.0022377712 -0.39857304
-0.35746804 0.24091451 0.021031547 -0.2613871 0.44182536 0.2154098 0.29071772 -0.029882958
0.274535 -0.13116995 -0.1509952 0.18813436 -0.30219713 0.09652057 -0.36409232 -0.43397617
0.2367327 0.24610439 -0.40689918 0.1810965 0.13617785 -0.12922257 -0.11211213 0.060163006
0.19434758 -0.25415793 -0.02707112 -0.49582002 0.011812762 -0.056853622 0.19183083 0.3660016
-0.06612844 0.3451286 0.05971935 -0.04913816 -0.2954696 -0.2658734 0.017051008 -0.42565185
-0.090175696 -0.4079345 0.06307785 -0.060653754 -0.11458968 0.11167279 0.2864469 -0.42544472
-0.530248 -0.0034240242 -0.31286317 -0.09908988 -0.18483825 0.18077539 -0.015523284 0.0021478722
-0.2926922 -0.017479207 -0.1202231 -0.18880697 0.24619685 0.09811288 -0.24307738 0.035894327
-0.3001477 0.20456912 -0.09452137 0.1525675 -0.15290515 -0.12989108 -0.12151666 -0.21161975
-0.1585736 -0.17662059 -0.17774253 -0.51269597 -0.195579 -0.3243069 -0.29420188 -0.1719401
-0.49120945 -0.48755187 0.051398627 -0.28994983 -0.34736198 0.035457894 -0.46744472 -0.32195404
-0.11033768 0.25240332 0.13591407 -0.13288315 -0.26468518 0.17710029 -0.17068806 0.037323024
0.09527302 -0.23273084 0.22554705 -0.029597975 0.43088022 -0.05603332 0.34422997 -0.1500103
-0.12248569 -0.33707327 0.038245574 0.06328329 0.007279712 0.3250658 -0.17750953 0.06648825
-0.2575809 -0.20217907 0.28497913 -0.4211436 -0.29363635 -0.45541173 -0.16939963 0.13420536
0.13059169 0.40594387 -0.4556797 -0.10950832 -0.21803519 0.11298294 0.12612088 0.04767974
0.0090511935 0.084488295 -0.30253232 -0.1861051 -0.5613732 -0.40575194 -0.05771559 0.29742256
0.17509119 -0.25701478 -0.53296167 -0.14888982 -0.4620466 0.34826505 -0.241251 -0.09528093
-0.07127832 0.013698059 -0.323926 -0.559373 0.078740634 0.14395529 -0.25595903 -0.10237845
0.37922204 0.07958751 0.15482834 0.17615026 0.19310857 -0.10913132 -0.19780815 0.05925833
0.15566324 -0.04122676 -0.51303726 0.032930564 0.2889636 -0.20841543 0.22330369 0.12409245
-0.3061876 0.2790586 -0.26861686 0.30939567 0.21568523 0.32300195 0.03906772 0.30368853
0.058088314 0.022566931 -0.008997703 0.281947 0.036719143 0.11369943 -0.5100288 -0.294905
0.25387126 -0.22304201 0.1726411 0.23779392 -0.25365946 -0.24339662 0.1415437 -0.0036302686
00000000: df52 08be 9e38 07be 50c6 d93c 8da7 24be
00000010: 875f de3c d638 063d 13a5 18bd 9279 d73d
00000020: a1cc e13e 82b2 e63e 7f33 33bc 348d c33e
00000030: 6eef b73e 84d9 59bb 0380 36be 1404 3c3e
00000040: f5db 843e f1ab e0be 38cb 90be caaf 2a3e
00000050: 244e a63d 9ad2 5bbe ff85 003e 1a8d 29be
00000060: 901d 3a3e f6b3 67be 5af3 cb3d acb8 0dbf
00000070: 08a1 03bf 1bfa 5f3e 21cc fdbe 2365 913d
00000080: ad6d 86be 5d12 093d 0b77 a63e 745b 453e
00000090: 8868 3ebe d87c af3e af3b 8e3d c565 a83e
000000a0: ba43 07bf b1af 80be dfa9 353e 6f85 74be
000000b0: 0092 acbe b880 023e ce55 4c3e 83b3 5fbc
000000c0: 7089 0d3d c731 113e 12b8 e23d 15e4 44be
000000d0: f10a 8bbd 93f9 a3be 3f62 af3d 9a95 04bd
000000e0: 3ad5 d1be 7853 4fbd 0f30 3bbe fa35 e63d
000000f0: dd2e b83d 1206 83bd 92a7 12bb c411 ccbe
00000100: 0d06 b7be 4bb2 763e 5a4a ac3c 88d4 85be
00000110: ef36 e23e 6394 5c3e f4d8 943e 1bcd f4bc
00000120: da8f 8c3e 6a51 06be 7c9e 1abe 4ba6 403e
00000130: 95b9 9abe 94ac c53d 4f6a babe 2032 debe
00000140: 0f6a 723e ca02 7c3e 1755 d0be 5c71 393e
00000150: 3572 0b3e ec52 04be 0b9b e5bd 7c6d 763d
00000160: 0d03 473e fd20 82be 41c4 ddbc 1fdc fdbe
00000170: 518a 413c 58df 68bd 4d6f 443e 9064 bb3e
00000180: 596e 87bd b2b4 b03e 479c 743d 1845 49bd
00000190: cb47 97be 8f20 88be 8eae 8b3c 0aef d9be
000001a0: 09ae b8bd cadc d0be f62e 813d 1270 78bd
000001b0: ffad eabd b4b4 e43d 2ba9 923e e4d3 d9be
000001c0: 55be 07bf 9865 60bb 9a2f a0be a3ef cabd
000001d0: 3d46 3dbe 2f1d 393e 5f55 7ebc 51c3 0c3b
000001e0: c1db 95be 8e30 8fbc 8737 f6bd 9d56 41be
000001f0: 071b 7c3e 68ef c83d 47e9 78be ee05 133d
00000200: f6ac 99be 917a 513e 6c94 c1bd a83a 1c3e
00000210: 2b93 1cbe 2b02 05be badd f8bd d9b2 58be
00000220: 1e61 22be 07dc 34be 2302 36be 0b40 03bf
00000230: dd45 48be 8e0b a6be a1a1 96be 1111 30be
00000240: ce7f fbbe 66a0 f9be 5e87 523d 4e74 94be
00000250: 6ed9 b1be 4c3c 113d ea54 efbe 29d7 a4be
00000260: b9f8 e1bd 023b 813e 0f2d 0b3e 8512 08be
00000270: d184 87be c759 353e dac8 2ebe 07e0 183d
00000280: 801e c33d fe50 6ebe cef5 663e 7477 f2bc
00000290: 559c dc3e 3283 65bd e93e b03e 4d9c 19be
000002a0: c7d9 fabd de94 acbe 64a7 1c3d ab9a 813d
000002b0: a68a ee3b 066f a63e 0fc5 35be fe2a 883d
000002c0: a5e1 83be 0808 4fbe c9e8 913e 22a0 d7be
000002d0: 8157 96be ba2b e9be 1977 2dbe 216d 093e
000002e0: d4b9 053e e0d7 cf3e da4e e9be e645 e0bd
000002f0: 9e44 5fbe 9a63 e73d d525 013e d54b 433d
00000300: 754b 143c 3308 ad3d 84e5 9abe 5692 3ebe
00000310: 27b6 0fbf b8be cfbe 2f67 6cbd c547 983e
00000320: 1b4b 333e 7197 83be 2d70 08bf 9376 18be
00000330: 5f91 ecbe cc4f b23e 810a 77be a622 c3bd
00000340: 5efa 91bd d36d 603c a1d9 a5be 1233 0fbf
00000350: c542 a13d 0469 133e 100d 83be cbab d1bd
00000360: 6429 c23e c7fe a23d 528b 1e3e bc60 343e
00000370: 41be 453e 3e80 dfbd 388e 4abe ddb8 723d
00000380: 2f66 1f3e 64dd 28bd 6956 03bf 33e2 063d
00000390: 09f3 933e db6a 55be b9a9 643e 2f24 fe3d
000003a0: 9fc4 9cbe c5e0 8e3e 2688 89be 1c69 9e3e
000003b0: 97dc 5c3e 8360 a53e 7905 203d 107d 9b3e
000003c0: 03ee 6d3d 49de b83c 1a6b 13bc 5b5b 903e
000003d0: d066 163d 3fdb e83d 3f91 02bf cafd 96be
000003e0: 6afb 813e 2065 64be d4c8 303e 4080 733e
000003f0: a7df 81be f73c 79be d5f0 103e cde9 6dbb

net.2.weight f4 [256, 256]
-0.043556467 0.0013390058 -0.17484017 0.027658764 -0.030194456 -0.0122449035 0.00132842 0.003287516
0.19768 0.11683047 -0.056395493 -0.048869785 0.018860588 0.079923116 -0.002635335 0.08634642
0.059512503 0.06162733 0.045828477 -0.000257633 -0.08746166 0.011561498 0.2206088 -0.024638548
0.009756216 -0.020590156 0.032200895 -0.040461376 -0.015501298 0.045986794 0.06050343 0.05503321
-0.01448337 0.033597097 -0.03131893 0.04809107 0.043601707 0.1257523 -0.029064598 0.02906936
0.06281188 -0.03012511 0.0060033742 -0.04820524 0.018132158 -0.06812913 0.049782228 0.023955364
0.046487007 0.0023585705 0.04031566 -0.012594311 0.06182202 -0.006458226 -0.029924393 -0.041004844
-0.020052142 -0.13647293 0.046739846 0.039003313 -0.17293751 -0.005240323 0.043993123 0.02495411
-0.061979055 -0.2080318 -0.00655371 0.017768912 -0.21222895 0.04641704 -0.14075267 0.0628204
0.046852577 -0.030039791 -0.08488735 -0.111905456 -0.004046425 -0.024900744 0.0201212 -0.06056068
0.008139094 -0.048308566 0.038344346 0.0226842 -0.0030262969 -0.07537795 0.027124325 -0.0070773535
-0.022977777 -0.009645351 0.014132831 -0.02684395 0.043821607 -0.06036165 -0.04646601 -0.061767645
0.01850907 -0.13033065 0.020474669 -0.12853138 0.029465161 0.049185406 -0.011971229 0.041350264
-0.050516438 0.04464463 -0.012099081 -0.00074413745 -0.031110091 0.004120663 0.021382526 0.016446248
0.058761984 -0.29205728 0.028929368 -0.16073993 -0.16221541 -0.050263405 0.0031589658 0.03871198
-0.0020389173 -0.1042176 -0.015386928 -0.05585013 -0.05180734 -0.0963398 -0.06942413 -0.09056282
-0.062428452 -0.0626726 -0.051147103 -0.015948981 0.056852706 0.021328695 0.09401263 -0.0072228634
0.07253536 -0.018920531 -0.006332664 -0.085168466 0.030077666 -0.03932439 -0.074108325 0.008647879
-0.050871685 -0.0025862802 0.046329584 -0.047625802 0.01769726 -0.015344 0.0071969233 0.027683131
-0.0893714 -0.04137888 -0.08603274 0.030553307 -0.0019620955 -0.13163279 -0.06755753 -0.024519263
-0.11860636 -0.06173098 -0.08299358 -0.0311769 -0.03827698 -0.0632238 -0.1892806 -0.02286829
0.023054184 0.04789601 -0.035422303 -0.15271093 0.046443157 0.00044338402 0.038787153 -0.05009609
-0.24749441 -0.010448628 -0.0060227024 -0.061724856 0.026260145 -0.012456243 -0.1644259 0.012688176
0.010690182 0.019052945 -0.046976432 -0.0341264 -0.025558995 0.060726967 -0.2625389 0.0072843377
-0.15727982 -0.019955883 0.061849855 -0.012335071 -0.005275242 -0.15957625 0.040892962 0.008740813
-0.0071652667 -0.029539242 0.017325431 0.02547409 0.05161963 -0.029928613 -0.09222426 0.04741647
-0.074585244 -0.0939251 0.040034395 0.0508442 0.0031554878 0.030629016 -0.062055796 -0.026225202
0.068440445 -0.10878723 -0.0448361 0.033415623 -0.0659651 0.014110011 0.015363677 -0.02385486
0.013021581 -0.0436617 -0.03373655 -0.018630132 0.007444742 -0.032602947 0.07477918 -0.021197367
0.01254123 -0.052493088 0.02043732 -0.015215395 0.0033555857 0.09435052 0.013821865 -0.047009565
0.0015615303 0.010583672 -0.056942012 0.014803434 -0.045684826 -0.049173344 -0.0036093637 -0.05689964
0.043514397 0.024888918 -0.0103698075 -0.046911303 0.021410353 0.026080197 -0.013645258 0.011025553
00000000: 4468 32bd 9481 af3a 4d09 33be a294 e23c
00000010: 5d5a f7bc d99e 48bc 611e ae3a 5e73 573b
00000020: a06c 4a3e d044 ef3d f6fe 66bd af2b 48bd
00000030: 8581 9a3c bbae a33d 96b5 2cbb 64d6 b03d
00000040: 62c3 733d f06c 7c3d a4b6 3b3d ea12 87b9
00000050: 191f b3bd 706c 3d3c 46e7 613e c8d6 c9bc
00000060: 89d8 1f3c b0ac a8bc 16e5 033d d4ba 25bd
00000070: 28f9 7dbc a65c 3c3d 72d2 773d 816a 613d
00000080: a84b 6dbc 1c9d 093d 4748 00bd 24fb 443d
00000090: b497 323d 36c5 003e e118 eebc de22 ee3c
000000a0: 84a3 803d efc8 f6bc f4b7 c43b dc72 45bd
000000b0: e489 943c 4987 8bbd 73e8 4b3d 0a3e c43c
000000c0: 2969 3e3d 3f92 1a3b 0922 253d 5e58 4ebc
000000d0: 1639 7d3d 879f d3bb 0024 f5bc b2f4 27bd
000000e0: 6444 a4bc 8fbf 0bbe 4872 3f3d f0c1 1f3d
000000f0: 8816 31be 04b7 abbb 2232 343d 906c cc3c
00000100: c0dd 7dbd 4a06 55be 81c0 d6bb 1c90 913c
00000110: 8c52 59be cb1f 3e3d 7821 10be fba7 803d
00000120: 7de8 3f3d 0216 f6bc 6bd9 adbd b02e e5bd
00000130: e097 84bb a5fc cbbc 37d5 a43c 7a0e 78bd
00000140: d659 053c 34df 45bd f60e 1d3d 37d4 b93c
00000150: d654 46bb c15f 9abd d533 de3c 25e9 e7bb
00000160: e43b bcbc 8907 1ebc 648d 673c d8e7 dbbc
00000170: 497e 333d c73d 77bd 2553 3ebd 1200 7dbd
00000180: 55a0 973c 6675 05be 7eba a73c bb9d 03be
00000190: ec60 f13c a376 493d f922 44bc e55e 293d
000001a0: 53ea 4ebd 4add 363d 393b 46bc 3812 43ba
000001b0: 97da febc a006 873b 682a af3c 48ba 863c
000001c0: 68b0 703d 8888 95be 48fd ec3c 0299 24be
000001d0: cc1b 26be 00e1 4dbd a706 4f3b 7490 1e3d
000001e0: 5b9f 05bb 0970 d5bd 7419 7cbc 1bc3 64bd
000001f0: ef33 54bd cd4d c5bd 3d2e 8ebd 0079 b9bd
00000200: fab4 7fbd 7e5a 80bd a07f 51bd 70a7 82bc
00000210: 62de 683d 84b9 ae3c b289 c03d c5ad ecbb
00000220: 6b8d 943d 3bff 9abc 3c82 cfbb ce6c aebd
00000230: 7065 f63c 9d12 21bd 1bc6 97bd d5af 0d3c
00000240: d45e 50bd 957e 29bb 17c4 3d3d 4613 43bd
00000250: d8f9 903c 6765 7bbc 2bd4 eb3b bcc7 e23c
00000260: 5a08 b7bd e77c 29bd ef31 b0bd ee4a fa3c
00000270: 8096 00bb bfca 06be 9a5b 8abd 9fdc c8bc
00000280: e4e7 f2bd a0d9 7cbd 8af8 a9bd b366 ffbc
00000290: 53c8 1cbd 7b7b 81bd c6d2 41be 4856 bbbc
000002a0: 21dc bc3c 9b2e 443d fa16 11bd 4160 1cbe
000002b0: 2e3b 3e3d ff75 e839 47df 1e3d 8f31 4dbd
000002c0: 2d6f 7dbe b930 2bbc 175a c5bb 34d3 7cbd
000002d0: 841f d73c 4515 4cbc 435f 28be 11e2 4f3c
000002e0: e025 2f3c ec14 9c3c 5c6a 40bd 20c8 0bbd
000002f0: 1961 d1bc d7bc 783d 806b 86be 74b1 ee3b
00000300: f60d 21be 857a a3bc 4656 7d3d 0a19 4abc
00000310: f0db acbb f567 23be 617f 273d a035 0f3c
00000320: 9dca eabb 48fc f1bc 10ee 8d3c 0aaf d03c
00000330: 1b6f 533d da2c f5bc 13e0 bcbd c637 423d
00000340: 26c0 98bd ce5b c0bd 1bfb 233d 0242 503d
00000350: 4dcc 4e3b b4e9 fa3c 382e 7ebd 3cd6 d6bc
00000360: 812a 8c3d d7cb debd 0fa6 37bd d2de 083d
00000370: b618 87bd ad2d 673c efb7 7b3c 446b c3bc
00000380: 7858 553c 9cd6 32bd 562f 0abd 389e 98bc
00000390: 06f3 f33b ab8a 05bd d425 993d 1aa6 adbc
000003a0: bb79 4d3c fe02 57bd 2b6c a73c fe49 79bc
000003b0: 63e9 5b3b d83a c13d 1b75 623c 1a8d 40bd
000003c0: 43ac cc3a 2367 2d3c 073c 69bd 1a8a 723c
000003d0: 0320 3bbd fd69 49bd 138b 6cbb 990f 69bd
000003e0: 273c 323d d8e3 cb3c 20e6 29bc 1126 40bd
000003f0: c464 af3c 23a6 d53c 5c90 5fbc 85a4 343c

net.2.bias f4 [256]
-0.018498205 -0.03922621 -0.059113413 -0.04834861 0.015458536 0.01173311 -0.011374642 -0.019464774
-0.057361223 0.021437135 -0.028210374 -0.01969872 -0.020351574 -0.023300763 -0.06789764 0.015771747
-0.04981909 0.013167751 -0.05336674 0.018424446 -0.024491828 -0.030497666 -0.011476221 -0.040990863
-0.07002533 0.043718148 -0.05999534 -0.016166972 -0.004157948 0.025350442 -0.06737761 -0.06575311
-0.05127781 0.021501737 -0.045428347 -0.12524617 -0.0888377 0.0025292665 -0.049561072 -0.004950019
-0.05899205 -0.03339305 0.0138021875 0.0027991924 -0.0022428252 0.013572129 -0.06476168 -0.04420265
-0.022954725 0.008344512 -0.024372062 -0.040899903 -0.071515426 -0.04408458 -0.036955234 -0.025782876
-0.015773082 -0.06877124 -0.018464504 -0.06294321 0.10651632 -0.013938389 -0.04951179 -0.070742875
-0.07203869 -0.012747011 -0.072930224 -0.04706627 0.0105329435 -0.0005299332 -0.064056404 0.06373005
-0.07521479 -0.032609798 -0.032084007 0.028174533 -0.06562999 0.010108339 -0.03087366 -0.010437188
-0.06393899 0.029399244 -0.03530685 0.13692035 -0.061451882 -0.013516192 0.14045608 0.010663977
-0.030154036 -0.054486394 -0.042500734 -0.011679452 -0.02516214 -0.009973336 0.007848732 -0.0075049475
-0.06250149 -0.00038138064 -0.012544319 -0.016954925 -0.04255342 -0.010360841 -0.06412605 0.0015567973
-0.07668577 -0.046201706 -0.051900085 -0.1194974 0.010119038 -0.061578654 0.049467273 -0.11376507
-0.01820508 -0.030618161 -0.040194176 -0.083797365 -0.0043367683 0.00064729206 -0.0034831804 -0.07111623
-0.08082983 -0.03736517 -0.06816815 -0.028289506 0.014610629 -0.08666134 -0.07413369 -0.032563012
-0.029713789 -0.07546169 -0.01885126 0.016580427 -0.061763693 0.00050825084 0.0001028578 -0.03226634
0.01804225 -0.053682152 -0.075540476 -0.0059619993 -0.09348422 -0.08725319 -0.0048471508 -0.060540833
-0.06406294 0.0065856883 0.012483917 -0.04663723 0.0056915153 -0.044164367 0.004489562 -0.024512028
-0.044719957 -0.052429967 -0.063173816 -0.017474776 -0.009472299 -8.462802e-05 0.2175314 0.010161759
0.040389776 -0.06906588 0.005519885 -0.0039752917 0.10226093 0.0009938669 -0.046901517 -0.05579421
-0.03569632 -0.06331309 -0.0643905 -0.003995062 -0.039821036 0.009655537 -0.019916888 -0.13304967
-0.03781328 0.011849603 -0.075983085 -0.061741326 -0.029276071 0.074013375 -0.018716207 -0.13716802
-0.033458102 -0.07560771 -0.01668837 0.0644873 -0.010494238 -0.00072165445 0.08824304 -0.11942996
-0.047240503 -0.06960652 -0.028538534 -0.020184936 0.00031881902 -0.01940306 -0.056878097 -0.07633913
-0.06735226 -0.060695216 -0.041371554 -0.008886415 -0.019954791 -0.010191672 0.021691157 -0.06886776
-0.0019264676 -0.022147153 -0.076468304 -0.05612607 0.07592652 -0.0240693 -0.06511907 -0.030314408
-0.0020717848 0.02597559 0.0002618319 -0.056105897 -0.0932428 -0.05694144 0.013177066 -0.051687546
-0.005920365 -0.12421623 -0.013236662 -0.00038671482 -0.068569995 -0.04076246 -0.03820309 -0.073353544
-0.010954167 -0.039243784 -0.019082107 -0.026332414 -0.008459407 -0.019634107 0.016458418 -0.04463863
-0.12757502 0.0090045305 -0.0035667138 0.0031874 -0.002054379 -0.049511187 -0.035935983 -0.058243144
-0.03646651 0.0134313805 -0.065938935 -0.03372084 -0.0095397495 -0.008576212 -0.01204087 -0.021359025
00000000: 8c89 97bc aaab 20bd e820 72bd 3109 46bd
00000010: cd45 7d3c 3b3c 403c b55c 3abc 9774 9fbc
00000020: 9af3 6abd ee9c af3c 7119 e7bc 365f a1bc
00000030: 58b8 a6bc 3ee1 bebc eb0d 8bbd c033 813c
00000040: 1a0f 4cbd 8dbd 573c 1597 5abd ddee 963c
00000050: 16a3 c8bc 3ed6 f9bc c206 3cbc 09e6 27bd
00000060: 7169 8fbd cd11 333d acbd 75bd 9970 84bc
00000070: 653f 88bb bbab cf3c 46fd 89bd 91a9 86bd
00000080: ae08 52bd 6924 b03c 1313 3abd 8840 00be
00000090: 8af0 b5bd 0dc2 253b 8d00 4bbd c533 a2bb
000000a0: a6a1 71bd 27c7 08bd 9222 623c a872 373b
000000b0: 5dfc 12bb a35d 5e3c c6a1 84bd d70d 35bd
000000c0: 8c0b bcbc 6cb7 083c eba7 c7bc a886 27bd
000000d0: ae76 92bd 0892 34bd 5f5e 17bd 9c36 d3bc
000000e0: 8d36 81bc f0d7 8cbd df42 97bc 5fe8 80bd
000000f0: 3a25 da3d d75d 64bc e0cc 4abd a4e1 90bd
00000100: 0589 93bd d7d8 50bc 715c 95bd 90c8 40bd
00000110: 5e92 2c3c 37eb 0aba 0130 83bd e784 823d
00000120: 360a 9abd da91 05bd 856a 03bd 47ce e63c
00000130: 0469 86bd 729d 253c c2ea fcbc bd00 2bbc
00000140: 72f2 82bd afd6 f03c ea9d 10bd d934 0c3e
00000150: f8b4 7bbd 0573 5dbc b8d3 0f3e f6b7 2e3c
00000160: 9905 f7bc 202d 5fbd 4015 2ebd 2c5b 3fbc
00000170: d520 cebc 3467 23bc f897 003c 10ec f5bb
00000180: c800 80bd 0bf4 c7b9 b086 4dbc 0ee5 8abc
00000190: 7f4c 2ebd 84c0 29bc 8554 83bd 730d cc3a
000001a0: 6e0d 9dbd 003e 3dbd 2f95 54bd 0ebb f4bd
000001b0: 52ca 253c e639 7cbd 329e 4a3d a9fd e8bd
000001c0: d222 95bc f0d2 fabc a6a2 24bd f49d abbd
000001d0: 731b 8ebb 09af 293a 1246 64bb 63a5 91bd
000001e0: 1c8a a5bd 380c 19bd be9b 8bbd 65bf e7bc
000001f0: 6b61 6f3c 807b b1bd 67d3 97bd cb60 05bd
00000200: 556a f3bc a98b 9abd f56d 9abc add3 873c
00000210: edfb 7cbd 233c 053a 5cb5 d738 b629 04bd
00000220: 57cd 933c d1e1 5bbd f7b4 9abd e05c c3bb
00000230: a874 bfbd cdb1 b2bd d9d4 9ebb aaf9 77bd
00000240: 6e33 83bd c2cc d73b 5889 4c3c ae06 3fbd
00000250: e47f ba3b b2e5 34bd 2d1d 933b 73cd c8bc
00000260: 462c 37bd cec0 56bd 4661 81bd 4327 8fbc
00000270: b431 1bbc 537a b1b8 8dc0 5e3e 827d 263c
00000280: c06f 253d 6972 8dbd 27e0 b43b 2a43 82bb
00000290: 2e6e d13d a444 823a ce1b 40bd 7888 64bd
000002a0: 4e36 12bd 4baa 81bd 2bdf 83bd 02e9 82bb
000002b0: 621b 23bd 4232 1e3c be28 a3bc 2c3e 08be
000002c0: 19e2 1abd d624 423c 059d 9bbd 79e4 7cbd
000002d0: 5fd4 efbc 5394 973d bb52 99bc c675 0cbe
000002e0: 5d0b 09bd 37d8 9abd 0cb6 88bc eb11 843d
000002f0: 06f0 2bbc 692d 3dba c4b8 b43d b297 f4bd
00000300: 427f 41bd dd8d 8ebd a5c9 e9bc e15a a5bc
00000310: 2a27 a739 2bf3 9ebc 02f9 68bd b157 9cbd
00000320: fbef 89bd 8c9b 78bd 3875 29bd 5398 11bc
00000330: 3b78 a3bc f8fa 26bc a7b1 b13c 8a0a 8dbd
00000340: 8781 fcba f26d b5bc 6a9b 9cbd 73e4 65bd
00000350: 5d7f 9b3d fb2c c5bc 265d 85bd ec55 f8bc
00000360: c8c6 07bb c3ca d43c 7c46 8939 4ccf 65bd
00000370: 15f6 bebd 6d3b 69bd 9fe4 573c 52b6 53bd
00000380: 9fff c1bb 1465 febd 96de 58bc fcbf cab9
00000390: 6d6e 8cbd 8af6 26bd d87a 1cbd 623a 96bd
000003a0: 1b79 33bc 17be 20bd 1452 9cbc 13b7 d7bc
000003b0: 5399 0abc b5d7 a0bc ced3 863c ffd6 36bd
000003c0: 07a3 02be bd87 133c 87bf 69bb b3e3 503b
000003d0: c3a2 06bb 3ecc 4abd 9c31 13bd 5d90 6ebd
000003e0: e85d 15bd 4b0f 5c3c fe0a 87bd dd1e 0abd
000003f0: 9c4c 1cbc 3e83 0cbc 1247 45bc 1ff9 aebc

net.4.weight f4 [256, 256]
-0.03609317 -0.022467477 -0.024845868 -0.07036867 -0.10171376 -0.25621286 0.019678924 -0.011856703
0.121137604 0.029117089 -0.027234696 -0.052377567 0.012963757 -0.025340647 -0.011733428 -0.012888182
0.14842606 -0.09422342 -0.057655722 -0.030153008 0.028007725 0.007864891 0.06854472 0.16500016
-0.044164494 0.19660763 -0.06839752 -0.012148279 0.05082911 -0.052215967 -0.5039677 0.046141144
-0.00036628544 -0.065208726 -0.040160924 -0.3554446 -0.38587663 0.013663099 0.16022313 -0.025753185
0.033195883 -0.0088217305 0.009140011 0.057589505 -0.009663959 -0.0038574792 -0.016911069 0.026024038
0.05096741 0.0167812 0.23930739 0.053702317 0.32459772 0.020589784 -0.021842102 0.27611405
-0.046792164 -0.098132 0.22939917 0.014121875 -0.022411585 0.12457218 0.02241386 0.13097182
-0.005866902 0.07335218 -0.059801005 0.037257813 -0.12720631 -0.00064079603 0.15654512 -0.31968498
-0.15376997 0.021953223 0.21884169 -0.09286442 0.028529394 -0.025157487 -0.019318156 0.18319775
-0.013304891 -0.0076715564 -0.039557714 0.041244347 0.042478703 0.032951627 0.00027952748 0.025173176
0.16264269 -0.037858203 0.1857869 0.058312144 0.0265429 0.05661264 -0.049182218 -0.012366943
0.18015364 -0.041021653 0.0514236 0.032596737 0.11215991 -0.041061614 0.06672929 -0.13280468
0.06289488 0.08599987 -0.22323453 0.055908587 0.03366991 -0.008791067 -0.3336533 -0.067749485
-0.013502725 0.10349253 -0.043397903 -0.25271642 0.115454465 -0.07189431 -0.06751053 0.08337242
-0.00033364794 -0.020450957 0.06592316 -0.05121439 -0.1070023 0.3073007 0.087120384 0.020156734
0.0679713 -0.09488244 -0.30173698 0.07963748 -0.01311607 -0.06270084 -0.031035857 -0.0055162576
0.12956658 -0.07702613 -0.018347234 0.13035539 0.058797233 -0.016015178 0.022073092 0.028945684
0.4051716 0.009706095 -0.061436217 0.05579496 -0.11913271 -0.064139165 -0.04974487 0.004195813
0.0054184366 0.1046517 0.14138797 0.040349014 -0.028678637 0.05089086 0.012335342 -0.055450458
0.1363728 0.1719734 -0.101414844 0.016528487 0.47094786 -0.082878046 -0.031124625 -0.014435361
-0.39634773 -0.08844062 -0.049116984 -0.056358036 0.20618969 0.17788339 0.010020033 -0.05952157
-0.053196803 0.0591585 -0.07221506 -0.005390496 0.026203636 -0.1135316 0.15210672 0.1940318
-0.027844539 0.25230652 0.040732794 0.41320372 -0.033193026 -0.22728059 0.104294434 -0.13309896
-0.00918976 0.12884593 0.19722433 0.011744589 0.10916539 -0.056718662 0.049790397 0.09918921
-0.026332887 -0.07192712 0.048190124 -0.0034964308 0.21803842 0.09915294 0.03556654 0.02609829
-0.008844462 0.046528507 0.081534214 0.009441694 -0.270873 0.08495823 -0.027211364 -0.049430564
-0.048877697 0.14475977 -0.09280819 0.14485824 -0.13590153 0.06557949 -0.0023315442 0.001166391
0.26730454 0.27504647 -0.009085953 0.012431729 0.367061 0.0016202703 0.18800013 -0.079757616
-0.07905184 0.0011288264 -0.48957828 -0.08741276 -0.0059092436 -0.15151964 0.005676437 -0.023438344
-0.061544027 0.029066935 0.019487157 -0.019965187 -0.06699423 0.03432105 0.03368169 0.011982165
-0.024755627 0.004057997 0.013901307 -0.018485993 0.08275616 0.021442102 0.036966994 0.26087695
00000000: 6fd6 13bd b70d b8bc 9089 cbbc 731d 90bd
00000010: 4e4f d0bd 552e 83be b235 a13c 9e42 42bc
00000020: fe16 f83d f686 ee3c 4c1b dfbc dc89 56bd
00000030: f065 543c 3097 cfbc 903d 40bc f428 53bc
00000040: 00fd 173e 35f8 c0bd 6828 6cbd 7103 f7bc
00000050: 7570 e53c bedb 003c 2d61 8c3d cdf5 283e
00000060: d4e5 34bd 8353 493e 0014 8cbd 9309 47bc
00000070: 2f32 503d 69e0 55bd 0704 01bf 7ffe 3c3d
00000080: 000a c0b9 278c 85bd c87f 24bd d6fc b5be
00000090: 9f91 c5be 31db 5f3c 8811 243e 58f8 d2bc
000000a0: 68f8 073d 0589 10bc fcbf 153c f9e2 6b3d
000000b0: 9555 1ebc c3cd 7cbb 1589 8abc 5d30 d53c
000000c0: 34c3 503d ba78 893c ff0c 753e f6f6 5b3d
000000d0: ac31 a63e e8ab a83c 35ee b2bc d25e 8d3e
000000e0: 24a9 3fbd 6ef9 c8bd 9ee7 6a3e 705f 673c
000000f0: 8098 b7bc b31f ff3d 459d b73c 7a1d 063e
00000100: 243f c0bb ab39 963d e6f1 74bd a69b 183d
00000110: 5f42 02be 18fb 27ba 5d4d 203e c0ad a3be
00000120: e075 1dbe 3fd7 b33c 0918 603e b32f bebd
00000130: 7ab6 e93c 1317 cebc 1c41 9ebc 3198 3b3e
00000140: c2fc 59bc ae61 fbbb 4507 22bd d5ef 283d
00000150: 26fe 2d3d 49f8 063d 8b8d 9239 fa37 ce3c
00000160: ce8b 263e 3411 1bbd ec3e 3e3e b7d8 6e3d
00000170: 7f70 d93c a8e2 673d 4b73 49bd b89e 4abc
00000180: 327a 383e 5206 28bd 8ea1 523d 2884 053d
00000190: 18b4 e53d 3930 28bd 5ea9 883d f3fd 07be
000001a0: 08cf 803d b320 b03d 9897 64be 6700 653d
000001b0: 76e9 093d 6808 10bc 9bd4 aabe 3ec0 8abd
000001c0: 893a 5dbc e4f3 d33d 00c2 31bd 0c64 81be
000001d0: 6473 ec3d 533d 93bd f642 8abd 29bf aa3d
000001e0: 78ed aeb9 c488 a7bc b902 873d 2ec6 51bd
000001f0: 0624 dbbd 8456 9d3e 2c6c b23d bc1f a53c
00000200: 8934 8b3d ba51 c2bd 457d 9abe fa18 a33d
00000210: c9e4 56bc 4c69 80bd e93e febc b9c1 b4bb
00000220: 1aad 043e e0bf 9dbd f04c 96bc e27b 053e
00000230: 5ed5 703d 4332 83bc a1d2 b43c 801f ed3c
00000240: a772 cf3e 5006 1f3c 8ba4 7bbd 4289 643d
00000250: dafb f3bd 655b 83bd 47c1 4bbd 087d 893b
00000260: 248d b13b a153 d63d 02c8 103e 0245 253d
00000270: 76ef eabc ef72 503d 2d1a 4a3c 0520 63bd
00000280: 50a5 0b3e cc19 303e 96b2 cfbd c066 873c
00000290: 1420 f13e f7bb a9bd 12f9 febc 4b82 6cbc
000002a0: 17ee cabe 5b20 b5bd e42e 49bd afd7 66bd
000002b0: 6423 533e 1027 363e 112b 243c e4cc 73bd
000002c0: e4e4 59bd 2f50 723d 7de5 93bd c2a2 b0bb
000002d0: 02a9 d63c 4183 e8bd ddc1 1b3e 46b0 463e
000002e0: 3b1a e4bc 522e 813e 6ed7 263d 708f d33e
000002f0: 69f5 07bd 3ebc 68be 5298 d53d 184b 08be
00000300: a690 16bc 30f0 033e 2df5 493e 606c 403c
00000310: 1b92 df3d d451 68bd 04f1 4b3d b623 cb3d
00000320: 11b8 d7bc 874e 93bd 0263 453d 6024 65bb
00000330: 7745 5f3e b210 cb3d 38ae 113d 15cc d53c
00000340: 5de8 10bc ad94 3e3d 69fb a63d 56b1 1a3c
00000350: deaf 8abe 95fe ad3d 5eea debc b477 4abd
00000360: fb33 48bd e83b 143e 3812 bebd b855 143e
00000370: c529 0bbe 8a4e 863d d2cc 18bb 96e1 983a
00000380: 24dc 883e e4d2 8c3e 40dd 14bc 73ae 4b3c
00000390: 6bef bb3e 405f d43a 1b83 403e f657 a3bd
000003a0: eee5 a1bd 21f5 933a 01aa fabe 7605 b3bd
000003b0: 54a2 c1bb f727 1bbe 6801 ba3b c501 c0bc
000003c0: 9715 7cbd c81d ee3c 88a3 9f3c 088e a3bc
000003d0: 4534 89bd 3b94 0c3d d0f5 093d d850 443c
000003e0: 50cc cabc f2f8 843b 4fc2 633c f06f 97bc
000003f0: 107c a93d 59a7 af3c b46a 173d aa91 853e

net.4.bias f4 [256]
0.009835081 -0.02203475 -0.14151794 -0.04082391 0.19201033 -0.08610763 -0.11306639 -0.0914744
0.0012865546 0.066574045 -0.09962057 -0.14113633 -0.03473205 0.030278446 0.17145778 0.1952559
-0.048846845 0.06715055 -0.061933864 -0.09443228 -0.009747883 -0.033858858 -0.05377588 -0.08785081
-0.07921712 -0.11750945 -0.023816168 -0.018298721 -0.014650991 -0.09465123 -0.10691331 -0.025416987
0.09002892 -0.041865975 -0.06285438 -0.099163525 -0.08741601 -0.10676788 -0.06229915 0.0036731227
-0.03706836 -0.06307072 -0.055542555 -0.08284259 0.08488905 -0.019030027 -0.13862154 -0.04296489
-0.0304132 0.09477839 -0.03651795 0.01910401 0.0911061 -0.09620326 -0.09657014 -0.057790983
-0.0708247 -0.058773775 -0.08766916 -0.056062147 -0.062363412 -0.05443833 0.3033389 -0.09580672
-0.007697718 -0.09215389 -0.13076946 -0.048963938 -0.10991499 -0.028085945 -0.14518496 -0.0764944
0.15491438 -0.0006945026 -0.06893543 -0.06822043 -0.054014385 0.0010855573 0.10396025 -0.04009246
-0.10712448 0.004387651 0.21580623 -0.09115846 -0.06318825 -0.15347427 0.18775168 0.003250757
0.027102029 -0.09724327 -0.12349317 -0.082218826 -0.07451701 -0.00084413524 0.17007968 -0.06514576
-0.057135046 -0.10786167 -0.08397629 -0.028855806 0.031716995 -0.16142105 0.041618004 0.025844902
-0.05518607 -0.08900116 0.07012088 -0.2265851 0.08657217 0.03569304 -0.007610005 0.12062783
0.06933167 0.018754732 -0.014131738 -0.052591395 -0.082148954 0.060236175 -0.06257329 0.17881338
-0.124478824 -0.057298563 -0.03177074 -0.096222155 -0.056710012 -0.11788168 -0.06821321 0.06269099
-0.09252106 -0.06962968 0.07676732 -0.054765277 -0.20162863 -0.024972651 0.20166416 -0.119433224
0.019997358 0.1272649 -0.10137538 -0.047757268 0.0025565813 -0.114112966 0.004571329 -0.17241216
0.016133146 -0.040649053 0.06564729 -0.07382386 -0.014116783 -0.07519447 -0.11044306 -0.058836948
-0.07940585 -0.04705281 -0.033358146 -0.09832571 -0.05610506 0.17948289 -0.06494175 -0.08361181
-0.06148176 0.009524413 -0.008993342 0.18849593 -0.0472385 0.015943397 0.16970792 0.00046180887
-0.06576726 -0.09163415 -0.14845346 0.05280638 -0.092404455 -0.015997494 -0.06511246 -0.034951374
-0.09907482 0.060910486 -0.109562986 0.21367005 0.040946662 -0.07382595 -0.039124753 -0.0311033
-0.040673383 -0.07329224 -0.02765474 -0.08174801 -0.066043496 0.058359433 -0.07766484 -0.042448208
-0.02802095 -0.12329479 -0.072011605 -0.0054408456 0.015811676 0.07413849 0.0034464956 -0.03918859
0.012508823 -0.03506762 -0.08920717 0.01497455 -0.067938544 -0.03725132 -0.09169991 -0.07229224
0.27164298 -0.043606594 -0.029311188 -0.054997116 0.21917725 -0.048282843 -0.043418895 -0.04875943
-0.06043714 -0.058201287 -0.036787704 -0.06810174 -0.05066102 -0.100750946 -0.08802733 -0.095660776
-0.05445455 -0.065810174 -0.101856664 0.058381017 0.048445847 -0.03411391 0.020082105 -0.041566197
-0.082102604 -0.15374821 -0.045646835 -0.05618182 -0.052601203 -0.06130681 0.17865509 0.20709054
-0.029423479 -0.055774506 -0.08147237 -0.10785151 -0.1727126 -0.12384482 -0.042191315 -0.017236808
-0.018922094 0.09664201 0.15750818 0.06745978 -0.004569097 0.018829932 -0.02799125 -0.11989957
00000000: 5223 213c 3882 b4bc 14ea 10be f936 27bd
00000010: 5b9e 443e 3259 b0bd 5a8f e7bd ee56 bbbd
00000020: 9ca1 a83a f957 883d df05 ccbd 0b86 10be
00000030: 3243 0ebd 810a f83c a192 2f3e 2af1 473e
00000040: a113 48bd 3a86 893d 5dae 7dbd b665 c1bd
00000050: 96b5 1fbc 96af 0abd 1944 5cbd 20eb b3bd
00000060: 963c a2bd cba8 f0bd 201a c3bc 33e7 95bc
00000070: b60a 70bc 81d8 c1bd 5ef5 dabd 4937 d0bc
00000080: 1561 b83d a87b 2bbd ccb9 80bd 3f16 cbbd
00000090: 2a07 b3bd 1ea9 dabd 652d 7fbd c6b8 703b
000000a0: fed4 17bd 392b 81bd 9780 63bd 60a9 a9bd
000000b0: 4fda ad3d dce4 9bbc cef2 0dbe f4fb 2fbd
000000c0: 1a25 f9bc 2c1b c23d d993 15bd 0380 9c3c
000000d0: d695 ba3d 3706 c5bd 91c6 c5bd 3db6 6cbd
000000e0: 8a0c 91bd c5bc 70bd e38b b3bd 6ca1 65bd
000000f0: c770 7fbd bafa 5ebd 3c4f 9b3e 5036 c4bd
00000100: 243d fcbb 2ebb bcbd 6ee8 05be 698e 48bd
00000110: 1c1b e1bd 7f14 e6bc 5eab 14be 19a9 9cbd
00000120: e0a1 1e3e 480f 36ba 052e 8dbd 27b7 8bbd
00000130: 303e 5dbd 4249 8e3a 1de9 d43d fe37 24bd
00000140: 1464 dbbd 49c6 8f3b 4ffc 5c3e 49b1 babd
00000150: d768 81bd 5c28 1dbe fa41 403e a70a 553b
00000160: 1305 de3c 7b27 c7bd fde9 fcbd 5862 a8bd
00000170: 609c 98bd f548 5dba 5e29 2e3e 246b 85bd
00000180: 7006 6abd 94e6 dcbd c3fb abbd 0363 ecbc
00000190: aee9 013d 8f4b 25be a477 2a3d b0b8 d33c
000001a0: ca0a 62bd 3d46 b6bd 899b 8f3d ed05 68be
000001b0: c04c b13d dd32 123d 595d f9bb b90b f73d
000001c0: c3fd 8d3d 86a3 993c ce88 67bc 136a 57bd
000001d0: b63d a8bd 35ba 763d 6d26 80bd db1a 373e
000001e0: c1ee febd e6b1 6abd 0922 02bd 1f10 c5bd
000001f0: c248 68bd f36b f1bd 5eb3 8bbd 2264 803d
00000200: ae7b bdbd 019a 8ebd 2f38 9d3d 8e51 60bd
00000210: bc77 4ebe 7293 ccbc 0d81 4e3e 6899 f4bd
00000220: 80d1 a33c bb51 023e e59d cfbd 209d 43bd
00000230: 518c 273b 0fb4 e9bd 16cb 953b d08c 30be
00000240: a929 843c 9f7f 26bd 1672 863d f730 97bd
00000250: 144a 67bc 8fff 99bd f92f e2bd 03ff 70bd
00000260: 899f a2bd 73ba 40bd 8da2 08bd fd5e c9bd
00000270: 6bce 65bd 5dca 373e 2e00 85bd ab3c abbd
00000280: 4cd4 7bbd 490c 1c3c cf58 13bc 1405 413e
00000290: 287d 41bd ba9b 823c eac7 2d3e f01e f239
000002a0: fcb0 86bd afaa bbbd 2f04 18be 814b 583d
000002b0: 8c3e bdbd 2d0d 83bc ae59 85bd 2c29 0fbd
000002c0: bde7 cabd 467d 793d 8f62 e0bd 52cc 5a3e
000002d0: b0b7 273d 0f32 97bd 4741 20bd 59cc febc
000002e0: 2299 26bd 3e1a 96bd 318c e2bc 806b a7bd
000002f0: d041 87bd 4d0a 6f3d be0e 9fbd 2cde 2dbd
00000300: 318c e5bc fb81 fcbd d27a 93bd 1f49 b2bb
00000310: 7d87 813c ecd5 973d 9ade 613b 3784 20bd
00000320: cef1 4c3c 11a3 0fbd 40b2 b6bd d157 753c
00000330: 5d23 8bbd d794 18bd 2acd bbbd f40d 94bd
00000340: ca14 8b3e d49c 32bd 041e f0bc a844 61bd
00000350: 0070 603e 3bc4 45bd 03d8 31bd f8b7 47bd
00000360: ef8c 77bd 7964 6ebd b4ae 16bd ed78 8bbd
00000370: ee81 4fbd 8356 cebd ac47 b4bd cce9 c3bd
00000380: bc0b 5fbd 7cc7 86bd 3a9a d0bd ef20 6f3d
00000390: 276f 463d 07bb 0bbd 3a83 a43c 5141 2abd
000003a0: 6925 a8bd 2c70 1dbe 2df8 3abd e81e 66bd
000003b0: 5c74 57bd d91c 7bbd 5cf1 363e 8b0f 543e
000003c0: 8209 f1bc cf73 64bd fcda a6bd 41e1 dcbd
000003d0: 92db 30be 5aa2 fdbd cdd0 2cbd 3534 8dbc
000003e0: 8202 9bbc 3fec c53d d349 213e 5a28 8a3d
000003f0: 5db8 95bb 3b41 9a3c e84d e5bc e88d f5bd

net.6.weight f4 [7, 256]
0.4243528 0.09327896 0.13270077 0.11152723 0.15128714 0.110898964 -0.09691951 -0.07835466
0.2154278 -0.055248085 -0.038883198 -0.26053837 -0.24486223 -0.27443206 0.20015529 0.18137068
0.22631277 0.08814862 0.12064129 -0.028396698 -0.02911957 -0.19142899 0.015956484 0.4396311
-0.5015792 0.43375888 -0.25664645 0.08277777 0.8543128 -0.35714614 -0.025644476 0.19864072
-0.09838815 -0.14404579 0.4762231 -0.2933184 -0.31234938 -0.011882917 0.2121167 0.35179102
-0.09460407 -0.031825792 0.008020845 0.1654979 0.12266637 -0.15738192 0.30911243 -0.113180764
-0.034391865 0.1465805 0.1208242 0.027424464 -0.19435245 -0.03483033 0.08913036 -0.17507157
0.12986071 0.8500282 0.5715341 -0.34503263 -0.011679768 -0.38288426 0.21102463 -0.0036721048
0.015390387 0.1338422 0.021131514 -0.44279686 0.007569953 0.0072652646 -0.01493033 -0.08249478
0.11796724 0.114620335 -0.011994629 0.44248343 -0.1927893 0.18838339 0.049190544 0.1706126
-0.022669489 -0.24651638 0.17822313 -0.07268712 -0.2421071 0.32008886 0.18354583 0.017343067
0.16018125 -0.08285587 0.20324042 -0.041306436 0.086268984 0.1121639 0.15816039 0.006352894
0.3203598 0.1146132 -0.03658578 -0.16748865 -0.29231405 -0.19687715 -0.081966564 -0.1982805
0.020302868 0.0029912402 0.06810211 -0.19345318 0.10133952 -0.18318874 0.30546013 0.15607516
0.22497597 0.106126085 -0.009318892 -0.07051743 0.011291929 0.08780256 -0.014304755 0.1873123
-0.05753338 0.14021091 -0.06529298 -0.25574297 -0.050291725 -0.35141918 -0.147734 -0.014676012
-0.089823484 -0.08971152 -0.07077479 0.09414415 0.314782 0.23521104 0.15521663 -0.076959305
0.24544358 0.060240988 -0.054025 -0.10198159 0.12487584 -0.021526597 -0.09565213 0.05058725
0.11644975 0.09881474 -0.20149186 -0.040308848 -0.10903062 0.082567066 -0.08502822 -0.04283274
0.5452474 -0.54680955 0.07472945 -0.065099664 0.048788402 0.119366966 0.2052484 -0.08041445
0.35207453 -0.2043777 -0.014529377 0.15299961 0.037993915 -0.057612106 0.19367166 -0.10756128
0.16688533 0.030381568 0.059606794 0.13707097 -0.30469683 0.022604527 -0.17955373 -0.33735603
0.26861325 0.039212458 0.16858423 0.1587059 -0.14217527 0.03633246 -0.0018661869 -0.28218105
0.19862647 -0.66951954 0.023376403 0.056698237 -0.022868073 0.20856714 -0.030404205 -0.0032821414
-0.004881013 -0.098623954 0.21008755 0.33709663 -0.15480343 0.02194674 0.20716469 -0.055793557
0.25964075 0.10568367 -0.00093022897 0.049198106 -0.0208443 -0.047660787 0.21005234 0.049717274
0.20811534 -0.012762305 -0.08544989 0.28454015 0.20980366 -0.015059345 -0.018301236 0.18812345
-0.108505264 0.039655108 -0.005487522 0.034517914 -0.043110464 0.35959786 -0.020822827 -0.20942935
0.051115233 -0.1948933 -0.13452747 -0.15438922 0.17899296 -0.029337835 0.49892047 -0.050823264
-0.020395685 -0.09563474 0.20876147 0.45128113 0.010514773 -0.18192871 0.1901648 0.18653092
0.05324313 -0.05181233 -0.038869027 0.029429693 -0.094459 -0.5571856 0.037281718 0.054457866
-0.14865805 0.089437574 0.2005758 0.29684013 -0.5081363 0.18854524 -0.10333879 -0.39663488
00000000: c544 d93e 0a09 bf3d b6e2 073e 6368 e43d
00000010: 04eb 1a3e ff1e e33d bc7d c6bd 6878 a0bd
00000020: 1b99 5c3e d14b 62bd fd43 1fbd 4965 85be
00000030: 2abd 7abe 5c82 8cbe 82f5 4c3e 3cb9 393e
00000040: 89be 673e 4487 b43d c812 f73d 31a0 e8bc
00000050: 2a8c eebc f605 44be 2cb7 823c 5417 e13e
00000060: 7f67 00bf a515 de3e 2a67 83be 6487 a93d
00000070: 3eb4 5a3f dcdb b6be 5d14 d2bc 7968 4b3e
00000080: ba7f c9bd bd80 13be 84d3 f33e d42d 96be
00000090: 42ec 9fbe 91b0 42bc 1f35 593e f41d b43e
000000a0: c7bf c1bd c35b 02bd dd69 033c 4878 293e
000000b0: 8138 fb3d ba28 21be fc43 9e3e 51cb e7bd
000000c0: 7cde 0cbd 3319 163e ae72 f73d 45a9 e03c
000000d0: 5404 47be 40aa 0ebd fa89 b63d f645 33be
000000e0: 35fa 043e 739b 593f 0f50 123f 1ea8 b0be
000000f0: 7f5c 3fbc 6809 c4be d716 583e b2a7 70bb
00000100: f627 7c3c ee0d 093e ff1b ad3c 45b6 e2be
00000110: 5e0d f83b 7511 ee3b 589e 74bc 06f3 a8bd
00000120: cf98 f13d 11be ea3d 1f85 44bc 308d e23e
00000130: 8f6a 45be 93e7 403e 067c 493d 12b5 2e3e
00000140: 5db5 b9bc ca6e 7cbe 2080 363e fcdc 94bd
00000150: ecea 77be b0e2 a33e 70f3 3b3e 0c13 8e3c
00000160: 8e06 243e 57b0 a9bd 421e 503e f030 29bd
00000170: cbad b03d 30b6 e53d ccf4 213e f02b d03b
00000180: 3306 a43e 53ba ea3d f9da 15bd 2582 2bbe
00000190: 30aa 95be 2a9a 49be 16de a7bd 0b0a 4bbe
000001a0: 3352 a63c af08 443b 1e79 8b3d 9718 46be
000001b0: 188b cf3d d495 3bbe 4565 9c3e 2bd2 1f3e
000001c0: 1a60 663e a258 d93d 44ae 18bc 716b 90bd
000001d0: c801 393c d4d1 b33d 7e5e 6abc ccce 3f3e
000001e0: 1fa8 6bbd 7393 0f3e 53b8 85bd bef0 82be
000001f0: b2fe 4dbd 37ed b3be 9547 17be a873 70bc
00000200: 60f5 b7bd acba b7bd 60f2 90bd a6ce c03d
00000210: 1b2b a13e 2adb 703e 1cf1 1e3e d79c 9dbd
00000220: 9055 7b3e 41bf 763d 5249 5dbd b9db d0bd
00000230: e8be ff3d 8c58 b0bc 44e5 c3bd 9434 4f3d
00000240: 357d ee3d 625f ca3d e253 4ebe e41a 25bd
00000250: 724b dfbd ec18 a93d 4723 aebd 6271 2fbd
00000260: 5595 0b3f b6fb 0bbf c10b 993d f952 85bd
00000270: 59d6 473d ab76 f43d a32c 523e 55b0 a4bd
00000280: 1d43 b43e 6348 51be a00c 6ebc eeab 1c3e
00000290: 829f 1b3d acfa 6bbd dd51 463e 1749 dcbd
000002a0: fde3 2a3e c4e2 f83c 4126 743d 555c 0c3e
000002b0: 3901 9cbe 212d b93c efdc 37be eeb9 acbe
000002c0: ad87 893e 3e9d 203d 58a1 2c3e cd83 223e
000002d0: 6596 11be 58d1 143d d79a f4ba 097a 90be
000002e0: bd64 4b3e a265 2bbf df7f bf3c 693c 683d
000002f0: d355 bbbc a092 553e 3d12 f9bc 3219 57bb
00000300: e8f0 9fbb 5bfb c9bd 3121 573e ee97 ac3e
00000310: ca84 1ebe a6c9 b33c fb22 543e c987 64bd
00000320: a2ef 843e ae70 d83d 9cda 73ba f483 493d
00000330: aac1 aabc f537 43bd f617 573e 57a4 4b3d
00000340: 301c 553e fd18 51bc 5a00 afbd 3faf 913e
00000350: c5d6 563e 79bb 76bc 79ec 95bc 6fa3 403e
00000360: 0238 debd 656d 223d acd0 b3bb a862 0d3d
00000370: 9994 30bd 361d b83e a294 aabc a674 56be
00000380: 355e 513d 1c92 47be 92c1 09be 3518 1ebe
00000390: ee49 373e e655 f0bc 8172 ff3e 0e2c 50bd
000003a0: da14 a7bc 26dc c3bd 91c5 553e 520e e73e
000003b0: 2846 2c3c 854b 3abe 90ba 423e f601 3f3e
000003c0: 7815 5a3d 2a39 54bd 2135 1fbd 8a16 f13c
000003d0: b873 c1bd b7a3 0ebf b7b4 183d 360f 5f3d
000003e0: d139 18be 0c2b b73d be63 4d3e 6efb 973e
000003f0: 3815 02bf 0112 413e 4aa3 d3bd ba13 cbbe

net.6.bias f4 [7]
0.19757222 0.21923198 -0.16508405 -0.14316246 0.14389236 0.24292184 -0.24892007
00000000: 5f50 4a3e 597e 603e cb0b 29be 2e99 12be
00000010: 8558 133e 81c0 783e e7e4 7ebe
