preTrained/GAIL_pretrained_3800_actor.pth (torch, 541220 bytes, 8 tensors)

net.0.weight f4 [256, 3]
0	0xbe48cdf5	-0.19609816
1	0xbf17cffd	-0.5930174
2	0xbeaaf6d8	-0.33391452
3	0x3ebc3136	0.36756295
4	0x3f4bf254	0.7966664
5	0xbeba6f05	-0.36412826
6	0x3f0164aa	0.50544226
7	0x3e28577f	0.16439627
8	0xbf2307e7	-0.63683933
9	0xbf09baab	-0.5380046
10	0x3e8132bc	0.2523402
11	0xbc8a037e	-0.016847368
12	0x3e2747a8	0.16335928
13	0xbd82055a	-0.06348677
14	0xbdc8c522	-0.09803225
15	0x3eb2f5f7	0.3495328
16	0xbdbedf35	-0.09319917
17	0x3de0e2fa	0.10980792
18	0xbe5f3b6c	-0.21800011
19	0x3f0c25f4	0.5474541
20	0xbe0950e5	-0.13409765
21	0xbec9d921	-0.3942347
22	0x3f7e0ffb	0.99243134
23	0xbdfe2ee4	-0.124112874
24	0xbf36bcab	-0.71381634
25	0x3e8dec19	0.2771919
26	0xbeef7a75	-0.46773115
27	0xbf138f61	-0.57640654
28	0xbde72773	-0.11286821
29	0xbf047c33	-0.5175201
30	0xbf0849ba	-0.532375
31	0xbf1c3977	-0.61025184
32	0x3e5fb95d	0.21848054
33	0xbebe856f	-0.37211177
34	0xbd492da2	-0.049115784
35	0xbf0245e1	-0.50887877
36	0xbe412e33	-0.1886528
37	0xbf68946e	-0.90851486
38	0xbe4220a8	-0.1895777
39	0xbe9f63aa	-0.31130725
40	0x3e089a6f	0.13340162
41	0x3e3a6eb7	0.18206297
42	0x3ee4aae5	0.44661632
43	0x3ef77065	0.48327938
44	0xbeb6dc01	-0.35714725
45	0xbf227567	-0.6346039
46	0x3f7f9170	0.99831295
47	0xbe2b5625	-0.1673208
48	0xbf302b39	-0.6881595
49	0x3e9dcd39	0.30820635
50	0xbe0c14e6	-0.13679847
51	0xbe7579f1	-0.23972298
52	0x3e90fcc6	0.2831785
53	0x3ea63160	0.32459545
54	0xbed96a9f	-0.42464158
55	0x3f145680	0.5794449
56	0xbd7c83f2	-0.06164927
57	0x3d8c59f3	0.06853094
58	0xbe94389e	-0.28949445
59	0xbef90308	-0.48635125
60	0xbdb025a9	-0.08600933
61	0xbf15e0c6	-0.585461
62	0xbe0d078a	-0.13772407
63	0xbe59d3f8	-0.21272266
64	0xbdfc8d6a	-0.1233166
65	0x3e3d9fc1	0.18517973
66	0xbe1aee31	-0.15129925
67	0x3f7992dd	0.9748972
68	0xbee8b224	-0.4544841
69	0xbec0515b	-0.3756207
70	0xbf0902b8	-0.53519773
71	0x3ed1b614	0.40959227
72	0x3e078491	0.13234164
73	0x3ee0d6b9	0.4391382
74	0xbf290e64	-0.66037583
75	0x3ee36df5	0.44419828
76	0x3ec27548	0.37980103
77	0xbee3f8d7	-0.44525787
78	0x3c8a7498	0.0169013
79	0x3e5f2811	0.21792628
80	0xbf1e9130	-0.6194029
81	0xbd9953b3	-0.074866675
82	0x3df4635f	0.11933016
83	0xbc7642e5	-0.015030597
84	0xbd88daa0	-0.066823244
85	0xbc87d45d	-0.016580755
86	0x3ec71b7a	0.3888815
87	0xbc46145a	-0.012089813
88	0xbf0ca51d	-0.5493944
89	0xbf1b698e	-0.6070794
90	0x3dd9a272	0.10626687
91	0xbdd3e389	-0.10346133
92	0x3ec46f25	0.38366047
93	0xbe772834	-0.2413643
94	0xbaf7aeef	-0.0018896739
95	0xbf125164	-0.5715544
96	0x3f0ab673	0.54184645
97	0xbf812d71	-1.0091993
98	0x3ebb508c	0.3658489
99	0xbeab3382	-0.33437735
100	0x3ec78f34	0.38976443
101	0xbe468a3c	-0.1938867
102	0xbf2f1389	-0.68389183
103	0xbe5325c8	-0.20619881
104	0xbe5e8f95	-0.2173446
105	0xbee1c9ea	-0.4409936
106	0x3d768da7	0.060193684
107	0xbdbf17e5	-0.093307294
108	0x3ea0fff2	0.3144527
109	0x3dbc4cf4	0.09194365
110	0xbe209c29	-0.1568457
111	0xbf26942f	-0.6506986
112	0x3f6afc66	0.9179138
113	0xbee1cb39	-0.4410036
114	0x3e48d765	0.19613416
115	0xbea0f4d0	-0.31436777
116	0xbed8d231	-0.42347863
117	0xbdfa919e	-0.122348055
118	0x3f01e362	0.50737584
119	0xbf47ae58	-0.780004
120	0x3e1000af	0.14062761
121	0x3ef9c25a	0.4878109
122	0xbe855020	-0.26037693
123	0xbd6f4777	-0.058417764
124	0x3ef62953	0.48078403
125	0xbe8eee63	-0.2791625
126	0xbebe2840	-0.37140083
127	0x3f4aad29	0.7917047
128	0xbed2950b	-0.41129336
129	0xbe791ff8	-0.24328601
130	0x3ec64856	0.38727063
131	0x3e5b443f	0.21412753
132	0x3cc0ac81	0.023519756
133	0xbf01a217	-0.50637954
134	0xbecfb8e0	-0.40570736
135	0x3d5f0a28	0.054453045
136	0xbef7d8be	-0.4840755
137	0xbee7f43b	-0.4530352
138	0xbf427d03	-0.75972
139	0x3f1b9a3d	0.60782224
140	0xbdb89b6f	-0.090140216
141	0x3d3b28dc	0.045693263
142	0xbf9e6957	-1.2375897
143	0x3df2a82a	0.11848481
144	0xbef518d2	-0.478705
145	0xbeb34fb5	-0.3502175
146	0xbd28a6fb	-0.04117487
147	0xbee12cae	-0.439794
148	0xbe01353b	-0.12617962
149	0xbcb68c52	-0.022283707
150	0xbe98ba2f	-0.29829547
151	0x3f834991	1.0256826
152	0xbe68cd3d	-0.22734542
153	0x3efe0098	0.49609828
154	0x3f12e86e	0.5738591
155	0xbe312f67	-0.17303239
156	0xbf07e803	-0.53088397
157	0x3e297d02	0.16551593
158	0x3e501c34	0.20323259
159	0xbc080b52	-0.00830348
160	0x3f128d41	0.57246786
161	0xbefd39e0	-0.49458218
162	0x3e5a0305	0.21290214
163	0xbf2479b9	-0.64248234
164	0x3c58dd7f	0.0132364025
165	0x3df67052	0.12033142
166	0xbe4399ae	-0.19101593
167	0xbeebe067	-0.46069643
168	0x3eaebc02	0.34127814
169	0x3caff7e6	0.021480512
170	0x3ea7a6b6	0.32744378
171	0xbd76baa8	-0.060236603
172	0xbf1e023d	-0.61722165
173	0xbd373c18	-0.044735044
174	0xbec18caf	-0.37802646
175	0x3ef7a99b	0.48371586
176	0x3ee2f468	0.44327092
177	0xbf3fd7bb	-0.74938554
178	0xbea38dac	-0.31944025
179	0x3e62111c	0.22076839
180	0xbe9b3c53	-0.3031946
181	0xbf37564f	-0.7161607
182	0xbe382cc5	-0.17985828
183	0xbe8f88c8	-0.28034043
184	0xbdea83ca	-0.11450918
185	0xbe3dc2c5	-0.1853133
186	0xbe5d3b0f	-0.2160456
187	0x3f52ebc8	0.82391024
188	0xbdebbe08	-0.11510855
189	0xbeb701d8	-0.35743594
190	0xbe4fcd12	-0.20293072
191	0xbea98e50	-0.33116388
192	0x3e56d841	0.20980932
193	0x3f4a7adc	0.7909372
194	0x3ebfa18d	0.3742794
195	0xbec8883b	-0.39166436
196	0xbf13dd29	-0.5775934
197	0x3db78dc6	0.08962588
198	0xbd825309	-0.06363494
199	0x3ddb4881	0.107071884
200	0xbf1844f9	-0.59480244
201	0xbe7eb99a	-0.24875489
202	0xbe769318	-0.2407955
203	0xbce68fd1	-0.028144749
204	0xbe708734	-0.23489076
205	0xbf718237	-0.9433932
206	0xbef89f18	-0.4855888
207	0xbf32380c	-0.6961677
208	0x3ebf67c1	0.37383845
209	0x3da7f0b4	0.08200207
210	0xbe7d7ede	-0.24755427
211	0xbefcabb5	-0.49349752
212	0xbf0da749	-0.5533338
213	0xbd96eef7	-0.07369798
214	0x3efb0c72	0.49032933
215	0xbeaf8ffe	-0.34289545
216	0xbf1fa1c3	-0.62356204
217	0x3f34050d	0.70320207
218	0xbec5b840	-0.38617134
219	0x3eab675a	0.33477288
220	0xbd959740	-0.07304239
221	0xbdaf3281	-0.08554555
222	0xbd47a3a6	-0.04874005
223	0xbf1e4007	-0.6181645
224	0x3e1707d9	0.14749087
225	0xbe797956	-0.24362692
226	0xbee103d9	-0.43948248
227	0xbe0f0dcd	-0.13970108
228	0xbd7d9170	-0.061906278
229	0x3e1acdaf	0.15117525
230	0x3e0850d1	0.13312079
231	0x3d9fee22	0.07809092
232	0x3e5166ca	0.20449367
233	0xbeb24df8	-0.3482511
234	0x3e63c73d	0.22243972
235	0x3ea1398f	0.31489226
236	0x3ec4671a	0.3835991
237	0xbe9aba8f	-0.30220458
238	0x3e109ee0	0.14123106
239	0x3e6a0468	0.22853243
240	0xbe6d2e09	-0.23162092
241	0xbf8511b0	-1.0396023
242	0x3e486afb	0.1957206
243	0xbef3dba9	-0.47628525
244	0x3da445b4	0.08021107
245	0xbeaf4e72	-0.34239537
246	0x3e8e462d	0.27787915
247	0x3dc1a8e3	0.09456041
248	0x3e89cc64	0.2691375
249	0x3eaf39ec	0.34223878
250	0x3ecd5b0b	0.40108523
251	0xbef13ee7	-0.47118303
252	0x3e763cbc	0.24046606
253	0xbe214b09	-0.1575128
254	0xbf101582	-0.5628282
255	0xbd659426	-0.05604949

net.0.bias f4 [256]
0	0xbe0852df	-0.13312863
1	0xbde93b25	-0.11388234
2	0x3cd9c650	0.02658382
3	0xbe24a78d	-0.1607954
4	0x3e0f25c7	0.13979255
5	0x3e9caed3	0.3060213
6	0xbd18a513	-0.037266802
7	0x3dfbf610	0.12302792
8	0x3ee1cca1	0.44101432
9	0x3ee6b282	0.45058066
10	0xbc33337f	-0.010937571
11	0x3ec38d34	0.38193667
12	0x3eb2ea76	0.34944504
13	0xbb59d984	-0.0033241222
14	0xbe368003	-0.1782227
15	0x3e896fcd	0.2684311
16	0x3e84dbf5	0.25949064
17	0xbee0abf1	-0.4388118
18	0xbe90cb38	-0.28280044
19	0x3e2aafca	0.1666862
20	0x3e226cd7	0.15861832
21	0xbe5bd29a	-0.21467057
22	0x3e37992c	0.17929524
23	0xbe298d1a	-0.16557732
24	0x3e3a1d90	0.1817534
25	0xbe67b3f6	-0.22627243
26	0x3dcbf35a	0.09958525
27	0xbf0db8ac	-0.5535991
28	0xbf03a108	-0.5141759
29	0x3e5ffa1b	0.21872751
30	0xbefdcc21	-0.495698
31	0x3d916523	0.070993684
32	0xbe894ff4	-0.26818812
33	0x3d09125d	0.03346478
34	0x3ea6770b	0.32512698
35	0x3e455b74	0.19273168
36	0xbe3e6888	-0.18594563
37	0x3ed19125	0.4093105
38	0x3d8e3baf	0.069449775
39	0x3ea865c5	0.32890144
40	0xbf0743ba	-0.5283772
41	0xbe80afb1	-0.25134042
42	0x3e35a9df	0.17740582
43	0xbe74856f	-0.23879026
44	0xbeac9200	-0.3370514
45	0x3e0280b8	0.12744415
46	0x3e4c55ce	0.19954607
47	0xbe1aecfb	-0.15129463
48	0x3d0d8970	0.0345549
49	0x3e1131c7	0.14179145
50	0x3df6334a	0.12021501
51	0xbe253345	-0.16132839
52	0xbd8b0af1	-0.06789196
53	0xbea3f993	-0.32026348
54	0x3d05048c	0.03247504
55	0xbd04959a	-0.032369234
56	0xbed1d53a	-0.4098299
57	0xbd4f5378	-0.05061671
58	0xbe3b300f	-0.18280052
59	0x3de635fa	0.11240764
60	0x3db82edd	0.089933135
61	0xbd830612	-0.06397642
62	0x3d4bafb2	0.049728103
63	0xbecc11c4	-0.39857304
64	0xbeb2fa52	-0.34956604
65	0x3e83505a	0.2564724
66	0x3cac4a5a	0.021031547
67	0xbe85d488	-0.2613871
68	0x3eaa3a58	0.33247638
69	0x3e8b4718	0.27202678
70	0x3e94d8f4	0.29071772
71	0xbcf4cd1b	-0.029882958
72	0x3e8c8fda	0.274535
73	0xbe06516a	-0.13116995
74	0xbe1a9e7c	-0.1509952
75	0x3e8f5afc	0.27999103
76	0xbe9ab995	-0.30219713
77	0x3dc5ac94	0.09652057
78	0xbeba6a4f	-0.36409232
79	0xbede3220	-0.43397617
80	0x3e761d76	0.24034676
81	0x3e7c02ca	0.24610439
82	0xbed05517	-0.40689918
83	0x3eb28afb	0.3487166
84	0x3e0b7235	0.13617785
85	0xbe0452ec	-0.12922257
86	0xbde59b0b	-0.11211213
87	0x3d766d7c	0.060163006
88	0x3e4c7ef5	0.19970305
89	0xbe8220fd	-0.25415793
90	0xbcddc441	-0.02707112
91	0xbefddc1f	-0.49582002
92	0x3c418a51	0.011812762
93	0x3e0eae5d	0.13933702
94	0x3e756b9d	0.23966832
95	0x3ebb6490	0.3660016
96	0xbd876e59	-0.06612844
97	0x3eb0b4b2	0.3451286
98	0x3d749c47	0.05971935
99	0xbd494518	-0.04913816
100	0xbe9747cb	-0.2954696
101	0xbe88208f	-0.2658734
102	0x3c8bae8e	0.017051008
103	0xbed9ef0a	-0.42565185
104	0xbdb8ae09	-0.090175696
105	0xbed0dcca	-0.4079345
106	0x3d812ef6	0.06307785
107	0xbccb0611	-0.024783166
108	0xbdeaadff	-0.11458968
109	0x3db5d8c6	0.08879237
110	0x3e92a92b	0.2864469
111	0xbed9d3e4	-0.42544472
112	0xbf07be55	-0.530248
113	0xbc5ec425	-0.013596569
114	0xbea02f9a	-0.31286317
115	0xbd66bbf9	-0.05633161
116	0xbe3d463d	-0.18483825
117	0x3e6e6ba4	0.23283249
118	0xbd366ab9	-0.044535372
119	0x3b0cc351	0.0021478722
120	0xbe95dbc1	-0.2926922
121	0xbc8f308e	-0.017479207
122	0xbe1d151b	-0.15340082
123	0xbe41569d	-0.18880697
124	0x3e9eb0a9	0.30994156
125	0x3e75bfd4	0.23998958
126	0xbe78e947	-0.24307738
127	0x3e8936bd	0.26799574
128	0xbe99acf6	-0.3001477
129	0x3e46ff86	0.19433412
130	0xbdc1946c	-0.09452137
131	0x3e1c3aa8	0.1525675
132	0xbe1c932b	-0.15290515
133	0xbe05022b	-0.12989108
134	0xbdf8ddba	-0.12151666
135	0xbe58b2d9	-0.21161975
136	0xbde1e89d	-0.110306956
137	0xbdd10282	-0.102055565
138	0xbe360223	-0.17774253
139	0xbf03400b	-0.51269597
140	0xbe4845dd	-0.195579
141	0xbea60b8e	-0.3243069
142	0xbe96a1a1	-0.29420188
143	0xbe301111	-0.1719401
144	0xbefb7fce	-0.49120945
145	0xbef9a066	-0.48755187
146	0x3d52875e	0.051398627
147	0xbe94744e	-0.28994983
148	0xbeb1d96e	-0.34736198
149	0x3cb35c57	0.021894617
150	0xbeef54ea	-0.46744472
151	0xbea4d729	-0.32195404
152	0xbde1f8b9	-0.11033768
153	0x3e813b02	0.25240332
154	0x3e65e755	0.22451527
155	0xbe081285	-0.13288315
156	0xbe8784d1	-0.26468518
157	0x3e8adf40	0.2712345
158	0xbe190257	-0.14942299
159	0x3de73c7e	0.11290835
160	0x3dc31e80	0.09527302
161	0xbe6e50fe	-0.23273084
162	0x3e8c113d	0.27356902
163	0xbcf27774	-0.029597975
164	0x3edb29b1	0.42805246
165	0xbda0360c	-0.078228086
166	0x3ef0ad96	0.47007436
167	0xbe199c4d	-0.1500103
168	0xbdfad9c7	-0.12248569
169	0xbeac94de	-0.33707327
170	0x3d54bf84	0.051940456
171	0xbde473ee	-0.11154924
172	0x3bee8aa6	0.007279712
173	0x3ea66f06	0.3250658
174	0xbe35c50f	-0.17750953
175	0x3d2109aa	0.039315857
176	0xbe83e1a5	-0.2575809
177	0xbe4f0808	-0.20217907
178	0x3e91e8c9	0.28497913
179	0xbed7a022	-0.4211436
180	0xbe965781	-0.29363635
181	0xbee92bba	-0.45541173
182	0xbe385646	-0.1800166
183	0x3e096d21	0.13420536
184	0x3e05b9d4	0.13059169
185	0x3ed5b262	0.41737658
186	0xbee94eda	-0.4556797
187	0xbde045e6	-0.10950832
188	0xbe5f449e	-0.21803519
189	0x3de7639a	0.11298294
190	0x3e132a41	0.14371587
191	0x3d9c37a8	0.07627803
192	0xbbcda62c	-0.0062759127
193	0x3e33b981	0.17551233
194	0xbe9ae584	-0.30253232
195	0xbe3e9256	-0.1861051
196	0xbf0fb627	-0.5613732
197	0xbecfbeb8	-0.40575194
198	0xbd6c672f	-0.05771559
199	0x3e9847c5	0.29742256
200	0x3e334b1b	0.17509119
201	0xbe839771	-0.25701478
202	0xbf08702d	-0.53296167
203	0xbe187693	-0.14888982
204	0xbeec915f	-0.4620466
205	0x3ea69090	0.32532167
206	0xbe770a81	-0.241251
207	0xbdc322a6	-0.09528093
208	0xbd9f4ea8	-0.07778674
209	0x3c606dd3	0.013698059
210	0xbea5d9a1	-0.323926
211	0xbf0f3312	-0.559373
212	0x3da142c5	0.078740634
213	0x3e136904	0.14395529
214	0xbe830d10	-0.25595903
215	0xbdd1abcb	-0.10237845
216	0x3ec22964	0.37922204
217	0x3d4878d9	0.048943374
218	0x3e768531	0.24074246
219	0x3e3460bc	0.17615026
220	0x3e9056bd	0.28191176
221	0xbddf803e	-0.10913132
222	0xbe4a8e38	-0.19780815
223	0x3d72b8dd	0.05925833
224	0x3e1f662f	0.15566324
225	0x3dbcefb2	0.09225406
226	0xbf035669	-0.51303726
227	0x3d06e233	0.032930564
228	0x3e97c522	0.29642588
229	0xbe556adb	-0.20841543
230	0x3e64a9b9	0.22330369
231	0x3dfe242f	0.12409245
232	0xbe9cc49f	-0.3061876
233	0x3e8f228a	0.2795604
234	0xbe898826	-0.26861686
235	0x3eb49dc6	0.35276622
236	0x3e5cdc97	0.21568523
237	0x3ec6697c	0.38752353
238	0x3dcd6bd8	0.10030335
239	0x3ea84653	0.32866153
240	0x3d6dee03	0.058088314
241	0x3cb8de49	0.022566931
242	0x3e1e4a86	0.15458116
243	0x3e905b5b	0.281947
244	0x3da3dc86	0.08001046
245	0x3de8db3f	0.11369943
246	0xbf02913f	-0.5100288
247	0xbe96fdca	-0.294905
248	0x3e98edcc	0.29868925
249	0xbe646520	-0.22304201
250	0x3e30c8d4	0.1726411
251	0x3e6ac973	0.2292841
252	0xbe81dfa7	-0.25365946
253	0xbe793cf7	-0.24339662
254	0x3e4e6b58	0.20158136
255	0x3dd43d3d	0.10363243

net.2.weight f4 [256, 256]
0	0xbd326844	-0.043556467
1	0x3aaf8194	0.0013390058
2	0xbe33094d	-0.17484017
3	0x3ce294a2	0.027658764
4	0xbcde1ee1	-0.027114334
5	0xbbe6fd03	-0.0070492043
6	0x3aae1e61	0.00132842
7	0x3be73c3c	0.007056741
8	0x3e4a6ca0	0.19768
9	0x3def44d0	0.11683047
10	0xbd66fef6	-0.056395493
11	0xbd482baf	-0.048869785
12	0x3ca35622	0.019938532
13	0x3da3aebb	0.079923116
14	0xbb2cb596	-0.002635335
15	0x3db9409b	0.09045526
16	0x3d73c362	0.059512503
17	0x3d7c6cf0	0.06162733
18	0x3d3bb6a4	0.045828477
19	0xb98712ea	-0.000257633
20	0xbdb31f19	-0.08746166
21	0x3c3d6c70	0.011561498
22	0x3e64c212	0.22339657
23	0xbcc9d6c8	-0.024638548
24	0x3c1fd889	0.009756216
25	0xbca8acb0	-0.020590156
26	0x3d03e516	0.032200895
27	0xbd25bad4	-0.040461376
28	0xbc7df928	-0.015501298
29	0x3d3c5ca6	0.045986794
30	0x3d77d272	0.06050343
31	0x3d616a81	0.05503321
32	0xbc6d4ba8	-0.01448337
33	0x3d099d1c	0.033597097
34	0xbd004847	-0.03131893
35	0x3d44fb24	0.04809107
36	0x3d3297b4	0.043601707
37	0x3e046469	0.12928928
38	0xbcee18e1	-0.029064598
39	0x3cee22de	0.02906936
40	0x3d80a384	0.06281188
41	0xbcf6c8ef	-0.03012511
42	0x3bc4b7f4	0.0060033742
43	0xbd4572dc	-0.04820524
44	0x3c9489e4	0.018132158
45	0xbd8b8749	-0.06812913
46	0x3d4be873	0.049782228
47	0x3cc43e0a	0.023955364
48	0x3d3e6929	0.046487007
49	0x3b1a923f	0.0023585705
50	0x3d33f5bb	0.04393552
51	0xbc1339bb	-0.008985932
52	0x3d7d3916	0.06182202
53	0xbbd39f87	-0.006458226
54	0xbce60de9	-0.028082805
55	0xbd27f4b2	-0.041004844
56	0xbca44464	-0.020052142
57	0xbe0bbf8f	-0.13647293
58	0x3d3f7248	0.046739846
59	0x3d1fc1f0	0.039003313
60	0xbe311688	-0.17293751
61	0xbbabb704	-0.005240323
62	0x3d413e3a	0.047178484
63	0x3ccc6c90	0.02495411
64	0xbd7225f0	-0.05911821
65	0xbe53ec1a	-0.20695534
66	0xbbd6c081	-0.00655371
67	0x3c91901c	0.017768912
68	0xbe59528c	-0.21222895
69	0x3d4b675f	0.04965913
70	0xbe102178	-0.14075267
71	0x3d80a7fb	0.0628204
72	0x3d3fe87d	0.046852577
73	0xbcf61602	-0.030039791
74	0xbdadd96b	-0.08488735
75	0xbde455da	-0.111491874
76	0xbb8497e0	-0.004046425
77	0xbccbfca5	-0.024900744
78	0x3ca4d537	0.0201212
79	0xbd780e7a	-0.06056068
80	0x3c27c7fa	0.010240549
81	0xbd45df34	-0.048308566
82	0x3d1d0ef6	0.038344346
83	0x3ce08f50	0.027412087
84	0xbb4654d6	-0.0030262969
85	0xbd9a5fc1	-0.07537795
86	0x3cde33d5	0.027124325
87	0xbbe7e925	-0.0070773535
88	0xbca64a60	-0.020299137
89	0xbc1e0789	-0.009645351
90	0x3c678d64	0.014132831
91	0xbcdbe7d8	-0.02684395
92	0x3d337e49	0.043821607
93	0xbd773dc7	-0.06036165
94	0xbd3380a3	-0.04382385
95	0xbd7d0012	-0.061767645
96	0x3c97a055	0.01850907
97	0xbe057566	-0.13033065
98	0x3ca7ba7e	0.020474669
99	0xbe039dbb	-0.12853138
100	0x3cf160ec	0.029465161
101	0x3d4976a3	0.049185406
102	0xbc4422f9	-0.011971229
103	0x3d295ee5	0.041350264
104	0xbd4eea53	-0.050516438
105	0x3d36dd4a	0.04464463
106	0xbc463b39	-0.012099081
107	0x3b2d5926	0.0026450842
108	0xbcfeda97	-0.031110091
109	0x3b8706a0	0.004120663
110	0x3caf2a68	0.021382526
111	0x3c86ba48	0.016446248
112	0x3d70b068	0.058761984
113	0xbe958888	-0.29205728
114	0x3cecfd48	0.028929368
115	0xbe249902	-0.16073993
116	0xbe261bcc	-0.16221541
117	0xbd437ad1	-0.04772455
118	0x3b4f06a7	0.0031589658
119	0x3d1e9074	0.03871198
120	0xbb059f5b	-0.0020389173
121	0xbdd57009	-0.1042176
122	0xbc7c1974	-0.015386928
123	0xbd64c31b	-0.05585013
124	0xbd434996	-0.0476776
125	0xbdc54dcd	-0.0963398
126	0xbd8e2e3d	-0.06942413
127	0xbdaf417b	-0.08557411
128	0xbd7fb4fa	-0.062428452
129	0xbd805a7e	-0.0626726
130	0xbd517fa0	-0.051147103
131	0xbc82a770	-0.015948981
132	0x3d68de62	0.056852706
133	0x3caeb984	0.021328695
134	0x3dc089b2	0.09401263
135	0xbbecadc5	-0.0072228634
136	0x3d9bc4ce	0.07605897
137	0xbc9aff3b	-0.018920531
138	0xbbcf823c	-0.006332664
139	0xbdae6cce	-0.085168466
140	0x3cf66570	0.030077666
141	0xbd21129d	-0.03932439
142	0xbd97c61b	-0.074108325
143	0x3c0dafd5	0.008647879
144	0xbd505ed4	-0.050871685
145	0xbb297e95	-0.0025862802
146	0x3d3dc417	0.046329584
147	0xbd431346	-0.047625802
148	0x3c90f9d8	0.01769726
149	0xbc7b6567	-0.015344
150	0x3bebd42b	0.0071969233
151	0x3ce2c7bc	0.027683131
152	0xbdb7085a	-0.0893714
153	0xbd297ce7	-0.04137888
154	0xbdb031ef	-0.08603274
155	0x3cfa4aee	0.030553307
156	0xbb009680	-0.0019620955
157	0xbe06cabf	-0.13163279
158	0xbd8a5b9a	-0.06755753
159	0xbcb32976	-0.021870356
160	0xbdf2e7e4	-0.11860636
161	0xbd7cd9a0	-0.06173098
162	0xbda56cb2	-0.080773726
163	0xbcff66b3	-0.0311769
164	0xbd185344	-0.037188783
165	0xbd817b7b	-0.0632238
166	0xbe41d2c6	-0.1892806
167	0xbcbb5648	-0.02286829
168	0x3cbcdc21	0.023054184
169	0x3d442e9b	0.04789601
170	0xbd0e563a	-0.0347502
171	0xbe1c6041	-0.15271093
172	0x3d3e3b2e	0.046443157
173	0x39e875ff	0.00044338402
174	0x3d1edf47	0.038787153
175	0xbd4d318f	-0.05009609
176	0xbe7d6f2d	-0.24749441
177	0xbc2b30b9	-0.010448628
178	0xbbc55a17	-0.0060227024
179	0xbd7cd334	-0.061724856
180	0x3cd71f84	0.026260145
181	0xbc4c1545	-0.012456243
182	0xbe2846fb	-0.16433327
183	0x3c4fe211	0.012688176
184	0x3c2f25e0	0.010690182
185	0x3cbb8d14	0.02289442
186	0xbd406a5c	-0.046976432
187	0xbd0bc820	-0.0341264
188	0xbcd16119	-0.025558995
189	0x3d78bcd7	0.060726967
190	0xbe85cb0a	-0.2613147
191	0x3beeb174	0.0072843377
192	0xbe210df6	-0.15727982
193	0xbca37a85	-0.019955883
194	0x3d7d5646	0.061849855
195	0xbc4a190a	-0.012335071
196	0xbbacdbf0	-0.005275242
197	0xbe2367f5	-0.15957625
198	0x3d277f61	0.040892962
199	0x3c0f35a0	0.008740813
200	0xbbeaca9d	-0.0071652667
201	0xbcf1fc48	-0.029539242
202	0x3c8dee10	0.017325431
203	0x3cd0af0a	0.02547409
204	0x3d536f1b	0.05161963
205	0xbcf52cda	-0.029928613
206	0xbdbce013	-0.09222426
207	0x3d4237c6	0.04741647
208	0xbd98c026	-0.074585244
209	0xbdc05bce	-0.0939251
210	0x3d23fb1b	0.040034395
211	0x3d504202	0.0508442
212	0x3b4ecc4d	0.0031554878
213	0x3cfae9b4	0.030629016
214	0xbd7e2e38	-0.062055796
215	0xbcd6d63c	-0.026225202
216	0x3d8c2a81	0.068440445
217	0xbddecbd7	-0.10878723
218	0xbd37a60f	-0.0448361
219	0x3d08ded2	0.033415623
220	0xbd8718b6	-0.0659651
221	0x3c672dad	0.014110011
222	0x3c7bb7ef	0.015363677
223	0xbcc36b44	-0.02385486
224	0x3c555878	0.013021581
225	0xbd32d69c	-0.0436617
226	0xbd0a2f56	-0.03373655
227	0xbc989e38	-0.018630132
228	0x3c1f6072	0.009727584
229	0xbd058aab	-0.032602947
230	0x3d9925d4	0.07477918
231	0xbcada61a	-0.021197367
232	0x3c4d79bb	0.01254123
233	0xbd495a00	-0.049158096
234	0x3ca76c2b	0.02043732
235	0xbc4c753f	-0.0124791255
236	0x3b5be963	0.0033555857
237	0x3dc8cd85	0.09804825
238	0x3c62751b	0.013821865
239	0xbd37d52d	-0.044881035
240	0x3accac43	0.0015615303
241	0x3c2d6723	0.010583672
242	0xbd63c3b7	-0.05560657
243	0x3c728a1a	0.014803434
244	0xbd3b2003	-0.045684826
245	0xbd4969fd	-0.049173344
246	0xbb6c8b13	-0.0036093637
247	0xbd690f99	-0.05689964
248	0x3d39e407	0.04538348
249	0x3ccbe3d8	0.024888918
250	0xbc29e620	-0.0103698075
251	0xbd402611	-0.046911303
252	0x3caf64c4	0.021410353
253	0x3cd5a623	0.026080197
254	0xbc31ba3a	-0.0108476225
255	0x3c34a485	0.011025553

net.2.bias f4 [256]
0	0xbc502309	-0.0127036655
1	0xbd0d6767	-0.03452244
2	0xbd7220e8	-0.059113413
3	0xbd460931	-0.04834861
4	0x3cb26d20	0.02178055
5	0x3cfac839	0.030613052
6	0x3d05bcc6	0.03265073
7	0xbc575353	-0.013142425
8	0xbd6af39a	-0.057361223
9	0x3cfd7981	0.030941727
10	0x3c982376	0.018571597
11	0xbca15f36	-0.01969872
12	0xbca6b858	-0.020351574
13	0xbc8bab6c	-0.017049514
14	0xbd8b0deb	-0.06789764
15	0x3c8133c0	0.015771747
16	0xbc80c9e9	-0.015721278
17	0x3c9f69a8	0.01945956
18	0xbc489ec6	-0.012244886
19	0x3cc9c430	0.024629682
20	0xbcc8a316	-0.024491828
21	0xbcf9d63e	-0.030497666
22	0xbc3c06c2	-0.011476221
23	0xbd1b0813	-0.037849497
24	0xbd8f6971	-0.07002533
25	0xbcafb40c	-0.021448158
26	0xbd75bdac	-0.05999534
27	0xbc847099	-0.016166972
28	0xbb883f65	-0.004157948
29	0x3d71bae0	0.05901611
30	0xbd2e02da	-0.04248319
31	0xbd86a991	-0.06575311
32	0xbd5208ae	-0.05127781
33	0x3d07d440	0.0331614
34	0xbd3a1313	-0.045428347
35	0xbd8a2449	-0.06745202
36	0xbdb5f08a	-0.0888377
37	0x3c91defc	0.017806523
38	0xbd4b008d	-0.049561072
39	0x3c04c728	0.008104123
40	0xbd71a1a6	-0.05899205
41	0xbd08c727	-0.03339305
42	0x3cdfac23	0.02730376
43	0x3c7b8628	0.01535181
44	0x3cc22fb8	0.023704395
45	0x3d2ed593	0.04268415
46	0xbd70cd57	-0.058789577
47	0x3c088984	0.0083335675
48	0xbca117e2	-0.019664709
49	0x3c44895c	0.01199564
50	0xbcc7a7eb	-0.024372062
51	0xbd2786a8	-0.040899903
52	0xbd867d2b	-0.06566843
53	0xbc04f9a6	-0.008116161
54	0xbcfaed2a	-0.030630667
55	0xbcc3b344	-0.023889191
56	0xbc2b9d45	-0.010474508
57	0x3c036480	0.008019567
58	0xbd044bf0	-0.032298982
59	0xbd80e85f	-0.06294321
60	0x3d27c710	0.040961325
61	0xbbfa51b3	-0.007639134
62	0xbd1783b0	-0.03699082
63	0xbd90e1a4	-0.070742875
64	0xbd86a150	-0.06573737
65	0x3bdc94df	0.006731614
66	0xbd896029	-0.06707794
67	0xbd28d45f	-0.041218158
68	0x3c8a1e59	0.016860174
69	0xba0aeb37	-0.0005299332
70	0xbd833001	-0.064056404
71	0x3c9ea246	0.019364487
72	0xbd9a0a36	-0.07521479
73	0xbd0591da	-0.032609798
74	0xbc8a1171	-0.01685402
75	0x3cbe4748	0.023227349
76	0xbd866904	-0.06562999
77	0x3ce7b003	0.028282171
78	0xbc9a61d1	-0.01884547
79	0x3b1d9123	0.0024042807
80	0xbd6c0029	-0.05761734
81	0x3d58b36c	0.052905485
82	0xbd109dea	-0.03530685
83	0x3cdae26c	0.026719294
84	0xbdaec1f4	-0.085330874
85	0xbbebb6fa	-0.0071934434
86	0x3c990422	0.018678728
87	0x3cbe216f	0.023209302
88	0xbc03ccf5	-0.008044471
89	0xbd5f2d20	-0.054486394
90	0xbd08fdcf	-0.033445176
91	0x3c45789a	0.012052679
92	0xbc9a610a	-0.0188451
93	0xbc236734	-0.009973336
94	0x3cdd3a82	0.027005438
95	0xbbf5ec10	-0.0075049475
96	0xbd669850	-0.0562976
97	0x3cde5285	0.027138958
98	0xbbe2ae99	-0.0069177863
99	0xbc8ae50e	-0.016954925
100	0xbd2e4c7f	-0.04255342
101	0x3d3e91ec	0.04652588
102	0xbd540c43	-0.051769506
103	0x3d23c99d	0.039987195
104	0xbd9d0d6e	-0.07668577
105	0xbd3d3e00	-0.046201706
106	0x3d1c0dd5	0.03809913
107	0xbde84517	-0.11341303
108	0x3c82388e	0.015896108
109	0xbd6253a6	-0.055255555
110	0x3ce0f3ef	0.027460067
111	0xbd2a7ef9	-0.041624997
112	0x3ceb5ea6	0.028731655
113	0xbcc7b1b7	-0.024376733
114	0xbd24a2a6	-0.040194176
115	0xbd875ee8	-0.06609899
116	0xbb8e1b73	-0.0043367683
117	0x3a29af09	0.00064729206
118	0xbb644612	-0.0034831804
119	0xbd91a563	-0.07111623
120	0xbb227a1a	-0.0024792016
121	0xbd190c38	-0.03736517
122	0xbb9ee62c	-0.004849216
123	0xbce7bf65	-0.028289506
124	0x3cc58f95	0.024116317
125	0xbdb17b80	-0.08666134
126	0xbd917634	-0.071026236
127	0xbd0560cb	-0.032563012
128	0xbcf36a55	-0.029713789
129	0xbd9052b2	-0.07047023
130	0x3c8fe518	0.017565295
131	0x3ccf118d	0.025276924
132	0xbd91e2fb	-0.07123371
133	0x3c33a3d7	0.010964355
134	0x38d7b55c	0.0001028578
135	0xbca56735	-0.020190815
136	0x3d297c24	0.041378155
137	0xbd5be1d1	-0.053682152
138	0xbd945ede	-0.07244657
139	0x3cc9c4c1	0.024629952
140	0xbcbf32c0	-0.02333963
141	0xbd9fa091	-0.077942975
142	0xb9e28511	-0.0004320522
143	0xbcd186d1	-0.02557698
144	0xbc842db8	-0.016135082
145	0x3c2c4c69	0.0105162645
146	0x3d262a92	0.040567942
147	0xbd3f06ae	-0.04663723
148	0x3bba7fe4	0.0056915153
149	0xbd34e5b2	-0.044164367
150	0x3cf23c29	0.029569702
151	0xbcc8cd73	-0.024512028
152	0xbb06eb72	-0.0020587114
153	0xbd3d6364	-0.046237364
154	0xbd487332	-0.048937984
155	0xbc8f2743	-0.017474776
156	0xbb511c9b	-0.003190792
157	0x3b5a540e	0.003331426
158	0x3dc41920	0.09575105
159	0x3c267d82	0.010161759
160	0x3d071f4c	0.03298883
161	0xbd742393	-0.05960424
162	0x3cfecf44	0.031104691
163	0x3bc51ff9	0.0060157743
164	0x3d0b3d4f	0.033994015
165	0x3cad7c11	0.021177324
166	0xbd401bce	-0.046901517
167	0xbd648878	-0.05579421
168	0xbdbb876b	-0.09156688
169	0xbcb5cb95	-0.022191802
170	0xbd83df2b	-0.0643905
171	0xbb82e902	-0.003995062
172	0xbc8325a8	-0.016009167
173	0x3c82deca	0.015975375
174	0xbb72b6d5	-0.0037035246
175	0xbd6865dc	-0.056737766
176	0xbd1ae219	-0.03781328
177	0x3cf0cda1	0.029394927
178	0xbd92ef9e	-0.071746096
179	0xbd7ce479	-0.061741326
180	0xbc94acf1	-0.018148871
181	0x3d8e3c3b	0.06945082
182	0xbc8cfd4c	-0.017210625
183	0xbdf316a4	-0.11869553
184	0xbd090b5d	-0.033458102
185	0xbd9ad837	-0.07560771
186	0xbc88b60c	-0.01668837
187	0xbd1c45b8	-0.038152426
188	0xbc2bf006	-0.010494238
189	0xbccf239d	-0.025285536
190	0x3c59cb4e	0.0132931005
191	0xbd370c30	-0.044689357
192	0x3c556446	0.013024395
193	0xbd8e8ddd	-0.06960652
194	0xbce9c9a5	-0.028538534
195	0x3c6021da	0.013679946
196	0x39a7272a	0.00031881902
197	0xba8cb96e	-0.0010736415
198	0xbd68f902	-0.056878097
199	0xbd24a364	-0.040194884
200	0xbd89effb	-0.06735226
201	0xbd789b8c	-0.060695216
202	0xbd297538	-0.041371554
203	0xbc119853	-0.008886415
204	0xbca3783b	-0.019954791
205	0x3b1f7033	0.002432835
206	0x3d60263b	0.05472396
207	0xbd8d0a8a	-0.06886776
208	0x3ce66cc0	0.028128028
209	0xbc819edf	-0.015822826
210	0xbd97e854	-0.0741736
211	0x3c6904d4	0.0142223425
212	0x3d0f52d9	0.03499112
213	0xbcc52cfb	-0.0240693
214	0xbd855d26	-0.06511907
215	0xba81a79b	-0.0009891869
216	0x3d06aff1	0.032882635
217	0x3d10ac97	0.035320845
218	0x3bcc5dba	0.006236759
219	0xbd65cf4c	-0.056105897
220	0xbcc9c9c6	-0.024632346
221	0xbd5041fb	-0.050844174
222	0x3cd235d8	0.02566044
223	0x3c627744	0.01382238
224	0xbcc4b257	-0.02401082
225	0xbdd23ada	-0.10265131
226	0xba903700	-0.0011002719
227	0xb9cabffc	-0.00038671482
228	0xbd87cb3d	-0.066305615
229	0xbd26f68a	-0.04076246
230	0xbd1c7ad8	-0.03820309
231	0xbd89c401	-0.06726838
232	0xbc33791b	-0.010954167
233	0xbcb05599	-0.021525191
234	0x3d05d09b	0.032669645
235	0xbc65d5ac	-0.014027994
236	0x3d220bfd	0.039562214
237	0xbc858caf	-0.016302435
238	0x3d2a93c9	0.041644845
239	0xbd36d6ff	-0.04463863
240	0xbd60884e	-0.05481749
241	0x3c1387bd	0.0090045305
242	0x3c1de6c3	0.009637537
243	0x3c413153	0.011791545
244	0xbb06a2c3	-0.002054379
245	0xbd4acc3e	-0.049511187
246	0xbd13319c	-0.035935983
247	0xbd6e905d	-0.058243144
248	0xbd155de8	-0.03646651
249	0x3c5c0f4b	0.0134313805
250	0xbd870afe	-0.065938935
251	0xbd0a1edd	-0.03372084
252	0xbbc0317d	-0.0058652745
253	0xbc0c833e	-0.008576212
254	0xbc454712	-0.01204087
255	0xbd16faca	-0.036860265

net.4.weight f4 [256, 256]
0	0xbd13d66f	-0.03609317
1	0xbcb80db7	-0.022467477
2	0xbccb8990	-0.024845868
3	0xbd901d73	-0.07036867
4	0xbdd04f4e	-0.10171376
5	0xbb4b4b00	-0.0031020045
6	0x3c9608b2	0.018314693
7	0xbc42429e	-0.011856703
8	0x3df816fe	0.121137604
9	0x3cee86f6	0.029117089
10	0xbd2b3778	-0.041800946
11	0xbd5689dc	-0.052377567
12	0x3c5465f0	0.012963757
13	0xbccf9730	-0.025340647
14	0xbc403d90	-0.011733428
15	0xbc5328f4	-0.012888182
16	0xbce8d161	-0.028420152
17	0xbdc0f835	-0.09422342
18	0x3d262251	0.04056007
19	0xbcf70c17	-0.030157132
20	0x3ce57075	0.028007725
21	0x3c00dbbe	0.007864891
22	0x3d8c612d	0.06854472
23	0x3e2667b3	0.16250496
24	0xbd34e5d4	-0.044164494
25	0x3e3d45c8	0.1848365
26	0xbd8c1400	-0.06839752
27	0xbc470993	-0.012148279
28	0x3d50322f	0.05082911
29	0xbd52045a	-0.05127368
30	0x3c9d45b3	0.019198274
31	0x3d3cfe7f	0.046141144
32	0xb9c00a00	-0.00036628544
33	0xbd8ebf54	-0.06970087
34	0xbd247fc8	-0.040160924
35	0x3d2878c4	0.041130796
36	0xbec5919f	-0.38587663
37	0x3c6121ae	0.01374094
38	0x3e241188	0.16022313
39	0xbc635158	-0.013874374
40	0x3d07f868	0.033195883
41	0xbc108905	-0.0088217305
42	0x3c88b674	0.016688563
43	0x3d6be2f9	0.057589505
44	0xbc1e5dbe	-0.009665905
45	0x3b1d5533	0.0024007082
46	0xbc8b31ff	-0.016991613
47	0xbdbf42e0	-0.09338927
48	0x3d425e60	0.047453284
49	0x3cade310	0.021226436
50	0x3e750cff	0.23930739
51	0x3d5bf6f6	0.053702317
52	0x3ea631ac	0.32459772
53	0x3e1ab833	0.15109329
54	0xbcb2ee35	-0.021842102
55	0x3e8d5ed2	0.27611405
56	0xbd3fa924	-0.046792164
57	0xbdb8d82a	-0.09025605
58	0x3e825ff7	0.2546384
59	0x3c675f70	0.014121875
60	0xbd854804	-0.065078765
61	0x3dff3bbb	0.124625646
62	0x3cb79d45	0.02241386
63	0x3e061d7a	0.13097182
64	0xbbc03f24	-0.005866902
65	0x3d9639ab	0.07335218
66	0xbd74f1e6	-0.059801005
67	0x3d189ba6	0.037257813
68	0xbe02425f	-0.12720631
69	0xba27fb18	-0.00064079603
70	0x3e204d5d	0.15654512
71	0xbe9a9220	-0.3018961
72	0xbe1d75e0	-0.15376997
73	0x3cb3d73f	0.021953223
74	0x3e6016a2	0.21883634
75	0xbd542823	-0.05179609
76	0x3ce9b67a	0.028529394
77	0xbccd1c78	-0.025037989
78	0xbc9e411c	-0.019318156
79	0xbcbd4152	-0.023102436
80	0xbc59fcc2	-0.013304891
81	0xbaf98f00	-0.001903981
82	0xbd220745	-0.039557714
83	0xbd873748	-0.06602341
84	0x3cf42140	0.029801011
85	0x3d06f849	0.032951627
86	0x3d4cb6af	0.04997891
87	0x3cce3707	0.025172723
88	0xbc29aa79	-0.010355585
89	0xbd1b1134	-0.037858203
90	0x3e3bd8f6	0.18344483
91	0x3c71801c	0.014740016
92	0x3cd9707f	0.0265429
93	0x3d67e2a8	0.05661264
94	0xbd9058c7	-0.07048183
95	0xbc4a9eb8	-0.012366943
96	0x3e387a32	0.18015364
97	0x3c7f0ee0	0.015567511
98	0x3d52a18e	0.0514236
99	0x3d058428	0.032596737
100	0x3de5b418	0.11215991
101	0xbc8ac29d	-0.016938502
102	0x3d88a95e	0.06672929
103	0xbdda989d	-0.1067364
104	0x3d80cf08	0.06289488
105	0x3db020b3	0.08599987
106	0xbe649798	-0.22323453
107	0x3d650067	0.055908587
108	0x3d09e976	0.03366991
109	0xbc100868	-0.008791067
110	0xbec93d2f	-0.39304492
111	0x3e939492	0.28824288
112	0x3c09d5ed	0.00841282
113	0x3dd3f3e4	0.10349253
114	0xbd31c200	-0.043397903
115	0xbe81640c	-0.25271642
116	0x3dec7364	0.115454465
117	0xbd933d53	-0.07189431
118	0xbd8a42f6	-0.06751053
119	0x3daabf29	0.08337242
120	0x3c44f5eb	0.012021522
121	0xbca788c4	-0.020450957
122	0xbca9aaaf	-0.020711271
123	0xbd51c62e	-0.05121439
124	0xbddb2406	-0.1070023
125	0x3e9d5684	0.3073007
126	0x3dbf1bf5	0.09331504
127	0x3ca51fbc	0.020156734
128	0x3d8b3489	0.0679713
129	0xbdc251ba	-0.09488244
130	0x3dca3c04	0.09874728
131	0xbcf26b95	-0.029592315
132	0x3d28217c	0.04104756
133	0xbd80694c	-0.06270084
134	0xbcfe3ee9	-0.031035857
135	0xbbb4c1b9	-0.0055162576
136	0x3e04ad1a	0.12956658
137	0xbd9dbfe0	-0.07702613
138	0xbcc9700b	-0.024589559
139	0x3e05a733	0.13052063
140	0x3d70d55e	0.058797233
141	0xbc8338f5	-0.01601837
142	0x3cb4d2a1	0.022073092
143	0x3ced1f80	0.028945684
144	0x3e809f15	0.2512137
145	0xbdacc565	-0.084360875
146	0xbce85b34	-0.028363802
147	0x3d648942	0.05579496
148	0xbdf3fbda	-0.11913271
149	0xbd835b65	-0.064139165
150	0xbd3cf72c	-0.04613416
151	0x3b897d08	0.004195813
152	0x3b11732c	0.0022193892
153	0x3dd653a1	0.1046517
154	0x3e0781a2	0.13233045
155	0x3d254502	0.040349014
156	0xbceaea05	-0.028676042
157	0x3d5072ef	0.05089086
158	0xbcad05d3	-0.021120941
159	0xbd632005	-0.055450458
160	0x3e0ba550	0.1363728
161	0x3e302a0c	0.1720354
162	0xba6de13e	-0.0009074396
163	0xbcbaed60	-0.022818267
164	0x3c1a7836	0.009428075
165	0xbda9d885	-0.08293251
166	0xbcfef912	-0.031124625
167	0xbc6c824b	-0.014435361
168	0xbd0acde2	-0.03388775
169	0xbdc0a168	-0.09405786
170	0xbd492ee4	-0.049116984
171	0xbd66d7af	-0.056358036
172	0x3e532bd8	0.20622194
173	0x3e362710	0.17788339
174	0x3c242b11	0.010020033
175	0xbd73cce4	-0.05952157
176	0xbd59e4e4	-0.053196803
177	0x3d5c5e8a	0.053801097
178	0xbd93e57d	-0.07221506
179	0xbbb0a2c2	-0.005390496
180	0x3cd6ca1d	0.026219422
181	0xbe1435ba	-0.1447362
182	0x3e1bc1dd	0.15210672
183	0x3e46afe3	0.19403033
184	0xbce41a3b	-0.027844539
185	0x3e812e52	0.25230652
186	0x3d26d76e	0.040732794
187	0x3e718411	0.23585536
188	0xbd07f569	-0.033193026
189	0xbd258ab8	-0.040415496
190	0xbd169d17	-0.036770906
191	0xbe084b18	-0.13309896
192	0xbd5789f3	-0.052621793
193	0x3e03f030	0.12884593
194	0x3e49f52d	0.19722433
195	0x3c406c60	0.011744589
196	0x3ddf921b	0.10916539
197	0xbd6872b6	-0.056750022
198	0x3d4bf104	0.049790397
199	0x3dd7d774	0.10539141
200	0xbcd7b811	-0.026332887
201	0xbd934e87	-0.07192712
202	0x3d456302	0.048190124
203	0xbb652460	-0.0034964308
204	0x3e5f4577	0.21803842
205	0x3d1aee87	0.037825134
206	0x3b23277e	0.0024895365
207	0x3cd5cc15	0.02609829
208	0xbc10e85d	-0.008844462
209	0x3d3e8554	0.04651387
210	0x3db13c34	0.08654061
211	0xbccc792d	-0.024960125
212	0x3e830c48	0.25595307
213	0x3dadfe95	0.08495823
214	0xbcdeea5e	-0.027211364
215	0xbd48c169	-0.049012575
216	0xbdc1a37b	-0.094550095
217	0x3cf81d6b	0.030287465
218	0xbdbe1e36	-0.09283106
219	0x3e1455b8	0.14485824
220	0xbe0b29c5	-0.13590153
221	0x3d864e8a	0.06557949
222	0xbb33c6c0	-0.0027431697
223	0x3a98e196	0.001166391
224	0x3e88dc24	0.26730454
225	0x3e8e42dd	0.27785388
226	0xbc14dd40	-0.009085953
227	0x3c4bae73	0.012431729
228	0x3ebbef6b	0.367061
229	0x3ad45f40	0.0016202703
230	0x3e40831b	0.18800013
231	0xbda357f6	-0.079757616
232	0xbda1e5ee	-0.07905184
233	0x3de34a38	0.110981405
234	0xbefb48b6	-0.49078912
235	0xbdb2a9a3	-0.08723762
236	0xbd9761d4	-0.07391706
237	0xbe1bace2	-0.15202668
238	0x3bb5aa39	0.0055439738
239	0xbcc001c5	-0.023438344
240	0xbebe508d	-0.3717083
241	0x3cee1dc8	0.029066935
242	0x3c7e0d16	0.01550605
243	0xbc97a081	-0.018509151
244	0xbd893445	-0.06699423
245	0x3d0c943b	0.03432105
246	0x3d09f5d0	0.03368169
247	0x3c4450d8	0.011982165
248	0xbccacc50	-0.024755627
249	0x3b84f8f2	0.004057997
250	0x3c63c24f	0.013901307
251	0xbc976ff0	-0.018485993
252	0x3d71b6da	0.05901227
253	0x3cafa759	0.021442102
254	0x3d176ab4	0.036966994
255	0x3e273fbc	0.16332906

net.4.bias f4 [256]
0	0xbd25bb2b	-0.0404617
1	0xbb65ab66	-0.0035044788
2	0xbda21215	-0.07913605
3	0xbd0c19d3	-0.034204315
4	0x3e476c88	0.19474995
5	0xbd91f5ca	-0.07126959
6	0xbdd429b9	-0.103595205
7	0xbd705978	-0.058679074
8	0x3e044600	0.12917328
9	0x3daffa5d	0.08592675
10	0xbdcc05df	-0.09962057
11	0xbd3dbb06	-0.046320938
12	0xbdfa61fe	-0.12225722
13	0x3c08fc25	0.008360897
14	0x3e45b399	0.19306792
15	0x3e4dd77b	0.2010173
16	0xbd2e2d29	-0.042523537
17	0x3e135859	0.1438917
18	0x3dd95b37	0.10613101
19	0xbdb619ad	-0.08891616
20	0xbc1fb596	-0.009747883
21	0xbc802f96	-0.01564769
22	0xbb461e9b	-0.0030230645
23	0xbdcb7248	-0.09933907
24	0xbcfd335b	-0.030908277
25	0xbcf0f952	-0.02941576
26	0xbd71dcc5	-0.059048433
27	0x3db71e8b	0.089413725
28	0x3d2556d3	0.040366005
29	0xbd2ec623	-0.042669427
30	0xbdeec3f0	-0.11658466
31	0x3c8abfc9	0.016937153
32	0xbc3dca04	-0.011583809
33	0xbd0d2f79	-0.0344691
34	0xbd472fe3	-0.048629653
35	0xbdc46f59	-0.095915504
36	0xbdb3072a	-0.08741601
37	0xbdaa0480	-0.083016396
38	0xbc057135	-0.008144666
39	0x3d17ecc0	0.037091017
40	0xbdbc3d0f	-0.091913335
41	0xbd812b39	-0.06307072
42	0xbd638097	-0.055542555
43	0x3c5bf6d9	0.013425552
44	0x3dea91a8	0.11453563
45	0xbda6f101	-0.081514366
46	0xbd024f82	-0.031814106
47	0xbd4f62e7	-0.05063143
48	0xbcf9251a	-0.0304132
49	0x3de90985	0.11378769
50	0x3d7dcf36	0.06196519
51	0xbd783d5e	-0.0606054
52	0x3d5f8f4b	0.054580014
53	0xbd3dbe44	-0.04632403
54	0xbd8ff157	-0.07028454
55	0xbd83fc1b	-0.0644457
56	0xbd910c8a	-0.0708247
57	0xbddd268a	-0.10798366
58	0xbde41604	-0.11137012
59	0xbdcef1c3	-0.10104706
60	0xbd7f70c7	-0.062363412
61	0xbb9daca0	-0.0048118383
62	0x3e94afc0	0.29040337
63	0x3ab19cdf	0.001355078
64	0x3d83c366	0.06433754
65	0xbe213faf	-0.1574695
66	0xbd4cb47e	-0.04997682
67	0x3cdc48bd	0.026890153
68	0xbbbf440b	-0.005836969
69	0xbce6147f	-0.028085945
70	0xbd27c0b2	-0.040955253
71	0xbd9ca919	-0.0764944
72	0x3e36a6f3	0.17837124
73	0xbd32106f	-0.043472704
74	0xbd882f69	-0.06649668
75	0xbd1e1a2e	-0.038599186
76	0x3d2efd76	0.042722188
77	0xbc2f2fba	-0.010692531
78	0x3e175e47	0.14782058
79	0xbd0af5dd	-0.03392588
80	0xbd0cb0b5	-0.03434821
81	0xbb3fecc4	-0.002928541
82	0x3e592008	0.21203625
83	0xbd92c3a7	-0.07166224
84	0xbbc1bce6	-0.005912411
85	0xbcc588d0	-0.024113089
86	0x3e4dda5e	0.20102832
87	0x3cc253f9	0.023721682
88	0x3cf42d47	0.029806746
89	0xbdc7277b	-0.09724327
90	0xbd005f44	-0.031340852
91	0xbda86258	-0.082218826
92	0xbc52469c	-0.012834217
93	0xbd48dffa	-0.049041726
94	0x3e489b43	0.19590478
95	0xbd856b24	-0.06514576
96	0xbdc4f0d3	-0.09616246
97	0xbc285384	-0.010273818
98	0xbdabfbc3	-0.08397629
99	0xbac5776a	-0.0015065495
100	0xbcef13f0	-0.029184312
101	0xbd49b25e	-0.04924237
102	0x3df01364	0.117224485
103	0x3d0a2b80	0.03373289
104	0xbd03b85b	-0.032158237
105	0xbdb6463d	-0.08900116
106	0x3da8d52a	0.08243783
107	0xbde51910	-0.11186421
108	0x3e23b959	0.15988673
109	0xbe0d1041	-0.13775732
110	0x3d848e6d	0.06472478
111	0x3e2633bc	0.16230673
112	0x3e1378cb	0.14401548
113	0x3e130573	0.14357547
114	0xbb5c0708	-0.0033573527
115	0xbd576a13	-0.052591395
116	0xbda83db6	-0.082148954
117	0x3da7af96	0.08187787
118	0xbd12e061	-0.035858516
119	0x3e479c7a	0.19493285
120	0xbdf3f6ed	-0.11912332
121	0xbcde00cf	-0.027099995
122	0xbce2ee08	-0.027701393
123	0xbd1c5ce1	-0.038174514
124	0xbd6848c2	-0.056710012
125	0xbc65a92c	-0.0140173845
126	0xbd70b2e5	-0.058764357
127	0x3cfb0c4a	0.030645508
128	0xbd6a68e9	-0.057228956
129	0xbc15d0fc	-0.009144064
130	0x3d7471de	0.059678905
131	0xbce85394	-0.028360166
132	0xbdcb1389	-0.099158354
133	0xbbe026e5	-0.006840574
134	0x3e50f7d5	0.2040704
135	0xbc68b83b	-0.01420408
136	0xbbabb8b6	-0.005240525
137	0x3dde83b4	0.10864964
138	0xbdcf9de5	-0.10137538
139	0xbc942c46	-0.018087517
140	0x3e0659fa	0.13120261
141	0xbd47b71b	-0.048758607
142	0x3da820e9	0.08209402
143	0xbe1367ed	-0.14395113
144	0x3c925eed	0.01786753
145	0xbd222693	-0.03958757
146	0x3d5ef697	0.054434385
147	0xbd8c5779	-0.068526216
148	0x3c564394	0.013077635
149	0xbd99ff8f	-0.07519447
150	0x3b9f201d	0.004856123
151	0xbd70ff03	-0.058836948
152	0xbdf69829	-0.12040741
153	0xbd14a807	-0.036293056
154	0xbcb0875f	-0.021548925
155	0xbdc95efd	-0.09832571
156	0xbd65ce6b	-0.05610506
157	0x3e459759	0.19296016
158	0xbd54606e	-0.051849775
159	0xbdab3cab	-0.08361181
160	0xbcf3357f	-0.029688595
161	0x3db23969	0.08702356
162	0xbc1358cf	-0.008993342
163	0x3e550272	0.20801714
164	0xbd2792e5	-0.040911574
165	0xbd0d8617	-0.034551706
166	0x3e3df82a	0.18551698
167	0xbd384082	-0.044983394
168	0xbd14bd76	-0.036313497
169	0x3cc2ab3d	0.023763293
170	0xbdfc0bcb	-0.12306937
171	0x3d9050a1	0.07046629
172	0xbc9885f7	-0.018618567
173	0xbd3e8b0d	-0.046519328
174	0xbd8559ae	-0.06511246
175	0xbd04cff9	-0.0324249
176	0xbcc750b9	-0.024330484
177	0x3ce8115f	0.028328596
178	0x3cd70063	0.026245302
179	0x3e62412b	0.22095172
180	0x3d7729d1	0.060342614
181	0xbd8e062b	-0.0693477
182	0x3ca74100	0.020416737
183	0x3cfa4ddc	0.030554704
184	0x3d6b8066	0.057495497
185	0xbd5512e2	-0.05201996
186	0xbc8f6d94	-0.017508306
187	0xbda76b80	-0.08174801
188	0xbc0bcb3f	-0.008532344
189	0x3d35a2ea	0.04434482
190	0xbd93d62b	-0.07218584
191	0xbce10429	-0.027467804
192	0xbc6e095b	-0.014528598
193	0xbda59d2b	-0.08086618
194	0xbdacd43b	-0.08438917
195	0xbd954089	-0.072877
196	0x3ca77a7c	0.020444147
197	0x3d3f96b3	0.046774577
198	0x3d73a3fc	0.05948256
199	0xbda7b69e	-0.08189128
200	0x3cfba2f3	0.030717349
201	0x3b4ed402	0.0031559472
202	0xbd2b536f	-0.041827615
203	0x3ddb2aac	0.107014984
204	0xbcd13889	-0.025539653
205	0xbd1894d7	-0.03725132
206	0xbdb395ab	-0.08768781
207	0xbd940df4	-0.07229224
208	0x3e86b67d	0.26311103
209	0xbd8ba356	-0.06818263
210	0xbcf01e04	-0.029311188
211	0xbd15d7ad	-0.036582638
212	0x3e645cc7	0.22301017
213	0xbd2c08ea	-0.04200069
214	0xbd080f67	-0.033217814
215	0xbb307e61	-0.0026930796
216	0xbd23a6c8	-0.039953977
217	0xbd6e6479	-0.058201287
218	0xbb3712e3	-0.0027934841
219	0xbd8b78ed	-0.06810174
220	0xbd4f81ee	-0.05066102
221	0x3b8b3d7e	0.004249274
222	0xbd6b1fed	-0.057403494
223	0xbd860504	-0.065439254
224	0xbd5f0bbc	-0.05445455
225	0x3d3a300b	0.045455974
226	0xbd698c15	-0.05701836
227	0xbaf63692	-0.0018784574
228	0x3cc1c292	0.023652349
229	0xbce3a3b1	-0.027788015
230	0x3dddefd2	0.10836758
231	0x3b8e1563	0.0043360456
232	0xbd4fa482	-0.050693996
233	0xbe0cfcd9	-0.13768329
234	0xbc346b64	-0.011011932
235	0xb8b82633	-8.780919e-05
236	0xbd920199	-0.07129211
237	0x3c48a314	0.012245912
238	0x3e4d2489	0.20033468
239	0x3e572ec0	0.21013927
240	0x3db81748	0.089888155
241	0xbd6473cf	-0.055774506
242	0xbda6dafc	-0.08147237
243	0xbda93c55	-0.082634605
244	0xbcf27625	-0.029597351
245	0x3cb9a270	0.022660464
246	0xbd2cd0cd	-0.042191315
247	0xbb9e12d6	-0.0048240228
248	0xbcdbab85	-0.026815185
249	0x3dfd70e7	0.1237505
250	0x3e337085	0.17523392
251	0x3d905366	0.07047157
252	0x3bba940f	0.0056939195
253	0xbd9bfb2b	-0.07616266
254	0xbce54de8	-0.02799125
255	0xbde38dc5	-0.11111025

net.6.weight f4 [7, 256]
0	0x3eb14795	0.34624925
1	0xbcae44ca	-0.021273036
2	0x3d205864	0.039146796
3	0x3de42d11	0.11141408
4	0x3de11c2e	0.10991703
5	0x3dee975c	0.11649963
6	0xbd51ffb8	-0.051269263
7	0xbc18d1db	-0.009327377
8	0x3df42818	0.1192171
9	0x3da5ed9b	0.0810196
10	0xbd1f43fd	-0.038883198
11	0xbcab3414	-0.020898856
12	0xbe6afb67	-0.22947465
13	0x3dce6d45	0.10079435
14	0x3e35b181	0.17743494
15	0x3e1a48a0	0.15066767
16	0x3e6d9936	0.23202977
17	0x3dbaccd8	0.09121102
18	0x3dce5575	0.100748934
19	0xbce8a04d	-0.02839675
20	0xbcee8c2a	-0.02911957
21	0x3e745d59	0.23863734
22	0x3d2eb0e2	0.042649157
23	0x3eaccbbb	0.33749184
24	0x3d632fc6	0.055465482
25	0x3d6a0461	0.057133082
26	0xbe16665e	-0.14687487
27	0x3e04b91c	0.12961239
28	0x3ef6b6da	0.4818638
29	0xbe429a40	-0.19004154
30	0xbda2193a	-0.07914968
31	0x3cb64207	0.022248281
32	0xbdaa4621	-0.08314157
33	0x3d3a77a2	0.045524247
34	0x3d783888	0.060600787
35	0xbe98a09d	-0.29810038
36	0xbe9fec42	-0.31234938
37	0x3c2b3f3a	0.010452086
38	0x3ded202b	0.11578401
39	0x3e021ee6	0.127071
40	0xbc21144a	-0.009831497
41	0xbd025bc3	-0.031825792
42	0x3c0369dd	0.008020845
43	0x3c5c36f6	0.013440838
44	0x3dd6ea7c	0.10493943
45	0x392f1ef2	0.00016700829
46	0x3e98c21a	0.29835588
47	0xbc996278	-0.018723711
48	0xbd0cde7c	-0.034391865
49	0x3dbac286	0.09119134
50	0x3dee116c	0.11624417
51	0x3c0c9708	0.0085809305
52	0x3bac5071	0.005258613
53	0xbcce4852	-0.02518097
54	0x3e429aeb	0.19004409
55	0x3d0b0404	0.033939376
56	0x3e04fa35	0.12986071
57	0x3e667f63	0.22509532
58	0x3ebe2b35	0.3714234
59	0xbdd8f769	-0.10594065
60	0xbc3f5c7f	-0.011679768
61	0xbe180fff	-0.14849852
62	0x3e2fe05d	0.17175432
63	0x3d5bea47	0.05369022
64	0x3ddbcf23	0.107328676
65	0x3e75bc31	0.2399757
66	0x3c9d622a	0.019211847
67	0xbee061ee	-0.43824714
68	0x3dc94dfe	0.09829329
69	0x3bee1175	0.0072652646
70	0x3db06153	0.08612313
71	0xbda8f306	-0.08249478
72	0x3dbac6db	0.0911996
73	0xba2e4605	-0.0006648007
74	0xbd3fcde6	-0.04682722
75	0x3e83791c	0.25678337
76	0x3d56ee75	0.052473504
77	0xbdb8eaff	-0.09029197
78	0x3d9c9641	0.07645846
79	0x3e2ecfc5	0.17071445
80	0xbe101147	-0.14069091
81	0xbdd766ee	-0.10517679
82	0x3e135214	0.14386779
83	0xbd136582	-0.035985477
84	0x3d83f2c8	0.06442791
85	0x3ea2af94	0.3177458
86	0x3e1d34f2	0.15352228
87	0x3e2161c9	0.15759958
88	0xbc33c54d	-0.010972333
89	0xbda9b057	-0.08285587
90	0x3e4f9cfc	0.20274729
91	0xbd2930f0	-0.041306436
92	0x3d813d82	0.0631056
93	0x3bff6966	0.007794547
94	0x3e0659e4	0.13120228
95	0x3bd02bf0	0.006352894
96	0x3eb65fb5	0.35619894
97	0x3e40dc97	0.18834148
98	0xbd15daf9	-0.03658578
99	0xbe2ed86f	-0.1707475
100	0xbb72d5a0	-0.00370536
101	0x3d802177	0.06256383
102	0xbe10f5cc	-0.14156264
103	0xbdaad325	-0.08341054
104	0xbcd00f7c	-0.025398009
105	0x3b4408af	0.0029912402
106	0x3d27a8a9	0.04093233
107	0x3ce76fca	0.028251547
108	0x3dd15ad1	0.102224
109	0xbc79dffa	-0.015251154
110	0x3d66401c	0.056213483
111	0x3e0beec4	0.136653
112	0x3e75b7c6	0.23995885
113	0x3dbb5c67	0.09148484
114	0xbca29cb4	-0.019850112
115	0xbd906b71	-0.07051743
116	0x3c3901c8	0.011291929
117	0x3daf75a8	0.08567363
118	0xbbd11bba	-0.006381479
119	0x3e270082	0.16308787
120	0xbd94a686	-0.07258324
121	0x3e7b4209	0.24536909
122	0xbd504a4b	-0.0508521
123	0x3b51b7ee	0.00320005
124	0xbd4dfeb2	-0.050291725
125	0xbe8e5ae5	-0.27803722
126	0xbd979d91	-0.074031
127	0xbd4e7126	-0.050400876
128	0x3cbe4bb4	0.023229457
129	0xbd98154d	-0.07425938
130	0x3ba0b23e	0.0049040606
131	0xbdf303e8	-0.118659794
132	0x3ea00945	0.31257072
133	0x3ccbe344	0.024888642
134	0x3e01ef92	0.12689045
135	0x3e64f901	0.22360612
136	0x3d624f2d	0.05525129
137	0x3da0b5e7	0.07847195
138	0xbd5d4952	-0.054025
139	0xbd28aad5	-0.041178543
140	0x3dc7788d	0.0973979
141	0xbdcdccf8	-0.1004886
142	0x3d1375c2	0.036000974
143	0x3b04841e	0.002022035
144	0x3debdc49	0.115166254
145	0x3d8d4613	0.06898131
146	0xbe03f665	-0.12886961
147	0xbd6c6cff	-0.057721134
148	0xbbfa989d	-0.0076475875
149	0x3da918ec	0.082567066
150	0xbe3c0dab	-0.18364589
151	0xbd2f7162	-0.04283274
152	0xbcd2136c	-0.025644027
153	0xbee7598c	-0.45185506
154	0xbe2f33b1	-0.17109562
155	0xbd8552f9	-0.065099664
156	0x3d47d659	0.048788402
157	0x3dba27eb	0.09089645
158	0x3d87d497	0.06632345
159	0xbda4b055	-0.08041445
160	0x3d0675ba	0.032827117
161	0xbf040dd7	-0.5158362
162	0xbc6e0ca0	-0.014529377
163	0x3dfe5104	0.12417796
164	0x3d01bd8b	0.031674903
165	0xbe4225d3	-0.18959741
166	0x3e2d64e7	0.16933022
167	0xbeb336f9	-0.35002878
168	0x3d190af0	0.037363946
169	0x3c781aa6	0.015143072
170	0x3d5bb4d8	0.053639263
171	0x3e482518	0.195454
172	0xbe82f3e0	-0.25576687
173	0x3d8f06fb	0.06983753
174	0xbe37dcef	-0.17955373
175	0xbea8d787	-0.32976934
176	0x3c5b6891	0.01339163
177	0x3db82649	0.08991677
178	0x3a133c8b	0.00056166266
179	0x3e025143	0.12726311
180	0xbdf025f2	-0.117259875
181	0xbd9e90df	-0.07742476
182	0xbc822029	-0.015884476
183	0xbe4385af	-0.19093965
184	0x3c070d37	0.008242897
185	0xbb958a2c	-0.0045635905
186	0x3a23d6d5	0.0006249969
187	0x3d683c69	0.056698237
188	0x3e825828	0.25457883
189	0x3e1d06a6	0.15334567
190	0xbcf920e5	-0.030411193
191	0xbcdde6d0	-0.027087599
192	0xbb9fd622	-0.0048778215
193	0x3ddda147	0.10821777
194	0xbe3cb79d	-0.18429418
195	0xba2f5958	-0.00066890335
196	0xbdb815ab	-0.08988508
197	0x3d9f2bda	0.07772036
198	0x3dd49b44	0.10381177
199	0xbd92c33b	-0.071661435
200	0x3de0b4fe	0.109720215
201	0xbdfd2080	-0.123597145
202	0xbb3b2cc0	-0.0028560609
203	0x3d4c4d5a	0.049878456
204	0xbcad1dab	-0.02113231
205	0xbd4337f5	-0.047660787
206	0xbd53b514	-0.05168636
207	0x3d4ba457	0.049717274
208	0x3e2bb0ed	0.1676671
209	0x3d2c6dff	0.042097088
210	0xbdaf005a	-0.08544989
211	0x3d3e09ae	0.04639595
212	0x3e4021a7	0.18762837
213	0xbc82aaa1	-0.015950503
214	0xbc9d5302	-0.01920462
215	0x3da209da	0.07912035
216	0xbdf82b83	-0.12117674
217	0x3d226d65	0.039655108
218	0x3d445411	0.047931734
219	0x3d0d62a8	0.034517914
220	0xbd309499	-0.043110464
221	0x3e55966a	0.2085816
222	0x3daaed3a	0.083460286
223	0xbe08d510	-0.13362527
224	0x3d515e35	0.051115233
225	0x3e98871f	0.2979059
226	0xbeae4ac9	-0.34041432
227	0x3a0c76ac	0.00053582597
228	0x3dd18c89	0.10231883
229	0xbd11f705	-0.035635967
230	0x3e91d1fc	0.28480518
231	0xbd61cbee	-0.055126123
232	0x3c116182	0.008873345
233	0xbdcb44fc	-0.09925267
234	0x3da008b6	0.078141615
235	0x3e06987f	0.1314411
236	0xbd4f1b61	-0.05056322
237	0xbe428389	-0.18995489
238	0x3e289620	0.16463518
239	0x3e1e11ca	0.15436473
240	0x3d0e0a76	0.034677945
241	0xbd54392a	-0.05181233
242	0xbd1f3521	-0.038869027
243	0x3e03207e	0.12805364
244	0xbd35f85d	-0.04442631
245	0xbe3136fe	-0.17306134
246	0x3d18b4b7	0.037281718
247	0x3d6e6d4f	0.058209714
248	0xbda3e7c3	-0.080031894
249	0x3d6b5a4d	0.057459164
250	0x3e3d20f6	0.18469605
251	0xbd9ccd0a	-0.076562956
252	0xbe696e4b	-0.2279598
253	0x3de8eb77	0.11373036
254	0xbdd3a34a	-0.10333879
255	0xbd034455	-0.03204759

net.6.bias f4 [7]
0	0x3e056bf8	0.13029468
1	0x3e250748	0.16116059
2	0xbdc2cbca	-0.09511526
3	0xbdf45c1c	-0.11931631
4	0x3dc0fd52	0.09423317
5	0x3e317a9e	0.17331931
6	0xbe40d59f	-0.1883149
