preTrained/GAIL_pretrained_4900_actor.pth (torch, 541220 bytes, 8 tensors)

net.0.weight f4 [256, 3]
0	0xbe48cdf5	-0.19609816
1	0xbf17cffd	-0.5930174
2	0xbeaaf6d8	-0.33391452
3	0x3eb30f24	0.3497249
4	0x3f48c5e3	0.7842695
5	0xbec3bc85	-0.38229766
6	0x3f0164aa	0.50544226
7	0x3e28577f	0.16439627
8	0xbf2307e7	-0.63683933
9	0xbf09baab	-0.5380046
10	0x3e8132bc	0.2523402
11	0xbc8a037e	-0.016847368
12	0x3e04fdb7	0.1298741
13	0xbe226eca	-0.15862575
14	0xbe0b2bf8	-0.13590991
15	0x3e8aa5e6	0.27079695
16	0xbe3049bd	-0.17215629
17	0x3cfce7ad	0.03087219
18	0xbe5f3b6c	-0.21800011
19	0x3f0c25f4	0.5474541
20	0xbe0950e5	-0.13409765
21	0xbed02425	-0.40652576
22	0x3f849bb8	1.0360022
23	0xbe0b46f3	-0.13601284
24	0xbf36bcab	-0.71381634
25	0x3e8dec19	0.2771919
26	0xbeef7a75	-0.46773115
27	0xbf138f61	-0.57640654
28	0xbde72773	-0.11286821
29	0xbf047c33	-0.5175201
30	0xbf0849ba	-0.532375
31	0xbf1c3977	-0.61025184
32	0x3e5fb95d	0.21848054
33	0xbebe856f	-0.37211177
34	0xbd492da2	-0.049115784
35	0xbf0245e1	-0.50887877
36	0xbe3eb4f5	-0.18623717
37	0xbf6c11d6	-0.92214715
38	0xbe3fd0a7	-0.18731938
39	0xbe9f63aa	-0.31130725
40	0x3e089a6f	0.13340162
41	0x3e3a6eb7	0.18206297
42	0x3ee4aae5	0.44661632
43	0x3ef77065	0.48327938
44	0xbeb6dc01	-0.35714725
45	0xbf23d7d2	-0.6400119
46	0x3f82cc10	1.0218525
47	0xbe2fc178	-0.17163646
48	0xbf302b39	-0.6881595
49	0x3e9dcd39	0.30820635
50	0xbe0c14e6	-0.13679847
51	0xbe7579f1	-0.23972298
52	0x3e90fcc6	0.2831785
53	0x3ea63160	0.32459545
54	0xbed96a9f	-0.42464158
55	0x3f145680	0.5794449
56	0xbd7c83f2	-0.06164927
57	0x3d8c59f3	0.06853094
58	0xbe94389e	-0.28949445
59	0xbef90308	-0.48635125
60	0xbe28127b	-0.164133
61	0xbf08e0c7	-0.53467983
62	0xbe5c4c63	-0.21513514
63	0xbe59d3f8	-0.21272266
64	0xbdfc8d6a	-0.1233166
65	0x3e3d9fc1	0.18517973
66	0xbe518aeb	-0.20463149
67	0x3f6fcc1a	0.9367081
68	0xbf021d5a	-0.50826037
69	0xbec0515b	-0.3756207
70	0xbf0902b8	-0.53519773
71	0x3ed1b614	0.40959227
72	0x3e078491	0.13234164
73	0x3ee0d6b9	0.4391382
74	0xbf290e64	-0.66037583
75	0x3ee36df5	0.44419828
76	0x3ec27548	0.37980103
77	0xbee3f8d7	-0.44525787
78	0x3c8a7498	0.0169013
79	0x3e5f2811	0.21792628
80	0xbf1e9130	-0.6194029
81	0xbd9953b3	-0.074866675
82	0x3df4635f	0.11933016
83	0xbc7642e5	-0.015030597
84	0xbd88daa0	-0.066823244
85	0xbc87d45d	-0.016580755
86	0x3ec71b7a	0.3888815
87	0xbc46145a	-0.012089813
88	0xbf0ca51d	-0.5493944
89	0xbf1b698e	-0.6070794
90	0x3dd9a272	0.10626687
91	0xbdd3e389	-0.10346133
92	0x3ec46f25	0.38366047
93	0xbe772834	-0.2413643
94	0xbaf7aeef	-0.0018896739
95	0xbf125164	-0.5715544
96	0x3f153730	0.58287334
97	0xbf82d44a	-1.0221035
98	0x3ecfaf32	0.4056335
99	0xbeab3382	-0.33437735
100	0x3ec78f34	0.38976443
101	0xbe468a3c	-0.1938867
102	0xbf2f1389	-0.68389183
103	0xbe5325c8	-0.20619881
104	0xbe5e8f95	-0.2173446
105	0xbee1c9ea	-0.4409936
106	0x3d768da7	0.060193684
107	0xbdbf17e5	-0.093307294
108	0x3ea0fff2	0.3144527
109	0x3dbc4cf4	0.09194365
110	0xbe209c29	-0.1568457
111	0xbf2ba12c	-0.67042804
112	0x3f6932b4	0.9109299
113	0xbeea7f2b	-0.45800146
114	0x3e48d765	0.19613416
115	0xbea0f4d0	-0.31436777
116	0xbed8d231	-0.42347863
117	0xbdfa919e	-0.122348055
118	0x3f01e362	0.50737584
119	0xbf47ae58	-0.780004
120	0x3e1000af	0.14062761
121	0x3ef9c25a	0.4878109
122	0xbe855020	-0.26037693
123	0xbd6f4777	-0.058417764
124	0x3ef62953	0.48078403
125	0xbe8eee63	-0.2791625
126	0xbebe2840	-0.37140083
127	0x3f4aad29	0.7917047
128	0xbed2950b	-0.41129336
129	0xbe791ff8	-0.24328601
130	0x3ec64856	0.38727063
131	0x3e5b443f	0.21412753
132	0x3cc0ac81	0.023519756
133	0xbf01a217	-0.50637954
134	0xbecfb8e0	-0.40570736
135	0x3d5f0a28	0.054453045
136	0xbef7d8be	-0.4840755
137	0xbee7f43b	-0.4530352
138	0xbf427d03	-0.75972
139	0x3f1b9a3d	0.60782224
140	0xbdb89b6f	-0.090140216
141	0x3e49e143	0.19714837
142	0xbfa4f828	-1.2888231
143	0x3e8738fb	0.2641066
144	0xbef518d2	-0.478705
145	0xbeb34fb5	-0.3502175
146	0xbd28a6fb	-0.04117487
147	0xbee12cae	-0.439794
148	0xbe01353b	-0.12617962
149	0xbcb68c52	-0.022283707
150	0xbe99c0f4	-0.30030024
151	0x3f8a60dc	1.0810809
152	0xbe6a8508	-0.2290231
153	0x3f065722	0.52476704
154	0x3f17cf0a	0.5930029
155	0xbe18c555	-0.14919026
156	0xbf07e803	-0.53088397
157	0x3e297d02	0.16551593
158	0x3e501c34	0.20323259
159	0xbc080b52	-0.00830348
160	0x3f128d41	0.57246786
161	0xbefd39e0	-0.49458218
162	0x3e8ec8c5	0.2788755
163	0xbf1ce9b6	-0.61294115
164	0x3d9f1e0b	0.07769402
165	0x3df67052	0.12033142
166	0xbe4399ae	-0.19101593
167	0xbeebe067	-0.46069643
168	0x3eaebc02	0.34127814
169	0x3caff7e6	0.021480512
170	0x3ea7a6b6	0.32744378
171	0xbd76baa8	-0.060236603
172	0xbf1e023d	-0.61722165
173	0xbd373c18	-0.044735044
174	0xbec18caf	-0.37802646
175	0x3ef7a99b	0.48371586
176	0x3ee2f468	0.44327092
177	0xbf3fd7bb	-0.74938554
178	0xbea38dac	-0.31944025
179	0x3e62111c	0.22076839
180	0xbe9b3c53	-0.3031946
181	0xbf37564f	-0.7161607
182	0xbe382cc5	-0.17985828
183	0xbe8f88c8	-0.28034043
184	0xbdea83ca	-0.11450918
185	0xbe3dc2c5	-0.1853133
186	0xbe605929	-0.21909012
187	0x3f5fce25	0.87423927
188	0xbdf62ef4	-0.12020674
189	0xbeb701d8	-0.35743594
190	0xbe4fcd12	-0.20293072
191	0xbea98e50	-0.33116388
192	0x3e54638f	0.20741104
193	0x3f5e8fa9	0.8693796
194	0x3ebc6e3f	0.3680286
195	0xbef3a194	-0.47584212
196	0xbf071358	-0.5276389
197	0x3c509ee6	0.012733197
198	0xbd825309	-0.06363494
199	0x3ddb4881	0.107071884
200	0xbf1844f9	-0.59480244
201	0xbe7eb99a	-0.24875489
202	0xbe769318	-0.2407955
203	0xbce68fd1	-0.028144749
204	0xbe97e29c	-0.29665077
205	0xbf68296c	-0.90688205
206	0xbf07c9a5	-0.5304206
207	0xbf39b0c1	-0.7253533
208	0x3eab86e2	0.33501345
209	0x3d9c487b	0.07631012
210	0xbe7d7ede	-0.24755427
211	0xbefcabb5	-0.49349752
212	0xbf0da749	-0.5533338
213	0xbd96eef7	-0.07369798
214	0x3efb0c72	0.49032933
215	0xbeaf8ffe	-0.34289545
216	0xbf1fa1c3	-0.62356204
217	0x3f34050d	0.70320207
218	0xbec5b840	-0.38617134
219	0x3eab675a	0.33477288
220	0xbd959740	-0.07304239
221	0xbdaf3281	-0.08554555
222	0xbd47a3a6	-0.04874005
223	0xbf1e4007	-0.6181645
224	0x3e1707d9	0.14749087
225	0xbeab2ae2	-0.33431154
226	0xbec42c1c	-0.38314903
227	0xbe5985e7	-0.21242486
228	0xbd7d9170	-0.061906278
229	0x3e1acdaf	0.15117525
230	0x3e0850d1	0.13312079
231	0x3d9fee22	0.07809092
232	0x3e5166ca	0.20449367
233	0xbeb24df8	-0.3482511
234	0x3e63c73d	0.22243972
235	0x3ea1398f	0.31489226
236	0x3ec4671a	0.3835991
237	0xbe9aba8f	-0.30220458
238	0x3e109ee0	0.14123106
239	0x3e6a0468	0.22853243
240	0xbe74a01f	-0.23889206
241	0xbf892c02	-1.0716555
242	0x3e456028	0.19274962
243	0xbef3dba9	-0.47628525
244	0x3da445b4	0.08021107
245	0xbeaf4e72	-0.34239537
246	0x3e8e462d	0.27787915
247	0x3dc1a8e3	0.09456041
248	0x3e89cc64	0.2691375
249	0x3e85527e	0.260395
250	0x3e98dbaf	0.29855105
251	0xbf0cd74d	-0.5501602
252	0x3e763cbc	0.24046606
253	0xbe214b09	-0.1575128
254	0xbf101582	-0.5628282
255	0xbd659426	-0.05604949

net.0.bias f4 [256]
0	0xbe0852df	-0.13312863
1	0xbe07389e	-0.13205191
2	0x3cd9c650	0.02658382
3	0xbe24a78d	-0.1607954
4	0x3dd0b7fa	0.10191341
5	0x3e68891a	0.2270855
6	0xbd18a513	-0.037266802
7	0x3de397d9	0.11112947
8	0x3ee1cca1	0.44101432
9	0x3ee6b282	0.45058066
10	0xbc33337f	-0.010937571
11	0x3ec38d34	0.38193667
12	0x3eb411bf	0.3516979
13	0xbb59d984	-0.0033241222
14	0xbe368003	-0.1782227
15	0x3e873a91	0.2641187
16	0x3e84dbf5	0.25949064
17	0xbee0abf1	-0.4388118
18	0xbe90cb38	-0.28280044
19	0x3e2aafca	0.1666862
20	0x3da64e24	0.08120373
21	0xbe5bd29a	-0.21467057
22	0x3e0085ff	0.12551115
23	0xbe298d1a	-0.16557732
24	0x3e3a1d90	0.1817534
25	0xbe67b3f6	-0.22627243
26	0x3dcbf35a	0.09958525
27	0xbf0db8ac	-0.5535991
28	0xbf03a108	-0.5141759
29	0x3e5ffa1b	0.21872751
30	0xbefdcc21	-0.495698
31	0x3d916523	0.070993684
32	0xbe69e2a5	-0.22840364
33	0x3d09125d	0.03346478
34	0x3ea6770b	0.32512698
35	0x3e455b74	0.19273168
36	0xbe3e6888	-0.18594563
37	0x3ec8dd59	0.39231375
38	0x3d8e3baf	0.069449775
39	0x3ea865c5	0.32890144
40	0xbf0743ba	-0.5283772
41	0xbe80afb1	-0.25134042
42	0x3e35a9df	0.17740582
43	0xbe74856f	-0.23879026
44	0xbeac9200	-0.3370514
45	0x3e0280b8	0.12744415
46	0x3e4c55ce	0.19954607
47	0xbbb9d224	-0.0056708027
48	0x3d0d8970	0.0345549
49	0x3e1131c7	0.14179145
50	0x3df2c34c	0.11853656
51	0xbe0cc946	-0.13748655
52	0xbd8b0af1	-0.06789196
53	0xbea3f993	-0.32026348
54	0x3dc68509	0.09693343
55	0xbd04959a	-0.032369234
56	0xbed1d53a	-0.4098299
57	0xbd4f5378	-0.05061671
58	0xbe3b300f	-0.18280052
59	0x3de635fa	0.11240764
60	0x3db82edd	0.089933135
61	0xbd830612	-0.06397642
62	0x3d36ce24	0.044630185
63	0xbecc11c4	-0.39857304
64	0xbeb62db5	-0.35581747
65	0x3e37e380	0.17957878
66	0x3cac4a5a	0.021031547
67	0xbe85d488	-0.2613871
68	0x3e93460c	0.2876438
69	0x3e885d8a	0.26633865
70	0x3e94d8f4	0.29071772
71	0xbcf4cd1b	-0.029882958
72	0x3e8c8fda	0.274535
73	0xbe06516a	-0.13116995
74	0xbe1a9e7c	-0.1509952
75	0x3e543e05	0.20726784
76	0xbe9ab995	-0.30219713
77	0x3dc5ac94	0.09652057
78	0xbeba6a4f	-0.36409232
79	0xbede3220	-0.43397617
80	0x3e7312e1	0.2373767
81	0x3e7c02ca	0.24610439
82	0xbed05517	-0.40689918
83	0x3e8a1b63	0.2697402
84	0x3e0b7235	0.13617785
85	0xbe0452ec	-0.12922257
86	0xbde59b0b	-0.11211213
87	0x3d766d7c	0.060163006
88	0x3e27ebff	0.16398619
89	0xbe8220fd	-0.25415793
90	0xbcddc441	-0.02707112
91	0xbefddc1f	-0.49582002
92	0x3c418a51	0.011812762
93	0x3de8b627	0.11362868
94	0x3e446f4d	0.19183083
95	0x3ebb6490	0.3660016
96	0xbd876e59	-0.06612844
97	0x3eb0b4b2	0.3451286
98	0x3d749c47	0.05971935
99	0xbd494518	-0.04913816
100	0xbe9747cb	-0.2954696
101	0xbe88208f	-0.2658734
102	0x3c8bae8e	0.017051008
103	0xbed9ef0a	-0.42565185
104	0xbdb8ae09	-0.090175696
105	0xbed0dcca	-0.4079345
106	0x3d812ef6	0.06307785
107	0xbd107a7b	-0.035273056
108	0xbdeaadff	-0.11458968
109	0x3dd510d8	0.10403603
110	0x3e92a92b	0.2864469
111	0xbed9d3e4	-0.42544472
112	0xbf07be55	-0.530248
113	0xbc79f138	-0.015255265
114	0xbea02f9a	-0.31286317
115	0xbe34a4e2	-0.17641023
116	0xbe3d463d	-0.18483825
117	0x3e6540ae	0.22387955
118	0xbc6a28f4	-0.014291991
119	0x3b0cc351	0.0021478722
120	0xbe95dbc1	-0.2926922
121	0xbc8f308e	-0.017479207
122	0xbe17ae99	-0.14812697
123	0xbe41569d	-0.18880697
124	0x3e9ff734	0.3124329
125	0x3e8192a5	0.25307193
126	0xbe78e947	-0.24307738
127	0x3e1dc982	0.154089
128	0xbe99acf6	-0.3001477
129	0x3e431389	0.19050421
130	0xbdc1946c	-0.09452137
131	0x3e1c3aa8	0.1525675
132	0xbe1c932b	-0.15290515
133	0xbe05022b	-0.12989108
134	0xbdf8ddba	-0.12151666
135	0xbe58b2d9	-0.21161975
136	0xbdeac6e5	-0.11463717
137	0xbe34dc07	-0.17662059
138	0xbe360223	-0.17774253
139	0xbf03400b	-0.51269597
140	0xbe4845dd	-0.195579
141	0xbea60b8e	-0.3243069
142	0xbe96a1a1	-0.29420188
143	0xbe301111	-0.1719401
144	0xbefb7fce	-0.49120945
145	0xbef9a066	-0.48755187
146	0x3d52875e	0.051398627
147	0xbe94744e	-0.28994983
148	0xbeb1d96e	-0.34736198
149	0x3d611daf	0.05495995
150	0xbeef54ea	-0.46744472
151	0xbea4d729	-0.32195404
152	0xbde1f8b9	-0.11033768
153	0x3e813b02	0.25240332
154	0x3e0b2d0f	0.13591407
155	0xbe081285	-0.13288315
156	0xbe8784d1	-0.26468518
157	0x3e4a3fcc	0.19750899
158	0xbe2ec8da	-0.17068806
159	0x3db075cc	0.08616218
160	0x3dc31e80	0.09527302
161	0xbe6e50fe	-0.23273084
162	0x3e8857de	0.26629537
163	0xbcf27774	-0.029597975
164	0x3ed756c0	0.42058372
165	0xbd5fb8e7	-0.054619696
166	0x3ec4418f	0.38331267
167	0xbe199c4d	-0.1500103
168	0xbdfad9c7	-0.12248569
169	0xbeac94de	-0.33707327
170	0x3d8a3d4d	0.067499734
171	0xbce39641	-0.027781608
172	0x3bee8aa6	0.007279712
173	0x3ea66f06	0.3250658
174	0xbe35c50f	-0.17750953
175	0x3d6a34a9	0.057179127
176	0xbe83e1a5	-0.2575809
177	0xbe4f0808	-0.20217907
178	0x3e91e8c9	0.28497913
179	0xbed7a022	-0.4211436
180	0xbe965781	-0.29363635
181	0xbee92bba	-0.45541173
182	0xbe1a571c	-0.15072292
183	0x3e096d21	0.13420536
184	0x3e05b9d4	0.13059169
185	0x3ed2f930	0.4120574
186	0xbee94eda	-0.4556797
187	0xbde045e6	-0.10950832
188	0xbe5f449e	-0.21803519
189	0x3de7639a	0.11298294
190	0x3d8cc4b4	0.06873456
191	0x3d434bd5	0.04767974
192	0x3ba82904	0.0051318426
193	0x3e05ff08	0.13085568
194	0xbe9ae584	-0.30253232
195	0xbe3e9256	-0.1861051
196	0xbf0fb627	-0.5613732
197	0xbecfbeb8	-0.40575194
198	0xbd6c672f	-0.05771559
199	0x3e9847c5	0.29742256
200	0x3e334b1b	0.17509119
201	0xbe839771	-0.25701478
202	0xbf08702d	-0.53296167
203	0xbe187693	-0.14888982
204	0xbeec915f	-0.4620466
205	0x3eb1dd23	0.34739026
206	0xbe770a81	-0.241251
207	0xbdc322a6	-0.09528093
208	0xbd4ca5e0	-0.04996288
209	0x3c606dd3	0.013698059
210	0xbea5d9a1	-0.323926
211	0xbf0f3312	-0.559373
212	0x3da142c5	0.078740634
213	0x3e136904	0.14395529
214	0xbe830d10	-0.25595903
215	0xbdd1abcb	-0.10237845
216	0x3ec22964	0.37922204
217	0x3d9e8cd6	0.07741706
218	0x3e1e8b52	0.15482834
219	0x3e3460bc	0.17615026
220	0x3e4f139a	0.20222321
221	0xbddf803e	-0.10913132
222	0xbe4a8e38	-0.19780815
223	0x3d72b8dd	0.05925833
224	0x3e1f662f	0.15566324
225	0x3ce23a87	0.027615799
226	0xbf035669	-0.51303726
227	0x3d06e233	0.032930564
228	0x3e7ca039	0.24670495
229	0xbe556adb	-0.20841543
230	0x3e64a9b9	0.22330369
231	0x3dfe242f	0.12409245
232	0xbe9cc49f	-0.3061876
233	0x3e6902eb	0.2275502
234	0xbe898826	-0.26861686
235	0x3eae1d87	0.34006903
236	0x3e5cdc97	0.21568523
237	0x3ec2385b	0.3793362
238	0x3d79f48f	0.061024245
239	0x3e9ebb79	0.31002405
240	0x3d6dee03	0.058088314
241	0x3cb8de49	0.022566931
242	0x3cb5b291	0.022179874
243	0x3e905b5b	0.281947
244	0x3d1666d0	0.036719143
245	0x3de8db3f	0.11369943
246	0xbf02913f	-0.5100288
247	0xbe96fdca	-0.294905
248	0x3e9af6aa	0.30266315
249	0xbe646520	-0.22304201
250	0x3e30c8d4	0.1726411
251	0x3e68a73a	0.22720042
252	0xbe81dfa7	-0.25365946
253	0xbe793cf7	-0.24339662
254	0x3e39c55d	0.18141694
255	0xbb6de9cd	-0.0036302686

net.2.weight f4 [256, 256]
0	0xbd326844	-0.043556467
1	0x3aaf8194	0.0013390058
2	0xbe33094d	-0.17484017
3	0x3ce294a2	0.027658764
4	0xbcf75a5d	-0.030194456
5	0xbc489ed9	-0.0122449035
6	0x3aae1e61	0.00132842
7	0x3b57735e	0.003287516
8	0x3e4a6ca0	0.19768
9	0x3def44d0	0.11683047
10	0xbd66fef6	-0.056395493
11	0xbd482baf	-0.048869785
12	0x3c9a8185	0.018860588
13	0x3da3aebb	0.079923116
14	0xbb2cb596	-0.002635335
15	0x3db0d664	0.08634642
16	0x3d73c362	0.059512503
17	0x3d7c6cf0	0.06162733
18	0x3d3bb6a4	0.045828477
19	0xb98712ea	-0.000257633
20	0xbdb31f19	-0.08746166
21	0x3c3d6c70	0.011561498
22	0x3e61e746	0.2206088
23	0xbcc9d6c8	-0.024638548
24	0x3c1fd889	0.009756216
25	0xbca8acb0	-0.020590156
26	0x3d03e516	0.032200895
27	0xbd25bad4	-0.040461376
28	0xbc7df928	-0.015501298
29	0x3d3c5ca6	0.045986794
30	0x3d77d272	0.06050343
31	0x3d616a81	0.05503321
32	0xbc6d4ba8	-0.01448337
33	0x3d099d1c	0.033597097
34	0xbd004847	-0.03131893
35	0x3d44fb24	0.04809107
36	0x3d3297b4	0.043601707
37	0x3e00c536	0.1257523
38	0xbcee18e1	-0.029064598
39	0x3cee22de	0.02906936
40	0x3d80a384	0.06281188
41	0xbcf6c8ef	-0.03012511
42	0x3bc4b7f4	0.0060033742
43	0xbd4572dc	-0.04820524
44	0x3c9489e4	0.018132158
45	0xbd8b8749	-0.06812913
46	0x3d4be873	0.049782228
47	0x3cc43e0a	0.023955364
48	0x3d3e6929	0.046487007
49	0x3b1a923f	0.0023585705
50	0x3d252209	0.04031566
51	0xbc4e585e	-0.012594311
52	0x3d7d3916	0.06182202
53	0xbbd39f87	-0.006458226
54	0xbcf52400	-0.029924393
55	0xbd27f4b2	-0.041004844
56	0xbca44464	-0.020052142
57	0xbe0bbf8f	-0.13647293
58	0x3d3f7248	0.046739846
59	0x3d1fc1f0	0.039003313
60	0xbe311688	-0.17293751
61	0xbbabb704	-0.005240323
62	0x3d343222	0.043993123
63	0x3ccc6c90	0.02495411
64	0xbd7dddc0	-0.061979055
65	0xbe55064a	-0.2080318
66	0xbbd6c081	-0.00655371
67	0x3c91901c	0.017768912
68	0xbe59528c	-0.21222895
69	0x3d3e1fcb	0.04641704
70	0xbe102178	-0.14075267
71	0x3d80a7fb	0.0628204
72	0x3d3fe87d	0.046852577
73	0xbcf61602	-0.030039791
74	0xbdadd96b	-0.08488735
75	0xbde52eb0	-0.111905456
76	0xbb8497e0	-0.004046425
77	0xbccbfca5	-0.024900744
78	0x3ca4d537	0.0201212
79	0xbd780e7a	-0.06056068
80	0x3c0559d6	0.008139094
81	0xbd45df34	-0.048308566
82	0x3d1d0ef6	0.038344346
83	0x3cb9d437	0.0226842
84	0xbb4654d6	-0.0030262969
85	0xbd9a5fc1	-0.07537795
86	0x3cde33d5	0.027124325
87	0xbbe7e925	-0.0070773535
88	0xbcbc3be4	-0.022977777
89	0xbc1e0789	-0.009645351
90	0x3c678d64	0.014132831
91	0xbcdbe7d8	-0.02684395
92	0x3d337e49	0.043821607
93	0xbd773dc7	-0.06036165
94	0xbd3e5325	-0.04646601
95	0xbd7d0012	-0.061767645
96	0x3c97a055	0.01850907
97	0xbe057566	-0.13033065
98	0x3ca7ba7e	0.020474669
99	0xbe039dbb	-0.12853138
100	0x3cf160ec	0.029465161
101	0x3d4976a3	0.049185406
102	0xbc4422f9	-0.011971229
103	0x3d295ee5	0.041350264
104	0xbd4eea53	-0.050516438
105	0x3d36dd4a	0.04464463
106	0xbc463b39	-0.012099081
107	0xba431238	-0.00074413745
108	0xbcfeda97	-0.031110091
109	0x3b8706a0	0.004120663
110	0x3caf2a68	0.021382526
111	0x3c86ba48	0.016446248
112	0x3d70b068	0.058761984
113	0xbe958888	-0.29205728
114	0x3cecfd48	0.028929368
115	0xbe249902	-0.16073993
116	0xbe261bcc	-0.16221541
117	0xbd4de100	-0.050263405
118	0x3b4f06a7	0.0031589658
119	0x3d1e9074	0.03871198
120	0xbb059f5b	-0.0020389173
121	0xbdd57009	-0.1042176
122	0xbc7c1974	-0.015386928
123	0xbd64c31b	-0.05585013
124	0xbd5433ef	-0.05180734
125	0xbdc54dcd	-0.0963398
126	0xbd8e2e3d	-0.06942413
127	0xbdb97900	-0.09056282
128	0xbd7fb4fa	-0.062428452
129	0xbd805a7e	-0.0626726
130	0xbd517fa0	-0.051147103
131	0xbc82a770	-0.015948981
132	0x3d68de62	0.056852706
133	0x3caeb984	0.021328695
134	0x3dc089b2	0.09401263
135	0xbbecadc5	-0.0072228634
136	0x3d948d6b	0.07253536
137	0xbc9aff3b	-0.018920531
138	0xbbcf823c	-0.006332664
139	0xbdae6cce	-0.085168466
140	0x3cf66570	0.030077666
141	0xbd21129d	-0.03932439
142	0xbd97c61b	-0.074108325
143	0x3c0dafd5	0.008647879
144	0xbd505ed4	-0.050871685
145	0xbb297e95	-0.0025862802
146	0x3d3dc417	0.046329584
147	0xbd431346	-0.047625802
148	0x3c90f9d8	0.01769726
149	0xbc7b6567	-0.015344
150	0x3bebd42b	0.0071969233
151	0x3ce2c7bc	0.027683131
152	0xbdb7085a	-0.0893714
153	0xbd297ce7	-0.04137888
154	0xbdb031ef	-0.08603274
155	0x3cfa4aee	0.030553307
156	0xbb009680	-0.0019620955
157	0xbe06cabf	-0.13163279
158	0xbd8a5b9a	-0.06755753
159	0xbcc8dc9f	-0.024519263
160	0xbdf2e7e4	-0.11860636
161	0xbd7cd9a0	-0.06173098
162	0xbda9f88a	-0.08299358
163	0xbcff66b3	-0.0311769
164	0xbd1cc853	-0.03827698
165	0xbd817b7b	-0.0632238
166	0xbe41d2c6	-0.1892806
167	0xbcbb5648	-0.02286829
168	0x3cbcdc21	0.023054184
169	0x3d442e9b	0.04789601
170	0xbd1116fa	-0.035422303
171	0xbe1c6041	-0.15271093
172	0x3d3e3b2e	0.046443157
173	0x39e875ff	0.00044338402
174	0x3d1edf47	0.038787153
175	0xbd4d318f	-0.05009609
176	0xbe7d6f2d	-0.24749441
177	0xbc2b30b9	-0.010448628
178	0xbbc55a17	-0.0060227024
179	0xbd7cd334	-0.061724856
180	0x3cd71f84	0.026260145
181	0xbc4c1545	-0.012456243
182	0xbe285f43	-0.1644259
183	0x3c4fe211	0.012688176
184	0x3c2f25e0	0.010690182
185	0x3c9c14ec	0.019052945
186	0xbd406a5c	-0.046976432
187	0xbd0bc820	-0.0341264
188	0xbcd16119	-0.025558995
189	0x3d78bcd7	0.060726967
190	0xbe866b80	-0.2625389
191	0x3beeb174	0.0072843377
192	0xbe210df6	-0.15727982
193	0xbca37a85	-0.019955883
194	0x3d7d5646	0.061849855
195	0xbc4a190a	-0.012335071
196	0xbbacdbf0	-0.005275242
197	0xbe2367f5	-0.15957625
198	0x3d277f61	0.040892962
199	0x3c0f35a0	0.008740813
200	0xbbeaca9d	-0.0071652667
201	0xbcf1fc48	-0.029539242
202	0x3c8dee10	0.017325431
203	0x3cd0af0a	0.02547409
204	0x3d536f1b	0.05161963
205	0xbcf52cda	-0.029928613
206	0xbdbce013	-0.09222426
207	0x3d4237c6	0.04741647
208	0xbd98c026	-0.074585244
209	0xbdc05bce	-0.0939251
210	0x3d23fb1b	0.040034395
211	0x3d504202	0.0508442
212	0x3b4ecc4d	0.0031554878
213	0x3cfae9b4	0.030629016
214	0xbd7e2e38	-0.062055796
215	0xbcd6d63c	-0.026225202
216	0x3d8c2a81	0.068440445
217	0xbddecbd7	-0.10878723
218	0xbd37a60f	-0.0448361
219	0x3d08ded2	0.033415623
220	0xbd8718b6	-0.0659651
221	0x3c672dad	0.014110011
222	0x3c7bb7ef	0.015363677
223	0xbcc36b44	-0.02385486
224	0x3c555878	0.013021581
225	0xbd32d69c	-0.0436617
226	0xbd0a2f56	-0.03373655
227	0xbc989e38	-0.018630132
228	0x3bf3f306	0.007444742
229	0xbd058aab	-0.032602947
230	0x3d9925d4	0.07477918
231	0xbcada61a	-0.021197367
232	0x3c4d79bb	0.01254123
233	0xbd5702fe	-0.052493088
234	0x3ca76c2b	0.02043732
235	0xbc7949fe	-0.015215395
236	0x3b5be963	0.0033555857
237	0x3dc13ad8	0.09435052
238	0x3c62751b	0.013821865
239	0xbd408d1a	-0.047009565
240	0x3accac43	0.0015615303
241	0x3c2d6723	0.010583672
242	0xbd693c07	-0.056942012
243	0x3c728a1a	0.014803434
244	0xbd3b2003	-0.045684826
245	0xbd4969fd	-0.049173344
246	0xbb6c8b13	-0.0036093637
247	0xbd690f99	-0.05689964
248	0x3d323c27	0.043514397
249	0x3ccbe3d8	0.024888918
250	0xbc29e620	-0.0103698075
251	0xbd402611	-0.046911303
252	0x3caf64c4	0.021410353
253	0x3cd5a623	0.026080197
254	0xbc5f905c	-0.013645258
255	0x3c34a485	0.011025553

net.2.bias f4 [256]
0	0xbc97898c	-0.018498205
1	0xbd0d6767	-0.03452244
2	0xbd7220e8	-0.059113413
3	0xbd460931	-0.04834861
4	0x3c7d45cd	0.015458536
5	0x3ca8bc90	0.020597726
6	0xbba57004	-0.0050487537
7	0xbc9f7497	-0.019464774
8	0xbd6af39a	-0.057361223
9	0x3caf9cee	0.021437135
10	0x3c48a367	0.012245989
11	0xbca15f36	-0.01969872
12	0xbca6b858	-0.020351574
13	0xbcbee13e	-0.023300763
14	0xbd8b0deb	-0.06789764
15	0x3c8133c0	0.015771747
16	0xbcfc342f	-0.030786602
17	0x3c9f69a8	0.01945956
18	0xbca9db35	-0.020734409
19	0x3cc9c430	0.024629682
20	0xbcc8a316	-0.024491828
21	0xbcf9d63e	-0.030497666
22	0xbc3c06c2	-0.011476221
23	0xbd1b0813	-0.037849497
24	0xbd8f6971	-0.07002533
25	0x3ccf1833	0.025280094
26	0xbd75bdac	-0.05999534
27	0xbc847099	-0.016166972
28	0xbb883f65	-0.004157948
29	0x3d15626d	0.03647082
30	0xbd9c0a5f	-0.07619166
31	0xbd86a991	-0.06575311
32	0xbd5208ae	-0.05127781
33	0x3d07d440	0.0331614
34	0xbd3a1313	-0.045428347
35	0xbd9e89a1	-0.077410944
36	0xbdb5f08a	-0.0888377
37	0x3c3c9b5a	0.011511648
38	0xbd4b008d	-0.049561072
39	0x3ba331f1	0.0049803187
40	0xbd71a1a6	-0.05899205
41	0xbd08c727	-0.03339305
42	0x3cade44d	0.021227026
43	0x3b3772a8	0.0027991924
44	0x3cf409a1	0.029789748
45	0x3d1529f8	0.036416978
46	0xbd70cd57	-0.058789577
47	0xba79ffeb	-0.0009536731
48	0xbca117e2	-0.019664709
49	0x3c44895c	0.01199564
50	0xbcc7a7eb	-0.024372062
51	0xbd2786a8	-0.040899903
52	0xbd867d2b	-0.06566843
53	0x3c94567d	0.018107647
54	0xbcfaed2a	-0.030630667
55	0xbcc3b344	-0.023889191
56	0xbc81368d	-0.015773082
57	0xbcd4cfaf	-0.025977938
58	0xbd43cd43	-0.047803175
59	0xbd80e85f	-0.06294321
60	0x3d887e55	0.06664721
61	0xbbfa51b3	-0.007639134
62	0xbd316d44	-0.043317094
63	0xbd90e1a4	-0.070742875
64	0xbd938905	-0.07203869
65	0xbc50d8d7	-0.012747011
66	0xbd955c71	-0.072930224
67	0xbd28d45f	-0.041218158
68	0x3c2c925e	0.0105329435
69	0xba0aeb37	-0.0005299332
70	0xbd833001	-0.064056404
71	0x3d4c3db3	0.04986353
72	0xbd9a0a36	-0.07521479
73	0xbd0591da	-0.032609798
74	0xbc8a1171	-0.01685402
75	0x3c8e16bd	0.017344827
76	0xbd866904	-0.06562999
77	0x3cb3dfff	0.021957396
78	0xbcce3516	-0.025171798
79	0x3b1d9123	0.0024042807
80	0xbd82f272	-0.06393899
81	0x3d3f2cf2	0.046673723
82	0xbd109dea	-0.03530685
83	0x3df1b262	0.11801602
84	0xbd8bc0bd	-0.06823871
85	0xbc5d7305	-0.013516192
86	0x3d4bb6e5	0.04973497
87	0x3c8a5333	0.016885376
88	0x3c51b665	0.012799834
89	0xbd5f2d20	-0.054486394
90	0xbd08fdcf	-0.033445176
91	0x3bbd4939	0.005776551
92	0xbcce20d5	-0.02516214
93	0xbc236734	-0.009973336
94	0x3c93bc29	0.018034058
95	0xbbf5ec10	-0.0075049475
96	0xbd669850	-0.0562976
97	0x3cc76a61	0.024342718
98	0xbbe2ae99	-0.0069177863
99	0xbc8ae50e	-0.016954925
100	0xbd2e4c7f	-0.04255342
101	0x3d24dfc8	0.040252477
102	0xbd540c43	-0.051769506
103	0x3d0826b8	0.03324005
104	0xbd9d0d6e	-0.07668577
105	0xbd3d3e00	-0.046201706
106	0xbd54952f	-0.051900085
107	0xbde84517	-0.11341303
108	0x3c82388e	0.015896108
109	0xbd7c39e6	-0.061578654
110	0x3ce0f3ef	0.027460067
111	0xbdc4c293	-0.096074246
112	0x3ceb5ea6	0.028731655
113	0xbcfad2f0	-0.030618161
114	0xbd24a2a6	-0.040194176
115	0xbd875ee8	-0.06609899
116	0xbb8e1b73	-0.0043367683
117	0x3a29af09	0.00064729206
118	0xbb644612	-0.0034831804
119	0xbd91a563	-0.07111623
120	0xbbb4bd3a	-0.0055157216
121	0xbd190c38	-0.03736517
122	0x3c3020f9	0.010750049
123	0xbce7bf65	-0.028289506
124	0x3caa7e3d	0.020812148
125	0xbdb17b80	-0.08666134
126	0xbd917634	-0.071026236
127	0xbd0560cb	-0.032563012
128	0xbcf36a55	-0.029713789
129	0xbd9a8ba9	-0.07546169
130	0x3c8fe518	0.017565295
131	0x3cafb4b2	0.021448467
132	0xbd91e2fb	-0.07123371
133	0x3bbe19b4	0.005801404
134	0x38d7b55c	0.0001028578
135	0xbd0429b6	-0.03226634
136	0x3ceb5ed2	0.028731737
137	0xbd5be1d1	-0.053682152
138	0xbd945ede	-0.07244657
139	0x3cc9c4c1	0.024629952
140	0xbdbf74a8	-0.09348422
141	0xbd9fa091	-0.077942975
142	0xbb9ed4d9	-0.0048471508
143	0xbd77f9aa	-0.060540833
144	0xbc842db8	-0.016135082
145	0xbbcca9a8	-0.0062458105
146	0x3d262a92	0.040567942
147	0xbd3f06ae	-0.04663723
148	0x3bba7fe4	0.0056915153
149	0xbd34e5b2	-0.044164367
150	0x3cd97751	0.026546152
151	0xbcc8cd73	-0.024512028
152	0xbccc35fd	-0.024928087
153	0xbd3d6364	-0.046237364
154	0xbd895942	-0.06706478
155	0xbc8f2743	-0.017474776
156	0xbb511c9b	-0.003190792
157	0xb8b17a53	-8.462802e-05
158	0x3e3addfa	0.1824874
159	0x3c267d82	0.010161759
160	0x3d256fc0	0.040389776
161	0xbd742393	-0.05960424
162	0x3cff879c	0.031192593
163	0xbcb36d2b	-0.021902641
164	0x3c98f1b9	0.01866995
165	0x3ca447b0	0.020053715
166	0xbd401bce	-0.046901517
167	0xbd648878	-0.05579421
168	0xbdbb876b	-0.09156688
169	0xbd55744c	-0.052112862
170	0xbd83df2b	-0.0643905
171	0xbb82e902	-0.003995062
172	0xbc9d4d38	-0.01920186
173	0x3c1e3242	0.009655537
174	0xbb72b6d5	-0.0037035246
175	0xbe083e2c	-0.13304967
176	0xbd1ae219	-0.03781328
177	0x3c9468fb	0.018116465
178	0xbd9b9d05	-0.075983085
179	0xbd7ce479	-0.061741326
180	0xbc94acf1	-0.018148871
181	0x3da44837	0.080215864
182	0xbc8cfd4c	-0.017210625
183	0xbdf316a4	-0.11869553
184	0xbd090b5d	-0.033458102
185	0xbd9ad837	-0.07560771
186	0xbc88b60c	-0.01668837
187	0x3d14df69	0.036345873
188	0xbc2bf006	-0.010494238
189	0xbdcf2629	-0.101147
190	0x3c59cb4e	0.0132931005
191	0xbdf497b2	-0.11942996
192	0xbad195a6	-0.0015990033
193	0xbd8e8ddd	-0.06960652
194	0xbce9c9a5	-0.028538534
195	0xbc65079a	-0.013978863
196	0x39a7272a	0.00031881902
197	0xbbe135aa	-0.0068728523
198	0xbd68f902	-0.056878097
199	0xbd95b451	-0.07309783
200	0xbd89effb	-0.06735226
201	0xbd789b8c	-0.060695216
202	0xbd297538	-0.041371554
203	0xbc119853	-0.008886415
204	0xbca3783b	-0.019954791
205	0x3c225c23	0.009909662
206	0x3d45eb2e	0.048319988
207	0xbd8d0a8a	-0.06886776
208	0x3c0bd2b1	0.008534119
209	0xbc819edf	-0.015822826
210	0xbd97e854	-0.0741736
211	0x3bd321f3	0.006443256
212	0x3d5e2213	0.054231714
213	0xbcc52cfb	-0.0240693
214	0xbd855d26	-0.06511907
215	0x3bd21165	0.006410765
216	0x3cf17695	0.02947549
217	0x3c89c853	0.016819155
218	0x3bcc5dba	0.006236759
219	0xbd65cf4c	-0.056105897
220	0xbdbef615	-0.0932428
221	0xbd5041fb	-0.050844174
222	0x3cd235d8	0.02566044
223	0xbd21d335	-0.039508063
224	0xbbc1ff9f	-0.005920365
225	0xbdec1f63	-0.11529424
226	0xba903700	-0.0011002719
227	0xb9cabffc	-0.00038671482
228	0xbd87cb3d	-0.066305615
229	0xbd26f68a	-0.04076246
230	0xbd1c7ad8	-0.03820309
231	0xbd963a62	-0.073353544
232	0xbc33791b	-0.010954167
233	0xbcb05599	-0.021525191
234	0x3cd8ba46	0.02645601
235	0xbc65d5ac	-0.014027994
236	0x3d0a643f	0.03378701
237	0xbc858caf	-0.016302435
238	0x3d10b62b	0.03532998
239	0xbd36d6ff	-0.04463863
240	0xbd8429be	-0.06453274
241	0x3c1387bd	0.0090045305
242	0x3b590de7	0.0033119859
243	0x3c413153	0.011791545
244	0xbb06a2c3	-0.002054379
245	0xbd4acc3e	-0.049511187
246	0xbd13319c	-0.035935983
247	0xbd6e905d	-0.058243144
248	0xbd155de8	-0.03646651
249	0x3c5c0f4b	0.0134313805
250	0xbd870afe	-0.065938935
251	0xbd0a1edd	-0.03372084
252	0xbbc0317d	-0.0058652745
253	0xbc0c833e	-0.008576212
254	0xbc454712	-0.01204087
255	0xbcc387fc	-0.023868553

net.4.weight f4 [256, 256]
0	0xbd13d66f	-0.03609317
1	0xbcb80db7	-0.022467477
2	0xbccb8990	-0.024845868
3	0xbd901d73	-0.07036867
4	0xbdd04f4e	-0.10171376
5	0xbb4b4b00	-0.0031020045
6	0x3c9608b2	0.018314693
7	0xbc42429e	-0.011856703
8	0x3df816fe	0.121137604
9	0x3cee86f6	0.029117089
10	0xbd2b3778	-0.041800946
11	0xbd5689dc	-0.052377567
12	0x3c5465f0	0.012963757
13	0xbccf9730	-0.025340647
14	0xbc403d90	-0.011733428
15	0xbc5328f4	-0.012888182
16	0xbce8d161	-0.028420152
17	0xbdc0f835	-0.09422342
18	0x3ce64438	0.028108701
19	0xbcf70c17	-0.030157132
20	0x3ce57075	0.028007725
21	0x3c00dbbe	0.007864891
22	0x3d8c612d	0.06854472
23	0x3e2667b3	0.16250496
24	0xbd34e5d4	-0.044164494
25	0x3e3d45c8	0.1848365
26	0xbd8c1400	-0.06839752
27	0xbc470993	-0.012148279
28	0x3d50322f	0.05082911
29	0xbd52045a	-0.05127368
30	0x3c9d45b3	0.019198274
31	0x3d3cfe7f	0.046141144
32	0xb9c00a00	-0.00036628544
33	0xbd8ebf54	-0.06970087
34	0xbd247fc8	-0.040160924
35	0x3d2878c4	0.041130796
36	0xbec5919f	-0.38587663
37	0x3c6121ae	0.01374094
38	0x3e241188	0.16022313
39	0xbc635158	-0.013874374
40	0x3d07f868	0.033195883
41	0xbc108905	-0.0088217305
42	0x3c88b674	0.016688563
43	0x3d6be2f9	0.057589505
44	0xbc1e5dbe	-0.009665905
45	0x3b1d5533	0.0024007082
46	0xbc8b31ff	-0.016991613
47	0xbdbf42e0	-0.09338927
48	0x3d425e60	0.047453284
49	0x3cade310	0.021226436
50	0x3e750cff	0.23930739
51	0x3d5bf6f6	0.053702317
52	0x3ea631ac	0.32459772
53	0x3e0d61d9	0.13806857
54	0xbcb2ee35	-0.021842102
55	0x3e8d5ed2	0.27611405
56	0xbd3fa924	-0.046792164
57	0xbdc87948	-0.097887576
58	0x3e825ff7	0.2546384
59	0x3c675f70	0.014121875
60	0xbd854804	-0.065078765
61	0x3dff3bbb	0.124625646
62	0x3cb79d45	0.02241386
63	0x3e061d7a	0.13097182
64	0xbbc03f24	-0.005866902
65	0x3d9639ab	0.07335218
66	0xbd74f1e6	-0.059801005
67	0x3d189ba6	0.037257813
68	0xbe02425f	-0.12720631
69	0xba27fb18	-0.00064079603
70	0x3e204d5d	0.15654512
71	0xbe9a9220	-0.3018961
72	0xbe1d75e0	-0.15376997
73	0x3cb3d73f	0.021953223
74	0x3e6016a2	0.21883634
75	0xbd542823	-0.05179609
76	0x3ce9b67a	0.028529394
77	0xbccd1c78	-0.025037989
78	0xbc9e411c	-0.019318156
79	0xbcbd4152	-0.023102436
80	0xbc59fcc2	-0.013304891
81	0xbaf98f00	-0.001903981
82	0xbd220745	-0.039557714
83	0xbd873748	-0.06602341
84	0x3cf42140	0.029801011
85	0x3d06f849	0.032951627
86	0x3d0adf7e	0.033904545
87	0x3cce3707	0.025172723
88	0xbc888ecd	-0.016669655
89	0xbd1b1134	-0.037858203
90	0x3e3bd8f6	0.18344483
91	0x3c71801c	0.014740016
92	0x3cd9707f	0.0265429
93	0x3d67e2a8	0.05661264
94	0xbd9058c7	-0.07048183
95	0xbc4a9eb8	-0.012366943
96	0x3e387a32	0.18015364
97	0x3c7f0ee0	0.015567511
98	0x3d52a18e	0.0514236
99	0x3d058428	0.032596737
100	0x3de5b418	0.11215991
101	0xbc8ac29d	-0.016938502
102	0x3d88a95e	0.06672929
103	0xbdf3bc60	-0.11901164
104	0x3d80cf08	0.06289488
105	0x3db020b3	0.08599987
106	0xbe649798	-0.22323453
107	0x3d650067	0.055908587
108	0x3d09e976	0.03366991
109	0xbc100868	-0.008791067
110	0xbec93d2f	-0.39304492
111	0x3e939492	0.28824288
112	0x3c09d5ed	0.00841282
113	0x3dd3f3e4	0.10349253
114	0xbd31c200	-0.043397903
115	0xbe81640c	-0.25271642
116	0x3dec7364	0.115454465
117	0xbd933d53	-0.07189431
118	0xbd8a42f6	-0.06751053
119	0x3daabf29	0.08337242
120	0x3c44f5eb	0.012021522
121	0xbca788c4	-0.020450957
122	0xbd0d9240	-0.034563303
123	0xbd51c62e	-0.05121439
124	0xbddb2406	-0.1070023
125	0x3e9d5684	0.3073007
126	0x3dbf1bf5	0.09331504
127	0x3ca51fbc	0.020156734
128	0x3d8b3489	0.0679713
129	0xbdc251ba	-0.09488244
130	0x3dca3c04	0.09874728
131	0xbcf26b95	-0.029592315
132	0x3d28217c	0.04104756
133	0xbd80694c	-0.06270084
134	0xbcfe3ee9	-0.031035857
135	0xbbb4c1b9	-0.0055162576
136	0x3e04ad1a	0.12956658
137	0xbd9dbfe0	-0.07702613
138	0xbcc9700b	-0.024589559
139	0x3e05a733	0.13052063
140	0x3d70d55e	0.058797233
141	0xbc8338f5	-0.01601837
142	0x3cb4d2a1	0.022073092
143	0x3ced1f80	0.028945684
144	0x3e809f15	0.2512137
145	0xbdacc565	-0.084360875
146	0xbce85b34	-0.028363802
147	0x3d648942	0.05579496
148	0xbdf3fbda	-0.11913271
149	0xbd835b65	-0.064139165
150	0xbd3cf72c	-0.04613416
151	0x3b897d08	0.004195813
152	0x3b11732c	0.0022193892
153	0x3dd653a1	0.1046517
154	0x3e0781a2	0.13233045
155	0x3d254502	0.040349014
156	0xbceaea05	-0.028676042
157	0x3d5072ef	0.05089086
158	0xbcad05d3	-0.021120941
159	0xbd632005	-0.055450458
160	0x3e0ba550	0.1363728
161	0x3e302a0c	0.1720354
162	0xba6de13e	-0.0009074396
163	0xbd01e939	-0.03171656
164	0x3c1a7836	0.009428075
165	0xbda9d885	-0.08293251
166	0xbcfef912	-0.031124625
167	0xbc6c824b	-0.014435361
168	0xbd0acde2	-0.03388775
169	0xbdc0a168	-0.09405786
170	0xbd492ee4	-0.049116984
171	0xbd66d7af	-0.056358036
172	0x3e532bd8	0.20622194
173	0x3e362710	0.17788339
174	0x3c242b11	0.010020033
175	0xbd73cce4	-0.05952157
176	0xbd59e4e4	-0.053196803
177	0x3d5c5e8a	0.053801097
178	0xbd93e57d	-0.07221506
179	0xbbb0a2c2	-0.005390496
180	0x3cd6ca1d	0.026219422
181	0xbe1435ba	-0.1447362
182	0x3e1bc1dd	0.15210672
183	0x3e46afe3	0.19403033
184	0xbce41a3b	-0.027844539
185	0x3e812e52	0.25230652
186	0x3d26d76e	0.040732794
187	0x3e619fae	0.22033569
188	0xbd07f569	-0.033193026
189	0xbd258ab8	-0.040415496
190	0xbd169d17	-0.036770906
191	0xbe084b18	-0.13309896
192	0xbd5789f3	-0.052621793
193	0x3e03f030	0.12884593
194	0x3e49f52d	0.19722433
195	0x3c406c60	0.011744589
196	0x3ddf921b	0.10916539
197	0xbd6872b6	-0.056750022
198	0x3d4bf104	0.049790397
199	0x3dd7d774	0.10539141
200	0xbcd7b811	-0.026332887
201	0xbd934e87	-0.07192712
202	0x3d456302	0.048190124
203	0xbb652460	-0.0034964308
204	0x3e5f4577	0.21803842
205	0x3d1aee87	0.037825134
206	0x3b23277e	0.0024895365
207	0x3cd5cc15	0.02609829
208	0xbc10e85d	-0.008844462
209	0x3d3e8554	0.04651387
210	0x3db13c34	0.08654061
211	0xbcd5a03b	-0.02607738
212	0x3e7dc319	0.24781455
213	0x3dadfe95	0.08495823
214	0xbcdeea5e	-0.027211364
215	0xbd5969f5	-0.053079564
216	0xbdc89c25	-0.09795407
217	0x3cf81d6b	0.030287465
218	0xbdbe1e36	-0.09283106
219	0x3e1455b8	0.14485824
220	0xbe0b29c5	-0.13590153
221	0x3d864e8a	0.06557949
222	0xbb33c6c0	-0.0027431697
223	0x3a98e196	0.001166391
224	0x3e88dc24	0.26730454
225	0x3e8e42dd	0.27785388
226	0xbc14dd40	-0.009085953
227	0x3c4bae73	0.012431729
228	0x3ebbef6b	0.367061
229	0x3ad45f40	0.0016202703
230	0x3e40831b	0.18800013
231	0xbda357f6	-0.079757616
232	0xbda1e5ee	-0.07905184
233	0x3de34a38	0.110981405
234	0xbefb5379	-0.49087122
235	0xbdb2a9a3	-0.08723762
236	0xbd9761d4	-0.07391706
237	0xbe1bace2	-0.15202668
238	0x3bb5aa39	0.0055439738
239	0xbcc001c5	-0.023438344
240	0xbebe508d	-0.3717083
241	0x3cee1dc8	0.029066935
242	0x3c7e0d16	0.01550605
243	0xbc97a081	-0.018509151
244	0xbd893445	-0.06699423
245	0x3d0c943b	0.03432105
246	0x3d09f5d0	0.03368169
247	0x3c4450d8	0.011982165
248	0xbccacc50	-0.024755627
249	0x3b84f8f2	0.004057997
250	0x3c63c24f	0.013901307
251	0xbc976ff0	-0.018485993
252	0x3d71b6da	0.05901227
253	0x3cafa759	0.021442102
254	0x3d176ab4	0.036966994
255	0x3e273fbc	0.16332906

net.4.bias f4 [256]
0	0xbd6bed34	-0.05759926
1	0xba9b2c16	-0.00118387
2	0xbdbd9eb7	-0.09258788
3	0xbd2736f9	-0.04082391
4	0x3e43ef7f	0.1913433
5	0xbd91f5ca	-0.07126959
6	0xbdd429b9	-0.103595205
7	0xbd1ba65d	-0.038000453
8	0x3de07969	0.10960657
9	0x3bad6e22	0.00529267
10	0xbdcc05df	-0.09962057
11	0xbd605801	-0.054771427
12	0x3b63af89	0.0034742078
13	0xbce6f9c0	-0.028195262
14	0x3e442017	0.19152866
15	0x3e4f1eae	0.20226547
16	0xbd4813a1	-0.048846845
17	0x3e074890	0.13211274
18	0x3d6b8d67	0.0575079
19	0xbdb619ad	-0.08891616
20	0xbc1fb596	-0.009747883
21	0xbd59e638	-0.05319807
22	0xbd54d86c	-0.05196421
23	0xbdcb7248	-0.09933907
24	0xbc0866de	-0.008325307
25	0xbd8ea72d	-0.0696548
26	0xbd0c0d9d	-0.03419267
27	0x3d8167d4	0.06318632
28	0xbb18ed49	-0.0023334792
29	0xbda7fcdf	-0.08202528
30	0xbe2895c3	-0.1646338
31	0xbc9ddf22	-0.019271437
32	0x3d08a349	0.033358846
33	0xbd3434b5	-0.043995578
34	0xbc5fc98c	-0.013658892
35	0xbdcb163f	-0.099163525
36	0xbdb3072a	-0.08741601
37	0xbd0a0cac	-0.03370349
38	0xbc8989a6	-0.016789269
39	0x3d0ffc8c	0.035152957
40	0xbdbc3d0f	-0.091913335
41	0xbd812b39	-0.06307072
42	0xbd638097	-0.055542555
43	0x3bbf0d77	0.0058304626
44	0x3dc3b00d	0.095550634
45	0xbd5e1344	-0.054217592
46	0xbd98418c	-0.07434377
47	0xbd4f62e7	-0.05063143
48	0xbcf9251a	-0.0304132
49	0x3dca7654	0.098858505
50	0x3c695fcd	0.014244032
51	0xbcf84abb	-0.030309072
52	0x3d99c78d	0.075087644
53	0xbd57a837	-0.052650657
54	0xbdb872ce	-0.09006272
55	0x3ba30a4d	0.004975593
56	0xbd910c8a	-0.0708247
57	0xbddd268a	-0.10798366
58	0xbd54e0aa	-0.05197207
59	0xbd025233	-0.031816673
60	0xbd7f70c7	-0.062363412
61	0xbd2129e5	-0.039346594
62	0x3e96ee6f	0.29478785
63	0xbce84579	-0.02835344
64	0x3d8c4eef	0.06850993
65	0xbe3b6e59	-0.18303813
66	0xbdf469f3	-0.11934271
67	0xbd488e69	-0.048963938
68	0xbd01bfbd	-0.031676996
69	0xbce6147f	-0.028085945
70	0xbd9a7864	-0.07542494
71	0xbd9ca919	-0.0764944
72	0x3e364847	0.17801009
73	0xbd32106f	-0.043472704
74	0xbd764cf5	-0.060131986
75	0xbba3d29b	-0.0049994714
76	0xbc800087	-0.015625251
77	0xbd10d5ad	-0.035360027
78	0x3e288baf	0.16459535
79	0xbd0af5dd	-0.03392588
80	0xbdd4c3b3	-0.10388889
81	0xbd39c9dc	-0.045358524
82	0x3e5c8027	0.21533261
83	0xbd9f4f40	-0.077787876
84	0x3d22013d	0.039551962
85	0xbd80022a	-0.06250413
86	0x3e4de29f	0.2010598
87	0x3c245c1d	0.010031727
88	0x3d049854	0.032371834
89	0xbdc7277b	-0.09724327
90	0xbdad3ae8	-0.08458501
91	0xbda86258	-0.082218826
92	0xbd86da9b	-0.065846644
93	0xbd48dffa	-0.049041726
94	0x3e453721	0.19259311
95	0xbd856b24	-0.06514576
96	0xbdc51568	-0.096232235
97	0xbc285384	-0.010273818
98	0xbdabfbc3	-0.08397629
99	0xbcec6303	-0.028855806
100	0xbd1173af	-0.035510715
101	0xbdb284a1	-0.08716703
102	0x3dcf1992	0.10112299
103	0x3c8d1a4f	0.017224459
104	0xbd0c1ea3	-0.034208905
105	0xbdb6463d	-0.08900116
106	0x3d8f4b4b	0.06996783
107	0xbe32d186	-0.1746274
108	0x3e1a50fe	0.15069959
109	0xbe11afde	-0.14227244
110	0x3d9391d2	0.072055474
111	0x3e1eae1c	0.15496105
112	0x3e0d481d	0.1379704
113	0x3e037117	0.12836109
114	0xbc0fcdf7	-0.008777133
115	0xbd576a13	-0.052591395
116	0xbda83db6	-0.082148954
117	0x3d631dd8	0.055448383
118	0xbd675c42	-0.05648447
119	0x3e463bb2	0.1935871
120	0xbdf3f6ed	-0.11912332
121	0xbd6ab1e6	-0.057298563
122	0xbcd81421	-0.026376786
123	0xbd9ee78d	-0.077590086
124	0xbd6848c2	-0.056710012
125	0xbd1eb544	-0.038747087
126	0xbd98c4a7	-0.074593835
127	0x3cc9a4df	0.02461475
128	0xbd6f821c	-0.05847369
129	0xbd81b3a6	-0.06333093
130	0x3c9a4357	0.018830938
131	0xbc52eef4	-0.012874354
132	0xbde3cf64	-0.11123541
133	0xbbe026e5	-0.006840574
134	0x3e520857	0.20510994
135	0xbc50a967	-0.012735701
136	0xbc46be63	-0.012130353
137	0x3d6d5153	0.057938885
138	0xbdcf9de5	-0.10137538
139	0xbc942c46	-0.018087517
140	0x3de85014	0.11343399
141	0xbdb152ac	-0.086583465
142	0x3d59024c	0.052980706
143	0xbe0e29d5	-0.13883145
144	0x3d6b0852	0.05738098
145	0xbcecf268	-0.028924182
146	0x3caa095d	0.020756418
147	0xbd8c5779	-0.068526216
148	0x3d10a3a8	0.035312325
149	0xbd99ff8f	-0.07519447
150	0xbd90eb0b	-0.07076081
151	0xbd70ff03	-0.058836948
152	0xbdf69829	-0.12040741
153	0xbd7bb969	-0.061456118
154	0x3c647208	0.013943203
155	0xbdc95efd	-0.09832571
156	0xbd65ce6b	-0.05610506
157	0x3e446615	0.19179566
158	0xbd9388d5	-0.07203833
159	0xbdab3cab	-0.08361181
160	0xbc8985a9	-0.016787367
161	0x3df57c6a	0.11986621
162	0xbc1358cf	-0.008993342
163	0x3e5448e8	0.20730937
164	0xbd417d28	-0.0472385
165	0xbda897bc	-0.08232066
166	0x3e3f98d7	0.18710648
167	0xbd34e427	-0.044162896
168	0xbd5c31cf	-0.05375844
169	0xbca63b70	-0.020292014
170	0xbe118ca9	-0.14213814
171	0x3daabb8b	0.08336552
172	0xbd29454c	-0.041325852
173	0xbdd064bd	-0.10175464
174	0xbd8559ae	-0.06511246
175	0xbd3473c5	-0.04405572
176	0xbcc750b9	-0.024330484
177	0x3c69ef38	0.014278226
178	0x3d78433c	0.060610995
179	0x3e61ee28	0.22063506
180	0x3d542b33	0.05179901
181	0xbdbfe91f	-0.09370636
182	0x3d415530	0.04720038
183	0x3c99efa1	0.018791022
184	0x3d217d2e	0.03942602
185	0xbd5512e2	-0.05201996
186	0xbcc54e60	-0.024085224
187	0xbda76b80	-0.08174801
188	0xbc9f31b6	-0.019432884
189	0x3d193cd6	0.037411533
190	0xbd93d62b	-0.07218584
191	0xbd3683f7	-0.044559445
192	0xbc6e095b	-0.014528598
193	0xbdf7b7ef	-0.120956294
194	0xbd82b295	-0.06381718
195	0xbd954089	-0.072877
196	0x3c6539d0	0.013990834
197	0x3d92af3d	0.0716233
198	0x3d1f0b6c	0.038829252
199	0xbcfa30c6	-0.030540835
200	0xbc0d7093	-0.008632797
201	0xbbce72c2	-0.0063003013
202	0xbd8c8eae	-0.068631515
203	0x3dbd0914	0.09230247
204	0xbd61854b	-0.05505876
205	0xbd1894d7	-0.03725132
206	0xbdb395ab	-0.08768781
207	0xbd940df4	-0.07229224
208	0x3e889982	0.26679617
209	0xbd9d9ffc	-0.0769653
210	0xbcf01e04	-0.029311188
211	0xbdc32f0d	-0.095304586
212	0x3e65e523	0.2245069
213	0xbd45c43b	-0.048282843
214	0xbd31d803	-0.043418895
215	0xbc484080	-0.012222409
216	0xbd23a6c8	-0.039953977
217	0xbd6e6479	-0.058201287
218	0xbbcebdf9	-0.0063092676
219	0xbd8b78ed	-0.06810174
220	0xbd4f81ee	-0.05066102
221	0xbd4d62dc	-0.050143108
222	0xbd9580bf	-0.07299947
223	0xbcd34611	-0.025790246
224	0xbd5f0bbc	-0.05445455
225	0xb9da77e3	-0.00041669523
226	0xbd07cd1d	-0.033154596
227	0x3c6ce741	0.014459432
228	0xbc9f37bc	-0.019435756
229	0xbd0bbb07	-0.03411391
230	0x3dc57c38	0.096428335
231	0xbc07b745	-0.008283441
232	0xbd8fff1f	-0.07031082
233	0xbe1d702c	-0.15374821
234	0xbb9290f7	-0.0044728476
235	0xbd98cb20	-0.07460618
236	0xbd846c1f	-0.06465935
237	0xbcd24c21	-0.025671067
238	0x3e4c2ce7	0.19939004
239	0x3e5836f9	0.2111472
240	0x3d4a0086	0.049316905
241	0xbd6473cf	-0.055774506
242	0xbda6dafc	-0.08147237
243	0xbdbb48e6	-0.09144764
244	0xbcf27625	-0.029597351
245	0xbc7f1c57	-0.015570722
246	0xbd2cd0cd	-0.042191315
247	0xbc3693e8	-0.011143662
248	0xbcdbab85	-0.026815185
249	0x3dd4a830	0.10383642
250	0x3e320203	0.1738358
251	0x3d6eaada	0.058268405
252	0x3cb04e3d	0.021521682
253	0xbc30b006	-0.010784155
254	0xbce54de8	-0.02799125
255	0xbde38dc5	-0.11111025

net.6.weight f4 [7, 256]
0	0x3eb0f32b	0.34560522
1	0x3cdcb6a5	0.02694256
2	0x3d7c118f	0.061540183
3	0x3de46863	0.11152723
4	0x3def4f87	0.116850905
5	0x3dee975c	0.11649963
6	0xbd51ffb8	-0.051269263
7	0xbe1d3003	-0.15350346
8	0x3de4de97	0.11175268
9	0x3d0e59ae	0.034753494
10	0xbd1f43fd	-0.038883198
11	0xbdb14acd	-0.08656845
12	0xbeb58b0a	-0.3545764
13	0x3e0eddbc	0.13951772
14	0x3e3804f0	0.17970634
15	0x3e257cc3	0.16160874
16	0x3e67be89	0.22631277
17	0x3db1a4e9	0.08674032
18	0x3dab5e38	0.0836758
19	0xbce8a04d	-0.02839675
20	0xbcee8c2a	-0.02911957
21	0x3e10f7ed	0.14157076
22	0x3c9064b7	0.01762615
23	0x3eaccbbb	0.33749184
24	0x3d4e2ab6	0.0503337
25	0x3d4c019a	0.049806215
26	0xbe9e6e20	-0.30943394
27	0x3e0a4fe7	0.13507043
28	0x3f3f16a8	0.74643946
29	0xbe2ef32c	-0.1708495
30	0xbd549fd3	-0.051910233
31	0x3d510d51	0.05103809
32	0x3cfe8b53	0.031072294
33	0xbd8b6796	-0.06806867
34	0x3de0fbc5	0.10985521
35	0xbe962dd4	-0.2933184
36	0xbe9fec42	-0.31234938
37	0xbc8216c7	-0.015880002
38	0x3e375cd9	0.17906512
39	0x3e0a6ea7	0.13518773
40	0xbc21144a	-0.009831497
41	0xbd025bc3	-0.031825792
42	0x3c0369dd	0.008020845
43	0xbcc74581	-0.024325134
44	0x3ddaf31d	0.106909014
45	0x3b0e01fb	0.002166866
46	0x3e514ccf	0.20439456
47	0xbc996278	-0.018723711
48	0xbd0cde7c	-0.034391865
49	0x3dff073d	0.124525525
50	0x3d893597	0.066996746
51	0x3d4d3361	0.050097827
52	0xbbb75225	-0.005594509
53	0xbcf9330b	-0.030419847
54	0x3e3dedc3	0.1854773
55	0x3d218af0	0.03943914
56	0x3e04fa35	0.12986071
57	0x3e667f63	0.22509532
58	0x3ed0d0ff	0.4078445
59	0xbe77b395	-0.24189599
60	0xbc3f5c7f	-0.011679768
61	0xbe38e96d	-0.18057795
62	0x3e3ab05f	0.18231343
63	0x3c888877	0.016666634
64	0x3e034800	0.12820435
65	0x3e7fe1ad	0.24988432
66	0xbd14d968	-0.036340147
67	0xbee2b645	-0.44279686
68	0x3e157b8d	0.14597912
69	0x3bee1175	0.0072652646
70	0x3cc6d536	0.024271589
71	0xbda8f306	-0.08249478
72	0x3db5ddfc	0.08880231
73	0xba2e4605	-0.0006648007
74	0xbe1bc3a9	-0.15211357
75	0x3e226bb7	0.15861402
76	0xbdefcfe0	-0.11709571
77	0xbd032d3b	-0.032025557
78	0x3dbc47cb	0.09193381
79	0x3e2ecfc5	0.17071445
80	0xbe0ccab0	-0.13749194
81	0xbe45c0ca	-0.19311824
82	0x3e1a9529	0.15095963
83	0xbdba87a2	-0.09107901
84	0xbc4909a0	-0.012270361
85	0x3e806b51	0.25081876
86	0x3e2614a3	0.1621881
87	0x3defd748	0.117109835
88	0x3cb18f6f	0.02167484
89	0xbda9b057	-0.08285587
90	0x3e6080c8	0.21924126
91	0xbd2930f0	-0.041306436
92	0x3cf448ca	0.029819865
93	0x3bff6966	0.007794547
94	0x3e0dc02f	0.13842843
95	0x3bd02bf0	0.006352894
96	0x3eba166b	0.3634523
97	0x3e40dc97	0.18834148
98	0xbd15daf9	-0.03658578
99	0xbe2b8225	-0.16748865
100	0x3b27ef44	0.002562479
101	0xbe16de43	-0.14733224
102	0xbe309e93	-0.17247991
103	0xbe03b933	-0.12863617
104	0x3c965f24	0.018355913
105	0x3b4408af	0.0029912402
106	0xbdcf260d	-0.101146795
107	0x3e3b9c9a	0.18321458
108	0x3dd14aa7	0.10219317
109	0xbac904fa	-0.0015336566
110	0x3daaeac2	0.08345558
111	0x3e156735	0.14590152
112	0x3e7a1831	0.24423291
113	0x3daa9472	0.08329095
114	0xbc187c15	-0.009306927
115	0xbd906b71	-0.07051743
116	0x3c3901c8	0.011291929
117	0x3dcb794c	0.09935245
118	0xbc6f56d5	-0.014608105
119	0x3e2e9db5	0.17052348
120	0xbd94a686	-0.07258324
121	0x3e0f9373	0.14021091
122	0xbd9c7635	-0.07639734
123	0xbd86c655	-0.065807976
124	0xbd4dfeb2	-0.050291725
125	0xbe9e4a06	-0.3091585
126	0xbe2fd561	-0.17171241
127	0xbdf871b3	-0.121310614
128	0xbdb8c6ba	-0.09022279
129	0xbdc44922	-0.095842615
130	0xbc17dc94	-0.0092688985
131	0xbe2f2cb9	-0.17106904
132	0x3e47e0b8	0.19519317
133	0x3ccbe344	0.024888642
134	0x3e0587a7	0.13040029
135	0x3e015e84	0.12633711
136	0x3d29788b	0.041374724
137	0x3d937ea4	0.07201889
138	0xbd5d4952	-0.054025
139	0xbd28aad5	-0.041178543
140	0x3dc5a91f	0.09651398
141	0xbde3ef53	-0.11129632
142	0x3cc89ac6	0.024487864
143	0x3ca7d252	0.02048603
144	0x3e3aa4c5	0.18226917
145	0x3cc6a46b	0.024248322
146	0xbe3f249b	-0.18666308
147	0xbd6c6cff	-0.057721134
148	0xbdf7b3bf	-0.12094831
149	0x3da918ec	0.082567066
150	0xbe7719a7	-0.2413088
151	0xbd2f7162	-0.04283274
152	0xbcd2136c	-0.025644027
153	0xbf1458b3	-0.57947844
154	0xbd07b8d6	-0.033135258
155	0xbd8552f9	-0.065099664
156	0x3d47d659	0.048788402
157	0x3dbe0e0c	0.09280023
158	0x3dddbf6a	0.10827525
159	0xbda4b055	-0.08041445
160	0x3db79524	0.08963993
161	0xbf4cf2bf	-0.800579
162	0xbc6e0ca0	-0.014529377
163	0x3e059a95	0.1304725
164	0x3d1b9f82	0.037993915
165	0xbe388af1	-0.18021752
166	0x3e465bef	0.19371007
167	0xbec09224	-0.37611496
168	0x3d527426	0.0513803
169	0xbc85d1f0	-0.016335458
170	0x3d756b70	0.059916914
171	0x3e5fd450	0.21858335
172	0xbec4d9fb	-0.38447556
173	0x3dfe030a	0.124029234
174	0xbe37dcef	-0.17955373
175	0xbea50028	-0.32226682
176	0x3c5b6891	0.01339163
177	0x3d4eec57	0.05051836
178	0xb9b5aa6d	-0.00034649987
179	0x3e0782da	0.1323351
180	0xbe1a6317	-0.15076862
181	0xbe0e66ee	-0.13906452
182	0x3d558ba6	0.052135132
183	0xbe8351e7	-0.25648424
184	0xbdd2c413	-0.102913044
185	0xbb958a2c	-0.0045635905
186	0xbc72218f	-0.014778509
187	0x3d683c69	0.056698237
188	0x3e3b5bbe	0.18296716
189	0x3dd3f59c	0.10349581
190	0xbcf920e5	-0.030411193
191	0xbe115b78	-0.14195049
192	0xbb9fd622	-0.0048778215
193	0x3d94445c	0.07239601
194	0xbe7057ae	-0.23470947
195	0xba2f5958	-0.00066890335
196	0xbe0ed609	-0.13948835
197	0x3dabba70	0.083851695
198	0x3e231679	0.15926541
199	0xbd973ddc	-0.073848456
200	0x3e63b15d	0.22235627
201	0xbe7833ac	-0.24238461
202	0xba6ba37d	-0.00089889
203	0x3d16da71	0.036829416
204	0xbd89e80f	-0.06733715
205	0xbd4337f5	-0.047660787
206	0xbd53b514	-0.05168636
207	0x3d4ba457	0.049717274
208	0x3e36f44d	0.17866631
209	0x3d60188b	0.054710906
210	0xbdaf005a	-0.08544989
211	0x3db98c3e	0.09059952
212	0x3e4c0224	0.19922692
213	0xbc76bb79	-0.015059345
214	0xbc95ec79	-0.018301236
215	0x3dcafd91	0.09911645
216	0xbdf82b83	-0.12117674
217	0x3d226d65	0.039655108
218	0xbcee4d6a	-0.029089648
219	0x3d0d62a8	0.034517914
220	0xbd309499	-0.043110464
221	0x3e3cb102	0.18426898
222	0xbca97d76	-0.020689707
223	0xbea2983c	-0.3175677
224	0x3d515e35	0.051115233
225	0x3e37e9b5	0.17960246
226	0xbecff1f6	-0.4061429
227	0xbc8e887f	-0.01739907
228	0x3de5fd67	0.11229973
229	0xbcf055e6	-0.029337835
230	0x3eb41ba2	0.35177332
231	0xbd5a5cdf	-0.053311225
232	0xbda86d48	-0.08223969
233	0xbdc3dc26	-0.09563474
234	0x3c7a6478	0.015282743
235	0x3e9f609a	0.3112839
236	0x3c4924a5	0.012276803
237	0xbe825a35	-0.25459448
238	0x3e31653f	0.17323779
239	0x3e2253f2	0.15852335
240	0x3a5ed7ea	0.00085008016
241	0xbd54392a	-0.05181233
242	0xbd1f3521	-0.038869027
243	0x3d6ef52c	0.058339283
244	0xbd35f85d	-0.04442631
245	0xbea83846	-0.32855433
246	0x3d18b4b7	0.037281718
247	0x3d5f0a9a	0.05445347
248	0xbda3e7c3	-0.080031894
249	0x3d63a655	0.05557855
250	0x3e42dc89	0.1902944
251	0xbde82184	-0.113345176
252	0xbe8de5e8	-0.27714467
253	0x3e2613f1	0.16218545
254	0xbdd3a34a	-0.10333879
255	0xbd034455	-0.03204759

net.6.bias f4 [7]
0	0x3e1bcb8d	0.15214367
1	0x3e3b1fc1	0.18273832
2	0xbde2b1a3	-0.11069038
3	0xbe03fd82	-0.12889674
4	0x3deb7be5	0.114982404
5	0x3e48f95d	0.19626375
6	0xbe553538	-0.20821083
