preTrained/GAIL_pretrained_4900_discriminator.pth (torch, 542340 bytes, 7 tensors)

net.0.weight f4 [256, 10]
00000000: adbc bdbe a226 81bd b6e9 653d 5954 913e
00000010: b423 34be 0339 4f3e 4d04 50bd 04e6 79be
00000020: 9da6 593e 5b46 123e b543 62be b395 933e
00000030: 16d4 8bbe 2a68 963e 7522 62be 4d1f 15be
00000040: a113 c83d 39e9 70bd 0501 9ebe fe64 393e
00000050: d336 9fbd 3679 e9be 7e70 d4be f818 abbe
00000060: 6541 59be e434 1bbe 98eb 48be 1816 193d
00000070: 9fc7 293e 40b5 663e 501a 203e 039a 5f3e
00000080: cf87 963e 02c2 73be 92a8 15bd f0ec 973e
00000090: 60d3 66be 3f0d f6bd d2d0 3ebe 35d5 153e
000000a0: 4395 4ebe 12fe 95be 0ec3 063e 7377 c33d
000000b0: 12cd 51be 60ad b83d a6e5 99bd b13d adbe
000000c0: 1f00 29bb 06b3 983e aba6 82be 1b4d 843b
000000d0: 6cb1 a2be 6d61 96be befc 573e 4bc6 08be
000000e0: e08f 993e 6bb1 b8bc b606 b1bd 50e2 5a3d
000000f0: fe75 e9be 35b3 acbe e72b db3b 9561 d23b
00000100: ff31 d03d f993 2bbe aa26 b23e 6b47 633e
00000110: c177 febc 401e a6bc 0cac b1be c086 01bf
00000120: 0868 983e d8e4 953d c221 513e b597 313e
00000130: 2b2f 273e e9db 613e 0bb6 1dbe 1508 a93d
00000140: 64fd 0c3e 1aaa 2abe 39bf 883d eba1 debd
00000150: 9b6f e53d 5885 88bd 84e0 aabc e1dd 8abd
00000160: 3d22 19bd 8645 7abe 5386 32bd d7ec 48be
00000170: cd43 193e 7579 2cbe be93 693e 3a17 ce3e
00000180: 1ac3 2c3e 9eca 4b3e afac 873e d559 fdbd
00000190: 2f0a 263e 5c58 263f 033c 513e 4847 0f3c
000001a0: b849 763e 5785 ad3e 9bb2 dc3d 19ca 91bd
000001b0: 3eb5 c4bd 1f48 53be 9116 353e 6c2b eabe
000001c0: 69ce 1cbe bd52 90be f6e6 383d 34b8 b4be
000001d0: 7331 823b 51f0 e63d 5e27 ab3d 8142 903d
000001e0: 6cf3 723e 35a8 26be 99e5 56be 56dc 7bbe
000001f0: eac6 83be 2fb9 83be 2b44 f9bd 683c 9fbe
00000200: 391d bbbd 66e5 af3e 6cf5 9dbd 6c8f b63e
00000210: a8d2 60be 85c5 4b3e 3a94 69be a30e 33bd
00000220: 5402 4b3e aa05 053d 4705 1d3e d80d bf3d
00000230: ff2d 3d3e 6c29 c23c b03b 773e bba3 97be
00000240: a72a 09be 25d4 39be 2db3 9cbd a34b 3f3e
00000250: 7829 1d3e 468e 8b3e 6d88 6abd 8607 9dbe
00000260: 3e6c 723e 024c a33d 48d8 bc3d 7526 cc3e
00000270: 7782 1abe cb71 743d 5b71 53bd df6d b23d
00000280: 902d 6c3e a36b 8dbe eaf6 44bd 48cd 883e
00000290: a2a8 67be c6b6 f73d b4eb 1abe f011 85be
000002a0: c12b a0be c698 843e 4c39 613d 7aca d23e
000002b0: 352f 91be 0084 173e 72ac 8e3e 384c 81bd
000002c0: 7e1d a83d 328c 2bbe ff55 86be 92d3 75be
000002d0: 854f 293e f5b5 843c c1ea e0bc 616f 96bd
000002e0: 6faa 49bb ec0f 0b3e c060 573e 553f 0e3e
000002f0: 52e7 e43d dcf2 223e 16a7 2ebe 58ee 03bf
00000300: 02e1 923e ef9c 12be fdb9 0abe ea25 50bd
00000310: fde1 80bd 8aad 9c3e 0ecc 0c3e 71a9 323e
00000320: 06f0 fabd 3bcf 9c3d f812 82be 291b ed3d
00000330: c2b9 c2be 353a 18be 5fe4 14be 9e17 9b3d
00000340: 02ab a2bd c02c d63d c06d 8abe bf44 c2be
00000350: 9c59 cf3d de04 6dbe 483f 9ebe 6d1a 17bd
00000360: 7ac6 87be 7390 0abe 5086 3b3e 1f16 86be
00000370: 99e5 093e 6324 8b3e bbad 8f3d 7b13 6ebe
00000380: 86df fbbd 8dde 893e fab4 eebd f527 00bd
00000390: 3bff 133e 9d51 7e3e d49b 443e dfef 0dbf
000003a0: 5350 afbe 7d06 243e b80f 44bd 0cd8 08be
000003b0: 3bf1 523d b966 20be 40a8 453d 2ae5 4e3e
000003c0: b288 22be 93ae 5cbe fcf6 89be e327 4cbe
000003d0: 95e5 083e b128 363e 7338 3c3d a0fe 2f3e
000003e0: 2650 873d 14a8 04be 83bf 893e 237e 9f3e
000003f0: bd67 16bc 29ba 18be 942b 873d 8592 72bd
-0.3705801 -0.06306197 0.056131087 0.28384665 -0.17591745 0.20236592 -0.05078535 -0.2440415
0.21254964 0.14284651 -0.2209614 0.2882515 -0.27310246 0.29376346 -0.22083457 -0.14562722
0.09769369 -0.05881617 -0.30860153 0.18104932 -0.07774129 -0.4560029 -0.41492075 -0.33417487
-0.21216352 -0.15156895 -0.19621122 0.037374586 0.16580056 0.22530079 0.15635037 0.21836095
0.2940049 -0.23804477 -0.036537714 0.29672956 -0.2254157 -0.12014245 -0.18634346 0.14632113
-0.20174126 -0.29295403 0.13160345 0.095442675 -0.20488384 0.09017444 -0.07514505 -0.3383613
-0.0025787426 0.29824084 -0.25517783 0.004037512 -0.31775987 -0.29371205 0.21092507 -0.13356893
0.2999258 -0.022545537 -0.08643858 0.053438485 -0.45597833 -0.33730474 0.006688583 0.006420324
0.10165786 -0.16755666 0.34795123 0.22195213 -0.031062962 -0.020278096 -0.34701574 -0.5059624
0.2976687 0.07319039 0.20423034 0.17343028 0.16326587 0.22056545 -0.15401475 0.08253495
0.13768536 -0.16666451 0.06677098 -0.10870727 0.11202928 -0.06666058 -0.02085901 -0.06780601
-0.037386168 -0.24440584 -0.043585133 -0.19621597 0.1496727 -0.16843207 0.22810265 0.40252095
0.168713 0.19901511 0.26498935 -0.1237065 0.16214822 0.64978576 0.20433049 0.008745022
0.24051559 0.33890793 0.10776254 -0.07118625 -0.09604882 -0.20632981 0.1768439 -0.45736253
-0.15313114 -0.28188124 0.045142137 -0.35296786 0.00397318 0.112763055 0.08357118 0.070439346
0.2372567 -0.16275103 -0.20986022 -0.2459577 -0.25737697 -0.2572722 -0.12171205 -0.31100774
-0.09136433 0.34354705 -0.07712826 0.35656297 -0.21955359 0.19899566 -0.2281045 -0.04371513
0.19825107 0.032476105 0.15334044 0.09328812 0.18474577 0.023701392 0.24143863 -0.29617104
-0.13395177 -0.18147333 -0.076513626 0.18681197 0.1534785 0.27256984 -0.057259012 -0.30669802
0.23674104 0.07973482 0.0922094 0.3987309 -0.15088831 0.059678834 -0.051621776 0.087123625
0.23064256 -0.27621183 -0.048087038 0.26719117 -0.22622922 0.12095408 -0.15128976 -0.25990248
-0.31283382 0.25897807 0.054986283 0.41170102 -0.2835633 0.14796448 0.2786594 -0.06313366
0.0820875 -0.16752699 -0.26237485 -0.24006489 0.1653424 0.016200045 -0.02745569 -0.073454626
-0.0030771752 0.13580292 0.21033001 0.13891347 0.11176933 0.15912956 -0.17055926 -0.5153556
0.28687292 -0.14317678 -0.13547511 -0.050817408 -0.06293104 0.3060115 0.13749716 0.1744745
-0.12252812 0.076567136 -0.25405097 0.11577446 -0.38032347 -0.14865954 -0.14540242 0.07572864
-0.079427734 0.10457754 -0.27036858 -0.37943074 0.101245135 -0.23146388 -0.30907655 -0.036890436
-0.26518613 -0.13531666 0.18312955 -0.26188752 0.13466491 0.27176198 0.07015558 -0.23249619
-0.12298493 0.26927605 -0.11655612 -0.031288106 0.14452831 0.2483582 0.19200069 -0.5544414
-0.3424097 0.160181 -0.047866553 -0.13363665 0.051499587 -0.15664186 0.04825616 0.20204607
-0.15872458 -0.2155097 -0.26946247 -0.1993709 0.13368829 0.1778896 0.04595227 0.17186975
0.06607084 -0.12954742 0.26903924 0.31150922 -0.009180007 -0.14914764 0.06600109 -0.059221763

net.0.bias f4 [256]
00000000: 4341 873e 457e 83be a5e4 5c3d 8159 283e
00000010: 1e68 ffbd 0dc3 9ebe 7b29 353e d591 ce3e
00000020: 7953 c1be ec2e 7e3e f747 823e 6b4e c9be
00000030: 5641 9cbd 9053 26bd b585 78be a84e b43e
00000040: c05e 8fbe 6846 bebe f835 833e 4ba6 8fbe
00000050: a0f1 63be 98d0 69be e805 2d3e b86c e33c
00000060: 1fee 10be 96ac 97be cb39 3ebe c2ef 653e
00000070: 535b 8c3e 28d8 373e e885 89be 89e8 953e
00000080: 2cc4 97be fae6 723e 4034 543e a64b 073e
00000090: 32d4 c2bd d840 173e 6b05 1a3c a991 393e
000000a0: 22ed c7bd 9276 803e d804 aebd b36b ddbe
000000b0: 2a60 7abe ca13 6a3e 5ed8 d9be 04a0 6f3e
000000c0: e472 0dbd 6196 8bbd b80b f63d 3ce5 4bbe
000000d0: cb8c 1b3e 7c9d 333e 5d6a debe d15e 993e
000000e0: b046 2c3d 83da 46bd bab8 9fb9 8811 99be
000000f0: 4be8 0f3e b225 953e 2ee5 4abe 0ab6 053e
00000100: 82ea 0a3e e6e8 c03e 271c 513e 316d 3dbc
00000110: 179c 73be 40a7 b3be d8ed f1be 41ca 86be
00000120: 786a 3d3d 7b80 393e d82c 0b3d b79d 933d
00000130: b3bf 143e e55a f83e cb99 bf3e 70c2 c2bd
00000140: 1df2 65bc 64b0 a33e e713 3cbe 923d 543e
00000150: 3af1 85be 82ba 56be 3191 5b3e d428 703e
00000160: a186 bc3d 2118 02be 1f28 de3d 85d7 b9be
00000170: 2af1 bdbd 4f42 b6be 4118 fdbd bbe4 e03e
00000180: 88ed d93e f175 6ebe 775d 783e f3f3 8d3e
00000190: e0f8 b7be 8a70 6cbe 1532 c03d bef3 b53e
000001a0: 0cbf 8a3e 49f6 a33e 0fb4 2abe 7644 c43b
000001b0: 5528 2e3e 35d1 c73d 65d4 d53c b078 7fbe
000001c0: ffa1 e2bd 7f7e 8fbe 9e0c 88be b6f6 f3bd
000001d0: 4dc7 b43e de06 e43e e93b 9d3a c69c 03bf
000001e0: fb00 78be e8ef d3be ad14 aabd fe91 c43c
000001f0: ae2b 2b3c ff42 1fbd 7563 aab9 4429 093e
00000200: ec69 7a3d d94d 9ebd 59e5 36bd 2f06 8bbe
00000210: 5500 f23b 17d9 223e 0f32 79be 9a26 78be
00000220: 71fe b23d 9cb3 f03c 442b ecbd 26fb 213e
00000230: ccc1 3dbe cb8d bdbe eae8 0ebe fc1d 1dbe
00000240: bcfe bdbe c150 de3e c9a6 9c3e 684e fc3a
00000250: a92b 3b3e d1d9 973e 653b 193e aceb a13e
00000260: 12ea a23d 5238 fb3d 0678 f4be 1aa4 c23d
00000270: 832f 9fbe 59b3 5cbe c5f8 433e 463c 9b3c
00000280: 1092 edbd 94a5 84bd 052f 8f3d a8c1 cb3d
00000290: 076b 3abe 8763 be3e d1d2 91be c741 003d
000002a0: 62d4 e9bd 66f9 82be 95dc 9e3e b622 40be
000002b0: 5d38 b4be ca32 873e 60b1 7f3e 1f7f 05bf
000002c0: 95ac 083c 5826 dcbd 7229 483d 7e49 303d
000002d0: b820 0ebe fb20 da3e bc4b 74be e2ba af3e
000002e0: 9469 663e fe14 7a3e 847e b0bc 9b31 7ebe
000002f0: 4b2d 8a3e 1e3b 293e 259c 08be d915 3f3e
00000300: 1932 11be ba56 e8be c5e5 56be 7fee c33d
00000310: 8221 3c3e 9a39 80be f98b 9fbc bd41 17be
00000320: 066e 713d d9c4 2b3e fcd7 c6be a51a ebbd
00000330: f421 b2bd 9514 133e 0f96 e33e 0a12 2fbe
00000340: d818 39be 7cfd 10be c4b8 25be 5032 833e
00000350: 0254 9b3d 949f 163e 8fee 0a3e 3e54 acbe
00000360: d9d2 493d 0471 90bd 38ec 923e 33b1 94bd
00000370: d131 0bbe 2e08 40be c62a 5a3e efc2 5e3e
00000380: 8349 bc3d 858e adbe e9cd d43c 7297 41be
00000390: af62 cf3e b062 92be 0853 ef3d 5e74 74be
000003a0: 18e2 b73e 2015 953e 058f f33d 5dd2 c93d
000003b0: 84ad 033d e1d6 b43d 3662 183e 335a 563d
000003c0: 90f6 933e 7c45 43be dc64 7dbe 74e1 c4bd
000003d0: 96b4 94be 206f 423e 3bcc 33bd 3dce 01be
000003e0: 80d6 203e 14ae 0fbe 38da 87be 68af 14bf
000003f0: 5d5b 303d a93e 4bbe ee5f 85be 2e0c 48be
0.26416978 -0.25682274 0.05392899 0.16440393 -0.12471031 -0.31008187 0.17691605 0.40345636
-0.37758997 0.24822587 0.2544553 -0.3931764 -0.07629649 -0.040607035 -0.24269755 0.3521626
-0.28001976 -0.3716309 0.25627112 -0.2805656 -0.22260141 -0.22833478 0.16896784 0.027761802
-0.14153336 -0.2962386 -0.18576734 0.22454742 0.27413425 0.17953551 -0.26859975 0.29278973
-0.29641855 0.23720923 0.20723057 0.13212451 -0.09513129 0.1477083 0.009400706 0.18121971
-0.09762026 0.25090462 -0.084970176 -0.4324623 -0.24450746 0.22859111 -0.42547888 0.23400885
-0.034533396 -0.06815792 0.12013954 -0.19911665 0.15190427 0.17540544 -0.43440524 0.29955152
0.0420596 -0.048548233 -0.00030464475 -0.29896188 0.14053456 0.29130322 -0.19813988 0.13057724
0.1356602 0.37677687 0.20420896 -0.011561678 -0.23790012 -0.3508854 -0.47251773 -0.26326182
0.046244115 0.18115418 0.033978313 0.07207816 0.14526252 0.48506847 0.37422022 -0.09509742
-0.014034775 0.31970513 -0.18366967 0.20726612 -0.26160604 -0.20969585 0.21442105 0.23453075
0.09205366 -0.12704517 0.10847496 -0.3629724 -0.09274514 -0.35597464 -0.12358142 0.43924507
0.42564034 -0.23287179 0.24254404 0.2772518 -0.35932064 -0.23089805 0.093845524 0.35537523
0.27098882 0.32023838 -0.1667025 0.0059896065 0.17007573 0.097567 0.026102254 -0.24948382
-0.110660546 -0.28026196 -0.26572126 -0.11912291 0.35308304 0.4453649 0.0011996004 -0.5141109
-0.24219124 -0.4139397 -0.08304725 0.023995396 0.010447426 -0.03888225 -0.00032499028 0.13394648
0.06113617 -0.07729692 -0.044652317 -0.27153155 0.0073852935 0.15903126 -0.24335502 -0.24233475
0.08739937 0.02938252 -0.1153169 0.15818462 -0.18530959 -0.37022242 -0.13956037 -0.1534347
-0.3710841 0.43420985 0.30595997 0.0019249441 0.18278374 0.29658368 0.14964063 0.31625116
0.079548016 0.122666016 -0.4774782 0.09503956 -0.31090936 -0.2155279 0.19137867 0.018949639
-0.11600125 -0.06476894 0.0699139 0.099490464 -0.1820489 0.37185308 -0.28481153 0.03131273
-0.11417462 -0.255809 0.31027666 -0.18763241 -0.35199252 0.26405936 0.24970007 -0.52147096
0.008341928 -0.10749501 0.04886765 0.043038838 -0.13879669 0.42603287 -0.23857015 0.34322268
0.22501212 0.2442207 -0.021544702 -0.2482361 0.2698768 0.16526458 -0.13340814 0.18660678
-0.14179267 -0.45378667 -0.20986088 0.09566974 0.18372157 -0.25043947 -0.019475924 -0.14771171
0.058942817 0.1677431 -0.38836658 -0.114796914 -0.08697882 0.1436332 0.44450423 -0.17096725
-0.18075883 -0.14159197 -0.16183764 0.25624323 0.075843826 0.14709312 0.13567565 -0.33658022
0.049273346 -0.07052806 0.28695846 -0.072603606 -0.13593222 -0.1875312 0.2130538 0.21754049
0.09193709 -0.33897796 0.025977092 -0.18905428 0.40504977 -0.28590918 0.11685759 -0.23872516
0.35914683 0.2911768 0.11892513 0.09854577 0.0321479 0.088300474 0.14881214 0.052332114
0.2889905 -0.19069475 -0.24745506 -0.09613314 -0.29044026 0.18987703 -0.04389594 -0.1267633
0.15706825 -0.1403125 -0.26533675 -0.5808015 0.04305588 -0.19848122 -0.2604975 -0.19535896

net.2.weight f4 [256, 256]
00000000: 6656 8cbd 3800 6f3c 8bcb 87bd 9f57 3dbc
00000010: 92d8 69bd ec7e 3c3d 7e52 bcbd f17b 053c
00000020: 9c31 25bd bedb abbd 0b32 ccbd 7821 2a3d
00000030: 6e73 793d c3e4 e8bc c658 893b 2ca1 1fbc
00000040: 3c78 0fbd 766d 673d 91f7 1bbb 6d88 583d
00000050: ed73 5abd c2f4 19be 0239 82bd 7f0a 453d
00000060: c0d1 c7bc 164c 323c 9415 823d a915 d9bc
00000070: b52c 3fbd 3b74 62be 50ee 7c3c 97a2 7dbc
00000080: 38b5 58bc f6ef b1bc ef45 97bd ed4f c03d
00000090: b430 123d 7f70 973d 76f8 29be 058a 5bbb
000000a0: d03d 273c bec3 033d e804 2c3d 14a8 1e3d
000000b0: b0bd 74bb 8ed6 0abe 0479 5b3d 73ee cf3a
000000c0: 03d1 5cbd 2cc4 073d 84b4 39bd b0a7 813b
000000d0: bd11 45bd 2652 f33d 5704 ebbb 6aad 69bd
000000e0: 2a9b 573d d13f a638 1038 26be bd30 393c
000000f0: dfec 763d 2c92 2abe 8822 45bd 95d6 103d
00000100: 6529 7ebd 0fc8 c3bb 6f9a 22bd f501 9d3d
00000110: d479 cfbc f62e 183d 4a35 3b3d 222a 25be
00000120: 3bd3 903c c15c df3a 6f7d 71bc 2fe8 103d
00000130: c822 103c 4b9a ccbd 9ab3 963c ad32 71bd
00000140: 30ed dbbb e77b 98bd da0c 8cbd 2aa4 a5bd
00000150: 2643 5b3d 6150 bdbc 4e37 603e b6c6 853c
00000160: 4747 a73c 0e1d 90bc 4a67 76bd 8185 993d
00000170: ffa0 88bd b324 3d3d 43a2 2bbd 2715 a8bd
00000180: 17b6 d5bc 269b 78bd f2e4 18bc 8037 303d
00000190: a81a f73c d0ab 963b 28b0 a7ba a8d7 62bd
000001a0: ab72 00be 0057 783d 2311 0f3d 89ef 293d
000001b0: 33ce e7bc 0a4d 9b3d dc37 debc d21f fb3c
000001c0: 8d47 04bc 98c4 343d f0a0 35bb 9b76 0cbe
000001d0: 8d2d b53c a984 78bd cfc0 13bc 734c 173e
000001e0: 609d 023d a400 eabd 56b1 af3d d88e b8bc
000001f0: 00e3 02ba 7086 863d cada 56bd 94e2 46bd
00000200: 2f79 6fbc 05a3 513d cf34 adbc bada eabd
00000210: 852f 97bd 6808 80bd 01e2 9b3d 80c6 e7ba
00000220: bf86 c53d c3c1 67bd 846a 973d 76ff bfbb
00000230: 2419 afbc bcff 563d d23d 34bd a643 69bd
00000240: be37 19bc 503e b8bd f410 32bd 3886 f2bd
00000250: 7031 2dbe 6295 7cbd 8ba0 31bd 9434 64bc
00000260: f8dd 62bd f473 c6bc cbdc 153e 06ec 57bd
00000270: cd92 76bc 384b 353d 498b 563d 0249 a1bd
00000280: 6a55 e4bc 9537 5b3d 3fc8 26bd d16b 7d3d
00000290: 9e2f a13c fdcd 303b b817 79bc b1c6 9f3d
000002a0: 7291 113d e8e2 59bd 3ea6 d7bd 45bf dcbd
000002b0: d934 163d 1d34 113d ac74 06be a801 15bd
000002c0: d37c 05bd 3a89 643d 5309 5abe b37c 713d
000002d0: d01f a3bc 1d1c 84bd 3e86 fd3c 61bd a8bd
000002e0: 11f6 39be 4511 94bb 8030 5cbd 6bf2 a7bc
000002f0: 62cc 093d 6d30 ffbd 2cf0 b1bc bf85 473d
00000300: ae39 3e3d 8229 41bd d4e0 063d fdf1 fabc
00000310: 2ca9 263c 0057 59ba 7903 043d efc1 84bd
00000320: 4c3c babd 945c 71bb ac0c 8dbd 2f85 96bc
00000330: 36ef 623c f08e 8ebd 1ecb 0fbd e0a9 d43c
00000340: 389e 41bc 9908 533d 1e24 93bc 4d9d 84bd
00000350: 319c 10bc 6ba8 b33d b86a 343d ff8d 46bd
00000360: 5a60 a6bb 39c1 cabd 31a7 c9bd cc12 17bd
00000370: 9038 60bc bdd4 cfbd 6c4e 463d a724 8a3b
00000380: c818 aa3c c66e 8bbb f39c 223d 10a7 eb3c
00000390: 9017 9abd 3698 983c ad5f 4abc d437 1abb
000003a0: 630c f53b 85d1 b73b 718d 6f3d 57c6 cb3c
000003b0: c737 e0bc 684e 03bd 67e7 0e3c dc73 b9bc
000003c0: 6059 1b3e 682c 723c 20b8 54bd a81a f4bd
000003d0: f2ab 25be d0ab a2bb a55a 663d 0eae bdbc
000003e0: af65 61bd 6510 453c 252b 6f3d 3a28 93bd
000003f0: 20b9 febc 7052 353d c5d2 65bd cd7e 663d
-0.06852417 0.0145874545 -0.066306196 -0.011556535 -0.057091303 0.04601948 -0.09195422 0.008147226
-0.040330514 -0.08391522 -0.099704824 0.041535825 0.060901098 -0.028429395 0.004191491 -0.009743016
-0.035026774 0.056500874 -0.0023798684 0.05286448 -0.05333321 -0.15034774 -0.063585296 0.048105713
-0.024392009 0.010882398 0.06351772 -0.026499586 -0.046673495 -0.22114651 0.0154376775 -0.015480659
-0.0132268 -0.021720868 -0.07386386 0.09390245 0.03569098 0.07394504 -0.16598687 -0.0033499014
0.010207608 0.032169096 0.041996866 0.03873451 -0.0037344508 -0.13558409 0.053582206 0.001586391
-0.053910267 0.03314607 -0.04533817 0.0039567575 -0.04811262 0.11880903 -0.007172148 -0.057050146
0.05263821 7.9273836e-05 -0.16232324 0.011303124 0.06028449 -0.16657323 -0.048128635 0.03536089
-0.062051196 -0.0059747766 -0.03969806 0.07666389 -0.025326647 0.03715416 0.045705117 -0.16129354
0.017678848 0.0017041193 -0.014739378 0.035377678 0.008797355 -0.099903665 0.018396188 -0.05888622
-0.0067116246 -0.074455075 -0.06838389 -0.080879524 0.053530835 -0.023109617 0.21896097 0.016330104
0.02041973 -0.01759198 -0.060157098 0.07496167 -0.066713326 0.046177577 -0.04190279 -0.082071595
-0.026087804 -0.060694836 -0.009331929 0.04302168 0.030164078 0.0045981184 -0.0012793588 -0.055381447
-0.12543742 0.060629845 0.034928452 0.041488204 -0.028296566 0.075830534 -0.027126245 0.030654822
-0.0080737 0.0441328 -0.0027714334 -0.1371712 0.022116447 -0.06067339 -0.009018137 0.14775257
0.031888366 -0.114259034 0.08578746 -0.02252905 -0.0004992932 0.06568611 -0.052454747 -0.048555925
-0.014616295 0.05118086 -0.021143345 -0.114675 -0.073821105 -0.06251603 0.07611466 -0.0017683059
0.096448414 -0.05658127 0.07393363 -0.0058593107 -0.021374293 0.05248998 -0.04400427 -0.05694928
-0.009351669 -0.0899626 -0.0434732 -0.118420064 -0.1691339 -0.0616659 -0.043365996 -0.013928551
-0.055387467 -0.024225213 0.14635007 -0.052715324 -0.0150496485 0.044261187 0.052378926 -0.07875253
-0.02787276 0.053519804 -0.040718313 0.0618704 0.019676026 0.0026978247 -0.015203409 0.07801569
0.035539098 -0.05319491 -0.10529755 -0.10778669 0.036671493 0.03545009 -0.13130444 -0.036378533
-0.032589745 0.055794932 -0.2129262 0.058956813 -0.01991263 -0.06450675 0.0309478 -0.08239246
-0.18160273 -0.0045186603 -0.05375719 -0.020501336 0.03364218 -0.12460408 -0.021720968 0.048711535
0.046441726 -0.047158726 0.032929257 -0.030632967 0.01017217 -0.0008290857 0.032229874 -0.064823024
-0.09093532 -0.0036828863 -0.068871826 -0.018374054 0.013850978 -0.06960857 -0.035105817 0.025959909
-0.011817507 0.05152187 -0.017961558 -0.06475315 -0.008826301 0.087723576 0.044047087 -0.04847526
-0.005077404 -0.099001355 -0.09846342 -0.03688316 -0.013685361 -0.101479985 0.048414633 0.004215795
0.02076377 -0.0042551486 0.03970046 0.028766185 -0.075240254 0.018627267 -0.012351912 -0.0023531811
0.0074782833 0.0056096935 0.0584845 0.02487485 -0.027370347 -0.032057196 0.008722163 -0.022638254
0.15170813 0.014781095 -0.051933408 -0.11919147 -0.16178873 -0.0049643293 0.05623879 -0.023154285
-0.055028614 0.012027835 0.058390755 -0.07185407 -0.031094134 0.04426807 -0.05610921 0.05627327

net.2.bias f4 [256]
00000000: c02c 49bd 65c4 243d 4937 52bd 1304 11be
00000010: e6de aebc fdd2 553d 1ee8 98bc 3501 4fbc
00000020: 883f d3bd a940 0cbd 56bc 0fbd e83d b23c
00000030: 8da4 2d3c 2c78 b2bc 5ded 3f3c 0e4b 573d
00000040: 0e30 b0ba d56d 78bd c089 533e 0700 453e
00000050: 4f55 21bd 0abd 7abd 5894 f6bb 6f9a 293e
00000060: 1947 a5ba b531 d5bd 8b94 6f3c 49d1 c7bd
00000070: efdc fd38 9878 153e 2bf0 34bd e16b 133d
00000080: effd 5d3d 5a85 0abd df19 a23d 8d99 593e
00000090: ffea 993c 47c5 093e 6958 683b e364 a6bc
000000a0: ad4a cebb 173b cebd 49c6 4bbd bdb5 f0bd
000000b0: 2e65 9dbd 93d2 aaba 89bc 85bd 57da e9bd
000000c0: a3bd cebd 2708 21be 4080 83bd d153 ccbd
000000d0: e8d8 1dbd eb15 52bd f7df 7dbd baa8 853d
000000e0: 03a7 00be 5fd3 efbd 6df4 babd 419e 28bc
000000f0: 24d0 7abd 2e07 dbbc e144 5bbd 1070 3c3d
00000100: 2ac2 32bd f2c8 31bd 806d f23d 5600 01be
00000110: 0f11 86bb aa4b 413e 564f 63bc e807 93bd
00000120: 24a9 2abd 9be7 233d 5593 12bd ec77 c8bd
00000130: 5116 b1bd de46 9ebb d25a f4bd 9247 e63d
00000140: a318 3f3c d501 2f3d 4600 47bd 8071 8d3c
00000150: 2368 80bd 59de 7abb bd8c b4bc 8f1b 1abc
00000160: c8a0 12bd 93cb 91bd f7a3 b3bd 2cc1 78bd
00000170: 595d 5abd 711c a5bd 92de c0bd fc5a e5bd
00000180: 50c0 e2bd 9166 1ebc 183d f13c edf9 ea3c
00000190: 3d17 cabd ff65 83bd 5395 903b d82d 00bd
000001a0: fb34 abbd 2bc0 dbbd 4135 133d 455b 2d3d
000001b0: 9e66 813c 6d2a d4bd 8cda 18bd 136c 1f3e
000001c0: 5818 2cbd 62a0 88bd 264a b5bc 15db 013e
000001d0: 10e0 c9bd b11f 1c3e 120c b93c daec 99bd
000001e0: ff1f 523d 1ca1 49bd acfa ccbc 128b 9bbb
000001f0: eb59 883e d908 f13d e6df c6bc 952f 19be
00000200: a40f 37bd 81f8 13bd 22fc ed3d 5f9c 3b3e
00000210: f9e4 143d c43f c7bc b3ed 3d3d ddd4 a9bc
00000220: f237 573d b30e 2f39 137d 03bd ecea 26bd
00000230: 4d74 6f3d 6896 56bd 422c 9dbd b4ee 15bd
00000240: be6e 24bd 2a6e cebc 4dfd b1bd 9b0d 17bd
00000250: a833 d2bd 16ed 48bd 49b5 3abd a088 8cbd
00000260: 59a9 14bd 67b7 933c 620b 62bd 92d6 e1bc
00000270: b8f3 8abc b198 a83b a97e 0cbc 5872 2d3e
00000280: 0d4d acbc 9820 abbc 25e6 01be f4c6 cebc
00000290: 7fde 153e 3e41 053d 940a 113e 444b 833c
000002a0: 1d84 82bd 2085 8cbc 377e e8bc 0c33 f2bd
000002b0: bb9a 03bc 5c7c 1cbb 4288 f5bb 86ac 023e
000002c0: 30a7 8abc ba61 a83d 43ed 573c 3a26 8b3c
000002d0: f0f1 1ebd c0bf d13b b03f 93bd 07cf 523c
000002e0: 255e b1bd 6285 8d3d 94f3 14bd 2f1e 1dbd
000002f0: 9c68 bf3c 2020 85bd 4ce8 f3bd ab44 8ebd
00000300: ff9b 7abd 1805 37bc fcfd 81bd 092d b6bd
00000310: bbf7 163e 0722 a1bd 6662 ff3d 7a19 3fbd
00000320: 4e67 0a3e 401c c0bd ed55 6f3b 5d4a 533d
00000330: a207 273d 43aa 91bd 7029 b63b 2060 173c
00000340: fa35 5abd f12a 6cbc 22ac 123c b967 57bc
00000350: ecc0 1b3c 7ac7 12bd ad6f 4f3e 1820 cebd
00000360: cac4 85bc 919a 6abd 45cf 7bbd 8fb5 473c
00000370: 8299 debd cb5a 58bd eded bcbd f37d 6abd
00000380: 309d c93c 2c3a 623e 70bf d4bc 9e87 7fbd
00000390: 3f37 9fbd 00f8 b7bc 561a 75bd 9417 e6bc
000003a0: da5a 2ebd 6d4f abbc cc5c dcbd 6db6 5bbd
000003b0: 2516 663c 36cb 6abc d23f 903d 2e9e 7cbd
000003c0: 734d a33d ab05 26bd bc2a e53c 2baf bebd
000003d0: 8c72 543c 236c d33d d75a d03b 59bc 6e3c
000003e0: 6974 55bc d141 803d b3d4 50bd 891d 3ebb
000003f0: b2a7 163e 1cc3 41bd 0156 52bd 2e92 263e
-0.049114943 0.04022636 -0.051322255 -0.1416171 -0.02134652 0.052203167 -0.01866537 -0.012634565
-0.10314852 -0.034241352 -0.03509172 0.021758035 0.010598314 -0.021785818 0.011714307 0.052561812
-0.0013442056 -0.06065162 0.20658016 0.19238292 -0.039387997 -0.061215438 -0.007525008 0.16562818
-0.001260969 -0.104098715 0.014622818 -0.09756715 0.00012105132 0.14596784 -0.044174355 0.035991553
0.054197248 -0.03381858 0.07915091 0.21249981 0.018788813 0.13454162 0.0035453087 -0.020311778
-0.006295523 -0.10069864 -0.049749646 -0.11753414 -0.07685314 -0.0013032727 -0.06530101 -0.11418598
-0.10094764 -0.15725766 -0.06420946 -0.09976924 -0.038536936 -0.051290434 -0.061981168 0.06526323
-0.1256371 -0.11710238 -0.09128652 -0.010291637 -0.061233655 -0.026736822 -0.053532485 0.04600531
-0.0436422 -0.043404527 0.11837292 -0.12597784 -0.004091389 0.1887652 -0.013873896 -0.07179242
-0.04166521 0.040015798 -0.035785038 -0.09788498 -0.08646835 -0.0048302254 -0.11931385 0.1124412
0.011663589 0.042726357 -0.048584245 0.017266035 -0.062698625 -0.0038279502 -0.022039765 -0.009405985
-0.035797864 -0.07118907 -0.08771508 -0.060731098 -0.05331168 -0.080620654 -0.09417452 -0.111989945
-0.11071837 -0.009668008 0.029448077 0.028683627 -0.098677136 -0.064159386 0.004412332 -0.03129372
-0.083597146 -0.107300125 0.03593946 0.04232337 0.015796002 -0.103596546 -0.037317798 0.15568571
-0.042015404 -0.066712156 -0.022130083 0.1268123 -0.0985719 0.15246464 0.022588763 -0.07515879
0.051300045 -0.04922591 -0.025021873 -0.004746803 0.26631102 0.11769266 -0.024276685 -0.14959557
-0.04469265 -0.036125664 0.11620356 0.1832137 0.036351178 -0.024322398 0.046369266 -0.020731384
0.052543588 0.00016694776 -0.032101702 -0.040751383 0.058460522 -0.052389532 -0.07674457 -0.0366046
-0.040144674 -0.025199015 -0.086908914 -0.03687821 -0.10263759 -0.049054228 -0.045583043 -0.06861997
-0.036294315 0.018031789 -0.055186637 -0.027568135 -0.016961917 0.0051451554 -0.00857512 0.1693815
-0.021032834 -0.020889565 -0.1268545 -0.025241353 0.14635657 0.032532923 0.14164191 0.0160271
-0.06372855 -0.017153323 -0.028380496 -0.11826143 -0.008032496 -0.0023877835 -0.00749305 0.12761125
-0.016925424 0.08221765 0.013179126 0.016986001 -0.03880495 0.006401032 -0.07189882 0.012866742
-0.08660535 0.069102064 -0.036365107 -0.038358863 0.023365311 -0.06500268 -0.119095415 -0.06946691
-0.061183926 -0.011170648 -0.06347272 -0.088953085 0.14742939 -0.07867818 0.1246994 -0.046655156
0.1351597 -0.09380388 0.0036519722 0.05158459 0.040778764 -0.07112553 0.005559139 0.009239227
-0.053274132 -0.014414535 0.0089521725 -0.013147288 0.009506445 -0.035834767 0.20257445 -0.10064715
-0.016329188 -0.057276312 -0.061476965 0.012189283 -0.10869123 -0.052820962 -0.09225068 -0.05724902
0.024611086 0.22092503 -0.02597019 -0.062385194 -0.07774209 -0.022457123 -0.05983957 -0.028087415
-0.04256711 -0.020911897 -0.10759887 -0.05364077 0.014043366 -0.014330676 0.07043423 -0.06167429
0.07973757 -0.04053275 0.027974479 -0.093107544 0.012966763 0.1032336 0.006358485 0.014571273
-0.013028243 0.062625535 -0.050984096 -0.0029009304 0.14712408 -0.04730521 -0.05135155 0.162667

net.4.weight f4 [256, 256]
00000000: 03ef 383c c5cf 763e e6d3 51bd 8ff0 f43e
00000010: f004 3e3e 180b a4bb 7262 543c c0df 0c3c
00000020: 10a6 6c3e ddf5 313d 63f7 2d3c 7436 58bd
00000030: 2b92 323d ef46 1c3d c3cc 3cbd cbe6 6d3e
00000040: 7d65 ac3c f5bb 36bd 7dab 05bf 2522 64bd
00000050: 3205 103e e073 7b3c 3493 7a3c f24b 043e
00000060: 270d 0f3c 18ed fc3e b502 da3d 35b7 963e
00000070: c4fe 96bc 61c8 f9bb a093 50bb c2e9 743d
00000080: 2bc2 d53e b2c3 6f3d 5de2 d5be 0996 dcbe
00000090: c42f b93d eedf a13d 86af cfbc 5b0f 133d
000000a0: f9dc 483d 1f9b c33d 82af 703d e5ae 293e
000000b0: 0352 203d efee cc3a fa4c 723d 761b 273e
000000c0: 01a2 0c3e 6cf2 6a3e ea7d 873d faed 023e
000000d0: 70dc 0abd 583d 303d 3431 17bd a800 453e
000000e0: d5df ab3e 38be d83e e92f 543b acd4 ebbb
000000f0: 1094 71bd 2335 bdbc ab5f 3f3b 5ea1 f13d
00000100: 0dd4 1a3c 9edb df3c 921f 603c acce 583e
00000110: ca50 e4bc 4595 97be 15fa 4c3e 48e7 e5bc
00000120: f352 3dbd b174 c53e 72d9 6ebd 2b55 4d3e
00000130: fd30 2a3d eb74 60bd 7dd3 e23e de99 753d
00000140: 1f49 1e3c b4b3 9dbd 38ef f7bb 7bd6 c1bc
00000150: 14b0 1b3d 57aa 8b3c 6baa c03c cc7b 493d
00000160: 6070 c03b b86c 2e3e ec24 27bd 5c6f 76bd
00000170: 15b4 7f3e 7cc5 ecbc aae2 7fbd bae7 093d
00000180: f495 e63b 5159 653e aec0 3cbd e71f 853e
00000190: 19a8 773d 92e4 44bd 643f d23c eaca 7fbc
000001a0: 4d19 b63d b927 f23c 901c 2f3e e2dc 8ebd
000001b0: 9e08 b43c bcf3 f93e 52ad 093d df57 a9bd
000001c0: 263d a63c edca d43d 15d6 10bd 7815 ec3d
000001d0: 6e3e d7bc dc13 8cbd d104 913c 85e8 fe3c
000001e0: 1173 363e 5f19 1bbd 5e4a cc3c d830 cc3c
000001f0: 1684 f6bd 8ea7 d0bc 93b2 2abd 9c7a 873f
00000200: e027 63bc 86f2 06bc 307d 713e d48d f6bd
00000210: 7b4b 84bd 66e1 28bd 9178 f0bd 6b7a 85bb
00000220: 0712 2a3e cfc3 aaba e5cd bf3d 1b9b 84bd
00000230: a2c9 d83c bef7 86bd 03c4 2ebe ddb8 c03c
00000240: 3c3f 8d3c 7f87 3b3c 3f7f e43e 4560 5b3d
00000250: c5f1 d1ba 9956 55bb 32ae 403e 5429 2bbd
00000260: c045 293c 7018 7d3c fa1b 8a3c f1d8 5fbd
00000270: 683a 2abc 6069 bd3c 343f 00bc 3133 b43c
00000280: 652d 273d 652e 883d f8ff 013f 2b92 7a3e
00000290: ad2b 41be b4b2 ddbb 8c40 bf3d bc12 d23c
000002a0: b2fa 64bd 0238 a63d 4c88 1f3d 7528 a63e
000002b0: 7321 083d d7f9 9f3c 614d 0fbd dbe5 423e
000002c0: b5f8 9fbd 9b84 f93b 6291 fd3c b36c 753e
000002d0: 5ac0 3d3d e0a3 603d 6763 e23e a1ce 2a3e
000002e0: f067 89bd 008f 213c abd9 413d 012a 9c3d
000002f0: 55ae 913c e850 3cbd 8784 c63e d62a 783d
00000300: 2b69 26bd 4e71 1bbe 3f5c c93c f422 e2bc
00000310: 99e4 c0be abb1 d93e d861 62be e0c4 a83c
00000320: f903 37be c2eb c83d 7694 e7ba f6c6 6a3d
00000330: a21b 51bd 8344 a83e 1b69 3cbe a6ed dc3b
00000340: b504 203e ac86 17bd 7d6d 873d 3fa0 5ebd
00000350: 849a a03d 0f7c 5e3d 5b11 68be 8fb2 1b3d
00000360: cfa3 bb3c 72f9 343d 02f0 b4bc 1e02 67bd
00000370: c502 da3d 5d1e 103e 515f 6a3b 4025 bb3c
00000380: 33f1 723e da5c 00bd 604c 063d 6c7f 763d
00000390: 321b 883d 0fed 683d 1871 513c c520 a5bc
000003a0: 766c 7fbd 0c58 293d 39cf 023f 7694 37bd
000003b0: 5aa4 833d 24bb 14bd 7b25 0b3e 30b0 783d
000003c0: 8629 743d eb2f b43e cfe4 993d 0e94 31bd
000003d0: a11e 29bd b376 473d 8b8b 583d be72 9fbd
000003e0: e222 1c3e 9c23 12bd 6eec 0cbc 033c 8bbe
000003f0: 3f21 b2bb 60d0 d03c 6c0c e3ba 4b65 25be
0.011287454 0.24102695 -0.051227473 0.47839782 0.18556571 -0.0050062053 0.012962924 0.008598268
0.23110223 0.043447364 0.010618064 -0.052786306 0.043596428 0.038153585 -0.046093713 0.23232572
0.021044487 -0.044612844 -0.52214795 -0.055696625 0.14064482 0.015347451 0.015293885 0.12919596
0.008731163 0.49399638 0.106450476 0.2943665 -0.018432029 -0.007622764 -0.0031826273 0.05979324
0.417497 0.05853624 -0.41774264 -0.43083218 0.09042314 0.07904039 -0.02535225 0.035903316
0.04903886 0.095510714 0.058761127 0.16570623 0.039140712 0.0015635173 0.05915544 0.1631907
0.13733675 0.22944039 0.06615813 0.12786093 -0.03390163 0.043027252 -0.036912158 0.19238532
0.33569208 0.42332625 0.003237719 -0.0071969833 -0.058979094 -0.023096627 0.002920131 0.117983565
0.009449971 0.027326401 0.013679402 0.21172589 -0.027870554 -0.2960607 0.20017274 -0.028064385
-0.046221685 0.3856559 -0.05831284 0.2005202 0.041550625 -0.054799 0.44301978 0.059961192
0.009660988 -0.07700291 -0.007566359 -0.023661843 0.038009718 0.017048998 0.023518762 0.049190328
0.005872771 0.1703366 -0.040806696 -0.060164794 0.2497104 -0.028902762 -0.062472023 0.033668257
0.007036919 0.22397353 -0.04608219 0.26000902 0.060463045 -0.048069544 0.025664993 -0.015612343
0.088915445 0.029559957 0.1710074 -0.06975724 0.021976765 0.48818767 0.033612557 -0.08268713
0.02029283 0.103902675 -0.035360415 0.11527532 -0.026274886 -0.068397254 0.017702492 0.031116733
0.17817332 -0.037865993 0.024937805 0.024925634 -0.12036912 -0.025470521 -0.041674208 1.0584292
-0.013864487 -0.008236533 0.23582911 -0.1203877 -0.06459709 -0.04123058 -0.11741746 -0.0040734312
0.1660844 -0.0013028326 0.09365443 -0.064748965 0.026463334 -0.06590222 -0.1706696 0.02352565
0.017242067 0.011445879 0.4462833 0.053558607 -0.0016017488 -0.0032552837 0.1881645 -0.04178746
0.010331571 0.015447721 0.016859043 -0.05465025 -0.010389902 0.023121536 -0.007827569 0.021997066
0.040814776 0.06649474 0.507812 0.24469821 -0.18864317 -0.006765688 0.09338483 0.025643699
-0.055903144 0.081161514 0.038948342 0.3245274 0.033235025 0.019528313 -0.034985904 0.19032995
-0.07811109 0.0076146848 0.030953113 0.23967247 0.04632602 0.054843783 0.44216463 0.16680385
-0.06709278 0.009860754 0.047326725 0.07625199 0.017783323 -0.045975596 0.38772985 0.060587727
-0.04062764 -0.15179941 0.02458012 -0.027604558 -0.37674406 0.42518362 -0.22107637 0.02060169
-0.17872609 0.09810592 -0.0017668146 0.05731865 -0.051051743 0.3286477 -0.1839947 0.006742197
0.15626796 -0.036993667 0.0661268 -0.05435204 0.078419715 0.05431753 -0.2266287 0.038012084
0.022905258 0.044183202 -0.0220871 -0.056398503 0.106450595 0.14074083 0.003576238 0.02284491
0.23724823 -0.03133855 0.03278768 0.060180113 0.06645812 0.0568667 0.012783311 -0.020157227
-0.062359296 0.041343734 0.51097447 -0.044819318 0.06427832 -0.036311284 0.13588516 0.0607149
0.059609912 0.35192809 0.07514345 -0.043354087 -0.041288976 0.048697185 0.052867454 -0.07785557
0.15247682 -0.03567849 -0.008601291 -0.27194223 -0.005436092 0.025489986 -0.0017322428 -0.16151921

net.4.bias f4 [256]
00000000: aa5a 583d ec36 42bd 3dd2 5fbd 9562 9dbd
00000010: f395 52ba ebc3 6abc 4e88 983c 0349 8cbb
00000020: 1da7 db3c 0a94 a13d a998 75bd 2b7e 233c
00000030: 4715 1f3c 5390 a4bb d9d5 01bb 63d4 16bd
00000040: d42e 683d 0beb f53d 02db a5bc cb09 913d
00000050: 254b 953d 8c04 3bbc 2a17 3abb 7d8e 2dbd
00000060: 5a43 47bc a7c2 933c 996e 10bd 8c4d 773c
00000070: 8c95 27bd 19d8 8b3d f773 34bd dd41 6fbc
00000080: b712 dcbc 3e28 0abc 8837 7abd 1989 60bc
00000090: e634 6abc 07a6 ac3d e257 09bd 3376 af3d
000000a0: 490d 04bd f859 9fbd 1011 4cbd c9e7 8c3d
000000b0: df67 45bd 33c7 463d 5967 5bbc cf11 273d
000000c0: c13e ebba 4914 1dbc 3c9c d13d de43 18bc
000000d0: 9d89 e6bc 3bea b4bb 2953 59bd 1071 6c3d
000000e0: 817d 76bd b2f4 1abd 9d8d afbd 1d52 6bbd
000000f0: 063a 4abd 60d9 debc 03bf e5bc f38a ea3d
00000100: 7e42 a63d 2065 473d a457 843d 4148 753d
00000110: 05aa eebc d6fe 833d 7bdb 10bd 7f57 0f3e
00000120: 347f a4bc 5ebf 903d 7f95 41bc ef04 47bb
00000130: b3de 47bd d01c d13d 1799 ecbc 0359 ef3c
00000140: 6931 21bd fdc9 a73d ee4c 0a3e e9d3 8ebd
00000150: ed82 293d d097 dd3c 6ea7 c7bc d61f 46bc
00000160: b3ff 29bd ff59 423d 2c08 783d 1412 83bc
00000170: 93f0 0fbc a7af c03a 69ab e2bb 2fa1 4d3d
00000180: cf92 943d 6de4 163e ca6c 7bbd 56a4 8e3b
00000190: f435 dd3a 9283 8f3e 1a55 53bd 5237 c23d
000001a0: f6ff 083e b0df 10bd 04dd 463b 9a94 303c
000001b0: cd7c 9b3d 13f6 81bd da36 57bd 0c8b 49bd
000001c0: 1ec7 653d a1e2 a1bc e02e 72bc 18bf 53bd
000001d0: 29f4 babb 6b93 1ebc 8175 eb3d 3580 11bd
000001e0: 27ec 7bbd c707 363d 16a7 15bd 41df 7d3d
000001f0: 1df6 4bbc 9fc9 d3bb cc50 cd3d 4b47 19bd
00000200: 922c 07bc cd22 57bd a0f6 94bb c325 9c3d
00000210: 5067 3d3e fd60 91bd 6902 eebc 3c24 193e
00000220: ce5d 973c 8f3c 9ebd f118 e43d 4400 113d
00000230: e8ea 80bb b622 b7bb 3d96 80bc 8b9d 853c
00000240: 4a8a 40bd e322 84bd 9cbe ecbc 5f63 7cbd
00000250: fdf5 ccbc fc2c a9ba db73 9cbd 799d a53c
00000260: 8c2c 0c3e 48dc 383c 9866 963c f274 35bd
00000270: 5424 843d 8e1e 2f3d 75b8 0a3d e604 393c
00000280: af8c 55bd c070 edbb f814 c03d 2bfc 3cbc
00000290: b209 cebc d479 6dbd 6310 a13d 441a 023e
000002a0: 24f1 cabc 0929 bebc 2c48 ebbc b25c f5bc
000002b0: 0b8d a93d e2fa 113e 7744 67bd 0542 45bd
000002c0: 464f b6bc d070 803d fd35 cc3d 7074 b8bb
000002d0: 7f49 9d3d 607c bc3d d498 5ebd 64c6 21bc
000002e0: 9fc9 c63b 0613 53bd 9325 56bd 4af7 103c
000002f0: 5295 92bc f0cf 7dbc ab47 dd3d e25b 89bd
00000300: 7d07 69bd 9a06 bb3d 973f 1cbd dfa7 e23d
00000310: e694 6cbb 5226 c63d 8f5a 81bd 55f0 75bb
00000320: cc78 b0bc 3ded 75bc 2d1d c53d 359e 8ebc
00000330: 6e87 6e3c 8533 e93b 6a5d 7e3c 5c5f e6bc
00000340: 0189 e13a 1a05 803b fb3d 57bd 7c2d e43d
00000350: 14d0 aa3a 6475 703b 63bb 0e3d c358 9e3d
00000360: 9418 113e bbbc 4a3d 331d d8bc 1ebe 44bc
00000370: 4208 8fbc 9a99 eabc 48cc 6fbd 0196 153c
00000380: 5206 cabc 3bb9 853a 9343 f73b 037c 273d
00000390: 38d2 08bd 7c9b 603d 711a 0bbd c067 c23d
000003a0: 8bcc 073e 9e28 fa3c 4dbb 383d 734a 93bc
000003b0: 5a5c 04bd 5a90 b43c cf14 a8bb 47de 45bc
000003c0: e250 f83d 1850 6dbc 4a51 3a3d 018a 173d
000003d0: d43d 45bc 25c9 143a 054d 253d 23b7 8fbc
000003e0: c789 60bd d6cc 87bd 0084 aabd 50f6 ac3d
000003f0: 2dbb b1bb 6a8e 7cbd aa23 36bd d957 d63d
0.05282084 -0.04741566 -0.05464386 -0.07684819 -0.00080332084 -0.014328937 0.018619683 -0.0042811646
0.026813084 0.07889564 -0.05996004 0.009978811 0.009709663 -0.0050220876 -0.00198113 -0.03682364
0.056685284 0.120077215 -0.020246033 0.07081946 0.07289723 -0.011414658 -0.0028395155 -0.042372216
-0.012162054 0.018037153 -0.035261724 0.015094172 -0.040914103 0.06828327 -0.044055905 -0.014603105
-0.026864393 -0.008432446 -0.061088115 -0.013704562 -0.0142948385 0.08430105 -0.033531077 0.085674666
-0.032239232 -0.07780832 -0.04982096 0.06880147 -0.048194762 0.048529815 -0.013391339 0.040788468
-0.0017947779 -0.009587356 0.102348775 -0.009293525 -0.028141791 -0.0055210865 -0.053057823 0.057725012
-0.060178284 -0.037831016 -0.085719325 -0.057451356 -0.04937174 -0.027203262 -0.028045183 0.11452284
0.08118151 0.048680425 0.064620286 0.05988336 -0.029133806 0.064450905 -0.035365563 0.13998221
-0.020080186 0.070677504 -0.011815428 -0.003036793 -0.048796367 0.10210574 -0.028881593 0.029217249
-0.03935376 0.08192823 0.13505909 -0.069740124 0.041384626 0.027049929 -0.024371829 -0.012092551
-0.04150362 0.04744911 0.06055467 -0.015999831 -0.008785385 0.0014700786 -0.0069174063 0.050202545
0.07254564 0.14735575 -0.061383046 0.0043530865 0.0016877041 0.28030068 -0.05159483 0.09483208
0.13378891 -0.035369575 0.0030344138 0.010777617 0.07592163 -0.06345763 -0.052542545 -0.04920487
0.056098096 -0.019761385 -0.014781684 -0.051695913 -0.0057053757 -0.009678702 0.114970215 -0.03552266
-0.06150451 0.04444101 -0.0365363 0.06198049 -0.012448815 -0.006463244 0.100251764 -0.037421506
-0.0082503725 -0.052523423 -0.0045460016 0.0762439 0.18496442 -0.07098577 -0.029053884 0.14955229
0.018477347 -0.077263944 0.1113757 0.035400644 -0.003934253 -0.0055888547 -0.01569664 0.016310474
-0.047006883 -0.064519666 -0.028899483 -0.061618205 -0.02501964 -0.0012907083 -0.07639285 0.02021669
0.13688868 0.011282988 0.018359467 -0.04430098 0.064522415 0.04275375 0.03386732 0.011292672
-0.05213612 -0.007246107 0.093789995 -0.011534731 -0.025151107 -0.057977512 0.07864454 0.12705332
-0.024773188 -0.023212926 -0.028720938 -0.029951427 0.08278855 0.1425586 -0.056461778 -0.048158664
-0.022254597 0.06271517 0.09971235 -0.005629115 0.07680034 0.0920341 -0.054344967 -0.00987396
0.0060665156 -0.051531814 -0.052281927 0.008848021 -0.017893467 -0.015491471 0.10804685 -0.067069784
-0.056891907 0.091321185 -0.03814658 0.11067175 -0.0036099493 0.09675278 -0.06316101 -0.0037527282
-0.021541975 -0.015010175 0.096247055 -0.017409423 0.014558656 0.0071167373 0.015525201 -0.028121643
0.0017206968 0.003906858 -0.052549344 0.11141488 0.0013031983 0.0036691064 0.034846675 0.07731774
0.14169532 0.049496394 -0.02638111 -0.012008218 -0.017459992 -0.028637696 -0.058544427 0.009130002
-0.024661217 0.0010202298 0.0075458973 0.04088975 -0.033403605 0.05483578 -0.033960763 0.09492445
0.1326162 0.030536946 0.0451005 -0.017979836 -0.032314636 0.022041488 -0.0051294337 -0.012076921
0.12124802 -0.014484428 0.04548768 0.036996845 -0.012038667 0.0005675725 0.040356655 -0.017543381
-0.054818895 -0.06630866 -0.08325958 0.08445418 -0.0054239244 -0.061659254 -0.044467606 0.10465974

net.6.weight f4 [1, 256]
00000000: f2e2 c53f 378d f53e b6cf 393d 2649 f23e
00000010: 80f6 413f fb4f d5bc bc9a 653e 8d9a 12bd
00000020: 751a e2be b89e 613f 3ac1 263f a16a c53e
00000030: 09e4 413e 1e20 823b 2e8d ee3b b2f2 9f3c
00000040: 925f 84bf 4a47 a13f 0d3b ac3d 48d2 923f
00000050: 69a8 07bf 20ed a139 33ed 4cbc 0c0b 62bd
00000060: 4316 eebd d866 b03d d50e d83c 9d5c af3b
00000070: 383d 76bc 46c5 a13f 8db0 2b3b 2ae4 803e
00000080: 1ae0 373c 3696 133f 6581 233f 2507 c63c
00000090: 6ae5 7cbd c24e be3f 2aaa 0f3e d13f 663f
000000a0: b518 a33e f77b fabc b8ad 1c3c 7cb4 9f3f
000000b0: d093 92bc 47ea 4f3f ac8e c23e 733f 993f
000000c0: 94ad 49bc cd00 973f 0d56 843f 7077 a93f
000000d0: bf4a 07bc ab35 383e f0bc 12ba b66e 82bf
000000e0: c1f5 483d 9dc1 34bd b4e3 bf3e ee94 13bc
000000f0: acff 563f 4453 2bbd f65f d73e 8418 9e3f
00000100: 7f6f 5f3f 6c81 723e 6f5a dbbf e0d2 4c3f
00000110: e438 263f de1f 413d 415a 013f a241 9abf
00000120: 0431 73be 11ca a33f b2a9 033e 75da c33d
00000130: f527 083c 68a4 623f 5e8b 13bd c41b 973f
00000140: 99c6 cd3e 66fc 50bf 277c 9fbf da6e 803c
00000150: 152a a63e 1f9b a43f 26d3 1cbc 92ec 163d
00000160: c1be 113b dcf3 a93f b9f0 a73f d39e ef3d
00000170: a34e 273e 9399 5cbd 6429 af3d 132f 173f
00000180: 075b e23f 9942 783f 91b5 79bd dc1e 153b
00000190: c2e0 3dbe f1ad ddbf 7c32 49bd e644 763f
000001a0: 7c7c a83f c4f0 2fbd 52f5 12bc 8430 30bb
000001b0: 80c2 ad3d 8955 ce3e 3303 e9bc 5dc1 68bd
000001c0: 9cd9 873f 2a2b d9bd 57d4 983f e8c9 cf3e
000001d0: d1bb 70bc ce2a 273e 9b6f 873f 8023 573a
000001e0: 9828 4fbd 29b9 b03f a7a1 013f 65d4 973f
000001f0: 5ed9 3d3f ca55 bd3e 0a1f bf3f 49a2 463f
00000200: c4de 3dbd bd16 173f 092b ffbe 42db 573d
00000210: c1fd 973f 582c 153f 7d66 143a 7837 6cbf
00000220: 6caa 9cbe 924a 963f 99d9 e53f 1603 2c3f
00000230: a4d7 043b 6610 7a3f d12b 1b3e 758c 6b3f
00000240: 5c3b 3abd 0444 253d e9a0 39bc 219e 63bb
00000250: f63b 9a3e d171 76bd 3b40 3b3f f6e9 8d3e
00000260: a70f d83f 6640 31bd 1fd8 843f 5009 22bd
00000270: f04b 923e 3e97 c2bf 5dfe 36be 2b9e 8ebd
00000280: 4cf0 39bc fef0 90be cad1 c03f fbd3 55bd
00000290: 35e9 633e e531 103f f6ff 6b3f 29f1 2cbf
000002a0: b2ed 723f f2a4 d33b ea8d 4ebd c333 e5bb
000002b0: 3d89 bf3f 3c03 df3f c247 c73c c01b 14bd
000002c0: 9868 9d3c a1d6 e53e b9cc 80be fe39 8e3d
000002d0: 6dde 9d3f 179a 493f 85c6 6cbc ab14 0fbf
000002e0: 0abe cc3f 5e16 b6bc a0ed 203b 0fab f93d
000002f0: 561e 6e3e e4bb d1bc 3108 bd3f 90f6 81be
00000300: 2c8d ce3c 8bc2 c53f 773c 653d 561d db3f
00000310: 6057 a63f 42b2 9f3f fcec 18bc 5bd3 2bbd
00000320: 1e86 2d3f d89b 67bc 8496 5a3f 5e4b c33d
00000330: 4df9 b93f c7b4 9aba 67f5 e13e e106 793d
00000340: a905 933f 023b b23e 3508 95be ca2b 47bf
00000350: 778b c3bd f16d cfbe 264c 923f 665b 19bf
00000360: 9353 983f 8b59 b43f 2a78 e13c be1a f0bd
00000370: 8381 223c cf62 a0b9 3a3b 16bd 2a6b c93f
00000380: 87b6 88bd ba04 b4bc 1ecb 26bc 7cec c2be
00000390: d38d 1cbe bf0d d43f 7266 2d3d 4048 da3f
000003a0: 9452 6f3f 574a ba3e 662f ccbe 8f4d 4c3f
000003b0: e4f2 5c3f 989c 533d a854 193e 9d2f 0d3f
000003c0: 1721 9f3f 036b cabc fefb 1c3e 899b f33e
000003d0: 8a68 a13f 3b1f f33d 0c40 a13f 4937 92be
000003e0: d1bc cd3c 9613 153f 1a39 62bf 02d5 d63f
000003f0: 9cd6 26bd 7149 f93c 0381 1abe 6afd e43f
1.5459883 0.479593 0.045364104 0.47321433 0.75766754 -0.026039114 0.22422308 -0.035791922
-0.4416081 0.8813281 0.6513859 0.38557914 0.18934645 0.003971114 0.0072800135 0.019524906
-1.0341666 1.2599881 0.084097005 1.1470423 -0.5299135 0.00030884985 -0.012507725 -0.055186316
-0.1162534 0.08613366 0.02637426 0.0053516165 -0.015029244 1.2638328 0.0026197762 0.25174075
0.011222864 0.5765108 0.63869315 0.024173329 -0.061742224 1.4867785 0.14029756 0.89941126
0.31854787 -0.03057669 0.009562902 1.2476954 -0.017892748 0.81216854 0.37999475 1.1972488
-0.012309451 1.1797119 1.0338761 1.3239574 -0.008257567 0.17989223 -0.0005597612 -1.0190036
0.049062494 -0.044129957 0.3747841 -0.009007676 0.83983874 -0.041827455 0.420654 1.2351232
0.87279505 0.23682183 -1.7136973 0.8000927 0.6493056 0.04714953 0.5052834 -1.205128
-0.23749167 1.2796041 0.12857702 0.09563152 0.008310308 0.88532114 -0.036021583 1.1805348
0.4019058 -0.8163513 -1.2459763 0.015677858 0.3245398 1.2859839 -0.009571826 0.036846705
0.0022238942 1.3277545 1.3120338 0.11700215 0.16338591 -0.053857397 0.085528165 0.59056205
1.7684029 0.9697662 -0.06096417 0.002275399 -0.1854277 -1.7318708 -0.04912041 0.9619888
1.316299 -0.04295422 -0.008969622 -0.0026884386 0.084843636 0.40299633 -0.028443908 -0.05682503
1.0613284 -0.10603936 1.1939801 0.4058373 -0.014693216 0.16324922 1.0580934 0.0008206889
-0.050575823 1.3806506 0.50637287 1.1861693 0.741598 0.36979514 1.4931347 0.7759138
-0.046355024 0.5901907 -0.4983752 0.052699335 1.1874315 0.5827079 0.0005661024 -0.9227214
-0.30598772 1.1741507 1.795703 0.6719221 0.0020270133 0.9768127 0.15153433 0.92011195
-0.045466766 0.040348068 -0.011329868 -0.0034731703 0.30123872 -0.060167138 0.7314488 0.2771756
1.6879777 -0.043274306 1.0378455 -0.039559662 0.2857356 -1.5202405 -0.1787047 -0.06963762
-0.011348795 -0.28308862 1.5064023 -0.052204113 0.2225693 0.56326133 0.9218744 -0.6755548
0.94893944 0.006458872 -0.05042831 -0.006994696 1.4963757 1.7422862 0.024326209 -0.036159277
0.019214913 0.4489031 -0.2515619 0.06944655 1.2333504 0.7875075 -0.014451628 -0.5589091
1.5995495 -0.022227462 0.0024555698 0.1219083 0.2325376 -0.025602289 1.4768125 -0.25383425
0.0252138 1.5449995 0.055965867 1.7118328 1.2995415 1.2476275 -0.009333845 -0.04194961
0.6778277 -0.014136277 0.8538592 0.095358595 1.4529206 -0.0011803143 0.4413254 0.060797576
1.1486102 0.34810644 -0.29107824 -0.7780119 -0.09548085 -0.40513566 1.1429489 -0.5990509
1.1900505 1.4089826 0.027523119 -0.11723851 0.009918573 -0.00030591196 -0.036677577 1.5735829
-0.06675439 -0.02197491 -0.010180263 -0.38071048 -0.15288477 1.6566695 0.042334028 1.7053299
0.9348538 0.36384842 -0.39879912 0.79805845 0.8630812 0.05166301 0.149737 0.5515078
1.2431973 -0.02470923 0.15330502 0.475796 1.2610028 0.11871191 1.259767 -0.28557804
0.025114449 0.5823301 -0.8836838 1.6783755 -0.04073201 0.030430527 -0.15088277 1.7889836
