preTrained/GAIL_pretrained_6200_actor.pth (torch, 541220 bytes, 8 tensors)

net.0.weight f4 [256, 3]
00000000: f5cd 48be fdcf 17bf d8f6 aabe 240f b33e
00000010: e3c5 483f 85bc c3be aa64 013f 7f57 283e
00000020: e707 23bf abba 09bf bc32 813e 7e03 8abc
00000030: 98b9 c23d 78d9 b9be fdb6 36be 9138 4f3e
00000040: e1d1 55be 57bb 5abd 6c3b 5fbe f425 0c3f
00000050: e550 09be 74a1 c4be 52d3 8c3f b932 0ebe
00000060: abbc 36bf 19ec 8d3e 757a efbe 618f 13bf
00000070: 7327 e7bd 337c 04bf ba49 08bf 7739 1cbf
00000080: 5db9 5f3e 6f85 bebe a22d 49bd e145 02bf
00000090: 9ed1 44be e4cb 70bf 48c2 37be aa63 9fbe
000000a0: 6f9a 083e b76e 3a3e e5aa e43e 6570 f73e
000000b0: 01dc b6be 2a30 33bf 8cf9 763f e718 81be
000000c0: 392b 30bf 39cd 9d3e e614 0cbe f179 75be
000000d0: c6fc 903e 6031 a63e 9f6a d9be 8056 143f
000000e0: f283 7cbd f359 8c3d 9e38 94be 0803 f9be
000000f0: 7b12 28be c7e0 08bf 634c 5cbe f8d3 59be
00000100: 6a8d fcbd c19f 3d3e eb8a 51be 1acc 6f3f
00000110: 5a1d 02bf 5b51 c0be b802 09bf 14b6 d13e
00000120: 9184 073e b9d6 e03e 640e 29bf f56d e33e
00000130: 4875 c23e d7f8 e3be 9874 8a3c 1128 5f3e
00000140: 3091 1ebf b353 99bd 5f63 f43d e542 76bc
00000150: a0da 88bd 5dd4 87bc 7a1b c73e 5a14 46bc
00000160: 1da5 0cbf 8e69 1bbf 72a2 d93d 89e3 d3bd
00000170: 256f c43e 3428 77be efae f7ba 6451 12bf
00000180: e15b 0b3f 73ef 8ebf f54e bc3e 8233 abbe
00000190: 348f c73e 3c8a 46be 8913 2fbf c825 53be
000001a0: 958f 5ebe eac9 e1be a78d 763d e517 bfbd
000001b0: f2ff a03e f44c bc3d 299c 20be e085 38bf
000001c0: f622 5a3f cdef 01bf 65d7 483e d0f4 a0be
000001d0: 31d2 d8be 9e91 fabd 62e3 013f 58ae 47bf
000001e0: af00 103e 5ac2 f93e 2050 85be 7747 6fbd
000001f0: 5329 f63e 63ee 8ebe 4028 bebe 29ad 4a3f
00000200: 0b95 d2be f81f 79be 5648 c63e 3f44 5b3e
00000210: 81ac c03c 17a2 01bf e0b8 cfbe 280a 5f3d
00000220: bed8 f7be 3bf4 e7be 037d 42bf 3d9a 1b3f
00000230: 6f9b b8bd 8f1f 4a3e 7eed abbf 4bf4 873e
00000240: d218 f5be b54f b3be fba6 28bd ae2c e1be
00000250: 3b35 01be 528c b6bc 9841 93be 8124 913f
00000260: dc86 78be abb3 f23e 8ec7 193f 5651 5dbe
00000270: 03e8 07bf 027d 293e 341c 503e 520b 08bc
00000280: 418d 123f e039 fdbe 4012 8b3e 1c7a 14bf
00000290: 19e5 903d 5270 f63d ae99 43be 67e0 ebbe
000002a0: 02bc ae3e e6f7 af3c b6a6 a73e a8ba 76bd
000002b0: 3d02 1ebf 183c 37bd af8c c1be 9ba9 f73e
000002c0: 68f4 e23e bbd7 3fbf ac8d a3be 1c11 623e
000002d0: 533c 9bbe 4f56 37bf c52c 38be c888 8fbe
000002e0: ca83 eabd c5c2 3dbe 64bb 7abe e6fd 553f
000002f0: 4115 2bbe d801 b7be 12cd 4fbe 508e a9be
00000300: 302e 693e efe0 713f 3584 bd3e cd02 dfbe
00000310: f343 04bf 015a 583d 0953 82bd 8148 db3d
00000320: f944 18bf 9ab9 7ebe 1893 76be d18f e6bc
00000330: 66aa 3fbe fa9d 88bf 224a c9be 175d 46bf
00000340: 410f 923e 10ed cf3c de7e 7dbe b5ab fcbe
00000350: 49a7 0dbf f7ee 96bd 720c fb3e fe8f afbe
00000360: c3a1 1fbf 0d05 343f 40b8 c5be 5a67 ab3e
00000370: 4097 95bd 8132 afbd a6a3 47bd 0740 1ebf
00000380: d907 173e 2223 b4be 4934 b8be 641d 6dbe
00000390: 7091 7dbd afcd 1a3e d150 083e 22ee 9f3d
000003a0: ca66 513e f84d b2be 3dc7 633e 8f39 a13e
000003b0: 1a67 c43e 8fba 9abe e09e 103e 6804 6a3e
000003c0: 01f6 78be ec40 89bf 088b 543e a9db f3be
000003d0: b445 a43d 724e afbe 2d46 8e3e e3a8 c13d
000003e0: 64cc 893e a792 3c3e 104c 723e 7f88 23bf
000003f0: bc3c 763e 094b 21be 8215 10bf 2694 65bd
-0.19609816 -0.5930174 -0.33391452 0.3497249 0.7842695 -0.38229766 0.50544226 0.16439627
-0.63683933 -0.5380046 0.2523402 -0.016847368 0.095080554 -0.36298728 -0.17843242 0.20236422
-0.20880844 -0.053401317 -0.21800011 0.5474541 -0.13409765 -0.3840443 1.100199 -0.13886537
-0.71381634 0.2771919 -0.46773115 -0.57640654 -0.11286821 -0.5175201 -0.532375 -0.61025184
0.21848054 -0.37211177 -0.049115784 -0.50887877 -0.19220588 -0.9406111 -0.17945206 -0.31130725
0.13340162 0.18206297 0.44661632 0.48327938 -0.35714725 -0.6999537 0.9647453 -0.2521431
-0.6881595 0.30820635 -0.13679847 -0.23972298 0.2831785 0.32459545 -0.42464158 0.5794449
-0.06164927 0.06853094 -0.28949445 -0.48635125 -0.164133 -0.53467983 -0.21513514 -0.21272266
-0.1233166 0.18517973 -0.20463149 0.9367081 -0.50826037 -0.3756207 -0.53519773 0.40959227
0.13234164 0.4391382 -0.66037583 0.44419828 0.37980103 -0.44525787 0.0169013 0.21792628
-0.6194029 -0.074866675 0.11933016 -0.015030597 -0.066823244 -0.016580755 0.3888815 -0.012089813
-0.5493944 -0.6070794 0.10626687 -0.10346133 0.38366047 -0.2413643 -0.0018896739 -0.5715544
0.5443707 -1.1166824 0.3677899 -0.33437735 0.38976443 -0.1938867 -0.68389183 -0.20619881
-0.2173446 -0.4409936 0.060193684 -0.093307294 0.3144527 0.09194365 -0.1568457 -0.7207928
0.85209596 -0.5075653 0.19613416 -0.31436777 -0.42347863 -0.122348055 0.50737584 -0.780004
0.14062761 0.4878109 -0.26037693 -0.058417764 0.48078403 -0.2791625 -0.37140083 0.7917047
-0.41129336 -0.24328601 0.38727063 0.21412753 0.023519756 -0.50637954 -0.40570736 0.054453045
-0.4840755 -0.4530352 -0.75972 0.60782224 -0.090140216 0.19738601 -1.3431852 0.26553568
-0.478705 -0.3502175 -0.04117487 -0.439794 -0.12617962 -0.022283707 -0.28760982 1.1339265
-0.24270195 0.474027 0.6007012 -0.21613058 -0.53088397 0.16551593 0.20323259 -0.00830348
0.57246786 -0.49458218 0.2716236 -0.57998824 0.07074947 0.12033142 -0.19101593 -0.46069643
0.34127814 0.021480512 0.32744378 -0.060236603 -0.61722165 -0.044735044 -0.37802646 0.48371586
0.44327092 -0.74938554 -0.31944025 0.22076839 -0.3031946 -0.7161607 -0.17985828 -0.28034043
-0.11450918 -0.1853133 -0.24485546 0.83590543 -0.16707326 -0.35743594 -0.20293072 -0.33116388
0.22771525 0.94483846 0.37014928 -0.43556824 -0.5166618 0.05282021 -0.06363494 0.107071884
-0.59480244 -0.24875489 -0.2407955 -0.028144749 -0.18717346 -1.0673211 -0.3931437 -0.77485794
0.28527263 0.025381595 -0.24755427 -0.49349752 -0.5533338 -0.07369798 0.49032933 -0.34289545
-0.62356204 0.70320207 -0.38617134 0.33477288 -0.07304239 -0.08554555 -0.04874005 -0.6181645
0.14749087 -0.35183054 -0.3597739 -0.23155743 -0.061906278 0.15117525 0.13312079 0.07809092
0.20449367 -0.3482511 0.22243972 0.31489226 0.3835991 -0.30220458 0.14123106 0.22853243
-0.24312593 -1.0722938 0.20756161 -0.47628525 0.08021107 -0.34239537 0.27787915 0.09456041
0.2691375 0.18415318 0.23661828 -0.6388015 0.24046606 -0.1575128 -0.5628282 -0.05604949

net.0.bias f4 [256]
00000000: df52 08be 9e38 07be 50c6 d93c 8da7 24be
00000010: ec44 733d f63c 123e 13a5 18bd 94bf dd3d
00000020: a1cc e13e 82b2 e63e 7f33 33bc 348d c33e
00000030: 6518 b83e 84d9 59bb 0380 36be 1404 3c3e
00000040: f5db 843e f1ab e0be 38cb 90be caaf 2a3e
00000050: 244e a63d 9ad2 5bbe ff85 003e 1a8d 29be
00000060: 901d 3a3e f6b3 67be 5af3 cb3d acb8 0dbf
00000070: 08a1 03bf 1bfa 5f3e 21cc fdbe 2365 913d
00000080: d650 88be 5d12 093d 0b77 a63e 745b 453e
00000090: 8868 3ebe d87c af3e af3b 8e3d c565 a83e
000000a0: ba43 07bf b1af 80be dfa9 353e 6f85 74be
000000b0: 0092 acbe b880 023e ce55 4c3e b2ef 8abb
000000c0: 7089 0d3d c731 113e ccbf d63d 4355 51be
000000d0: f10a 8bbd 93f9 a3be 264c b83d 9a95 04bd
000000e0: 3ad5 d1be 7853 4fbd 0f30 3bbe fa35 e63d
000000f0: dd2e b83d 1206 83bd 92a7 12bb c411 ccbe
00000100: ab17 b5be 48f0 603e 5a4a ac3c 88d4 85be
00000110: 4f8f d93e 6394 5c3e f4d8 943e 1bcd f4bc
00000120: da8f 8c3e 6a51 06be 7c9e 1abe 4ba6 403e
00000130: 95b9 9abe 94ac c53d 4f6a babe 2032 debe
00000140: e41e 813e ca02 7c3e 1755 d0be 5c71 393e
00000150: 3572 0b3e ec52 04be 0b9b e5bd 7c6d 763d
00000160: 195a 4a3e fd20 82be 41c4 ddbc 1fdc fdbe
00000170: 518a 413c 7d08 a73d 4d6f 443e 9064 bb3e
00000180: 596e 87bd b2b4 b03e 479c 743d 1845 49bd
00000190: cb47 97be 8f20 88be 8eae 8b3c 0aef d9be
000001a0: 09ae b8bd cadc d0be f62e 813d ebb7 50bd
000001b0: ffad eabd 7df6 5b3d 2ba9 923e e4d3 d9be
000001c0: 55be 07bf 2617 0dbc 9a2f a0be cfbb 96bd
000001d0: 3d46 3dbe 2f1d 393e 84e1 c1bc 51c3 0c3b
000001e0: c1db 95be 8e30 8fbc f5ba 18be 9d56 41be
000001f0: 6115 8c3e 68ef c83d 47e9 78be 7ded 403d
00000200: f6ac 99be ae06 4b3e 6c94 c1bd a83a 1c3e
00000210: 2b93 1cbe 2b02 05be badd f8bd d9b2 58be
00000220: 6479 0fbe 07dc 34be 2302 36be 0b40 03bf
00000230: dd45 48be 8e0b a6be a1a1 96be 1111 30be
00000240: ce7f fbbe 66a0 f9be 5e87 523d 4e74 94be
00000250: 6ed9 b1be e739 953a ea54 efbe 29d7 a4be
00000260: b9f8 e1bd 023b 813e 0f2d 0b3e 8512 08be
00000270: d184 87be bc60 a33e dac8 2ebe e4c7 b23d
00000280: 801e c33d fe50 6ebe cef5 663e 7477 f2bc
00000290: 70f8 db3e 1a00 a6bd e93e b03e 4d9c 19be
000002a0: c7d9 fabd de94 acbe 64a7 1c3d eb77 fd3c
000002b0: a68a ee3b 066f a63e 0fc5 35be 45c7 793d
000002c0: a5e1 83be 0808 4fbe c9e8 913e 22a0 d7be
000002d0: 8157 96be ba2b e9be 011e 07be 216d 093e
000002e0: d4b9 053e 76dd d53e da4e e9be e645 e0bd
000002f0: 9e44 5fbe 9a63 e73d f51e 1a3e d54b 433d
00000300: 0484 7ebb 3308 ad3d 84e5 9abe 5692 3ebe
00000310: 27b6 0fbf b8be cfbe 2f67 6cbd c547 983e
00000320: 1b4b 333e 7197 83be 2d70 08bf 9376 18be
00000330: 5f91 ecbe 0655 a43e 810a 77be a622 c3bd
00000340: ece0 96bd d36d 603c a1d9 a5be 1233 0fbf
00000350: c542 a13d 0469 133e 100d 83be cbab d1bd
00000360: 6429 c23e 5227 9a3d 528b 1e3e bc60 343e
00000370: 41be 453e 3e80 dfbd 388e 4abe ddb8 723d
00000380: 2f66 1f3e 64dd 28bd 6956 03bf 33e2 063d
00000390: c038 963e db6a 55be b9a9 643e 2f24 fe3d
000003a0: 9fc4 9cbe 1b7a 8a3e 2688 89be 1c69 9e3e
000003b0: 97dc 5c3e 8360 a53e 7905 203d 22cb 913e
000003c0: 03ee 6d3d 49de b83c 1a6b 13bc 5b5b 903e
000003d0: d066 163d 3fdb e83d 3f91 02bf cafd 96be
000003e0: 6afb 813e 2065 64be d4c8 303e 9a50 6d3e
000003f0: a7df 81be f73c 79be d5f0 103e cde9 6dbb
-0.13312863 -0.13205191 0.02658382 -0.1607954 0.0593919 0.14281067 -0.037266802 0.10827556
0.44101432 0.45058066 -0.010937571 0.38193667 0.35956112 -0.0033241222 -0.1782227 0.1836093
0.25949064 -0.4388118 -0.28280044 0.1666862 0.08120373 -0.21467057 0.12551115 -0.16557732
0.1817534 -0.22627243 0.09958525 -0.5535991 -0.5141759 0.21872751 -0.495698 0.070993684
-0.26624173 0.03346478 0.32512698 0.19273168 -0.18594563 0.34274936 0.069449775 0.32890144
-0.5283772 -0.25134042 0.17740582 -0.23879026 -0.3370514 0.12744415 0.19954607 -0.0042399997
0.0345549 0.14179145 0.10485801 -0.20442681 -0.06789196 -0.32026348 0.08998899 -0.032369234
-0.4098299 -0.05061671 -0.18280052 0.11240764 0.089933135 -0.06397642 -0.0022377712 -0.39857304
-0.3536962 0.2196666 0.021031547 -0.2613871 0.42492148 0.2154098 0.29071772 -0.029882958
0.274535 -0.13116995 -0.1509952 0.18813436 -0.30219713 0.09652057 -0.36409232 -0.43397617
0.2521888 0.24610439 -0.40689918 0.1810965 0.13617785 -0.12922257 -0.11211213 0.060163006
0.19760932 -0.25415793 -0.02707112 -0.49582002 0.011812762 0.08155916 0.19183083 0.3660016
-0.06612844 0.3451286 0.05971935 -0.04913816 -0.2954696 -0.2658734 0.017051008 -0.42565185
-0.090175696 -0.4079345 0.06307785 -0.050956648 -0.11458968 0.053701866 0.2864469 -0.42544472
-0.530248 -0.008611476 -0.31286317 -0.073600404 -0.18483825 0.18077539 -0.023667105 0.0021478722
-0.2926922 -0.017479207 -0.14915068 -0.18880697 0.2736006 0.09811288 -0.24307738 0.047101486
-0.3001477 0.19826767 -0.09452137 0.1525675 -0.15290515 -0.12989108 -0.12151666 -0.21161975
-0.1401115 -0.17662059 -0.17774253 -0.51269597 -0.195579 -0.3243069 -0.29420188 -0.1719401
-0.49120945 -0.48755187 0.051398627 -0.28994983 -0.34736198 0.0011385054 -0.46744472 -0.32195404
-0.11033768 0.25240332 0.13591407 -0.13288315 -0.26468518 0.3190974 -0.17068806 0.08729532
0.09527302 -0.23273084 0.22554705 -0.029597975 0.4296298 -0.08105488 0.34422997 -0.1500103
-0.12248569 -0.33707327 0.038245574 0.03094097 0.007279712 0.3250658 -0.17750953 0.060981054
-0.2575809 -0.20217907 0.28497913 -0.4211436 -0.29363635 -0.45541173 -0.1319504 0.13420536
0.13059169 0.41770524 -0.4556797 -0.10950832 -0.21803519 0.11298294 0.15050872 0.04767974
-0.0038836012 0.084488295 -0.30253232 -0.1861051 -0.5613732 -0.40575194 -0.05771559 0.29742256
0.17509119 -0.25701478 -0.53296167 -0.14888982 -0.4620466 0.32096118 -0.241251 -0.09528093
-0.07367119 0.013698059 -0.323926 -0.559373 0.078740634 0.14395529 -0.25595903 -0.10237845
0.37922204 0.07527031 0.15482834 0.17615026 0.19310857 -0.10913132 -0.19780815 0.05925833
0.15566324 -0.04122676 -0.51303726 0.032930564 0.29340172 -0.20841543 0.22330369 0.12409245
-0.3061876 0.27046284 -0.26861686 0.30939567 0.21568523 0.32300195 0.03906772 0.2847529
0.058088314 0.022566931 -0.008997703 0.281947 0.036719143 0.11369943 -0.5100288 -0.294905
0.25387126 -0.22304201 0.1726411 0.23175278 -0.25365946 -0.24339662 0.1415437 -0.0036302686

net.2.weight f4 [256, 256]
00000000: 4468 32bd 9481 af3a 4d09 33be a294 e23c
00000010: 5d5a f7bc d99e 48bc 611e ae3a 5e73 573b
00000020: a06c 4a3e d044 ef3d f6fe 66bd af2b 48bd
00000030: 8581 9a3c bbae a33d 96b5 2cbb 64d6 b03d
00000040: 62c3 733d f06c 7c3d a4b6 3b3d ea12 87b9
00000050: 191f b3bd 706c 3d3c 46e7 613e c8d6 c9bc
00000060: 89d8 1f3c b0ac a8bc 16e5 033d d4ba 25bd
00000070: 28f9 7dbc a65c 3c3d 72d2 773d 816a 613d
00000080: a84b 6dbc 1c9d 093d 4748 00bd 24fb 443d
00000090: b497 323d 36c5 003e e118 eebc de22 ee3c
000000a0: 84a3 803d efc8 f6bc f4b7 c43b dc72 45bd
000000b0: e489 943c 4987 8bbd 73e8 4b3d 0a3e c43c
000000c0: 2969 3e3d 3f92 1a3b 0922 253d 5e58 4ebc
000000d0: 1639 7d3d 879f d3bb 0024 f5bc b2f4 27bd
000000e0: 6444 a4bc 8fbf 0bbe 4872 3f3d f0c1 1f3d
000000f0: 8816 31be 04b7 abbb 2232 343d 906c cc3c
00000100: c0dd 7dbd 4a06 55be 81c0 d6bb 1c90 913c
00000110: 8c52 59be cb1f 3e3d 7821 10be fba7 803d
00000120: 7de8 3f3d 0216 f6bc 6bd9 adbd b02e e5bd
00000130: e097 84bb a5fc cbbc 37d5 a43c 7a0e 78bd
00000140: d659 053c 34df 45bd f60e 1d3d 37d4 b93c
00000150: d654 46bb c15f 9abd d533 de3c 25e9 e7bb
00000160: e43b bcbc 8907 1ebc 648d 673c d8e7 dbbc
00000170: 497e 333d c73d 77bd 2553 3ebd 1200 7dbd
00000180: 55a0 973c 6675 05be 7eba a73c bb9d 03be
00000190: ec60 f13c a376 493d f922 44bc e55e 293d
000001a0: 53ea 4ebd 4add 363d 393b 46bc 3812 43ba
000001b0: 97da febc a006 873b 682a af3c 48ba 863c
000001c0: 68b0 703d 8888 95be 48fd ec3c 0299 24be
000001d0: cc1b 26be 00e1 4dbd a706 4f3b 7490 1e3d
000001e0: 5b9f 05bb 0970 d5bd 7419 7cbc 1bc3 64bd
000001f0: ef33 54bd cd4d c5bd 3d2e 8ebd 0079 b9bd
00000200: fab4 7fbd 7e5a 80bd a07f 51bd 70a7 82bc
00000210: 62de 683d 84b9 ae3c b289 c03d c5ad ecbb
00000220: 6b8d 943d 3bff 9abc 3c82 cfbb ce6c aebd
00000230: 7065 f63c 9d12 21bd 1bc6 97bd d5af 0d3c
00000240: d45e 50bd 957e 29bb 17c4 3d3d 4613 43bd
00000250: d8f9 903c 6765 7bbc 2bd4 eb3b bcc7 e23c
00000260: 5a08 b7bd e77c 29bd ef31 b0bd ee4a fa3c
00000270: 8096 00bb bfca 06be 9a5b 8abd 9fdc c8bc
00000280: e4e7 f2bd a0d9 7cbd 8af8 a9bd b366 ffbc
00000290: 53c8 1cbd 7b7b 81bd c6d2 41be 4856 bbbc
000002a0: 21dc bc3c 9b2e 443d fa16 11bd 4160 1cbe
000002b0: 2e3b 3e3d ff75 e839 47df 1e3d 8f31 4dbd
000002c0: 2d6f 7dbe b930 2bbc 175a c5bb 34d3 7cbd
000002d0: 841f d73c 4515 4cbc 435f 28be 11e2 4f3c
000002e0: e025 2f3c ec14 9c3c 5c6a 40bd 20c8 0bbd
000002f0: 1961 d1bc d7bc 783d 806b 86be 74b1 ee3b
00000300: f60d 21be 857a a3bc 4656 7d3d 0a19 4abc
00000310: f0db acbb f567 23be 617f 273d a035 0f3c
00000320: 9dca eabb 48fc f1bc 10ee 8d3c 0aaf d03c
00000330: 1b6f 533d da2c f5bc 13e0 bcbd c637 423d
00000340: 26c0 98bd ce5b c0bd 1bfb 233d 0242 503d
00000350: 4dcc 4e3b b4e9 fa3c 382e 7ebd 3cd6 d6bc
00000360: 812a 8c3d d7cb debd 0fa6 37bd d2de 083d
00000370: b618 87bd ad2d 673c efb7 7b3c 446b c3bc
00000380: 7858 553c 9cd6 32bd 562f 0abd 389e 98bc
00000390: 06f3 f33b ab8a 05bd d425 993d 1aa6 adbc
000003a0: bb79 4d3c fe02 57bd 2b6c a73c fe49 79bc
000003b0: 63e9 5b3b d83a c13d 1b75 623c 1a8d 40bd
000003c0: 43ac cc3a 2367 2d3c 073c 69bd 1a8a 723c
000003d0: 0320 3bbd fd69 49bd 138b 6cbb 990f 69bd
000003e0: 273c 323d d8e3 cb3c 20e6 29bc 1126 40bd
000003f0: c464 af3c 23a6 d53c 5c90 5fbc 85a4 343c
-0.043556467 0.0013390058 -0.17484017 0.027658764 -0.030194456 -0.0122449035 0.00132842 0.003287516
0.19768 0.11683047 -0.056395493 -0.048869785 0.018860588 0.079923116 -0.002635335 0.08634642
0.059512503 0.06162733 0.045828477 -0.000257633 -0.08746166 0.011561498 0.2206088 -0.024638548
0.009756216 -0.020590156 0.032200895 -0.040461376 -0.015501298 0.045986794 0.06050343 0.05503321
-0.01448337 0.033597097 -0.03131893 0.04809107 0.043601707 0.1257523 -0.029064598 0.02906936
0.06281188 -0.03012511 0.0060033742 -0.04820524 0.018132158 -0.06812913 0.049782228 0.023955364
0.046487007 0.0023585705 0.04031566 -0.012594311 0.06182202 -0.006458226 -0.029924393 -0.041004844
-0.020052142 -0.13647293 0.046739846 0.039003313 -0.17293751 -0.005240323 0.043993123 0.02495411
-0.061979055 -0.2080318 -0.00655371 0.017768912 -0.21222895 0.04641704 -0.14075267 0.0628204
0.046852577 -0.030039791 -0.08488735 -0.111905456 -0.004046425 -0.024900744 0.0201212 -0.06056068
0.008139094 -0.048308566 0.038344346 0.0226842 -0.0030262969 -0.07537795 0.027124325 -0.0070773535
-0.022977777 -0.009645351 0.014132831 -0.02684395 0.043821607 -0.06036165 -0.04646601 -0.061767645
0.01850907 -0.13033065 0.020474669 -0.12853138 0.029465161 0.049185406 -0.011971229 0.041350264
-0.050516438 0.04464463 -0.012099081 -0.00074413745 -0.031110091 0.004120663 0.021382526 0.016446248
0.058761984 -0.29205728 0.028929368 -0.16073993 -0.16221541 -0.050263405 0.0031589658 0.03871198
-0.0020389173 -0.1042176 -0.015386928 -0.05585013 -0.05180734 -0.0963398 -0.06942413 -0.09056282
-0.062428452 -0.0626726 -0.051147103 -0.015948981 0.056852706 0.021328695 0.09401263 -0.0072228634
0.07253536 -0.018920531 -0.006332664 -0.085168466 0.030077666 -0.03932439 -0.074108325 0.008647879
-0.050871685 -0.0025862802 0.046329584 -0.047625802 0.01769726 -0.015344 0.0071969233 0.027683131
-0.0893714 -0.04137888 -0.08603274 0.030553307 -0.0019620955 -0.13163279 -0.06755753 -0.024519263
-0.11860636 -0.06173098 -0.08299358 -0.0311769 -0.03827698 -0.0632238 -0.1892806 -0.02286829
0.023054184 0.04789601 -0.035422303 -0.15271093 0.046443157 0.00044338402 0.038787153 -0.05009609
-0.24749441 -0.010448628 -0.0060227024 -0.061724856 0.026260145 -0.012456243 -0.1644259 0.012688176
0.010690182 0.019052945 -0.046976432 -0.0341264 -0.025558995 0.060726967 -0.2625389 0.0072843377
-0.15727982 -0.019955883 0.061849855 -0.012335071 -0.005275242 -0.15957625 0.040892962 0.008740813
-0.0071652667 -0.029539242 0.017325431 0.02547409 0.05161963 -0.029928613 -0.09222426 0.04741647
-0.074585244 -0.0939251 0.040034395 0.0508442 0.0031554878 0.030629016 -0.062055796 -0.026225202
0.068440445 -0.10878723 -0.0448361 0.033415623 -0.0659651 0.014110011 0.015363677 -0.02385486
0.013021581 -0.0436617 -0.03373655 -0.018630132 0.007444742 -0.032602947 0.07477918 -0.021197367
0.01254123 -0.052493088 0.02043732 -0.015215395 0.0033555857 0.09435052 0.013821865 -0.047009565
0.0015615303 0.010583672 -0.056942012 0.014803434 -0.045684826 -0.049173344 -0.0036093637 -0.05689964
0.043514397 0.024888918 -0.0103698075 -0.046911303 0.021410353 0.026080197 -0.013645258 0.011025553

net.2.bias f4 [256]
00000000: 8c89 97bc 6767 0dbd e820 72bd 3109 46bd
00000010: cd45 7d3c 11c9 1a3d b55c 3abc 9774 9fbc
00000020: 9af3 6abd ee9c af3c 6325 c33b 365f a1bc
00000030: 58b8 a6bc 3ee1 bebc eb0d 8bbd c033 813c
00000040: 777e b6bc 8dbd 573c a04b 75bc 30c4 c93c
00000050: 16a3 c8bc 3ed6 f9bc c206 3cbc 09e6 27bd
00000060: 7169 8fbd b652 103d acbd 75bd 9970 84bc
00000070: 653f 88bb 1176 ea3c fce6 bcbd 91a9 86bd
00000080: ae08 52bd 8bf7 283d 1313 3abd 7ebe f3bd
00000090: 8af0 b5bd 0dc2 253b 8d00 4bbd c533 a2bb
000000a0: a6a1 71bd 27c7 08bd cbc7 763c a872 373b
000000b0: a981 833b a378 b13c 57cd 70bd ac92 82bc
000000c0: e217 a1bc 5c89 443c eba7 c7bc a886 27bd
000000d0: 2b7d 86bd 7826 473c 5f5e 17bd 44b3 c3bc
000000e0: 8d36 81bc 7be7 7fbd 9ad0 32bd 5fe8 80bd
000000f0: e966 f03d d75d 64bc e0cc 4abd a4e1 90bd
00000100: 0589 93bd d7d8 50bc 715c 95bd 90c8 40bd
00000110: 5e92 2c3c 37eb 0aba 0130 83bd 2356 8f3d
00000120: 360a 9abd da91 05bd 856a 03bd 5af1 613c
00000130: 0469 86bd 4947 823c 1635 cebc bd00 2bbc
00000140: 72f2 82bd f22c 3f3d ea9d 10bd 932e 233e
00000150: 6759 3abd 0573 5dbc d1a2 f33d f6b7 2e3c
00000160: 0982 4bbd 202d 5fbd e975 21bd 2c5b 3fbc
00000170: d520 cebc 3467 23bc 9b93 893c 10ec f5bb
00000180: 5098 66bd d653 bb3b 99ae e2bb 0ee5 8abc
00000190: 7f4c 2ebd f55f 1a3d 8554 83bd 8f9a 82bc
000001a0: 6e0d 9dbd 003e 3dbd 2f95 54bd 0ebb f4bd
000001b0: 52ca 253c e639 7cbd eff3 e03c f1c3 4ebd
000001c0: b7d2 4fbc f0d2 fabc a6a2 24bd 2149 94bd
000001d0: 731b 8ebb 09af 293a 1246 64bb 63a5 91bd
000001e0: ab46 b6bc 380c 19bd fd66 7dbd 65bf e7bc
000001f0: 6b61 6f3c 807b b1bd 67d3 97bd cb60 05bd
00000200: 556a f3bc a98b 9abd 26b6 e6bc add3 873c
00000210: 0408 b5bc 233c 053a 5cb5 d738 b629 04bd
00000220: 57cd 933c d1e1 5bbd f7b4 9abd 9f90 d03b
00000230: a874 bfbd ca7c abbd d9d4 9ebb aaf9 77bd
00000240: 0e27 593c fd3c 133d 720a 9a3c ae06 3fbd
00000250: e47f ba3b b2e5 34bd 1b21 313c 73cd c8bc
00000260: b386 1dbd cec0 56bd 6af8 68bd 4327 8fbc
00000270: b431 1bbc 537a b1b8 8455 553e 827d 263c
00000280: c06f 253d fee6 86bd 56bd 413c d335 633c
00000290: 343a 543d 1f31 ed3b ce1b 40bd 7888 64bd
000002a0: bb0c c3bc 7987 62bd 2bdf 83bd 02e9 82bb
000002b0: 46f6 0abd 4232 1e3c c06e 63bc 2c3e 08be
000002c0: 19e2 1abd d624 423c 059d 9bbd 79e4 7cbd
000002d0: dd37 bcbc 6d76 863d 4cfd 8cbc c675 0cbe
000002e0: 5d0b 09bd 37d8 9abd 0cb6 88bc 8206 ac3d
000002f0: 06f0 2bbc a860 c6bc cc6c 3a3d b297 f4bd
00000300: 10dd 01bc dd8d 8ebd a5c9 e9bc e15a a5bc
00000310: 2a27 a739 2bf3 9ebc 02f9 68bd 51b4 95bd
00000320: fbef 89bd 8c9b 78bd 3875 29bd 5398 11bc
00000330: 3b78 a3bc ecb6 f8bb 5e1d 0d3d 8a0a 8dbd
00000340: 1cb4 813b f26d b5bc 54e8 97bd 977e 51bc
00000350: 8048 3bbc fb2c c5bc 265d 85bd 62da e0bc
00000360: 28b1 853b 404a 243d ba5d cc3b 4ccf 65bd
00000370: 15f6 bebd 6d3b 69bd d46d 9e3c 52b6 53bd
00000380: 9fff c1bb 1465 febd 4827 edbb fcbf cab9
00000390: 3dcb 87bd 8af6 26bd d87a 1cbd 623a 96bd
000003a0: 1b79 33bc ac22 e2bc 1452 9cbc 13b7 d7bc
000003b0: 1b16 9f3c b5d7 a0bc 384e ba3c ffd6 36bd
000003c0: 093f 99bd bd87 133c 87bf 69bb 71df 153d
000003d0: c3a2 06bb 3ecc 4abd 9c31 13bd 5d90 6ebd
000003e0: e85d 15bd 4b0f 5c3c fe0a 87bd dd1e 0abd
000003f0: 9c4c 1cbc 3e83 0cbc 1247 45bc ba0f 77bc
-0.018498205 -0.03452244 -0.059113413 -0.04834861 0.015458536 0.037789408 -0.011374642 -0.019464774
-0.057361223 0.021437135 0.0059553846 -0.01969872 -0.020351574 -0.023300763 -0.06789764 0.015771747
-0.0222771 0.013167751 -0.014971644 0.024629682 -0.024491828 -0.030497666 -0.011476221 -0.040990863
-0.07002533 0.03523513 -0.05999534 -0.016166972 -0.004157948 0.028620752 -0.09223744 -0.06575311
-0.05127781 0.0412517 -0.045428347 -0.11901568 -0.0888377 0.0025292665 -0.049561072 -0.004950019
-0.05899205 -0.03339305 0.015062283 0.0027991924 0.0040132594 0.02166397 -0.058789577 -0.01593908
-0.019664709 0.01199564 -0.024372062 -0.040899903 -0.06566843 0.012155168 -0.036955234 -0.023889191
-0.015773082 -0.062476616 -0.04365597 -0.06294321 0.117383786 -0.013938389 -0.04951179 -0.070742875
-0.07203869 -0.012747011 -0.072930224 -0.04706627 0.0105329435 -0.0005299332 -0.064056404 0.06998851
-0.07521479 -0.032609798 -0.032084007 0.013790453 -0.06562999 0.015903132 -0.025171798 -0.010437188
-0.06393899 0.046673723 -0.03530685 0.15935735 -0.045495417 -0.013516192 0.11896289 0.010663977
-0.049684558 -0.054486394 -0.03941909 -0.011679452 -0.02516214 -0.009973336 0.016794017 -0.0075049475
-0.0562976 0.005716781 -0.0069177863 -0.016954925 -0.04255342 0.037689168 -0.06412605 -0.01594284
-0.07668577 -0.046201706 -0.051900085 -0.1194974 0.010119038 -0.061578654 0.027460067 -0.050479833
-0.012684516 -0.030618161 -0.040194176 -0.07240511 -0.0043367683 0.00064729206 -0.0034831804 -0.07111623
-0.022250494 -0.03736517 -0.061865795 -0.028289506 0.014610629 -0.08666134 -0.07413369 -0.032563012
-0.029713789 -0.07546169 -0.028163027 0.016580427 -0.022098549 0.00050825084 0.0001028578 -0.03226634
0.01804225 -0.053682152 -0.075540476 0.0063648964 -0.09348422 -0.08373411 -0.0048471508 -0.060540833
0.01325394 0.035946835 0.018803809 -0.04663723 0.0056915153 -0.044164367 0.010811116 -0.024512028
-0.038458537 -0.052429967 -0.05687753 -0.017474776 -0.009472299 -8.462802e-05 0.20833403 0.010161759
0.040389776 -0.06587027 0.011824926 0.013867813 0.05181332 0.0072385217 -0.046901517 -0.05579421
-0.023809781 -0.055304978 -0.0643905 -0.003995062 -0.03392627 0.009655537 -0.013881385 -0.13304967
-0.03781328 0.011849603 -0.075983085 -0.061741326 -0.022975856 0.06565557 -0.017210625 -0.13716802
-0.033458102 -0.07560771 -0.01668837 0.08399679 -0.010494238 -0.024216011 0.045513913 -0.11942996
-0.007926241 -0.06960652 -0.028538534 -0.020184936 0.00031881902 -0.01940306 -0.056878097 -0.07309783
-0.06735226 -0.060695216 -0.041371554 -0.008886415 -0.019954791 -0.0075901654 0.034451835 -0.06886776
0.0039582383 -0.022147153 -0.0741736 -0.012786529 -0.01143086 -0.0240693 -0.06511907 -0.027447883
0.0040799566 0.040109873 0.006236759 -0.056105897 -0.0932428 -0.05694144 0.01933948 -0.051687546
-0.005920365 -0.12421623 -0.0072373487 -0.00038671482 -0.066305615 -0.04076246 -0.03820309 -0.073353544
-0.010954167 -0.027604423 -0.019082107 -0.026332414 0.01941972 -0.019634107 0.022742376 -0.04463863
-0.07482726 0.0090045305 -0.0035667138 0.036590043 -0.002054379 -0.049511187 -0.035935983 -0.058243144
-0.03646651 0.0134313805 -0.065938935 -0.03372084 -0.0095397495 -0.008576212 -0.01204087 -0.015079433

net.4.weight f4 [256, 256]
00000000: 6fd6 13bd b70d b8bc 9089 cbbc 731d 90bd
00000010: 4e4f d0bd fe7f e2bd b235 a13c 9e42 42bc
00000020: fe16 f83d f686 ee3c 7d33 2ebd dc89 56bd
00000030: f065 543c 3097 cfbc 903d 40bc f428 53bc
00000040: a1b2 053e 35f8 c0bd 7045 3ebc 170c f7bc
00000050: 7570 e53c bedb 003c 2d61 8c3d cdf5 283e
00000060: d4e5 34bd d623 933e 0014 8cbd 9309 47bc
00000070: 2f32 503d f22d 60bd 8030 b7be 7ffe 3c3d
00000080: 000a c0b9 f4e3 b1bd c87f 24bd 0f04 b6be
00000090: 9f91 c5be 31db 5f3c 8811 243e 58f8 d2bc
000000a0: 68f8 073d 0589 10bc 74b6 883c f9e2 6b3d
000000b0: 0c5d 1ebc 6ab7 193a ff31 8bbc 6cd4 a73d
000000c0: 605e 423d 10e3 ad3c ff0c 753e f6f6 5b3d
000000d0: ac31 a63e bfaa 163e 35ee b2bc d25e 8d3e
000000e0: 24a9 3fbd 6ef9 c8bd fe4d ad3e 705f 673c
000000f0: 48c1 0b3d b31f ff3d 459d b73c 7a1d 063e
00000100: 243f c0bb ab39 963d e6f1 74bd a69b 183d
00000110: 5f42 02be 18fb 27ba 5d4d 203e cabb a3be
00000120: e075 1dbe 3fd7 b33c 0918 603e 2328 54bd
00000130: 7ab6 e93c b8f0 cdbc 1c41 9ebc 3198 3b3e
00000140: c2fc 59bc 008f f9ba 4507 22bd 5b32 793c
00000150: db39 a13d 49f8 063d 3414 933c fa37 ce3c
00000160: 06fa 693d 3411 1bbd f6d8 3b3e b7d8 6e3d
00000170: 7f70 d93c a8e2 673d 936a 31bd b89e 4abc
00000180: 327a 383e f00a 28bd 8ea1 523d 2884 053d
00000190: 18b4 e53d 50bd 9bbc 5ea9 883d e99f bcbd
000001a0: 08cf 803d b320 b03d 9897 64be 6700 653d
000001b0: 76e9 093d 6808 10bc 2f3d c9be 0353 28be
000001c0: 5aff 35bd e4f3 d33d 00c2 31bd 0c64 81be
000001d0: 6473 ec3d 533d 93bd f642 8abd 29bf aa3d
000001e0: e688 cdbb c488 a7bc b09b 873d 2ec6 51bd
000001f0: 0624 dbbd 8456 9d3e 2c6c b23d bc1f a53c
00000200: 8934 8b3d ba51 c2bd 73b1 5ebe fa18 a33d
00000210: a235 2f3e 4c69 80bd e93e febc b9c1 b4bb
00000220: 1aad 043e e0bf 9dbd f04c 96bc 7c7f 053e
00000230: 5ed5 703d 4332 83bc a1d2 b43c 801f ed3c
00000240: ecb9 253e 07e1 2ebd d9fc 81bd 4289 643d
00000250: dafb f3bd 655b 83bd 7c5b 4dbd 087d 893b
00000260: 248d b13b a153 d63d 54f5 103e 0245 253d
00000270: 76ef eabc ef72 503d b50d b03c 0520 63bd
00000280: 50a5 0b3e cc19 303e c71d d0bd 5b86 1dbd
00000290: a2b2 cc3e ef24 aabd 12f9 febc 4b82 6cbc
000002a0: d240 00be 68a1 c0bd e42e 49bd afd7 66bd
000002b0: 6423 533e 1027 363e 112b 243c e4cc 73bd
000002c0: e4e4 59bd 2f50 723d 7de5 93bd c2a2 b0bb
000002d0: 02a9 d63c 2c73 1dbe ddc1 1b3e 46b0 463e
000002e0: 3b1a e4bc 522e 813e 6ed7 263d 61b6 ba3e
000002f0: 69f5 07bd 48ad 28be b1c2 6e3d 184b 08be
00000300: 6c05 54bd 30f0 033e 2df5 493e 606c 403c
00000310: 1b92 df3d d451 68bd 04f1 4b3d 74d7 d73d
00000320: 11b8 d7bc 874e 93bd 0263 453d 6024 65bb
00000330: 7745 5f3e 301a cb3d c337 073d 15cc d53c
00000340: 5de8 10bc ad94 3e3d 343c b13d 3888 1e3d
00000350: 2ac0 963e 95fe ad3d 5eea debc b477 4abd
00000360: fb33 48bd faea be3d 361e bebd b855 143e
00000370: c529 0bbe 8a4e 863d c0c6 33bb 96e1 983a
00000380: 24dc 883e e4d2 8c3e 40dd 14bc 73ae 4b3c
00000390: 6bef bb3e 405f d43a 1b83 403e f657 a3bd
000003a0: eee5 a1bd 7b89 ef3d 01aa fabe 7605 b3bd
000003b0: 4443 843c f727 1bbe 31b0 b53b c501 c0bc
000003c0: 7f1b 91bd c81d ee3c 88a3 9f3c 27fb 1bbd
000003d0: 4534 89bd 3b94 0c3d d0f5 093d d850 443c
000003e0: 50cc cabc f2f8 843b 4fc2 633c f06f 97bc
000003f0: 107c a93d 59a7 af3c b46a 173d 2398 853e
-0.03609317 -0.022467477 -0.024845868 -0.07036867 -0.10171376 -0.11059569 0.019678924 -0.011856703
0.121137604 0.029117089 -0.04252957 -0.052377567 0.012963757 -0.025340647 -0.011733428 -0.012888182
0.13056423 -0.09422342 -0.011613235 -0.030157132 0.028007725 0.007864891 0.06854472 0.16500016
-0.044164494 0.28738278 -0.06839752 -0.012148279 0.05082911 -0.054731317 -0.3577919 0.046141144
-0.00036628544 -0.08686057 -0.040160924 -0.3554997 -0.38587663 0.013663099 0.16022313 -0.025753185
0.033195883 -0.0088217305 0.016688563 0.057589505 -0.009665739 0.00058638176 -0.016991613 0.08194813
0.047453284 0.021226436 0.23930739 0.053702317 0.32459772 0.14713572 -0.021842102 0.27611405
-0.046792164 -0.098132 0.33848566 0.014121875 0.034119874 0.12457218 0.02241386 0.13097182
-0.005866902 0.07335218 -0.059801005 0.037257813 -0.12720631 -0.00064079603 0.15654512 -0.3197921
-0.15376997 0.021953223 0.21884169 -0.05179609 0.028529394 -0.025139198 -0.019318156 0.18319775
-0.013304891 -0.001903981 -0.039557714 0.01520976 0.07872363 0.032951627 0.01795397 0.025173176
0.057123207 -0.037858203 0.18344483 0.058312144 0.0265429 0.05661264 -0.043314528 -0.012366943
0.18015364 -0.041026056 0.0514236 0.032596737 0.11215991 -0.01901117 0.06672929 -0.09210188
0.06289488 0.08599987 -0.22323453 0.055908587 0.03366991 -0.008791067 -0.39304492 -0.16437916
-0.044432975 0.10349253 -0.043397903 -0.25271642 0.115454465 -0.07189431 -0.06751053 0.08337242
-0.006272423 -0.020450957 0.06621492 -0.05121439 -0.1070023 0.3073007 0.087120384 0.020156734
0.0679713 -0.09488244 -0.21747379 0.07963748 0.17110303 -0.06270084 -0.031035857 -0.0055162576
0.12956658 -0.07702613 -0.018347234 0.13036913 0.058797233 -0.016015178 0.022073092 0.028945684
0.16184205 -0.04269507 -0.06347055 0.05579496 -0.11913271 -0.064139165 -0.050136074 0.004195813
0.0054184366 0.1046517 0.14156085 0.040349014 -0.028678637 0.05089086 0.021490911 -0.055450458
0.1363728 0.1719734 -0.101619296 -0.03845821 0.39980036 -0.08307826 -0.031124625 -0.014435361
-0.12524727 -0.09405786 -0.049116984 -0.056358036 0.20618969 0.17788339 0.010020033 -0.05952157
-0.053196803 0.0591585 -0.07221506 -0.005390496 0.026203636 -0.15375966 0.15210672 0.1940318
-0.027844539 0.25230652 0.040732794 0.3646727 -0.033193026 -0.16472352 0.05829114 -0.13309896
-0.051762983 0.12884593 0.19722433 0.011744589 0.10916539 -0.056718662 0.049790397 0.10539141
-0.026332887 -0.07192712 0.048190124 -0.0034964308 0.21803842 0.09917104 0.033012163 0.02609829
-0.008844462 0.046528507 0.08654061 0.038704127 0.29443485 0.08495823 -0.027211364 -0.049430564
-0.048877697 0.09322162 -0.09283106 0.14485824 -0.13590153 0.06557949 -0.0027431697 0.001166391
0.26730454 0.27504647 -0.009085953 0.012431729 0.367061 0.0016202703 0.18800013 -0.079757616
-0.07905184 0.11696144 -0.48957828 -0.08741276 0.016145356 -0.15151964 0.0055446853 -0.023438344
-0.070853226 0.029066935 0.019487157 -0.038081314 -0.06699423 0.03432105 0.03368169 0.011982165
-0.024755627 0.004057997 0.013901307 -0.018485993 0.08275616 0.021442102 0.036966994 0.26092634

net.4.bias f4 [256]
00000000: 05af 543b e741 aa3b 14ea 10be f936 27bd
00000010: 5f19 433e 3259 b0bd af27 aebd 6221 d2bd
00000020: 0c9a 263d 3cfd 0f3d df05 ccbd eeca c6bd
00000030: f0f5 1f3b 2f14 94bd 401f 3f3e 0c3c 4e3e
00000040: a113 48bd f824 d53d 62b8 7c3b b665 c1bd
00000050: 96b5 1fbc c4d2 ddbc 1944 5cbd 28e0 59bd
00000060: ad0e f5bc 5667 c9bd 2bbb 3ebb 95d7 e43c
00000070: 1059 33bc a276 e6bd d2d6 b4bd 49f7 cd3b
00000080: ae8e 7d3c fd06 61bd 2a8f 5abd 3f16 cbbd
00000090: 2a07 b3bd 2318 3ebd 0453 57bd 51d9 7e3c
000000a0: ed48 38bd 392b 81bd 9780 63bd b290 24bd
000000b0: 2815 b23d 3e4a 43bd 36b5 8dbd 7cf0 90bc
000000c0: 1a25 f9bc a9b6 9a3d d993 15bd ca4e 2b3a
000000d0: 0494 c3bb 3ad8 b3bd da88 d2bd 7a25 83bd
000000e0: 8a0c 91bd 2d02 e7bc 528a c0bd 66d0 23bd
000000f0: c770 7fbd 585e 7dbd c21d 9a3e 1cbf a8bc
00000100: b226 763c d7ce 35bd 4b5b 00be 698e 48bd
00000110: d589 b0bd 7f14 e6bc 5eab 14be 19a9 9cbd
00000120: a9d8 2e3e 6f10 32bd 49b4 33bd 3ec9 82bd
00000130: 8cac 93bd b6de 6cbb e54e e33d fe37 24bd
00000140: 388a 65bd 5e07 84bc f1c2 5f3e 49b1 babd
00000150: 8159 d53b ce30 08be 923d 4a3e 60ae 9cba
00000160: f92f fa3c 7b27 c7bd fde9 fcbd 5862 a8bd
00000170: 609c 98bd fadf 48bd bad3 3e3e 246b 85bd
00000180: 8534 83bd 0490 57bd c3fb abbd 0363 ecbc
00000190: aa02 5bbc 43e6 0ebe 779e 9c3d e8ef 4cbc
000001a0: 9b94 51bd 3d46 b6bd 1f5b a93d 4c2f f5bd
000001b0: a94e fd3d 6d41 d7bb f479 083d dac7 0f3e
000001c0: efda d03d 62b8 993d f7cd 0fbc 136a 57bd
000001d0: b63d a8bd d149 593d 6d26 80bd 3898 423e
000001e0: c1ee febd e6b1 6abd 0922 02bd bab1 bdbd
000001f0: c248 68bd f36b f1bd d7d3 2cbd 3ce2 693d
00000200: 629e 38bd 019a 8ebd 22db 273d 2059 a3bc
00000210: 0a7e e6bd 7293 ccbc dbcb 523e dfb5 b2bd
00000220: a5a3 82bc 10ea 953d e59d cfbd fdd7 29bd
00000230: e213 9c3d 0fb4 e9bd b082 05bd d08c 30be
00000240: 291f 9d3d 67d6 90bb e0cd be3c 7957 8cbd
00000250: 144a 67bc 8fff 99bd 96a8 9cbc 03ff 70bd
00000260: 0693 7fbd 980a 18bd f4cb a53c fd5e c9bd
00000270: 6bce 65bd 70bf 403e c3bb bdbc ab3c abbd
00000280: ae6a 88bd 4212 4f3d cf58 13bc 3ea4 4d3e
00000290: 287d 41bd eaf6 193c 368a 3b3e aa31 5e3d
000002a0: 0c26 debc a75d babd 2f04 18be ff74 7c3d
000002b0: ad0d 0dbe 3b1a 2ebd ae59 85bd 36c3 1f3c
000002c0: 84bf eabc 1dec 503d d5b2 e7bd a7cb 603e
000002d0: be96 323c 8772 babd b1fd 253c 6ed0 823c
000002e0: dac6 17bd 1ed8 1dbe 8573 01bd 806b a7bd
000002f0: 5260 a3bd 7da2 773d 2bd6 93bd 1f98 a23c
00000300: 318c e5bc def4 9dbd 8ed9 e4bd 229f 3abd
00000310: a337 6f3b 211d 043e 5c8e 453c b467 6fbd
00000320: 1951 b23c 8bf0 9fbc 0a08 a3bd bd15 433d
00000330: 5d23 8bbd d794 18bd 9eff abbd f40d 94bd
00000340: eaf5 8a3e f897 acbd 041e f0bc 4af4 ccbd
00000350: 66fd 673e 3bc4 45bd 03d8 31bd bd5b 4abd
00000360: 93b9 5dbd 7964 6ebd e606 923c ed78 8bbd
00000370: ee81 4fbd 1a49 e5bd e234 a2bd e227 3bbc
00000380: bc0b 5fbd 61cb 69bd 1915 bcbd 64c7 713d
00000390: c05f 353d 07bb 0bbd c0ee 913d ffd2 14bd
000003a0: ca5b a9bc 2c70 1dbe 3ef4 fbbb 35fc bcbd
000003b0: 5c74 57bd 3fb0 79bc b79c 463e fa58 593e
000003c0: f4f2 a2bc cf73 64bd fcda a6bd c4fe cfbd
000003d0: 1c55 e1bc a31d 84bd cdd0 2cbd e893 36bc
000003e0: ae71 243c 859c c83d c033 2c3e 69ea 9d3d
000003f0: fac5 a23c a842 583b e84d e5bc 5f96 dabd
0.0032452953 0.0051958445 -0.14151794 -0.04082391 0.19052647 -0.08610763 -0.08503663 -0.102602735
0.040674254 0.035153612 -0.09962057 -0.097066745 0.0024408065 -0.07230412 0.18664265 0.20140094
-0.048846845 0.10407442 0.003856205 -0.09443228 -0.009747883 -0.02707804 -0.05377588 -0.053192288
-0.029914225 -0.09834163 -0.002910326 0.027934829 -0.010946527 -0.11253096 -0.08830036 0.006285582
0.015475912 -0.054938305 -0.05335919 -0.099163525 -0.08741601 -0.046409737 -0.052569404 0.015554742
-0.044991422 -0.06307072 -0.055542555 -0.040177055 0.086954415 -0.047678225 -0.06919329 -0.017692797
-0.0304132 0.07554371 -0.03651795 0.0006534873 -0.0059685726 -0.08781476 -0.102800086 -0.064036325
-0.0708247 -0.02819928 -0.094013825 -0.039993666 -0.062363412 -0.06185755 0.30100828 -0.02059894
0.015023874 -0.04438671 -0.12534826 -0.048963938 -0.086200394 -0.028085945 -0.14518496 -0.0764944
0.17074837 -0.043472704 -0.043873105 -0.0638604 -0.07210645 -0.0036143488 0.11099032 -0.04009246
-0.05604002 -0.016116794 0.21851708 -0.09115846 0.006510914 -0.13299868 0.1975005 -0.0011953823
0.030540453 -0.09724327 -0.12349317 -0.082218826 -0.07451701 -0.049041726 0.18635455 -0.06514576
-0.06406502 -0.05262758 -0.08397629 -0.028855806 -0.013367334 -0.13955025 0.07647412 -0.01250837
-0.05116711 -0.08900116 0.08269333 -0.11971912 0.12368519 -0.0065690787 0.03331943 0.14041081
0.10198008 0.07505871 -0.008777133 -0.052591395 -0.082148954 0.053048912 -0.06257329 0.1900338
-0.124478824 -0.057298563 -0.03177074 -0.09262414 -0.056710012 -0.11788168 -0.042194214 0.05710052
-0.04507292 -0.06962968 0.040980466 -0.019939959 -0.11254509 -0.024972651 0.20585577 -0.087260954
-0.015947172 0.073200345 -0.10137538 -0.041465748 0.0762098 -0.114112966 -0.032595336 -0.17241216
0.07671959 -0.00442009 0.023291528 -0.068526216 -0.014116783 -0.07519447 -0.019123357 -0.058836948
-0.06239607 -0.037119478 0.020238854 -0.09832571 -0.05610506 0.18823028 -0.02316082 -0.08361181
-0.066609725 0.05055452 -0.008993342 0.20082185 -0.0472385 0.009397248 0.18314442 0.054246582
-0.027117752 -0.09099894 -0.14845346 0.061635014 -0.13774748 -0.042505484 -0.06511246 0.009751132
-0.028655775 0.051006425 -0.113134064 0.21952687 0.010900198 -0.091038756 0.0101312855 0.015968528
-0.037054874 -0.15414473 -0.03160431 -0.08174801 -0.07977356 0.060457695 -0.07218584 0.019847928
-0.02802095 -0.0771272 -0.11174308 -0.045561917 0.0036501668 0.12901737 0.012057867 -0.05844851
0.021767186 -0.01952388 -0.07960518 0.047628153 -0.067938544 -0.03725132 -0.083983645 -0.07229224
0.27140743 -0.08427423 -0.029311188 -0.10007532 0.22655258 -0.048282843 -0.043418895 -0.049403895
-0.054132055 -0.058201287 0.017825555 -0.06810174 -0.05066102 -0.11195584 -0.07920243 -0.011423083
-0.05445455 -0.057078723 -0.091837116 0.059028044 0.044280767 -0.03411391 0.07125616 -0.036334034
-0.020673651 -0.15374821 -0.007689028 -0.09227792 -0.052601203 -0.015239774 0.1939572 0.21225348
-0.01989124 -0.055774506 -0.08147237 -0.101560146 -0.027506404 -0.06450965 -0.042191315 -0.011143662
0.010036869 0.09795479 0.16816616 0.07710726 0.019869793 0.0032998715 -0.02799125 -0.10673212

net.6.weight f4 [7, 256]
00000000: 9106 e93e 9ced dd3c b6e2 073e 6368 e43d
00000010: de60 0a3e ff1e e33d f62b 3e3e 234f 2c3d
00000020: 89cf e83d e6e7 90bc fd43 1fbd d375 26be
00000030: f3c5 a7be cff1 813e ffdc 413e c100 2e3e
00000040: 89be 673e 9091 c03d 39d5 be3d 31a0 e8bc
00000050: 2a8c eebc e5eb ab3d 2cb7 823c dcf1 093f
00000060: cba9 d63d a1dc a93e 966a 82be cb1e 063e
00000070: 04a4 853f cd06 4dbe a55f 1e3d 0d16 523e
00000080: 1d56 77bc 9dd7 0bbe 5a66 a43e d42d 96be
00000090: 42ec 9fbe 17e3 703d f021 533e 3d53 b13e
000000a0: 9636 d83d c35b 02bd dd69 033c a31c 0fbd
000000b0: 57b7 f33d e472 393c 3363 fa3e 7556 ac3d
000000c0: 7cde 0cbd b83f d93d ae72 f73d 10fc 1a3d
000000d0: 3a38 75bd d1b2 11bd 5c3c 3f3e f4ab 50bd
000000e0: 35fa 043e d759 753f 5ff0 123f b747 42be
000000f0: 7f5c 3fbc c860 02bf 3786 4a3e a9ad 913c
00000100: b73c e83d 2426 813e 607f 393c 45b6 e2be
00000110: 569a 933d 7511 ee3b 589e 74bc 06f3 a8bd
00000120: f2b1 cd3d 0546 2eba 8b36 d2bd 0cfa db3d
00000130: eb9b adbd 0d3d 483e 1734 983d 12b5 2e3e
00000140: 8615 9ebd 6a42 debd 2dd2 293e fcdc 94bd
00000150: 9e1e a73d e8a7 b13e c44a 323e a6e6 6c3d
00000160: 5966 363e 57b0 a9bd 421e 503e f030 29bd
00000170: cbad b03d 6669 ff3b d2b5 183e f02b d03b
00000180: 0d31 c83e 719c 3f3e f9da 15bd 2582 2bbe
00000190: ca4a 5cbe 3e1b 56be e649 ffbd 395e 08be
000001a0: 6697 ed3d af08 443b adbc 423d 3b82 c43e
000001b0: f7e0 da3d 651d f3bd b8ef 8b3d 2290 193e
000001c0: 03b2 7d3e 3db6 c03d 157c 18bc 716b 90bd
000001d0: c801 393c 698e 5f3e 7e5e 6abc 405d 383e
000001e0: 1fa8 6bbd 7393 0f3e 53b8 85bd c920 4abc
000001f0: b2fe 4dbd 37ed b3be 193c febd 79bf 7cbd
00000200: 2d88 85bd acba b7bd b9f7 12bc 171e 7abe
00000210: e707 fc3e 2adb 703e 1e29 123e 958e ce3d
00000220: 7430 743e 874d 133e 5249 5dbd 5623 d1bd
00000230: a25b dc3d 8c58 b0bc 605c 9a3c 9434 4f3d
00000240: 7c7d 0a3e 3bdb 903d c6be 36be ff6c 6cbd
00000250: 724b dfbd ec18 a93d 3d3f aabc 6271 2fbd
00000260: 09f0 3f3f b824 c4be 280c c03d f952 85bd
00000270: 59d6 473d 5c81 d93d 1ff4 6b3e 55b0 a4bd
00000280: ad34 853e 8338 73be a00c 6ebc 7959 113e
00000290: 829f 1b3d b22d d4bd ab26 483e 21a4 b1be
000002a0: cc67 373e 501a debd 4126 743d 4a29 403e
000002b0: 705b 313e 32ef 803d efdc 37be adba c4be
000002c0: 4a32 9c3d 0cc4 b63d 1cf7 4c3d 933b 163e
000002d0: 4ae7 f9bd 9073 4b3d a188 783d 200a 6abe
000002e0: ac16 7fbd 0be2 343d b315 a83c 693c 683d
000002f0: 76c8 e73d 3023 663e e520 f9bc f74c ca3b
00000300: e8f0 9fbb 18b1 d63b 1ceb ee3e e59d a33e
00000310: c032 e5bd a110 a13d b504 863e f00a b8bd
00000320: de60 903e eb93 f43d 78a3 6bba 3171 713d
00000330: aac1 aabc f537 43bd ddef ce3e 57a4 4b3d
00000340: b5df 463e 3fd8 5e3d 5a00 afbd cbc1 813e
00000350: 65ed 4c3e 79bb 76bc 79ec 95bc 0a3d 923e
00000360: 1622 e3bd 656d 223d e5a0 eaba a862 0d3d
00000370: 9994 30bd a1c5 833e 767d a9bc eda2 88be
00000380: 355e 513d 974c 103c 22cc 64be 7dbb ffbd
00000390: 6c52 573e e655 f0bc f8e2 b13e 5f2c 50bd
000003a0: 6f15 fdbc 26dc c3bd d74c 563e 0199 283f
000003b0: 2846 2c3c 0e72 74be 8aa3 393e 8c91 313e
000003c0: 0d1f 5a3d 2a39 54bd 2135 1fbd 9c76 ee3c
000003d0: 8ed5 8c3d 2a3e 02bf b7b4 183d 9a0a 5f3d
000003e0: 8926 743d abce 903d 799e 463e c5de 62bd
000003f0: a8e4 82be 4c04 4e3e 4aa3 d3bd ee36 433e
0.45512822 0.02709084 0.13270077 0.11152723 0.13513514 0.110898964 0.18571457 0.04206766
0.11367709 -0.017688703 -0.038883198 -0.16255884 -0.3276821 0.25379798 0.1893196 0.16992475
0.22631277 0.09402764 0.09318013 -0.028396698 -0.02911957 0.08394603 0.015956484 0.53884673
0.10481604 0.3317614 -0.25471944 0.13097684 1.0440679 -0.20022126 0.038665432 0.20516224
-0.015096215 -0.13656469 0.32109338 -0.2933184 -0.31234938 0.05881032 0.20618415 0.34633818
0.105572864 -0.031825792 0.008020845 -0.03493942 0.11900204 0.011318896 0.48903808 0.08414928
-0.034391865 0.106078565 0.1208242 0.03783804 -0.059868075 -0.035570923 0.18675369 -0.050945237
0.12986071 0.9584021 0.5739803 -0.1897267 -0.011679768 -0.50928926 0.19777761 0.017783003
0.113397054 0.2522441 0.0113218725 -0.44279686 0.072071716 0.0072652646 -0.01493033 -0.08249478
0.10043706 -0.0006648007 -0.102643095 0.10741052 -0.084770046 0.19554539 0.0743181 0.1706126
-0.07718949 -0.10852511 0.16584082 -0.07268712 0.08160137 0.34698415 0.17411333 0.05783715
0.1781248 -0.08285587 0.20324042 -0.041306436 0.086268984 0.007794547 0.14913109 0.006352894
0.39099923 0.18712021 -0.03658578 -0.16748865 -0.21512905 -0.2090883 -0.12465267 -0.13317193
0.116011426 0.0029912402 0.047543216 0.38380608 0.1068744 -0.11870841 0.06832832 0.14996389
0.24774937 0.09409759 -0.009306927 -0.07051743 0.011291929 0.21831669 -0.014304755 0.18004322
-0.05753338 0.14021091 -0.06529298 -0.012336918 -0.050291725 -0.35141918 -0.124138065 -0.06170604
-0.06520114 -0.08971152 -0.0089701945 -0.24425541 0.4922478 0.23521104 0.14273497 0.10085789
0.23846608 0.14385043 -0.054025 -0.10211818 0.10759665 -0.021526597 0.018842876 0.05058725
0.13524431 0.07073065 -0.17846212 -0.057721134 -0.10903062 0.082567066 -0.020782107 -0.04283274
0.7497564 -0.38309264 0.093773186 -0.065099664 0.048788402 0.106203765 0.23042344 -0.08041445
0.2601675 -0.23752026 -0.014529377 0.14194287 0.037993915 -0.10360278 0.19546 -0.34695533
0.17910689 -0.108448625 0.059606794 0.1876575 0.17320037 0.06295623 -0.17955373 -0.38423672
0.076267794 0.08924112 0.05004035 0.14671163 -0.12202318 0.049670756 0.060677174 -0.22855425
-0.06227748 0.044160884 0.02051816 0.056698237 0.11317532 0.2247436 -0.030411193 0.0061737257
-0.004881013 0.006551873 0.4666375 0.319564 -0.111913204 0.078645 0.26175466 -0.08986461
0.28198904 0.119422756 -0.00089888973 0.05894584 -0.0208443 -0.047660787 0.40417376 0.049717274
0.19421275 0.054405447 -0.08544989 0.25343165 0.20012434 -0.015059345 -0.018301236 0.28562194
-0.11090486 0.039655108 -0.0017900734 0.034517914 -0.043110464 0.25736716 -0.020689707 -0.26686803
0.051115233 0.008807323 -0.22343495 -0.124869324 0.21027535 -0.029337835 0.34743476 -0.050823566
-0.03089401 -0.09563474 0.2092775 0.65858465 0.010514773 -0.23871633 0.18128791 0.17340678
0.05325227 -0.05181233 -0.038869027 0.029109292 0.0687667 -0.50876105 0.037281718 0.05445347
0.059607062 0.07070669 0.1939639 -0.05538823 -0.25565076 0.20118827 -0.10333879 0.19063923

net.6.bias f4 [7]
00000000: bb62 343e 2279 543e 5711 1dbe aabd 06be
00000010: cac7 033e b7bc 673e 74e6 6cbe
0.17615788 0.20749334 -0.15338646 -0.13158289 0.12869182 0.22630583 -0.23134786
