preTrained/GAIL_pretrained_5700_discriminator.pth (torch, 542340 bytes, 7 tensors)

net.0.weight f4 [256, 10]
-0.38855055 -0.07833442 0.037651047 0.27192655 -0.16010441 0.22644733 -0.02893086 -0.23238757
0.19226426 0.15881081 -0.21721545 0.28846246 -0.26868007 0.3037902 -0.22019577 -0.15488476
0.093281694 -0.056336872 -0.30196798 0.17037538 -0.09009963 -0.46036264 -0.4280616 -0.32780117
-0.22448581 -0.13471732 -0.17862839 -0.004419558 0.14300533 0.2418921 0.15128112 0.21577877
0.2883763 -0.24253601 -0.04895322 0.30600208 -0.2168053 -0.1313806 -0.19357844 0.15270174
-0.19880238 -0.29061005 0.13426498 0.102456264 -0.20575164 0.08697673 -0.07832095 -0.340327
0.0014428138 0.29320177 -0.25517783 0.004037512 -0.31775987 -0.29371205 0.21092507 -0.13356893
0.2999258 -0.022545537 -0.08643858 0.053438485 -0.50049245 -0.33839288 0.014899209 0.010137584
0.105264895 -0.17438799 0.34509304 0.22645177 -0.02877055 -0.022822017 -0.3645865 -0.5543109
0.31222028 0.07211646 0.21021965 0.17518696 0.16080965 0.22597212 -0.15457109 0.081285246
0.11500371 -0.17588276 0.038322855 -0.12806478 0.088261664 -0.046404302 0.0028406014 -0.092253596
-0.061143942 -0.22105071 -0.038591865 -0.226704 0.15639813 -0.16376635 0.23282436 0.40190884
0.16486116 0.20362115 0.27128044 -0.12430574 0.16514888 0.69483477 0.21256793 0.0057560857
0.24124958 0.34998697 0.10779416 -0.073431976 -0.10108806 -0.20687266 0.17555328 -0.48186424
-0.16350701 -0.27960885 0.04788853 -0.36455256 0.0044728876 0.116578504 0.08500508 0.06901857
0.23829325 -0.16050225 -0.20958108 -0.23680864 -0.27526698 -0.2532862 -0.11730527 -0.32293072
-0.09098797 0.32803318 -0.09277779 0.34308758 -0.23589692 0.1865316 -0.21206543 -0.023114948
0.2178036 0.045287654 0.1348571 0.10517337 0.17542434 0.020931056 0.2364324 -0.307612
-0.14523742 -0.17507583 -0.06797252 0.17621887 0.14395845 0.27933553 -0.054428555 -0.33327946
0.24995497 0.0799793 0.09283822 0.40940914 -0.1526965 0.058762237 -0.051922794 0.0890493
0.23460752 -0.27171764 -0.044525567 0.27126217 -0.22592229 0.12157927 -0.15059589 -0.2600941
-0.30993786 0.2503661 0.042347938 0.39903337 -0.29620236 0.13531773 0.26602206 -0.0504944
0.094725855 -0.18016602 -0.2750188 -0.22743337 0.1653424 0.016200045 -0.02745569 -0.073454626
-0.0030771752 0.13580292 0.21033001 0.13891347 0.11176933 0.15912956 -0.16669534 -0.5811109
0.30097055 -0.12453618 -0.12869036 -0.062048297 -0.07678949 0.32293624 0.14931312 0.16680591
-0.1276208 0.06986841 -0.25986013 0.10554229 -0.39235997 -0.13794512 -0.13478065 0.070475705
-0.08249696 0.10157067 -0.26586956 -0.42750216 0.10062984 -0.22082195 -0.30438036 -0.04607435
-0.27044007 -0.1285523 0.18787532 -0.26490408 0.14185557 0.27650237 0.07760126 -0.23398264
-0.1319241 0.26068932 -0.1237582 -0.024469368 0.15670528 0.23129314 0.19408463 -0.5384148
-0.34011453 0.1556199 -0.07090965 -0.13912798 0.04893644 -0.1814391 0.05013158 0.21101342
-0.15872458 -0.2155097 -0.26946247 -0.1993709 0.13368829 0.1778896 0.04595227 0.17186975
0.06607084 -0.12954742 0.26652896 0.30874944 -0.01181639 -0.15195511 0.06327294 -0.055526458
00000000: 19f0 c6be cc6d a0bd fc37 1a3d f539 8b3e
00000010: 69f2 23be cfe1 673e 6900 edbc 02f7 6dbe
00000020: ece0 443e 4d9f 223e ba6d 5ebe 5ab1 933e
00000030: 6f90 89be 648a 9b3e 007b 61be 1c9a 1ebe
00000040: 790a bf3d 7ec1 66bd 8c9b 9abe e276 2e3e
00000050: 2886 b8bd a7b4 ebbe e42a dbbe 8ed5 a7be
00000060: 9cdf 65be 56f3 09be 5cea 36be f1d1 90bb
00000070: fd6f 123e 90b2 773e 70e9 1a3e 1cf5 5c3e
00000080: 0fa6 933e 5c5b 78be 2c83 48bd 4eac 9c3e
00000090: 3502 5ebe a388 06be 6d39 46be d85d 1c3e
000000a0: da92 4bbe d7ca 94be c27c 093e 97d4 d13d
000000b0: 8fb0 52be db20 b23d bc66 a0bd 573f aebe
000000c0: cc1c bd3a 8b1e 963e aba6 82be 1b4d 843b
000000d0: 6cb1 a2be 6d61 96be befc 573e 4bc6 08be
000000e0: e08f 993e 6bb1 b8bc b606 b1bd 50e2 5a3d
000000f0: 4620 00bf d541 adbe d01b 743c 1c18 263c
00000100: 1f95 d73d c492 32be 09b0 b03e f9e2 673e
00000110: 37b0 ebbc 3df5 babc 15ab babe 52e7 0dbf
00000120: 56db 9f3e cbb1 933d d243 573e 3664 333e
00000130: 49ab 243e 3c65 673e e247 1ebe e178 a63d
00000140: 1187 eb3d 9c1a 34be 6df8 1c3d 6a23 03be
00000150: 88c2 b43d 7012 3ebd 6229 3a3b 74ef bcbd
00000160: 1272 7abd 1e5b 62be 8112 1ebd 1825 68be
00000170: d526 203e 5eb2 27be 8269 6e3e ffc6 cd3e
00000180: 5dd1 283e 1082 503e 45e5 8a3e 0294 febd
00000190: ca1c 293e b1e0 313f 68ab 593e 8c9d bc3b
000001a0: 210a 773e 7e31 b33e 2fc3 dc3d 8163 96bd
000001b0: 4207 cfbd 6dd6 53be 3dc4 333e e9b6 f6be
000001c0: 626e 27be e428 8fbe c326 443d a2a6 babe
000001d0: 4d91 923b b6c0 ee3d 2517 ae3d 9c59 8d3d
000001e0: 2503 743e b45a 24be 6c9c 56be f77d 72be
000001f0: cbef 8cbe bbae 81be bf3d f0bd 2d57 a5be
00000200: e757 babd f7f3 a73e 4802 bebd 2da9 af3e
00000210: f68e 71be 2402 3f3e ae27 59be 8f5b bdbc
00000220: e807 5f3e 8c7f 393d fb17 0a3e 2365 d73d
00000230: 70a2 333e 9b77 ab3c 561b 723e 527f 9dbe
00000240: 1eb9 14be 1447 33be 2d35 8bbd b872 343e
00000250: d869 133e 1105 8f3e 7af0 5ebd 9ba3 aabe
00000260: 32f4 7f3e 30cc a33d f721 be3d 139e d13e
00000270: 795c 1cbe acb0 703d ffac 54bd 7b5f b63d
00000280: f43c 703e 931e 8bbe 7160 36bd e0e2 8a3e
00000290: 2c58 67be 8dfe f83d cf35 1abe 0e2b 85be
000002a0: 2db0 9ebe fc2f 803e 0875 2d3d 1a4e cc3e
000002b0: d6a7 97be bb90 0a3e 0b34 883e 37d3 4ebd
000002c0: a1ff c13d 717d 38be 44cf 8cbe 4be4 68be
000002d0: 854f 293e f5b5 843c c1ea e0bc 616f 96bd
000002e0: 6faa 49bb ec0f 0b3e c060 573e 553f 0e3e
000002f0: 52e7 e43d dcf2 223e 2fb2 2abe afc3 14bf
00000300: d018 9a3e d30c ffbd 68c7 03be 5b26 7ebd
00000310: cf43 9dbd e657 a53e 8ae5 183e 2bcf 2a3e
00000320: 07af 02be 2b17 8f3d 630c 85be 8e26 d83d
00000330: 68e3 c8be 7c41 0dbe f003 0abe 9155 903d
00000340: 2bf4 a8bd 4904 d03d 0e20 88be 90e1 dabe
00000350: 0417 ce3d 261f 62be bed7 9bbe 75b8 3cbd
00000360: 1f77 8abe 37a3 03be 6362 403e 82a1 87be
00000370: 9642 113e b891 8d3e 69ed 9e3d 2599 6fbe
00000380: 1c17 07be 1279 853e f074 fdbd fc73 c8bc
00000390: 5977 203e 1cd8 6c3e 1fbe 463e 8dd5 09bf
000003a0: 7e23 aebe d35a 1f3e 1439 91bd 9177 0ebe
000003b0: 9471 483d 2ccb 39be c656 4d3d e713 583e
000003c0: b288 22be 93ae 5cbe fcf6 89be e327 4cbe
000003d0: 95e5 083e b128 363e 7338 3c3d a0fe 2f3e
000003e0: 2650 873d 14a8 04be 7c76 883e 6814 9e3e
000003f0: 8899 41bc 1f9a 1bbe 3e95 813d b66f 63bd

net.0.bias f4 [256]
0.24294774 -0.24941725 0.03854534 0.15685022 -0.121880226 -0.31008187 0.1851281 0.41800797
-0.4060346 0.25495672 0.26268744 -0.4035482 -0.07813733 -0.05924597 -0.2479883 0.36537847
-0.27813923 -0.38427 0.25627112 -0.26623523 -0.23114209 -0.22894773 0.17702453 0.031635065
-0.14153336 -0.2992753 -0.20350687 0.21968211 0.2756999 0.1694262 -0.25814587 0.29278973
-0.29641855 0.22801787 0.19145088 0.14357585 -0.09513129 0.15103276 -0.022135472 0.19126618
-0.09238711 0.26228073 -0.08189334 -0.4291708 -0.24450746 0.23753574 -0.4390906 0.23400885
-0.034456056 -0.06815792 0.11310545 -0.20431283 0.15659072 0.17423753 -0.44629595 0.31570238
0.043986525 -0.046569053 0.003765171 -0.31186852 0.14439967 0.29996154 -0.19813988 0.12829584
0.12878843 0.3834693 0.20420896 0.039953552 -0.24799493 -0.3509221 -0.48708686 -0.29698136
0.05094027 0.1880011 0.03834089 0.06914919 0.14345053 0.4987745 0.38531706 -0.09509742
-0.0030342015 0.32758236 -0.17042685 0.1740622 -0.27132362 -0.22745253 0.2037526 0.23789123
0.09059146 -0.13473558 0.10847496 -0.3629724 -0.08245848 -0.3590019 -0.12358142 0.45138174
0.43669116 -0.23287179 0.24525306 0.27391425 -0.34561294 -0.23089805 0.093845524 0.3677372
0.28321734 0.3293682 -0.16624661 0.0059896065 0.17623466 0.08791307 0.029339312 -0.24475467
-0.110660546 -0.27541736 -0.2727493 -0.13225892 0.34887406 0.4580308 0.0010842477 -0.51404387
-0.24219124 -0.41699082 -0.117736064 0.023995396 0.010447426 -0.034797866 0.009337653 0.14588092
0.058488533 -0.080004856 -0.032470495 -0.28332752 -0.0007791233 0.15903126 -0.249253 -0.24233475
0.09946411 0.021477586 -0.101430416 0.15635149 -0.19408761 -0.37030843 -0.13891774 -0.1767426
-0.3811935 0.4477321 0.31681332 -0.0062415763 0.18278374 0.28475752 0.11871457 0.33162373
0.079548016 0.09815104 -0.48750016 0.099182434 -0.3192635 -0.21528591 0.18680486 0.010681922
-0.1169263 -0.06993501 0.06513704 0.0999048 -0.17828086 0.3821924 -0.28481153 0.05151349
-0.11920458 -0.2561708 0.31845635 -0.19356702 -0.355381 0.2744813 0.25663343 -0.5364671
0.010679761 -0.10749501 0.049784303 0.03144463 -0.12641531 0.42704508 -0.2304172 0.36037332
0.22010955 0.23890813 -0.015354745 -0.25184023 0.26822352 0.17749153 -0.13823396 0.18660678
-0.17405286 -0.46415114 -0.20986088 0.07035996 0.1931345 -0.25043947 -0.019475924 -0.123368286
0.053584073 0.1663732 -0.4029742 -0.114796914 -0.08227353 0.15085477 0.45305654 -0.17096725
-0.18318608 -0.18383804 -0.1620478 0.2455605 0.07876031 0.123064056 0.14221634 -0.34905267
0.041921485 -0.058319904 0.29147115 -0.07232491 -0.13593222 -0.18121482 0.22338222 0.21754049
0.09193709 -0.35443068 0.025977092 -0.20301108 0.41375282 -0.28205037 0.11439033 -0.24470787
0.34423673 0.3002098 0.121908985 0.10917825 0.03997988 0.08287776 0.13830495 0.06783103
0.29512835 -0.18381985 -0.24745506 -0.095602386 -0.29876924 0.19366844 -0.054662544 -0.12718424
0.12827273 -0.13158683 -0.2703235 -0.5978535 0.044798188 -0.19848122 -0.26458576 -0.199543
00000000: 4bc7 783e 3c67 7fbe b8e1 1d3d 589d 203e
00000010: 579c f9bd 0dc3 9ebe 3892 3d3e 2405 d63e
00000020: c4e3 cfbe b089 823e f87e 863e df9d cebe
00000030: 7706 a0bd e7ab 72bd a5f0 7dbe e312 bb3e
00000040: 4468 8ebe 0abf c4be f835 833e fc4f 88be
00000050: 83b0 6cbe 4671 6abe eb45 353e c593 013d
00000060: 1fee 10be 9d3a 99be 1b64 50be 59f4 603e
00000070: 8a28 8d3e 107e 2d3e b22b 84be 89e8 953e
00000080: 2cc4 97be 847d 693e b30b 443e 8c05 133e
00000090: 32d4 c2bd 55a8 1a3e 7355 b5bc 48db 433e
000000a0: 7435 bdbd a949 863e b2b7 a7bd 46bc dbbe
000000b0: 2a60 7abe 923c 733e 7cd0 e0be 04a0 6f3e
000000c0: cb21 0dbd 6196 8bbd d5a3 e73d 6237 51be
000000d0: 5159 203e 536b 323e e780 e4be bea3 a13e
000000e0: 372b 343d 31bf 3ebd 16c1 763b 3bad 9fbe
000000f0: 82dd 133e 8f94 993e 2ee5 4abe fc5f 033e
00000100: 1de1 033e 1756 c43e 271c 513e 56a6 233d
00000110: 62f2 7dbe 10ac b3be 7363 f9be f10d 98be
00000120: bfa6 503d 5c83 403e 560b 1d3d 179e 8d3d
00000130: b2e4 123e 5f5f ff3e 4748 c53e 70c2 c2bd
00000140: 74d9 46bb e0b8 a73e 6084 2ebe 5d3d 323e
00000150: eeea 8abe 51e9 68be 86a4 503e c299 733e
00000160: 0488 b93d 20f8 09be 1f28 de3d 85d7 b9be
00000170: fedf a8bd 19cf b7be 4118 fdbd 821b e73e
00000180: fc95 df3e f175 6ebe 9e23 7b3e 7d3e 8c3e
00000190: 2ef4 b0be 8a70 6cbe 1532 c03d 0d48 bc3e
000001a0: dd01 913e f3a2 a83e 8d3c 2abe 7644 c43b
000001b0: dc76 343e c50b b43d ff58 f03c f8a0 7abe
000001c0: ffa1 e2bd 8103 8dbe cca5 8bbe e26e 07be
000001d0: 9f9f b23e 0383 ea3e 511d 8e3a 6198 03bf
000001e0: fb00 78be d27f d5be 9b1f f1bd fe91 c43c
000001f0: ae2b 2b3c 3588 0ebd f5fc 183c cf61 153e
00000200: ac91 6f3d 96d9 a3bd c8ff 04bd 4e10 91be
00000210: 143e 4cba 17d9 223e 2e3c 7fbe 9a26 78be
00000220: d7b3 cb3d c3f1 af3c c0ba cfbd 9b1a 203e
00000230: e7be 46be 1199 bdbe 7440 0ebe 03fc 34be
00000240: cb2b c3be 243d e53e 5b35 a23e 2386 ccbb
00000250: a92b 3b3e bdcb 913e a020 f33d 96ca a93e
00000260: 12ea a23d 6a03 c93d 9f99 f9be 2920 cb3d
00000270: 8176 a3be e973 5cbe c649 3f3e 3a03 2f3c
00000280: 0e77 efbd 163a 8fbd 9266 853d e39a cc3d
00000290: 428f 36be b9ae c33e d1d2 91be cfff 523d
000002a0: 8821 f4bd d228 83be b60c a33e 6f36 46be
000002b0: 80f4 b5be d088 8c3e 7565 833e e855 09bf
000002c0: 2afa 2e3c 5826 dcbd a0ea 4b3d 16cc 003d
000002d0: 0473 01be a7a5 da3e 7df2 6bbe da82 b83e
000002e0: 6664 613e 55a4 743e 7892 7bbc 34f1 80be
000002f0: 9854 893e 57c0 353e 348d 0dbe d915 3f3e
00000300: ea3a 32be 38a5 edbe c5e5 56be e218 903d
00000310: 0dc5 453e 9a39 80be f98b 9fbc 83a8 fcbd
00000320: f97a 5b3d bc5d 2a3e a252 cebe a51a ebbd
00000330: 067f a8bd ac79 1a3e 07f7 e73e 0a12 2fbe
00000340: 2295 3bbe 0a40 3cbe dcef 25be 3674 7b3e
00000350: 164d a13d 0209 fc3d 29a1 113e 08b7 b2be
00000360: ddb5 2b3d dae0 6ebd b53b 953e 151f 94bd
00000370: d131 0bbe 6190 39be 4fbe 643e efc2 5e3e
00000380: 8349 bc3d f077 b5be e9cd d43c 23e2 4fbe
00000390: 69d7 d33e e868 90be 7a45 ea3d b394 7abe
000003a0: cc3f b03e 19b5 993e 6bab f93d d998 df3d
000003b0: f1c1 233d d1bb a93d d09f 0d3e ffea 8a3d
000003c0: 101b 973e 453b 3cbe dc64 7dbe 2fcb c3bd
000003d0: 48f8 98be 0551 463e d5e5 5fbd 963c 02be
000003e0: ed59 033e b3be 06be d767 8abe ed0c 19bf
000003f0: 4e7e 373d a93e 4bbe c977 87be 0055 4cbe

net.2.weight f4 [256, 256]
-0.06852417 0.0145874545 -0.066306196 -0.011556535 -0.057091303 0.04601948 -0.09195422 0.008147226
-0.040330514 -0.08391522 -0.099704824 0.041535825 0.060901098 -0.028429395 0.004191491 -0.009743016
-0.035026774 0.056500874 -0.0023798684 0.05286448 -0.05333321 -0.15034774 -0.063585296 0.048105713
-0.024392009 0.010882398 0.06351772 -0.026499586 -0.046673495 -0.22114651 0.0154376775 -0.015480659
-0.0132268 -0.021720868 -0.07386386 0.09390245 0.03569098 0.07394504 -0.16598687 -0.0033499014
0.010207608 0.032169096 0.041996866 0.03873451 -0.0037344508 -0.13558409 0.053582206 0.001586391
-0.053910267 0.03314607 -0.04533817 0.0039567575 -0.04811262 0.11880903 -0.007172148 -0.057050146
0.05263821 7.9273836e-05 -0.16232324 0.011303124 0.06028449 -0.16657323 -0.048128635 0.03536089
-0.062051196 -0.0059747766 -0.03969806 0.07666389 -0.025326647 0.03715416 0.045705117 -0.16129354
0.017678848 0.0017041193 -0.014739378 0.035377678 0.008797355 -0.099903665 0.018396188 -0.05888622
-0.0067116246 -0.074455075 -0.06838389 -0.080879524 0.053530835 -0.023109617 0.21896097 0.016330104
0.02041973 -0.01759198 -0.060157098 0.07496167 -0.066713326 0.046177577 -0.04190279 -0.082071595
-0.026087804 -0.060694836 -0.009331929 0.04302168 0.030164078 0.0045981184 -0.0012793588 -0.055381447
-0.12543742 0.060629845 0.034928452 0.041488204 -0.028296566 0.075830534 -0.027126245 0.030654822
-0.0080737 0.0441328 -0.0027714334 -0.1371712 0.022116447 -0.06067339 -0.009018137 0.14775257
0.031888366 -0.114259034 0.08578746 -0.02252905 -0.0004992932 0.06568611 -0.052454747 -0.048555925
-0.014616295 0.05118086 -0.021143345 -0.114675 -0.073821105 -0.06251603 0.07611466 -0.0017683059
0.096448414 -0.05658127 0.07393363 -0.0058593107 -0.021374293 0.05248998 -0.04400427 -0.05694928
-0.009351669 -0.0899626 -0.0434732 -0.118420064 -0.1691339 -0.0616659 -0.043365996 -0.013928551
-0.055387467 -0.024225213 0.14635007 -0.052715324 -0.0150496485 0.044261187 0.052378926 -0.07875253
-0.02787276 0.053519804 -0.040718313 0.0618704 0.019676026 0.0026978247 -0.015203409 0.07801569
0.035539098 -0.05319491 -0.10529755 -0.10778669 0.036671493 0.03545009 -0.13130444 -0.036378533
-0.032589745 0.055794932 -0.2129262 0.058956813 -0.01991263 -0.06450675 0.0309478 -0.08239246
-0.18160273 -0.0045186603 -0.05375719 -0.020501336 0.03364218 -0.12460408 -0.021720968 0.048711535
0.046441726 -0.047158726 0.032929257 -0.030632967 0.01017217 -0.0008290857 0.032229874 -0.064823024
-0.09093532 -0.0036828863 -0.068871826 -0.018374054 0.013850978 -0.06960857 -0.035105817 0.025959909
-0.011817507 0.05152187 -0.017961558 -0.06475315 -0.008826301 0.087723576 0.044047087 -0.04847526
-0.005077404 -0.099001355 -0.09846342 -0.03688316 -0.013685361 -0.101479985 0.048414633 0.004215795
0.02076377 -0.0042551486 0.03970046 0.028766185 -0.075240254 0.018627267 -0.012351912 -0.0023531811
0.0074782833 0.0056096935 0.0584845 0.02487485 -0.027370347 -0.032057196 0.008722163 -0.022638254
0.15170813 0.014781095 -0.051933408 -0.11919147 -0.16178873 -0.0049643293 0.05623879 -0.023154285
-0.055028614 0.012027835 0.058390755 -0.07185407 -0.031094134 0.04426807 -0.05610921 0.05627327
00000000: 6656 8cbd 3800 6f3c 8bcb 87bd 9f57 3dbc
00000010: 92d8 69bd ec7e 3c3d 7e52 bcbd f17b 053c
00000020: 9c31 25bd bedb abbd 0b32 ccbd 7821 2a3d
00000030: 6e73 793d c3e4 e8bc c658 893b 2ca1 1fbc
00000040: 3c78 0fbd 766d 673d 91f7 1bbb 6d88 583d
00000050: ed73 5abd c2f4 19be 0239 82bd 7f0a 453d
00000060: c0d1 c7bc 164c 323c 9415 823d a915 d9bc
00000070: b52c 3fbd 3b74 62be 50ee 7c3c 97a2 7dbc
00000080: 38b5 58bc f6ef b1bc ef45 97bd ed4f c03d
00000090: b430 123d 7f70 973d 76f8 29be 058a 5bbb
000000a0: d03d 273c bec3 033d e804 2c3d 14a8 1e3d
000000b0: b0bd 74bb 8ed6 0abe 0479 5b3d 73ee cf3a
000000c0: 03d1 5cbd 2cc4 073d 84b4 39bd b0a7 813b
000000d0: bd11 45bd 2652 f33d 5704 ebbb 6aad 69bd
000000e0: 2a9b 573d d13f a638 1038 26be bd30 393c
000000f0: dfec 763d 2c92 2abe 8822 45bd 95d6 103d
00000100: 6529 7ebd 0fc8 c3bb 6f9a 22bd f501 9d3d
00000110: d479 cfbc f62e 183d 4a35 3b3d 222a 25be
00000120: 3bd3 903c c15c df3a 6f7d 71bc 2fe8 103d
00000130: c822 103c 4b9a ccbd 9ab3 963c ad32 71bd
00000140: 30ed dbbb e77b 98bd da0c 8cbd 2aa4 a5bd
00000150: 2643 5b3d 6150 bdbc 4e37 603e b6c6 853c
00000160: 4747 a73c 0e1d 90bc 4a67 76bd 8185 993d
00000170: ffa0 88bd b324 3d3d 43a2 2bbd 2715 a8bd
00000180: 17b6 d5bc 269b 78bd f2e4 18bc 8037 303d
00000190: a81a f73c d0ab 963b 28b0 a7ba a8d7 62bd
000001a0: ab72 00be 0057 783d 2311 0f3d 89ef 293d
000001b0: 33ce e7bc 0a4d 9b3d dc37 debc d21f fb3c
000001c0: 8d47 04bc 98c4 343d f0a0 35bb 9b76 0cbe
000001d0: 8d2d b53c a984 78bd cfc0 13bc 734c 173e
000001e0: 609d 023d a400 eabd 56b1 af3d d88e b8bc
000001f0: 00e3 02ba 7086 863d cada 56bd 94e2 46bd
00000200: 2f79 6fbc 05a3 513d cf34 adbc bada eabd
00000210: 852f 97bd 6808 80bd 01e2 9b3d 80c6 e7ba
00000220: bf86 c53d c3c1 67bd 846a 973d 76ff bfbb
00000230: 2419 afbc bcff 563d d23d 34bd a643 69bd
00000240: be37 19bc 503e b8bd f410 32bd 3886 f2bd
00000250: 7031 2dbe 6295 7cbd 8ba0 31bd 9434 64bc
00000260: f8dd 62bd f473 c6bc cbdc 153e 06ec 57bd
00000270: cd92 76bc 384b 353d 498b 563d 0249 a1bd
00000280: 6a55 e4bc 9537 5b3d 3fc8 26bd d16b 7d3d
00000290: 9e2f a13c fdcd 303b b817 79bc b1c6 9f3d
000002a0: 7291 113d e8e2 59bd 3ea6 d7bd 45bf dcbd
000002b0: d934 163d 1d34 113d ac74 06be a801 15bd
000002c0: d37c 05bd 3a89 643d 5309 5abe b37c 713d
000002d0: d01f a3bc 1d1c 84bd 3e86 fd3c 61bd a8bd
000002e0: 11f6 39be 4511 94bb 8030 5cbd 6bf2 a7bc
000002f0: 62cc 093d 6d30 ffbd 2cf0 b1bc bf85 473d
00000300: ae39 3e3d 8229 41bd d4e0 063d fdf1 fabc
00000310: 2ca9 263c 0057 59ba 7903 043d efc1 84bd
00000320: 4c3c babd 945c 71bb ac0c 8dbd 2f85 96bc
00000330: 36ef 623c f08e 8ebd 1ecb 0fbd e0a9 d43c
00000340: 389e 41bc 9908 533d 1e24 93bc 4d9d 84bd
00000350: 319c 10bc 6ba8 b33d b86a 343d ff8d 46bd
00000360: 5a60 a6bb 39c1 cabd 31a7 c9bd cc12 17bd
00000370: 9038 60bc bdd4 cfbd 6c4e 463d a724 8a3b
00000380: c818 aa3c c66e 8bbb f39c 223d 10a7 eb3c
00000390: 9017 9abd 3698 983c ad5f 4abc d437 1abb
000003a0: 630c f53b 85d1 b73b 718d 6f3d 57c6 cb3c
000003b0: c737 e0bc 684e 03bd 67e7 0e3c dc73 b9bc
000003c0: 6059 1b3e 682c 723c 20b8 54bd a81a f4bd
000003d0: f2ab 25be d0ab a2bb a55a 663d 0eae bdbc
000003e0: af65 61bd 6510 453c 252b 6f3d 3a28 93bd
000003f0: 20b9 febc 7052 353d c5d2 65bd cd7e 663d

net.2.bias f4 [256]
-0.049114943 0.04022636 -0.008429807 -0.14748938 -0.0076720873 0.036999926 -0.01866537 -0.012634565
-0.10314852 -0.044005647 -0.03509172 0.011807994 0.010598314 -0.021785818 0.011714307 0.04932095
-0.0013442056 -0.06065162 0.23070614 0.19011426 -0.05713644 -0.061215438 -0.017515639 0.16004728
-0.001260969 -0.10209576 0.014622818 -0.09170046 0.00012105132 0.15307291 -0.044174355 0.021175394
0.07658305 -0.03381858 0.069318995 0.20989291 0.035888344 0.14252742 -0.004640051 -0.020311778
-0.006295523 -0.10069864 -0.049749646 -0.11753414 -0.07685314 -0.0013032727 -0.06530101 -0.11418598
-0.099577345 -0.15725766 -0.036390558 -0.09976924 -0.0409817 -0.051290434 -0.061981168 0.061535392
-0.13668375 -0.12254888 -0.09128652 -0.010291637 -0.061233655 -0.026736822 -0.056941673 -0.0071279337
-0.049080133 -0.043404527 0.10907965 -0.12922369 -0.004091389 0.19786884 -0.013873896 -0.074813455
-0.04166521 0.021990407 -0.035785038 -0.09553748 -0.08646835 -0.0048302254 -0.12820816 0.105899476
0.011663589 0.041479424 -0.048584245 0.011467795 -0.062698625 -0.0038279502 -0.027721824 -0.009405985
-0.035797864 -0.06751555 -0.08771508 -0.060731098 -0.07509854 -0.08498217 -0.09417452 -0.111989945
-0.11071837 -0.0078306 0.029404689 0.030550752 -0.098677136 -0.064159386 0.004412332 -0.036199458
-0.0813453 -0.107300125 0.080300204 0.038064443 0.022374585 -0.10133845 -0.037317798 0.16225241
-0.042015404 -0.058619723 -0.022130083 0.12066267 -0.10166425 0.16226098 0.015042689 -0.07515879
0.047601793 -0.04922591 -0.025021873 -0.00059493666 0.27813637 0.12992823 -0.024276685 -0.14656448
-0.04532168 -0.069909 0.12723315 0.20241429 0.029100785 -0.026511606 0.050705995 -0.030105142
0.052543588 0.00016694776 -0.032101702 -0.040751383 0.04019793 -0.052389532 -0.07545919 -0.0366046
-0.052848075 -0.025199015 -0.09877432 -0.041769657 -0.10263759 -0.049054228 -0.045583043 -0.0716142
-0.036294315 0.018031789 -0.055186637 -0.026975352 -0.023284694 0.0053522615 -0.01074316 0.12054457
-0.027749458 -0.042772748 -0.1294654 -0.033145774 0.15450196 0.041176427 0.13088676 0.0160271
-0.06372855 -0.020571006 -0.028380496 -0.117427625 -0.008032496 -0.0038865525 -0.00749305 0.110829934
-0.016925424 0.053346597 0.013179126 0.033583213 -0.03880495 0.0046069385 -0.08029878 0.027276425
-0.08660535 0.073441 -0.036365107 -0.038358863 0.023365311 -0.06500268 -0.119897716 -0.06946691
-0.06594799 0.0055417265 -0.06347272 -0.08053508 0.16247225 -0.08456263 0.1132497 -0.046655156
0.178411 -0.10722892 0.0036519722 0.10657609 0.040778764 -0.070098676 0.010004979 0.009239227
-0.053274132 -0.014414535 0.0089521725 -0.013147288 0.00015994055 -0.035834767 0.21146415 -0.10064715
-0.016329188 -0.057276312 -0.061476965 0.012189283 -0.10869123 -0.06741528 -0.09225068 -0.05724902
0.014011811 0.20569722 -0.029575659 -0.062385194 -0.08700621 -0.022457123 -0.05983957 -0.028087415
-0.04256711 0.009218125 -0.11304899 -0.05364077 0.014043366 -0.038085487 0.10132333 -0.06167429
0.09047632 -0.050558455 0.027974479 -0.093107544 0.012966763 0.112424895 0.006358485 0.014571273
-0.06304288 0.065318085 -0.04046747 -0.011396521 0.1504212 -0.04730521 -0.05135155 0.17586268
00000000: c02c 49bd 65c4 243d 2c1d 0abc 7507 17be
00000010: 2266 fbbb 3c8d 173d 1ee8 98bc 3501 4fbc
00000020: 883f d3bd 443f 34bd 56bc 0fbd 5176 413c
00000030: 8da4 2d3c 2c78 b2bc 5ded 3f3c c404 4a3d
00000040: 0e30 b0ba d56d 78bd 3b3e 6c3e 50ad 423e
00000050: e607 6abd 0abd 7abd f57c 8fbc 6fe3 233e
00000060: 1947 a5ba 9517 d1bd 8b94 6f3c 73cd bbbd
00000070: efdc fd38 25bf 1c3e 2bf0 34bd 0578 ad3c
00000080: 93d7 9c3d 5a85 0abd 1ef7 8d3d 2bee 563e
00000090: a8ff 123d b5f2 113e 920b 98bb e364 a6bc
000000a0: ad4a cebb 173b cebd 49c6 4bbd bdb5 f0bd
000000b0: 2e65 9dbd 93d2 aaba 89bc 85bd 57da e9bd
000000c0: 35ef cbbd 2708 21be 440e 15bd d153 ccbd
000000d0: 6ddc 27bd eb15 52bd f7df 7dbd 890c 7c3d
000000e0: d3f6 0bbe e8fa fabd 6df4 babd 419e 28bc
000000f0: 24d0 7abd 2e07 dbbc ac3b 69bd 7191 e9bb
00000100: 4008 49bd f2c8 31bd 2765 df3d 3753 04be
00000110: 0f11 86bb 219e 4a3e 564f 63bc cc37 99bd
00000120: 24a9 2abd 3a25 b43c 5593 12bd 28a9 c3bd
00000130: 5116 b1bd de46 9ebb 0049 03be d3e1 d83d
00000140: a318 3f3c 54e6 293d 4600 47bd 6be3 3b3c
00000150: 2368 80bd 59de 7abb e118 e3bc 8f1b 1abc
00000160: c8a0 12bd 9845 8abd f7a3 b3bd 2cc1 78bd
00000170: 43cd 99bd 220b aebd 92de c0bd fc5a e5bd
00000180: 50c0 e2bd eb4b 00bc 1ae2 f03c 9245 fa3c
00000190: 3d17 cabd ff65 83bd 5395 903b e245 14bd
000001a0: 5d98 a6bd 2bc0 dbbd 6f74 a43d 76e9 1b3d
000001b0: e84a b73c 898a cfbd 8cda 18bd 7f25 263e
000001c0: 5818 2cbd 3c1b 70bd 264a b5bc fd1d f73d
000001d0: 5935 d0bd be27 263e 9c75 763c daec 99bd
000001e0: 19fa 423d 1ca1 49bd acfa ccbc 86f5 1bba
000001f0: e467 8e3e e80b 053e e6df c6bc 0015 16be
00000200: 3aa3 39bd 732c 8fbd 6849 023e b145 4f3e
00000210: c564 ee3c de2e d9bc 17b1 4f3d 0f9f f6bc
00000220: f237 573d b30e 2f39 137d 03bd ecea 26bd
00000230: 96a6 243d 6896 56bd 598a 9abd b4ee 15bd
00000240: 3977 58bd 2a6e cebc 314a cabd a916 2bbd
00000250: a833 d2bd 16ed 48bd 49b5 3abd 77aa 92bd
00000260: 59a9 14bd 67b7 933c 620b 62bd 6afb dcbc
00000270: 8bbf bebc 0662 af3b 1404 30bc 12e0 f63d
00000280: d552 e3bc 7a32 2fbd 9492 04be ddc3 07bd
00000290: c335 1e3e 9da8 283d 2e07 063e 444b 833c
000002a0: 1d84 82bd 8784 a8bc 377e e8bc e57d f0bd
000002b0: bb9a 03bc 88b5 7ebb 4288 f5bb cefa e23d
000002c0: 30a7 8abc f681 5a3d 43ed 573c 8d8e 093d
000002d0: f0f1 1ebd cdf5 963b b073 a4bd cf72 df3c
000002e0: 255e b1bd 3c68 963d 94f3 14bd 2f1e 1dbd
000002f0: 9c68 bf3c 2020 85bd ef8c f5bd ab44 8ebd
00000300: bd0f 87bd 5f97 b53b fcfd 81bd 93ef a4bd
00000310: 205f 263e 2c2f adbd 75ef e73d 7a19 3fbd
00000320: 60b1 363e d69a dbbd ed55 6f3b 9144 da3d
00000330: a207 273d e58f 8fbd eceb 233c 2060 173c
00000340: fa35 5abd f12a 6cbc 22ac 123c b967 57bc
00000350: b7b5 2739 7ac7 12bd 0f8a 583e 1820 cebd
00000360: cac4 85bc 919a 6abd 45cf 7bbd 8fb5 473c
00000370: 8299 debd 0611 8abd eded bcbd f37d 6abd
00000380: cc91 653c 4ba2 523e a748 f2bc 9e87 7fbd
00000390: 5030 b2bd 00f8 b7bc 561a 75bd 9417 e6bc
000003a0: da5a 2ebd 9e07 173c 3b86 e7bd 6db6 5bbd
000003b0: 2516 663c 87ff 1bbd 9b82 cf3d 2e9e 7cbd
000003c0: a64b b93d 6216 4fbd bc2a e53c 2baf bebd
000003d0: 8c72 543c 063f e63d d75a d03b 59bc 6e3c
000003e0: a01c 81bd 7dc5 853d 38c1 25bd 79b8 3abc
000003f0: 0408 1a3e 1cc3 41bd 0156 52bd 5915 343e

net.4.weight f4 [256, 256]
0.011287454 0.24102695 0.113153905 0.57375103 0.21353236 -0.029291198 0.012962924 0.008598268
0.23110223 0.09299845 0.010618064 -0.035914227 0.043596428 0.038153585 -0.046093713 0.25352275
0.021044487 -0.044612844 -0.5043203 -0.06936918 0.1281055 0.015347451 -0.0052588237 0.1731023
0.008731163 0.55677634 0.106450476 0.37513173 -0.018432029 0.035238914 -0.0031826273 0.035536006
0.43598783 0.05853624 -0.40508 -0.358251 0.067334384 0.07479321 0.057461742 0.035903316
0.04903886 0.095510714 0.058761127 0.16570623 0.039140712 0.0015635173 0.05915544 0.1631907
0.1668129 0.22944039 0.13695253 0.12786093 -0.03390163 0.043027252 -0.036912158 0.21750824
0.3455924 0.46352658 0.003237719 -0.0071969833 -0.058979094 -0.023096627 0.002920131 0.14912976
-0.014673028 0.027326401 0.0044958256 0.29005256 -0.027870554 -0.1904002 0.20017274 -0.028064385
-0.046221685 0.3945146 -0.05831284 0.21441928 0.041550625 -0.054799 0.4878506 0.0834059
0.009660988 -0.091346 -0.007566359 -0.023661843 0.038009718 0.017048998 0.12998825 0.049190328
0.005872771 0.2021394 -0.040806696 -0.060164794 0.26577362 -0.028902762 -0.062472023 0.033668257
0.007036919 0.22397353 -0.028371422 0.27783182 0.060463045 -0.048069544 0.025664993 -0.043891374
0.088915445 0.029559957 0.21632494 -0.080056846 0.02199628 0.5606356 0.033612557 -0.0521293
0.02029283 0.117797144 -0.035360415 0.1749873 -0.026274886 -0.03600698 0.0069355094 0.031116733
0.17801982 -0.037865993 0.024937805 0.041514166 -0.13146053 0.012761706 -0.041674208 1.0756991
-0.013864487 -0.02710235 0.25450534 -0.09717388 -0.03435213 -0.04123058 -0.091332346 -0.0040734312
0.1660844 -0.0013028326 0.09365443 -0.064748965 0.07082258 -0.06590222 -0.20823039 0.02352565
0.017242067 0.011445879 0.47585896 0.053558607 -0.0016017488 -0.0032552837 0.1881645 -0.04178746
0.010331571 0.015447721 0.016859043 -0.023595802 -0.010389902 -0.0068191616 -0.0035715695 0.0113822
0.049157497 0.07847025 0.52598137 0.24469821 -0.16389503 -0.0056374455 0.04715264 0.025643699
-0.055903144 0.081161514 0.038948342 0.34428754 0.033235025 0.019528313 -0.034985904 0.24972972
-0.07811109 0.060574953 0.030953113 0.287915 0.04632602 0.052438572 0.47858092 0.20121418
-0.06709278 0.00404715 0.047326725 0.07625199 0.017783323 -0.045975596 0.4145287 0.060587727
-0.04062764 -0.17192528 0.02458012 -0.027604558 -0.35650745 0.44202435 -0.1899365 0.02060169
-0.18703191 0.09816738 -0.0017668146 0.13959655 -0.051051743 0.3261007 -0.18973652 0.006742197
0.15626796 -0.036993667 0.0661268 -0.05435204 0.078419715 0.05431753 -0.20337896 0.038012084
0.022905258 0.044183202 -0.0220871 -0.056398503 0.106450595 0.18207972 0.003576238 0.02284491
0.26992142 -0.041263275 0.03278768 0.060180113 0.06645812 0.0568667 0.012783311 -0.020157227
-0.062359296 0.10241511 0.51237005 -0.044819318 0.06427832 0.055994656 0.17101999 0.0607149
0.089391924 0.40216568 0.07514345 -0.043354087 -0.041288976 0.078243874 0.052867454 -0.07785557
0.13512124 -0.041443918 0.049506 -0.28745338 0.020266837 0.025489986 -0.0017322428 -0.14187089
00000000: 03ef 383c c5cf 763e 3cbd e73d 59e1 123f
00000010: 3aa8 5a3e 18f4 efbc 7262 543c c0df 0c3c
00000020: 10a6 6c3e f975 be3d 63f7 2d3c cc1a 13bd
00000030: 2b92 323d ef46 1c3d c3cc 3cbd bccd 813e
00000040: 7d65 ac3c f5bb 36bd 231b 01bf 6e11 8ebd
00000050: 172e 033e e073 7b3c 3652 acbb bb41 313e
00000060: 270d 0f3c e588 0e3f b502 da3d 4411 c03e
00000070: c4fe 96bc ae56 103d a093 50bb 348e 113d
00000080: cc39 df3e b2c3 6f3d a566 cfbe ad6c b7be
00000090: 9ce6 893d 2f2d 993d 015d 6b3d 5b0f 133d
000000a0: f9dc 483d 1f9b c33d 82af 703d e5ae 293e
000000b0: 0352 203d efee cc3a fa4c 723d 761b 273e
000000c0: 00d1 2a3e 6cf2 6a3e 493d 0c3e faed 023e
000000d0: 70dc 0abd 583d 303d 3431 17bd 7bba 5e3e
000000e0: 7df1 b03e 5b53 ed3e e92f 543b acd4 ebbb
000000f0: 1094 71bd 2335 bdbc ab5f 3f3b 79b5 183e
00000100: 2467 70bc 9edb df3c b851 933b c581 943e
00000110: ca50 e4bc 45f8 42be 15fa 4c3e 48e7 e5bc
00000120: f352 3dbd d1fd c93e 72d9 6ebd ba90 5b3e
00000130: fd30 2a3d eb74 60bd 8ec7 f93e b6d0 aa3d
00000140: 1f49 1e3c 9d13 bbbd 38ef f7bb 7bd6 c1bc
00000150: 14b0 1b3d 57aa 8b3c a41b 053e cc7b 493d
00000160: 6070 c03b a2fd 4e3e ec24 27bd 5c6f 76bd
00000170: 7b13 883e 7cc5 ecbc aae2 7fbd bae7 093d
00000180: f495 e63b 5159 653e 2f6b e8bc f93f 8e3e
00000190: 19a8 773d 92e4 44bd 643f d23c 71c7 33bd
000001a0: 4d19 b63d b927 f23c 4984 5d3e d8f4 a3bd
000001b0: 8b31 b43c d185 0f3f 52ad 093d 8885 55bd
000001c0: 263d a63c a13f f13d 15d6 10bd df2f 333e
000001d0: 6e3e d7bc 0e7c 13bd 4543 e33b 85e8 fe3c
000001e0: d44a 363e 5f19 1bbd 5e4a cc3c c20a 2a3d
000001f0: 979d 06be 7916 513c 93b2 2abd 82b0 893f
00000200: e027 63bc bf05 debc 864e 823e 1903 c7bd
00000210: d2b4 0cbd 66e1 28bd 740c bbbd 6b7a 85bb
00000220: 0712 2a3e cfc3 aaba e5cd bf3d 1b9b 84bd
00000230: 6e0b 913d bef7 86bd 593a 55be ddb8 c03c
00000240: 3c3f 8d3c 7f87 3b3c c9a3 f33e 4560 5b3d
00000250: c5f1 d1ba 9956 55bb 32ae 403e 5429 2bbd
00000260: c045 293c 7018 7d3c fa1b 8a3c fc4b c1bc
00000270: 683a 2abc 4673 dfbb fe10 6abb 687c 3a3c
00000280: 5f59 493d 03b5 a03d b7a6 063f 2b92 7a3e
00000290: 19d4 27be 52ba b8bb 2023 413d bc12 d23c
000002a0: b2fa 64bd 0238 a63d 4c88 1f3d 7546 b03e
000002b0: 7321 083d d7f9 9f3c 614d 0fbd 26b9 7f3e
000002c0: b5f8 9fbd 711d 783d 6291 fd3c 9869 933e
000002d0: 5ac0 3d3d d4c9 563d 8f08 f53e 170b 4e3e
000002e0: f067 89bd f49d 843b abd9 413d 012a 9c3d
000002f0: 55ae 913c e850 3cbd 1b3d d43e d62a 783d
00000300: 2b69 26bd 2e0d 30be 3f5c c93c f422 e2bc
00000310: 2588 b6be 0451 e23e b77e 42be e0c4 a83c
00000320: 4b85 3fbe fb0b c93d 7694 e7ba 66f2 0e3e
00000330: a21b 51bd acf6 a63e 4a4a 42be a6ed dc3b
00000340: b504 203e ac86 17bd 7d6d 873d 3fa0 5ebd
00000350: 849a a03d 0f7c 5e3d 9342 50be 8fb2 1b3d
00000360: cfa3 bb3c 72f9 343d 02f0 b4bc 1e02 67bd
00000370: c502 da3d 1b73 3a3e 515f 6a3b 4025 bb3c
00000380: 2433 8a3e ae03 29bd 604c 063d 6c7f 763d
00000390: 321b 883d 0fed 683d 1871 513c c520 a5bc
000003a0: 766c 7fbd 03bf d13d af2a 033f 7694 37bd
000003b0: 5aa4 833d a75a 653d dd1f 2f3e 30b0 783d
000003c0: 1d13 b73d a9e8 cd3e cfe4 993d 0e94 31bd
000003d0: a11e 29bd 533e a03d 8b8b 583d be72 9fbd
000003e0: 395d 0a3e 19c1 29bd cec6 4a3d 172d 93be
000003f0: a306 a63c 60d0 d03c 6c0c e3ba 9a46 11be

net.4.bias f4 [256]
0.0413595 -0.04741566 -0.05464386 -0.07684819 -0.00080332084 -0.014328937 0.018619683 -0.0042811646
0.026813084 0.089377426 -0.05996004 0.009978811 0.009709663 -0.009395554 -0.00198113 -0.03682364
0.053904157 0.14041297 -0.020246033 0.059939183 0.07801625 -0.011414658 0.063261755 -0.042372216
-0.012162054 0.018037153 -0.035261724 0.015094172 -0.040914103 0.09289485 -0.044055905 -0.014603105
-0.026864393 0.013202839 -0.061088115 -0.013704562 -0.0142948385 0.12428918 -0.033531077 0.093924634
-0.032239232 -0.07780832 -0.04982096 0.09674778 -0.048194762 0.055146623 -0.013391339 0.038337715
-0.0017947779 -0.009587356 0.102348775 0.0016673765 -0.028141791 -0.0055210865 -0.053057823 0.07017127
-0.060178284 -0.037831016 -0.085719325 -0.057451356 -0.04937174 -0.027203262 -0.028045183 0.12280223
0.08363444 0.049301893 0.064620286 0.077754974 -0.029133806 0.036970764 -0.035365563 0.15050207
-0.013599808 0.083479285 -0.011815428 -0.003036793 -0.054084595 0.13073017 -0.028881593 0.027799837
-0.03935376 0.09377441 0.14845334 -0.069740124 0.041384626 0.037438724 -0.024371829 -0.012092551
-0.04150362 0.047449116 0.08730152 -0.015999831 -0.023663862 0.0014700786 -0.0069174063 0.050202545
0.080016956 0.17325251 -0.061383046 -0.009826668 0.0016877041 0.2583423 -0.010334513 0.113637485
0.1695996 -0.035369575 0.0030344138 0.010777617 0.090967014 -0.06345763 -0.052542545 -0.026824638
0.061596848 -0.019761385 -0.014781678 -0.051695913 -0.0057053757 -0.009678702 0.1294163 -0.03552266
-0.06150451 0.034743685 -0.0365363 0.06832962 -0.027127417 -0.006463244 0.100251764 -0.037421506
-0.0082503725 -0.059188593 -0.0045460016 0.0997133 0.20654799 -0.07098577 -0.029053884 0.17250445
0.018477347 -0.077263944 0.1376422 0.03963809 -0.003934253 -0.0055888547 -0.01569664 0.016310474
-0.047006883 -0.064519666 -0.028899483 -0.061618205 -0.02501964 -0.0012907083 -0.07639285 0.02021669
0.16434307 0.011282988 0.020792931 -0.04730975 0.064522415 0.04275375 0.05988122 0.011292672
-0.05213612 -0.007246107 0.11825013 -0.011534731 -0.025151107 -0.057977512 0.07794783 0.13050152
-0.024773188 -0.023212926 -0.028720938 -0.029951427 0.082006045 0.1746954 -0.056461778 -0.048158664
-0.022254597 0.06271517 0.07008098 -0.005629115 0.093752556 0.09481722 -0.054344967 0.010293617
0.0068658614 -0.051531814 -0.052281927 0.008848021 -0.017893467 -0.015491471 0.12594442 -0.067069784
-0.056891907 0.1044603 -0.03814658 0.10963766 0.0032309773 0.080305055 -0.06316101 -0.0037527282
-0.021541975 -0.015010175 0.096247055 -0.017409423 0.07314829 0.0071167373 0.015525201 -0.028121643
-0.016766371 0.003906858 -0.052549344 0.14619087 0.0013031983 0.0036691064 0.025891408 0.0642856
0.17342931 0.061277814 -0.02638111 -0.012008218 -0.017459992 -0.028637696 -0.058544427 0.009130002
0.0034318133 0.0010202298 -0.00022955732 0.03151088 -0.033403605 0.04863205 -0.037032634 0.11353839
0.15043657 0.04115695 0.0451005 -0.017979836 -0.032314636 0.022041488 -0.0051294337 -0.0065046106
0.17155801 -0.014484428 0.04548768 0.036996845 -0.012038667 0.0005675725 0.035100747 -0.017543381
-0.054818895 -0.06630866 -0.086796165 0.10190264 -0.0054239244 -0.061659254 -0.04035501 0.12176409
00000000: 9468 293d ec36 42bd 3dd2 5fbd 9562 9dbd
00000010: f395 52ba ebc3 6abc 4e88 983c 0349 8cbb
00000020: 1da7 db3c 830b b73d a998 75bd 2b7e 233c
00000030: 4715 1f3c cfef 19bc d9d5 01bb 63d4 16bd
00000040: 9bca 5c3d 6bc8 0f3e 02db a5bc ca82 753d
00000050: fcc6 9f3d 8c04 3bbc 618f 813d 7d8e 2dbd
00000060: 5a43 47bc a7c2 933c 996e 10bd 8c4d 773c
00000070: 8c95 27bd a83f be3d f773 34bd dd41 6fbc
00000080: b712 dcbc b850 583c 8837 7abd 1989 60bc
00000090: e634 6abc 538b fe3d e257 09bd 8f5b c03d
000000a0: 490d 04bd f859 9fbd 1011 4cbd b323 c63d
000000b0: df67 45bd 6de1 613d 5967 5bbc 0208 1d3d
000000c0: c13e ebba 4914 1dbc 3c9c d13d df8b da3a
000000d0: 9d89 e6bc 3bea b4bb 2953 59bd f4b5 8f3d
000000e0: 817d 76bd b2f4 1abd 9d8d afbd 1d52 6bbd
000000f0: 063a 4abd 60d9 debc 03bf e5bc bc7f fb3d
00000100: 8948 ab3d c8f0 493d a457 843d 003e 9f3d
00000110: 05aa eebc a86e 173d 7bdb 10bd 371d 1a3e
00000120: bbd1 5ebc 30f7 aa3d 7f95 41bc ef04 47bb
00000130: cf87 5dbd 21de 053e 1799 ecbc 7cbc e33c
00000140: 6931 21bd cc0c c03d 2704 183e e9d3 8ebd
00000150: ed82 293d 5959 193d 6ea7 c7bc d61f 46bc
00000160: b3ff 29bd 015a 423d 24cb b23d 1412 83bc
00000170: b7da c1bc a7af c03a 69ab e2bb 2fa1 4d3d
00000180: eedf a33d 1b69 313e ca6c 7bbd 0800 21bc
00000190: f435 dd3a 7145 843e 1752 29bc c5ba e83d
000001a0: 84ab 2d3e b0df 10bd 04dd 463b 9a94 303c
000001b0: ea4c ba3d 13f6 81bd da36 57bd 58bf dbbc
000001c0: fa4c 7c3d a1e2 a1bc da2e 72bc 18bf 53bd
000001d0: 29f4 babb 6b93 1ebc b585 043e 3580 11bd
000001e0: 27ec 7bbd 654f 0e3d 16a7 15bd 66f0 8b3d
000001f0: 513a debc 9fc9 d3bb cc50 cd3d 4b47 19bd
00000200: 922c 07bc bd6f 72bd a0f6 94bb 7d36 cc3d
00000210: 5181 533e fd60 91bd 6902 eebc 02a5 303e
00000220: ce5d 973c 8f3c 9ebd 14f2 0c3e 8d5b 223d
00000230: e8ea 80bb b622 b7bb 3d96 80bc 8b9d 853c
00000240: 4a8a 40bd e322 84bd 9cbe ecbc 5f63 7cbd
00000250: fdf5 ccbc fc2c a9ba db73 9cbd 799d a53c
00000260: 8d49 283e 48dc 383c f055 aa3c dec7 41bd
00000270: 5424 843d 8e1e 2f3d 0346 753d e604 393c
00000280: af8c 55bd c070 edbb 202d f23d 2bfc 3cbc
00000290: b209 cebc d479 6dbd 1da3 9f3d 31a2 053e
000002a0: 24f1 cabc 0929 bebc 2c48 ebbc b25c f5bc
000002b0: c9f2 a73d 5ae3 323e 7744 67bd 0542 45bd
000002c0: 464f b6bc d070 803d 9e86 8f3d 7074 b8bb
000002d0: 5701 c03d 882f c23d d498 5ebd 8fa6 283c
000002e0: 05fb e03b 0613 53bd 9325 56bd 4af7 103c
000002f0: 5295 92bc f0cf 7dbc 93f7 003e e25b 89bd
00000300: 7d07 69bd 48ef d53d 973f 1cbd b689 e03d
00000310: cebe 533b fa76 a43d 8f5a 81bd 55f0 75bb
00000320: cc78 b0bc 3ded 75bc 2d1d c53d 359e 8ebc
00000330: c5ce 953d 8533 e93b 6a5d 7e3c 5c5f e6bc
00000340: a159 89bc 1a05 803b fb3d 57bd 0fb3 153e
00000350: 14d0 aa3a 6475 703b 381a d43c 2ba8 833d
00000360: 7497 313e 72fe 7a3d 331d d8bc 1ebe 44bc
00000370: 4208 8fbc 9a99 eabc 48cc 6fbd 0196 153c
00000380: 46e8 603b 3bb9 853a 53b5 70b9 8d11 013d
00000390: 38d2 08bd 6732 473d 88af 17bd d186 e83d
000003a0: 0b0c 1a3e 3194 283d 4dbb 383d 734a 93bc
000003b0: 5a5c 04bd 5a90 b43c cf14 a8bb a124 d5bb
000003c0: e7ac 2f3e 1850 6dbc 4a51 3a3d 018a 173d
000003d0: d43d 45bc 25c9 143a cdc5 0f3d 23b7 8fbc
000003e0: c789 60bd d6cc 87bd 30c2 b1bd 55b2 d03d
000003f0: 2dbb b1bb 6a8e 7cbd 4c4b 25bd 745f f93d

net.6.weight f4 [1, 256]
1.5680888 0.479593 0.045364104 0.47321433 0.75766754 -0.026039114 0.22422308 -0.035791922
-0.4416081 1.0086671 0.6513859 0.38557914 0.18934645 0.0045672962 0.0072800135 0.019524906
-0.9669055 1.3906928 0.084097005 1.180801 -0.46560356 0.00030884985 -0.034245025 -0.055186316
-0.1162534 0.08613366 0.02637426 0.0053516165 -0.015029244 1.3577168 0.0026197762 0.25174075
0.011222864 0.61453 0.63869315 0.024173329 -0.061742224 1.5266148 0.14029756 0.97859883
0.31854787 -0.03057669 0.009562902 1.34801 -0.017892748 0.81054777 0.37999475 1.1891649
-0.012309451 1.1797119 1.0338761 1.3683028 -0.008257567 0.17989223 -0.0005597612 -1.0478047
0.049062494 -0.044129957 0.3747841 -0.009007676 0.83983874 -0.041827455 0.420654 1.2974925
0.8308994 0.2368462 -1.7136973 0.92427236 0.6493056 0.0745887 0.5052834 -1.2149115
-0.23825483 1.2926041 0.12857702 0.09563152 0.0066912374 0.8630186 -0.036021583 1.1751536
0.4019058 -0.7871293 -1.1578139 0.015677858 0.3245398 1.4489748 -0.009571826 0.036846705
0.0022238942 1.3277545 1.3378371 0.11700215 0.20935838 -0.053857397 0.085528165 0.59056205
1.8045894 1.00492 -0.06096417 0.0012256312 -0.1854277 -1.7054706 0.0004213463 0.91450727
1.3851012 -0.04295422 -0.008969622 -0.0026884386 0.10090422 0.40299633 -0.028443908 -0.041883364
1.0649265 -0.10603936 1.1939801 0.4058373 -0.014693216 0.16324922 1.0723541 0.0008206889
-0.050575823 1.401074 0.50637287 1.192611 0.7866632 0.36979514 1.4931347 0.7759138
-0.046355024 0.5880271 -0.4983752 0.06840261 1.2658858 0.5827079 0.0005661024 -1.075628
-0.30598772 1.1741507 1.8939257 0.7824929 0.0020270133 0.9768127 0.15153433 0.92011195
-0.045466766 0.040348068 -0.011329868 -0.0034731703 0.30123872 -0.060167138 0.7314488 0.2771756
1.8147744 -0.043274306 1.0378543 -0.0395527 0.2857356 -1.5202405 -0.22278199 -0.06963762
-0.011348795 -0.28308862 1.5247973 -0.052204113 0.2225693 0.56326133 0.9316775 -0.5667381
0.94893944 0.006458872 -0.05042831 -0.006994696 1.4948136 1.860073 0.024326209 -0.036159277
0.019214913 0.4489031 -0.19437657 0.06944655 1.4575868 0.7689444 -0.014451628 -0.41492152
1.8368733 -0.022227462 0.0024555698 0.1219083 0.2325376 -0.025602289 1.543261 -0.25383425
0.0252138 1.602447 0.055965867 1.6974865 1.3479955 1.2652282 -0.009333845 -0.04194961
0.6778277 -0.014136277 0.8538592 0.095358595 1.4909385 -0.0011803143 0.4413254 0.060797576
1.1917224 0.34810644 -0.29107824 -0.7162891 -0.09548085 -0.40513566 1.1844872 -0.4982014
1.2182516 1.4620918 0.027523119 -0.11723851 0.009918573 -0.00030591196 -0.036677577 1.5735829
-0.06565116 -0.02197491 -0.009103035 -0.3631571 -0.15288477 1.6509511 0.042053107 1.8039646
0.99048287 0.51597303 -0.39879912 0.79805845 0.8630812 0.05166301 0.149737 0.72961605
1.2718492 -0.02470923 0.15330502 0.475796 1.2610028 0.11871191 1.249279 -0.28557804
0.025114449 0.5823301 -0.7624087 1.8563952 -0.04073201 0.030430527 -0.20961973 1.8296423
00000000: 22b7 c83f 378d f53e b6cf 393d 2649 f23e
00000010: 80f6 413f fb4f d5bc bc9a 653e 8d9a 12bd
00000020: 751a e2be 011c 813f 3ac1 263f a16a c53e
00000030: 09e4 413e 42a9 953b 2e8d ee3b b2f2 9f3c
00000040: 1e87 77bf 3902 b23f 0d3b ac3d 7d24 973f
00000050: 9763 eebe 20ed a139 8344 0cbd 0c0b 62bd
00000060: 4316 eebd d866 b03d d50e d83c 9d5c af3b
00000070: 383d 76bc aac9 ad3f 8db0 2b3b 2ae4 803e
00000080: 1ae0 373c d751 1d3f 6581 233f 2507 c63c
00000090: 6ae5 7cbd 1d68 c33f 2aaa 0f3e 7485 7a3f
000000a0: b518 a33e f77b fabc b8ad 1c3c 978b ac3f
000000b0: d093 92bc 0f80 4f3f ac8e c23e 8e36 983f
000000c0: 94ad 49bc cd00 973f 0d56 843f 8c24 af3f
000000d0: bf4a 07bc ab35 383e f0bc 12ba 771e 86bf
000000e0: c1f5 483d 9dc1 34bd b4e3 bf3e ee94 13bc
000000f0: acff 563f 4453 2bbd f65f d73e 3c14 a63f
00000100: d3b5 543f cf87 723e 6f5a dbbf 1d9d 6c3f
00000110: e438 263f f6c1 983d 415a 013f 3882 9bbf
00000120: 13f9 73be 0d74 a53f b2a9 033e 75da c33d
00000130: 2b42 db3b c9ee 5c3f 5e8b 13bd 6f6b 963f
00000140: 99c6 cd3e 4e81 49bf 3f33 94bf da6e 803c
00000150: 152a a63e 0278 b93f 26d3 1cbc 92ec 163d
00000160: c1be 113b dcf3 a93f 3f3e ab3f d39e ef3d
00000170: 0b62 563e 9399 5cbd 6429 af3d 132f 173f
00000180: c9fc e63f 38a1 803f 91b5 79bd 5ca5 a03a
00000190: c2e0 3dbe dc4c dabf 25e8 dc39 261d 6a3f
000001a0: ff4a b13f c4f0 2fbd 52f5 12bc 8430 30bb
000001b0: dfa6 ce3d 8955 ce3e 3303 e9bc e48d 2bbd
000001c0: 834f 883f 2a2b d9bd 57d4 983f e8c9 cf3e
000001d0: d1bb 70bc ce2a 273e e642 893f 8023 573a
000001e0: 9828 4fbd 6556 b33f a7a1 013f 7aa7 983f
000001f0: c262 493f ca55 bd3e 0a1f bf3f 49a2 463f
00000200: c4de 3dbd f288 163f 092b ffbe ab16 8c3d
00000210: 8c08 a23f 582c 153f 7d66 143a 2eae 89bf
00000220: 6caa 9cbe 924a 963f 286c f23f 7451 483f
00000230: a4d7 043b 6610 7a3f d12b 1b3e 758c 6b3f
00000240: 5c3b 3abd 0444 253d e9a0 39bc 219e 63bb
00000250: f63b 9a3e d171 76bd 3b40 3b3f f6e9 8d3e
00000260: 874a e83f 6640 31bd 69d8 843f 0302 22bd
00000270: f04b 923e 3e97 c2bf f620 64be 2b9e 8ebd
00000280: 4cf0 39bc fef0 90be 8f2c c33f fbd3 55bd
00000290: 35e9 633e e531 103f 6b82 6e3f c015 11bf
000002a0: b2ed 723f f2a4 d33b ea8d 4ebd c333 e5bb
000002b0: 0d56 bf3f df16 ee3f c247 c73c c01b 14bd
000002c0: 9868 9d3c a1d6 e53e a70a 47be fe39 8e3d
000002d0: 3492 ba3f 8ad9 443f 85c6 6cbc 9870 d4be
000002e0: aa1e eb3f 5e16 b6bc a0ed 203b 0fab f93d
000002f0: 561e 6e3e e4bb d1bc 9489 c53f 90f6 81be
00000300: 2c8d ce3c fc1c cd3f 773c 653d 3d47 d93f
00000310: 1e8b ac3f fff2 a13f fcec 18bc 5bd3 2bbd
00000320: 1e86 2d3f d89b 67bc 8496 5a3f 5e4b c33d
00000330: 13d7 be3f c7b4 9aba 67f5 e13e e106 793d
00000340: 5c8a 983f 023b b23e 3508 95be b95e 37bf
00000350: 778b c3bd f16d cfbe 479d 973f 4114 ffbe
00000360: abef 9b3f d325 bb3f 2a78 e13c be1a f0bd
00000370: 8381 223c cf62 a0b9 3a3b 16bd 2a6b c93f
00000380: 1e74 86bd ba04 b4bc e524 15bc baef b9be
00000390: d38d 1cbe 5e52 d33f e13f 2c3d 50e8 e63f
000003a0: 4990 7d3f cf16 043f 662f ccbe 8f4d 4c3f
000003b0: e4f2 5c3f 989c 533d a854 193e 1ec8 3a3f
000003c0: f4cb a23f 036b cabc fefb 1c3e 899b f33e
000003d0: 8a68 a13f 3b1f f33d 60e8 9f3f 4937 92be
000003e0: d1bc cd3c 9613 153f 372d 43bf 5c9e ed3f
000003f0: 9cd6 26bd 7149 f93c 8ea6 56be b831 ea3f
