preTrained/GAIL_pretrained_5100_actor.pth (torch, 541220 bytes, 8 tensors)

net.0.weight f4 [256, 3]
000000 f5 cd 48 be fd cf 17 bf d8 f6 aa be 24 0f b3 3e
       -0.19609816 -0.5930174 -0.33391452 0.3497249
000010 e3 c5 48 3f 85 bc c3 be aa 64 01 3f 7f 57 28 3e
       0.7842695 -0.38229766 0.50544226 0.16439627
000020 e7 07 23 bf ab ba 09 bf bc 32 81 3e 7e 03 8a bc
       -0.63683933 -0.5380046 0.2523402 -0.016847368
000030 e8 b8 03 3e 77 3f 1f be 54 81 09 be 13 19 85 3e
       0.12863505 -0.15551554 -0.13428241 0.25995693
000040 9b 47 31 be d3 be a1 3c 6c 3b 5f be f4 25 0c 3f
       -0.17312472 0.019744312 -0.21800011 0.5474541
000050 e5 50 09 be 4b 99 c5 be 57 f2 87 3f bb 37 fc bd
       -0.13409765 -0.38593516 1.0620831 -0.12315317
000060 ab bc 36 bf 19 ec 8d 3e 75 7a ef be 61 8f 13 bf
       -0.71381634 0.2771919 -0.46773115 -0.57640654
000070 73 27 e7 bd 33 7c 04 bf ba 49 08 bf 77 39 1c bf
       -0.11286821 -0.5175201 -0.532375 -0.61025184
000080 5d b9 5f 3e 6f 85 be be a2 2d 49 bd e1 45 02 bf
       0.21848054 -0.37211177 -0.049115784 -0.50887877
000090 c6 32 3b be e4 4d 6d bf 5b d0 3d be aa 63 9f be
       -0.18281087 -0.92696977 -0.18536513 -0.31130725
0000a0 6f 9a 08 3e b7 6e 3a 3e e5 aa e4 3e 65 70 f7 3e
       0.13340162 0.18206297 0.44661632 0.48327938
0000b0 01 dc b6 be 02 65 24 bf bf 04 81 3f 20 23 39 be
       -0.35714725 -0.64216626 1.0079573 -0.18079805
0000c0 39 2b 30 bf 39 cd 9d 3e e6 14 0c be f1 79 75 be
       -0.6881595 0.30820635 -0.13679847 -0.23972298
0000d0 c6 fc 90 3e 60 31 a6 3e 9f 6a d9 be 80 56 14 3f
       0.2831785 0.32459545 -0.42464158 0.5794449
0000e0 f2 83 7c bd f3 59 8c 3d 9e 38 94 be 08 03 f9 be
       -0.06164927 0.06853094 -0.28949445 -0.48635125
0000f0 7b 12 28 be c7 e0 08 bf 63 4c 5c be f8 d3 59 be
       -0.164133 -0.53467983 -0.21513514 -0.21272266
000100 6a 8d fc bd c1 9f 3d 3e eb 8a 51 be 1a cc 6f 3f
       -0.1233166 0.18517973 -0.20463149 0.9367081
000110 5a 1d 02 bf 5b 51 c0 be b8 02 09 bf 14 b6 d1 3e
       -0.50826037 -0.3756207 -0.53519773 0.40959227
000120 91 84 07 3e b9 d6 e0 3e 64 0e 29 bf f5 6d e3 3e
       0.13234164 0.4391382 -0.66037583 0.44419828
000130 48 75 c2 3e d7 f8 e3 be 98 74 8a 3c 11 28 5f 3e
       0.37980103 -0.44525787 0.0169013 0.21792628
000140 30 91 1e bf b3 53 99 bd 5f 63 f4 3d e5 42 76 bc
       -0.6194029 -0.074866675 0.11933016 -0.015030597
000150 a0 da 88 bd 5d d4 87 bc 7a 1b c7 3e 5a 14 46 bc
       -0.066823244 -0.016580755 0.3888815 -0.012089813
000160 1d a5 0c bf 8e 69 1b bf 72 a2 d9 3d 89 e3 d3 bd
       -0.5493944 -0.6070794 0.10626687 -0.10346133
000170 25 6f c4 3e 34 28 77 be ef ae f7 ba 64 51 12 bf
       0.38366047 -0.2413643 -0.0018896739 -0.5715544
000180 4e 68 15 3f 78 cd 83 bf fd a7 d1 3e 82 33 ab be
       0.5836228 -1.0297079 0.40948477 -0.33437735
000190 34 8f c7 3e 3c 8a 46 be 89 13 2f bf c8 25 53 be
       0.38976443 -0.1938867 -0.68389183 -0.20619881
0001a0 95 8f 5e be ea c9 e1 be a7 8d 76 3d e5 17 bf bd
       -0.2173446 -0.4409936 0.060193684 -0.093307294
0001b0 f2 ff a0 3e f4 4c bc 3d 29 9c 20 be e0 85 38 bf
       0.3144527 0.09194365 -0.1568457 -0.7207928
0001c0 f6 22 5a 3f cd ef 01 bf 65 d7 48 3e d0 f4 a0 be
       0.85209596 -0.5075653 0.19613416 -0.31436777
0001d0 31 d2 d8 be 9e 91 fa bd 62 e3 01 3f 58 ae 47 bf
       -0.42347863 -0.122348055 0.50737584 -0.780004
0001e0 af 00 10 3e 5a c2 f9 3e 20 50 85 be 77 47 6f bd
       0.14062761 0.4878109 -0.26037693 -0.058417764
0001f0 53 29 f6 3e 63 ee 8e be 40 28 be be 29 ad 4a 3f
       0.48078403 -0.2791625 -0.37140083 0.7917047
000200 0b 95 d2 be f8 1f 79 be 56 48 c6 3e 3f 44 5b 3e
       -0.41129336 -0.24328601 0.38727063 0.21412753
000210 81 ac c0 3c 17 a2 01 bf e0 b8 cf be 28 0a 5f 3d
       0.023519756 -0.50637954 -0.40570736 0.054453045
000220 be d8 f7 be 3b f4 e7 be 03 7d 42 bf 3d 9a 1b 3f
       -0.4840755 -0.4530352 -0.75972 0.60782224
000230 6f 9b b8 bd dd f2 52 3e 62 47 a5 bf c1 c0 8a 3e
       -0.090140216 0.20600457 -1.2912409 0.27100185
000240 d2 18 f5 be b5 4f b3 be fb a6 28 bd ae 2c e1 be
       -0.478705 -0.3502175 -0.04117487 -0.439794
000250 3b 35 01 be 52 8c b6 bc e4 95 94 be 02 c6 8c 3f
       -0.12617962 -0.022283707 -0.29020607 1.0997927
000260 98 a9 67 be 39 5b 06 3f 47 1a 1c 3f c4 20 1b be
       -0.22623289 0.52482945 0.60977596 -0.15149218
000270 03 e8 07 bf 02 7d 29 3e 34 1c 50 3e 52 0b 08 bc
       -0.53088397 0.16551593 0.20323259 -0.00830348
000280 41 8d 12 3f e0 39 fd be 87 b6 90 3e c7 37 1a bf
       0.57246786 -0.49458218 0.28264257 -0.6024136
000290 9d 79 b0 3d 52 70 f6 3d ae 99 43 be 67 e0 eb be
       0.08616946 0.12033142 -0.19101593 -0.46069643
0002a0 02 bc ae 3e e6 f7 af 3c b6 a6 a7 3e a8 ba 76 bd
       0.34127814 0.021480512 0.32744378 -0.060236603
0002b0 3d 02 1e bf 18 3c 37 bd af 8c c1 be 9b a9 f7 3e
       -0.61722165 -0.044735044 -0.37802646 0.48371586
0002c0 68 f4 e2 3e bb d7 3f bf ac 8d a3 be 1c 11 62 3e
       0.44327092 -0.74938554 -0.31944025 0.22076839
0002d0 53 3c 9b be 4f 56 37 bf c5 2c 38 be c8 88 8f be
       -0.3031946 -0.7161607 -0.17985828 -0.28034043
0002e0 ca 83 ea bd c5 c2 3d be 1b e3 6b be bb a7 5c 3f
       -0.11450918 -0.1853133 -0.23035853 0.86193436
0002f0 ad 51 0f be d8 01 b7 be 12 cd 4f be 50 8e a9 be
       -0.13996 -0.35743594 -0.20293072 -0.33116388
000300 02 f7 52 3e 41 78 62 3f d5 65 ba 3e b9 79 e9 be
       0.20602039 0.8846474 0.36405817 -0.4560068
000310 63 17 f1 be 3b 29 31 3d 09 53 82 bd 81 48 db 3d
       -0.47088155 0.04325221 -0.06363494 0.107071884
000320 f9 44 18 bf 9a b9 7e be 18 93 76 be d1 8f e6 bc
       -0.59480244 -0.24875489 -0.2407955 -0.028144749
000330 fe 07 67 be 5f e8 6e bf 7c 96 e1 be 17 5d 46 bf
       -0.22561643 -0.9332332 -0.44060123 -0.77485794
000340 41 0f 92 3e 10 ed cf 3c de 7e 7d be b5 ab fc be
       0.28527263 0.025381595 -0.24755427 -0.49349752
000350 49 a7 0d bf f7 ee 96 bd 72 0c fb 3e fe 8f af be
       -0.5533338 -0.07369798 0.49032933 -0.34289545
000360 c3 a1 1f bf 0d 05 34 3f 40 b8 c5 be 5a 67 ab 3e
       -0.62356204 0.70320207 -0.38617134 0.33477288
000370 40 97 95 bd 81 32 af bd a6 a3 47 bd 07 40 1e bf
       -0.07304239 -0.08554555 -0.04874005 -0.6181645
000380 d9 07 17 3e 22 23 b4 be 49 34 b8 be 64 1d 6d be
       0.14749087 -0.35183054 -0.3597739 -0.23155743
000390 70 91 7d bd af cd 1a 3e d1 50 08 3e 22 ee 9f 3d
       -0.061906278 0.15117525 0.13312079 0.07809092
0003a0 ca 66 51 3e f8 4d b2 be 3d c7 63 3e 8f 39 a1 3e
       0.20449367 -0.3482511 0.22243972 0.31489226
0003b0 1a 67 c4 3e 8f ba 9a be e0 9e 10 3e 68 04 6a 3e
       0.3835991 -0.30220458 0.14123106 0.22853243
0003c0 fa 73 75 be 0a 81 89 bf a6 4b 46 3e a9 db f3 be
       -0.23970023 -1.0742505 0.19364795 -0.47628525
0003d0 b4 45 a4 3d 72 4e af be 2d 46 8e 3e e3 a8 c1 3d
       0.08021107 -0.34239537 0.27787915 0.09456041
0003e0 64 cc 89 3e c8 06 7d 3e 03 ca 97 3e cb 30 10 bf
       0.2691375 0.24709618 0.2964631 -0.5632445
0003f0 bc 3c 76 3e 09 4b 21 be 82 15 10 bf 26 94 65 bd
       0.24046606 -0.1575128 -0.5628282 -0.05604949

net.0.bias f4 [256]
000000 df 52 08 be 9e 38 07 be 50 c6 d9 3c 8d a7 24 be
       -0.13312863 -0.13205191 0.02658382 -0.1607954
000010 59 0d d4 3d 97 23 5d 3e 13 a5 18 bd bd ed fd 3d
       0.10354108 0.21595608 -0.037266802 0.123988606
000020 a1 cc e1 3e 82 b2 e6 3e 7f 33 33 bc 34 8d c3 3e
       0.44101432 0.45058066 -0.010937571 0.38193667
000030 b1 11 b5 3e 84 d9 59 bb 03 80 36 be 7b 89 82 3e
       0.3536506 -0.0033241222 -0.1782227 0.25495514
000040 f5 db 84 3e f1 ab e0 be 38 cb 90 be ca af 2a 3e
       0.25949064 -0.4388118 -0.28280044 0.1666862
000050 24 4e a6 3d 9a d2 5b be ff 85 00 3e 1a 8d 29 be
       0.08120373 -0.21467057 0.12551115 -0.16557732
000060 90 1d 3a 3e f6 b3 67 be 5a f3 cb 3d ac b8 0d bf
       0.1817534 -0.22627243 0.09958525 -0.5535991
000070 08 a1 03 bf 1b fa 5f 3e 21 cc fd be 23 65 91 3d
       -0.5141759 0.21872751 -0.495698 0.070993684
000080 61 f1 65 be 5d 12 09 3d 0b 77 a6 3e 74 5b 45 3e
       -0.2245536 0.03346478 0.32512698 0.19273168
000090 88 68 3e be d8 7c af 3e af 3b 8e 3d c5 65 a8 3e
       -0.18594563 0.34274936 0.069449775 0.32890144
0000a0 ba 43 07 bf b1 af 80 be df a9 35 3e 6f 85 74 be
       -0.5283772 -0.25134042 0.17740582 -0.23879026
0000b0 00 92 ac be b8 80 02 3e ce 55 4c 3e e5 ad a0 3a
       -0.3370514 0.12744415 0.19954607 0.0012258856
0000c0 70 89 0d 3d c7 31 11 3e 58 7a f8 3d be 24 0f be
       0.0345549 0.14179145 0.1213271 -0.1397886
0000d0 f1 0a 8b bd 93 f9 a3 be 9d e0 d7 3d 9a 95 04 bd
       -0.06789196 -0.32026348 0.105408885 -0.032369234
0000e0 3a d5 d1 be 78 53 4f bd 0f 30 3b be fa 35 e6 3d
       -0.4098299 -0.05061671 -0.18280052 0.11240764
0000f0 dd 2e b8 3d 12 06 83 bd ee c7 cb 3c c4 11 cc be
       0.089933135 -0.06397642 0.024875607 -0.39857304
000100 17 36 b8 be ff 23 57 3e 5a 4a ac 3c 88 d4 85 be
       -0.35978767 0.21009825 0.021031547 -0.2613871
000110 d8 42 c1 3e 63 94 5c 3e f4 d8 94 3e 1b cd f4 bc
       0.3774631 0.2154098 0.29071772 -0.029882958
000120 da 8f 8c 3e 6a 51 06 be 7c 9e 1a be 4b a6 40 3e
       0.274535 -0.13116995 -0.1509952 0.18813436
000130 95 b9 9a be 94 ac c5 3d 4f 6a ba be 20 32 de be
       -0.30219713 0.09652057 -0.36409232 -0.43397617
000140 6c fe 73 3e ca 02 7c 3e 17 55 d0 be 6f 68 83 3e
       0.23827523 0.24610439 -0.40689918 0.25665614
000150 35 72 0b 3e ec 52 04 be 0b 9b e5 bd 7c 6d 76 3d
       0.13617785 -0.12922257 -0.11211213 0.060163006
000160 40 61 31 3e fd 20 82 be 41 c4 dd bc 1f dc fd be
       0.17322254 -0.25415793 -0.02707112 -0.49582002
000170 51 8a 41 3c 9b 86 c3 3d 4d 6f 44 3e 90 64 bb 3e
       0.011812762 0.09547158 0.19183083 0.3660016
000180 59 6e 87 bd b2 b4 b0 3e 47 9c 74 3d 18 45 49 bd
       -0.06612844 0.3451286 0.05971935 -0.04913816
000190 cb 47 97 be 8f 20 88 be 8e ae 8b 3c 0a ef d9 be
       -0.2954696 -0.2658734 0.017051008 -0.42565185
0001a0 09 ae b8 bd ca dc d0 be f6 2e 81 3d 5a 35 55 bd
       -0.090175696 -0.4079345 0.06307785 -0.052052833
0001b0 ff ad ea bd 4e a4 d2 3d 2b a9 92 3e e4 d3 d9 be
       -0.11458968 0.10285245 0.2864469 -0.42544472
0001c0 55 be 07 bf b6 18 9e bb 9a 2f a0 be 14 18 81 bd
       -0.530248 -0.004824723 -0.31286317 -0.06303421
0001d0 3d 46 3d be 2f 1d 39 3e 43 f3 af bc 51 c3 0c 3b
       -0.18483825 0.18077539 -0.0214783 0.0021478722
0001e0 c1 db 95 be 8e 30 8f bc 70 25 2f be 9d 56 41 be
       -0.2926922 -0.017479207 -0.17104125 -0.18880697
0001f0 94 aa 91 3e cc da 7b 3e 47 e9 78 be 41 6f 15 3e
       0.28450453 0.24595183 -0.24307738 0.14593221
000200 f6 ac 99 be d8 cb 52 3e 6c 94 c1 bd a8 3a 1c 3e
       -0.3001477 0.20585573 -0.09452137 0.1525675
000210 2b 93 1c be 2b 02 05 be ba dd f8 bd d9 b2 58 be
       -0.15290515 -0.12989108 -0.12151666 -0.21161975
000220 4c 25 e6 bd 07 dc 34 be 23 02 36 be 0b 40 03 bf
       -0.112375826 -0.17662059 -0.17774253 -0.51269597
000230 dd 45 48 be 8e 0b a6 be a1 a1 96 be 11 11 30 be
       -0.195579 -0.3243069 -0.29420188 -0.1719401
000240 ce 7f fb be 66 a0 f9 be 5e 87 52 3d 4e 74 94 be
       -0.49120945 -0.48755187 0.051398627 -0.28994983
000250 6e d9 b1 be c1 d8 5c 3d ea 54 ef be 29 d7 a4 be
       -0.34736198 0.05391765 -0.46744472 -0.32195404
000260 b9 f8 e1 bd 02 3b 81 3e 0f 2d 0b 3e 85 12 08 be
       -0.11033768 0.25240332 0.13591407 -0.13288315
000270 d1 84 87 be 30 aa 73 3e da c8 2e be c5 8e a1 3d
       -0.26468518 0.2379539 -0.17068806 0.07888559
000280 80 1e c3 3d fe 50 6e be 61 e2 8b 3e 74 77 f2 bc
       0.09527302 -0.23273084 0.2732115 -0.029597975
000290 61 a2 d7 3e ed 2d 72 bd 89 27 cd 3e 4d 9c 19 be
       0.42116073 -0.05912583 0.40069225 -0.1500103
0002a0 c7 d9 fa bd de 94 ac be e3 f5 9d 3d dd 0f 59 bc
       -0.12248569 -0.33707327 0.07712915 -0.013248411
0002b0 a6 8a ee 3b 06 6f a6 3e 0f c5 35 be 74 75 76 3d
       0.007279712 0.3250658 -0.17750953 0.060170606
0002c0 a5 e1 83 be 08 08 4f be c9 e8 91 3e 22 a0 d7 be
       -0.2575809 -0.20217907 0.28497913 -0.4211436
0002d0 81 57 96 be ba 2b e9 be 2e fd 11 be 21 6d 09 3e
       -0.29363635 -0.45541173 -0.14256737 0.13420536
0002e0 d4 b9 05 3e cc 73 c3 3e da 4e e9 be e6 45 e0 bd
       0.13059169 0.38174284 -0.4556797 -0.10950832
0002f0 9e 44 5f be 9a 63 e7 3d 9c 48 13 3e d5 4b 43 3d
       -0.21803519 0.11298294 0.14383167 0.04767974
000300 36 da 86 3b f6 fb ca 3d 84 e5 9a be 56 92 3e be
       0.0041153682 0.09911339 -0.30253232 -0.1861051
000310 27 b6 0f bf b8 be cf be 2f 67 6c bd c5 47 98 3e
       -0.5613732 -0.40575194 -0.05771559 0.29742256
000320 1b 4b 33 3e 71 97 83 be 2d 70 08 bf 93 76 18 be
       0.17509119 -0.25701478 -0.53296167 -0.14888982
000330 5f 91 ec be 5f 6c ad 3e 81 0a 77 be a6 22 c3 bd
       -0.4620466 0.33871743 -0.241251 -0.09528093
000340 b1 bc 4e bd d3 6d 60 3c a1 d9 a5 be 12 33 0f bf
       -0.05047292 0.013698059 -0.323926 -0.559373
000350 c5 42 a1 3d 04 69 13 3e 10 0d 83 be cb ab d1 bd
       0.078740634 0.14395529 -0.25595903 -0.10237845
000360 64 29 c2 3e 47 e9 96 3d 52 8b 1e 3e bc 60 34 3e
       0.37922204 0.07368713 0.15482834 0.17615026
000370 41 be 45 3e 3e 80 df bd 38 8e 4a be dd b8 72 3d
       0.19310857 -0.10913132 -0.19780815 0.05925833
000380 2f 66 1f 3e 64 dd 28 bd 69 56 03 bf 33 e2 06 3d
       0.15566324 -0.04122676 -0.51303726 0.032930564
000390 51 34 7b 3e db 6a 55 be b9 a9 64 3e 2f 24 fe 3d
       0.24531676 -0.20841543 0.22330369 0.12409245
0003a0 9f c4 9c be b6 af 51 3e 26 88 89 be 57 b9 a1 3e
       -0.3061876 0.20477185 -0.26861686 0.31586716
0003b0 97 dc 5c 3e 41 0d b2 3e 1b e2 8f 3d ec 51 9d 3e
       0.21568523 0.34775737 0.07025548 0.30726564
0003c0 03 ee 6d 3d 49 de b8 3c f6 c2 92 3c 5b 5b 90 3e
       0.058088314 0.022566931 0.01791523 0.281947
0003d0 d0 66 16 3d 3f db e8 3d 3f 91 02 bf ca fd 96 be
       0.036719143 0.11369943 -0.5100288 -0.294905
0003e0 6a fb 81 3e 20 65 64 be d4 c8 30 3e 79 86 6b 3e
       0.25387126 -0.22304201 0.1726411 0.23000516
0003f0 a7 df 81 be f7 3c 79 be d5 f0 10 3e cd e9 6d bb
       -0.25365946 -0.24339662 0.1415437 -0.0036302686

net.2.weight f4 [256, 256]
000000 44 68 32 bd 94 81 af 3a 4d 09 33 be a2 94 e2 3c
       -0.043556467 0.0013390058 -0.17484017 0.027658764
000010 5d 5a f7 bc d9 9e 48 bc 61 1e ae 3a 5e 73 57 3b
       -0.030194456 -0.0122449035 0.00132842 0.003287516
000020 a0 6c 4a 3e d0 44 ef 3d f6 fe 66 bd af 2b 48 bd
       0.19768 0.11683047 -0.056395493 -0.048869785
000030 85 81 9a 3c bb ae a3 3d 96 b5 2c bb 64 d6 b0 3d
       0.018860588 0.079923116 -0.002635335 0.08634642
000040 62 c3 73 3d f0 6c 7c 3d a4 b6 3b 3d ea 12 87 b9
       0.059512503 0.06162733 0.045828477 -0.000257633
000050 19 1f b3 bd 70 6c 3d 3c 46 e7 61 3e c8 d6 c9 bc
       -0.08746166 0.011561498 0.2206088 -0.024638548
000060 89 d8 1f 3c b0 ac a8 bc 16 e5 03 3d d4 ba 25 bd
       0.009756216 -0.020590156 0.032200895 -0.040461376
000070 28 f9 7d bc a6 5c 3c 3d 72 d2 77 3d 81 6a 61 3d
       -0.015501298 0.045986794 0.06050343 0.05503321
000080 a8 4b 6d bc 1c 9d 09 3d 47 48 00 bd 24 fb 44 3d
       -0.01448337 0.033597097 -0.03131893 0.04809107
000090 b4 97 32 3d 36 c5 00 3e e1 18 ee bc de 22 ee 3c
       0.043601707 0.1257523 -0.029064598 0.02906936
0000a0 84 a3 80 3d ef c8 f6 bc f4 b7 c4 3b dc 72 45 bd
       0.06281188 -0.03012511 0.0060033742 -0.04820524
0000b0 e4 89 94 3c 49 87 8b bd 73 e8 4b 3d 0a 3e c4 3c
       0.018132158 -0.06812913 0.049782228 0.023955364
0000c0 29 69 3e 3d 3f 92 1a 3b 09 22 25 3d 5e 58 4e bc
       0.046487007 0.0023585705 0.04031566 -0.012594311
0000d0 16 39 7d 3d 87 9f d3 bb 00 24 f5 bc b2 f4 27 bd
       0.06182202 -0.006458226 -0.029924393 -0.041004844
0000e0 64 44 a4 bc 8f bf 0b be 48 72 3f 3d f0 c1 1f 3d
       -0.020052142 -0.13647293 0.046739846 0.039003313
0000f0 88 16 31 be 04 b7 ab bb 22 32 34 3d 90 6c cc 3c
       -0.17293751 -0.005240323 0.043993123 0.02495411
000100 c0 dd 7d bd 4a 06 55 be 81 c0 d6 bb 1c 90 91 3c
       -0.061979055 -0.2080318 -0.00655371 0.017768912
000110 8c 52 59 be cb 1f 3e 3d 78 21 10 be fb a7 80 3d
       -0.21222895 0.04641704 -0.14075267 0.0628204
000120 7d e8 3f 3d 02 16 f6 bc 6b d9 ad bd b0 2e e5 bd
       0.046852577 -0.030039791 -0.08488735 -0.111905456
000130 e0 97 84 bb a5 fc cb bc 37 d5 a4 3c 7a 0e 78 bd
       -0.004046425 -0.024900744 0.0201212 -0.06056068
000140 d6 59 05 3c 34 df 45 bd f6 0e 1d 3d 37 d4 b9 3c
       0.008139094 -0.048308566 0.038344346 0.0226842
000150 d6 54 46 bb c1 5f 9a bd d5 33 de 3c 25 e9 e7 bb
       -0.0030262969 -0.07537795 0.027124325 -0.0070773535
000160 e4 3b bc bc 89 07 1e bc 64 8d 67 3c d8 e7 db bc
       -0.022977777 -0.009645351 0.014132831 -0.02684395
000170 49 7e 33 3d c7 3d 77 bd 25 53 3e bd 12 00 7d bd
       0.043821607 -0.06036165 -0.04646601 -0.061767645
000180 55 a0 97 3c 66 75 05 be 7e ba a7 3c bb 9d 03 be
       0.01850907 -0.13033065 0.020474669 -0.12853138
000190 ec 60 f1 3c a3 76 49 3d f9 22 44 bc e5 5e 29 3d
       0.029465161 0.049185406 -0.011971229 0.041350264
0001a0 53 ea 4e bd 4a dd 36 3d 39 3b 46 bc 38 12 43 ba
       -0.050516438 0.04464463 -0.012099081 -0.00074413745
0001b0 97 da fe bc a0 06 87 3b 68 2a af 3c 48 ba 86 3c
       -0.031110091 0.004120663 0.021382526 0.016446248
0001c0 68 b0 70 3d 88 88 95 be 48 fd ec 3c 02 99 24 be
       0.058761984 -0.29205728 0.028929368 -0.16073993
0001d0 cc 1b 26 be 00 e1 4d bd a7 06 4f 3b 74 90 1e 3d
       -0.16221541 -0.050263405 0.0031589658 0.03871198
0001e0 5b 9f 05 bb 09 70 d5 bd 74 19 7c bc 1b c3 64 bd
       -0.0020389173 -0.1042176 -0.015386928 -0.05585013
0001f0 ef 33 54 bd cd 4d c5 bd 3d 2e 8e bd 00 79 b9 bd
       -0.05180734 -0.0963398 -0.06942413 -0.09056282
000200 fa b4 7f bd 7e 5a 80 bd a0 7f 51 bd 70 a7 82 bc
       -0.062428452 -0.0626726 -0.051147103 -0.015948981
000210 62 de 68 3d 84 b9 ae 3c b2 89 c0 3d c5 ad ec bb
       0.056852706 0.021328695 0.09401263 -0.0072228634
000220 6b 8d 94 3d 3b ff 9a bc 3c 82 cf bb ce 6c ae bd
       0.07253536 -0.018920531 -0.006332664 -0.085168466
000230 70 65 f6 3c 9d 12 21 bd 1b c6 97 bd d5 af 0d 3c
       0.030077666 -0.03932439 -0.074108325 0.008647879
000240 d4 5e 50 bd 95 7e 29 bb 17 c4 3d 3d 46 13 43 bd
       -0.050871685 -0.0025862802 0.046329584 -0.047625802
000250 d8 f9 90 3c 67 65 7b bc 2b d4 eb 3b bc c7 e2 3c
       0.01769726 -0.015344 0.0071969233 0.027683131
000260 5a 08 b7 bd e7 7c 29 bd ef 31 b0 bd ee 4a fa 3c
       -0.0893714 -0.04137888 -0.08603274 0.030553307
000270 80 96 00 bb bf ca 06 be 9a 5b 8a bd 9f dc c8 bc
       -0.0019620955 -0.13163279 -0.06755753 -0.024519263
000280 e4 e7 f2 bd a0 d9 7c bd 8a f8 a9 bd b3 66 ff bc
       -0.11860636 -0.06173098 -0.08299358 -0.0311769
000290 53 c8 1c bd 7b 7b 81 bd c6 d2 41 be 48 56 bb bc
       -0.03827698 -0.0632238 -0.1892806 -0.02286829
0002a0 21 dc bc 3c 9b 2e 44 3d fa 16 11 bd 41 60 1c be
       0.023054184 0.04789601 -0.035422303 -0.15271093
0002b0 2e 3b 3e 3d ff 75 e8 39 47 df 1e 3d 8f 31 4d bd
       0.046443157 0.00044338402 0.038787153 -0.05009609
0002c0 2d 6f 7d be b9 30 2b bc 17 5a c5 bb 34 d3 7c bd
       -0.24749441 -0.010448628 -0.0060227024 -0.061724856
0002d0 84 1f d7 3c 45 15 4c bc 43 5f 28 be 11 e2 4f 3c
       0.026260145 -0.012456243 -0.1644259 0.012688176
0002e0 e0 25 2f 3c ec 14 9c 3c 5c 6a 40 bd 20 c8 0b bd
       0.010690182 0.019052945 -0.046976432 -0.0341264
0002f0 19 61 d1 bc d7 bc 78 3d 80 6b 86 be 74 b1 ee 3b
       -0.025558995 0.060726967 -0.2625389 0.0072843377
000300 f6 0d 21 be 85 7a a3 bc 46 56 7d 3d 0a 19 4a bc
       -0.15727982 -0.019955883 0.061849855 -0.012335071
000310 f0 db ac bb f5 67 23 be 61 7f 27 3d a0 35 0f 3c
       -0.005275242 -0.15957625 0.040892962 0.008740813
000320 9d ca ea bb 48 fc f1 bc 10 ee 8d 3c 0a af d0 3c
       -0.0071652667 -0.029539242 0.017325431 0.02547409
000330 1b 6f 53 3d da 2c f5 bc 13 e0 bc bd c6 37 42 3d
       0.05161963 -0.029928613 -0.09222426 0.04741647
000340 26 c0 98 bd ce 5b c0 bd 1b fb 23 3d 02 42 50 3d
       -0.074585244 -0.0939251 0.040034395 0.0508442
000350 4d cc 4e 3b b4 e9 fa 3c 38 2e 7e bd 3c d6 d6 bc
       0.0031554878 0.030629016 -0.062055796 -0.026225202
000360 81 2a 8c 3d d7 cb de bd 0f a6 37 bd d2 de 08 3d
       0.068440445 -0.10878723 -0.0448361 0.033415623
000370 b6 18 87 bd ad 2d 67 3c ef b7 7b 3c 44 6b c3 bc
       -0.0659651 0.014110011 0.015363677 -0.02385486
000380 78 58 55 3c 9c d6 32 bd 56 2f 0a bd 38 9e 98 bc
       0.013021581 -0.0436617 -0.03373655 -0.018630132
000390 06 f3 f3 3b ab 8a 05 bd d4 25 99 3d 1a a6 ad bc
       0.007444742 -0.032602947 0.07477918 -0.021197367
0003a0 bb 79 4d 3c fe 02 57 bd 2b 6c a7 3c fe 49 79 bc
       0.01254123 -0.052493088 0.02043732 -0.015215395
0003b0 63 e9 5b 3b d8 3a c1 3d 1b 75 62 3c 1a 8d 40 bd
       0.0033555857 0.09435052 0.013821865 -0.047009565
0003c0 43 ac cc 3a 23 67 2d 3c 07 3c 69 bd 1a 8a 72 3c
       0.0015615303 0.010583672 -0.056942012 0.014803434
0003d0 03 20 3b bd fd 69 49 bd 13 8b 6c bb 99 0f 69 bd
       -0.045684826 -0.049173344 -0.0036093637 -0.05689964
0003e0 27 3c 32 3d d8 e3 cb 3c 20 e6 29 bc 11 26 40 bd
       0.043514397 0.024888918 -0.0103698075 -0.046911303
0003f0 c4 64 af 3c 23 a6 d5 3c 5c 90 5f bc 85 a4 34 3c
       0.021410353 0.026080197 -0.013645258 0.011025553

net.2.bias f4 [256]
000000 8c 89 97 bc 67 67 0d bd e8 20 72 bd 31 09 46 bd
       -0.018498205 -0.03452244 -0.059113413 -0.04834861
000010 cd 45 7d 3c 90 bc a8 3c 04 70 a5 bb 97 74 9f bc
       0.015458536 0.020597726 -0.0050487537 -0.019464774
000020 9a f3 6a bd ee 9c af 3c 67 a3 48 3c 36 5f a1 bc
       -0.057361223 0.021437135 0.012245989 -0.01969872
000030 58 b8 a6 bc 3e e1 be bc eb 0d 8b bd c0 33 81 3c
       -0.020351574 -0.023300763 -0.06789764 0.015771747
000040 2f 34 fc bc 8d bd 57 3c 78 b2 0c bd 30 c4 c9 3c
       -0.030786602 0.013167751 -0.03434989 0.024629682
000050 16 a3 c8 bc 3e d6 f9 bc c2 06 3c bc 13 08 1b bd
       -0.024491828 -0.030497666 -0.011476221 -0.037849497
000060 71 69 8f bd ee 06 25 3c ac bd 75 bd 99 70 84 bc
       -0.07002533 0.010072453 -0.05999534 -0.016166972
000070 65 3f 88 bb 6d 62 15 3d a9 dd c8 bd 91 a9 86 bd
       -0.004157948 0.03647082 -0.09807903 -0.06575311
000080 ae 08 52 bd 40 d4 07 3d 13 13 3a bd db b3 a6 bd
       -0.05127781 0.0331614 -0.045428347 -0.081397735
000090 8a f0 b5 bd 5a 9b 3c 3c 8d 00 4b bd f1 31 a3 3b
       -0.0888377 0.011511648 -0.049561072 0.0049803187
0000a0 a6 a1 71 bd 27 c7 08 bd 4d e4 ad 3c a8 72 37 3b
       -0.05899205 -0.03339305 0.021227026 0.0027991924
0000b0 62 01 72 3c f8 29 15 3d 57 cd 70 bd 47 ef f3 3b
       0.0147708375 0.036416978 -0.058789577 0.0074442956
0000c0 e2 17 a1 bc 5c 89 44 3c eb a7 c7 bc a8 86 27 bd
       -0.019664709 0.01199564 -0.024372062 -0.040899903
0000d0 2b 7d 86 bd 53 1f aa 3a 2a ed fa bc 44 b3 c3 bc
       -0.06566843 0.0012979306 -0.030630667 -0.023889191
0000e0 8d 36 81 bc 04 d2 2d bd 3f a1 f0 bc 5f e8 80 bd
       -0.015773082 -0.042436615 -0.029373763 -0.06294321
0000f0 0b 96 ca 3d b3 51 fa bb 44 6d 31 bd a4 e1 90 bd
       0.098919 -0.007639134 -0.043317094 -0.070742875
000100 05 89 93 bd d7 d8 50 bc 71 5c 95 bd 5f d4 28 bd
       -0.07203869 -0.012747011 -0.072930224 -0.041218158
000110 5e 92 2c 3c 37 eb 0a ba 01 30 83 bd 7d 38 8f 3d
       0.0105329435 -0.0005299332 -0.064056404 0.06993196
000120 36 0a 9a bd da 91 05 bd 27 b9 a8 bc bd 16 8e 3c
       -0.07521479 -0.032609798 -0.0205961 0.017344827
000130 04 69 86 bd ff df b3 3c 16 35 ce bc 23 91 1d 3b
       -0.06562999 0.021957396 -0.025171798 0.0024042807
000140 72 f2 82 bd f2 2c 3f 3d ea 9d 10 bd d2 f9 1f 3e
       -0.06393899 0.046673723 -0.03530685 0.15622643
000150 2f ab 8c bd 05 73 5d bc 45 98 46 3d 33 53 8a 3c
       -0.06868588 -0.013516192 0.04848506 0.016885376
000160 3c f6 00 bc 20 2d 5f bd cf fd 08 bd 39 49 bd 3b
       -0.007871207 -0.054486394 -0.033445176 0.005776551
000170 d5 20 ce bc 34 67 23 bc 29 bc 93 3c 10 ec f5 bb
       -0.02516214 -0.009973336 0.018034058 -0.0075049475
000180 50 98 66 bd 61 6a c7 3c 99 ae e2 bb 0e e5 8a bc
       -0.0562976 0.024342718 -0.0069177863 -0.016954925
000190 7f 4c 2e bd c8 df 24 3d 09 99 6d bd ce a3 0b bc
       -0.04255342 0.040252477 -0.058007274 -0.008522941
0001a0 6e 0d 9d bd 00 3e 3d bd 2f 95 54 bd 17 45 e8 bd
       -0.07668577 -0.046201706 -0.051900085 -0.11341303
0001b0 8e 38 82 3c e6 39 7c bd ef f3 e0 3c 50 e0 99 bd
       0.015896108 -0.061578654 0.027460067 -0.07513487
0001c0 ad 4a 10 3d f0 d2 fa bc a6 a2 24 bd e8 5e 87 bd
       0.035227466 -0.030618161 -0.040194176 -0.06609899
0001d0 73 1b 8e bb 09 af 29 3a 12 46 64 bb 63 a5 91 bd
       -0.0043367683 0.00064729206 -0.0034831804 -0.07111623
0001e0 3a bd b4 bb 38 0c 19 bd 8d 6a 09 bd 65 bf e7 bc
       -0.0055157216 -0.03736517 -0.03354888 -0.028289506
0001f0 3d 7e aa 3c 80 7b b1 bd 34 76 91 bd cb 60 05 bd
       0.020812148 -0.08666134 -0.071026236 -0.032563012
000200 55 6a f3 bc a9 8b 9a bd 18 e5 8f 3c b2 b4 af 3c
       -0.029713789 -0.07546169 0.017565295 0.021448467
000210 58 42 5a bd 23 3c 05 3a 5c b5 d7 38 b6 29 04 bd
       -0.053285927 0.00050825084 0.0001028578 -0.03226634
000220 7a 8d b7 3c d1 e1 5b bd de 5e 94 bd c1 c4 c9 3c
       0.022406328 -0.053682152 -0.07244657 0.024629952
000230 a8 74 bf bd 91 a0 9f bd d9 d4 9e bb aa f9 77 bd
       -0.09348422 -0.077942975 -0.0048471508 -0.060540833
000240 b8 2d 84 bc a8 a9 cc bb 92 2a 26 3d ae 06 3f bd
       -0.016135082 -0.0062458105 0.040567942 -0.04663723
000250 e4 7f ba 3b b2 e5 34 bd b6 ae a5 3c 73 cd c8 bc
       0.0056915153 -0.044164367 0.02022491 -0.024512028
000260 a4 fb ff bc ce c0 56 bd 56 8b 53 bd 43 27 8f bc
       -0.031247921 -0.052429967 -0.051646553 -0.017474776
000270 9b 1c 51 bb 53 7a b1 b8 13 eb 3e 3e 82 7d 26 3c
       -0.003190792 -8.462802e-05 0.18644361 0.010161759
000280 c0 6f 25 3d 93 23 74 bd 9c f1 d1 3c 40 2e 76 bc
       0.040389776 -0.05960424 0.025627904 -0.015025675
000290 5c 80 ab 3c 9c 99 89 3c ce 1b 40 bd 78 88 64 bd
       0.02093523 0.01679688 -0.046901517 -0.05579421
0002a0 6b 87 bb bd 4c 74 55 bd 2b df 83 bd 02 e9 82 bb
       -0.09156688 -0.052112862 -0.0643905 -0.003995062
0002b0 38 4d 9d bc 42 32 1e 3c d5 b6 72 bb 2c 3e 08 be
       -0.01920186 0.009655537 -0.0037035246 -0.13304967
0002c0 19 e2 1a bd fb 68 94 3c 05 9d 9b bd 79 e4 7c bd
       -0.03781328 0.018116465 -0.075983085 -0.061741326
0002d0 f1 ac 94 bc d8 34 9b 3d 4c fd 8c bc f8 ec ff bd
       -0.018148871 0.075784385 -0.017210625 -0.1249637
0002e0 5d 0b 09 bd 37 d8 9a bd 0c b6 88 bc e3 d0 44 3d
       -0.033458102 -0.07560771 -0.01668837 0.048050772
0002f0 06 f0 2b bc bc 5f cd bd d7 00 e9 3b b2 97 f4 bd
       -0.010494238 -0.100280255 0.007110696 -0.11942996
000300 a6 95 d1 ba dd 8d 8e bd a5 c9 e9 bc 9a 07 65 bc
       -0.0015990033 -0.06960652 -0.028538534 -0.013978863
000310 2a 27 a7 39 aa 35 e1 bb 02 f9 68 bd 51 b4 95 bd
       0.00031881902 -0.0068728523 -0.056878097 -0.07309783
000320 fb ef 89 bd 8c 9b 78 bd 38 75 29 bd 53 98 11 bc
       -0.06735226 -0.060695216 -0.041371554 -0.008886415
000330 3b 78 a3 bc 5c 05 7d bb d3 d5 34 3d 8a 0a 8d bd
       -0.019954791 -0.003860793 0.04414923 -0.06886776
000340 b1 d2 0b 3c f2 6d b5 bc 54 e8 97 bd f5 bd f9 3a
       0.008534119 -0.022147153 -0.0741736 0.0019053804
000350 87 d2 09 3d fb 2c c5 bc 26 5d 85 bd fd 90 0d bc
       0.03364804 -0.0240693 -0.06511907 -0.008640525
000360 af 34 d9 3c fb ae a8 bc ba 5d cc 3b 4c cf 65 bd
       0.02651438 -0.02059125 0.006236759 -0.056105897
000370 15 f6 be bd fb 41 50 bd d8 35 d2 3c f2 34 29 bd
       -0.0932428 -0.050844174 0.02566044 -0.04131026
000380 9f ff c1 bb 63 1f ec bd 00 37 90 ba fc bf ca b9
       -0.005920365 -0.11529424 -0.0011002719 -0.00038671482
000390 3d cb 87 bd 8a f6 26 bd d8 7a 1c bd 62 3a 96 bd
       -0.066305615 -0.04076246 -0.03820309 -0.073353544
0003a0 1b 79 33 bc 99 55 b0 bc ab 9e d5 bb ee 33 a4 bc
       -0.010954167 -0.021525191 -0.006519159 -0.020044293
0003b0 0b b2 e8 3c af 8c 85 bc 2b b6 10 3d ff d6 36 bd
       0.02840521 -0.016302435 0.03532998 -0.04463863
0003c0 15 dc 9f bd bd 87 13 3c e7 0d 59 3b 53 31 41 3c
       -0.07805649 0.0090045305 0.0033119859 0.011791545
0003d0 c3 a2 06 bb 3e cc 4a bd 9c 31 13 bd 5d 90 6e bd
       -0.002054379 -0.049511187 -0.035935983 -0.058243144
0003e0 e8 5d 15 bd 4b 0f 5c 3c fe 0a 87 bd dd 1e 0a bd
       -0.03646651 0.0134313805 -0.065938935 -0.03372084
0003f0 7d 31 c0 bb 3e 83 0c bc 12 47 45 bc 1f 57 aa bc
       -0.0058652745 -0.008576212 -0.01204087 -0.020793496

net.4.weight f4 [256, 256]
000000 6f d6 13 bd b7 0d b8 bc 90 89 cb bc 73 1d 90 bd
       -0.03609317 -0.022467477 -0.024845868 -0.07036867
000010 4e 4f d0 bd 00 4b 4b bb b2 08 96 3c 9e 42 42 bc
       -0.10171376 -0.0031020045 0.018314693 -0.011856703
000020 fe 16 f8 3d f6 86 ee 3c 78 37 2b bd dc 89 56 bd
       0.121137604 0.029117089 -0.041800946 -0.052377567
000030 f0 65 54 3c 30 97 cf bc 90 3d 40 bc f4 28 53 bc
       0.012963757 -0.025340647 -0.011733428 -0.012888182
000040 61 d1 e8 bc 35 f8 c0 bd 38 44 e6 3c 17 0c f7 bc
       -0.028420152 -0.09422342 0.028108701 -0.030157132
000050 75 70 e5 3c be db 00 3c 2d 61 8c 3d b3 67 26 3e
       0.028007725 0.007864891 0.06854472 0.16250496
000060 d4 e5 34 bd e7 49 49 3e 00 14 8c bd 93 09 47 bc
       -0.044164494 0.19657098 -0.06839752 -0.012148279
000070 2f 32 50 3d 5a 04 52 bd 32 31 2d 3b 7f fe 3c 3d
       0.05082911 -0.05127368 0.0026427028 0.046141144
000080 00 0a c0 b9 54 bf 8e bd c8 7f 24 bd 4d 0c 8b bd
       -0.00036628544 -0.06970087 -0.040160924 -0.067894556
000090 9f 91 c5 be ae 21 61 3c 88 11 24 3e 58 51 63 bc
       -0.38587663 0.01374094 0.16022313 -0.013874374
0000a0 68 f8 07 3d 05 89 10 bc 74 b6 88 3c f9 e2 6b 3d
       0.033195883 -0.0088217305 0.016688563 0.057589505
0000b0 be 5d 1e bc 33 55 1d 3b ff 31 8b bc 36 95 b4 bd
       -0.009665905 0.0024007082 -0.016991613 -0.08817522
0000c0 60 5e 42 3d 10 e3 ad 3c ff 0c 75 3e f6 f6 5b 3d
       0.047453284 0.021226436 0.23930739 0.053702317
0000d0 ac 31 a6 3e 07 f8 33 3e 35 ee b2 bc d2 5e 8d 3e
       0.32459772 0.17575084 -0.021842102 0.27611405
0000e0 24 a9 3f bd 48 79 c8 bd c1 64 8d 3e 70 5f 67 3c
       -0.046792164 -0.097887576 0.27615932 0.014121875
0000f0 de c7 8f bd bb 3b ff 3d 45 9d b7 3c 7a 1d 06 3e
       -0.070205435 0.124625646 0.02241386 0.13097182
000100 24 3f c0 bb ab 39 96 3d e6 f1 74 bd a6 9b 18 3d
       -0.005866902 0.07335218 -0.059801005 0.037257813
000110 5f 42 02 be 18 fb 27 ba 5d 4d 20 3e 26 07 9a be
       -0.12720631 -0.00064079603 0.15654512 -0.3008358
000120 e0 75 1d be 3f d7 b3 3c a2 16 60 3e 23 28 54 bd
       -0.15376997 0.021953223 0.21883634 -0.05179609
000130 7a b6 e9 3c 78 1c cd bc 1c 41 9e bc 52 41 bd bc
       0.028529394 -0.025037989 -0.019318156 -0.023102436
000140 c2 fc 59 bc 00 8f f9 ba 45 07 22 bd e6 2d 6c bd
       -0.013304891 -0.001903981 -0.039557714 -0.05766096
000150 52 4b ad 3c 49 f8 06 3d fa fa c4 3c 07 37 ce 3c
       0.02115408 0.032951627 0.024045456 0.025172723
000160 fb 38 f9 ba 34 11 1b bd f6 d8 3b 3e 1c 80 71 3c
       -0.0019014174 -0.037858203 0.18344483 0.014740016
000170 7f 70 d9 3c a8 e2 67 3d c7 58 90 bd b8 9e 4a bc
       0.0265429 0.05661264 -0.07048183 -0.012366943
000180 32 7a 38 3e e0 0e 7f 3c 8e a1 52 3d 28 84 05 3d
       0.18015364 0.015567511 0.0514236 0.032596737
000190 18 b4 e5 3d 9d c2 8a bc 5e a9 88 3d 60 bc f3 bd
       0.11215991 -0.016938502 0.06672929 -0.11901164
0001a0 08 cf 80 3d b3 20 b0 3d 98 97 64 be 67 00 65 3d
       0.06289488 0.08599987 -0.22323453 0.055908587
0001b0 76 e9 09 3d 68 08 10 bc 2f 3d c9 be af 94 8d 3e
       0.03366991 -0.008791067 -0.39304492 0.276525
0001c0 01 62 90 bc e4 f3 d3 3d 00 c2 31 bd 0c 64 81 be
       -0.017624857 0.10349253 -0.043397903 -0.25271642
0001d0 64 73 ec 3d 53 3d 93 bd f6 42 8a bd 29 bf aa 3d
       0.115454465 -0.07189431 -0.06751053 0.08337242
0001e0 eb f5 44 3c c4 88 a7 bc 7b af 7e bb 2e c6 51 bd
       0.012021522 -0.020450957 -0.0038861919 -0.05121439
0001f0 06 24 db bd 84 56 9d 3e f5 1b bf 3d bc 1f a5 3c
       -0.1070023 0.3073007 0.09331504 0.020156734
000200 89 34 8b 3d ba 51 c2 bd 04 3c ca 3d 95 6b f2 bc
       0.0679713 -0.09488244 0.09874728 -0.029592315
000210 b3 4d 55 3d 4c 69 80 bd e9 3e fe bc b9 c1 b4 bb
       0.052076053 -0.06270084 -0.031035857 -0.0055162576
000220 1a ad 04 3e e0 bf 9d bd 0b 70 c9 bc 33 a7 05 3e
       0.12956658 -0.07702613 -0.024589559 0.13052063
000230 5e d5 70 3d f5 38 83 bc a1 d2 b4 3c 80 1f ed 3c
       0.058797233 -0.01601837 0.022073092 0.028945684
000240 15 9f 80 3e 65 c5 ac bd 34 5b e8 bc 42 89 64 3d
       0.2512137 -0.084360875 -0.028363802 0.05579496
000250 da fb f3 bd 65 5b 83 bd 2c f7 3c bd 08 7d 89 3b
       -0.11913271 -0.064139165 -0.04613416 0.004195813
000260 2c 73 11 3b a1 53 d6 3d f2 ef 87 3d 02 45 25 3d
       0.0022193892 0.1046517 0.06637563 0.040349014
000270 05 ea ea bc ef 72 50 3d a0 60 d5 bb 05 20 63 bd
       -0.028676042 0.05089086 -0.0065117627 -0.055450458
000280 50 a5 0b 3e 0c 2a 30 3e a6 43 d6 bd fa a9 97 bd
       0.1363728 0.1720354 -0.10462122 -0.07405467
000290 ce 0d d2 bb ef 24 aa bd 12 f9 fe bc 4b 82 6c bc
       -0.006410337 -0.08307826 -0.031124625 -0.014435361
0002a0 e2 cd 0a bd 68 a1 c0 bd e4 2e 49 bd af d7 66 bd
       -0.03388775 -0.09405786 -0.049116984 -0.056358036
0002b0 d8 2b 53 3e 10 27 36 3e 11 2b 24 3c e4 cc 73 bd
       0.20622194 0.17788339 0.010020033 -0.05952157
0002c0 e4 e4 59 bd 8a 5e 5c 3d 7d e5 93 bd c2 a2 b0 bb
       -0.053196803 0.053801097 -0.07221506 -0.005390496
0002d0 1d ca d6 3c 45 90 f0 bd dd c1 1b 3e e3 af 46 3e
       0.026219422 -0.11746267 0.15210672 0.19403033
0002e0 3b 1a e4 bc 52 2e 81 3e 6e d7 26 3d 17 77 85 3e
       -0.027844539 0.25230652 0.040732794 0.2606742
0002f0 69 f5 07 bd b8 8a 25 bd 17 9d 16 bd 18 4b 08 be
       -0.033193026 -0.040415496 -0.036770906 -0.13309896
000300 f3 89 57 bd 30 f0 03 3e 2d f5 49 3e 60 6c 40 3c
       -0.052621793 0.12884593 0.19722433 0.011744589
000310 1b 92 df 3d b6 72 68 bd 04 f1 4b 3d 74 d7 d7 3d
       0.10916539 -0.056750022 0.049790397 0.10539141
000320 11 b8 d7 bc 87 4e 93 bd 02 63 45 3d 60 24 65 bb
       -0.026332887 -0.07192712 0.048190124 -0.0034964308
000330 77 45 5f 3e cd 03 88 3d c2 17 07 3d 15 cc d5 3c
       0.21803842 0.0664135 0.03298164 0.02609829
000340 5d e8 10 bc ad 94 3e 3d 34 3c b1 3d 12 e1 a7 3b
       -0.008844462 0.046528507 0.08654061 0.005123266
000350 2d 54 8c 3e 95 fe ad 3d 5e ea de bc f5 69 59 bd
       0.2740797 0.08495823 -0.027211364 -0.053079564
000360 b7 ce 65 bd 6b 1d f8 3c 36 1e be bd b8 55 14 3e
       -0.05610534 0.030287465 -0.09283106 0.14485824
000370 c5 29 0b be 8a 4e 86 3d c0 c6 33 bb 96 e1 98 3a
       -0.13590153 0.06557949 -0.0027431697 0.001166391
000380 24 dc 88 3e dd 42 8e 3e 40 dd 14 bc 73 ae 4b 3c
       0.26730454 0.27785388 -0.009085953 0.012431729
000390 6b ef bb 3e 40 5f d4 3a 1b 83 40 3e f6 57 a3 bd
       0.367061 0.0016202703 0.18800013 -0.079757616
0003a0 ee e5 a1 bd 38 4a e3 3d 79 53 fb be a3 a9 b2 bd
       -0.07905184 0.110981405 -0.49087122 -0.08723762
0003b0 16 b4 08 bd e2 ac 1b be 39 aa b5 3b c5 01 c0 bc
       -0.03337487 -0.15202668 0.0055439738 -0.023438344
0003c0 fc a1 da be c8 1d ee 3c 16 0d 7e 3c 81 a0 97 bc
       -0.4270171 0.029066935 0.01550605 -0.018509151
0003d0 45 34 89 bd 3b 94 0c 3d d0 f5 09 3d d8 50 44 3c
       -0.06699423 0.03432105 0.03368169 0.011982165
0003e0 50 cc ca bc f2 f8 84 3b 4f c2 63 3c f0 6f 97 bc
       -0.024755627 0.004057997 0.013901307 -0.018485993
0003f0 da b6 71 3d 59 a7 af 3c b4 6a 17 3d c8 f9 29 3e
       0.05901227 0.021442102 0.036966994 0.1659919

net.4.bias f4 [256]
000000 fa cd e7 bc 9d d4 22 3c d1 83 f0 bd f9 36 27 bd
       -0.02829646 0.009938386 -0.11743892 -0.04082391
000010 f9 ad 44 3e d3 ac 9e bd b9 29 d4 bd 17 1a f6 bd
       0.1920699 -0.07747807 -0.103595205 -0.12016695
000020 8f 5e d5 3d 9f 4a 15 bb df 05 cc bd 07 7c 45 bd
       0.10418426 -0.0022780073 -0.09962057 -0.048213985
000030 ca 45 8f 3b c0 f9 e6 bc 45 1b 44 3e 4a 94 4f 3e
       0.004372333 -0.028195262 0.19151028 0.20271412
000040 a1 13 48 bd eb 1a 05 3e 16 f2 2a 3d ad 19 b6 bd
       -0.048846845 0.1299855 0.041734777 -0.08891616
000050 96 b5 1f bc 4f fd 86 bc 19 44 5c bd 48 72 cb bd
       -0.009747883 -0.016478209 -0.05377588 -0.09933907
000060 2e 14 e1 bc ad 92 6d bd a5 02 45 3c ab 2e 64 3d
       -0.027475443 -0.05800121 0.012024556 0.05570857
000070 24 c2 a9 bc ee b9 c5 bd a5 73 f8 bd de c8 c2 bb
       -0.020722456 -0.09654604 -0.121314324 -0.0059443554
000080 35 07 86 3d fa f3 3f bd 4d 9b c4 bb 3f 16 cb bd
       0.065443434 -0.046863534 -0.0059999586 -0.099163525
000090 2a 07 b3 bd ed 4f 2e bd 53 0b 09 bb 71 e5 cc 3c
       -0.08741601 -0.042556692 -0.002091129 0.02501175
0000a0 0f 3d bc bd 39 2b 81 bd 97 80 63 bd 17 41 16 3c
       -0.091913335 -0.06307072 -0.055542555 0.009170792
0000b0 96 bc c4 3d 44 6d 43 bd 44 9c d4 bd e7 62 4f bd
       0.096062824 -0.047711626 -0.10381368 -0.05063143
0000c0 1a 25 f9 bc 2b 5a ce 3d 0e a5 56 bc 77 f1 52 bd
       -0.0304132 0.10075792 -0.013100876 -0.05149981
0000d0 ec b8 80 3d 01 37 6a bd 89 2f 9d bd 75 4d a1 bc
       0.06285271 -0.057181362 -0.07675082 -0.019690255
0000e0 8a 0c 91 bd 8a 26 dd bd a7 30 8e bd e4 fe 46 bd
       -0.0708247 -0.10798366 -0.069428734 -0.048582926
0000f0 c7 70 7f bd 27 57 53 bd f5 a9 97 3e 4d c4 d6 bc
       -0.062363412 -0.051596787 0.29621854 -0.02621665
000100 3e a0 59 3d 36 b0 dc bd 4a a2 fe bd 69 8e 48 bd
       0.053131334 -0.10775797 -0.12433298 -0.048963938
000110 2d f8 86 bd 7f 14 e6 bc 0b 4b a3 bd 19 a9 9c bd
       -0.065903045 -0.028085945 -0.07973298 -0.0764944
000120 6f 42 37 3e 6f 10 32 bd 8f 48 a3 bd d9 f4 a2 bc
       0.17896436 -0.043472704 -0.07972824 -0.019892143
000130 4a 11 80 bd cc e4 d0 bc 22 9e 1c 3e dd f5 0a bd
       -0.062532976 -0.025499724 0.15294698 -0.03392588
000140 e6 38 e1 bd 7d 45 b1 bc ce 89 5d 3e f6 e0 c6 bd
       -0.10997181 -0.02163958 0.216346 -0.09710877
000150 00 b9 a9 3c 76 7d e4 bc e5 41 4e 3e c1 49 e1 3c
       0.020718098 -0.027891856 0.20142324 0.027500989
000160 e2 9f f2 3c 7b 27 c7 bd fd e9 fc bd 58 62 a8 bd
       0.029617254 -0.09724327 -0.12349317 -0.082218826
000170 ee 42 b8 bd fa df 48 bd 11 0c 45 3e 24 6b 85 bd
       -0.08997141 -0.049041726 0.19242884 -0.06514576
000180 16 06 32 bd 49 da 0d bc c3 fb ab bd 03 63 ec bc
       -0.043462835 -0.008658 -0.08397629 -0.028855806
000190 8c 6a 34 bd 9e 7a b7 bd 2d 25 c8 3d a2 26 2d 3b
       -0.044046924 -0.08958934 0.09772716 0.0026420732
0001a0 17 ec dc bb 3d 46 b6 bd c8 e5 76 3d a8 3b 1f be
       -0.0067420113 -0.08900116 0.06027773 -0.15550101
0001b0 9f 1e 17 3e f9 b3 80 bd bb 84 77 3d 91 c6 1c 3e
       0.14757775 -0.06284327 0.060429316 0.15310122
0001c0 f2 75 06 3e 38 41 fe 3d f7 cd 0f bc 13 6a 57 bd
       0.1313093 0.12414783 -0.008777133 -0.052591395
0001d0 b6 3d a8 bd 42 0f 47 3d 42 5c 67 bd 72 90 46 3e
       -0.082148954 0.048598535 -0.05648447 0.19391039
0001e0 c1 ee fe bd e6 b1 6a bd bb 12 d1 bc e9 f9 33 bd
       -0.124478824 -0.057298563 -0.025521627 -0.043939505
0001f0 c2 48 68 bd 75 bf 02 bd 63 b6 33 bd 6a 92 19 3d
       -0.056710012 -0.03192087 -0.04387511 0.037493147
000200 ea 33 aa bd 01 9a 8e bd 09 d4 97 3c 1e ed 7c bc
       -0.08310683 -0.06962968 0.018533723 -0.0154373925
000210 ab db 1a be ee fb b9 3c 5e c0 52 3e 19 14 07 3a
       -0.15122859 0.022703137 0.20581195 0.0005152836
000220 25 d0 30 bc 67 d5 4e 3d e5 9d cf bd 3b 8e 47 3b
       -0.010791813 0.050496485 -0.10137538 0.0030449766
000230 1b fd e1 3d 35 3e da bd 50 66 2b 3d 0d 00 2e be
       0.11034604 -0.10656396 0.04184562 -0.16992207
000240 5b d7 28 3d d2 d6 1b 3c c1 bc 1f bc 79 57 8c bd
       0.041221004 0.009511666 -0.009749592 -0.068526216
000250 e7 cf 6a bb 8f ff 99 bd 3c 74 aa bd 03 ff 70 bd
       -0.0035829486 -0.07519447 -0.08322951 -0.058836948
000260 29 98 f6 bd 21 28 69 bd 85 e6 e6 3c fd 5e c9 bd
       -0.12040741 -0.056923036 0.028186092 -0.09832571
000270 6b ce 65 bd e1 69 44 3e d5 88 93 bd ab 3c ab bd
       -0.05610506 0.19181015 -0.07203833 -0.08361181
000280 98 1f f1 bc c2 47 0d 3e cf 58 13 bc 9a f7 53 3e
       -0.02943401 0.13796905 -0.008993342 0.20699921
000290 28 7d 41 bd 96 60 4a bd b6 0d 3e 3e 27 e4 34 bd
       -0.0472385 -0.049408518 0.18559918 -0.044162896
0002a0 7c c7 4c bd dc 4c 23 bd 2f 04 18 be 30 ce a3 3d
       -0.04999493 -0.03986822 -0.14845346 0.079983115
0002b0 7c 24 fe bc d2 bd db bd ae 59 85 bd c5 73 34 bd
       -0.031023256 -0.10729565 -0.06511246 -0.04405572
0002c0 b9 50 c7 bc 30 2d 09 3d 68 6f 0a 3d da 66 62 3e
       -0.024330484 0.03349036 0.03379765 0.22109547
0002d0 69 05 7e 3d 21 74 b3 bd 2b 8e 37 3d bb 4d 37 bc
       0.06201688 -0.08762384 0.044813316 -0.011187966
0002e0 09 8d d5 3c e2 12 55 bd f5 96 43 bd 80 6b a7 bd
       0.026068227 -0.05201996 -0.047751386 -0.08174801
0002f0 2c 95 ae bc 9f f8 07 3d 2b d6 93 bd f5 13 a2 bd
       -0.021311365 0.033196088 -0.07218584 -0.07913963
000300 5b 09 6e bc 8d 51 02 be 5b 47 95 bd 89 40 95 bd
       -0.014528598 -0.12726422 -0.072890006 -0.072877
000310 e5 58 de 3c bc 43 82 3d ed cc af 3c 8c 43 8c bd
       0.027141998 0.063605756 0.02146002 -0.06848821
000320 c0 a4 aa 3c 22 58 70 bc ae 8e 8c bd c2 36 b8 3d
       0.020830512 -0.01466945 -0.068631515 0.08994819
000330 c3 02 5c bd d7 94 18 bd 70 d1 97 bd f4 0d 94 bd
       -0.05371357 -0.03725132 -0.07412994 -0.07229224
000340 30 37 89 3e 5b 8f 94 bd 04 1e f0 bc 88 64 43 bd
       0.26799917 -0.072539054 -0.029311188 -0.047703296
000350 08 d7 67 3e 3b c4 45 bd 03 d8 31 bd cb 64 0d bd
       0.22640622 -0.048282843 -0.043418895 -0.03451995
000360 c8 a6 23 bd 79 64 6e bd 3c 90 ce 3a ed 78 8b bd
       -0.039953977 -0.058201287 0.0015759538 -0.06810174
000370 ee 81 4f bd 07 fd ac bc bf 80 95 bd 33 9a 34 bd
       -0.05066102 -0.021116747 -0.07299947 -0.04409237
000380 bc 0b 5f bd 8f dc 9d bc a4 14 52 bd 24 aa 48 3d
       -0.05445455 -0.01927021 -0.051289216 0.048990384
000390 53 ac 30 bd 07 bb 0b bd 7f ee da 3d dd 74 c3 bc
       -0.04313309 -0.03411391 0.10690021 -0.023859436
0003a0 e6 0c a4 bc 2c 70 1d be c8 56 84 ba f1 9c c2 bd
       -0.020025682 -0.15374821 -0.0010096664 -0.095025904
0003b0 f5 40 7a bd f2 18 1f bd af 14 4c 3e 65 27 59 3e
       -0.061097104 -0.03884215 0.19929765 0.21206434
0003c0 e3 61 03 3d cf 73 64 bd fc da a6 bd 32 46 ce bd
       0.032075774 -0.055774506 -0.08147237 -0.100719824
0003d0 bf 84 8e bc 5c 9f 8a bb cd d0 2c bd e8 93 36 bc
       -0.017397283 -0.004230423 -0.042191315 -0.011143662
0003e0 85 ab db bc a9 92 d7 3d 39 ea 31 3e 2e a1 83 3d
       -0.026815185 0.1052602 0.17374505 0.06427227
0003f0 f1 92 09 bc 01 38 e9 bb e8 4d e5 bc c5 8d e3 bd
       -0.00839685 -0.007117272 -0.02799125 -0.11111025

net.6.weight f4 [7, 256]
000000 5b 7d c8 3e d4 4e f4 3c 5a 32 d6 3d 63 68 e4 3d
       0.3915814 0.029822744 0.104588225 0.11152723
000010 5a 62 ef 3d 79 1e e3 3d b8 ff 51 bd 04 e6 0a be
       0.11688681 0.110897966 -0.051269263 -0.13564306
000020 57 32 e2 3d 5a 07 28 3d fd 43 1f bd dd bc 94 bd
       0.11044758 0.041022636 -0.038883198 -0.07262585
000030 16 a3 a6 be bc dd 0e 3e 45 b1 39 3e 35 a6 26 3e
       -0.325463 0.13951772 0.18134029 0.1627434
000040 89 be 67 3e 9f 47 b4 3d 11 c1 b0 3d 4d a0 e8 bc
       0.22631277 0.08802723 0.086305745 -0.02839675
000050 2a 8c ee bc c4 a8 64 3e 2c b7 82 3c bb cb ac 3e
       -0.02911957 0.22330004 0.015956484 0.33749184
000060 74 85 3a 3d 27 f2 a9 3d 72 14 93 be 21 59 0a 3e
       0.045537427 0.0829814 -0.28726536 0.13510562
000070 25 84 3d 3f 0b 27 2a be 60 f7 2a bd 55 9f b3 3d
       0.7402976 -0.16616456 -0.04173982 0.087706245
000080 c8 7f 7e 3d dd 73 b8 bd 3b a1 4b 3e d4 2d 96 be
       0.06213358 -0.09006474 0.19885723 -0.2933184
000090 42 ec 9f be b1 8e 05 bb 6e d2 39 3e f1 58 14 3e
       -0.31234938 -0.002037924 0.18146679 0.14487053
0000a0 4a 14 21 bc c3 5b 02 bd dd 69 03 3c 97 2b ba bc
       -0.009831497 -0.031825792 0.008020845 -0.022725863
0000b0 b9 d1 cc 3d 7a c9 81 bb 0f ea 5e 3e 78 62 99 bc
       0.10000939 -0.0039607855 0.21768974 -0.018723711
0000c0 7c de 0c bd bd 90 f2 3d eb 8e fa 3d 44 ef 74 3d
       -0.034391865 0.11844013 0.12234291 0.059798494
0000d0 70 37 98 3c 07 91 c7 bc d9 17 3a 3e c3 ba 22 3d
       0.018581122 -0.024361147 0.1817316 0.03972889
0000e0 35 fa 04 3e 63 7f 66 3e 48 3d e5 3e ca f8 6f be
       0.12986071 0.22509532 0.44773316 -0.23434749
0000f0 7f 5c 3f bc f4 13 10 be f4 86 3c 3e 3c 64 64 3b
       -0.011679768 -0.14070112 0.18410856 0.0034849783
000100 bc be fc 3d 4d e3 9b 3e 59 c3 27 bd 45 b6 e2 be
       0.12341067 0.30446854 -0.040957782 -0.44279686
000110 90 2f 36 3e 75 11 ee 3b 3d fd 61 3c 06 f3 a8 bd
       0.17791581 0.0072652646 0.013793287 -0.08249478
000120 51 03 be 3d 05 46 2e ba e1 0d 19 be e4 f4 14 3e
       0.09277976 -0.0006648007 -0.149467 0.14546543
000130 af 8b ae bd f4 53 00 3e 3d bc bd 3d c5 cf 2e 3e
       -0.08522736 0.12532026 0.09264419 0.17071445
000140 36 b5 0c be be 08 43 be 87 5c 1c 3e 7c 51 92 bd
       -0.13741001 -0.19046304 0.15269671 -0.07144448
000150 f4 a8 be bc 7e 46 a1 3e 95 26 28 3e a9 86 0b 3e
       -0.023273923 0.31499094 0.16420968 0.13625588
000160 cb 5a 25 3d 57 b0 a9 bd 42 1e 50 3e f0 30 29 bd
       0.04036979 -0.08285587 0.20324042 -0.041306436
000170 2c f8 5d 3d 66 69 ff 3b 26 ea 0d 3e f0 2b d0 3b
       0.054191753 0.007794547 0.13858852 0.006352894
000180 bf 2b d3 3e e6 25 33 3e f9 da 15 bd 25 82 2b be
       0.41244313 0.17494926 -0.03658578 -0.16748865
000190 28 07 6b be b0 92 f2 bd 91 bb 2b be 2e 67 fb bd
       -0.22951949 -0.11844385 -0.1677077 -0.12275539
0001a0 33 f6 b1 3c af 08 44 3b ae d6 df bd b3 a1 69 3e
       0.021723842 0.0029912402 -0.10929619 0.2281559
0001b0 82 80 d3 3d e6 e9 dd bd dc 3f 8e 3d 19 ce 13 3e
       0.10327245 -0.10835628 0.06945774 0.14434089
0001c0 3c 6d 7f 3e 04 8a ab 3d 15 7c 18 bc 71 6b 90 bd
       0.24944013 0.08375934 -0.009306927 -0.07051743
0001d0 c8 01 39 3c db 97 fd 3d d5 56 6f bc 73 68 2e 3e
       0.011291929 0.1238248 -0.014608105 0.17032032
0001e0 1f a8 6b bd 73 93 0f 3e a8 c4 85 bd 27 26 74 bd
       -0.05753338 0.14021091 -0.0653165 -0.059606697
0001f0 b2 fe 4d bd ff f0 97 be fc 90 34 be ac 18 f7 bd
       -0.050291725 -0.29676053 -0.17633432 -0.12065253
000200 3a dc ae bd ac ba b7 bd f0 81 9e bc 05 58 3c be
       -0.08538099 -0.08971152 -0.019349068 -0.18392952
000210 e0 55 6d 3e b9 84 00 3d c0 9a 06 3e b4 92 17 3e
       0.2317729 0.031376574 0.1314497 0.14802057
000220 52 a9 c2 3d 96 2b d2 3d 52 49 5d bd 3c cc a7 bd
       0.095049515 0.102622196 -0.054025 -0.081932515
000230 3c 3b bf 3d d9 9f db bd 69 bd fb 3c 7f df 52 3d
       0.0933747 -0.10723848 0.030729966 0.051482674
000240 f3 e4 ef 3d 8b 1e 3c 3b 90 be 26 be ff 6c 6c bd
       0.117135905 0.0028704728 -0.16283631 -0.057721134
000250 d3 8f df bd ec 18 a9 3d c4 4c 77 be 62 71 2f bd
       -0.10916104 0.082567066 -0.24150378 -0.04283274
000260 6c 13 d2 bc a4 1d 10 bf cf 78 04 bc f9 52 85 bd
       -0.025644027 -0.5629523 -0.008085444 -0.065099664
000270 59 d6 47 3d 1e 69 c2 3d 6a bf dd 3d 55 b0 a4 bd
       0.048788402 0.09492706 0.10827525 -0.08041445
000280 9b 9e fb 3d 9e 8d 53 bf a0 0c 6e bc 6e 37 08 3e
       0.12286111 -0.82637966 -0.014529377 0.13302395
000290 82 9f 1b 3d 7c 1b 1e be db f3 4a 3e 24 92 c0 be
       0.037993915 -0.15440172 0.19819586 -0.37611496
0002a0 e2 7c d9 3d d6 ea 77 39 41 26 74 3d ec 15 60 3e
       0.10619523 0.00023643239 0.059606794 0.21883363
0002b0 cc 34 cf be f2 70 9b 3d ef dc 37 be 28 00 a5 be
       -0.40469968 0.07589902 -0.17955373 -0.32226682
0002c0 91 68 5b 3c 70 9b cf 3d e1 c9 df ba 1f 68 09 3e
       0.01339163 0.10137069 -0.0017073714 0.13418625
0002d0 3a 68 15 be f2 01 f9 bd 48 bb 84 3d fb 92 7c be
       -0.1459054 -0.12158574 0.064810336 -0.24665444
0002e0 71 09 da bd 2c 8a 95 bb d2 0a 62 ba 69 3c 68 3d
       -0.10646332 -0.0045635905 -0.0008622828 0.056698237
0002f0 ba 93 2f 3e a0 81 13 3e e5 20 f9 bc 2b a8 bc bd
       0.17146197 0.14404917 -0.030411193 -0.09211763
000300 22 d6 9f bb 23 2d d1 3c 8b b7 6e be 58 59 2f ba
       -0.0048778215 0.025534218 -0.23312204 -0.00066890335
000310 67 2f 13 be c8 eb c2 3d 1a ae 28 3e 22 ba 78 bd
       -0.14373551 0.09517628 0.16472664 -0.060724385
000320 a4 95 48 3e b9 02 1a be 7d a3 6b ba ba 25 0e 3d
       0.19588333 -0.15040101 -0.00089889 0.034703948
000330 5e ef 37 bd f5 37 43 bd 1d 74 9c bc 57 a4 4b 3d
       -0.044906013 -0.047660787 -0.019098336 0.049717274
000340 55 25 39 3e 48 ea 49 3d 5a 00 af bd b9 60 0c 3e
       0.18080647 0.049295694 -0.08544989 0.13708772
000350 28 67 4c 3e 79 bb 76 bc 79 ec 95 bc 36 42 e0 3d
       0.19961226 -0.015059345 -0.018301236 0.10950129
000360 83 2b f8 bd 65 6d 22 3d ae 25 e5 bc a8 62 0d 3d
       -0.12117674 0.039655108 -0.027972069 0.034517914
000370 99 94 30 bd 56 86 79 3e 76 7d a9 bc 9e 45 8b be
       -0.043110464 0.24367651 -0.020689707 -0.2720155
000380 35 5e 51 3d d2 bd 0c 3e 30 8d be be 18 29 1f bc
       0.051115233 0.13744286 -0.37217093 -0.009714387
000390 fe 21 e7 3d e6 55 f0 bc cb 9e a6 3e 7e 84 58 bd
       0.1128578 -0.029337835 0.32543024 -0.05286073
0003a0 44 ed 04 be 26 dc c3 bd 6d 6d 36 3d 57 2b c9 3e
       -0.12981135 -0.09563474 0.04453795 0.39290878
0003b0 f9 86 d5 3d 5b fe 73 be 9d 55 33 3e 96 82 24 3e
       0.104261346 -0.23827498 0.17513128 0.1606544
0003c0 03 12 9a 3b 2a 39 54 bd 21 35 1f bd ef f4 5c 3d
       0.004701854 -0.05181233 -0.038869027 0.053944524
0003d0 fc 15 0e bd 24 b8 a4 be b7 b4 18 3d 9a 0a 5f 3d
       -0.034688935 -0.32171738 0.037281718 0.05445347
0003e0 c3 e7 a3 bd 03 01 4d 3d f4 65 43 3e f0 61 e1 bd
       -0.080031894 0.050049793 0.19081861 -0.11005008
0003f0 80 74 8e be d6 06 21 3e 4a a3 d3 bd 55 44 03 bd
       -0.27823257 0.15725264 -0.10333879 -0.03204759

net.6.bias f4 [7]
000000 ce 08 21 3e 8c 7f 40 3e 7c f4 ee bd bc fa 03 be
       0.15726015 0.18798655 -0.116677254 -0.12888616
000010 78 5c ee 3d aa b4 4d 3e 79 8e 59 be
       0.11638731 0.20088449 -0.21245755
