best_generator.pth (torch, 543438 bytes, 6 tensors)

model.0.weight f4 [512, 3]
000000 53 df 0d be 84 74 6f 3e 44 ff 64 3e 12 ae d2 be
       -0.13854723 0.23384291 0.22363001 -0.4114843
000010 24 4e 27 be c0 62 de 3e 8e 71 b7 3e 59 83 00 3e
       -0.16338402 0.43434715 0.35828823 0.12550105
000020 a8 84 3c 3e 46 d9 d0 bd c3 e6 77 be 8d 09 97 3e
       0.1840998 -0.101976916 -0.24209122 0.29499474
000030 45 fb 46 be 44 13 e1 3d 45 2c ea be 9e df e6 be
       -0.19431789 0.10990003 -0.457369 -0.4509248
000040 23 6e 8b bd 73 f4 78 3e b9 c6 88 be 1e 9a c9 bd
       -0.06808116 0.24312 -0.26714113 -0.09843849
000050 4f 17 47 3e 33 27 d5 3d 67 f5 74 3e cb 85 f1 3e
       0.19442485 0.10407867 0.23921739 0.47172388
000060 a6 d6 cb bc df ba fd be c7 a9 ca be 0d 60 b2 be
       -0.024882626 -0.49556634 -0.39582655 -0.34838906
000070 81 a0 96 3d e3 a4 9b 3e d0 00 0c bf 24 a0 7d be
       0.073548324 0.30399236 -0.5468874 -0.2476812
000080 dc 0a 42 be ee 8c 0a bf d8 01 50 be 8b a5 6a 3e
       -0.18949455 -0.5412129 -0.20313203 0.22914712
000090 d9 b5 07 bf 3c 7e b4 3e 78 0b e6 bc 61 17 84 3e
       -0.5301185 0.3525256 -0.02808164 0.25799087
0000a0 69 f7 c6 3e 99 f3 a8 bd f6 f2 04 be 3d 14 df bd
       0.38860634 -0.082495876 -0.12983307 -0.10892532
0000b0 48 35 00 bf ee c0 89 3e 29 1a 6a 3e bb 48 97 be
       -0.500813 0.26905006 0.22861542 -0.29547676
0000c0 6d a9 1d 3e cd fe 18 bd 29 36 32 3d 3d 45 6c be
       0.15396662 -0.037352372 0.043508682 -0.23073287
0000d0 ee 3a 86 3e d6 cb fa be 9f 31 ea 3e 40 2b 1a be
       0.26216835 -0.4898364 0.45740983 -0.15055561
0000e0 14 11 e2 3e 86 15 d5 3e bd 3b af bc 09 22 9c 3e
       0.44153655 0.41617984 -0.02139079 0.30494717
0000f0 d7 7a d7 be 8c 4d 0f 3f 52 85 0f bf 4b e3 5f 3d
       -0.42085907 0.559777 -0.56062806 0.054660123
000100 a2 4e 06 be ab 59 be 3e 08 a7 77 3e 79 44 0e 3f
       -0.13115934 0.37177786 0.24184811 0.5557323
000110 4e 44 45 be 98 cb 9d bd b6 1c fd 3e 8b fc bd be
       -0.19264337 -0.07704848 0.49435967 -0.37106737
000120 b8 f8 b4 3e 92 a6 15 be ab 75 a8 3e 69 77 07 bf
       0.35346007 -0.14614323 0.32902274 -0.5291658
000130 81 4d 03 3f 96 93 00 3f 68 3b 06 bf 74 2c 16 be
       0.51290137 0.502252 -0.52434397 -0.14665395
000140 0f c5 8d 3e 62 34 ed be b2 61 2c bd e4 27 af be
       0.27689406 -0.46329027 -0.042085357 -0.34210122
000150 7b 6a 07 bf 10 a4 d3 bd 22 ad 9a bc 32 3c 6d bd
       -0.5289685 -0.10334027 -0.018881384 -0.057918735
000160 0d 7a d3 be e2 37 08 3f 12 d6 1f be 5b 08 79 be
       -0.41304055 0.5321027 -0.15609005 -0.24319594
000170 9a 83 f3 3d 63 2b 7e be 17 19 10 3e 22 75 40 bd
       0.118903354 -0.24821238 0.14072071 -0.046986707
000180 e3 62 79 bd d3 fa 03 bf 56 48 c5 be c7 5e cd 3e
       -0.06088532 -0.515546 -0.3853175 0.40111372
000190 2c 82 01 3f 41 8e ff be 4c cc de 3d 12 c7 79 3e
       0.5058925 -0.4991322 0.1087881 0.24392346
0001a0 72 9b 85 3d 5c 45 1f be ca 06 49 be de d5 0a be
       0.065237895 -0.15553802 -0.19631496 -0.13558146
0001b0 95 20 ad be 22 fc e4 3e 85 a4 c2 be a2 47 11 3e
       -0.3381392 0.44723612 -0.38016143 0.14187482
0001c0 57 dd 25 be ec 6d 20 bd f2 c3 7f be 7a 63 09 3f
       -0.16197716 -0.03916733 -0.24977091 0.53667414
0001d0 d5 ed 16 3e de 76 6d 3e f2 75 b4 be d3 60 ef bd
       0.14739163 0.23189875 -0.35246235 -0.1168839
0001e0 4b b7 a5 be 79 80 be be eb f0 12 bf 4c 68 cc 3e
       -0.32366404 -0.37207392 -0.5739886 0.39923322
0001f0 62 18 6b 3e 57 10 53 3e 22 55 13 bf 47 e4 2e 3d
       0.2295852 0.20611702 -0.5755178 0.04269817
000200 06 a5 b1 3e b5 e0 57 3e 95 cd 0a be 09 28 8d 3d
       0.34696215 0.21081813 -0.13554986 0.06892402
000210 1b 6d cf 3e 70 52 37 3e 8f f6 ec be cc 06 ac 3e
       0.40512928 0.17902541 -0.4628186 0.33598936
000220 47 80 f8 3d 52 bd dc 3e 0f e6 84 be 97 b2 dd 3e
       0.12133842 0.4311319 -0.2595677 0.43300316
000230 e6 61 6d be c9 9e eb bb 46 04 c6 3e d9 5e 83 3e
       -0.23181877 -0.0071905595 0.38675135 0.256583
000240 cb 41 0c bf fc 22 19 be 42 6e 34 3d b1 4c c3 3e
       -0.5478789 -0.14954752 0.044050463 0.38144448
000250 f3 35 7d 3e 21 61 fd 3e a4 02 22 3e 9d 55 1c be
       0.24727611 0.49488166 0.1582132 -0.15267034
000260 69 ce f0 be c3 5d da 3e 81 90 cd 3e d2 6b d7 be
       -0.47032478 0.4264966 0.4014931 -0.42074448
000270 c4 4f 00 3e 7a 01 14 be 0e 50 4d be 6b 49 eb be
       0.12530428 -0.14453688 -0.2005007 -0.4595445
000280 0e 59 fd be 7f 8c d1 3e 15 e0 03 bf 1c 6f dd 3c
       -0.49482006 0.40927503 -0.515138 0.02703052
000290 fd 09 99 be 43 b0 09 be ac b3 02 bf 73 a6 82 be
       -0.29890433 -0.13446145 -0.5105541 -0.25517616
0002a0 e3 f5 05 3e 17 f1 f3 3e 55 1e 00 3d 74 39 54 be
       0.1308208 0.47644874 0.031278927 -0.20725042
0002b0 ea af 35 be d3 63 d3 3e f6 00 0c 3e e9 9d bd 3e
       -0.17742887 0.41287097 0.13672242 0.37034538
0002c0 8c 67 e8 3e 63 62 80 bd 17 9a 27 3e f3 14 e8 be
       0.453915 -0.06268766 0.16367374 -0.45328483
0002d0 4b 09 f1 3e f2 09 05 bf 88 87 7a be 71 02 b8 bc
       0.47077402 -0.519683 -0.24465764 -0.022462102
0002e0 8d 0e 0d be a4 ef ce bd c6 2c 80 be 49 15 52 be
       -0.13775082 -0.101043016 -0.2503416 -0.20515932
0002f0 11 ed e8 3e 9a 3d 83 3e ac b0 9d 3a 3a 6d 13 bf
       0.45493367 0.25632936 0.0012030802 -0.5758854
000300 f3 bf 11 bf 38 29 ac be 0f 15 d6 be 16 c5 df 3e
       -0.56933516 -0.33625197 -0.4181294 0.43705052
000310 4d 45 d5 bd 15 34 70 3d 93 67 2a be 47 59 10 3f
       -0.10413609 0.05864342 -0.16641073 0.56386226
000320 be 86 a9 3e 06 f2 0c 3e 2c b3 f3 3e 87 6d 65 3d
       0.33110613 0.137642 0.47597635 0.056012657
000330 09 80 a9 3e 5b b8 73 bd f8 6c a8 3e 71 7a 08 bf
       0.33105496 -0.059501987 0.32895637 -0.5331183
000340 db 57 8a be f0 bf 20 bd a6 5c a6 be 97 c9 bc 3e
       -0.27020153 -0.039245546 -0.3249256 0.3687255
000350 d7 b0 50 3e 92 99 dd 3e ff 2d 92 bd 4a f2 15 bf
       0.20379959 0.43281227 -0.07137679 -0.5857283
000360 42 a0 3d 3e 97 f3 32 be a3 cc f2 3e 52 07 9e 3e
       0.18518165 -0.17475735 0.4742175 0.3086496
000370 04 73 8b 3d c3 3f 2c bd e6 5e 05 be 7d cc 8b 3e
       0.06809047 -0.042052995 -0.13024482 0.2730445
000380 a7 9c ef be c2 1f 9e bd 2c 0f e2 be 40 30 10 bf
       -0.46799204 -0.07720901 -0.441522 -0.56323624
000390 01 65 a7 3e d8 90 d7 3e dd 3b 11 bf ec a9 bd 3e
       0.32694247 0.42102695 -0.5673197 0.37043703
0003a0 22 43 ba bd db d3 8f 3e a1 fc 01 be d7 35 c1 3e
       -0.09094836 0.2809132 -0.12694027 0.3773639
0003b0 4a e4 05 bf 1b 06 11 be d6 e1 8a bd 9e d9 cb be
       -0.52301466 -0.14162485 -0.06781356 -0.39814466
0003c0 c3 7c 23 3e 9a 61 35 bd 53 43 3f 3e 83 f2 6c 3d
       0.15965562 -0.044282533 0.18678026 0.057848465
0003d0 ba f5 57 be a9 4a 8d 3e 2c 2c e9 be 24 ce 70 3d
       -0.21089831 0.27596024 -0.45541513 0.05879034
0003e0 16 33 fa be 3c af ea bd 59 96 9d be 5b c9 20 3e
       -0.488671 -0.114592046 -0.3077877 0.15701811
0003f0 c3 a3 87 3d 88 47 52 3e a8 6e 20 be ea e8 6d be
       0.06623032 0.205351 -0.15667212 -0.23233381

model.0.bias f4 [512]
000000 b2 cf 41 3e 3e 68 b5 3d df 2f 0c be 34 cf 98 3e
       0.18926886 0.08857773 -0.13690136 0.29845583
000010 58 13 e5 bc 21 14 f6 be e2 60 04 bd a2 e7 6a be
       -0.027963325 -0.48062232 -0.032318957 -0.22939923
000020 02 4f 17 3c 22 3c 02 3d 45 99 d7 3e 6c 62 f4 be
       0.0092351455 0.03179563 0.42109123 -0.4773134
000030 f6 17 aa 3d fc 43 81 be 67 bb 0d bf 0e 00 38 3d
       0.083053514 -0.2524718 -0.5536408 0.044921927
000040 72 37 cd 3e a0 d6 9e 3e d6 b6 c7 3d 6b 9f 08 be
       0.40081364 0.3102312 0.0975167 -0.13342063
000050 9b 6a 41 3e 15 55 b5 be c9 6c e5 be 79 25 d5 3e
       0.18888323 -0.35416475 -0.4480956 0.41630152
000060 f4 57 3d be e1 3e ce be 14 d2 9e be 02 62 1a be
       -0.18490583 -0.40282348 -0.31019652 -0.1507645
000070 b8 84 1a 3d 44 95 dc be e8 73 e0 3e 3d 9d 4f 3e
       0.037724227 -0.4308263 0.4383843 0.20274825
000080 88 bb e5 be 43 25 0f bf 50 9f a7 3e 86 ad 91 3d
       -0.44869637 -0.5591623 0.32738733 0.07113175
000090 fd fc 81 3d b8 28 ec bd a4 31 40 be 65 ad 72 be
       0.06347082 -0.11531204 -0.18768936 -0.23698957
0000a0 17 63 8b 3e a6 3e d7 be 0e 64 f3 3d 9e b0 a6 bd
       0.27224037 -0.42039984 0.11884318 -0.08139156
0000b0 05 5d 83 bd 9c a0 fc be ea c2 c8 3e b7 96 8e be
       -0.064142264 -0.49341285 0.39211208 -0.2784936
0000c0 83 29 95 3d a0 28 da bd 13 87 d8 be ca 13 21 3e
       0.07283308 -0.1065228 -0.42290553 0.15730205
0000d0 ae 6d 97 bd 63 bc 75 3e d8 43 be 3e 8d 50 58 bd
       -0.073939666 0.23997645 0.37161136 -0.052811194
0000e0 f6 15 89 be 7b a0 f6 be 18 fc 82 3e 05 7d 08 3d
       -0.26774567 -0.48169312 0.25582957 0.033322353
0000f0 ad 05 db be a9 7c 96 be a5 97 51 3e 5f 05 09 3e
       -0.42777768 -0.29391983 0.20468004 0.13380955
000100 36 95 b8 3e 02 de 33 3e 5a 0a 0d bf cc 86 c0 3e
       0.3605134 0.17565158 -0.5509392 0.37602842
000110 17 7a aa be 7a ed f8 be b9 e7 21 3e 97 a7 79 3c
       -0.33296272 -0.4861868 0.15811051 0.01523771
000120 fb 46 03 bf 8c ab b0 3e 85 66 35 3e e4 5d 31 be
       -0.5128018 0.3450588 0.1771489 -0.17320973
000130 82 98 15 be bc ce 6d be b9 da ad be 15 32 8e 3e
       -0.14608958 -0.23223394 -0.33955935 0.27772585
000140 c4 1c 77 3c 13 21 0a bf 4b e7 d6 be fd 6c 18 be
       0.015082542 -0.5395672 -0.41973338 -0.14885326
000150 aa 78 bc 3d a6 95 66 3e 90 d5 0c 3e 51 33 dd be
       0.09202702 0.22518024 0.13753343 -0.43203214
000160 ef e4 a9 be 95 be 96 3e 52 37 0b bf 9a 32 04 bf
       -0.33182475 0.29442278 -0.5438129 -0.5163971
000170 e9 eb 87 3d 78 d6 c1 be 75 c9 0f bf 1b 06 e3 be
       0.06636793 -0.3785894 -0.56166774 -0.44340596
000180 17 13 28 3e 3d 2f 10 bf f6 26 04 bf 4e 9d 8e be
       0.16413532 -0.5632208 -0.5162195 -0.2785439
000190 92 c9 f7 be 59 f3 43 be 45 cd 7d bc 23 20 fc 3e
       -0.48395973 -0.19135799 -0.015490835 0.49243268
0001a0 9a 0a 0c 3e a7 f3 b0 be 47 26 28 3d 0c ae a2 3d
       0.13675919 -0.34560892 0.04105213 0.07943353
0001b0 b6 fb 82 3e fd 4a 8f 3b dd 0b 5a be a0 93 dd 3e
       0.25582665 0.004372953 -0.21293588 0.4327669
0001c0 6c ee 82 be eb e4 ca 3e ca 08 36 be 9c 6c b8 3e
       -0.25572526 0.39627776 -0.1777679 0.36020362
0001d0 f6 7e ae be 9c 59 f7 3d ca f5 9c bc 2c 2b c7 3e
       -0.34081239 0.120776385 -0.01916017 0.38900125
0001e0 4f 07 d7 be 27 55 d8 3a 12 81 b7 be 18 5b a6 3e
       -0.41997764 0.001650487 -0.3584066 0.32491374
0001f0 33 26 6a be e5 62 bc 3d a5 68 aa be 4c 64 8a 3e
       -0.22866134 0.0919855 -0.33282962 0.27029645
000200 ac 2d 7f 3e c7 05 c4 be 45 52 e9 3e cb 50 7b 3e
       0.24919766 -0.38285658 0.4557058 0.24542539
000210 31 a6 04 3e 20 26 19 bd 73 92 a8 be 7c d4 85 3e
       0.12954022 -0.037389874 -0.32924232 0.26138675
000220 29 16 d0 3e ed 06 5a be a4 06 48 3e 21 6e be 3e
       0.40641907 -0.21291704 0.19533783 0.37193397
000230 8d ee 5b 3d 01 95 cf be 1b 1b 9c 3e a7 d3 d3 3e
       0.053694297 -0.40543368 0.3048943 0.41372415
000240 69 7b cf be a9 df d5 3e a8 04 31 3d a7 5b ee be
       -0.40523842 0.41772202 0.04321733 -0.465543
000250 a5 a5 69 bb ff ab 32 ba 8b 21 db 3d 1a 21 49 3e
       -0.003565171 -0.00068157905 0.10699757 0.19641533
000260 e6 2c 15 be a3 ac 05 bf 31 0c 44 bd c5 ac ce 3e
       -0.14567909 -0.5221655 -0.04786319 0.40366188
000270 38 0a 9d 3e 39 7f f1 3e 71 ca d9 be fe 47 b4 3e
       0.3067186 0.47167376 -0.42537263 0.35211176
000280 43 bf ed be ca d3 62 3c 82 5f 6c 3d a4 38 c0 3e
       -0.46434984 0.01384444 0.05770827 0.37543213
000290 20 a4 65 be 6f a9 00 bf c2 85 b4 3e c9 e1 c7 3d
       -0.2242589 -0.50258535 0.352583 0.09759862
0002a0 db 32 5a be 77 ea 06 bf fe c8 42 3e 6b 3d e7 be
       -0.21308462 -0.52701515 0.19021985 -0.45164046
0002b0 6f 6d d0 3d ec 86 57 bd a3 35 a4 3e 37 ad ac bd
       0.10177123 -0.052618906 0.32072172 -0.084314756
0002c0 9e 11 10 bf c5 07 59 be 10 42 13 be 5c f3 18 be
       -0.5627688 -0.2119437 -0.1438067 -0.14936584
0002d0 38 c1 0e bf 6f 08 d3 3b 20 25 cd 3e dc cf 63 3d
       -0.5576358 0.0064402143 0.40067387 0.055618152
0002e0 85 51 f0 bd cf 08 9a bd 27 94 29 3e f8 34 ed be
       -0.117342986 -0.07521211 0.16560422 -0.46329474
0002f0 91 00 ee bd c1 68 98 3e 7d 86 95 3e 8e a4 b0 3e
       -0.11621202 0.2976742 0.2920417 0.34500545
000300 d8 6d c0 be 1b 45 eb 3e d4 fd 86 3e 13 e4 c8 3e
       -0.37583804 0.4595116 0.2636553 0.39236507
000310 82 a0 52 be 80 c0 25 be d7 ee c0 3e 21 53 16 3e
       -0.20569041 -0.16186714 0.3768222 0.14680149
000320 ce 37 8d 3e db a3 90 bd f0 06 8c 3d 61 8e 55 be
       0.27581638 -0.07062503 0.06837261 -0.20855094
000330 6f ce 0c be 32 e9 80 be 96 0c 44 3e ae 4a 0c bd
       -0.13750623 -0.25177914 0.19145426 -0.034250908
000340 9e fe 81 3e 7d 2d 70 3e 71 f5 b8 be b4 72 0e bf
       0.2538957 0.23454852 -0.36124757 -0.55643773
000350 f8 36 91 be 31 f2 bd 3e bb 81 9c 3e 00 2a 9e 3e
       -0.2836225 0.3709884 0.30567726 0.30891418
000360 d5 fe 9c be 77 f5 e7 be b0 bd b0 be 13 ce 90 3e
       -0.3066317 -0.45304462 -0.3451972 0.28282222
000370 cc 02 fd be 8b 98 33 be db 2e f6 be 2d 62 3c be
       -0.49416196 -0.1753866 -0.48082623 -0.18396826
000380 05 a6 04 bf e8 be 65 be 6a 7d 7f be e5 c2 e2 3e
       -0.51815826 -0.22436106 -0.24950185 0.44289318
000390 01 57 b7 be 40 e6 12 bf 93 7f ca be b9 55 2d 3e
       -0.35808566 -0.57382584 -0.39550456 0.16927232
0003a0 2e af 5b be 1d e6 c4 be b5 37 13 bf 60 2a 8d 3e
       -0.21453544 -0.38456813 -0.5750688 0.27571392
0003b0 02 80 e1 be 05 6a 81 3e c7 fa 55 be b9 1f a8 be
       -0.44042975 0.252762 -0.20896445 -0.32836702
0003c0 5c 2e 4e be 96 b2 05 bf ad 75 6b 3b cc ca f4 be
       -0.20134872 -0.52225626 0.0035928295 -0.47810972
0003d0 28 f2 d9 be 06 ae 82 3e aa d6 ab bc 34 32 14 3e
       -0.42567563 0.25523394 -0.020976383 0.14472276
0003e0 9f 31 b9 be 2c 8e dc 3e d6 84 e1 3e f7 89 74 3e
       -0.3617067 0.4307722 0.44046658 0.23880754
0003f0 d6 d4 c0 bd 3b 06 1d 3e c1 25 5d be 01 f6 c9 bc
       -0.09415595 0.15334408 -0.21596433 -0.024653437

model.2.weight f4 [256, 512]
000000 a2 04 ac bc 89 51 ec bb 4a 62 f0 bc 80 83 a4 bb
       -0.020998303 -0.007211868 -0.029343743 -0.005020559
000010 ac ad c8 bc 7d c2 27 bd f0 a9 04 3d 35 89 fb 3a
       -0.024496876 -0.040956963 0.032388628 0.0019190671
000020 c5 a2 fa bc 94 be 0d 3d 87 94 cb bc f5 7c 2c bd
       -0.030595193 0.034605578 -0.024851097 -0.042111356
000030 3a d6 96 bc 67 6c 97 3c 18 38 0a bd af d3 2c 3c
       -0.018412698 0.018484307 -0.0337449 0.010548516
000040 99 e4 09 3d 4e 78 bd b9 e6 f7 76 3c 19 b9 65 3c
       0.033665273 -0.00036138523 0.015073752 0.0140211815
000050 bf 7b 13 3d f5 dd 50 bc 42 66 31 bd ae 0b 4a 3c
       0.036006685 -0.012748231 -0.04331041 0.012331886
000060 23 d4 aa bb 23 e0 8a 3c 8a 4e 7b 3c d2 8f 95 3c
       -0.005213277 0.01695258 0.015338549 0.018257055
000070 d1 f3 57 bc 4b 1e 5b 3c 45 1b 00 3d 22 34 ec 3c
       -0.013180689 0.013373922 0.031276006 0.028833453
000080 d2 27 93 3c af 76 1c bc e9 e5 d2 ba a9 05 fe 3c
       0.017963324 -0.009549781 -0.0016090247 0.031008558
000090 8f 29 86 3c e0 55 9c 3c 7a b8 ab 3c 72 a3 04 3c
       0.016377239 0.019083917 0.020961989 0.008095609
0000a0 75 e9 df bb 98 05 bc bc 16 b8 69 3c 00 ed fe 39
       -0.00683325 -0.022951886 0.014265081 0.00048623234
0000b0 61 32 b3 3b af db cf 3b e6 2e f6 bc fb ea 65 bc
       0.005468652 0.006343327 -0.03005166 -0.0140330745
0000c0 fc ea 86 3c 9e d2 58 bc 21 91 36 bc 16 f3 08 3d
       0.016469471 -0.013233809 -0.011143 0.03343495
0000d0 e3 04 29 bd a9 f4 19 bd 76 08 e6 bc 5c b4 e7 ba
       -0.041264426 -0.03758684 -0.028080206 -0.0017677653
0000e0 48 4b 8c 3b 7e 01 3b bc 37 9f 0d 3d a6 2b 12 3b
       0.004281435 -0.01141393 0.034575667 0.0022303849
0000f0 ba 38 21 3d 7d 3f 88 3c 25 42 aa 3c 96 29 ff bc
       0.03936074 0.016631836 0.020783493 -0.03114776
000100 ae 47 1d 3d 10 c4 c3 3c 05 53 e9 bc 16 34 2d bd
       0.038398437 0.0238972 -0.02848197 -0.042286
000110 97 67 90 3c fb 34 33 3d 3b 13 1b bd df 6a eb 3c
       0.01762752 0.043751698 -0.037860136 0.028737484
000120 9c f4 9d 3c e5 7d 00 bd a6 6a f4 bc 3c ae 1b bd
       0.019281678 -0.031370062 -0.02983601 -0.03800796
000130 e3 66 15 3d 54 9b d2 3c 70 26 11 bc 22 ef 1d 3c
       0.036475074 0.025708832 -0.008859262 0.009639533
000140 dc 7c 0a 3d 2d 6a 34 bd f0 ed 79 3c d8 18 9f bc
       0.03381048 -0.04404657 0.015254483 -0.019421026
000150 dd e2 42 3c fd 1c d4 3c 62 93 99 3b 8a f2 2e 3d
       0.011894909 0.025892729 0.004686759 0.042711772
000160 52 31 1c bd d6 1d bd 3c 1e 0a 3e bc 4f 67 cd bc
       -0.038132973 0.023085516 -0.011599092 -0.025073675
000170 d6 fc be 3b 56 ef 08 bd 90 ae e2 3c 34 d9 1e 3c
       0.0058284802 -0.033431374 0.027671129 0.00969534
000180 1b 1f 26 3b 60 9e 77 3c 5a c5 17 3d e9 1a cf 3b
       0.002534813 0.015113443 0.037053443 0.0063203466
000190 22 cb ed 3c 7b 79 d6 bc 7f 1b 4f bc bb cc 36 bd
       0.029027525 -0.026180973 -0.012640833 -0.04462884
0001a0 52 71 c0 3b 1b 27 1a 3d 17 8f bd 3c f4 ee fd bc
       0.005872884 0.03763495 0.02313952 -0.03099773
0001b0 4d 3d 11 bd b2 9b cf 3c 18 b0 c5 3c 48 89 49 3c
       -0.03545885 0.025342796 0.02413182 0.012300797
0001c0 eb 59 70 3c 21 58 31 bd a6 0d 7e bc 8a 03 df 3c
       0.014669876 -0.043296937 -0.015506184 0.027223367
0001d0 5e 0c 5c bc c5 f9 a7 bb 97 d6 e1 bc 85 73 1a 3b
       -0.013430683 -0.0051262104 -0.027568145 0.002356739
0001e0 3b 73 27 bd aa 33 0f 3b 46 04 05 bc f2 39 ff 3c
       -0.040881377 0.0021850863 -0.008118695 0.03115556
0001f0 8a c8 2f 3d b0 04 fb bc 2f 71 f9 3c e5 37 3e bd
       0.04291586 -0.030641884 0.030449478 -0.046440024
000200 40 93 1a bc 68 6d 67 3c b0 d3 a0 bc 1a be df bc
       -0.009434521 0.014125206 -0.01963219 -0.027312327
000210 6f 9b b1 3b 5e 1d 28 3c f8 92 ca 3c 49 c0 2c bc
       0.0054201405 0.010260908 0.024728283 -0.010543891
000220 ff 77 7b bc c9 d2 34 3c 27 4e 1b bd 0d 94 c5 3c
       -0.0153484335 0.011036583 -0.03791633 0.024118448
000230 0b 3e 86 bb f9 28 c5 3b 1f f5 9a 3c 8e 86 07 3d
       -0.0040967516 0.006016847 0.018915711 0.033087306
000240 23 86 a3 ba 54 fb 23 3c 31 6d 30 bd 5d cd 33 bd
       -0.0012475889 0.010008652 -0.043072883 -0.04389702
000250 79 50 9a 3b c4 fc 17 3d 34 ba 0f bd 26 c1 da 3c
       0.0047093 0.03710629 -0.035089687 0.026703428
000260 68 80 f9 3b 8c da 55 bc 14 74 9b bc 95 f8 51 3c
       0.007614184 -0.013052594 -0.018976249 0.012815614
000270 be a0 ed 3c 66 df 38 ba 67 f4 a6 3c 4a 8e 0a 3d
       0.029007312 -0.0007052332 0.020380212 0.033827104
000280 4a 6b 1a bd 4a 99 55 3c 04 df 38 bd f1 18 bd bb
       -0.037699975 0.013037035 -0.04513456 -0.0057707955
000290 bc 45 b1 3c 54 cf 30 3d 9b ae b0 bc f4 7e 25 bd
       0.021639697 0.043166474 -0.021567633 -0.040404275
0002a0 ad b1 04 bd ae c7 13 bd 64 60 16 bc 7d 61 29 3c
       -0.032396007 -0.0360791 -0.009178255 0.010338184
0002b0 cd fc a8 bc 64 15 8d 3c 4b 77 0c bd 8a 73 46 3c
       -0.020628357 0.017222114 -0.034293454 0.012112508
0002c0 e9 1b b7 3c 07 48 2a bc dd 49 26 bb 22 e8 ac 3c
       0.022352176 -0.010393149 -0.0025373616 0.021106783
0002d0 ea e3 23 3b d6 2c 24 3b 69 58 0d 3d 24 82 df bc
       0.0025007674 0.0025051138 0.034508143 -0.027283736
0002e0 fa 9b 0d bd e2 43 3c bb 50 b7 e9 bb 76 d8 b5 bc
       -0.03457258 -0.0028726985 -0.0071324483 -0.022197943
0002f0 dc 4a fb bc f2 a2 c1 bc 94 ec d3 3b cc dd 2f 3c
       -0.030675344 -0.023637269 0.0064674113 0.010734033
000300 7b df 18 bd 82 c7 18 3d 7c 47 ad bc 0d 98 08 bd
       -0.037322503 0.03729964 -0.02115225 -0.033348132
000310 9d 77 28 3c 47 97 d2 bc 56 1c e6 bc 6f e3 2d bd
       0.010282424 -0.0257069 -0.028089684 -0.042453226
000320 01 a7 72 bc da a1 e5 3b 83 4f ba bc 30 bc 66 3c
       -0.014810325 0.0070078196 -0.022742992 0.014082953
000330 6d 8d 16 3d 31 cb 33 bd 54 b7 a2 3c 72 c1 c5 3c
       0.036755968 -0.04389495 0.019862808 0.024140093
000340 9e 88 8a 3c 31 ac c9 bc 8a 4d 2b bd 2d bb dd bc
       0.016910847 -0.02461824 -0.041821994 -0.027066791
000350 5a dd f3 bb 1a db 38 bd 1a 24 0f bd ec 3b 11 bd
       -0.0074421586 -0.045130827 -0.03494654 -0.035457537
000360 8a eb e6 39 2a 20 1d bc 7a 4b fe bb 52 f6 24 3d
       0.0004404451 -0.009590188 -0.0077604624 0.04027397
000370 9b 4c b6 bb 8b 57 ca bb a6 27 4b bd 8a b5 91 3c
       -0.0055633313 -0.0061749867 -0.04959836 0.01778676
000380 93 a7 54 3c 55 4d d2 3c 1f d3 1c bd f9 9f ce bb
       0.012979406 0.02567164 -0.03828728 -0.0063056913
000390 1d 4b 26 3d 83 b4 8f 3c 3c 1e 7b bc 2b 79 17 3c
       0.040598977 0.01754213 -0.015327033 0.009245197
0003a0 09 b3 03 bb a7 09 92 bc 98 ca 44 bc 1e 2d 36 bd
       -0.0020095727 -0.017826868 -0.012011193 -0.04447662
0003b0 55 ee 71 3c 8d bc 26 3d 9f db 08 3d d4 e3 b8 3b
       0.014766295 0.04070716 0.033412572 0.0056423936
0003c0 fc b0 1c bd 49 0b 23 3d f4 0c 22 3d 2d 54 d4 bc
       -0.038254723 0.039805684 0.039563134 -0.025919044
0003d0 fe 3f 0b bd 91 48 16 3d 17 6e 0c bb 9a 2a 51 bc
       -0.033996575 0.0366903 -0.0021427923 -0.012766505
0003e0 29 24 8b bc cc 28 02 bd 8e 72 b6 bc 8b 24 04 bc
       -0.016985016 -0.03177719 -0.02227142 -0.008065353
0003f0 ad 27 ca 3b 5b c5 07 3c 5d 10 52 3c 06 0f 33 bd
       0.0061692805 0.008286799 0.012821284 -0.0437155

model.2.bias f4 [256]
000000 5b ec f5 bc c8 be cf bc 30 88 28 3a f5 c4 31 bd
       -0.03001993 -0.025359526 0.0006428985 -0.043400723
000010 d1 cc 93 3c 0d 2e db 3c 95 43 87 bb 52 75 fe 3c
       0.018042 0.026755357 -0.0041279295 0.031061802
000020 89 a9 a7 3c 81 4f 02 3d 93 4a 10 3d 8f ae bc bb
       0.020466583 0.031814102 0.03522737 -0.0057581137
000030 74 ce 82 bb f9 82 2a bd a4 b5 32 3d 29 ba e7 bc
       -0.0039918963 -0.04162881 0.043630257 -0.02828701
000040 05 0e f8 3c 15 32 18 3d d6 59 32 bd ec 03 ca bc
       0.030280123 0.037157137 -0.043542705 -0.024660073
000050 da 70 21 bd ae b3 4f bc 6f 83 9a 3d 48 86 b1 bc
       -0.039414264 -0.012677116 0.075446 -0.021670476
000060 4c df f2 3c 60 87 48 3c 2d d9 25 3d 9e c1 3d 3c
       0.029647492 0.012239307 0.040490318 0.0115818065
000070 34 e2 2a bc 83 f3 0b bc 6f ef 31 bd 3c 7c 5a 3b
       -0.010429908 -0.008541944 -0.043441232 0.003333821
000080 8a f3 b0 3a 2a 7e 2c bd 62 92 95 bc a1 fd 63 bc
       0.0013500315 -0.042112507 -0.018258277 -0.01391545
000090 18 09 02 3d da c7 2d 3d 7c 6d 36 3b 25 dc e2 3c
       0.031746954 0.04242692 0.0027836254 0.027692864
0000a0 20 d7 87 bc c1 69 ef bc 46 7b 96 bc 19 83 ae 3c
       -0.016582072 -0.029225232 -0.018369328 0.021302747
0000b0 2c d8 4b 3c 02 0d 79 3d 5c fd 00 bd f6 57 1d bc
       0.012441676 0.06080342 -0.031491622 -0.009603491
0000c0 63 5f 1a 3b 95 f4 35 3d 76 cf 9b bb a1 12 25 bd
       0.002355539 0.044422705 -0.004754956 -0.04030097
0000d0 ff 40 1a 3b 28 13 75 bc d7 f7 0b bb 89 f8 84 bc
       0.0023537276 -0.0149581805 -0.002135744 -0.016231792
0000e0 33 2b 3c bd 7f 01 79 3c 65 b1 23 3d ce 1d 18 3c
       -0.045939635 0.015198111 0.0399641 0.00928445
0000f0 80 f9 23 3d cb 8c 98 3d 5a 5a b7 bc cc a5 14 3b
       0.040032864 0.07448729 -0.02238195 0.002268183
000100 a2 8a f4 3c 9b e9 09 3d 56 d4 07 3d 63 41 b7 bc
       0.029851262 0.03367005 0.033161484 -0.022370046
000110 c0 e5 00 ba a0 54 10 3b 98 7f ef 3c 2c 0a 17 bb
       -0.0004917048 0.0022023097 0.029235646 -0.0023046834
000120 44 52 90 3c c8 47 2c 3d 53 9e 05 bc 86 c0 83 3d
       0.017617352 0.042060643 -0.008155423 0.06433205
000130 9f f9 fc bc 13 9d 23 3d f8 6b 94 bb 44 6e 1d bd
       -0.030880747 0.03994472 -0.0045294724 -0.038435236
000140 39 d2 cd 3c 8b 29 7c bc fe 30 de bc 67 3f 35 bd
       0.025124656 -0.015390764 -0.02712297 -0.04424992
000150 72 10 12 3d 95 00 08 bd 9a c3 1b bd 7a 51 59 3c
       0.035660215 -0.03320368 -0.038028337 0.013264054
000160 43 6c 25 bd 0f 22 3a 3b 78 50 5d 3d ce 3a 2d 3d
       -0.04038645 0.0028401648 0.05403182 0.04229241
000170 18 88 11 3d 80 29 1b 3c 00 9e 41 bc 3e 0d dc 3c
       0.03553018 0.009470344 -0.011817455 0.026861783
000180 85 53 1e bd 08 90 3d 3c 68 67 45 3d a6 e4 18 bd
       -0.03865387 0.011569984 0.04819432 -0.03732743
000190 cc c5 9b bc 4b 15 f6 bb 2e 4c 4a bb d7 74 dc 3b
       -0.019015215 -0.0075098625 -0.003086816 0.0067277956
0001a0 82 6a 28 3b b7 e5 9d 3c 89 35 1f bd 60 b3 36 bd
       0.002569825 0.019274576 -0.038869414 -0.04460466
0001b0 ad 0e ff bc 70 ab 05 3c 70 52 ac bb 12 ec 83 3c
       -0.031134928 0.00815855 -0.0052588508 0.016103778
0001c0 1e 7d a5 3d 87 e0 ba 3c ad 2f af bc 8f 16 ff 3c
       0.08080505 0.022812141 -0.021385038 0.031138686
0001d0 47 f4 f8 bc 7f b3 08 bd 77 54 de bc 06 03 4a 3c
       -0.030389918 -0.033374306 -0.027139885 0.012329822
0001e0 b4 7a 2e bd ea e8 24 bd 64 4e a4 bc 91 22 25 bd
       -0.042597488 -0.040261187 -0.02005691 -0.04031617
0001f0 4e 2e 73 3c db 36 1d bd b3 64 1d bd 17 0b 15 bc
       0.014842583 -0.038382392 -0.038426112 -0.009096882
000200 25 33 c5 3c fd f5 de 3c a3 98 c9 bc 52 89 ff bc
       0.02407224 0.027216906 -0.024608916 -0.03119341
000210 b9 c5 42 3b 7b 2c 07 3c d7 8f f4 3c 22 36 cf 3b
       0.0029719903 0.008250351 0.029853744 0.006323592
000220 36 12 1c 3d 29 9b 29 bc cd 44 9c bc 40 65 9f bb
       0.038103305 -0.0103519345 -0.019075776 -0.004864365
000230 49 d6 bd bc f0 6f 46 3c a1 4a f3 3c 2a 9f 05 3c
       -0.023173468 0.012111649 0.029698672 0.008155623
000240 5b 0d 39 3c 0c 92 f5 bc 2e 42 5e bc 33 fc de bc
       0.011294688 -0.029976867 -0.013565583 -0.027219867
000250 83 51 a6 3b 8a f2 24 bc 64 71 9d bb 38 d4 54 bb
       0.005075635 -0.010067591 -0.004804777 -0.0032475125
000260 c4 f1 18 3d f3 18 c2 bc fd 77 b9 bc f5 79 32 3d
       0.03733994 -0.023693537 -0.022640223 0.04357334
000270 04 aa 1f 3d c5 c6 6a 3d be bb 1b 3b 3e 02 d2 3b
       0.0389805 0.057318468 0.0023763026 0.0064089587
000280 57 e7 92 bc ab b4 af 3c 46 51 0d bc 19 54 ac 3c
       -0.017932577 0.021448454 -0.008625334 0.021036195
000290 50 06 c3 bc 3c 67 1d 3d f5 4e f4 3c 3d 36 00 3c
       -0.023806721 0.03842853 0.029822806 0.007825431
0002a0 b8 70 e1 bc 57 6d bd bb 52 46 35 bd d8 34 c1 3c
       -0.027519569 -0.0057808566 -0.044256516 0.023584768
0002b0 b0 65 75 bc 9c f2 32 bd 3e a0 6d 3c 49 03 89 bb
       -0.0149778575 -0.0436884 0.014503537 -0.0041813
0002c0 d2 79 4a 3c eb e8 42 3c 77 6d e2 3c 64 62 1a 3d
       0.012358146 0.011896352 0.027640088 0.03769149
0002d0 a8 ed 2c 3b f0 70 8c 3d 9f f4 3c bc d7 3e 7b 3c
       0.0026386771 0.068574786 -0.011532932 0.015334806
0002e0 d0 41 4d 3c d5 3e 04 bd c8 f6 12 3d 03 f5 50 3c
       0.012527898 -0.032286484 0.03587988 0.012753728
0002f0 2f 98 93 bc 98 cf 08 bc 73 28 22 bb a9 b4 97 3c
       -0.018016903 -0.008350275 -0.0024743348 0.018518763
000300 8e 30 ff bc 31 8b b9 b9 e2 9e 2b bd 20 ba 11 bd
       -0.031151082 -0.00035389655 -0.04189957 -0.035577893
000310 b8 af 58 3c f0 3a 3b 3a 1c d0 ee bc 77 ad 9b 3b
       0.013225488 0.0007142266 -0.029151969 0.004750903
000320 fd 10 9b 3d 53 f5 d2 bc ea 92 e9 3c 3b f7 b2 3c
       0.075716 -0.025751745 0.028512437 0.021846404
000330 51 b7 19 bd 45 10 14 bd d3 64 8c 39 ec 91 00 3d
       -0.03752834 -0.03614833 0.00026778 0.031389162
000340 a2 c2 19 3d 3b 24 93 bc 8d 03 19 3c ab 82 7a bc
       0.037539132 -0.017961612 0.0093392255 -0.015289943
000350 67 b7 28 bc f6 b0 c3 3c 3f 7b 3c 3c 92 27 5c bc
       -0.010297633 0.023888092 0.0115039935 -0.013437169
000360 3c 9f 1b 3d f5 25 bc 3b 7b 2a ac 3c 7d cf d2 bb
       0.037993655 0.0057418295 0.02101635 -0.006433426
000370 bc 8e 45 ba f0 6a 99 bc 98 0c c0 3c 3a ea 2d bd
       -0.00075362227 -0.01872775 0.023443505 -0.042459704
000380 55 23 85 bc c4 b6 4b bc e0 9b 40 3c e1 49 37 3d
       -0.0162522 -0.012433711 0.0117559135 0.04474819
000390 ba 7a 3d bd 6b 69 1b 3d 13 0a ee bc 16 35 b3 37
       -0.04625962 0.03794233 -0.029057538 2.1363183e-05
0003a0 b1 39 1b 3d b7 14 10 bd 04 4b d7 3b e8 ac e3 bc
       0.037896816 -0.035176005 0.006570222 -0.027792409
0003b0 74 4f a8 3c 5f 10 51 bb 24 d9 0f 3d 26 bc fa 3b
       0.020545699 -0.0031900627 0.03511919 0.0076518236
0003c0 83 14 e3 3c 1b 50 9c bc ff 1a a5 3b be cc da 3c
       0.027719742 -0.019081166 0.0050386186 0.026708957
0003d0 c9 e6 c5 bb b0 30 02 bd db b8 0a 3b f2 18 95 3c
       -0.0060394746 -0.031784713 0.0021167311 0.018200371
0003e0 2a 8b a6 3d 8b ef 25 bd 0e b7 1a 3d ca 46 72 bc
       0.08132012 -0.04051165 0.03777223 -0.014787385
0003f0 b3 74 73 bc 99 de 9d 3c 6a c1 17 bd 7d ff d3 3b
       -0.014859366 0.019271182 -0.03704969 0.0064696656

model.4.weight f4 [7, 256]
000000 21 eb 1e 3d 00 77 0a bd a9 63 80 3a 8c a9 1b 3d
       0.038798455 -0.033804893 0.0009795326 0.03800349
000010 2b 94 21 bd 2e 0a 5f 3d a6 2d 82 3c c8 4b c9 3c
       -0.039447945 0.054453067 0.015890907 0.024572268
000020 ae b5 0d 3d 5d be 8b 3d 03 1e 85 bd 93 32 93 bd
       0.03459709 0.06823418 -0.06499865 -0.07187381
000030 f5 52 2f 3d ea f4 51 3c a9 a2 9b bc c4 89 89 3c
       0.042803723 0.01281474 -0.01899846 0.016789325
000040 51 6e 0b bd 08 f7 6f 3d 92 8f 2a bd 1f 5b 55 ba
       -0.034040753 0.058585197 -0.041640826 -0.0008138883
000050 4b df 34 bc 9c 74 83 3d dd 5b 92 3d 48 40 a4 bc
       -0.011039565 0.06418726 0.07146428 -0.020050183
000060 05 ce 6c bd 90 76 07 3d c5 4e 06 bc a8 3d 5c 3d
       -0.057813663 0.033072054 -0.008197491 0.053769737
000070 7d 4f 36 3d 26 e4 e7 bc 98 76 48 bd e0 bf 05 3d
       0.0445094 -0.028307032 -0.048941225 0.03265369
000080 4f fa 17 3d a6 f1 5f 3d 7d 45 0c bd bb 35 87 bc
       0.037103947 0.054673813 -0.034245957 -0.016505113
000090 20 2d ea bc 45 af 6c 3d 5c d7 65 3d 7a df 70 bb
       -0.02858597 0.057784338 0.056113586 -0.0036754296
0000a0 04 27 62 bd 5f 53 fe 3c 3e ba 59 3d 91 1d 35 3d
       -0.05521299 0.031045614 0.05315613 0.04421765
0000b0 f6 e9 48 3d 66 8b f1 3d 3c f0 1c bd 3e 9b 65 bd
       0.049051248 0.11794166 -0.038315043 -0.056056254
0000c0 6a cb 65 bd 13 a7 da 3d 1a 6f 47 bc 8d 5f 29 3d
       -0.056102194 0.10676398 -0.012172485 0.04135089
0000d0 94 a2 56 3d 69 e9 44 3d 2a f3 40 3d a2 af 5c ba
       0.05240114 0.04807416 0.0471069 -0.00084185053
0000e0 e2 94 12 3d 40 5e 60 bd 91 c6 e1 bc 40 88 04 bb
       0.035786517 -0.054777384 -0.027560504 -0.0020222813
0000f0 e2 bb dd bd 3a b8 e9 3c 75 31 1f bd 32 71 14 3c
       -0.108268514 0.028530229 -0.038865525 0.009060191
000100 66 bc fa 3c 6c 9d 17 bd 1a 00 35 3c 86 e6 4a 3d
       0.030607414 -0.037015364 0.0110473875 0.04953625
000110 25 4d 24 3d d0 de cc 3c ff 0d ca bc d0 8e ee 3d
       0.040112633 0.025008589 -0.024664877 0.11648333
000120 cf 8e 81 3c 47 e0 97 3b 34 63 81 3d f9 17 62 3d
       0.015815167 0.0046348902 0.063177496 0.055198643
000130 02 72 4a bd bb 06 6a bd 0c 50 b8 bc 0a 3d c2 bc
       -0.049425133 -0.057135325 -0.022499107 -0.023710746
000140 fb 8a 6e 3d d4 38 65 bd 87 38 ad bc 7e 04 1f ba
       0.05823801 -0.0559624 -0.021145118 -0.0006066038
000150 70 14 97 3b 70 e7 0b bc a8 63 34 3d 55 3b 48 3d
       0.0046105906 -0.008539066 0.044040352 0.04888471
000160 97 06 99 3c 66 9b f7 bc 4f c2 88 bc 65 48 bf 3c
       0.0186799 -0.030225467 -0.016694216 0.02334995
000170 ca ff a1 3b a2 0c 08 3d f5 d4 1d bd 22 f6 47 bd
       0.0049438225 0.033215173 -0.03853317 -0.048818715
000180 a2 c9 da 3c 0e ef 18 3d ba 1e 9f 3d c9 c0 89 3c
       0.026707474 0.037337355 0.077695325 0.01681556
000190 81 2a db 3c 30 2b 28 bd ba 3f a1 bc 72 5c c7 3c
       0.026753666 -0.04105681 -0.019683708 0.024336074
0001a0 40 fb 36 3d 90 b3 50 bc 12 69 81 bc 05 c0 6e bc
       0.044673204 -0.012738124 -0.015797172 -0.014572148
0001b0 b1 81 1c bc 86 92 6a ba c9 e9 a3 bc f8 86 7a 3d
       -0.009552405 -0.00089482253 -0.020008938 0.061163872
0001c0 a0 af ad 3d e9 1f 04 3d 25 d1 1e 3d 48 12 54 3c
       0.084807634 0.032256994 0.038773675 0.012943812
0001d0 82 25 36 bc de dd e4 3c bb 34 85 bc 5e b3 c5 3a
       -0.011117341 0.027937826 -0.016260495 0.0015083363
0001e0 f4 07 78 3d 30 bf 3e bc 46 e2 4f bd a6 c9 20 bd
       0.06055446 -0.011642262 -0.0507529 -0.039254807
0001f0 e4 3e 07 bd 43 3e e2 bc 0a 2f 79 3d 1f a2 0b 3d
       -0.03301896 -0.02761758 0.060835876 0.034090158
000200 f4 3c 54 3a e8 9e 40 bd 30 c9 0f 3c a8 03 01 3c
       0.0008096241 -0.047026545 0.008775994 0.007874407
000210 7c bc 92 3c d3 aa 1f bd 5e 00 6c 3d 6a 42 66 bd
       0.017912142 -0.03898127 0.057617538 -0.05621568
000220 46 f9 1c 3d e8 fb c0 3c 0a 5d 43 3d 53 84 10 bd
       0.038323663 0.023557618 0.04769615 -0.035282444
000230 cb ab 2b 3d b1 d8 00 bd 82 e4 65 bc 44 92 66 3d
       0.04191188 -0.031456653 -0.014031531 0.056291834
000240 5d 17 27 3d 2c c7 d0 3c 08 36 14 3d c4 6c e2 bc
       0.040793765 0.025485598 0.03618434 -0.027639754
000250 d2 89 61 3c e8 98 66 3d d5 9c 4a bd ed 5b 44 bd
       0.013765769 0.056298167 -0.049465973 -0.04793923
000260 b8 cb e7 3a b8 62 9d 3c 86 57 14 bd f3 9a 83 3d
       0.0017684614 0.019212112 -0.03621628 0.064260386
000270 23 1b 2c 3d ad c2 1b bc 22 35 77 bd 7c f1 16 3d
       0.042018067 -0.009506864 -0.060353406 0.03685139
000280 70 93 ec bc b2 37 0e bc 18 cc ca 3d 8a e0 79 bd
       -0.028878897 -0.008680271 0.09902209 -0.061005153
000290 10 11 63 bc d4 e2 61 3d 8f ad 08 3a 89 62 31 bd
       -0.0138590485 0.05514796 0.00052138505 -0.04330686
0002a0 d5 17 fd 39 3d bf 3b 3c c1 c4 b1 3c 20 3d e3 3c
       0.00048273677 0.011459169 0.021700265 0.027739108
0002b0 f0 9e 97 bb f8 3e b3 3c 52 49 09 bd c4 92 01 3c
       -0.004627101 0.021880612 -0.03351719 0.007908527
0002c0 3c 15 f1 bc b1 77 b0 3c 18 39 66 3c d4 96 3a 3d
       -0.02942907 0.021541448 0.014051698 0.045553997
0002d0 40 cd 14 bb f8 ba 54 3d b9 95 88 3d 2a 0e 8d 3c
       -0.0022705346 0.05193612 0.06669182 0.017218668
0002e0 1b e7 43 3d 3d 8f dc b9 d8 38 88 3d 73 bb 7a 3c
       0.04782782 -0.0004206839 0.06651467 0.01530348
0002f0 f6 41 4b bd d0 eb 95 3b 49 e7 e6 3c 48 ec 42 bd
       -0.049623452 0.00457523 0.028186457 -0.047588617
000300 da a7 d5 3b c8 e5 26 3d a0 a5 dc bc ac 77 e3 bc
       0.0065202536 0.04074648 -0.026934445 -0.027767025
000310 75 92 7b bc 5d ea 95 3d fe c7 10 3d a4 87 48 3d
       -0.015354742 0.07320092 0.035346977 0.048957482
000320 f4 fb 64 bc 68 af c6 3c 5d 98 5e 3d b6 98 d7 bc
       -0.013976086 0.024253562 0.054344524 -0.026317935
000330 79 3f b7 bd 90 1a e4 3b 8e 8e 79 bd 48 43 6b 3b
       -0.08947653 0.0069611743 -0.060926966 0.0035898257
000340 31 f6 33 3d 4c d1 66 3d 00 7d 07 ba 25 50 37 3c
       0.04393596 0.056351945 -0.0005168468 0.011188542
000350 dc 05 38 3d b0 29 5c bc d8 b9 b0 3c 40 bc a9 ba
       0.044927463 -0.013437673 0.021572992 -0.001294978
000360 89 60 88 3c f8 41 b0 bc 1e 0b 68 3b 12 ff aa 3c
       0.016647594 -0.021515831 0.0035407017 0.02087358
000370 63 f4 16 bd 11 c0 27 3c 26 39 45 3d 88 c4 7c 3c
       -0.03685416 0.010238663 0.048150204 0.015427716
000380 68 db cd 3c cd 74 91 3c 6f e1 df bc 8c 14 c7 bb
       0.025129035 0.01775589 -0.027329175 -0.0060754474
000390 c2 10 b3 3c ad f2 7b 3d e4 ca b1 3b e4 4c 7e bd
       0.021858577 0.06151073 0.005425798 -0.062085047
0003a0 35 be 9c b9 e8 88 81 bc 75 45 7e 3c 36 f9 1e 3d
       -0.00029896354 -0.015812352 0.0155194895 0.038811885
0003b0 20 05 42 3d 41 a8 cc 3c b5 ee 01 3d 40 1b de 3a
       0.04736817 0.024982573 0.03172179 0.0016945377
0003c0 3e 05 5c 3d 7c 08 e4 bb 1e 09 64 bd 17 c5 c4 ba
       0.053715937 -0.006959019 -0.055672757 -0.0015012351
0003d0 f0 6c 98 bc 64 e6 21 bd 98 d2 15 3d c0 5e 20 bd
       -0.018606633 -0.03952636 0.03657779 -0.03915286
0003e0 3f b6 d1 3c a1 5c e8 39 6a 0e 8e 3c 58 38 9c bc
       0.025599597 0.00044319502 0.017340858 -0.019069836
0003f0 60 15 21 bc 7c ee 5a bd 52 e2 a9 3b 0e 68 a6 3d
       -0.009831756 -0.053450093 0.00518445 0.081253156

model.4.bias f4 [7]
000000 09 bd 86 3c da 35 25 3d 6b 69 0f bd e1 ae 92 bb
       0.01644756 0.04033456 -0.035012644 -0.0044764136
000010 67 28 78 3c 45 a4 ad bb b6 bc d7 bc
       0.015146351 -0.0052991235 -0.026335102
