models/gail.pth (torch, 271964 bytes, 8 tensors)

fc1.weight f4 [128, 3]
00000000: cb05 e1be 0289 a33b c581 a23e cc76 4b3f
00000010: b7a2 3ebf 1386 87be 5e5e fa3e ec01 23be
00000020: 9f61 823e f6b7 31bf 943e 463f b82b da3b
00000030: 85e5 07be 2698 efbe b340 7cbd da0a 99be
00000040: 9113 573e 2827 93be 93e2 e3be 70da 0b3f
00000050: a27d 9cbe 4d17 09be 5ce8 123f f583 5fbe
00000060: 09d1 64be 475b 19be 46e1 f0be 316a 073f
00000070: f9b6 9ebe 00fa 68be 5745 383d 1d0b cb3e
00000080: 94a7 b33d 626e c03e 59e0 0f3d a441 4e3d
00000090: 132f fb3e c986 0f40 ee14 ce3d dc3d 823e
000000a0: ed2f 543d 07f3 2f3e f1cf 913e d7c2 ae3d
000000b0: baf7 fabe 0d78 1e3f 25b1 d5bf 2ccb 73bd
000000c0: 8ed0 9cbe 272b 783e 84fb 04bf f3c5 16bf
000000d0: 6032 5fbf c5a7 bebe 594f a3bf 42e3 b7be
000000e0: f2a7 9b3e 77d4 963d 3fb2 6cbe ab31 a2be
000000f0: c58f 67bf 6757 b7be 6982 1dbe 8231 0fbd
00000100: 1bb7 f8bf 7ac3 79bd 3d67 fe3d 42a6 d6be
00000110: a447 debc 6c23 0ebf 63b5 a5be de78 0f3f
00000120: 0910 243f 2754 263f 3ef5 0abf 2dfd 9c3e
00000130: 2e15 1d3f a6d1 89be 3637 693f 6782 f9bf
00000140: e821 babe cf49 f1be 396b b8be 394b 013f
00000150: d7fe 90be 579f 97be 868e 213e 7375 8e3e
00000160: aa6f a6be 0548 29be 2e94 ad3e 3e8e 1240
00000170: 50e2 f23e 5976 88be 6f75 c33f d4be 8dbe
00000180: f6fb 6a3e dfff dfbe fa47 fe3e 6c37 b63e
00000190: f28d c1bf d777 443e d14c 353f 0147 e73f
000001a0: 2417 813e 7530 b5be 96ae d63e bb0f 0abf
000001b0: 9ecf 463f a38d b7bf 12f8 debe 0221 cf3e
000001c0: b602 e7bf 68a7 cc3e 1772 dd3e 28d2 2f3f
000001d0: 081c d8be 3af6 dcbe 60fc 8d3e 22cb 13be
000001e0: 6dde 7e3e 604e c8bd 3a09 8bbe ca60 0bbf
000001f0: 9285 3c3f b8bd 8b3c df9a 213f 8229 6fbf
00000200: d6c2 ccbe af7a 963d d23d f8be fd56 21be
00000210: 41b7 18be 95b5 b9be 73c6 b73e f1cd b43e
00000220: 89a9 18be 3181 133d 9222 f8be 95d8 e33b
00000230: 9ec8 b8bd 8ee4 083f a75d af3f 4b86 87be
00000240: ea3a 253f 1ed4 3640 fec3 4fbe 22ee 9bbe
00000250: eaf1 48bf 2a32 233f 8098 ed3e 6d2a 98be
00000260: 20ad f43d 5c3f b5be ac45 5bbe be9c 233c
00000270: b45f cfbd 7828 b2be 57f0 933e b223 11bf
00000280: b88d 5e3e cae2 313c e3bf 09bf 2bdb 763f
00000290: 6881 4c3e e2c2 6fbe 0cd4 ae3d 57ec c4be
000002a0: f90e 7c3d bd34 193e 9d69 77be 699b b8be
000002b0: 649e e33e 14c0 e73e a72f d6be f45e 91bf
000002c0: 69ef bdbd ed8f 66be 0ac4 f03c 99c0 05bf
000002d0: e226 cdbd 8c4e d53d 2e12 cfbe a60e d1bd
000002e0: fdb2 7dbe 2ac3 283e bcd5 6d3e 2a73 fc3e
000002f0: 2b46 1b3e 4c24 34bf 0338 813f 6f5a 713d
00000300: 5ee7 623f 819d ab3f 7783 bfbe 62d2 ff3e
00000310: 3445 8ebf 52f7 c9be 9200 e9be ad34 f4bd
00000320: b2d2 b1bd aed2 62bf 1140 0f3f 9509 053f
00000330: da81 dabe b600 a33c 070a 92bd 442a 393e
00000340: e1d2 c7bf 6510 1b3f 69f3 d0be 791c 09c0
00000350: 9c45 94bc 1389 ecbe 1000 bf3e 008d 4cbe
00000360: baca abbe e2c8 cb3e 1f38 e73e a6e3 0dbe
00000370: 7f2d dd3d d8e1 05bf 0ad5 94be 1c1c 9abe
00000380: c39f bdbe e152 92bf 5ea5 823d 4a0d 16be
00000390: 3814 c53d 9e1e f8be 07ea b83d dd21 683e
000003a0: 7c7a fe3f 3784 0f3e ddc4 473f fca3 e23f
000003b0: 1f23 003f 4577 fcbe 4257 d73e f078 eb3e
000003c0: f577 a4bd a663 1d40 c481 6bbd 6018 893d
000003d0: 8fce 323f f766 c6bd a488 10bf 1c53 49be
000003e0: c12f 523e aa1b b8bd a48a 9e3d 9b88 6e3c
000003f0: 4f0a 6cbf 253c 343e a0bb 8b3d 0f06 11bf
-0.43949732 0.004990698 0.3173963 0.79478145 -0.74467033 -0.26469478 0.4890012 -0.15918702
0.25465104 -0.6942133 0.77439237 0.0066580437 -0.13271149 -0.46795768 -0.06158514 -0.29891092
0.21003558 -0.2874081 -0.445088 0.54630184 -0.305646 -0.13387795 0.573858 -0.21827681
-0.22345366 -0.14976226 -0.4704687 0.5289641 -0.30998972 -0.22751617 0.044988003 0.39656916
0.08772197 0.37584215 0.035126064 0.05035557 0.49059352 2.2426016 0.10062586 0.2543782
0.051803518 0.17182551 0.2847896 0.085332565 -0.49017125 0.6190193 -1.6694685 -0.05951993
-0.30627865 0.24235211 -0.5194628 -0.58895797 -0.8718624 -0.37237373 -1.275859 -0.3591557
0.3040157 0.07364743 -0.2311487 -0.3167852 -0.9045375 -0.3580887 -0.15381779 -0.034959324
-1.9430879 -0.060977437 0.12422035 -0.4192372 -0.02713377 -0.555228 -0.3236495 0.56043804
0.6408697 0.64972156 -0.5428046 0.30661908 0.6136044 -0.26917762 0.9109987 -1.9492921
-0.36353993 -0.47126624 -0.36019304 0.50505406 -0.28319427 -0.29613754 0.15777025 0.27823982
-0.32507068 -0.1653138 0.33902115 2.2899318 0.47438288 -0.26652792 1.5270213 -0.27684653
0.22947678 -0.43749902 0.4966429 0.3558916 -1.5121443 0.1918634 0.7082034 1.8068544
0.25212967 -0.35388532 0.41930073 -0.5393025 0.7766055 -1.4340099 -0.43548638 0.4045487
-1.8047702 0.3997147 0.43251106 0.6868005 -0.42208886 -0.43156606 0.2773161 -0.14432958
0.24889536 -0.09780574 -0.27155477 -0.54444563 0.7364131 0.017058238 0.6312694 -0.9342271
-0.39992398 0.07347619 -0.48484665 -0.1575584 -0.14913656 -0.3627135 0.35893592 0.3531337
-0.14908423 0.03601188 -0.48463875 0.006953309 -0.0902264 0.53473747 1.3700455 -0.26469645
0.6454302 2.8566966 -0.20289609 -0.30455118 -0.7849413 0.6374842 0.4640541 -0.29719868
0.119470835 -0.35399902 -0.21413296 0.009986101 -0.10125676 -0.347965 0.28894302 -0.5669509
0.21733749 0.010857293 -0.5380842 0.96428174 0.1997124 -0.23414186 0.085365385 -0.38461563
0.061537717 0.14961524 -0.24161382 -0.3605607 0.4445678 0.4526373 -0.4183323 -1.1357102
-0.092741795 -0.22515841 0.029390354 -0.52247006 -0.10017182 0.10415372 -0.40443558 -0.10207872
-0.2477531 0.16480699 0.23226064 0.49306613 0.15163486 -0.70367885 1.0095218 0.058924135
0.8863429 1.3407441 -0.37404987 0.49965197 -1.1114869 -0.39446503 -0.45508248 -0.119241096
-0.08682765 -0.8860272 0.5595713 0.51967746 -0.42677194 0.0198978 -0.07130819 0.1808253
-1.561123 0.6057189 -0.40810707 -2.1423628 -0.018099599 -0.4619833 0.37304735 -0.19975662
-0.33553106 0.398017 0.45160004 -0.13856372 0.10799693 -0.52297735 -0.29068786 -0.3009957
-0.3703595 -1.1431543 0.063791975 -0.14653507 0.09622997 -0.4846086 0.09029012 0.22669168
1.9881129 0.1401528 0.78034765 1.7706294 0.5005359 -0.49309745 0.4205876 0.45990705
-0.080306925 2.459207 -0.0574968 0.06694102 0.69846433 -0.09687608 -0.564585 -0.1966061
0.20526029 -0.089896515 0.07741287 0.0145589365 -0.9220323 0.17601068 0.06822896 -0.5664987

fc1.bias f4 [128]
00000000: 89cd 133f 987d a53d 28dd ecbe be05 e43e
00000010: bf0e 53be 6f0c 01be ffc5 533e 2d2e b8bd
00000020: 54e2 11bf 23de 4ebc 0317 04bf 590d eabe
00000030: 99ec de3d 33a3 edbe c971 be3d b78d e03d
00000040: 35c3 893e bd83 213f 7b77 273f cea0 0fbf
00000050: 2ebd 0f3f f344 ca3e 27ac c2be 4790 91be
00000060: 6169 de3d 2f34 0b3e 4dcb 573e 6ede 753e
00000070: e1cd 32be 51bb 4bbe c1c8 44bc 838d fe3e
00000080: a5d4 14be d090 1b3e d378 b0bd 66ed a6be
00000090: 1b79 903e c60a 81bd 72ab 3a3e 83f0 f3ba
000000a0: 5840 b9be 7c26 ff3e e852 c43e 4a36 0cbd
000000b0: 7380 54be f31e bd3e 8687 8b3e 33f1 463e
000000c0: 6109 a63e c07c 37bd ef86 cfbe f6f5 82be
000000d0: 2e84 f43e b336 abbe 49c8 9c3e 2c01 643e
000000e0: 8fee 84be fc76 83be 9c5b 003f 19aa c3be
000000f0: 45bc cabe 5536 a83e fa0e 07bf fe2e ec3e
00000100: 1178 ad3d f994 d13e b7e5 65be 220e 7a3e
00000110: f29a 64be cd88 9dbd d3a8 f63e e720 b6be
00000120: b5ef fdbe c76e e33d c92b 12bf 9704 1e3f
00000130: e5e6 3c3e 81a3 283e cd66 59be 5e01 013f
00000140: df21 08be e630 013e 2eb4 fb3e 2397 60bd
00000150: 8e63 d93e 59df 493e 86dc a6bd df11 00bf
00000160: 0dbe f4bb 877a 653e 3ed8 383e 6cdb 7abe
00000170: 0b7b 2d3f 3a2b 363f 1d62 80be c99a cabe
00000180: de76 123f 223b b83d fc34 debe 19ee d1be
00000190: 5c22 f63e 3417 02bf f259 c5be bf5c f63e
000001a0: 5ba2 a53e 8464 463e 6079 f03d 0ed5 aa3e
000001b0: deca 7cbe 10b8 a13c fafa a93e bfbd 2bbe
000001c0: 1e2e d7be 3628 1b3e 3e9b 00bf 4797 ec3e
000001d0: 6fd9 11be 19d2 d33d deb2 0f3f 40aa 3ebc
000001e0: aad6 b0be 15d9 48be 8f55 aabe 938b fabd
000001f0: bbd6 d7bb 775d d4be 085a 9d3e b858 13bf
0.57735497 0.08080596 -0.4626248 0.4453563 -0.20611094 -0.126024 0.20680998 -0.08993182
-0.56985974 -0.012626204 -0.51597613 -0.45713308 0.10884971 -0.46413574 0.092990465 0.1096453
0.26906744 0.6309164 0.6541669 -0.56104743 0.5614804 0.3950573 -0.38021967 -0.28430387
0.10859943 0.13594125 0.21073647 0.24010631 -0.17461349 -0.19895674 -0.012010754 0.4971734
-0.14534242 0.1519196 -0.086167954 -0.32602996 0.28217396 -0.06300883 0.18229464 -0.0018611107
-0.36181903 0.4983405 0.38344502 -0.03423146 -0.20752124 0.36937675 0.27251834 0.19427948
0.3242903 -0.044796705 -0.40532634 -0.25578278 0.47757095 -0.3344017 0.30621555 0.22266072
-0.25963256 -0.25676715 0.50139785 -0.38215712 -0.39596763 0.32853952 -0.5275723 0.46129602
0.084701665 0.4093397 -0.2245091 0.24419454 -0.22324732 -0.07692108 0.48175678 -0.35571977
-0.49596944 0.111051135 -0.5709806 0.61725754 0.18447454 0.16468622 -0.21230622 0.5039271
-0.13294171 0.1261631 0.49160904 -0.054831635 0.42458767 0.19714107 -0.0814753 -0.5002727
-0.007468945 0.22410022 0.1805124 -0.24497765 0.67765874 0.7115971 -0.25074854 -0.39571217
0.57212627 0.08995654 -0.433998 -0.41001967 0.4807309 -0.50816655 -0.38545185 0.48117635
0.3235043 0.19374281 0.117419004 0.33365673 -0.24686763 0.019741088 0.33199292 -0.16771601
-0.42027372 0.15152058 -0.5023688 0.46209165 -0.142431 0.10342807 0.56132305 -0.01163727
-0.34538776 -0.1961406 -0.332684 -0.12233653 -0.006586877 -0.41477558 0.3073275 -0.5755725

fc2.weight f4 [256, 128]
00000000: 6ff4 52bd 42e0 8dbd dcfd 88bd fe0c 19bd
00000010: be41 6b3d 2ac5 bb3c 84fe 743d 4e70 64bd
00000020: fe57 19bd 3364 293b 19c6 053d 789b 43bd
00000030: bed7 913d a87f 97bb a5fd b23c d734 8d3c
00000040: 6a35 8a3b 258b b1bd b61a 983d 0749 f5bb
00000050: e180 c4ba d17a 0c3d c4e7 a8bd d657 a63d
00000060: 6fc6 4bbd cf80 acbc 2c76 7cbd b803 bfba
00000070: bfb4 6bbd c4d8 1d3d a26c 26bc 08ac 373d
00000080: 4cb7 183c a572 753d 0894 5a3d f2b9 5b3d
00000090: 0fe4 3abd 1a53 0cbc add4 463d 6b62 51bd
000000a0: fb0f 2e3d 943e 2bbd ab36 58bd d7d9 4d3d
000000b0: 6558 81ba 710a e6bc e6a2 693c 5f0f 37bd
000000c0: 1789 afbd 5612 b03d 7436 29bd bed0 43bd
000000d0: e7dc f03c dc01 6d3d 93f0 95bd 1ec7 8f3c
000000e0: 6bea 673d e950 4cbd e902 1f3d 5515 c43c
000000f0: dc2f 12bd 227e 59ba fc15 883d 5445 463d
00000100: 8ddd afbd 2532 21bd a792 b6bc 31ed 983d
00000110: 4113 38bd 59c6 a83d 2ded 62bd cef4 193c
00000120: 417b ab3d 32e9 89bd c955 4dbd 0047 19bd
00000130: 59a5 1abd 4cd9 9ebc acfe 8d3d 7562 b2bc
00000140: 13b9 7abc ed0d 523c 2abe a5bd ae5c 9a3d
00000150: 8330 833d 63af f938 d389 6f3d 3bc4 44bd
00000160: e39e 09ba bb3c 7abd 19a4 25bd 55f0 61bd
00000170: a068 5dbc 7b58 77bd 8596 0abd c757 883d
00000180: 611b 12bd 759a 88bd b267 1dbd 6c4f 063c
00000190: caf0 733d f274 40bc 88a2 993d 8c77 05bd
000001a0: df0b 223d 25e5 873d d085 413b 68a2 073d
000001b0: 53c1 e4bc 19f6 8f3d fec0 933d 292a 073d
000001c0: 7b34 9fbd 620b ab3d 6a6f 92bd 150b 9abd
000001d0: 1a71 823c 2c95 ac3d 83aa 433d 1d8c bb3c
000001e0: 560a 3c3d aea1 5c3d 3908 f83c eca9 b63c
000001f0: 9264 f3bb 15f2 93bd 0e04 2e3d 28bd 453c
00000200: 7938 86bc 3d3e 413c 985c eab8 cc8d 1f3d
00000210: 493b 07bc 184a ebbb d2c1 b6b7 d27d a0bb
00000220: 97e0 8cbc a357 003e 5896 793c 0dfa a8bd
00000230: dc94 74bd 2d0f a9bc af56 d3bc 9c9b a6bc
00000240: 49b3 aa3c 9a3e 733d 2a33 ed3c 617d 203b
00000250: 7702 06bf e28f 36be 4b50 67bd 2028 81bd
00000260: c40f f6be 1830 9ebc 8f27 c13d e02d bfbd
00000270: e7ba 06bc 69a8 9ebd 9208 423d baab 87bd
00000280: 02a2 a23d 16f0 9dbc 9301 5e3d 98c7 2cbd
00000290: 88cb 7b3d 406d d83c 8b5f 5bbd 3da7 a63d
000002a0: b957 833c ddb9 6d3d 0291 0dbd 76eb 1b3d
000002b0: 08a9 9abc 0a76 c23d 9119 ab3e d981 e1bc
000002c0: 9d63 0abd 5301 a0bd 12d5 333c 9573 843c
000002d0: 5c23 3f3d 2759 a4bd 370f cfbd 0be7 3e3d
000002e0: 3a61 4ebd 4fb3 433c 61e9 2dbd 24b4 923d
000002f0: 40db 2c3d d0c4 903d 9dd2 3cbd 8ecb f6bc
00000300: 9e30 2a3d e041 1d3d 0e95 b3bd b0b7 b0bc
00000310: 7be3 9a3d 0a30 9e3d 06a8 08bf ecd7 39bd
00000320: 26a7 95bd 3dd0 92bd 79c6 87bc 1783 933e
00000330: e055 aa3d fa95 ad3b 9970 113d 9f2e 863d
00000340: 703b c4be 6216 bfbc 6190 c0bc 0d93 45bd
00000350: 87c8 203e ed45 83bd df11 a53d 59e7 b13d
00000360: 57da 073a 202b 6f3c 78dd 503d c2e5 8dbd
00000370: ce0d 443d c181 82bd b38a fdbc af11 b2bd
00000380: da60 a93d e68e 1cbd 2390 46bc f34a ba3c
00000390: 16d2 973d 7078 9ebc 1546 26bd c1b7 37bc
000003a0: dde5 c43d 980b 4a3d b3f5 1fbd 7c39 18bd
000003b0: 2aeb a63d ffa6 86bd 3168 e2bb 997a 0cbd
000003c0: 4d0c dc3d 24ad 7f3d cdad 05bc 4520 a43b
000003d0: 23b8 5abd d279 0e3d cac8 c3bd ce7d 163e
000003e0: 61b4 0b3d 5157 0f3d 194e 01bd 2853 85bd
000003f0: dd8c 4b3d b7a0 f83c 98bf 083d e1d6 053d
-0.05150264 -0.069275394 -0.06689045 -0.037365906 0.057435744 0.022921164 0.059813038 -0.055771165
-0.03743743 0.0025847077 0.032659624 -0.04775569 0.07121228 -0.004623372 0.021849463 0.01723711
0.0042177932 -0.08669118 0.0742697 -0.007485512 -0.0014992022 0.034296814 -0.08247331 0.08122222
-0.049749788 -0.021057514 -0.061636135 -0.0014573252 -0.05754542 0.038536802 -0.010157736 0.044841796
0.009321045 0.059923787 0.05336383 0.05364413 -0.04562765 -0.008564735 0.048542667 -0.05111925
0.04249571 -0.041807726 -0.05278651 0.050256576 -0.0009868263 -0.02808115 0.014260029 -0.044692393
-0.0857107 0.08597247 -0.041311696 -0.047806494 0.02940221 0.0578631 -0.073212765 0.017551001
0.056620043 -0.04988185 0.038821135 0.023935953 -0.035690174 -0.00082966883 0.06644818 0.04840596
-0.08587179 -0.039354462 -0.022286726 0.07467116 -0.044940237 0.08240957 -0.05540197 0.009396745
0.08373118 -0.067339316 -0.05013064 -0.037421227 -0.037755344 -0.019390725 0.069333404 -0.021775464
-0.015302914 0.012820703 -0.080929115 0.075372085 0.06405737 0.000119059136 0.05848105 -0.048038702
-0.0005249811 -0.061093073 -0.0404397 -0.05516084 -0.013513714 -0.060387116 -0.033834953 0.06657367
-0.03567064 -0.06670085 -0.03842897 0.008197647 0.059555806 -0.011746632 0.075017035 -0.032584712
0.039562102 0.06635503 0.0029529221 0.033113867 -0.027924215 0.07029361 0.07214545 0.03299919
-0.07773682 0.083517805 -0.07150157 -0.07521645 0.015923072 0.0842689 0.047770035 0.02289396
0.045908295 0.053865127 0.030277358 0.022297822 -0.0074277604 -0.07223908 0.042484336 0.012069024
-0.01638435 0.011794624 -0.000111752364 0.038953587 -0.008253881 -0.0071804635 -2.1786345e-05 -0.0048978115
-0.017196937 0.12533431 0.015233599 -0.082508184 -0.059712276 -0.02063712 -0.02579817 -0.020337872
0.020837443 0.059385873 0.028955061 0.0024488794 -0.5234751 -0.17828324 -0.056473058 -0.06306481
-0.48058903 -0.019310042 0.09431373 -0.09334922 -0.008223272 -0.077469654 0.047371455 -0.06624551
0.07941057 -0.019279521 0.05420072 -0.042182535 0.0614734 0.026419282 -0.053557914 0.08137367
0.01603304 0.05803858 -0.03456212 0.03806635 -0.018879429 0.094951704 0.33417943 -0.027527736
-0.033786405 -0.078127526 0.010976093 0.016168395 0.04666458 -0.08024817 -0.10110324 0.04660706
-0.05038569 0.011944606 -0.042458896 0.07163265 0.04220128 0.07068789 -0.046099294 -0.03012636
0.04155027 0.0383929 -0.08768664 -0.021571964 0.0756292 0.077240065 -0.53381383 -0.045371935
-0.07307272 -0.071686246 -0.016574131 0.2881095 0.083171606 0.0052974196 0.035507772 0.06551861
-0.38326597 -0.023326103 -0.023506345 -0.04823594 0.15701495 -0.06409822 0.08060049 0.08686704
0.00051823765 0.014597684 0.05099246 -0.069285884 0.047864728 -0.06372405 -0.030949926 -0.08694779
0.08270426 -0.038222216 -0.012119326 0.022740817 0.074131176 -0.019344538 -0.04059418 -0.011213244
0.096141554 0.049327463 -0.039052676 -0.037164196 0.08150323 -0.06574821 -0.0069093932 -0.034296606
0.10744534 0.06242098 -0.008159113 0.0050087296 -0.053398263 0.034784146 -0.09559782 0.14696428
0.03410757 0.03499538 -0.03156862 -0.065100014 0.049694885 0.030350072 0.033385843 0.032675628

fc2.bias f4 [256]
00000000: b156 8ebd 2da4 b53d 78e5 8ebd a748 073d
00000010: 0c3b f3bc b503 afbc a298 8ebd bf6e 91bd
00000020: 17d8 033d 1739 d0bc f896 5bbc 3b26 7dbd
00000030: 2c42 83bd a0fb c13c 7b8e 003d a45e 80bd
00000040: 9737 6fbd a578 81bd 20ad a13b 5eb9 33bd
00000050: 4da7 043d 55a1 f8bc 2c0c a43d 5266 0ebc
00000060: 4cb8 003e aa37 c63d 6e00 a1bc bed2 1bbd
00000070: 57ba 3cbd 4d17 01bd c8a7 7f3d cbca 9ebc
00000080: a035 57bd f5cd 2eba 8ee4 8f3c 518b c73d
00000090: 6ebf 93bc f2cc 87bd 50d0 06bd 0ef0 863d
000000a0: 2496 033c 3234 c1bc f9c1 0e3d 4a96 013d
000000b0: cd93 ae3d 1309 9f3c e7a4 0d3d ff80 88bc
000000c0: 6b5f ef3d 3831 53bd 3705 65bd 0f71 88bd
000000d0: ec73 aabc f515 2abc 03d4 193d cc8a 353c
000000e0: 682b bd3d fe4c 92bd 05cd 6d3d b123 32bd
000000f0: ef69 793d ac0b 5dbd 425c 793d 189a 913d
00000100: aabd 8d3d 44bb f5bc a510 8ebc b0b9 8d3d
00000110: 098f 61bd aed5 71bd 550f 6abd 86aa 7ebd
00000120: 2c63 113d 9982 12bd e667 f5bc 99e2 85bd
00000130: 0bd4 9a3c 4bf2 2a3d 9912 433c 59c9 ec3c
00000140: 6612 ea3c 4ebf 5d3e 9dfd ca3d 8aad 20bd
00000150: 380c b8ba e08e 923d 0397 e53c c093 5f3c
00000160: b417 873d dea5 de3d 3d9b d23d df39 a73d
00000170: 0b75 9d3d 4a93 f1bc cc50 e43d 9087 bbbc
00000180: 1c8e 883d 180f 39bc fde0 843c 7976 8bbd
00000190: bc5a 23bc 8b7c 703d 9c3c 29bd 8380 103c
000001a0: 372c 46bc 195e a9bc 7aca bc3b 5e48 a03b
000001b0: 8e54 093e bb77 dcbb d150 44bd c416 1ebd
000001c0: dd1e aa3c 9335 1b3d 6dab 7bbd 4165 0c3d
000001d0: cb0e 9a3b b588 edba b3c3 8cbc 0278 12bd
000001e0: e727 ba3d 6007 a9bd 3fdb 91bd 7b09 24bd
000001f0: 062d 1dbb bf36 903d 4e9f 0f3d 5c23 2a3b
00000200: fc53 1a3d 2adf 713d e59d 8f3d aa3e 833c
00000210: fd33 36bd dbdc 4e3e d0d0 f13c f663 993d
00000220: b688 59bd fdff 983d b1a8 f93d c545 453d
00000230: 8549 a03d 9516 aebd 75e4 a33b fc15 07bc
00000240: c96c bfbc bdb3 b2bd 0e8d d43c 50fb 463d
00000250: 0366 66bd 092b f73d cdaf a0bc db7f 48bd
00000260: 4abf 1fbd 773f 833d 6a4d bcbb 251b 1e3c
00000270: 37cd 8fbc bbea 903c e95e 86bd 52c7 3dbb
00000280: 9b58 ab3c 73a4 1a3c 204f a9bd a8ce 25bd
00000290: 59a2 91bd c8c6 713d 6f2d 873d 2a81 98bc
000002a0: 33fd 7c3d ccdf 94bd 3cfc af3d 6348 79bd
000002b0: 6565 813d 7f4a 003e 366a 92bd f9b4 33bd
000002c0: bd18 663d b093 133d 4db7 643c 70b7 83bd
000002d0: 25f6 a9bc 6658 afbd 0741 103e c27f 64bc
000002e0: ccd0 32bb f727 de3d 8c8c 4bbd 14c3 cd3c
000002f0: 8718 b1bd 5774 b53c cb3a 84bd 996d 6cbd
00000300: 4588 cdbc 543b 143e 37a9 3cbd 7941 d53d
00000310: 5d7c 0d3e 142c 6c3d a1bb e33b 7ad4 06bd
00000320: fb7c 9ebd d8e2 10bc 91c3 febc 2c71 563d
00000330: 362c 79bd 2c70 913b 7c10 a9bd 00a6 a73d
00000340: 5c92 b73c 582c 543d 7349 573d cc17 9e3d
00000350: 6e3b 783b fc27 b53c 10e0 a23d a549 0fbd
00000360: fb71 a53c 5a11 b23d 2d6a 7e3d c915 933c
00000370: 81c2 e33d dc61 94bc 75a3 c4ba bf1a 6a3d
00000380: 5459 cebd 8b65 c9bc f9af 7a3c ca70 833e
00000390: e950 563d be4d c5bc 6812 db3c ea40 a1bd
000003a0: 4005 7abd 858f b5bc 08d4 7dbd ab31 5ebd
000003b0: 118e a3bd 136d 88bd 4947 b9bb 65fe 7f3d
000003c0: 0fff 1f3d d13e 9cbd 90f2 92bc f66b b43d
000003d0: 8243 8a3c 377a 6f3d 3081 82bd d344 b23d
000003e0: dc3f cc3d a748 3bbd beb3 7b3d 0546 58bb
000003f0: 0522 a33d 8e8c 77bd f351 a6bd 7066 10bc
-0.06950129 0.08869205 -0.069773614 0.03302827 -0.029691242 -0.021364072 -0.06962706 -0.07101201
0.0321885 -0.025417848 -0.013402693 -0.061804038 -0.06409106 0.023679554 0.03138588 -0.06268051
-0.058402624 -0.06321839 0.004933968 -0.04387795 0.032386113 -0.030350367 0.08010134 -0.008691387
0.12570304 0.09678586 -0.019653525 -0.038042776 -0.046076145 -0.031516362 0.062415868 -0.019383809
-0.052541375 -0.0006668263 0.017565038 0.09743369 -0.018035617 -0.06630887 -0.032913506 0.065887555
0.008031402 -0.023584459 0.034852955 0.031637467 0.085242845 0.019413507 0.03458109 -0.016663073
0.116881214 -0.05156061 -0.055913176 -0.06662189 -0.020807229 -0.0103812115 0.037555706 0.011080455
0.09236795 -0.07143591 0.05805685 -0.04349107 0.06089204 -0.05396621 0.060879 0.07109469
0.06920941 -0.029996522 -0.017341921 0.06920183 -0.05506805 -0.05904167 -0.057143528 -0.062174343
0.03549497 -0.03576908 -0.02995677 -0.06537361 0.018899938 0.041734975 0.0119062895 0.028904604
0.028573226 0.21655008 0.09911654 -0.039228 -0.0014041727 0.071561575 0.02802611 0.013646066
0.06596318 0.108714804 0.102835156 0.08165335 0.0768834 -0.029489178 0.11148223 -0.02289179
0.0666773 -0.011295103 0.016220564 -0.06809706 -0.009970363 0.058712523 -0.041317567 0.008819702
-0.012095503 -0.020674752 0.005761442 0.0048914393 0.13411161 -0.00672814 -0.047928635 -0.03859593
0.02076667 0.03789289 -0.06144278 0.03427625 0.0047014705 -0.0018122407 -0.01718316 -0.03575898
0.09089642 -0.0825336 -0.07121896 -0.040048104 -0.0023983135 0.07041692 0.035064034 0.0025961017
0.03767775 0.059050716 0.07012538 0.016021091 -0.044483174 0.20201437 0.029518515 0.07489769
-0.053108893 0.07470701 0.121903785 0.04816224 0.07826523 -0.08500401 0.0050015994 -0.008244988
-0.023367302 -0.087256886 0.025946166 0.048579514 -0.05624963 0.12068755 -0.019615078 -0.048950057
-0.039000787 0.06408589 -0.005746533 0.009650026 -0.017553909 0.017690053 -0.065610714 -0.0028957915
0.020916274 0.009438622 -0.08267045 -0.040480286 -0.071110435 0.059027463 0.06600463 -0.018616278
0.061764907 -0.07269248 0.08593032 -0.06086005 0.063181676 0.12528418 -0.071491644 -0.04387376
0.056175936 0.036029518 0.013959718 -0.06431472 -0.020747254 -0.085617825 0.14087306 -0.013946475
-0.0027285097 0.108474664 -0.049694583 0.025117435 -0.08647256 0.022150202 -0.06456526 -0.057721708
-0.025089392 0.14475757 -0.046059813 0.104128785 0.13816972 0.057659224 0.0069498573 -0.032917477
-0.07738682 -0.008843146 -0.031099113 0.052354023 -0.06083318 0.0044384208 -0.08255097 0.08185959
0.022408657 0.051800102 0.05256028 0.07719383 0.003787722 0.022113793 0.07952893 -0.034982342
0.020195952 0.08694716 0.062112976 0.017954724 0.11121083 -0.01811307 -0.0015002327 0.057154413
-0.10075632 -0.024584552 0.015300744 0.2567199 0.052323256 -0.024084922 0.026742175 -0.078737095
-0.061040163 -0.022163162 -0.061969787 -0.054246586 -0.079860814 -0.06661429 -0.00565425 0.06249847
0.039061602 -0.07629169 -0.017937928 0.088096544 0.016877893 0.058466163 -0.06372297 0.087045334
0.09973118 -0.045723584 0.061450712 -0.003300072 0.07965473 -0.060436778 -0.08121099 -0.0088134855

fc3.weight f4 [128, 256]
00000000: bcf2 ddbc 7790 dfbd c29e 23bd 9ca3 bbbc
00000010: 96ea 62bd c604 38ba fad8 443d 62cc 1a3d
00000020: 687c 71bd d0f8 d8bc 5fac 8d3d f4a2 3dbd
00000030: e003 d73b e6dd f83a 3cc9 a3bc 4802 b9bc
00000040: ec27 3b3d a819 433d f5cf 1f3e c410 893c
00000050: 988a cd3c 1e77 d0bc d8b0 5c3c b843 1d3d
00000060: e1d3 2c3e 165d 743e 50b5 a43c fec0 5c3d
00000070: 0422 16bd 0d9c 83bd 011f b33d a035 f03c
00000080: 0843 fdbc 95fe 5e3d bf46 8d3e 9a05 dc3d
00000090: 80dd eb3a a0eb 0abc 74f2 fd3c 3da5 b2bc
000000a0: b743 7abe 06fd 2fbd 391a d0bc 1d5e 2dbe
000000b0: b473 56bd a2c2 8a3d 38f6 f7bc 645d afbc
000000c0: 7c1d 013e 9deb 913e 6524 4f3e b894 75bc
000000d0: e312 d03d 6216 21bd b023 afbc aefa 1bbe
000000e0: b8c9 db3d 01e4 7fbe aa17 33be 1aa1 79bd
000000f0: 807a 303d 5f62 54bd 3874 903c b14d 8abf
00000100: 521f 4cbd 8246 313d 0070 f63a 00c0 26bb
00000110: 2636 67bd 885c ae3c 6724 13be cd30 8bbe
00000120: d039 c63b e831 0abf 0052 23ba f064 90bb
00000130: ab0d a0be ada1 9abe 272e 3bbf 50f0 e13b
00000140: 0295 15bd 5658 783d 2248 e6bd 4117 34bd
00000150: 4d19 4e3d d490 a13d f642 063e dc8b 8abd
00000160: 7c8a e5bc b0b1 253e 1e20 073d 6883 373d
00000170: 6cdb 28bd b89d edbc 0c07 dcbd fc4c 00bf
00000180: f0ee 63bd a806 34bd 79f9 d3bd bea5 5fbd
00000190: 8035 13bb a232 c93b 9006 51bc 48a9 243d
000001a0: 7cdf 34bd 7a02 30bd a8d0 733d 1d16 e3bb
000001b0: 7f4c aa3d b519 c2bc 7eea cdbe 60d7 edbd
000001c0: 548f 143d 9889 c2bc 289d aabc 1dfb 613d
000001d0: eca0 bebc 5e49 473d b402 eebd f0b6 553c
000001e0: 1c8b f0bb 7e5e 5e3d eec3 6a3d a0bc 95bb
000001f0: 1b59 4c3c d527 643d d2e7 7fbd b0be 8bbb
00000200: 30c0 5f3c 3a7e 03bd a666 123d 0c05 d5bc
00000210: 50c5 6a3d b63e 493e 564f 75bd 28ec 383c
00000220: e6a8 1c3d bf7f 153d d96f e73c 00e8 f1be
00000230: 2eb3 3d3d b443 fc3c 9129 08be d4af 1fbd
00000240: 16d7 22be d811 533d ee46 64bd aba1 f4bc
00000250: fae7 6a3d 74be cb3c 50a8 39bc 9812 a8bc
00000260: c6ae 533d 7634 323d 485c f1bc def7 60bd
00000270: 8285 2abd 407c 1c3c ac69 b3bc a66b 733d
00000280: 721f 003d d271 05bd b07b 513c 80ef 75bd
00000290: d4c5 9a3c 9467 10bd c0a3 1e3c 2e85 64bd
000002a0: a28e 753d 9cc5 673d 807e 22bc f86c eebc
000002b0: 3a76 4f3d 9a99 0ebf 3446 113d 00aa 6b3a
000002c0: 50e4 023d 5175 9fbc 21b5 b8bd f8cb 28bd
000002d0: 1856 65bd 86bb 3fbd 0a6e 4f3d a728 15be
000002e0: b3a8 793d ff18 283e 5cc0 063f 6852 49bd
000002f0: 2aa0 eebd e079 e43c c086 8a3b f635 573d
00000300: cab7 d93d c41a 7a3d b211 6ebd b524 093d
00000310: 6fd8 563d 7a15 a23d b74a 993c 1012 b1bc
00000320: 39a0 00be 5c17 b73c a8f7 6cbc b8e9 c9bd
00000330: c880 a13c 3289 5bbd cb19 80be 2080 123c
00000340: c408 54bd bcfc d8bc 588c 66bd ec97 2cbe
00000350: 1a3b 25bf ff9f 233e 8dca 4b3d 9063 ba3b
00000360: 7a2d 323e 1134 793d ee7e 86bc 2eef f3bd
00000370: da49 e53e eab8 133d 3da4 1abe ba02 14bd
00000380: aa30 74bd 001f 98ba 4818 aebe 9083 04bc
00000390: 7369 0ebe 9055 583d d687 203d bca8 ecbc
000003a0: 7821 063c e0cf a8bc 708f 853b 00e8 feba
000003b0: 2442 14be 73f5 043c ac0a b7bc c65e 0ebf
000003c0: 140c b83c 0cbf d63c 4843 4f3c d9ad 4e3e
000003d0: e0a8 533c 9cfe cebe 591f 533d b2d2 a3be
000003e0: 4019 233c 028d 473d d16d f2be 8f61 eebc
000003f0: 66f7 393d 6091 913b 40b6 f03b 3860 413c
-0.027093284 -0.10916226 -0.039946325 -0.022905163 -0.0553995 -0.0007019754 0.048058487 0.03779257
-0.058956534 -0.02648583 0.06917643 -0.046297982 0.0065617412 0.0018987029 -0.019993417 -0.022584096
0.04569237 0.04763189 0.15606673 0.016731627 0.0250905 -0.025447425 0.013469897 0.03839466
0.168777 0.23863634 0.020105988 0.05389499 -0.036653534 -0.06426249 0.08746148 0.029322445
-0.030915752 0.054442007 0.27593037 0.10743256 0.0017995089 -0.008479029 0.0309994 -0.021807307
-0.24439894 -0.04296591 -0.025403129 -0.16930433 -0.052356437 0.067754045 -0.030268773 -0.021406837
0.12608904 0.2850007 0.20228727 -0.014989071 0.10159852 -0.039327987 -0.021379322 -0.15232345
0.10731834 -0.2498932 -0.17489496 -0.060944654 0.043085575 -0.051851626 0.017633542 -1.080496
-0.049834557 0.043280132 0.0018801689 -0.002544403 -0.056448124 0.021284357 -0.14369355 -0.2718567
0.0060493723 -0.539824 -0.00062301755 -0.004406564 -0.31260428 -0.30201474 -0.731173 0.0068951026
-0.036519058 0.06063112 -0.11244227 -0.04396749 0.050317097 0.07888952 0.13111481 -0.06764957
-0.028020136 0.16181064 0.032989614 0.044803053 -0.041224882 -0.02900587 -0.107435316 -0.5011747
-0.05564779 -0.04395166 -0.103503175 -0.054601423 -0.0022462308 0.006140069 -0.012757912 0.0402005
-0.044158444 -0.04297111 0.059525162 -0.0069301263 0.08315372 -0.023693899 -0.40217966 -0.11613345
0.0362695 -0.02374725 -0.020826891 0.05517112 -0.023270093 0.048653953 -0.11621609 0.013044104
-0.007340802 0.054289334 0.05731576 -0.004569605 0.012472416 0.05570205 -0.06247694 -0.004264675
0.013656661 -0.0321028 0.035742424 -0.026003383 0.057317078 0.19652829 -0.059890114 0.011286773
0.03824701 0.03649878 0.028251575 -0.47247314 0.046313457 0.030794002 -0.13297106 -0.038986042
-0.15902361 0.05153069 -0.055731706 -0.029862246 0.057350136 0.024871089 -0.011331633 -0.020516679
0.05168035 0.043507062 -0.029462948 -0.054923885 -0.04163123 0.009551108 -0.021900974 0.059428833
0.03127999 -0.03257925 0.012785837 -0.060042858 0.01889316 -0.03525503 0.009682596 -0.055791073
0.05995048 0.05658494 -0.009917855 -0.029104695 0.05064986 -0.5570313 0.03546734 0.00089898705
0.031956017 -0.01946512 -0.090189226 -0.041210145 -0.05599031 -0.046809696 0.05064205 -0.14566289
0.0609519 0.16415785 0.5263727 -0.049150854 -0.116516426 0.027890146 0.0042274892 0.052541696
0.10630758 0.061060682 -0.058122344 0.033482272 0.0524525 0.079142526 0.018712385 -0.021615058
-0.1256112 0.022350006 -0.014463343 -0.098590314 0.019714728 -0.053597637 -0.25019678 0.00894168
-0.051766172 -0.0264877 -0.056286186 -0.16854829 -0.64543307 0.15979002 0.049753714 0.0056881383
0.1740016 0.06084067 -0.016417947 -0.11910854 0.44782907 0.03606502 -0.15101714 -0.036135413
-0.059616722 -0.0011605918 -0.340029 -0.008088008 -0.13907413 0.052815974 0.039192043 -0.028889053
0.0081866905 -0.020606935 0.004075937 -0.0019447803 -0.14478356 0.00811516 -0.022343956 -0.5561336
0.022466697 0.026214145 0.012650318 0.20183505 0.012918681 -0.40428627 0.051543567 -0.31996685
0.009954751 0.04871846 -0.47349408 -0.029099254 0.045401953 0.004442379 0.0073459446 0.0118027255

fc3.bias f4 [128]
00000000: ab8b 19bd dbd6 21bd 33ca 913d a4d4 37bd
00000010: 720f 22bd 7e34 023d 919f 443d 971d cb3c
00000020: 52f1 773b 6325 2d3d b3a2 f3bc 0473 5a3d
00000030: e6fe 0ebc f9c0 813d 8980 ed3c 6d9c eabc
00000040: 41df 9d3b 8b31 ad3d 3870 39bb 719a 203d
00000050: 17b5 66bd 2eb7 7b3d 61d0 d4bc 5542 b73c
00000060: 5a8f eb3c b6ba 2e3d bb83 e6bc 371d 75bc
00000070: 2b93 643b e590 703d c101 283d c829 19bc
00000080: 3178 893d 7c76 ce3c 4f7f 2c3d 9863 b63c
00000090: fcef f8bc ea85 203d b796 7bbd bc5e 633d
000000a0: e0ba 1abb 52c1 b8bc f2c3 77bc a314 143d
000000b0: 7bd4 f93c fd06 823c cada 1c3d c05a 2ebd
000000c0: 6223 d83c 5c8e e23c 001b 813d ecad bcbd
000000d0: 0cc9 2c3d d1dd 3d3d 294f 2abd 64d0 afb9
000000e0: b84a 383d bd48 ee3c 380b 77bc 789a d53d
000000f0: 454e 88bd 50c9 72bd e52e 3cba 2845 e83b
00000100: 040b b2bc 0fa7 3c3d a9dc 75bd ff48 953d
00000110: 8308 613d 3f5d 473d 69c2 6ebd 6d41 b7bc
00000120: eed5 cdbc 7608 813c 2581 d5bc 9e36 1e3d
00000130: 5737 8abd 92e5 9c3b 49e1 1d3d 0383 ab3d
00000140: 7ac8 153d 6e2b 573c eeb1 2dbc 0ae8 78bd
00000150: 40b9 113d a9ea 83bc 85d4 763d d762 df3c
00000160: 6e58 5f3d e6b2 26bd e280 4e3d 6a6a 24bd
00000170: c7bf 56bd 889f cebb e2a9 5f3a 8fe6 793d
00000180: 9cad c5bc 5edf ec3c 66f1 8dbd cc6e 833a
00000190: efc1 993c defc 003c d262 7f3d bc0c 8f3d
000001a0: ccf0 4a3c e3b7 8c3d f8a0 743c 03e9 25bd
000001b0: 66a7 47bd b4d7 a83c b087 e23c 5ab5 48bd
000001c0: a828 7cbc 538e 903d da27 a13d 1ac0 1f3d
000001d0: 1fb4 753c 179f 063d 2c71 3fbd aa3c febc
000001e0: 715c 29bd b7ac 69bc a745 29bc c2a4 33bd
000001f0: e98e 9b3d caa7 97bc 39f6 3abd 3588 d83c
-0.037486713 -0.039511543 0.071186446 -0.044880524 -0.03956551 0.03178834 0.048003737 0.024794383
0.0037833047 0.042271983 -0.029740667 0.053332344 -0.008727765 0.06335635 0.028991954 -0.028639043
0.0048178737 0.08456715 -0.0028295647 0.039209787 -0.056325044 0.06145399 -0.025978269 0.022370497
0.028754879 0.04265853 -0.028138986 -0.014960579 0.0034877758 0.058731932 0.041017298 -0.00934834
0.06712378 0.025202982 0.0421136 0.022264287 -0.030387871 0.03919021 -0.06142303 0.055510268
-0.0023609921 -0.02255312 -0.015122401 0.036152493 0.030496826 0.015872473 0.03829459 -0.042567015
0.02638406 0.027655773 0.06303978 -0.092128605 0.04218392 0.04635412 -0.0415794 -0.00033533864
0.044993132 0.029087419 -0.015078358 0.10429853 -0.06655554 -0.059274018 -0.00071786187 0.007088322
-0.021733768 0.046057757 -0.06002489 0.072893135 0.054939758 0.04867291 -0.058290873 -0.022370065
-0.025126424 0.015751105 -0.026062557 0.038626306 -0.067488365 0.004788109 0.038544927 0.08374598
0.036568142 0.013132913 -0.010601504 -0.060768165 0.03557706 -0.016103106 0.06026127 0.02726881
0.054527692 -0.040697955 0.05041588 -0.040140547 -0.052428987 -0.0063056387 0.00085320894 0.061010893
-0.024130635 0.028915104 -0.06930809 0.0010027527 0.018769233 0.007872788 0.0623501 0.06984851
0.012386512 0.06871011 0.014930956 -0.04050542 -0.048743628 0.020610668 0.027652591 -0.049001075
-0.015390553 0.07058396 0.07868929 0.03900156 0.0149965575 0.032866564 -0.04673879 -0.031034786
-0.041347925 -0.01426237 -0.010331548 -0.043858297 0.07595617 -0.018512625 -0.045644972 0.026432136

fc4.weight f4 [7, 128]
00000000: 432f 403f d10d 5abd 07d4 17be 7759 733d
00000010: 19b0 b43c 190b 36bd 7dc7 28be 5f8f 43bd
00000020: 6080 773c 9c25 38bd 2cd0 fd3d 57df 803d
00000030: 181e 923e 071d bdbd 676d ec3c 916f 023e
00000040: 0401 203d de06 8f3d 2c86 063b d60a 4dbc
00000050: ccf8 223d 1d07 853d 4565 323c de4f 2ebd
00000060: b0a7 b2bc 7edb 363e a5fb a3bd e297 813d
00000070: bd7d b6bd 0339 1bbf 5a7f 8bbd db9a 043c
00000080: 691f 5e3e 8cc4 cbbc 6942 1bc1 a475 c23c
00000090: 776c 22bd 41b1 8abe 311c e03c 5abf d73d
000000a0: fb45 2e3f 9ca4 84bd 6823 93bd bd49 fc3c
000000b0: 8483 4e3d b31c 6b3d 9578 20bf 29ba 3d3d
000000c0: c45e 1c3d 3d6a 7abd e6a7 96bc b87b 81bf
000000d0: 6e2f 97bd cd0f 97bc 76fa 0c3a 4ca4 8a3c
000000e0: b00f 88bd 210d 4839 32d3 62bd 1e87 9dbe
000000f0: 38e0 9cbd 61fc 373d 28dc e3be 3fbd 363b
00000100: db2e 7b3d 5819 8c3d e636 8bbd c6cd 313e
00000110: 8cc9 313e c7a5 0bbe 1bca d13a 0075 36bc
00000120: 5f79 30bd 740a 823d b422 35bc 4b18 ac3d
00000130: a771 71bc b705 fbbe 5b6e 89bd 9bc6 debc
00000140: 4991 213e 326b 023e 48f3 b9bf bc30 cf3c
00000150: d3a0 95bd 5b7a ca3c 289c 01be dc3b afbd
00000160: dfde 3bbe ad7b 27bd 1876 2c3d dc6e 2f3e
00000170: e0af a33c fcfc 75bb 2b51 1e3d 1914 f5bd
00000180: a4aa 7b3d fc57 85bd 9e76 573e 3ce4 e73d
00000190: 32dd 6f3f 432a a93b 685f 22be c84b 39bc
000001a0: bce5 b53c 4b84 acbc a073 88bd b454 0ebe
000001b0: 3ff8 b6bd f5cc eabc 4db2 8e3d c809 61bd
000001c0: 34a9 64bd 6a6a 1f3e a5b5 30bc 30e1 29bc
000001d0: 90a3 ef3b 09b0 2e3e d4cf 80bd 84ee 043d
000001e0: b0f3 613e 3413 acbb a1aa 8cbd efc5 febc
000001f0: 96f5 12be c577 a8bd 09d4 a63c 3eec a5bd
00000200: 9248 82bf be0d d13c 610d 543e 3515 88bd
00000210: 84b9 d4bc fcbf 813d 38bb 5dbd 9390 083e
00000220: f401 d03d 317c 06bb 8aec 9c3c 0421 9dbd
00000230: 4cf8 b0be d2d3 133e c2b2 4d3d bd31 1bbd
00000240: 720a 093e c0fd 213e abba 103e 3f27 1cbd
00000250: 5d18 16bd 2b41 6cbd 5243 80bd 8812 bb3b
00000260: b682 8cbd 6e0a 37bd b085 a93b f638 203b
00000270: f1b1 f23d 0fd4 3e3f 7c13 033e 1999 5a3d
00000280: a6cb 09be d2a0 143e 3a75 4d41 7fde b43d
00000290: 216e 993d b9b6 883e b015 843d 93fa 2cbb
000002a0: 74ab 6dbf 4818 993c 8d6b 14bd 468b 2abd
000002b0: 6e39 1dbd 61de 90bd 58c8 433f 107b fcbc
000002c0: c810 b2bd bde4 b43d efa4 543d 39e1 ad3f
000002d0: 90bf 013e 22e3 9c3d 1596 f0bb a3ec 30bc
000002e0: 39d5 393e e795 283c a0bc 59bc 2d57 703e
000002f0: b306 bebc bf56 c6bc df57 2d3f db32 9fbe
00000300: 9f4e 963c d682 423e 65d3 d33c d11d 84be
00000310: 7f20 42bd 8c5d 303e a2cf 363d cfa2 7dbd
00000320: 176f a73d 2909 1e3c f099 66bb c88f 8fbd
00000330: 0d78 8e3d 016f 213f 0e6d e23d 639b f33d
00000340: f1af 7fbd de8d 51bd 2598 e73f ba23 35bd
00000350: 9e53 5ebd fb1d 8ebd 879e 7b3e 359a d6bc
00000360: c0e6 5e3e ff49 1a3d aeab c33d c852 86bd
00000370: 2e4a 6fbd 62be 453e 7ba4 50bd f720 423e
00000380: 069b 7cbd ab10 20bd 86f2 d9bc f558 8fbd
00000390: bec3 7dbf 3480 a7bb 453e 073e 95d6 d43d
000003a0: 2cd3 1abd 54cd db3d 2501 483e 7b52 d23e
000003b0: 88b4 99bd bc3c 913b 4fae 813a 1007 eb3c
000003c0: 8591 be3b 4c7f 2f3d d912 f83d f3b7 81bd
000003d0: a303 ef3a 0327 3bbd 42a2 a83d e050 71bd
000003e0: bd07 99bd c6b3 6ebd c6d8 923c cabf 71bd
000003f0: 07b9 913e 4312 54bd 89d0 593d 07fb b73c
0.75072116 -0.053235833 -0.14826976 0.059411492 0.022056626 -0.044444177 -0.16482349 -0.04774415
0.015106291 -0.044957742 0.12393221 0.06292599 0.28538585 -0.09234052 0.02886076 0.12737872
0.03906347 0.06983732 0.002052675 -0.0125147905 0.039788052 0.064954974 0.010888402 -0.042556636
-0.021808475 0.17857167 -0.08006982 0.063277975 -0.089107014 -0.6063387 -0.068114 0.008093561
0.2169167 -0.024873994 -9.703713 0.023737736 -0.03965422 -0.2708836 0.027357193 0.10534544
0.6807553 -0.06476709 -0.071844876 0.03079688 0.05041839 0.057400417 -0.62683994 0.046320114
0.038176313 -0.061136473 -0.018390607 -1.0115881 -0.07382093 -0.018440152 0.0005377898 0.016924046
-0.06643617 0.00019078377 -0.055377193 -0.3076715 -0.07659954 0.04491842 -0.44503903 0.0027883796
0.06132398 0.068407714 -0.067975804 0.17363653 0.1736204 -0.13637458 0.0016005667 -0.011136293
-0.0430845 0.0634965 -0.011055637 0.08403071 -0.0147365695 -0.49027798 -0.06710502 -0.027194312
0.15778078 0.12736204 -1.4527369 0.025291793 -0.073060654 0.024716547 -0.12657225 -0.08556339
-0.18346737 -0.04088943 0.04210481 0.17132133 0.019981325 -0.0037534824 0.038651627 -0.11966724
0.061442032 -0.06510922 0.21041343 0.11322829 0.9369689 0.0051625087 -0.15856707 -0.011309572
0.022204272 -0.021059176 -0.06662679 -0.13899499 -0.08934068 -0.028662184 0.06967602 -0.05494097
-0.055825427 0.15567937 -0.010785495 -0.01036863 0.0073131993 0.1705934 -0.0628964 0.03245403
0.22065616 -0.0052513126 -0.068684824 -0.031100241 -0.14351496 -0.08225969 0.020364778 -0.081017
-1.0178397 0.025519248 0.20708229 -0.0664467 -0.025967367 0.06335446 -0.054133624 0.133364
0.101566225 -0.0020520801 0.01915576 -0.07672313 -0.34564435 0.14436272 0.050219305 -0.03788923
0.13382891 0.15819454 0.14133708 -0.038123365 -0.03664433 -0.057679337 -0.0626284 0.005708996
-0.06860869 -0.04468768 0.0051734075 0.0024448014 0.11850346 0.74542326 0.12800401 0.05336866
-0.13456592 0.14514473 12.84112 0.088315 0.074917085 0.26701906 0.06449449 -0.002639447
-0.9283974 0.018688336 -0.03623538 -0.041636728 -0.038384847 -0.070736654 0.76477575 -0.0308204
-0.08694607 0.08832691 0.051915105 1.3584358 0.12670732 0.0766051 -0.00734211 -0.010798606
0.18147744 0.010289646 -0.013289601 0.23470755 -0.023196554 -0.024211286 0.67712206 -0.31093487
0.018348036 0.18995222 0.025857637 -0.25803998 -0.047394272 0.17223185 0.044631608 -0.061922844
0.081754856 0.009645739 -0.0035186969 -0.07009846 0.069564916 0.63060004 0.11055957 0.11894872
-0.06242365 -0.051160686 1.8093306 -0.044223525 -0.054278962 -0.06939312 0.24572192 -0.026196579
0.21767712 0.037668224 0.0955423 -0.06558758 -0.058420353 0.19310907 -0.05093811 0.18957888
-0.06167128 -0.039078396 -0.026604902 -0.06999389 -0.99126804 -0.0051117186 0.13207348 0.10392491
-0.037799045 0.107325226 0.19531687 0.41078553 -0.07505137 0.004432289 0.0009893867 0.028689891
0.005815687 0.04284601 0.1211297 -0.06333914 0.0018235337 -0.0456915 0.08234073 -0.05891502
-0.07472179 -0.058276914 0.017925631 -0.059020795 0.28461477 -0.05177523 0.05317739 0.022458566

fc4.bias f4 [7]
00000000: e798 a23d a763 b63d 854a 30bd 5e95 4cbd
00000010: 0869 6ebd e575 b53c f7d2 a4bd
0.0793932 0.08905726 -0.043039817 -0.049947135 -0.058205634 0.022150943 -0.08048051
