models/imitation_model.pth (torch, 272544 bytes, 8 tensors)

fc1.weight f4 [128, 3]
00000000: 49d9 803e 8fb3 b63e a897 243d 7d9b 533f
00000010: 7310 553f 00d9 01bf 13a0 463e bdc0 87bf
00000020: 355f 143e cd41 ff3d cc98 ef3e 9d68 eabe
00000030: 6e93 abbd d63b dc3e b340 06bf cbe5 603d
00000040: d1a7 5b3d d11f 88be 6663 9dbe 6cca 0ebc
00000050: e3a7 f7be b23d b13d 078c 8fbe 926c b8be
00000060: 4018 df3e ddbd 52bf bb3f fcbe d231 703f
00000070: 2363 b63f d9cc 09bf 4400 83be 6f71 9c3e
00000080: cd9f b23d 36fc 8e3f a205 813d 0fa6 ebbc
00000090: c905 f5be edb5 bc3e 02c6 dfbe 1447 a7bc
000000a0: b87f 13bd 1b67 f43e 56e7 09bf d7ed 943e
000000b0: 8169 403e 2be5 9cbf 4f44 08bf 4238 863e
000000c0: 1ed1 b2be 3a15 e7bf 2e9d fbbb c7e1 793e
000000d0: 29f6 713e 3abc b2be ff27 2bbf ba28 e1be
000000e0: f81e dfbe e5de 71bf 3b56 48bf 88f1 edbe
000000f0: 6e39 83bf bc7e 163d adc9 9cbe 5ddc 693e
00000100: e402 403e bfcb 0fbd 7f35 0c3e 87a1 403d
00000110: b708 f93e 0643 67be 9ec6 f9bf af4a 0c3f
00000120: c581 8bbd 1ee3 1b3e 8f4b f0be 5846 853e
00000130: 2648 f8be ab09 263e 5e46 c4bd 56b6 bb3e
00000140: 06b2 82be 6ef5 92bf 2d5c d4be a992 7d3c
00000150: da02 35bd 3cf3 a33d 4a2f ff3d 7740 793e
00000160: be4c 89bf 67dc 143d d18e fd3e 8c74 1dbe
00000170: 8c11 29bf c088 bebe dc8d 8e3e 8455 aabe
00000180: 7dd1 8c3e f903 e73c 8ebf 6a3d d7e8 1c3f
00000190: 34c1 13bf 35aa 0f3d 0648 2f3d 896e af3e
000001a0: 6c6b c7be 185c 1e3d 7d8b 52be 310b 013f
000001b0: ca3c af3d ef43 283e 6d30 9dbe 5bd1 0abf
000001c0: 0c87 023f 1913 23be 2f17 1fbf f6b3 063d
000001d0: cef3 55be 424c 43be 36ca ddbd c5f7 2abe
000001e0: 623a f93e db71 c0be 5b18 3abf db69 0abf
000001f0: 0351 b9be f833 7a3e 15a0 95bf 6cc1 f6bb
00000200: 2bb1 ca3d e95e a43e 70c4 e73f 9eae 2f3f
00000210: b249 703f c6db 34bc 76c9 2bbf 0398 59be
00000220: 4207 ad3b 638d 033d 6500 42bf 3e68 fc3e
00000230: 3c0a 0e3f 8b26 0cbd 9d37 fbbd abe1 92bc
00000240: f091 e93e 44fd 8a3d 3d22 0bbf b03e 7c3f
00000250: 280f 82bd 187d 41bf b1af 94be ce0a c63e
00000260: 7bde f4be 1855 0f3f 4bab 233c 1bd5 afbe
00000270: 9a72 89be c106 06be 664d aebe 107e 9abf
00000280: d089 0c3f 355e b83e 817f a6bf 9bdf 6a3e
00000290: 81ec 1f3f 7f94 0bbf ea39 0abf e4a7 efbe
000002a0: 1ce9 e8be c5b9 45bf d690 8e3d fbba 64bf
000002b0: 0926 883c f144 8f3d 7082 9fbf c765 0b3f
000002c0: 8759 8c3e 3cd8 823e 42d4 13be 7d5a 49be
000002d0: 0be5 943e 6d96 293e 2b3b cabe 8d36 7f3f
000002e0: e876 21be 678c 6cbe 724a 1a3e 03c1 23bd
000002f0: d756 0bbe abd0 f2be 3746 0f3f 377e 253e
00000300: 3b67 113f be91 7c3e f92d 14bf e4a8 81bf
00000310: e8ac c03e 84dc 353e 3bf6 0c3f 7795 373d
00000320: d222 32be 8ebb 8a3f 6329 863a 34e4 2ebf
00000330: 4026 83bf c565 1abe c8b8 633e 8287 6c3f
00000340: 08ec 40be dcaf bebe d872 d4be 0182 003f
00000350: ad1c 083e 85ad 93bf ee10 f73e 61e1 013f
00000360: 652a f8bd e2ca 973d e070 dbbe bbee 243e
00000370: 2d38 35bc 1929 1cbe f046 d9be 7a4e 023f
00000380: cab4 a13e fc6d b0be 84bc 25be fa8f f2be
00000390: 50c8 663f 48ee 0b3e 35f3 e2be 8091 a43e
000003a0: 020b f4be 3843 c03d 3d2a 82be 5f48 ea3e
000003b0: f44a bbbe 4431 8dbe d6c2 e7bf 3bb9 19bf
000003c0: 8c37 8a3f 3124 c83d ef8a 99be 40be 01bf
000003d0: d1c5 b7be d2f9 803b 3c1c 103f 8a51 51be
000003e0: 7afb a53d 97b4 01bf e1c9 ba3c e3fb d8be
000003f0: e69d 21bf b613 d03b 682f b9be 7da1 2c3f
0.25165775 0.35683867 0.040183693 0.8265913 0.83228225 -0.5072174 0.19397001 -1.0605694
0.14489444 0.124637224 0.46796262 -0.4578294 -0.08377729 0.430144 -0.52442473 0.054906648
0.05362684 -0.26586774 -0.30739897 -0.008715253 -0.48370275 0.086543456 -0.2803652 -0.36020333
0.4357319 -0.8232096 -0.49267372 0.9382602 1.4249004 -0.538282 -0.2558614 0.30555293
0.08721886 1.1170719 0.062999025 -0.028765706 -0.47855976 0.36857548 -0.43705755 -0.020419635
-0.036010474 0.47734913 -0.53868616 0.29087707 0.18790247 -1.2257437 -0.5322923 0.26214796
-0.3492517 -1.8053353 -0.0076786494 0.24402533 0.23629059 -0.3490923 -0.66857904 -0.43976384
-0.43578315 -0.94480735 -0.7825658 -0.46473336 -1.0251901 0.036741957 -0.30622616 0.22837968
0.18751103 -0.035106417 0.13692282 0.047029044 0.4863946 -0.22584161 -1.9513738 0.5480146
-0.06811861 0.15223357 -0.46932647 0.2603023 -0.48492545 0.16214626 -0.09583734 0.3666255
-0.25526446 -1.1481149 -0.41476575 0.015476861 -0.044192173 0.08005378 0.124601915 0.24340998
-1.0726545 0.036343005 0.49523023 -0.1537649 -0.660424 -0.37213707 0.27842605 -0.33268368
0.27503577 0.028200136 0.057311587 0.61292785 -0.5771668 0.03507443 0.042793296 0.3426402
-0.38949144 0.038662046 -0.20561023 0.504077 0.085565165 0.16432165 -0.30701008 -0.542257
0.50987315 -0.15925254 -0.6214475 0.032886468 -0.20893785 -0.19072059 -0.10829584 -0.16696079
0.48677355 -0.37586865 -0.72693413 -0.5406777 -0.3619462 0.24433887 -1.1689478 -0.007530382
0.09897073 0.3210366 1.8106823 0.6862582 0.9386245 -0.011038726 -0.6710428 -0.21249394
0.005280406 0.03211726 -0.7578185 0.4929828 0.55484366 -0.034216445 -0.12266467 -0.017929872
0.45619154 0.06786588 -0.5434912 0.98533154 -0.06350547 -0.755815 -0.29040292 0.38680118
-0.4782599 0.5598922 0.00998957 -0.34342274 -0.26845247 -0.13088514 -0.34043425 -1.2069721
0.54897785 0.36009374 -1.3007661 0.22936861 0.6247025 -0.5452346 -0.5399462 -0.46807778
-0.45490348 -0.77236587 0.06961219 -0.8934781 0.0166197 0.069955714 -1.2461681 0.54452175
0.27412054 0.255556 -0.14436439 -0.19663425 0.29080996 0.16561289 -0.39498267 0.9969261
-0.15768015 -0.23100434 0.15067461 -0.039978992 -0.13607346 -0.47424826 0.55966514 0.16161428
0.5679814 0.24664971 -0.5788265 -1.0129666 0.37631917 0.17759901 0.5506322 0.044820275
-0.17396095 1.0838487 0.0010235723 -0.6831696 -1.0246048 -0.15077884 0.22238457 0.9239427
-0.18840039 -0.37243545 -0.4149387 0.5019837 0.13292189 -1.1537329 0.48255104 0.50734526
-0.12117461 0.07411744 -0.42859554 0.16106693 -0.011060757 -0.15250053 -0.42436934 0.50900996
0.31583244 -0.3445891 -0.16185194 -0.4737547 0.901494 0.13665116 -0.44326177 0.32142258
-0.47664648 0.09387821 -0.2542285 0.4575834 -0.36580622 -0.2757665 -1.8106334 -0.60048264
1.0798202 0.09772528 -0.2998881 -0.50680923 -0.3589311 0.003936031 0.5629308 -0.20441261
0.08104606 -0.50666183 0.022801341 -0.42379674 -0.6313156 0.006350006 -0.3616898 0.6743391

fc1.bias f4 [128]
00000000: dd25 d0be 9ee5 32be 2f6c 5abe fce6 3cbe
00000010: 5d64 473e e4e6 e33d b3cf c83e b96c 5a3d
00000020: 6481 84bc 00df 7cbe f7e9 f2be e017 b0be
00000030: 73b5 15bd 2a4e f8be ed04 65be 6622 043f
00000040: 1737 d0be c282 38bd bdea f33e 02a1 e23e
00000050: 716d 153f 8832 30be 213a dbbe 8abe 433e
00000060: c8a8 c8be b035 7cbe e6c0 19bd 574d 163f
00000070: fdcc 0fbf beb0 b23d b942 e23d 8fa5 043e
00000080: 1fc8 3cbe 11a6 63be cb38 12bd cade c5be
00000090: de56 8b3d 21ef bbbe c8e8 983e f016 d5bd
000000a0: c30e 0b3e feb9 97bd 4915 e23e c225 82bd
000000b0: 6308 953d 8fee b73c 7ec7 da3d b6be 0dbd
000000c0: dc32 fdbd 53be ba3d 6a82 393e 673d 5ebd
000000d0: afd9 03bf 70a3 893d 190c e43d 7e4b 02be
000000e0: 5ddf de3e 4fde 933e 9081 253e 7116 0fbd
000000f0: 7359 d23c ddff 4bbe d808 7ebc 6e3b 7cbe
00000100: fb81 ab3d b5bf cb3e 0c8c b6be 581d cf3c
00000110: c350 373e c1a6 26be f747 2cbe 7383 903e
00000120: 5a2a 06bd b127 cfbd 4ae2 7f3d e637 393d
00000130: 6e4d efbc 7262 02bf 3519 b5be 5bad 973e
00000140: 2ecc 24be 972e 6d3d 78e9 78be 28e1 6e3d
00000150: 84f9 db3e 157b 6ebd 84be 08be c8bc 153f
00000160: f788 873e 516f 2e3e 49dd 163e e45c 30be
00000170: 7381 5dbe ab17 34be b93e 71be cdae d7bc
00000180: a099 c5be 41ec 06bf 19aa 303d 23fc 603e
00000190: 4d5b a03d c4dd 63be a924 b03d 8295 a83e
000001a0: 43d4 f0bd 81fb e8be 29fe 063f 430c b1bd
000001b0: e8ae c03c 1f64 31bf a78e f4be ebe6 91be
000001c0: e021 843e 3714 f1be 8c89 613e 6248 e83e
000001d0: 86ee 88be 5367 4cbe 0f79 9dbe 84a5 06bf
000001e0: 1a57 ad3e 37d9 dd3d 05f5 0cbe ccfa 3fbe
000001f0: 9e3f d9be cde5 9b3d dc51 a0bb 789d f23d
-0.40653887 -0.17470405 -0.21330331 -0.18447489 0.1947188 0.11128023 0.39220962 0.053326342
-0.01617498 -0.24694443 -0.47444126 -0.34393215 -0.036549997 -0.48497134 -0.2236516 0.5161499
-0.4066703 -0.045046575 0.4764003 0.44263464 0.5837012 -0.17206776 -0.42817786 0.19115654
-0.3919127 -0.24629855 -0.037537478 0.5871176 -0.5617216 0.08725117 0.110478826 0.1295378
-0.18435715 -0.22231318 -0.035698693 -0.38646537 0.06803678 -0.36705878 0.29865098 -0.104047656
0.1357985 -0.07408522 0.44156864 -0.06354858 0.0727699 0.02245262 0.10682581 -0.034605704
-0.12363216 0.09118333 0.18116155 -0.054257777 -0.51504034 0.06720626 0.1113512 -0.1272411
0.43529788 0.28880545 0.16162705 -0.03493351 0.025677418 -0.19921823 -0.015505038 -0.24632046
0.08374401 0.39794698 -0.35653722 0.025282547 0.17901902 -0.16274549 -0.16824327 0.28225288
-0.032755233 -0.101149924 0.062471665 0.045219325 -0.029211726 -0.50931466 -0.35370794 0.29624447
-0.16093513 0.05790576 -0.24307811 0.058320194 0.42963803 -0.05822285 -0.13353926 0.5849118
0.26471683 0.17034651 0.14732851 -0.17222935 -0.21631412 -0.17587154 -0.23559083 -0.026328469
-0.3859377 -0.52704245 0.043130968 0.21971183 0.07829914 -0.22252566 0.08600742 0.32926565
-0.11759236 -0.45504382 0.5273157 -0.08644917 0.023520902 -0.692934 -0.47765085 -0.2849649
0.25807095 -0.47085735 0.22025126 0.45367724 -0.2674448 -0.1996129 -0.30756423 -0.52596307
0.33855516 0.10832446 -0.13765343 -0.18748015 -0.4243135 0.076121904 -0.004892571 0.11846441

fc2.weight f4 [256, 128]
00000000: e2ed 593d e5ed 9cbd 7d43 a63d 54af 9bbd
00000010: a785 8f3d 5ee3 433d b84b c03d 5c8e 8e3d
00000020: 77f6 0a3e bc72 8d3c c4a2 7fbd 7056 4abc
00000030: 1fba 273d ef95 343d 5110 4abd a3e4 ca3d
00000040: 7ed4 043e 88f3 9a3d 15ab 443d 4eea 4bbc
00000050: 4064 81be 2853 d1bd 37e5 07bd f24e 4abf
00000060: 04c4 34bd dbce ae3c 6007 7dbc 9ada dfbc
00000070: 5ae3 9f3d 8219 9e3d f479 653d d2c8 9cbd
00000080: a193 bfbd 5947 bf3d 3602 7cbd 59ab 913d
00000090: 6382 213c 99d5 183d f08a debc 51a9 a73d
000000a0: 472d cc3d 5b49 673d 1497 a3bd 023a f93a
000000b0: 9c02 36bd 4f2a 8a3d f7eb 0dbe 3ace cdbc
000000c0: c616 54bd 8e92 2a3d 6421 0f3b a7c8 6e3b
000000d0: 23ba 4ebd 1b06 77be 1030 4bbe 3ae7 efbc
000000e0: 57aa 08bd 0caa d93c 4d5d 45be 8c2b bbbc
000000f0: da6b ecbc 8820 4e3d 1812 223d 273f a03b
00000100: d92a 6a3d 8c8d e03c ab67 31bd 5bf8 44bd
00000110: da5b 733d 57f6 99ba 4be4 44bd 9ab1 c3bd
00000120: b1fd 903c f07e 823d 2533 b8bc 9ec1 993d
00000130: d327 b53c 942d 9d3d 19ae 013d cec4 863c
00000140: 1c81 aebd 06b5 a83d dae3 4e3d f3d7 343d
00000150: 56c4 9a3d 7026 12bd ed19 963d 7201 d5bd
00000160: 6212 b5ba e17c 883d 81af 513e ecba 313e
00000170: 1c7d 42bc 994f 5cbd 0177 593c 263b 2e3d
00000180: a854 da3c 32b9 8c3d ada2 893c 2cce a9bd
00000190: 358b 603d 228b a4bb c2e6 cb3d c8f4 f13d
000001a0: 338a 6c3d cdbc 7a3d 8123 053c 3f3a b53d
000001b0: d7c1 453e 42e5 38be 51d6 2d3d ebc4 39bd
000001c0: 47a5 29bd fd72 a9bd 4bed 93bd 2ca8 0c3d
000001d0: 3b9a 173d 2037 e1bd faa9 213d da6f e43a
000001e0: 0d76 68ba ede9 d53d 5437 80bd 16d9 ef3c
000001f0: 0f14 27bd 2533 5abd 7b4f 9bbd 32b6 8b3d
00000200: 3996 a33b e7e3 313f 46ba bd3e 5898 0ebd
00000210: be82 c9bd c5c4 fb3c ed99 3cbe a80b 2d3e
00000220: 4940 233f 8981 4b3f 6b93 403d 19b0 4f3f
00000230: 0de4 aebd 51cc a3bd f082 b7bc 511d 51bf
00000240: 028f 7a3f cadc cfbc 1d69 ddbe 76bd 8d3d
00000250: 240f a8c0 7bfd 5e3d a1d0 86bc eb6a 323f
00000260: 3174 1d3d 2295 c73d cd90 f2bd 2dc1 4e3e
00000270: 6981 d53c 9051 fb3e 0a9c 363e e33b 5c3d
00000280: 2aa9 2f3f 5bc6 0e3f b704 b0bd 51ea 87bc
00000290: 0dc9 a03d 42e7 2c3d 410c a3bd 9fde 493d
000002a0: b4be e33e 2ef8 6f3d 2e1b c0bf 7dc3 d1bd
000002b0: d315 5b3f dc22 8abd c555 f4be affb 59bd
000002c0: 8de5 643d 7838 0e3f 2e55 4d3d 200f 8a3d
000002d0: 8135 53bd 496a afbf bb9b ecc0 93bc 6ebd
000002e0: 1e48 90be 2649 a5bf f83b a6bf ae18 d53c
000002f0: d3a8 ec3b 2b64 8f3f 4d7d c3bb 945a 243c
00000300: 9569 df3d 3d85 8abe 3879 5e3d a6bf 813f
00000310: 4e73 32bf 8725 2b3f b27b e4bb 1273 f7be
00000320: e654 a93d f476 c43d 2f9d 20be d458 48bd
00000330: 26a9 823e 3ca0 4fbd ac3c 54bc 21d1 673f
00000340: d21e 453f ddd7 ce3d e70c 0a3e eaf7 383d
00000350: f0a5 95be 492e ff3d d474 62bc cd70 53bf
00000360: 4f47 853d 5827 b7bc d2c9 823f a47d b13f
00000370: 99df 6a3d 2e6c bd3e f645 8fbd 0478 633f
00000380: 9b79 08bd bba2 383b 2b27 463f 8d83 553d
00000390: 343e 463c 6ab2 723d d8ac ca3e c125 2cbe
000003a0: 9485 bebd c516 703d 4da1 4bbc b282 4c3f
000003b0: 896c 6f3f 6065 393f 5bfd 4c3d 8fbd 8bbd
000003c0: 65bc bdbe a0ef a4bd 45e8 3cbe 7a6d 5dbf
000003d0: 8391 393c f3e3 c83e d2ae 8fbd 382b 983c
000003e0: 9955 b3bd 769e 263f ed22 08bd 38f7 d73c
000003f0: 99ee a23d a97d bebd 9085 02bd 775f 1fbe
0.05320538 -0.07662562 0.08118341 -0.076018006 0.07007914 0.047824256 0.09389442 0.06960747
0.13570581 0.017266624 -0.062411085 -0.01234971 0.040948983 0.0440883 -0.049331967 0.0990689
0.12971684 0.07565981 0.04801472 -0.012445999 -0.25271797 -0.10220939 -0.03317758 -0.7902671
-0.044132248 0.02133887 -0.015443653 -0.027325917 0.07807036 0.07719709 0.056024507 -0.07655491
-0.0935433 0.0933978 -0.061525546 0.0711276 0.009857747 0.037313078 -0.02716586 0.081865914
0.099695735 0.05646644 -0.079878 0.001901448 -0.044436082 0.06746351 -0.13859545 -0.02512275
-0.05177953 0.04164367 0.002183997 0.0036435516 -0.050470483 -0.24123423 -0.19842553 -0.029285062
-0.033365574 0.026570342 -0.19273873 -0.022847913 -0.028860021 0.050323993 0.039568037 0.004890341
0.05716977 0.027411245 -0.043311756 -0.048088413 0.05941377 -0.0011746389 -0.04806928 -0.09555359
0.017699094 0.06371868 -0.022485325 0.07507633 0.022113716 0.07674709 0.031660173 0.016451266
-0.085207194 0.082376525 0.050510265 0.044151258 0.07556979 -0.035681188 0.07329164 -0.10400666
-0.0013814683 0.06664444 0.20477106 0.17356461 -0.011870649 -0.053786848 0.013273002 0.042536877
0.026651695 0.06871261 0.016801203 -0.08291277 0.05482026 -0.0050214687 0.09956123 0.118142664
0.057748985 0.06121521 0.008126141 0.08849 0.19312225 -0.18056205 0.042440716 -0.04535381
-0.041417386 -0.082738854 -0.072229944 0.03434007 0.03701232 -0.109968424 0.039468743 0.0017428354
-0.00088676886 0.104450084 -0.06260553 0.02927832 -0.040790614 -0.05327143 -0.07583519 0.068218604
0.004992273 0.69488376 0.37056178 -0.034813255 -0.0983939 0.030733475 -0.18418093 0.16898978
0.63769966 0.7949453 0.04701559 0.8112808 -0.08539591 -0.07997955 -0.022401303 -0.8168536
0.9787446 -0.025373835 -0.43244258 0.069209024 -5.251848 0.054440957 -0.016456904 0.69694394
0.038440887 0.09745242 -0.11844025 0.20190878 0.026062684 0.49085665 0.17832962 0.05376805
0.686175 0.55771416 -0.08594649 -0.016591223 0.078508474 0.042212732 -0.079613216 0.049284574
0.44481432 0.058586292 -1.5008295 -0.102423646 0.85580176 -0.0674493 -0.47721687 -0.05321854
0.05588298 0.55554914 0.05013006 0.06741166 -0.051564697 -1.3704311 -7.39401 -0.058285307
-0.2818002 -1.2912948 -1.2987051 0.026012745 0.007222274 1.1202444 -0.0059658648 0.010031361
0.1090881 -0.27054778 0.054314822 1.0136611 -0.6970719 0.6685414 -0.0069727534 -0.4832998
0.08268146 0.09593001 -0.15684961 -0.048912838 0.25519675 -0.05068992 -0.012953918 0.9055348
0.77000153 0.100997664 0.13481484 0.045158304 -0.29228163 0.1246 -0.013821799 -0.82593995
0.06507742 -0.022357628 1.0217841 1.3866467 0.057342146 0.36996597 -0.06995766 0.88855004
-0.033319097 0.0028173167 0.77403516 0.05212741 0.012099791 0.05925218 0.39584994 -0.16811277
-0.09302822 0.058615465 -0.012428594 0.79886925 0.93524987 0.7242031 0.050046306 -0.06823265
-0.37057796 -0.08053517 -0.18447979 -0.8649517 0.011326197 0.3923641 -0.07015766 0.018575296
-0.08756561 0.6508554 -0.033236433 0.026363 0.07955665 -0.093013115 -0.031865656 -0.1556376

fc2.bias f4 [256]
00000000: b41a 453c e5de fdbd 81a6 f0bd 158f 4bbe
00000010: 0582 d6bd efa2 23be 7e25 55bd 3927 ca3c
00000020: 72e6 57ba bf6c a23c 5db8 8ebd d1cc 323d
00000030: a0a1 a7bd f69b 8ebd f987 fabc 6d39 acbe
00000040: 974b 0ebe ccfa 653d 027f 30be 9417 45be
00000050: df11 a2bd 3c4a 8abd 4d2e 90bd 6047 39bd
00000060: 7210 54be 0b49 7dbc b1b1 84bd 9b74 84bd
00000070: 1d6a 033d 4aea 98ba 777a 6c3d aa66 95bd
00000080: bab2 27be 6f39 89bd 6204 1fbe 9561 23bb
00000090: d85f c13a 2b2f 80be 77a1 333d e27c 063c
000000a0: d8c6 09be d9fd c0bc f1d2 97be ca3b f83d
000000b0: cb88 823e 2dba 9abe b74e 28be cb18 693e
000000c0: e6fa cebd 9753 4ebe 5b2d 4e3e 0eb4 4a3d
000000d0: 37ff 82be 8b83 073c 4e93 9cbe 5de9 afbd
000000e0: 38aa 92be e22f 6dbe 58c4 dc3d 22e0 66be
000000f0: 6758 90bd 70b3 063e 9dd1 dabc 55e4 1abd
00000100: a9fa a1bd 9031 d3bd a0c0 32bd 96d4 6fbd
00000110: 025d 02bd 9733 023c a31e 2d3e 4e4f 87bb
00000120: 30d5 86be 503a cabe fea4 74be 47e5 c93c
00000130: 43cc dcbc 9f24 bdbd e7ed a4bd 0c0a a6be
00000140: 4ad2 9abe cc1b 28be 0125 1fbe 1675 0abe
00000150: afa6 a7bd 0bce 8dbe df41 3ebd 26be 1cbd
00000160: 81df eabb 66a2 abbd 8b7d 90be 6e1c f83c
00000170: 67da cc3a 10cd ac3d 0444 a2be aa6d 583b
00000180: cc01 80bd 6aab 04bf 2cf6 8cbe ba4c e6bd
00000190: 7a57 a3be ec1e 82bd 9f7e 01bd 517c 67be
000001a0: 8b86 71bd d222 75be 7813 0cbe cb0f d6bb
000001b0: 47a6 e1bd 225a 663e 7bb2 92be 569c 62bd
000001c0: f0cf b7be f79d 3abe e7cb 72be b3b6 7cbe
000001d0: 09d2 9dbb ef1f 943c fdf1 72bd 7fb6 82bd
000001e0: 157d b03d 84a6 f5bd a66a fbbc ff01 dabd
000001f0: 7c42 46be 8b71 79bd 503f 353d dfb2 a2be
00000200: f5a7 943b 4e03 3fbd bf0a 80bc 9b2d 873c
00000210: fd03 83be 564a 65ba 152f 10bd 2dcd a13c
00000220: a849 13be 9147 40be 4c1a e03b 03f8 ff3d
00000230: 5457 50bd 9122 f1bc f20d 6ebd e6f6 5fbd
00000240: 78fc 30bd ad47 96be f577 cfbd b965 6fbd
00000250: 8e94 9cbd fa03 28be c2ac 8fbd f8f1 4dbe
00000260: 45b8 91be 78c3 93bd 93af 99bd 96c7 84bd
00000270: 55dc bdbd ed98 623c 57c7 89be a158 1ebd
00000280: 0c41 edb9 ebe3 27bd 04d7 b2bd 65fd 85bc
00000290: 044e 313e eb92 0bbe 2c8e 0c3e 83a0 2e3d
000002a0: 6aa0 6ebe 728a c1be e4d7 acbe ae08 4fbe
000002b0: 8a2e 2ebe 7ee3 eebd 62e0 4abd 344a acbd
000002c0: 9738 57bd 18ba 67bd 2f14 ff3a 99ea 78bd
000002d0: 45b3 babd 9d44 c3bd 323c e53c 2209 973c
000002e0: 1af2 a3bd 55fa 863c 7907 77bd 3021 45be
000002f0: 2b51 5ebd 7aef 08bc 4b75 32bc 266c 27bc
00000300: d6ac 063e ab1b 243c aca6 12bf bc44 9dbd
00000310: cb32 9cbe ac87 6f3c b58c 35be 7255 c2bc
00000320: 48c5 1dbc d68d febd c39b 7bbd 98da c03c
00000330: c1c4 143d 2713 a0bd 889c c7bd 798b 38bc
00000340: 75f1 19bd be02 463e 9393 56bc 1f5d 6a3e
00000350: 7398 91be a5f3 0fbf ad0e 13bb e10a c13c
00000360: 6117 66bd 755f 5abd a726 4cbe 4d38 98be
00000370: fbb3 3e3d 2650 bdbc e615 683d 3a50 bcbc
00000380: 6a00 43be b148 89bd e646 ecbe b8c8 123e
00000390: fe15 753e 3f6e f4bd 0987 8f3e d439 b4bd
000003a0: d3a4 23bc 3459 23bc c46c a3bd ab02 6cbd
000003b0: b19e 063d 5194 a9bd a8a8 ab3b 32ad 563e
000003c0: 11d1 8f3e d54c ec3c 6ba8 e83d d38d e9bd
000003d0: e869 0bbe b81b cabd b0d5 97bd 65ec 9bbe
000003e0: f619 ccbe e47e 82be 27fe 65bd 7f76 87bc
000003f0: 94ce 83bd 05f0 b53c 94c1 05bd 8e93 63be
0.012030292 -0.123960294 -0.11750508 -0.198788 -0.10474018 -0.15980123 -0.05203771 0.024676906
-0.0008235938 0.019827245 -0.06968758 0.04365236 -0.081851244 -0.06963341 -0.030582415 -0.33637562
-0.13896023 0.05614738 -0.1723595 -0.19247276 -0.07913565 -0.0675244 -0.07040081 -0.045234084
-0.20709398 -0.015459309 -0.064792044 -0.06467553 0.03208362 -0.0011666503 0.05773398 -0.07294972
-0.16376773 -0.06700408 -0.15529016 -0.002492999 0.0014753295 -0.25035986 0.043855157 0.008208485
-0.13454759 -0.023558544 -0.29653123 0.12120779 0.2549499 -0.30220166 -0.16436277 0.22763364
-0.10106449 -0.20149074 0.20134489 0.04948812 -0.25585338 0.008271108 -0.30581135 -0.085894324
-0.28645492 -0.23162797 0.10779637 -0.22546437 -0.070481114 0.13154387 -0.02671128 -0.03781541
-0.07909138 -0.10312188 -0.043640733 -0.058552347 -0.03182698 0.00794687 0.16906218 -0.004129327
-0.26334524 -0.39497614 -0.23891065 0.02464546 -0.026952868 -0.092355005 -0.08053189 -0.3242954
-0.30238563 -0.16416854 -0.1554146 -0.13521227 -0.08186089 -0.2769626 -0.04644954 -0.038267277
-0.007167757 -0.083805844 -0.28220782 0.030286994 0.0015629054 0.0843755 -0.31692517 0.003302435
-0.06250343 -0.5182406 -0.27531564 -0.11245103 -0.31902677 -0.06353554 -0.031614896 -0.22606017
-0.0589662 -0.23939064 -0.13679302 -0.0065326444 -0.11018043 0.2249532 -0.28651795 -0.055324875
-0.3590083 -0.18224321 -0.23710595 -0.24679069 -0.004816298 0.018081633 -0.05931281 -0.063824646
0.086176075 -0.11994651 -0.030690502 -0.10644912 -0.193613 -0.0608993 0.044249833 -0.31777093
0.0045366236 -0.04663401 -0.015630124 0.016501239 -0.2558898 -0.00087467337 -0.03520115 0.019751156
-0.14383566 -0.187773 0.0068390723 0.12498476 -0.050864533 -0.029435428 -0.058118768 -0.05467882
-0.043209523 -0.2935156 -0.10130302 -0.05844662 -0.07645522 -0.16407767 -0.07015373 -0.20111835
-0.284609 -0.07215017 -0.07504191 -0.064833805 -0.092705406 0.013830406 -0.26909897 -0.03865874
-0.00045252626 -0.040988844 -0.08732417 -0.01635618 0.17314917 -0.13630264 0.1372611 0.042633545
-0.2330338 -0.37800938 -0.3375846 -0.20218155 -0.1700994 -0.116644844 -0.049530394 -0.084125906
-0.052544203 -0.056573957 0.0019460971 -0.060770605 -0.09116224 -0.09534571 0.027982805 0.018436972
-0.080051616 0.01647679 -0.06030986 -0.19250941 -0.054276627 -0.008357877 -0.010892223 -0.010218656
0.13151869 0.010016362 -0.5728557 -0.07679126 -0.30507502 0.014619749 -0.17729457 -0.023722384
-0.009629555 -0.12429397 -0.061427843 0.023541734 0.03632045 -0.07816153 -0.09746653 -0.011263722
-0.037583787 0.19336984 -0.013096708 0.22887085 -0.28436622 -0.5623115 -0.0022439167 0.023564758
-0.05617464 -0.05331369 -0.1993662 -0.29730454 0.04655836 -0.023109507 0.05666151 -0.022987474
-0.19043127 -0.06703318 -0.4614784 0.1433438 0.2393417 -0.1193509 0.2803271 -0.08800092
-0.009988028 -0.009969998 -0.0797973 -0.057619732 0.032866184 -0.08280242 0.0052386113 0.20964506
0.28089193 0.02884523 0.11360248 -0.11404004 -0.13614619 -0.09868568 -0.074138045 -0.30453792
-0.39863557 -0.25487435 -0.05615058 -0.016535996 -0.06435886 0.022209177 -0.032655314 -0.22224256

fc3.weight f4 [128, 256]
00000000: d55f 86bd 62f1 c3bd 9f86 b4bb 149b 5cbd
00000010: 877a cebd 0014 1739 55a0 1fbd 98d6 443d
00000020: 2b22 09bd 6400 2cbd e203 0fbd 8c72 4dbd
00000030: 4033 463d 4c1c ffbc 9b32 e9bd 9002 9bbb
00000040: c199 bebd 4c36 30bd 98ef 0a3c d0e8 823c
00000050: 16b3 323d d68d 37bd 3c0d 473d c554 c1bd
00000060: 8161 e7bd a749 b9bd 4aea f0bd eebc 2a3d
00000070: 054c 63bc 1b0a 9cbd f114 dabd ab0a edbd
00000080: ea5d 1b3d 44f2 0b3d 1855 48bd 9b14 74bc
00000090: eb68 edbd 14bb bdbc eb55 98bd a487 fabd
000000a0: 10e4 e3bc f7e6 92bd 0cb4 053d ff02 6ebc
000000b0: 33e6 f9bc 24ea 2cbd b4ec 87bc 0e05 5bbd
000000c0: ea2b 18bc 3e0d 6cbd a528 52bd f0ce b3bd
000000d0: 1067 a9bd 088f ebbd 2c26 70bd 6454 f83c
000000e0: 23ff 9cbd 9c0f 373d 6948 89bd 0192 b4bd
000000f0: 5018 d7bb 72c5 86bc e325 b2bd fa8a 3e3a
00000100: 79d4 d4bd 7bd4 4dbb c43d c1bc 7efd 34bc
00000110: 7de0 27bd 7455 78bd 1483 e23c f8e7 71bd
00000120: 4a2e 42bd 6094 673b a0e0 e6bb db52 b2bd
00000130: 84fc 8fbc ec89 82bd 0b59 70bd 38a7 1e3d
00000140: 0093 b0ba f124 56bd 8512 f7bd ae58 7a3d
00000150: 06c1 44bd c0e5 f5bc 0f6f eebd 5c20 61bd
00000160: 8228 e1bd d444 9a3c e41e 55bd 7007 f0bd
00000170: 9c6c 8fbc ab1d 98bd ba5f 7c3d 94b7 dcbd
00000180: fdf4 87bc 89de 083b 2065 a83b f055 96bc
00000190: 067b 10bd 6451 57bd 16b1 743d b078 7d3d
000001a0: 00c8 cdb9 d8c5 563d bcd0 9abb b263 ccbd
000001b0: b0f5 58bd 24d7 d6bd dc7b cbbc 891a 67bd
000001c0: 1e93 39bd acc7 73bd a0de db3b 3ef9 293d
000001d0: dbca 38bd 2c36 83bd 4891 23bd e8c7 cc3c
000001e0: 8ddb 81bd 31b1 e5bc b83f dfbc af9c c6bd
000001f0: dcca 923c dcf8 f2bc 5579 3dbd 06f3 533d
00000200: 7e7e 4c3d ecbc d7bc 8944 78bd 6447 d8bc
00000210: 12d8 24bd 020f 4fbd 61f8 bcbd 1c59 70bd
00000220: ac89 95bc 8e2f 0bbd 9a9a 0fbd 5e17 78bd
00000230: 38c7 b8bc 77bc 62bd a2e2 3d3d 7d67 bebd
00000240: 10d9 033d ec73 55bd a5f9 7dbc 4757 b4bd
00000250: 5c34 e2bd 2aee 683d 5286 563d 4c88 c93c
00000260: 1cbe 403d 15e9 72bd 76ba 2c3d 6dcd d5bd
00000270: 69fa 0dbc e956 10bd ac7a f2bc 2bcc c6bd
00000280: 7f92 7abd da74 7abd 63f5 d7bb 6f92 4fbd
00000290: 1498 8dbd dd11 6abd e5a0 e4bd 9778 bebd
000002a0: cc6d 333d a0ce 463c 2832 2ebc a250 35bd
000002b0: 749b acbc 6c5b 17bd dc41 bfbc 72bf 0fbc
000002c0: 56c7 c4bd a40a 7fbd 4551 09bd 713e f4bd
000002d0: 5400 b43c d83f 6c3d b9ac b2bd 2d69 9ebd
000002e0: c047 f9bb 4b27 ccbc 2858 97bc 24af e93c
000002f0: de99 0abd 3437 9cbd 9b02 89bd f613 65bc
00000300: 26c6 4dbd 51a3 b2bd a06f 3d3c 7e15 c9bd
00000310: 5e57 e4bc 6ef4 d7bd 8079 56ba ddcb 1abd
00000320: ed6b e0bd 0387 f9bd 929c 43bd 93ab 69bc
00000330: 3b4d 4ebd 80c4 ad3b e67e 44bd eb2f dabd
00000340: 8a77 57bd c9fb 0dbd bfec f1bd dc15 c7bd
00000350: b8c5 fc3c 9a3c 2c3d b97d 91bc 1bb7 9ebd
00000360: 3f8c 41bc 577d b7bd 4eab 7a3d 5845 e7bc
00000370: 0a3c acbd 806b 823a 8467 abbc 7e1c 68bd
00000380: a382 f2bd 0066 76b9 3831 163c eed6 b3bd
00000390: 9e40 303d 7479 0cbd 0ef4 5fbd f0d6 863c
000003a0: a2ee b3bd 8b8b 6abd 70b2 b03b 6f8c babd
000003b0: 9625 a9bd 7aeb 67bd de41 07bc 1dde 4bbd
000003c0: 10a2 90bd 2ae6 ffbc b4cd 8abd 7317 2cbd
000003d0: 62c9 a8bd a5d1 92bd 81c5 f6bc 9077 adbc
000003e0: f0d0 f8bb ce45 73bd 7c6b f4bc dc36 72bd
000003f0: 348b d8bc 9c30 92bb 9e1f 7bbd f8ad 81bd
-0.06561247 -0.095675245 -0.005509212 -0.05385883 -0.10081964 0.00014407933 -0.038971264 0.048056215
-0.03347985 -0.04199256 -0.034915812 -0.05015807 0.04838872 -0.031141423 -0.11386605 -0.00473053
-0.0930667 -0.04302053 0.008479975 0.015980154 0.04362782 -0.044813 0.048596606 -0.09439997
-0.11297894 -0.09047251 -0.11763437 0.041684084 -0.013873105 -0.07619115 -0.106485255 -0.115743004
0.03793136 0.03416659 -0.048909277 -0.014897491 -0.11592277 -0.023160495 -0.074382626 -0.12232903
-0.02781871 -0.07172959 0.03264241 -0.0145270815 -0.030505275 -0.04221548 -0.016592361 -0.053471617
-0.009287814 -0.057629816 -0.051308293 -0.087797046 -0.08271611 -0.115018904 -0.058630154 0.030313678
-0.07665851 0.04469262 -0.06703264 -0.088169105 -0.0065641776 -0.016451571 -0.086986326 0.0007268634
-0.103920884 -0.0031407166 -0.023589022 -0.011046765 -0.040985573 -0.06062837 0.027650394 -0.059059113
-0.047407426 0.003533624 -0.0070458204 -0.0870721 -0.017576464 -0.06373963 -0.058678668 0.03873369
-0.0013471544 -0.052281324 -0.12064079 0.061119728 -0.048035644 -0.03001678 -0.116422765 -0.0549625
-0.109940544 0.018831648 -0.052031413 -0.117201686 -0.017507844 -0.07427534 0.06161473 -0.10777202
-0.016596312 0.0020884594 0.005139008 -0.018351525 -0.035273574 -0.052567855 0.059739195 0.061882675
-0.0003924966 0.052434772 -0.00472459 -0.09979953 -0.05296868 -0.104902536 -0.024839334 -0.05642179
-0.045306318 -0.059516594 0.0067098886 0.04149746 -0.045115333 -0.06406817 -0.039933473 0.024997666
-0.06340704 -0.028038593 -0.027252063 -0.09697854 0.017918997 -0.029659681 -0.04625829 0.051745437
0.04992532 -0.026335202 -0.060612235 -0.02640123 -0.040245123 -0.050551422 -0.09227062 -0.05867873
-0.018254124 -0.0339809 -0.03505955 -0.06056916 -0.022555932 -0.055355515 0.046358712 -0.092970826
0.03218943 -0.052112505 -0.015501414 -0.08805709 -0.11045143 0.056867756 0.05237419 0.024601124
0.047056302 -0.059304316 0.04217001 -0.104395725 -0.008665659 -0.035239134 -0.02959951 -0.09706911
-0.061174866 -0.061146595 -0.0065905317 -0.05067676 -0.06913772 -0.057145942 -0.11163501 -0.093003444
0.043805882 0.012134224 -0.010632075 -0.04426635 -0.02107022 -0.03695242 -0.023346834 -0.008773671
-0.09608333 -0.062266007 -0.03352477 -0.11925972 0.021972813 0.057678074 -0.087243505 -0.077349044
-0.00760743 -0.02492108 -0.018474653 0.028525896 -0.033838145 -0.07627717 -0.0668995 -0.01398181
-0.050237797 -0.087225564 0.011562258 -0.098185524 -0.027873691 -0.10544668 -0.0008181557 -0.037792075
-0.10958085 -0.121839546 -0.04775674 -0.014262098 -0.05036662 0.0053029656 -0.047972582 -0.10653671
-0.052604236 -0.03466395 -0.11812734 -0.09720966 0.030855998 0.04204998 -0.017760145 -0.07749768
-0.011813222 -0.089594536 0.061198525 -0.028231308 -0.08409889 0.000995025 -0.020923384 -0.056667797
-0.11841323 -0.00023498386 0.009167008 -0.08781229 0.043030374 -0.034295514 -0.054676108 0.016459912
-0.0878575 -0.057261985 0.005392365 -0.09108817 -0.08259122 -0.056621052 -0.00825545 -0.04977237
-0.07062161 -0.03123768 -0.06777516 -0.04201455 -0.08241536 -0.07168893 -0.030123474 -0.021175176
-0.0075932667 -0.059392743 -0.029836409 -0.05913435 -0.026433565 -0.004461361 -0.06130945 -0.0633201

fc3.bias f4 [128]
00000000: 439a 16bd 5707 c9bd 20ec f1bc 5957 8ebe
00000010: 7570 83bd 87e0 dbbd 3d03 63bd f422 97bd
00000020: 66bd 58bd 4b32 b7be 280b ddbd 6424 b0bc
00000030: 5399 b5bd a185 99bc a075 9bbd 4f9d 0c3d
00000040: ce5e 903a 60c2 30be 1f76 633e d3d1 9abc
00000050: c97f 9a3e 410d 783e 5aab a6bd 2a24 3dbd
00000060: 2182 13be f12e 663e 3685 90bc 8557 3abe
00000070: 9a0e 48bd eac1 703e a158 043d 7c3c d6bd
00000080: a74a 5fbd 4c48 42be 6527 aabd 359e d7bc
00000090: f667 c5ba 78cf c13b 8685 06bb fa1f 263e
000000a0: 5007 993b e6fe 90be ea58 99be 4ec4 1d3d
000000b0: b524 8ebc 53ef 6f3e 239d c9bd 8e04 223c
000000c0: 76d4 b13d 7d06 2bbe 7124 09be e59f 5e3e
000000d0: 9947 99bd 653a 15be 66a2 e0bd 5c5c a13e
000000e0: 8d6a 74be 5c2e 37be c943 96bd a332 8abc
000000f0: 890e 66bd 5c96 b9bd 898b 1ebb 5f7f cf3d
00000100: c0e9 b43e c406 f6bd 3d60 e2bc 4358 fcbe
00000110: 9c6c 173d c2a0 a5bd 647b a8be 3d10 b2bb
00000120: 2c36 d03e 99d4 29bb e2c1 59ba fbab c23e
00000130: 42ef 33bd e1fe c8bc 0dda 41bd 4cfa 863b
00000140: ea53 8b3d f3c3 d1bd 02eb c7bd d00b 14bd
00000150: b386 573e dc9f eabd 43ba 1abe 17b8 9dbd
00000160: 81cf a7bc 4430 9cbd 4aa5 a7bd 87a2 53be
00000170: eed5 1f3e e583 b0be c082 84bd 867d 26bd
00000180: 4baa a2be 73fc 4b3e a273 2dbd 7467 37be
00000190: 8fff 9a3e 28c5 ae3e d0f2 443f ea3e e9bd
000001a0: 4825 dfbd bd21 a3bc 961b 0f3b 9761 5fbe
000001b0: a7b9 6f3e e710 9c3c 542b 02be 1f2f 1abb
000001c0: afd9 5dbd ffb2 c5bd 0c8f bcbd 7cec 093e
000001d0: 3ef5 efbc 2ac9 763e f13e 0f3e 33fc c8bb
000001e0: 7c12 53bc 4ece b43e 411e d3bc 34fb dfbd
000001f0: 9dfd e7bd 7241 85bd 644e 64bd e827 66be
-0.03676821 -0.09815853 -0.029531538 -0.27801016 -0.06417934 -0.107361846 -0.05542301 -0.07379714
-0.052915 -0.35780558 -0.107931435 -0.021501727 -0.08867135 -0.018740477 -0.075907946 0.03432971
0.0011014582 -0.17261648 0.22213028 -0.01889888 0.30175617 0.24223806 -0.081381515 -0.046177067
-0.14405109 0.22478844 -0.017641645 -0.18197449 -0.04884205 0.23511472 0.032311086 -0.10460755
-0.054514553 -0.18972892 -0.08308295 -0.026320556 -0.001506089 0.005914625 -0.0020526364 0.16223136
0.004670061 -0.28319472 -0.2995065 0.03851729 -0.017351488 0.23431139 -0.098444246 0.009888781
0.08683102 -0.16701694 -0.13392808 0.21740682 -0.07484359 -0.14573057 -0.10968475 0.31515777
-0.23868771 -0.17888778 -0.07337148 -0.016869849 -0.056166206 -0.09061882 -0.0024192056 0.10131716
0.35334587 -0.12013009 -0.02763378 -0.49286088 0.036968812 -0.08087303 -0.3290664 -0.0054340647
0.4066633 -0.0025914072 -0.0008306784 0.38021836 -0.043929346 -0.024535598 -0.04732709 0.004119193
0.06803115 -0.102424525 -0.09761621 -0.036144078 0.21047477 -0.11456272 -0.15110116 -0.07701128
-0.020484688 -0.076263934 -0.08185823 -0.20667468 0.15608951 -0.34475628 -0.06470251 -0.040647052
-0.31770548 0.1992052 -0.042346604 -0.17910558 0.302731 0.34134793 0.76933 -0.11388953
-0.10895783 -0.019913549 0.002183651 -0.21814571 0.23410664 0.019051028 -0.12711841 -0.0023526622
-0.054162677 -0.096532814 -0.092069715 0.13469118 -0.029291745 0.24100175 0.13988854 -0.00613358
-0.012882825 0.35313648 -0.025771262 -0.10936585 -0.1132767 -0.06506623 -0.05573882 -0.2247616

fc4.weight f4 [7, 128]
00000000: 2286 813d cea0 f3bd 799e bf3c 519f 87be
00000010: 9adb c5bd 6bf1 8d3d 71c0 8abc a747 31bc
00000020: a04c bb3d b5a1 603e 4a9b b9bd 65d0 3a3d
00000030: 3cf3 7abb 5715 d13c 8a84 f53b 6754 37c0
00000040: c348 05be 725d b93d 9c5b c6bf 16e5 5dbd
00000050: 1e45 4a3d b8f5 923c df31 bdbd 4efc 97bd
00000060: 87f3 e93c 343f cc3e 6837 983c 97a6 28be
00000070: e234 08be dbdc ccbe ee46 f23b d7c7 453c
00000080: ffbc d1bd da35 09be 8d97 8bba 8591 09be
00000090: fe34 09bd 65df d6bd 7fdb fbbd 2dd5 66bd
000000a0: d525 523c 7e33 613c 582c ac3e 5273 24c0
000000b0: dcd2 3ebd 7df0 22be 32d7 e33d b3f9 48bc
000000c0: 480c a23d 21d9 35bd 39ee 30be 4738 94bf
000000d0: b5e6 06be 0686 f63d 903b a73d f63d 2f3e
000000e0: 6c87 603e 823f f6bc 265e 0e3c 321b 7c3c
000000f0: b2ec 543d fe33 d63b ae15 0cbe ff49 be3e
00000100: 2b19 dbbc e0df 5cbd d165 88bd 8707 643d
00000110: 5b24 3dbc 996d fdbd 6ffb 6f3c 10b0 00be
00000120: 04ba a9bb 1546 f0bd 04e3 a4bd 3beb 6c3c
00000130: 9c9c f73d 80ee e8bb a7cf abbb 38db 883d
00000140: 9607 4640 50df 8ec0 f105 21be 077f 46bd
00000150: cd0a 4bbf 97e8 2cbd 10a1 1b3e 08e3 333e
00000160: 14c1 ab3d 6848 43be ef5f b03d 23b0 febc
00000170: 53d0 103f d1c6 953c af9c 4bbc 755f adbd
00000180: 896d 2040 97a9 323f 0206 9e3c 2756 79be
00000190: 126c ab3f 0d88 0e3d 4464 b93f 76aa 843d
000001a0: 2eaf 8abb 5689 063e e218 163f faf7 6b3e
000001b0: f370 1240 eabf 32bf 98d2 a4be c826 b43d
000001c0: 606d 973c 0df3 4fbe bda0 553d 7858 a03f
000001d0: 62a8 0ebe f2dc c13f 6626 dcbd f3c0 80bd
000001e0: baed 93bd e98f fa3f cb96 dbbb d855 9e3c
000001f0: 71b9 433e d90d de3d 276b 563d efcc 50be
00000200: a9ab fd3c 3991 183c 4a1d bb3c e161 353e
00000210: d1c0 003e 7ee2 db3b 5d96 9bbd fabe 8d3b
00000220: 7234 a13c eac8 22ba f564 0b3d bc38 663d
00000230: ff5f 113e 16dd 333d ae5b 223d 52fa 0dc0
00000240: 7530 813c a67d 6cbe 2a7f c53f f5d7 80bd
00000250: dde0 6c3f 4e5e 56bd 3307 c33d 3ff0 0e3d
00000260: fdc5 693b 9844 62be 80da 513d bee1 9ebd
00000270: 6028 873b ba88 3e3e ecb3 02bd 3fae 883c
00000280: 12cd 083d 1efb 4bbe 34be 11be 9f7e 043c
00000290: 5f92 9e3d b479 42bd 1d33 fe3d ab63 7cbd
000002a0: ef06 0ebd 5b6f 54bd c148 71be eb86 0fc0
000002b0: 03a8 0b3e 5fa8 103d 05aa 903d a33f c63c
000002c0: f04c 3bbe 2b49 93bc b31f 8bbe cc3a 1dbf
000002d0: e41d 64bc 7562 85bf c146 133d 7c2d 5cbe
000002e0: 4ec2 f43d 56ba 72bd 416d 833d 6ca7 ec3c
000002f0: eb54 4cbc 0820 edbd 6bb5 0d3d bfe5 003e
00000300: 4332 ffbc 78c8 7bbc 616a 0a3e d444 0a3e
00000310: cf90 e4bd ad0a d839 4514 a2ba 5263 c43c
00000320: aabf 87bd a102 8f3d 2ae7 b5bc eb4c 96bc
00000330: 28fa a8bd 0456 06bb dfeb 453d ea33 10bd
00000340: 14ef 6a40 fc1b 7fc0 871d 94bc d43b 22bd
00000350: d319 dfbe 84cb 823d ed6b 24be 69da 89bd
00000360: a2ce 0e3e 8d7f a53c 64a7 a73d a79e 56bf
00000370: fa91 943e 520c 45be 2b4f e83b 9de1 653d
00000380: fc20 1240 a84c bdbe 65d1 7bbd 6e1b aebd
00000390: e3dd e33e acb6 81bc 5b4e 7a3f 0f90 9dbb
000003a0: 0617 6a3c 0eb1 2b3d 8405 04bf 9e72 283e
000003b0: 81e1 0ac0 e3df 323e 0463 58bf a4a3 57bd
000003c0: 08b7 9abd 025d 0c3e 5303 c43c 9674 c23f
000003d0: d58a 0a3e 74ea a13f b090 ab3d 606e 673d
000003e0: fbca 853d 0420 a0bf a685 f23c 34e5 12bc
000003f0: 8135 233e 87bf 05bd f6a9 9e3c cb3b d2bd
0.06324412 -0.118959054 0.023390995 -0.26488736 -0.09661026 0.069308124 -0.016937466 -0.010820306
0.091454744 0.21936686 -0.09062822 0.045608897 -0.0038291952 0.025522871 0.0074926065 -2.8645265
-0.13016038 0.090510264 -1.5496707 -0.05417355 0.04938232 0.017939433 -0.09238028 -0.0742117
0.028558506 0.3989197 0.018581107 -0.16469799 -0.13301423 -0.4001225 0.0073937094 0.012071571
-0.10241126 -0.13399449 -0.0010650024 -0.13434418 -0.033497803 -0.10491828 -0.12297725 -0.056355644
0.012826403 0.013745187 0.33627582 -2.5695386 -0.04658781 -0.15912051 0.111250296 -0.012266564
0.07912499 -0.044396523 -0.17278375 -1.1579674 -0.13173945 0.12037282 0.081656575 0.1711348
0.2192666 -0.03005958 0.008689439 0.015387343 0.051983543 0.0065369597 -0.13680145 0.3716583
-0.0267454 -0.05392444 -0.06660045 0.05567124 -0.011544312 -0.1237442 0.014647349 -0.12567163
-0.0051796455 -0.11732117 -0.08051112 0.01446038 0.12090418 -0.0071085095 -0.00524326 0.06682438
3.094213 -4.46476 -0.15724923 -0.048460986 -0.79313356 -0.042214002 0.15198159 0.17567074
0.08386436 -0.1907059 0.08612048 -0.031089848 0.5656788 0.01828328 -0.012427493 -0.084654726
2.5066855 0.69790024 0.019289974 -0.24349271 1.3392355 0.034797717 1.4483724 0.06477825
-0.004232309 0.13138327 0.5863172 0.23043814 2.2881439 -0.6982409 -0.3219192 0.087964594
0.018484771 -0.2030756 0.052155245 1.2526999 -0.1393142 1.5145552 -0.107495114 -0.06286802
-0.07223077 1.9575168 -0.0067013255 0.019328043 0.19113709 0.10842485 0.052348282 -0.20390676
0.030965643 0.0093119675 0.022841115 0.17713119 0.12573554 0.0067103496 -0.07597039 0.0043257447
0.019678328 -0.0006209748 0.034031827 0.05620645 0.14196776 0.043912016 0.039638214 -2.2184033
0.015770176 -0.23094806 1.5429432 -0.062911905 0.92530614 -0.05233603 0.095228575 0.034897085
0.0035670989 -0.22096479 0.05123377 -0.07757901 0.004124686 0.18606845 -0.031909868 0.01668465
0.033398695 -0.19920012 -0.14232713 0.008086829 0.07742762 -0.047479346 0.12412093 -0.06161849
-0.03467458 -0.05186401 -0.2356291 -2.2426097 0.1363831 0.03531682 0.07063679 0.024200266
-0.18291068 -0.017979225 -0.27172622 -0.6141784 -0.013923142 -1.0420672 0.035956148 -0.21501726
0.11951123 -0.059259735 0.06417323 0.028888427 -0.012471418 -0.11578375 0.03459684 0.12587641
-0.031151896 -0.01536762 0.13517143 0.13502818 -0.111604325 0.00041206685 -0.001236566 0.02397314
-0.06628354 0.06982923 -0.022204954 -0.018347224 -0.082508385 -0.0020498047 0.048320647 -0.03520576
3.6708422 -3.986083 -0.018080486 -0.039607838 -0.4357439 0.06386474 -0.16056795 -0.067311116
0.13946012 0.020202423 0.08186224 -0.83835834 0.2901762 -0.19242981 0.0070895157 0.056123365
2.2832632 -0.36972547 -0.06147899 -0.085013255 0.44505224 -0.015834175 0.9777581 -0.004808433
0.014287716 0.0419169 -0.51570916 0.16449973 -2.1700137 0.17468219 -0.84526086 -0.052646294
-0.07554442 0.13707355 0.023927366 1.5191829 0.13529523 1.2649674 0.08377206 0.056501746
0.06532856 -1.250977 0.029604744 -0.008965779 0.15938379 -0.032653358 0.019368153 -0.10265311

fc4.bias f4 [7]
00000000: 8eb9 12be b78b 853d a3be a5be 2bbd 38bf
00000010: 738b ec3e c594 bf3e 679c 30bf
-0.14328596 0.06520789 -0.32372007 -0.7216365 0.4620014 0.3741819 -0.6898865
